torch_to_tf/torch_models/model_round279.model (torch, 493063 bytes, 10 tensors)

conv1.weight f4 [32, 3, 3, 3]
00000000: cf3a c13d 9d01 52bd 20b1 a4bc e38a d03d
00000010: 500b ffbd db14 3fbd 082a 9a3c 278b 233c
00000020: 0bb9 c53d d3e6 993d daa2 1dbd 40b7 743d
00000030: de05 1c3c a9bb a1bd 8f07 8a3c cdbc 153d
00000040: 0d87 45bc 1005 c5bb a94e 35bd 25e0 d93d
00000050: 05f0 cfbd 7342 7ebc 22cc 703c ab4e f4bc
00000060: 09ad b4bc 33fa 22bd 3a1e 163c 1f57 c13b
00000070: 4cab b93c 6094 d939 5820 a0bd 478e bbbd
00000080: 049c 9d3d fbe3 dcbc 2261 d1bb af9b 97bc
00000090: 68b5 8f3d bd23 d53d cb3b 113d 1e21 343c
000000a0: 55fb debc 7ffa f13b ad23 4d3c 073d 313d
000000b0: 22f9 adbc 9b2b 193d 93a6 383c 47ce 663d
000000c0: 0a6d eabb 4f50 a4bd 52a9 87bd 016a 81bd
000000d0: cb65 7cbb 5ad9 19bc 4598 38bd 772f a23d
000000e0: 6b04 e23d bff9 c3bd 2a6a d33a 3312 5cbd
000000f0: f73d 673d 87ab 0eba 0b0e d9bc fc67 c53c
00000100: d90c 38bd 0167 293d 82e1 39bc 7bf2 d83d
00000110: 2b2f 3fbd 13d5 7a3c 1c49 393d 835d 813c
00000120: c3df 72bd 58f5 0dbe 3a6b cf3c c3ed 06bb
00000130: 3a81 f03d bc78 17bd b339 44bd 9851 323d
00000140: 18f3 a3bd 33f0 5f3d 5f32 873d 3b59 2fbc
00000150: a88a 133d 77c3 53bc e7ca 9f3c 3232 e83d
00000160: 03ba 01bd dac2 68bd 5d71 87bd b812 373d
00000170: d03b 78bc 1673 8fbb af8e bc3d 33f3 c9bd
00000180: 909c 84bd 8b60 a4bd 2bc4 1cbd 9d74 89bc
00000190: dd1b e9bc 19db 203d 93a4 553d 5848 ee3b
000001a0: ef8d 85bd d870 df3c 9589 dabc bb3d c43d
000001b0: d540 c93c 020d 853d ca57 063d 9f57 463d
000001c0: 4a1b fa3c 4a79 023c e7fc cd3c 739b 6d3d
000001d0: da2d 603d 0f96 c9bb 4f75 5cbd af41 babd
000001e0: aab7 4fbd f0f8 b9bc 3522 ec3b 3a58 31bd
000001f0: a4b7 91bd de48 33bd 9a99 d2bc edce 3ebc
00000200: 8642 a93d 1b44 a03a e3f5 5fbc b89d 3cbc
00000210: 2792 e73c 059e aabd ace7 333d 933e 833c
00000220: 2855 bfbb b71c 2ebd ef70 0a3d 5087 843d
00000230: 394e 9e3d 0eaf 213c 2589 0a3d c7c0 77bb
00000240: 0e8b 3ebd 6e63 483d ebc0 d43b 236a e1bd
00000250: 32e9 87ba 2862 b3bd 5c6b 8cbc e2c3 62bd
00000260: 5f93 afbd fd19 4abc 8d16 9dbb 2fd2 b7bc
00000270: 1054 eb3b efd1 af3d c055 d4bc c0c7 babd
00000280: 9839 c93c dbd6 c23d 0da0 573d 136f 10bd
00000290: da25 bb3c 1381 9f3b 6888 373d 3310 873d
000002a0: 3bc2 5abd f7df 793b 3dfb 9f3d df29 3fbd
000002b0: 1a61 8ebd fb75 afbd bb4a 5a3a ff68 283d
000002c0: 1e3e 9abc a7f5 6cbd 2725 88bd d71d d2b9
000002d0: 4d07 55bd ff10 e4bd f186 1abc ddec f9bc
000002e0: 2593 5dbd 7be8 093d c87e 8ebd f8ec 0bbd
000002f0: 87ef 17bc 1086 d13d 4a3b efbd a52b debc
00000300: c0c9 74bd d3eb 68bd 3ded 8c3c 529d 4ebc
00000310: e46a 9f3c df9a 2c3c fe36 a0bd ffd5 0ebc
00000320: 0f47 173d 4b42 603c 0025 d9bc c8e6 133d
00000330: 9d33 7fbb c217 ebbc 1064 7fbd 8da9 c03d
00000340: 1d7d a2bd 437a 843c 3c1b 263d 773a 033e
00000350: e309 73bd 5032 663d 95db f43b 8d7b b9b9
00000360: bbf3 66bd be40 acbc 80e6 df3c c05c 6fbd
00000370: 9378 323d 9933 afbd 6fc0 a53c 0f14 1b3d
00000380: 8519 d23c d219 073c a30e 043b d231 3dbd
00000390: 079d cb3c ea89 3dbc 58e6 bcbd 731a 8ebd
000003a0: daf4 37bd fa48 9b3d 5b71 9bbd f146 b13c
000003b0: ed76 0a3c 4a18 44bb ef9b 25bd 82e8 873c
000003c0: 6370 1bbb b3ea 253d cd46 293d 60bc c7bd
000003d0: 6869 7b3c 9346 2dbd bd05 7fbb 3bf0 553d
000003e0: 0089 47bc 8d2b 02bd ef64 3e3c a34b 6b3c
000003f0: 2870 c9bd 2d18 05bd b059 6d3c bb78 fc3c
0.09435045 -0.05127107 -0.020103991 0.101827405 -0.124533296 -0.04665075 0.01881887 0.009981907
0.09654435 0.07514729 -0.038485385 0.059745073 0.009522883 -0.078971215 0.016849307 0.036557008
-0.012056124 -0.0060125664 -0.04426447 0.10638455 -0.10153202 -0.015518772 0.014697107 -0.029822668
-0.022055166 -0.03978939 0.00916248 0.005900278 0.022664689 0.00041500013 -0.07818669 -0.091579966
0.07695773 -0.026964178 -0.006389753 -0.018506853 0.07017022 0.10407207 0.035457414 0.010994224
-0.027219454 0.007384598 0.012520713 0.04327109 -0.02123696 0.0373951 0.011270183 0.056349065
-0.0071541118 -0.0802313 -0.06624092 -0.06319047 -0.0038512822 -0.0093902 -0.04506709 0.079192095
0.11035999 -0.0956912 0.0016129662 -0.053728294 0.05645558 -0.00054424297 -0.026495954 0.024097435
-0.044934127 0.041357998 -0.011345269 0.105931245 -0.046675842 0.01530959 0.04523574 0.01579166
-0.059295427 -0.13863122 0.025319684 -0.0020588494 0.11743398 -0.036980376 -0.04790659 0.043534845
-0.08005351 0.05467243 0.066014044 -0.010702427 0.036020905 -0.01292502 0.019505931 0.11337699
-0.031671535 -0.05682645 -0.06613419 0.044695586 -0.015150979 -0.004377733 0.09206902 -0.0986084
-0.064751744 -0.080262266 -0.038273018 -0.016779238 -0.028455669 0.039271448 0.052158903 0.0072718076
-0.06521212 0.027275488 -0.026676932 0.09582087 0.024567047 0.06496622 0.032798566 0.048423406
0.03053059 0.007963488 0.025145007 0.058009576 0.054731227 -0.0061519216 -0.05382281 -0.090945594
-0.050712265 -0.02270171 0.0072062262 -0.04329703 -0.07115105 -0.043770663 -0.025708009 -0.011646015
0.082646415 0.0012227328 -0.013669464 -0.011512212 0.028267933 -0.08330921 0.04392211 0.016021049
-0.005839009 -0.042507853 0.033799108 0.06471121 0.077297635 0.009868396 0.033822197 -0.0037804113
-0.04651933 0.04892295 0.006492724 -0.11006572 -0.001036918 -0.08758956 -0.017141037 -0.05536259
-0.08573031 -0.012335298 -0.004793948 -0.02243909 0.007181652 0.085849635 -0.025919795 -0.091201305
0.024563596 0.09513637 0.05264287 -0.03526218 0.022845197 0.004867682 0.04480782 0.06594887
-0.05340789 0.0038127878 0.07811592 -0.04667079 -0.069521144 -0.08567425 0.0008327176 0.041115757
-0.018828448 -0.05785146 -0.06647711 -0.00040076554 -0.052008916 -0.11136054 -0.009431587 -0.030508453
-0.054095406 0.033668976 -0.06957775 -0.034161538 -0.009273416 0.102306485 -0.1168123 -0.02712042
-0.059762716 -0.056865525 0.017202968 -0.01261075 0.01946015 0.010534971 -0.07822989 -0.008718013
0.036933 0.0136876805 -0.0265069 0.036108762 -0.0038940676 -0.028697852 -0.062351286 0.09407339
-0.0793402 0.01617158 0.040553316 0.12815271 -0.0593356 0.056200325 0.0074724653 -0.00035378002
-0.056384783 -0.021026965 0.02733159 -0.058438063 0.04357202 -0.08554763 0.020233361 0.037860926
0.025646934 0.008245902 0.0020150326 -0.04619009 0.02485515 -0.011568526 -0.09223622 -0.069386385
-0.044911243 0.075822785 -0.0758998 0.021640273 0.008451206 -0.0029921704 -0.040431913 0.01659036
-0.002371811 0.04050703 0.041327287 -0.097527266 0.015344955 -0.042303633 -0.0038913332 0.052231055
-0.012178659 -0.031779815 0.011620744 0.014361295 -0.09835845 -0.03249376 0.014486715 0.030819288

conv1.bias f4 [32]
00000000: 00fd 983d 2fca eebd 59ea 49bd 0cca aebc
00000010: 8078 30bb 088f 2a3d 82c1 b1bc 1d20 bc3d
00000020: f25c 0a3d cdd3 91bd 50a7 573d 422a 0ebd
00000030: a261 f1bd c9a0 133c d3ac 673b 8345 fe3a
00000040: 5370 a43c 9a85 723c bbb3 163d 7a0a 803d
00000050: de5e 05bd 3348 453b 20cf 10bd 4bb0 4dbd
00000060: 7e83 a1bd e864 9a3c cbdc 45bc 8fc9 b6bc
00000070: a273 053d df26 053d 739e 463c 9ded 24be
0.07470131 -0.11659657 -0.049295757 -0.021336578 -0.0026927292 0.04164031 -0.021698717 0.091858126
0.033780046 -0.07120476 0.052649796 -0.03470827 -0.117862 0.009010502 0.0035350814 0.0019399378
0.020073092 0.014802361 0.036792498 0.06251998 -0.032561176 0.0030102849 -0.03535378 -0.050216954
-0.07886408 0.018846944 -0.012076567 -0.022312908 0.03258098 0.032507773 0.012122738 -0.16106267

conv2.weight f4 [64, 32, 3, 3]
00000000: 9d2d 52bc 60eb e6bb 6b4e b13c 0a2f 29bb
00000010: 1b88 27bc 5d48 143d 7f98 753c 1288 91bc
00000020: 1d7c e8bc 4359 3f3c 7d4d 1f3c 0797 b7bc
00000030: 5f54 89bc fcf0 123c fb6d 7abb 4f68 543c
00000040: 11d7 8d3c daf8 10bd 9fcf 0f3c 57f8 773c
00000050: 3d8a 05bd 7367 6bbc 2fd2 1bbd 354c 103a
00000060: ed5e 843a 291d b6bb 854b ebbc 658b 5b3c
00000070: 3771 01bc ef5f 2ebc ef8b ab3c a904 3fbc
00000080: e57a dbbb 6739 79bc 96e1 8e3a 0fa7 4d3c
00000090: 04a2 0bbd 0d3a d6bc 0a28 69bb 4e12 09bc
000000a0: 5de2 363c 6ab6 343c 9ab7 6d3c 9340 573c
000000b0: 8f76 223c e5ea db3b 80d3 afbb e9c5 833b
000000c0: fd98 e2ba f3fa 80bc 6828 0ebb f80d 9ebc
000000d0: 4b1f 89bc 55e7 b73b b207 bdbc d5b7 873b
000000e0: f595 733b fb59 dbbb 5b99 4b3b d101 05bc
000000f0: 735b d0bb 8775 f73b 953e 983c bce1 92bc
00000100: acc5 19bc b579 fa3c 23bd 3abc bd8a 01bc
00000110: 6c9e 0f3c 1001 9b3b 3722 2abc 4d3a 913a
00000120: 3e1d 253b 13f7 e0bc b361 a53a 80f4 07bc
00000130: 970e 98ba bc99 c33b 41de 8e3b 5a0d d5bc
00000140: a86e 06bd a339 223c ba71 6fbb 286d 783c
00000150: 50b5 35bc 2cb7 b939 38b8 593c 3dbc 743c
00000160: 4823 9f3c ef8c 17bd ef67 32ba c2ef 81bc
00000170: b7f9 0d3c ca36 e6bb f27e 02bc c383 27bc
00000180: d16a 033c f4d5 2cbc 3aa3 ea3c 0b78 a4bc
00000190: 572c 9d3a 275b 82bc 6339 acbc 1ddc f4bc
000001a0: d74b 523b 1c5e a53b ae51 32bc 733a 103d
000001b0: 8b92 84bc a3fa 72bc 8252 d4bc fb24 813c
000001c0: b86a 64bc 08e7 1d3c db54 3c3b 0b76 c4bc
000001d0: a774 a43c dfc2 003c 98fa 2f3c 5b1b 80bc
000001e0: ad7c d33c e505 023c 2331 e3bc 0bc0 df3a
000001f0: 13aa 2a3c ed36 baba cfdb 3ebc 07bb 4ebc
00000200: b735 c7bc 4a34 65bc fcc6 babb 40f6 cfbb
00000210: 0fae b3bc eda6 213c 8fce 01bc 072f 0b3a
00000220: af66 033c 2a16 afbc 697a cabc 0a84 f3bb
00000230: ec0e 10bc 9d21 133c 42f5 e8ba ad49 12bc
00000240: 4e0a b8bc 44e9 c7bc 6a79 92bb 9d2d 8bbc
00000250: 334a 6bbc 3043 eeba da89 efbc 92af b5bc
00000260: 3825 713c 514a 3fbb 1525 d0bc 7dff 773b
00000270: bd89 b9bc 1d8f d8bb b254 98ba 111a 22bc
00000280: aaa0 36bc 4f15 3dbb fb2d 8ebb dd45 6cbc
00000290: cd08 7abc 4973 c7bc 2a43 313b 785f ce3c
000002a0: 7fe4 42bb 40c6 99bb 666a a8bc 6adb f0b7
000002b0: 787c 49bc 0578 ef3a 9dbd 493c d5c8 d1bb
000002c0: 5bbb 86bc b09e 84bc 3f12 b23b eccd 88bb
000002d0: a07e f7bb 7dba 0cbc 83cd 1d3c 8261 abbc
000002e0: a86b b13a 8ced 453c 464d 04bc 3384 593c
000002f0: ee8e 93bc 701a a03c a1a2 aeba db7f 90bb
00000300: c213 4d3c 5d5f a3bc 5b6e 373c e243 22bb
00000310: fffb 89bb f26b 49bc 7f3b b7bb ed6f 623c
00000320: 4409 b83c 347f 953c b24c 3e3c cfde a5bb
00000330: a3de 56bc d321 1a3b b4be cc3c 37d7 3e3c
00000340: 9434 30bc be8d 343c e7e5 da3a 5ba8 d4bc
00000350: 93c1 d83b 18f1 3abc 2d78 c5bb 97fd 93bb
00000360: afaa 27bc 8842 353b f64d 183c 2544 483c
00000370: ea26 cdbc 4e79 c1bc 6bc7 2dbc 930f c33a
00000380: 9f72 9a3c 573a 91bc db62 c53b 276f a6bc
00000390: fda6 81bc 1fbe 1e3c 246e aebb ebab 06bd
000003a0: 6a82 8fbb ebc1 b73c 5192 abbc e975 183c
000003b0: fd10 663a 35f6 d23b c3a7 3bbb 0c7b bc3c
000003c0: efe5 dd3b 800b 613b 0d56 2fbb a2b9 be3b
000003d0: e5f3 653c 89c1 89b8 2301 a5bc 73ac 1ebc
000003e0: cb9f ab3b a0fd d3bc 8b12 d7bb 153f 1d3c
000003f0: ff0e 47bb 6ac7 4abc df82 19bb 6375 be3b
-0.012828258 -0.007047102 0.021643838 -0.002581539 -0.010225321 0.036201824 0.014989971 -0.017765079
-0.028379494 0.0116789965 0.0097230645 -0.022410883 -0.016763864 0.008968588 -0.0038212526 0.012964322
0.017314466 -0.035393573 0.008777528 0.015134892 -0.032602537 -0.014367926 -0.038042244 0.000550452
0.0010099091 -0.0055576754 -0.028722534 0.013399933 -0.007900528 -0.01064299 0.020940749 -0.011658826
-0.006698 -0.01521144 0.001090097 0.012552037 -0.034090057 -0.026150728 -0.0035576844 -0.008366181
0.011162368 0.011029819 0.014509106 0.013137954 0.009915962 0.006711351 -0.005365789 0.0040213955
-0.0017288026 -0.015744662 -0.0021691564 -0.01929377 -0.016738554 0.0056122937 -0.023074958 0.0041417875
0.0037168239 -0.006694076 0.0031066749 -0.008118109 -0.006358558 0.007551852 0.018584529 -0.017929904
-0.009385508 0.030575613 -0.011397633 -0.007906613 0.008765798 0.0047303513 -0.010384134 0.0011079997
0.0025194432 -0.027461564 0.0012617618 -0.008298039 -0.0011601028 0.0059692543 0.004359991 -0.026007343
-0.032820374 0.009901437 -0.0036536292 0.015162744 -0.011090592 0.00035422423 0.01328855 0.014937458
0.019426003 -0.03699964 -0.00068056484 -0.015861396 0.008665494 -0.0070255743 -0.007964836 -0.010224286
0.0080210725 -0.010549057 0.028642286 -0.020076772 0.0011991364 -0.015912605 -0.021023458 -0.029890114
0.003208866 0.005046619 -0.010883732 0.03521199 -0.016183158 -0.014830264 -0.025918249 0.015764704
-0.013941459 0.009637602 0.0028737101 -0.023982069 0.020075155 0.007858961 0.010740899 -0.015638044
0.025816286 0.007935976 -0.027733391 0.0017070783 0.010416525 -0.0014207043 -0.011649086 -0.012617833
-0.024317605 -0.013989517 -0.0056999903 -0.006346494 -0.021933584 0.009866458 -0.007922783 0.0005309437
0.008020087 -0.021372873 -0.024716573 -0.007431512 -0.00879262 0.008980182 -0.0017773288 -0.0089286985
-0.022465851 -0.024403222 -0.00447004 -0.016989524 -0.014360952 -0.0018177982 -0.029240537 -0.022178445
0.014718346 -0.0029188583 -0.025408307 0.0037841492 -0.022648687 -0.0066088573 -0.0011621921 -0.00989391
-0.011146704 -0.0028851812 -0.0043389774 -0.014420954 -0.015260887 -0.024346964 0.002704809 0.025192007
-0.0029738245 -0.0046928227 -0.020558547 -2.8712402e-05 -0.012297742 0.0018270022 0.012313274 -0.006402115
-0.01644676 -0.01618895 0.005434304 -0.0041749384 -0.0075529367 -0.008589384 0.009631517 -0.020920519
0.0013536112 0.012080561 -0.008075064 0.013276148 -0.01801249 0.019543856 -0.0013323614 -0.004409773
0.012516918 -0.019942934 0.011195744 -0.00247597 -0.0042109485 -0.012293803 -0.0055918093 0.0138206305
0.022465356 0.018249132 0.011614965 -0.0050619612 -0.013114604 0.0023518696 0.024993278 0.011647991
-0.010754723 0.011020122 0.0016700596 -0.025959184 0.0066148727 -0.01141002 -0.006026289 -0.0045163142
-0.010233565 0.0027658064 0.009295931 0.012223278 -0.02504297 -0.023617413 -0.010606627 0.0014881961
0.018853484 -0.017728014 0.0060237474 -0.020316673 -0.015826697 0.009688883 -0.0053231884 -0.032878798
-0.0043795602 0.022431334 -0.020943793 0.009305456 0.0008776335 0.0064380416 -0.002863393 0.023007892
0.006771795 0.003433913 -0.002675417 0.005820469 0.0140352 -6.568718e-05 -0.020142144 -0.00968467
0.0052375547 -0.025877774 -0.00656349 0.009597559 -0.0030373929 -0.012376646 -0.0023423953 0.0058123334

conv2.bias f4 [64]
00000000: 417d 3b3c 159c d9bc a145 a3bb ebce dabc
00000010: 6525 8dbc 7b0f 993b d2a3 a03b c827 12bd
00000020: 082b 45bd d316 08bd de13 babc 41de a93c
00000030: 94f6 063c ff3d 0abb 4007 ca3c 257d 98bc
00000040: bff6 1d3c e9a6 98bc fd7e b63b 4795 173c
00000050: b0cd 123c 2b8b 5abc b862 013c 7acc 14bb
00000060: c06d 313c 00f2 b5bc 77b8 5abb 31ed 0d3c
00000070: 2089 be3c 776a 22bd 53af 19bd f728 aa3c
00000080: d707 47bc bb93 e83c 155c 4cbc eea2 2ebc
00000090: 8de7 a43a daff 743c 07c7 4abd 9e31 053d
000000a0: 6a94 06bd 0ddc 193d eaee f0bc a897 26bc
000000b0: 17af 84bc 4b9e bf3b 1cd6 4abb f25d 2a3d
000000c0: 4aac 84bc 62b0 6abc 0088 843c 2000 19bc
000000d0: af6b 5a3c 7fe3 ff3b fbba f13c ba61 16bd
000000e0: 55dd efbc b36c c63b 00e1 a83c c5d9 c9bc
000000f0: f76a cc3c f3a4 703d 02dd 87bc f70e 01bb
0.011443437 -0.026563684 -0.0049826656 -0.026709994 -0.017229745 0.004671035 0.0049023414 -0.03568247
-0.04813674 -0.033224892 -0.022714552 0.020735862 0.0082375 -0.0021094081 0.02466166 -0.018614361
0.009641348 -0.018634276 0.0055693374 0.009251899 0.0089601725 -0.013338844 0.007897072 -0.0022704885
0.010829389 -0.022210121 -0.003337411 0.008662508 0.023258746 -0.039652314 -0.037520718 0.020771487
-0.012147865 0.028390756 -0.012473126 -0.010658963 0.0012581215 0.014953578 -0.049506214 0.03251802
-0.032856382 0.037563372 -0.029410798 -0.010167994 -0.01619677 0.0058477274 -0.0030950373 0.0415935
-0.016195435 -0.0143242795 0.016178131 -0.009338409 0.013331338 0.007809102 0.029508105 -0.036714293
-0.029280344 0.0060554384 0.0206151 -0.024639973 0.024953349 0.058751058 -0.016584877 -0.0019692758

conv3.weight f4 [64, 64, 3, 3]
00000000: 33ca f7bb 8189 0abc 20e8 053c 7f95 f63b
00000010: 08bd 7dbc 72fb 00bc 27f7 34bc bb6a a3bb
00000020: 84e3 3a3c f385 73bc 1dd8 37ba 02f1 e339
00000030: 282a f9bb 3862 75bc ae80 323c ad13 a0b8
00000040: 0f58 e4bc e250 1fbc f6d4 10bc dcce a5bb
00000050: 0484 b3bc 5800 bdb9 68be ac3c be80 863c
00000060: 6087 533c 430e 5fbc 8b4e 73bb cf11 8bbb
00000070: 3d74 22bb 30c2 893b 952f eb3b faa6 67bb
00000080: 576a 493a 3de2 09bc 758b ed3a 0e77 4a3c
00000090: beaf ae3b c9cb 9c3b ec96 04bc 8419 43bc
000000a0: 2a9f 293b 43f2 e9ba a313 183c 6fdd 053c
000000b0: c34d 893c 5795 02bc 973e 363b cd5c fbba
000000c0: 4172 81bc 5bc3 b8bc b64f a6bb 7f3e e9bb
000000d0: a0b4 6f3b bf55 80bb 270e 09bc e432 103c
000000e0: 6d2c 133c 2330 32bc 233b 613c eb0c 5cbc
000000f0: 92e2 5abb a74c aa3b ad08 b0bc ab16 a9bc
00000100: 8fab 61bc 3af2 17bc 73c1 b6bc dfa4 87bb
00000110: 0f3c 83bc 4e95 98bc c081 173a 5dca 53bc
00000120: 1721 313b 1722 b1bc 2287 41bb 6fb3 f13b
00000130: 7da5 35bb 21fc 2dba 2663 9fbb a926 833c
00000140: 30b0 883b 9ebf 0ebc 7b9d a8bc d5ca 80bc
00000150: 0b01 37bc 2336 2dba b98c 07bc 5286 52bb
00000160: 9c8a c8ba 05b0 c9bc 33d1 813b 8156 a4bc
00000170: e6db a6ba e00f cabb 7433 af3b e45a 88bc
00000180: 79f2 0abc e490 b3bc 65ee b43b f084 80bc
00000190: 2811 e3bc 474a 4ebc d80e 4cbc 4d19 c2bb
000001a0: 6e8f 893b 5d38 4fbc 6a96 893c 601c fc39
000001b0: 8346 a43b 3fdc 5b3c 019f 9f3c ab6e 0cbc
000001c0: fd99 eabc a31e 7cbb da4d 6e3c 2f0d 1a3b
000001d0: 98a4 68bc 54f9 0bbd 90f7 373c 68bb 023c
000001e0: facf 413b 7f24 84bb 9206 8a39 13f4 54bb
000001f0: 9925 bf3c ad85 66ba f5b0 37bc ad1d c1ba
00000200: 2a06 41bc cb95 783a e972 c2bb ec39 c8bb
00000210: 82a9 f23b f8ff d7bb b9c7 aa3c 90f4 2ebb
00000220: b361 96bb 63f9 35bc 518c 01bd 5dc4 f3bb
00000230: d775 453b f70e 01bd 7900 163b 1d28 83bb
00000240: 896c 973c dd21 cd3b cb7c 85bc 139d cebb
00000250: b3b7 41bc e428 2cbc 9ee7 4b3c ae79 013c
00000260: 8d58 d5bc d990 18bc 138d 3c3c 8294 e63b
00000270: 2e72 99bb c5fe d6ba 8348 4b3c 4ef3 2ebb
00000280: 1792 9cbb 9f7f 293c 544b 2f3c f060 79bb
00000290: c866 67bc 876e 47bc 4b38 003b 83a3 b63a
000002a0: 77c5 3b3c 856d 69bb d7d0 b1bb a7c1 0d3c
000002b0: a7d0 f9bb 9d4e d03b 788f 7fbc f7fe 0e3c
000002c0: 05e6 2b3d a5bb 3d3c db9c 4d3c 7af3 ddbb
000002d0: 13a9 72bc 5566 3fbc ed4f 6a3a 9f4f 1cba
000002e0: f492 c8bc 5f86 0cbc 7ddd 64bb a7da 0e3b
000002f0: 61a0 c6bb b391 34bc cf5e 8bbb a769 ebbb
00000300: 30ab b8bb 637b 943b 1438 90bc 07e9 493c
00000310: 2508 583c a32d d2ba 2b99 1cbc 2f78 3e3b
00000320: 4508 8d3c e34f a73a 7b98 343b d603 b83b
00000330: 67d6 5a3c 2d5c d9b9 7771 003c 73f0 503b
00000340: 70a5 683b a5d3 d43b cfa9 f4bc f72e ef3a
00000350: 9b89 84bb 90a2 9eba 81ea 25bc 5ab3 f93a
00000360: cf23 4e3c b043 3cbc b368 7c3c da53 7d3c
00000370: 707f e9bb dec2 b33b c48f 1e3c 400a b0bb
00000380: 2235 b339 7fd1 5c3c 9745 113b b248 323c
00000390: 63c9 c23b a169 1bbc 136c 513b 35bd 2e3a
000003a0: 4fc8 9cbb 8b88 92bc 85c2 683b 58fc 113c
000003b0: 7e07 2cbc 87ca 6a3c 6b2f e4bb 8197 8fbc
000003c0: b869 94bb 7511 5cbc 35e6 743c 551c 5bbc
000003d0: 5355 4f3c 0378 6fbc 1f09 263c 452b 85bc
000003e0: 3557 9abc 9b9e d33b 3d45 2dbb 9f9a 503b
000003f0: bdc0 edbb 43ab 923c 05b8 a3bc 75fb 4c3c
-0.007561946 -0.008455635 0.008173019 0.0075251455 -0.015486963 -0.007872449 -0.011045254 -0.0049870885
0.011406783 -0.014863479 -0.00070130994 0.0004347638 -0.0076039024 -0.01497703 0.010894937 -7.6330594e-05
-0.02787402 -0.009723874 -0.008839836 -0.00506006 -0.021913536 -0.00036049145 0.021086887 0.016418811
0.012910694 -0.01361424 -0.0037125673 -0.0042440663 -0.0024788522 0.004204057 0.007177303 -0.0035347329
0.00076833874 -0.008415756 0.0018123226 0.012357486 0.0053310087 0.0047850353 -0.008092623 -0.011907939
0.0025882223 -0.0017848689 0.0092820255 0.00817047 0.016760712 -0.007970176 0.0027808303 -0.0019177437
-0.01580155 -0.02255409 -0.0050754203 -0.007118046 0.0036576167 -0.0039164717 -0.008365191 0.008801196
0.00898276 -0.0108757345 0.013747009 -0.013430814 -0.0033399207 0.005197126 -0.021488512 -0.020640692
-0.013773813 -0.00927406 -0.02230904 -0.004139527 -0.01601985 -0.018625882 0.0005779527 -0.012926665
0.002702778 -0.0216227 -0.0029530008 0.0073761265 -0.0027717047 -0.00066369964 -0.0048641143 0.016009646
0.004171394 -0.008712677 -0.020582905 -0.015721718 -0.011169682 -0.0006607493 -0.008273297 -0.0032123518
-0.0015300098 -0.024620065 0.003961706 -0.02006078 -0.001273033 -0.006166443 0.00534671 -0.016644903
-0.008480662 -0.021919675 0.005521583 -0.01568839 -0.027718142 -0.012590951 -0.012454711 -0.0059234262
0.0041980064 -0.012647715 0.016795356 0.00048086327 0.0050132885 0.01341921 0.019484999 -0.008571307
-0.02863788 -0.003847041 0.014544928 0.0023506393 -0.014199398 -0.034173325 0.011228457 0.007979251
0.0029573427 -0.004032671 0.00026326306 -0.0032494112 0.023333358 -0.0008793723 -0.011211623 -0.0014733576
-0.011781255 0.000948277 -0.0059341085 -0.0061104205 0.007405461 -0.006591793 0.020847188 -0.0026696064
-0.0045892834 -0.011106822 -0.031627957 -0.00743918 0.0030130052 -0.031508412 0.0022888465 -0.0040025846
0.01848437 0.0062601403 -0.016294857 -0.006305346 -0.011823582 -0.010507796 0.012445359 0.007902546
-0.0260432 -0.009311878 0.011508244 0.0070367465 -0.0046828007 -0.0016402832 0.012407425 -0.0026695314
-0.0047781575 0.010345369 0.010699112 -0.0038052164 -0.014123626 -0.012172348 0.0019564803 0.0013934228
0.0114606535 -0.0035618257 -0.005426507 0.008652127 -0.0076237503 0.0063570277 -0.01559817 0.008727781
0.04196741 0.0115803825 0.012549604 -0.0067734094 -0.014810818 -0.011682113 0.00089383015 -0.0005962792
-0.024484135 -0.008576958 -0.0034922056 0.0021797807 -0.006061599 -0.0110210655 -0.0042532454 -0.0071842256
-0.0056356415 0.0045313104 -0.017604865 0.012323624 0.013185536 -0.0016035329 -0.009558002 0.0029063334
0.017215857 0.0012764897 0.0027556706 0.0056156917 0.013356782 -0.00041458142 0.007839552 0.00318816
0.0035499 0.0064949566 -0.029866127 0.001824825 -0.004044724 -0.0012102891 -0.010126711 0.0019050643
0.01258178 -0.011490747 0.015405822 0.015461886 -0.0071257874 0.0054858765 0.009677831 -0.0053723156
0.00034181128 0.013477682 0.0022166723 0.01088159 0.0059444173 -0.009485633 0.0031955286 0.0006665767
-0.004784621 -0.017887374 0.0035516333 0.008910261 -0.010499833 0.014330513 -0.0069636605 -0.017528297
-0.004529204 -0.013431896 0.014947464 -0.013373454 0.01265462 -0.014616015 0.010134011 -0.016255984
-0.018840412 0.006458116 -0.0026438974 0.0031830443 -0.007255642 0.01790393 -0.019985208 0.012511124

conv3.bias f4 [64]
00000000: 2bf3 043c d7a2 28bd e39b 00bc 8dc3 ea3b
00000010: 2d64 b9bb 5812 593b 3f4b e73a 635f 2b3c
00000020: 8db6 e73c 07f6 8ebb b7cb dcbc ea68 da3a
00000030: c369 72bb 37b0 b6bc 2a54 4dbb 7496 033a
00000040: a740 0c3d 8bdd 863d 18c0 acb9 da03 43bc
00000050: f7cc bb3b 1e89 883a 9f8e 2d3d 6aea 51bb
00000060: 7091 6dbc b913 353d 43ab debb e85b b03b
00000070: b897 2ebc 981b 72bb 388b 71bc 504e 1ebc
00000080: 3717 a7bc 3389 c53b 6449 40bb 646f 1fbc
00000090: 0277 8ebb e1da 85bc 0a25 27bc f544 793c
000000a0: 1dbf 803c 2215 e5bb ef47 e7bc 3817 e2bb
000000b0: b328 8dba e72b 4d3d fbe3 d8bb 0f4f a33c
000000c0: df0c db3b 2fa4 123d 6278 b43b 5f90 94bb
000000d0: 82f1 6e3b e3af 77bd c2df 38bc 9504 0ebb
000000e0: 8a7e ecba 3c3d 0e3d 9d63 e53c 5744 513d
000000f0: c7f5 c0bc 0a25 ee3b c10a adbc 724b 30bc
0.008114616 -0.04117092 -0.007849666 0.0071644248 -0.005657694 0.0033122506 0.0017646326 0.010459754
0.02828529 -0.004362825 -0.026952608 0.0016663347 -0.0036989308 -0.022300823 -0.0031330683 0.00050196727
0.034241345 0.06585225 -0.00032949517 -0.011902774 0.005731221 0.0010416841 0.042372342 -0.003203059
-0.014500007 0.044208262 -0.0067953183 0.00538205 -0.01065629 -0.0036942717 -0.014742665 -0.009662226
-0.020396812 0.0060283183 -0.002934062 -0.009731147 -0.004347683 -0.016339721 -0.010201702 0.015214195
0.01571613 -0.0069910446 -0.028232543 -0.0068997405 -0.0010769576 0.050090697 -0.0066189743 0.019935159
0.006684884 0.03580111 0.005507515 -0.004533812 0.0036459868 -0.060470473 -0.011283817 -0.0021670212
-0.0018043083 0.034726366 0.0280016 0.051090565 -0.023554696 0.007267599 -0.021123292 -0.010760175

fc1.weight f4 [64, 1024]
00000000: 1003 4c3b 1f7d acbb 8fea 783b 5254 193c
00000010: ea76 ec3b 5f86 d6bb 58e0 293b c810 933b
00000020: 5de4 cc39 232e e6b9 3b35 b5bb 020a 09bc
00000030: 2af6 73bc 3be7 96bc dd26 e3bb 773a f03a
00000040: 5cd4 343c f2d3 e5b9 e286 4ebc 1541 1b3c
00000050: 53e4 c639 5271 133c 4827 773c b521 cfbb
00000060: 1d58 d0bb fb11 753c c161 4639 fdd6 e7b9
00000070: 2835 5dbc 8722 83bb d292 9abc 35d3 5dbb
00000080: 8c65 8fbb fc9b a5bc 47ad 55bc 9d01 7ebc
00000090: c8ee 83b8 4784 b1bb 826b 5cba 97d2 903b
000000a0: 575b 9abc cf18 98bb 3073 efbb 64b1 37bc
000000b0: 4011 5ebc efc7 bcbb 8d0c 35bb cc76 93bc
000000c0: 4a49 ccbb 1afb 6dbc 9e2e 8fbc c516 1ebc
000000d0: b870 df3c 5b22 033d ccfc 243d a315 473d
000000e0: 677d a93a 1b1b e3bb 7dbe 773c 8fd6 183c
000000f0: f7c3 67bc f3ed 0abd afd9 fcbc df10 4bbc
00000100: 5211 06bc ab18 9d3a 70c5 4bbc 7724 05bb
00000110: 394c 15bb efdd 63bc 67f4 1a3c c792 59ba
00000120: 92d3 c23b da6b f4bb 3268 76bb 2f43 a2bb
00000130: 977d 953c 552f 323b 1a2b 8a3b e77a 58bc
00000140: b281 703b ad31 1e3b 6609 b4ba 40cd 42bc
00000150: f787 5fbb 1c94 0fbc cf28 b1bb 3d13 40bc
00000160: 405b e8bb 828f bfbb 55f6 08bc a3c3 25bc
00000170: e08a e63a 0041 cdbb 97a0 8cbb bb48 e13b
00000180: d8b2 0c3c ebec b83b ea1c afb9 3021 6bbc
00000190: 900a 57bc 8065 933a 2f77 46bc 95a1 943a
000001a0: 02ca 8ebb fb52 a5bb b04d 583b 5061 43bb
000001b0: 4315 5ebc 6d90 483c 089e b13b 4ffe c7bb
000001c0: 1cd4 aa3b 072b a33a 23de 7aba f23d 37bc
000001d0: b7b8 e9bb 6bc8 5bbb 1b20 12bc 073d 59bc
000001e0: dc41 8fbb 027f 5cbc b71f 45bb 4346 41bc
000001f0: c482 a5ba 7541 28bc 3708 823a 2b27 a73b
00000200: 2386 39bd 43c8 d8bc 34c0 acbc 1770 e1bc
00000210: d7b3 52bd 9d9f e3bc 1899 d7bc ac27 a0bc
00000220: 7bf0 9b3c e563 053d 2338 af3c af1e 2b3d
00000230: 65f4 af3d 8810 d73d 6539 a43d 92eb 533d
00000240: 8812 163b 3dd5 63bc 90a3 b4bb e503 1d3b
00000250: 5b35 6ebc cbc3 adb6 4bc9 533a 6174 20ba
00000260: 1ba3 a6bc 0894 14bc e840 1dbc c5af 80bc
00000270: ba37 50bb 2506 d9bb c9e9 14bc 2775 df3a
00000280: aa3f 46bc 7598 d3bb ed30 ef3b ea93 56bc
00000290: f29a cf3b a7ee 7f3b 136c 303c 0ac3 e4bb
000002a0: dbae c5bb f7d6 043b 5a51 d73a 0d9e 4fbc
000002b0: eb46 50bc 1f2c 3fbc 0ad7 733a 9914 983a
000002c0: 1fb5 c73b 73a3 ba3b e823 bcbc b239 aabc
000002d0: f7ef f33c d3e5 7b3c 97ab 4839 c62c 49bb
000002e0: 68ef fc3c ad8b ea3c 650b dbbb 409c 4e3c
000002f0: eead 993c 4da0 333c 53ff 693c 77b3 7b3c
00000300: 0f19 9ebc d529 91bc 50c1 7abb 78e6 83bb
00000310: 1de2 76bb 0b12 58bc 9ded e9ba d396 59bc
00000320: 1848 85bb b44d 84bc 1f0e 48bc 7b20 773b
00000330: ebbe 0c3b 1fbd 4dbc 3d82 78ba d059 9ebb
00000340: c41e a1ba e43a 35bc f589 003a dc22 8b3a
00000350: e37d fa3a d3c1 cfbb 4773 b8bc 0022 0e3c
00000360: 5008 7dbb d2f1 28b9 b0af d93b e2d7 90bc
00000370: f510 823a 5c54 89bb 7015 8dbb bbae 9e3b
00000380: 9744 64bc 534a 4f3c 82db 8b3b 50b1 8c3b
00000390: 341e 133c 7259 55bc 80fa b7bb 555b 89b9
000003a0: fd67 f73a 4b9a 543b ebd2 d13a 94b4 c4bb
000003b0: 7f78 af3c b5a1 cb3b f332 56bb 0db4 b43b
000003c0: cb0c 76bc 5b5c 80bb e452 b2bb cab4 b2bb
000003d0: d760 48bb 272e 16bc c27e e63b eb39 99bb
000003e0: ab79 1cbc ef75 d03a 02cf ebba 1a5e cc3b
000003f0: cfa0 91bb 8b99 c53a 8b60 abbb c841 04bc
0.0031129755 -0.005263939 0.0037981605 0.009358482 0.007216324 -0.00654678 0.0025921073 0.0044880845
0.00039080056 -0.00043903393 -0.005530027 -0.008364202 -0.014890233 -0.018420806 -0.006932123 0.0018327971
0.011036959 -0.00043836195 -0.012605401 0.009475966 0.00037935618 0.008999186 0.015085049 -0.006321157
-0.00635816 0.0149579 0.00018919168 -0.00044219932 -0.013501443 -0.0040019187 -0.018868838 -0.0033847813
-0.004376119 -0.02021598 -0.013041801 -0.015503314 -6.291043e-05 -0.00541738 -0.0008408354 0.0044196355
-0.018842382 -0.0046416293 -0.0073074326 -0.011211727 -0.013553917 -0.0057611386 -0.002762589 -0.018000983
-0.0062343227 -0.014525199 -0.017478283 -0.009648983 0.027275428 0.032015186 0.04028015 0.04860462
0.001293105 -0.0069307215 0.0151211 0.0093284985 -0.014145843 -0.033918332 -0.030865518 -0.012394159
-0.00818284 0.0011985501 -0.0124372095 -0.0020315924 -0.0022781028 -0.013907894 0.009457684 -0.00082997646
0.0059456313 -0.007459146 -0.0037598726 -0.0049518566 0.018248362 0.0027188857 0.004216564 -0.013212896
0.0036698398 0.0024138496 -0.0013735711 -0.011889756 -0.003410814 -0.008763339 -0.005406476 -0.011723337
-0.007090956 -0.005845965 -0.008359511 -0.010117444 0.0017588995 -0.006263852 -0.0042916047 0.006875125
0.008587562 0.005643477 -0.00033400144 -0.014351174 -0.013125077 0.0011245459 -0.0121133765 0.0011339659
-0.0043575773 -0.0050452924 0.003300529 -0.0029812641 -0.013554874 0.012241465 0.00542045 -0.006103314
0.0052132737 0.0012448736 -0.0009569844 -0.0111842025 -0.0071326154 -0.0033536206 -0.008918787 -0.013259179
-0.0043718647 -0.013458015 -0.0030078718 -0.011796537 -0.0012627472 -0.010269512 0.0009920661 0.0051011047
-0.04529394 -0.02646268 -0.021087743 -0.027519269 -0.05144104 -0.02778607 -0.026318118 -0.019550167
0.019035568 0.03256597 0.021389073 0.04177731 0.085915364 0.105012 0.0801876 0.05173833
0.002289923 -0.01390582 -0.005512662 0.002395862 -0.014539088 -5.178595e-06 0.0008079006 -0.00061208574
-0.020341447 -0.0090684965 -0.009597994 -0.015708813 -0.0031771497 -0.006623047 -0.009088942 0.0017048464
-0.01210014 -0.0064573833 0.0072995336 -0.013096789 0.0063356096 0.003905216 0.010767954 -0.0069812583
-0.0060328073 0.002026973 0.0016427443 -0.01267196 -0.012712221 -0.011668234 0.00093017577 0.0011602818
0.0060945894 0.005695754 -0.02296634 -0.020779464 0.02977751 0.015374619 0.00019137409 -0.0030696853
0.030875877 0.028631056 -0.006684708 0.012610495 0.018759694 0.010963512 0.014282065 0.015362612
-0.019299058 -0.017720142 -0.0038262196 -0.0040252768 -0.0037671395 -0.0131878955 -0.0017847304 -0.013280588
-0.004067432 -0.016150333 -0.012210398 0.003770857 0.00214761 -0.012557297 -0.0009479856 -0.004832484
-0.0012292494 -0.011061404 0.00049033697 0.0010615247 0.0019111003 -0.0063402443 -0.022515906 0.008675098
-0.003860969 -0.00016111814 0.006643258 -0.017681066 0.0009923266 -0.0041909646 -0.004305534 0.004842607
-0.013932369 0.012651998 0.0042681107 0.0042935982 0.008979369 -0.013021814 -0.0056145787 -0.00026198724
0.0018875595 0.0032440599 0.0016008293 -0.006002972 0.021419762 0.0062143453 -0.0032684177 0.005514628
-0.0150176985 -0.0039172596 -0.0054420102 -0.0054536806 -0.00305753 -0.009166277 0.0070341537 -0.004676094
-0.009550492 0.0015904288 -0.001799077 0.0062368037 -0.0044442187 0.0015075667 -0.0052300147 -0.008072324

fc1.bias f4 [64]
00000000: a3bc 2bbc 2a6f 30bc 5c9f 08bd 35e3 ef3c
00000010: c82f 8abb 80f7 75bd f37d 04bb ebff cd3b
00000020: cfd7 c23a b065 ce3b 1546 dabb fbbb 483b
00000030: 9df6 f3bb 9759 37bb 778e eebc 510b a2bc
00000040: 7040 78bb 857f d6bc 2f93 88bb 4d6b b2bb
00000050: e015 093b 9798 083b 3dbe f03b 48aa 8ebc
00000060: 1f54 103a 5f1c 3dbb b1c8 94bb 7712 b7bc
00000070: 2267 af3b 0d58 00bd 7bfd 1c3c eddb 05bc
00000080: 7fba 29bb 0223 5ebc aa52 6439 edd6 6f3d
00000090: 5045 88ba 4927 b2b9 3aa9 af3c 8db8 08bd
000000a0: ba68 fe3c ad89 e1bc ba84 9cba 5512 ddbb
000000b0: c5ce b23b fb6a 6dbb 1d4e 92bb c893 8bbc
000000c0: 4b6f 463c 41bb 09bc e060 edb9 7b11 0b3d
000000d0: 7f63 87bc 12cd 3fbc 9d33 bdbb 0aeb 8ebc
000000e0: 8324 33bc 337b 0cbd bfaf 9abc 70b9 443d
000000f0: 6c80 aebc ca87 ca3a 0b16 b7bb 51ae 843a
-0.010481986 -0.010768691 -0.033355102 0.029283145 -0.0042171218 -0.060050488 -0.0020216673 0.0062866113
0.0014865341 0.006298743 -0.0066611865 0.0030629623 -0.00744517 -0.0027976984 -0.029120667 -0.019780787
-0.0037880205 -0.026183853 -0.0041679363 -0.00544492 0.002091758 0.0020842904 0.007346897 -0.01741518
0.0005505699 -0.0028856022 -0.004540526 -0.022347672 0.0053528706 -0.03133397 0.009581919 -0.00817011
-0.0025898514 -0.013558151 0.00021774569 0.05855458 -0.0010396633 -0.00033980075 0.021442998 -0.033379126
0.031055797 -0.02753147 -0.0011941411 -0.00674657 0.0054567778 -0.0036227095 -0.0044648782 -0.017038241
0.012111495 -0.008406461 -0.0004527634 0.033952218 -0.016526936 -0.011706607 -0.005773975 -0.01744606
-0.010933998 -0.03429718 -0.01888263 0.04802841 -0.02130147 0.0015451845 -0.0055873445 0.0010122751

fc2.weight f4 [10, 64]
00000000: 3b50 803d 838e 513d 9cb0 bfbc 32fa 72bc
00000010: e089 65bc e83e 963b 105d 0a3c 6576 55bd
00000020: 1bc6 f5bc dd7a e9bc a714 81bd 38e5 d03c
00000030: 1078 633c 475d 7d3d d801 ea3c 679c 3f3c
00000040: 2f6b b6bc 6e40 883c 87fc adbc af1b 2d3d
00000050: 0ac8 9f3b 8366 8a3c 9240 cfbb 985d f4ba
00000060: 4d20 aa3c ef5a a3bd 652d f93c e05d 47bc
00000070: 85ea 733d 908d 5b3d 0ad2 1f3c bfcf 4bbc
00000080: 0f49 afbc 88de 05bc 00c7 2f3d 7044 32bd
00000090: e378 dc3c daae cbbc 1f4c 0cbc c021 653d
000000a0: 832f 0abd 4d7e 19bc 7cdb 2bbd 1f80 d73d
000000b0: c3aa 15bd 1d58 d1bc af86 ca3b 0270 d03c
000000c0: 0853 d7bc 3f98 973b 1247 eebc 67a0 94bc
000000d0: 906b d23c 5a84 8e3d 757e b13c 8272 36b9
000000e0: 79a3 423d 388d de3b 3329 2b3d b150 0a3d
000000f0: fbc7 29bd f04a 25bd ffaf 033c 0256 9cbb
00000100: 633a 7fbc 1d37 81ba 52d0 f73c aa4b 6bbd
00000110: 0854 da3c 2282 463c 6a1b 3b3c 9a34 41bd
00000120: f203 4f3c a3db d6ba cd8d cfbc d3ef 303d
00000130: 3264 9abd af8a 97bc e3d2 80bc 0f7e 123c
00000140: 8444 bb3c ffb2 5e3c 5094 57bb 8b5c b83d
00000150: 301a 09bd bced acbc 7ebe 383d 0cdf c23c
00000160: c308 cfbb 8096 2f3d 8023 1b3c ed7d 97bb
00000170: 2f98 c7bc 9b04 b63d 90f2 a7bd 3530 cdbc
00000180: 80c1 4b3d eae8 1f3c e3af 9f3c dfea 6eba
00000190: 3353 18bb 4b32 113c 0870 683d bd21 d33d
000001a0: 0575 0cbd 4c63 bd3c 7381 5b3d efe4 cabd
000001b0: ca57 00bd 234a a53c 1aeb 3ebd 8361 d3bc
000001c0: 0740 6ebd 4f0b 913b 9f33 c539 d2f2 8bbd
000001d0: c8ec 193d 33ef 5e3c 0f8e c5bc cfd3 4b3d
000001e0: bc51 9abc e850 5b3d f6df 2c3c 05aa 5abc
000001f0: 17dd e2bc 6d0c 303d 477a 03bc b787 033d
00000200: 3a9e 69bb 3d79 963c 00be b5bb a74b 893c
00000210: 0292 893b 806e e5bc 3ce7 8bbd 0809 ad3b
00000220: 6b32 4c3c 734a 40bd 0d74 cd3b 5b53 fe3c
00000230: 0aa8 ca3b 885d c93b 0d46 393d 67f5 853c
00000240: b2c3 a73b df83 85bb cb82 31bd efac 1c3c
00000250: 5757 5dbd 8747 57bc 7f10 2b3d 0c7e 883c
00000260: 1173 07bb 70ab 093d e79a a43c ea78 3bbd
00000270: 0bf2 9abc 69ec 13bd 03b5 e8bc 1087 38bd
00000280: 1aeb f73b dfee a1bc 2225 913c cb69 873d
00000290: 5b8e 973c 58ee ef3c f26b f4bb dc49 10bd
000002a0: 8f64 e63c 3b23 8cbd 336a 3a3d 5f96 383d
000002b0: b29c a0bb cfa8 7d3c 5ae5 813d b2c3 77bd
000002c0: f4ff 0dbc 8b95 7a3a 6a6f 7b3c 16d5 b53c
000002d0: 6dfb 613c 89f7 843c 27d2 7fbc 3de5 4dbd
000002e0: adf3 b43b 6bc9 463d 6581 61bb ebb0 813b
000002f0: 1ccc b3bb 972d 40bd 8594 c0bc 8c8d 82bc
00000300: 6070 233d 30df b2bd 64b0 c8bc 2d58 cb3b
00000310: 8bf6 51bd 75a0 523c 7aa1 1a3d 8bd9 373d
00000320: 0fdd 78bd 9891 02bd d87f 80bc 660a 133d
00000330: cf40 ce38 fb5a 5e3d 32fe 45bc e79b 0fbc
00000340: d373 aa3c 80e6 b5bc e581 3cbd 2753 ebbc
00000350: fb52 153c ed13 063d a095 eb3a 4b0d 643b
00000360: 5a5f 1dbd 2259 bd3c e0df 10bd c435 873d
00000370: 7588 273c cb49 a2bb 3a5a 68bc d878 b23c
00000380: 3f4f b9bd c897 67bc 12ca 5d3d 8f24 db3c
00000390: bff3 a6bc 2af3 ea3c 5b3b 09bc 2508 5ebd
000003a0: 1fef 6d3c 7a22 0ebd 2b7a a0bc 3b94 07bc
000003b0: 62ea fcbc 9a64 fc3c db3d 2cba 97ae 22bd
000003c0: 7f38 203c d16d 823c 00ae 883c 9a18 883c
000003d0: d0e0 363d 5aca f9ba 8bea f6bc 934d ca3c
000003e0: 427c 4ebd adbc e63c 11f2 2cbd 8622 8f3d
000003f0: 57bb babc 3298 1abd bab5 bdbc 7f7e dabb
0.06265303 0.0511613 -0.023399644 -0.014830159 -0.014009923 0.0045851357 0.008445039 -0.052114863
-0.03000169 -0.028500969 -0.06302767 0.025499925 0.013883606 0.061856534 0.028565332 0.011695004
-0.022267906 0.016632285 -0.021238578 0.04226273 0.0048761414 0.016894585 -0.006324836 -0.0018643616
0.020767355 -0.079763286 0.030417154 -0.012168378 0.059549827 0.0536018 0.009754667 -0.012439667
-0.021397142 -0.008170731 0.04291439 -0.0435223 0.026913112 -0.02486365 -0.008563071 0.05594039
-0.033736717 -0.009368491 -0.041957363 0.10522484 -0.036539804 -0.025554711 0.0061806063 0.025444034
-0.02628471 0.0046263034 -0.029086623 -0.018142892 0.025686055 0.06958838 0.021666745 -0.0001739953
0.04751918 0.006791737 0.041787338 0.03376836 -0.04145048 -0.04035467 0.008037566 -0.004770995
-0.015577885 -0.0009858344 0.030250702 -0.057445206 0.026651397 0.012115987 0.01142011 -0.047169305
0.012635218 -0.0016392361 -0.02533617 0.043197464 -0.07538642 -0.018498747 -0.015725559 0.0089411875
0.02285982 0.013592481 -0.0032894798 0.09002026 -0.03347224 -0.021109454 0.045103543 0.023787998
-0.006318183 0.042868137 0.009468913 -0.004623166 -0.024364559 0.08887597 -0.08200562 -0.025047401
0.049745083 0.009760121 0.019493049 -0.0009113978 -0.002324295 0.008862088 0.056747466 0.103091694
-0.034291286 0.023118638 0.05359025 -0.09906947 -0.031333722 0.020176953 -0.04661093 -0.025803333
-0.05816653 0.004426397 0.0003761323 -0.06833424 0.037579328 0.013606834 -0.02411559 0.049762543
-0.018837802 0.053543955 0.010551443 -0.0133462 -0.027693314 0.0429806 -0.008024759 0.03211185
-0.003564729 0.018368358 -0.0055463314 0.016759707 0.0041983137 -0.028006792 -0.06831214 0.0052806176
0.012463192 -0.046946 0.006269938 0.031045606 0.0061845826 0.006145183 0.04523282 0.016352369
0.0051197642 -0.004074558 -0.043337625 0.009562715 -0.054038372 -0.013139612 0.04176378 0.016661666
-0.002066795 0.03361076 0.020093394 -0.04576961 -0.018914243 -0.03611413 -0.028406626 -0.04505068
0.007565868 -0.019767223 0.017717902 0.06611975 0.018500498 0.029288456 -0.007459157 -0.035226688
0.028124122 -0.06842657 0.045511436 0.04506528 -0.004901492 0.015482142 0.063425735 -0.060489364
-0.008666981 0.0009559027 0.015346387 0.022196334 0.013792855 0.016231315 -0.015614069 -0.050267447
0.0055222125 0.04853193 -0.00344094 0.003957858 -0.005486978 -0.046918478 -0.02350832 -0.015936635
0.03990209 -0.08733976 -0.024498172 0.0062055797 -0.051260512 0.012855639 0.037751652 0.0448852
-0.060757693 -0.03187713 -0.01568596 0.03589859 9.834917e-05 0.054285984 -0.012084531 -0.008765197
0.020807182 -0.022204638 -0.046022315 -0.028726174 0.009114022 0.032733846 0.0017973669 0.0034797962
-0.038421012 0.02311379 -0.035369754 0.06602052 0.010225405 -0.0049526445 -0.014181668 0.021786138
-0.09048318 -0.014135309 0.054147787 0.026750831 -0.0203799 0.028680403 -0.008375968 -0.054206986
0.014522343 -0.03470085 -0.019589504 -0.008275087 -0.030873481 0.03080969 -0.00065704965 -0.039717283
0.009779095 0.015921505 0.016684532 0.016613293 0.04464799 -0.0019057498 -0.030141136 0.024695193
-0.05041147 0.02816614 -0.04222304 0.06989007 -0.022794409 -0.0377428 -0.023157943 -0.0066679115

fc2.bias f4 [10]
00000000: 89f3 28bd f991 8abd 1a41 623c 07ca c93c
00000010: bab8 ac3d c74d 26bc 7dd0 623d 2f97 92bc
00000020: 2f4b 20bd 1bbf 24bc
-0.04124788 -0.06766123 0.013809467 0.024632467 0.08433671 -0.0101503795 0.05537461 -0.017894356
-0.0391342 -0.010055329
