torch_to_tf/torch_models/model_round399.model (torch, 493063 bytes, 10 tensors)

conv1.weight f4 [32, 3, 3, 3]
000000 95 4c 2a bd e2 4e 31 bd 3f 8d bd bd 13 93 91 bd
       -0.04157694 -0.04328812 -0.09255456 -0.0710813
000010 9e b5 c3 bc 3f 91 14 bd a3 03 94 3d 58 a5 7d 3d
       -0.023890313 -0.03627133 0.07227256 0.061925262
000020 b5 0b b5 3c c3 48 11 3d bd d3 54 bd 64 9c 95 bd
       0.022100309 0.03546978 -0.05195974 -0.0730522
000030 9a fa fd 3c 00 e3 31 3c 43 7c 38 3d 77 d9 8d bc
       0.031003285 0.010857344 0.04504038 -0.01731561
000040 f8 37 d8 bd 1a 1e bc 3b d7 00 01 3d 2c be 80 3d
       -0.1055755 0.005740893 0.03149494 0.062862724
000050 35 9d b2 3d 97 8e 18 bd 53 d7 d5 3c 3f 15 b5 3c
       0.08721391 -0.03724536 0.026103651 0.022104857
000060 12 02 f2 3d 3a da 31 3d b8 a9 f8 3c 1d d6 4c bd
       0.11816801 0.043421008 0.030354366 -0.05000888
000070 0b ef 07 bd 2a 49 7c 3d b6 a0 22 3d 4b da 1e bd
       -0.033186954 0.061593212 0.039704047 -0.0387824
000080 2f 32 fa 3c e8 60 ac bb d4 d2 1f 3d b8 a0 da 3c
       0.030541508 -0.0052605756 0.03901942 0.026687965
000090 9b a6 eb bc 92 6e 13 3b da 7c 71 3d 79 32 1e bd
       -0.028765967 0.0022496325 0.05895696 -0.038622353
0000a0 d6 3c ae 3b 63 f1 c0 3c 05 7b 14 bb da 10 51 3d
       0.005317311 0.023552602 -0.0022656333 0.05104146
0000b0 e0 b7 d6 bb a7 16 1b bd 68 56 11 3d 59 22 2b bd
       -0.0065526813 -0.0378634 0.035482794 -0.041780803
0000c0 3b f8 dd bd 5b f4 94 3c 28 96 1c bc 63 6a a5 bd
       -0.10838362 0.018182924 -0.009557284 -0.08076932
0000d0 b5 79 75 3c 8a 42 f4 3d 70 58 8b bd fd c5 cc bc
       0.0149826305 0.11926754 -0.068039775 -0.024996752
0000e0 4a 67 98 3d fb ca b9 3d 6f ba 22 bd 18 b3 50 bd
       0.07441576 0.090719186 -0.03972858 -0.050952047
0000f0 95 00 06 bd 57 98 cd 3d 9b f9 32 bd da 1b 4f 3c
       -0.0327154 0.10038822 -0.043695074 0.012640918
000100 14 6b b7 3c 2f 72 86 3b 57 fe 2d bc 33 31 9e bb
       0.022389926 0.004102967 -0.010619721 -0.0048276423
000110 b6 61 25 3d 9f 6e 13 3c 5e cc c5 3c 07 85 0b 3d
       0.040376388 0.008998542 0.024145301 0.03406241
000120 73 d7 da 3c 95 2e 4f bd 77 5e 7f 3c 33 b8 d7 3d
       0.026714062 -0.050581533 0.015586487 0.1053318
000130 20 c1 66 3b 27 8c 40 bc 5f d1 ee bc 38 75 b0 3d
       0.0035210326 -0.011752165 -0.02915257 0.08616108
000140 3c 92 84 3d 4b 82 14 3e d6 62 a9 3c c6 bd c4 bd
       0.064732045 0.14502828 0.020677011 -0.09606509
000150 d9 c0 86 3c 44 80 86 3c 42 96 ec bc 8a 71 a6 3d
       0.016449379 0.016418584 -0.028880242 0.081271246
000160 6b f2 e5 3b 66 52 95 bd 67 13 3f 3a 3f 4e 87 bd
       0.007017424 -0.07291107 0.0007288963 -0.06606721
000170 5f 73 9a 3d 4c 35 3d 3d 5d 67 d4 bd 62 65 69 bd
       0.075415365 0.046193406 -0.103712775 -0.05698145
000180 67 bb cb 3c 73 36 88 bd 30 93 72 3d 7a 8a 00 3d
       0.024869634 -0.0665101 0.0592224 0.03138206
000190 34 2e 3c bd f4 a6 aa bc ba 4f 53 3d 1f 75 a8 3c
       -0.0459425 -0.020831563 0.051589705 0.02056366
0001a0 aa 68 7d bb a3 75 8d 3d 8c 9a b7 bc 7c 32 af bd
       -0.003866712 0.06907203 -0.02241256 -0.08554551
0001b0 6f a5 a3 bc e1 45 02 bb 6f 48 70 bc 42 4f 9c 3d
       -0.019976346 -0.0019878077 -0.014665707 0.07632305
0001c0 38 b9 fd bc 50 d1 71 3d bd 4d 78 bd 68 a5 34 bd
       -0.030972108 0.059037507 -0.060621012 -0.044103056
0001d0 0b e1 61 3d 21 eb 03 be 9a 82 91 bb ca fc 4e bd
       0.05514626 -0.12882663 -0.0044406177 -0.050534047
0001e0 3b dc c1 bc c0 80 7e b9 ec f3 93 bd 8a f6 27 3d
       -0.023664584 -0.00024271291 -0.07224259 0.041006602
0001f0 04 79 b3 3d e3 59 4d 3d a5 d1 60 3d 40 dc e0 bc
       0.08763316 0.05013455 0.054887433 -0.027448773
000200 63 90 1b bd 6b 64 2d bd b8 8b 34 bd 6b 70 90 3b
       -0.037979495 -0.042332094 -0.04407856 0.0044079325
000210 ca a4 77 3d 56 99 a1 3d 33 43 15 bc 36 6f 13 3d
       0.06045989 0.07890575 -0.00911026 0.03599473
000220 ca 5c 73 bc af a8 ae 3d e3 fb f4 3c 3b 6f 25 3c
       -0.014853666 0.085282676 0.029905265 0.01009732
000230 dd 77 a5 3d 2f 62 07 bd a8 a7 9f bd fd 6a 36 3d
       0.08079503 -0.03305262 -0.0779565 0.044535626
000240 4f 5f 92 bc bf 24 be bd 3b ec ca 3d 3b 5c be 3b
       -0.017867712 -0.092843525 0.09908339 0.0058093346
000250 36 ac 19 3c 67 c2 a0 bc 04 3c 8a bd da ab 0a be
       0.009379437 -0.019623948 -0.06749728 -0.13542119
000260 87 5a 0b 3d 9c b5 b0 3c a4 bf c4 bd e5 78 a0 3d
       0.03402188 0.021570973 -0.09606865 0.07835559
000270 38 b8 c7 bc 7f fc 82 3d cd c9 f8 3c b3 6e f3 bc
       -0.024379835 0.06395816 0.030369664 -0.029715871
000280 3b 81 3a 3c dd dd c2 bc 17 c0 69 bd df 11 6a bd
       0.01138335 -0.023787433 -0.057067957 -0.05714595
000290 ab 91 7f bd 32 46 9b 3c bf b8 08 3d e8 63 4b bd
       -0.06239478 0.01895437 0.033379313 -0.049655825
0002a0 0b 00 fc bc be 22 93 3c 48 a8 01 3c 9b 77 5c bd
       -0.03076174 0.017960902 0.0079136565 -0.053825002
0002b0 d8 ab 9a 3d c0 46 e1 3c 05 25 6d 3d 07 d4 89 bd
       0.07552308 0.027499557 0.057896633 -0.06729894
0002c0 7d 20 6b 3d 8a df d9 bc 3d 4e 24 3d d7 da 4c 3d
       0.05740403 -0.02659585 0.040113676 0.05001339
0002d0 db a1 15 3d 8b 92 3d bc 9b ba 27 3d 33 6d 61 3d
       0.03653131 -0.011570583 0.040949445 0.05503578
0002e0 3e 9b 8e bc 47 29 d1 3d 7a 9f 36 3d 38 d6 10 bd
       -0.01740801 0.10212951 0.044585682 -0.035360545
0002f0 47 6b c8 bb 08 32 0e bd 23 5a d3 bc 71 5c 85 3d
       -0.006116304 -0.034715682 -0.025799816 0.065117724
000300 23 65 8d bd 43 05 f4 3b e2 8e 87 bc 30 d1 6d 3d
       -0.06904056 0.0074469163 -0.016547624 0.058060825
000310 58 e3 c1 3b 38 1a 1e 3c 33 b1 88 bc 9f 4a 1e 3b
       0.005916994 0.009649806 -0.016686058 0.0024153364
000320 5f df f8 bb b7 e6 ae 3d a9 3c 04 bd da 7e 50 3d
       -0.0075949873 0.08540099 -0.032284413 0.050902225
000330 35 ad 9b ba b7 4b fe 3c 77 11 08 be 97 21 2c 3c
       -0.0011877181 0.031041963 -0.13287912 0.010506055
000340 d5 4a 3e 3c 83 99 cc 3c 3f 23 81 3c 5d f3 53 bc
       0.011614521 0.024975544 0.015763877 -0.01293644
000350 3f c4 ba bd 9b 1c b5 3d 0c 9e c1 3b dc f3 1b bd
       -0.09119462 0.08843347 0.0059087332 -0.03807436
000360 ca f7 50 3d a2 41 b5 3d 3a 0b 00 bc 73 57 28 3d
       0.05101756 0.08850409 -0.007815177 0.041099023
000370 43 ad 5a 3c 7a 70 f2 bc 2b 21 29 3d c8 6b fc bc
       0.013346973 -0.029594649 0.041291397 -0.030813113
000380 08 36 e8 3c 77 ab 56 3d 70 77 f1 3d da 74 8f 3d
       0.028346077 0.052409615 0.11790359 0.070047095
000390 f3 f6 d6 bd 43 27 58 bd 18 19 46 bd 98 d4 8b bd
       -0.104963206 -0.052771818 -0.048363775 -0.068276584
0003a0 98 92 6a bc 81 b6 21 3d 9f c0 dc 3c f3 05 c2 3d
       -0.014317177 0.03948069 0.026947318 0.09473791
0003b0 e7 cc 3c bd 1d 12 91 3d 9b 57 12 bd ed 49 77 bc
       -0.046093848 0.07083533 -0.03572808 -0.015093309
0003c0 ab 6b 47 3d d4 b4 00 be fe fe b8 bd 61 6d b3 bd
       0.048686665 -0.1256898 -0.09033011 -0.08761097
0003d0 c7 12 0c bd 8b d9 62 3d 75 de 4a 3d 88 db 32 bd
       -0.034197595 0.055383246 0.049528558 -0.043666393
0003e0 07 44 45 bd a2 9f 39 bd 8a 16 10 3d cf e6 3c bd
       -0.04816058 -0.045318253 0.035177745 -0.046118554
0003f0 5b 4c 86 3d 4c f9 36 bc 30 fc 92 3c c8 55 6d 3d
       0.065575324 -0.011167835 0.017942518 0.057943135

conv1.bias f4 [32]
000000 9a 96 3b bd 58 9c 83 3c f8 06 e8 3c 15 12 6d 3c
       -0.04579792 0.016065761 0.028323635 0.014469643
000010 85 f2 c5 bd 87 07 e0 3b e2 e2 f4 3c 67 a5 d7 3c
       -0.096653976 0.006836835 0.029893342 0.026323987
000020 b4 5b 1d bd a3 aa 70 bd 37 fc c9 3d 89 5a 9c bd
       -0.038417533 -0.05875648 0.09862559 -0.07634456
000030 cf bd 39 bd 35 c7 aa bd 2b 2b d0 bc cf 15 44 bd
       -0.04534703 -0.08338777 -0.02541121 -0.04787236
000040 88 69 46 3d 1a 4c 81 3c f6 c2 b3 3d 9b 2f 48 bd
       0.048440486 0.015783358 0.0877742 -0.048873525
000050 dd 90 d9 3d 53 68 dd 3d fe 22 08 3d 58 27 56 3c
       0.106233336 0.10810914 0.033236496 0.013070904
000060 95 6e a1 3c 6e d9 49 be 0b a5 0d 3e 5a 4c 2d 3d
       0.01970605 -0.19711849 0.1383249 0.042309143
000070 10 3b 9b bb 83 cc 47 bb d0 28 40 bd b3 f9 82 3d
       -0.0047372654 -0.0030486889 -0.04691392 0.063952826

conv2.weight f4 [64, 32, 3, 3]
000000 b3 45 23 3c a3 87 de bc 5b 8e 6c 3c b2 86 0a bc
       0.009965348 -0.027164286 0.014438237 -0.008454965
000010 98 da a9 bc b1 7e 06 bc 5d 1e 8a bb b8 81 96 3b
       -0.020734116 -0.0082089165 -0.0042150454 0.0045931004
000020 78 90 77 3a 3d 55 ce 3c a0 b2 b3 3b ca 37 25 bb
       0.000944383 0.02518713 0.0054839402 -0.0025210255
000030 08 cb 04 bd e5 1e 83 bc a7 ff a2 bc 22 67 28 bb
       -0.03242019 -0.016005943 -0.019897295 -0.0025696238
000040 1c 65 84 3b 85 80 b1 3a 5f e4 4f bc ba e2 89 bc
       0.0040403735 0.001354233 -0.012688725 -0.016831744
000050 0d 2b 92 bc 2b 6c ec 3b dd e5 df 3a 79 c8 b0 39
       -0.017842794 0.007215043 0.0017082054 0.000337187
000060 28 fc d2 bc ea 60 e3 bc 60 6c 57 3c ed 45 75 bc
       -0.025755003 -0.027756173 0.013148397 -0.014970285
000070 3f 9f 60 bc a5 85 88 bc e3 87 81 bc f4 cc b6 3c
       -0.013709842 -0.01666529 -0.015811866 0.022314526
000080 87 f4 ab bc 98 64 a3 36 bb db 97 bc f5 c0 cb 39
       -0.020990623 4.869489e-06 -0.018537393 0.0003886294
000090 60 f6 03 3d 10 14 c8 3b b0 af 7d bc 0b 85 b3 3b
       0.032217383 0.0061059073 -0.015483782 0.0054785064
0000a0 18 af 84 3c 3f 12 41 bc cf c7 1b ba 23 15 97 ba
       0.016196772 -0.011784135 -0.00059425546 -0.0011526685
0000b0 c7 9b 34 bc 53 48 4c 3c 58 f7 4f bc bd dd a5 3c
       -0.011023468 0.012468415 -0.012693249 0.020247335
0000c0 cb 3c fb bc 67 2f 84 3c a4 00 81 bc 95 99 53 3c
       -0.030668637 0.016135884 -0.015747376 0.012915035
0000d0 a5 cc 0f bd a2 2e bf bc 39 c2 15 bd 53 b5 de bc
       -0.035107274 -0.023337666 -0.03656218 -0.027186072
0000e0 a7 dc a7 3b 6d d7 b8 bb c8 2a 29 bb a9 f9 aa bc
       0.0051227394 -0.005640915 -0.0025812853 -0.020871
0000f0 77 0b c8 3c da 12 ff bb 55 c6 82 3b dd b0 96 bc
       0.02441953 -0.0077842297 0.003990928 -0.018394882
000100 13 2f 58 bb d4 38 9a bc eb 8b bc ba 42 31 09 bd
       -0.0032987043 -0.018825926 -0.001438496 -0.03349424
000110 60 fe e1 bc e3 7a 62 bc 9c dd 80 3b 62 dc 8c bc
       -0.027587116 -0.013823244 0.003932668 -0.01719493
000120 78 76 c5 3b 2a 91 2a 3c 10 7a 71 bb 81 fb 20 3c
       0.0060260855 0.010410586 -0.0036846437 0.009825588
000130 d0 46 2b bc a4 4d 80 bc 4b f7 00 bc 7a 37 35 3c
       -0.010453895 -0.015662022 -0.007871459 0.01106059
000140 24 19 b8 bc a3 d4 52 bc 4f a5 b3 3b b8 b0 d9 bc
       -0.022472925 -0.012868079 0.005482353 -0.026573524
000150 90 28 89 3c 10 55 ce bc 87 36 8c 3a 1f 86 9c 3c
       0.016742975 -0.025187045 0.0010697403 0.019106923
000160 58 44 e2 bc a1 37 1c bd e8 9e 1d bd 9d 1e 55 bc
       -0.02762048 -0.03813899 -0.038481623 -0.013007787
000170 13 e2 f6 3b 57 d3 69 3c 77 2a 2b bc 02 2a b9 3b
       0.0075342744 0.014271579 -0.010447136 0.0056507597
000180 a7 a6 0e bb a3 5c c2 3a 48 7d b2 bc b0 ca d7 bc
       -0.0021766813 0.0014828633 -0.021788254 -0.026341766
000190 fa ac b6 3c d0 a7 05 bc 70 03 6d bc d8 cb f8 bc
       0.022299279 -0.008157685 -0.014466152 -0.030370638
0001a0 b2 af 68 3c 68 53 03 bd 0f a0 c8 bc 47 0a 73 3c
       0.014202045 -0.032061964 -0.024490384 0.014833993
0001b0 f3 02 d0 bc b8 3a 36 3b 44 bf 28 bb 08 f1 f5 ba
       -0.025392031 0.0027805995 -0.0025748769 -0.001876385
0001c0 a3 85 90 bc 0a 79 15 bc bb be 6a ba a3 bc 8b bc
       -0.017641848 -0.009123096 -0.00089548127 -0.017057722
0001d0 25 21 16 3a 9f 73 06 bd c2 55 29 bc bf be db bc
       0.0005726985 -0.03282511 -0.010335388 -0.026824353
0001e0 f8 bf 65 bc d0 9c 92 bc ff fd db ba cf e3 0a 3c
       -0.01402282 -0.01789704 -0.0016784071 0.008477165
0001f0 c7 9a b1 3b 83 39 57 bc 68 d7 b9 bc 27 95 16 3b
       0.005420062 -0.01313627 -0.022685722 0.0022977085
000200 1f 32 99 bb 6f 82 8b bc d7 25 d2 bc 40 92 87 bc
       -0.0046751644 -0.017029969 -0.025652809 -0.01654923
000210 b1 68 49 bc ab 19 01 bd b7 61 0c 3c 23 ca 07 39
       -0.012293027 -0.03151862 0.008568219 0.00012949905
000220 7b 65 5f 3c cd 8e b6 bc 10 5f 8b bc 1f d5 3e bc
       0.013635035 -0.02228489 -0.017013103 -0.011647492
000230 35 0a 80 bc 1c 05 12 bc 3f ae b4 bc 6a 13 f7 bb
       -0.015629867 -0.008912351 -0.022055743 -0.007540156
000240 39 df bc bc 63 a6 56 bc d8 e1 e8 bc 5d c5 75 bc
       -0.02305566 -0.013101193 -0.028428003 -0.015000668
000250 5c c4 9a 3c 63 ab b6 ba 58 ca 32 bc 62 b9 f1 bb
       0.01889246 -0.0013936575 -0.0109125 -0.0073768357
000260 bc 91 a2 bc 2b a8 23 bc 77 35 37 bc 5a a8 63 bc
       -0.019844882 -0.009988825 -0.011182181 -0.013895119
000270 38 3b f5 3b 7b 5b 20 3c ad 98 e2 bb e7 72 03 3c
       0.007483866 0.009787436 -0.006915173 0.008023
000280 4a 85 e0 bb 92 21 39 bc 88 19 e1 bb 4d d8 78 3c
       -0.006851827 -0.011299508 -0.0068694986 0.015188289
000290 3f dd 8e 3c f0 33 ed bc a2 19 18 3b 08 e1 27 bb
       0.017439483 -0.02895543 0.0023208638 -0.0025616307
0002a0 c3 9b d8 bc 6f 11 0f 3c 0a ad b4 bc 29 48 97 bb
       -0.02644146 0.008732184 -0.022055168 -0.0046167565
0002b0 f5 bb a0 bb 6a 52 c6 bc b8 21 6b bb 4c d0 8c bc
       -0.0049052187 -0.02420922 -0.0035878252 -0.017189167
0002c0 eb a4 e4 bc 17 06 6c 3a 94 3d 09 bb 37 75 0c 3d
       -0.02791067 0.0009003593 -0.0020941244 0.034291472
0002d0 a7 62 1f bb 67 f8 11 bc 2f f0 bb bc f0 f2 7e bb
       -0.0024320276 -0.008909321 -0.022941677 -0.0038902126
0002e0 85 68 60 bc 3f b3 58 bb f0 fd 74 bc 38 6a c5 3c
       -0.013696794 -0.0033065823 -0.014953122 0.0240985
0002f0 c2 c7 19 bc 92 4b aa bc a2 83 b1 bb 77 9e 64 bb
       -0.009386005 -0.020787988 -0.005417303 -0.0034884491
000300 5f 28 9a bc c5 c7 49 bb 13 8a 98 3c e8 28 c2 bb
       -0.018818079 -0.0030789238 0.018620526 -0.0059252866
000310 a4 31 97 3c 70 81 91 bb fb 09 81 3a 6f 4a 7f 3c
       0.018456288 -0.004440479 0.0009844893 0.015581711
000320 5d fc 59 bc 48 a5 08 bb ab f3 ef 3c af a3 6b 3c
       -0.013304797 -0.0020850468 0.029290995 0.014382287
000330 4c ab 93 3b 32 90 44 3c 68 07 ff bc ef 32 98 bc
       0.004506504 0.0119972695 -0.031131461 -0.018578975
000340 f5 f0 ee b9 95 06 30 bc aa 45 d1 bc 12 a2 00 bc
       -0.00045574424 -0.010743757 -0.025545914 -0.007851141
000350 c0 0b 03 ba 0f 87 16 bc 52 ab f1 3c 63 39 99 3c
       -0.00049990043 -0.009187474 0.029500637 0.018704122
000360 40 4c da bc 74 e8 0a bd 7f b6 09 bd 32 28 5b 3c
       -0.026647687 -0.03391309 -0.033621307 0.0133762825
000370 b3 1b 8c 3c 0b 19 ac bc 58 6d 0d 3c da 3a ab 3b
       0.017103052 -0.021008035 0.008632027 0.0052255215
000380 07 88 7d 3a e0 46 5b 3c c1 5a 86 ba e4 5b b4 ba
       0.0009671454 0.013383597 -0.0010250435 -0.0013760296
000390 2f 74 2d bc 30 da 8d b9 08 fe b1 bc 13 44 2c bc
       -0.010586782 -0.00027056178 -0.021727577 -0.010514277
0003a0 df 45 cd bb 22 f4 b8 bc c7 16 06 3c a7 5a c2 bb
       -0.006264433 -0.02257735 0.0081841415 -0.0059312168
0003b0 47 1d 13 bd 9b 54 b3 ba 77 19 11 bc 29 23 26 bc
       -0.035916593 -0.0013681831 -0.008856169 -0.010140219
0003c0 b0 60 b9 bc ad 48 de bc ab 5e c0 3b aa 72 de bb
       -0.022629112 -0.027134264 0.0058706603 -0.0067885714
0003d0 bf cb a4 3c 27 12 11 3d fb 22 5b bb 1d 54 b5 bc
       0.020116685 0.035417702 -0.0033437598 -0.022134835
0003e0 9a 98 46 bc bf 15 8d bb 35 35 98 3b c0 20 ef bc
       -0.012121344 -0.004305571 0.0046450146 -0.029190421
0003f0 17 6b a1 3b 1f 77 a3 bc 2a 11 92 3b 62 ee 15 bd
       0.004926096 -0.019954262 0.0044576125 -0.036604293

conv2.bias f4 [64]
000000 dc 6c 97 3c 23 5c 08 bc 37 30 87 3b 6a fb d2 3c
       0.018484525 -0.008322748 0.0041256207 0.02575465
000010 17 2c 26 bd 05 74 dd bb da 28 c3 b9 9f 9d 8e ba
       -0.04056939 -0.0067582154 -0.00037223735 -0.0010880715
000020 50 c6 dc bc 9a be c7 3b 01 3a 08 3c 1b 53 42 3c
       -0.026950032 0.0060957195 0.00831461 0.011860634
000030 ef 2d bb bb 46 b1 02 bb 35 c7 0d bc 4f e5 e2 bc
       -0.005712263 -0.001994209 -0.008653452 -0.027697233
000040 aa 9c 17 3c 8f 09 d4 3d 44 7b ad 3c 1f 20 ec bc
       0.00925366 0.10353386 0.021176942 -0.02882391
000050 70 fa 15 bd 7b dc fb bb d3 31 a7 bb 12 66 b8 bc
       -0.03661579 -0.0076861954 -0.005102375 -0.022509608
000060 ff d7 fc 3c b0 d9 49 bc c3 08 81 bc b3 da 02 3d
       0.030864714 -0.012319967 -0.015751248 0.03194685
000070 80 c2 66 3d 1f 71 0f bd d0 30 32 bc d3 00 a3 ba
       0.056337833 -0.03501999 -0.010875896 -0.0012436159
000080 a7 ac fb 3a 63 42 48 bd bc a2 8b bd a2 e0 78 3d
       0.0019201235 -0.048891436 -0.068181485 0.0607611
000090 2f 36 89 bc 4a cc 24 3b f7 14 b2 3a 3b a2 60 3d
       -0.01674947 0.002514618 0.001358657 0.054842215
0000a0 c6 95 30 3c 08 69 92 bc bd 75 8f 3c 60 1b b4 bb
       0.010777896 -0.017872348 0.017512197 -0.0054964274
0000b0 69 af 18 ba 7d d4 94 bc 9f 26 4e 3b 37 5f 83 3c
       -0.0005824478 -0.018167729 0.0031456125 0.016036613
0000c0 5e f2 a6 bc bc 03 cc 3b 38 d7 31 bd 67 4f 05 3d
       -0.020379242 0.006226031 -0.04341814 0.032546427
0000d0 5f 2b 3e bc d1 52 b4 bc d4 bc b0 3d ea 41 e1 3a
       -0.01160702 -0.022012146 0.08629766 0.0017185782
0000e0 dd 43 8c bc df 72 2c 3d 52 06 75 bc 33 ac 39 bd
       -0.017122203 0.042101737 -0.01495512 -0.045330238
0000f0 45 1d 84 3d 82 8a 0b 3c 68 ce 4a 3d 68 6e 6b 3c
       0.06450895 0.00851691 0.04951325 0.014369585

conv3.weight f4 [64, 64, 3, 3]
000000 15 69 d8 3b 2a 5e c7 3b 01 3f 2f 3c b1 3e 8b bc
       0.0066043236 0.0060842233 0.010696174 -0.016997667
000010 6f 8c c7 bc e7 ff 3e 3b 77 a4 b7 bb ca 56 ab bc
       -0.024358956 0.002914423 -0.0056043225 -0.020915408
000020 5f a6 c2 bb e8 3a 83 bb 4f 99 c0 3a fb 8e 74 bc
       -0.005940243 -0.004004825 0.0014694127 -0.014926667
000030 97 b2 d1 3b 87 4f 75 3c 80 8b d4 bb 94 2a 1e bc
       0.0063994634 0.014972574 -0.0064863563 -0.009653706
000040 9a 37 1a 3b 47 13 08 3c bc 31 18 3b 17 6e 5b 3c
       0.0023531676 0.008305377 0.0023223003 0.013392947
000050 a8 66 3c 3b 2a 24 dd 3b f2 38 6f bc a5 46 59 bc
       0.0028747711 0.006748696 -0.014600979 -0.013261472
000060 bb fe 60 bc e8 69 eb 3b 48 9b 55 bc df b3 4b 3a
       -0.0137326075 0.007184256 -0.01303751 0.00077706383
000070 12 53 9b 3c e9 e2 8b 3b 20 b4 af bc 52 02 11 3c
       0.01896051 0.004268993 -0.021448195 0.008850651
000080 28 1a 1c 3c 09 e6 b4 bc 3c cb c1 bc 0a 06 d9 bb
       0.0095277205 -0.022082346 -0.02365648 -0.0066230344
000090 c9 49 85 bc f9 d7 06 bc b2 d6 39 3c e7 9c 3c 3c
       -0.016270535 -0.008230203 0.011342691 0.011512018
0000a0 bf 60 d2 3b 8b b6 0f 3b 1f 2b 79 bb 8f e7 ad bc
       0.0064202244 0.0021928872 -0.0038020087 -0.02122858
0000b0 dd fe 8f bc 41 61 05 3c 77 e0 05 bb d9 94 92 bc
       -0.017577583 0.008140863 -0.002042798 -0.017893242
0000c0 e7 ba 10 3c 3f 5d bb bb cb 48 82 bc a2 32 3e 3c
       0.0088336235 -0.005717903 -0.015903851 0.0116087515
0000d0 62 71 d1 3b 55 cf e0 bc 70 b0 bd 3a c3 fa 37 bc
       0.00639169 -0.027442614 0.0014472138 -0.01122922
0000e0 73 34 02 bc 5b c2 ab bc 5b af 63 bc c5 6c 69 bb
       -0.007947075 -0.0209667 -0.0138967885 -0.003561781
0000f0 58 75 e3 3b e5 cf 22 3c fc ae c8 3b e0 8f 5e bc
       0.0069414787 0.009937261 0.0061243754 -0.013584107
000100 79 58 16 bc 3a 88 6a bb 87 80 14 39 37 73 f0 ba
       -0.009176367 -0.0035786764 0.0001416226 -0.0018344884
000110 c2 af 25 3b f2 05 94 bc c3 c1 a8 bb a5 9b cd bc
       0.0025281762 -0.018069241 -0.0051500513 -0.025098631
000120 82 94 1a bb 57 b2 f5 bb 0f 87 05 bc 0f 8b 35 bc
       -0.0023587053 -0.0074980664 -0.008149876 -0.011080517
000130 b2 02 98 bc cb be 0c bb 47 94 e4 3b 8a 37 65 bb
       -0.018555973 -0.0021476026 0.006975684 -0.003497573
000140 d5 3d 0a 3c a4 d8 c4 bb 83 89 67 bb 1a 93 a6 bb
       0.0084375935 -0.006007271 -0.0035329766 -0.005083454
000150 10 7d bb bc b8 0d d2 bc f4 c5 0d 3c 6f 63 89 3c
       -0.022886783 -0.025641307 0.008653153 0.016771046
000160 1d 2e 55 bc 4b ac 02 bb aa 1e 26 bc 68 18 9a bb
       -0.013011483 -0.001993912 -0.010139147 -0.0047026165
000170 57 66 8e bc 15 23 a5 bb 55 f5 f1 3b 81 45 3c bc
       -0.017382784 -0.0050395825 0.007383982 -0.01149118
000180 43 f4 b9 bb 6c 7b 0f 3c 0f 40 00 3c da d7 ec bb
       -0.00567487 0.008757453 0.007827773 -0.00722788
000190 7b fb cf b9 fb c2 93 bb ef 28 08 3c 79 e1 a1 bb
       -0.00039669484 -0.0045093275 0.008310541 -0.0049402085
0001a0 02 1a 21 bb a0 d7 d8 bb ad 1d 2b bb eb ca ef bb
       -0.0024582152 -0.0066175014 -0.0026110217 -0.007317891
0001b0 88 52 55 3c 75 6f e2 bb b8 da f6 bc 8f e1 81 bc
       0.013020165 -0.0069102594 -0.03013359 -0.015854625
0001c0 43 6d 55 3c 43 ac c3 bb 62 20 07 3b f3 fd 20 bc
       0.013026538 -0.005971463 0.0020618667 -0.009826171
0001d0 ca 01 1a bc 99 1a 84 3b 03 65 43 3c eb 41 09 3c
       -0.009399841 0.004031491 0.011925939 0.0083775325
0001e0 88 37 69 3a 35 2a 84 bc a7 26 ba bb 32 bf c3 bb
       0.00088965194 -0.016133407 -0.0056808772 -0.00597372
0001f0 40 bc ce ba 58 36 85 bb 27 74 05 bc b3 72 82 bc
       -0.0015772656 -0.004065316 -0.008145369 -0.015923833
000200 2f fc 38 3c f3 cc 02 bc af 11 4c bb b3 60 6e 3a
       0.011290594 -0.007983434 -0.003113847 0.0009093389
000210 3b 99 00 bb e4 4f 15 bc 90 c0 9e bc 73 73 3a 3c
       -0.0019622582 -0.009113286 -0.01937893 0.011380064
000220 75 e0 1a 3b 2f 1c e3 3b 7d 2a 5c bc 33 7f 9f bc
       0.0023632322 0.00693085 -0.013437864 -0.019469833
000230 dc 8d 23 bc 40 6b 28 bc ca 5d bf bb 7b 4e 32 bc
       -0.009982552 -0.010279477 -0.005840038 -0.010882969
000240 3d ec 87 bb f7 fb d7 bb 20 13 16 bc 33 0e 65 3c
       -0.004148035 -0.006591316 -0.009159833 0.013980436
000250 08 35 9c 3b 5d ea 99 bc c3 df 98 b9 0a 62 95 bc
       0.004767064 -0.018788511 -0.00029158415 -0.018235225
000260 e8 23 0a bb f0 c5 9a 3b d5 cb 6c bb 5d ff e1 bb
       -0.002107853 0.004723303 -0.0036132236 -0.0068968968
000270 2a 78 f3 3b 98 e3 03 bb d2 fe 97 3b 28 e7 5e bc
       0.007430096 -0.002012467 0.0046385312 -0.013604917
000280 0a 58 7c bb fd 14 58 bc 3d 01 5b 3c 7b d2 99 3c
       -0.0038504624 -0.013188598 0.013366994 0.018777123
000290 48 6a 22 3b 58 46 e4 b8 0f dd b4 3a 28 17 28 bc
       0.0024782587 -0.0001088499 0.0013798791 -0.010259427
0002a0 87 cf b6 bb 37 e7 bd 3b 8f b5 cc 38 77 a4 8f bb
       -0.0055789384 0.005795385 9.761296e-05 -0.0043836194
0002b0 7a 62 00 bc 6f 1e 47 ba 90 c5 c2 3b ef 9a f9 bc
       -0.007835979 -0.00075957825 0.0059439614 -0.030469386
0002c0 7f 50 28 3c a3 a4 9e bc 87 7c 82 3b 3f dd 9a bc
       0.010273098 -0.019365614 0.00398213 -0.018904326
0002d0 d5 cd 0a bb df 21 b0 ba 87 53 4d ba b1 c8 ca ba
       -0.0021179814 -0.0013437829 -0.0007832576 -0.0015471188
0002e0 c9 be b7 bc 6b 4d 01 bc 2d d3 93 bb 27 5a fc ba
       -0.02242984 -0.007891993 -0.004511258 -0.0019252942
0002f0 e3 85 92 bb 0b 26 81 bc 9f 49 08 3c 3f 24 0f 3b
       -0.004471527 -0.01576521 0.008318334 0.0021841673
000300 bb a0 4c 3c ea ac 60 bb 60 53 1a 3b 90 0a 5d 3b
       0.012489493 -0.0034282752 0.002354823 0.003372822
000310 65 28 13 b9 83 74 0f 3c 6a c4 b1 bc 4f 31 a7 3a
       -0.0001403406 0.008755806 -0.021700103 0.0012755784
000320 ab 70 25 3c bd b6 78 ba d4 fc 1b bc e8 83 ae 3b
       0.010097663 -0.00094876793 -0.009520728 0.005325783
000330 da 88 b5 bc 3b 1d a1 bb 9d 02 e1 3b 48 63 6d bc
       -0.022159982 -0.0049168146 0.0068667666 -0.0144890025
000340 4a eb 59 3c a8 db 54 bc 65 33 d9 bc 40 79 e6 ba
       0.013300726 -0.012991823 -0.026513765 -0.0017583743
000350 6f 8c 7b 3b 67 d1 59 bc 5a ec bf bb 93 09 85 bb
       0.0038383265 -0.013294554 -0.0058570327 -0.004059979
000360 ab 7f 04 bc f3 33 cf bb 77 ed d3 bc e0 95 d3 ba
       -0.008087079 -0.0063233315 -0.025870068 -0.0016142689
000370 8b 23 03 bc 63 ad 95 3a 28 35 8f bc 23 2a 6d 3b
       -0.00800408 0.0011419471 -0.017481402 0.0036188446
000380 64 80 90 bc f2 08 63 bc 78 1b 3f bc 99 b1 42 bc
       -0.017639346 -0.013857113 -0.011664264 -0.011883163
000390 c0 57 a4 bc 34 81 83 bc e7 3f 67 39 dc 90 a0 3b
       -0.020061374 -0.01605282 0.00022053682 0.004900081
0003a0 43 8f 62 3b c7 6a a2 3c 8f c3 b5 3b 25 5e cf 3c
       0.0034570254 0.019826306 0.005546994 0.025313446
0003b0 ab d8 06 3c 0d 26 75 3a 47 2b b7 bc 8b 74 19 bc
       0.008230369 0.00093516783 -0.022359503 -0.009366165
0003c0 b2 d6 ff ba c0 44 b6 bc 77 06 3f bc b3 65 6a 3c
       -0.001951894 -0.02224958 -0.011659256 0.014306474
0003d0 63 01 16 bc 75 b9 13 3b f7 07 73 bc 1f b8 1d bc
       -0.009155604 0.002254096 -0.014833442 -0.009626417
0003e0 eb 2a 04 bc ea 09 35 bc 00 cf 97 bb 43 4f 30 3c
       -0.008066873 -0.011049727 -0.0046328306 0.010761085
0003f0 ff 4e dd bb 0f b1 f5 3b 60 f4 cf bc 5b 83 85 bc
       -0.006753802 0.0074979137 -0.025385082 -0.016297987

conv3.bias f4 [64]
000000 33 05 f5 bb db f9 f8 bb b5 97 f8 bb f3 0e 03 bb
       -0.0074774264 -0.0075981445 -0.0075864443 -0.0019997924
000010 bd 7a 22 3c 73 d9 7b bc ba 03 51 bc 2a 84 02 bc
       0.009916958 -0.015371668 -0.012757236 -0.007966081
000020 27 b4 48 3b 9b a2 c8 bc 72 fb 82 3c 8d a7 14 bc
       0.0030624957 -0.024491599 0.01598904 -0.00907315
000030 40 68 4f bc b8 f7 85 bb d2 9a 0d bc d0 d4 2b 3c
       -0.0126591325 -0.0040883683 -0.008642869 0.01048775
000040 56 e4 28 bd df 3d dd 3a ef 00 3d bc 1a 4a fe bb
       -0.041233383 0.0016879401 -0.011535867 -0.0077602984
000050 3f 8a cf bb 2a dd 35 bd c5 74 50 3c 63 fe 5f bc
       -0.006333619 -0.04440037 0.0127231525 -0.01367149
000060 37 5f cc 3a 8d 7d 6b bb 2a d4 a5 bb 5b 15 14 bc
       0.0015592341 -0.0035932988 -0.0050606923 -0.009038295
000070 d5 0d 3e bb 2a f7 f1 3b 4c 08 40 3c 1f 0a c2 bc
       -0.0028999944 0.0073842006 0.011720728 -0.023686467
000080 37 ff 07 3c b1 5b 01 3c f7 8b 88 bb 2a fd d8 bc
       0.008300594 0.007895396 -0.0041670757 -0.026487906
000090 ff 80 3f bc 72 07 15 bc 60 94 da bb 5a 2d 2d bc
       -0.01168847 -0.009096013 -0.0066705197 -0.010569895
0000a0 27 f8 2c bc 67 88 3e bc 5d 76 0f 3c 48 b3 42 3b
       -0.010557211 -0.011629201 0.008756247 0.002970891
0000b0 bf ce 95 3c 3b d0 8a bc eb ef d1 3b dc 0a a0 bc
       0.01828706 -0.016944995 0.0064067743 -0.019536428
0000c0 49 94 13 bb 18 c7 89 bb 27 21 cd 3b b2 b8 d2 3b
       -0.0022518805 -0.004204642 0.0062600556 0.006430709
0000d0 69 c2 16 3a 8d 76 b0 3d f8 2f 3a 3b e5 84 76 bc
       0.0005751015 0.08616362 0.002840994 -0.015046333
0000e0 83 72 d5 bb 1a ec 3f bc 9f b1 03 bb a8 4d a5 3c
       -0.006513895 -0.011714006 -0.0020094884 0.020178631
0000f0 83 00 e4 bb 07 fd b2 bb 18 a0 09 bc 67 5a 2a bc
       -0.006958069 -0.005462292 -0.008399986 -0.01039753

fc1.weight f4 [64, 1024]
000000 98 86 a5 bb fb 4e 7c bb 4f 8d 20 3c 53 a7 82 3b
       -0.005051445 -0.0038499224 0.009799316 0.0039872318
000010 b2 da d8 bb bb 94 cb 3b 8b f5 74 3b c8 f6 ef 3b
       -0.0066178674 0.0062127984 0.00373778 0.00732312
000020 2a d3 56 3b 2f 34 31 bb 09 d8 86 bb 87 85 71 3c
       0.0032779672 -0.002703916 -0.004115109 0.014741308
000030 9a 6f fc ba df 27 4f 3b 97 3b b2 bb b2 bd f5 3b
       -0.0019259334 0.0031609458 -0.0054392326 0.00749942
000040 cd 86 94 3a 5a bb a7 3b f8 69 19 bb b2 75 f6 bb
       0.0011331678 0.0051187696 -0.002340911 -0.0075213546
000050 c7 35 8b 3b 47 d1 31 bc ba e3 90 3b 19 42 a8 3b
       0.004248354 -0.010853118 0.0044216784 0.0051348326
000060 d5 29 6d 3c 0a 63 9e bc 4f 71 96 3b b2 6c e3 bb
       0.014475306 -0.019334335 0.004591144 -0.0069404477
000070 dd 65 50 bb 15 c1 54 bc 5f 5d f4 3a 3d 75 61 3b
       -0.0031798996 -0.0129854875 0.0018643549 0.0034402155
000080 22 f0 12 3a 0b 40 58 bc 87 89 c6 bb a0 f0 b9 bb
       0.00056052406 -0.013198863 -0.006058875 -0.0056744367
000090 bf 83 b2 3b 58 3d e5 bb 42 e1 02 bb 87 56 fe ba
       0.0054478343 -0.006995838 -0.001997069 -0.0019404449
0000a0 ca 85 b7 bb 23 58 8c 3b 88 8b 45 bc d3 25 54 bb
       -0.0056006657 0.0042829677 -0.012057193 -0.0032371178
0000b0 50 8f fb 3b 80 40 43 3c 1f be 66 bc eb d8 21 bb
       0.0076769963 0.0119172335 -0.014083414 -0.0024695944
0000c0 ea 4b 33 ba 3a 83 23 3c e7 f9 a7 b9 ba 86 c2 ba
       -0.000683962 0.009980017 -0.00032038914 -0.0014841177
0000d0 48 33 b4 3c e7 4b 4b 3b cf 4b a7 bc 12 39 08 3b
       0.021997109 0.0031020583 -0.02042189 0.002078597
0000e0 c8 a7 c3 3a 7f 63 24 3c c7 79 bc 3a 0f d5 a2 3c
       0.0014927322 0.010033487 0.0014379554 0.019876985
0000f0 50 b7 3b 3b 82 2f 2f 39 c8 f6 1d bc fd ae 79 bb
       0.0028643198 0.00016706999 -0.009641357 -0.0038098686
000100 6a fa fb bb 63 45 27 3b 23 a1 1b 3d cd 78 df 3c
       -0.007689764 0.0025523535 0.03799547 0.027279282
000110 e8 2a 5e 3b 4e d7 44 3c d0 0b 90 3a 0b 46 99 bb
       0.0033900086 0.012014223 0.0010989849 -0.004677539
000120 53 61 18 bc 75 5e eb bc 07 5a 6b bc 03 7b 16 bd
       -0.009300548 -0.028731564 -0.014364726 -0.036738407
000130 85 2c 9e ba 02 51 29 3d 39 e7 12 3d 73 05 73 bc
       -0.0012067711 0.04133702 0.035865042 -0.014832842
000140 54 56 21 bc 17 06 fa 3b 2b bb 76 3b 6f 92 4f 3b
       -0.009847242 0.0076301205 0.0037648182 0.0031672975
000150 a0 e4 fb bb d5 cd 62 bb d5 34 98 bc 3f 17 74 bc
       -0.0076871663 -0.0034607549 -0.01857988 -0.01489812
000160 9f 35 85 bc 04 66 93 bb 1b e7 49 b9 d3 3a 54 3b
       -0.01626092 -0.004498245 -0.00019254947 0.0032383695
000170 e3 64 ca bb 18 78 d9 3a ba 55 42 3c b7 1d 3c bb
       -0.0061765774 0.0016591577 0.011861259 -0.0028704235
000180 17 41 db bb 13 b3 95 3a 8b 84 58 bb 6b 57 7e bb
       -0.006691109 0.0011421166 -0.0033037986 -0.003880943
000190 d3 43 f1 3b 77 e5 c0 3b a5 55 53 3b 2f 89 d6 3b
       0.0073628216 0.0058867293 0.0032247093 0.0065471153
0001a0 3c 0f 83 bb 5f 21 6c bc 81 6b 8d bb 0a 43 ac bb
       -0.003999619 -0.014412253 -0.004315794 -0.005257015
0001b0 8d 84 97 b8 f7 10 1f bc 70 8f 75 3b c0 96 4f 3c
       -7.2249306e-05 -0.009708635 0.0037469529 0.012670219
0001c0 bf ab a5 bc 80 c3 37 3c 7a 26 2e bb 57 d0 86 ba
       -0.020223496 0.011216044 -0.0026573227 -0.0010285479
0001d0 d2 9f 88 3b 51 2e 26 bb 74 19 11 bb ca 6f 62 bc
       0.0041694427 -0.0025357197 -0.0022140415 -0.013820598
0001e0 87 c5 b4 3b 2a af 63 3b 18 6d 3a 3c 08 47 60 3c
       0.005516711 0.0034741857 0.011378549 0.01368881
0001f0 7c 49 01 3c db 82 b0 3b 0d 18 54 bc 72 0d e4 3b
       0.007891055 0.005386693 -0.012945187 0.0069596106
000200 9a 61 16 3b 42 ac e3 bb b8 26 0f 3c 1b bd 3d 3c
       0.0022946359 -0.006948025 0.008737259 0.011580731
000210 38 d4 49 3c 67 98 5c bb 77 45 51 3b 17 04 fe bb
       0.012318663 -0.0033660175 0.0031932273 -0.0077519524
000220 57 60 54 3b 6f 17 9d bb ad cb 68 3c f0 23 31 3b
       0.0032406056 -0.0047940533 0.014208716 0.0027029477
000230 73 40 52 ba 9f 64 8d 3b 2f 35 05 3c f8 98 d5 bb
       -0.0008020468 0.0043149735 0.008130356 -0.0065184794
000240 b5 11 06 bd 42 c9 ee 3a 6b 48 35 3d 30 95 64 3d
       -0.03273173 0.0018217938 0.044258516 0.05580634
000250 3e 98 91 bd 20 47 89 bc 54 23 bf 3c 93 b7 41 3d
       -0.07109116 -0.016757548 0.023332275 0.04729421
000260 08 33 9e bd 19 6d 31 bc 96 9d 44 3c e3 58 90 3d
       -0.07724577 -0.010829234 0.012000462 0.07048204
000270 f1 dc 36 bd 6c dd 06 3c ab 84 32 3c bb fd 41 3d
       -0.0446443 0.008231502 0.010895888 0.047361117
000280 10 58 ae 3b 6a 3b 64 3b 93 27 6c bc af f5 b0 3b
       0.0053205565 0.0034825453 -0.014413732 0.0054003815
000290 45 e9 67 ba b7 31 0b bc 4a 23 9f bb 92 99 17 ba
       -0.00088467106 -0.00849574 -0.0048565017 -0.00057830766
0002a0 8d 52 2c 3c 00 c7 70 3b 45 89 5a 3a 58 18 ea 3b
       0.0105177285 0.0036739707 0.0008336495 0.0071440153
0002b0 af 82 8c 3c a5 67 cd 3b 61 37 03 3c 09 22 17 3c
       0.017152159 0.006268459 0.008008809 0.009224423
0002c0 d5 fc 20 bc 63 35 7a bc 5d 9e fe bb e0 cc 0b ba
       -0.009825905 -0.015271517 -0.007770343 -0.0005332958
0002d0 c7 6f 93 b9 4d 52 72 3c 8b b7 a4 b9 c8 f2 18 bc
       -0.00028121306 0.01479013 -0.00031417268 -0.009335227
0002e0 61 03 42 3b 2f 15 19 bc e3 fc 41 3b f0 eb 69 bc
       0.0029604065 -0.0093434295 0.0029600195 -0.014277443
0002f0 6f df 29 3b bf e0 4a 39 73 35 bd ba f2 dd d6 bb
       0.002592053 0.00019347946 -0.0014435485 -0.0065572197
000300 b0 22 58 bc 4c 98 0f bc d8 e8 2c 3c 87 36 17 ba
       -0.013191864 -0.008764338 0.010553561 -0.0005768318
000310 4b 73 08 3c 3b d4 0c 3b 87 50 d2 ba 89 9f a5 bb
       0.008328269 0.0021488804 -0.0016045728 -0.0050544185
000320 7b e9 92 bb ea 4f 48 3c 64 fc be 3b 02 22 78 3c
       -0.0044833994 0.012226084 0.005828427 0.015144827
000330 bd bc 6d bb c5 10 87 bb 5a 6f f1 ba 6f 9d fe 3b
       -0.0036275827 -0.004121872 -0.0018420026 0.0077702324
000340 bd e9 6d 3b bc e1 81 bb 23 8a e4 bb 18 df b6 bb
       0.003630265 -0.003963677 -0.006974475 -0.005580794
000350 43 3c d8 3b 1f c3 a9 3c 7f 39 0e bc 07 bc 5d 3c
       0.0065989806 0.020722924 -0.0086807 0.013533599
000360 5b e2 e9 bb 25 7f 12 bc 53 09 e9 ba 1f 5c 16 3b
       -0.0071375794 -0.008941446 -0.0017779268 0.0022943092
000370 57 a6 0f 3b e7 db 0a bb 38 dd 34 3b d3 b5 2c 3c
       0.0021919215 -0.00211882 0.0027597677 0.010541397
000380 fb 25 46 bb 8d 30 d9 3a b2 03 d0 bb 7b 6f 3d bb
       -0.003023504 0.0016570255 -0.0063480968 -0.002890556
000390 0b 80 00 bb 68 08 16 3c 43 21 0d 3c a0 57 89 3c
       -0.001960757 0.009157278 0.008613887 0.016765416
0003a0 70 35 b2 3b c5 5f 80 bb 13 25 4c bc b3 bd 9e 39
       0.005438499 -0.0039176666 -0.012460011 0.00030277445
0003b0 d0 c4 82 3a cc 95 25 3a 10 04 59 bc 1b 87 25 3c
       0.0009976868 0.0006316572 -0.0132455975 0.010103012
0003c0 eb f5 2b 3c ba 4a 94 3b 45 c7 93 3c 88 78 c8 3c
       0.010495643 0.0045255097 0.018039355 0.024471536
0003d0 3a 8b 10 3d 97 fa c4 3c ab 12 bc 3c 74 b7 30 3d
       0.035289027 0.024045272 0.02295812 0.043143705
0003e0 88 ff 1a bc 15 ba 7d bb a3 c7 32 3c 1f 59 08 3d
       -0.009460337 -0.003871565 0.010911855 0.033288117
0003f0 c7 a6 91 bd 62 15 14 bd c9 98 9e bb 12 99 a4 3c
       -0.071118884 -0.036153205 -0.0048399908 0.02009252

fc1.bias f4 [64]
000000 77 0a 41 bc b5 a9 9c bc 77 ac 80 bc 8b 80 99 bc
       -0.01178228 -0.019123891 -0.015707238 -0.018738052
000010 33 f8 34 bc 3b 23 53 3b 73 04 1f bd 41 77 9b ba
       -0.011045503 0.0032217044 -0.038822602 -0.0011861102
000020 ea a0 7b bc 7c a1 17 3c a4 54 ac bb dd 36 66 bb
       -0.015358189 0.0092548095 -0.0052591134 -0.0035127916
000030 45 f9 0c 3c 07 5c ae bc 40 04 ca bb 2a fe fc ba
       0.008604352 -0.021284116 -0.0061650574 -0.0019301821
000040 cf 4b c1 bb a6 9a 1f bd cb 5f a7 bc 9f 1f 16 bc
       -0.0058989297 -0.038965844 -0.02043142 -0.0091628125
000050 23 3d b0 3b 2d 58 9e bb 3a fa 68 bc 30 3c 73 3a
       0.005378382 -0.0048322887 -0.014219815 0.0009278683
000060 ba 67 0c ba 80 8c 85 3d 73 2f b7 3d f6 36 83 bb
       -0.00053560326 0.06520939 0.08944597 -0.0040043546
000070 dd 9c 82 3a aa 62 7f 3c 52 b6 25 bc 83 95 e8 3c
       0.0009964962 0.015587488 -0.010114269 0.028391605
000080 b3 c2 fa 3b 0d 4e 76 3d 34 d5 3a 3d 15 9d a1 bb
       0.0076526045 0.06013303 0.045613483 -0.0049320557
000090 eb 37 b2 bc f1 b9 98 bc cc 86 8d 3d 02 53 91 3d
       -0.02175518 -0.018643351 0.06910476 0.070959106
0000a0 c7 04 4f bd 4f 17 e8 bb 88 4f 9d 3d 7b 31 70 bc
       -0.050541665 -0.0070828567 0.07681185 -0.014660235
0000b0 dd 78 60 bc 0c c8 08 3c c1 4f 44 3c 85 8b c0 3b
       -0.013700691 0.008348476 0.011981905 0.005876007
0000c0 c7 a5 52 3b 45 65 0c bd 51 6e 13 bb 37 b3 c5 3b
       0.0032142268 -0.034276266 -0.0022496174 0.006033327
0000d0 31 94 b9 b8 55 0f 55 3c 18 78 90 bc 16 a9 0e bd
       -8.84909e-05 0.013004144 -0.01763539 -0.03482922
0000e0 d8 64 07 3c 3e e9 8a 3b cb 5f b7 bb ed 2a d4 bc
       0.008263789 0.0042392304 -0.005596136 -0.025899375
0000f0 85 4f c1 bb a3 b5 6a bd 87 ed c4 3c 8f 3e fb 3c
       -0.005899372 -0.05730213 0.024039043 0.030669479

fc2.weight f4 [10, 64]
000000 cf 2e b5 3d 1a 2a 03 3d f8 35 16 3d 75 ed 40 bc
       0.08846819 0.032022573 0.036672562 -0.011775364
000010 c8 98 36 bd 9d b2 13 bc 48 33 dd 3d af 70 23 3b
       -0.044579297 -0.009014753 0.10800797 0.002493899
000020 5d ea e5 3c 80 a7 1b 3d ba b5 92 bd 1a e5 26 3d
       0.028065855 0.038001537 -0.07163568 0.040745832
000030 52 50 2f bd 47 62 ad 3d 77 97 26 3c 7f 98 d7 3b
       -0.04280121 0.084660105 0.010167948 0.0065794582
000040 98 49 59 3d d9 4d 01 bc ad 3b b3 bc 82 34 e6 bc
       0.0530487 -0.0078920955 -0.021879042 -0.02810121
000050 8a d7 ab 3b 6d c6 88 bc d6 70 07 3d 5c 80 0a bd
       0.0052442 -0.01669618 0.033066593 -0.03381382
000060 40 19 6e 3c bb e0 63 bc 7d fc 71 b9 8f 13 b3 3c
       0.014532387 -0.01390856 -0.0002307761 0.021859912
000070 0d 3a 27 bc 48 62 99 bc f7 7c 2c 3c 22 e7 bc 3c
       -0.0102067115 -0.018723622 0.010527841 0.023059431
000080 c6 48 31 3d b0 6a 53 bd d3 77 0c 3d 3a 7a 95 bc
       0.043282293 -0.051615417 0.03429396 -0.018246759
000090 6c b9 24 3c cf bf 50 3d ff 61 3b 3c 87 32 3a bc
       0.010053974 0.050964173 0.011436938 -0.011364586
0000a0 cf 8e 03 bb 9b 0e 0a 3c 4c b0 2b bd c0 db 51 bd
       -0.0020074134 0.008426334 -0.041916177 -0.05123496
0000b0 a0 20 1f 3d 25 c4 94 3c 1a a1 76 bc 5f 18 10 3d
       0.038849473 0.018159935 -0.015053058 0.035179492
0000c0 15 d2 6b bd 20 71 ee bb a3 17 42 bc 85 b7 ee 3c
       -0.057573397 -0.007276669 -0.011846456 0.029140243
0000d0 9d d3 19 bc a6 f3 28 3d 90 c1 e0 3c 10 1b 89 3c
       -0.009388831 0.041247986 0.027436048 0.016736537
0000e0 13 58 70 bd bf 10 14 bd 23 55 42 3d ab 73 ba bc
       -0.058677744 -0.036148783 0.047444474 -0.022760233
0000f0 2d 6c 79 3d d7 81 75 bc 3e 01 c1 3c bf e6 2b 3c
       0.06089418 -0.0149845695 0.023560163 0.010492026
000100 cd 58 a6 bd f7 78 81 3d 2b 02 91 bc 33 88 b1 bc
       -0.08122406 0.063219 -0.01770123 -0.02167139
000110 32 b1 77 bc 44 01 21 3d 04 92 18 bb 54 c4 15 3d
       -0.01511793 0.039307848 -0.0023280391 0.036564186
000120 10 cf d5 3c 64 42 84 3d 7f af 21 3c b6 72 88 bd
       0.026099712 0.064579755 0.009868502 -0.066625044
000130 9f 24 ab 3d b4 7c 1b bd 70 ea e4 3c eb 53 71 bb
       0.08356594 -0.037960723 0.02794382 -0.00368237
000140 02 ce c1 bc 9f 6b ef bc 97 2a 19 3d c4 6c 43 bd
       -0.023657802 -0.029226122 0.037394132 -0.04771115
000150 ff fe dd 3c 01 be b7 3c 6a b5 ab 3a 28 9f 0f 3d
       0.02709913 0.022429468 0.001310033 0.035063893
000160 6d b0 20 bc e7 76 67 bd c5 87 a0 3a 9a 8d e9 3c
       -0.009807688 -0.05650988 0.0012247494 0.028509904
000170 43 80 8f bc 25 bc 19 3d 66 24 25 bc 69 74 47 3d
       -0.017517215 0.037532944 -0.010079479 0.048695
000180 48 d3 9d 3c 61 80 8e bd 5f ba a8 bd c2 93 25 bd
       0.019265786 -0.0695808 -0.082386725 -0.040424116
000190 25 0f 86 3d c5 38 5e bd 93 eb 98 bd dd e8 f8 bd
       0.06545857 -0.05425336 -0.07466807 -0.1215379
0001a0 ec f7 3c 3d 63 65 54 3b d5 95 8c bc 18 35 b6 3b
       0.046134874 0.0032409064 -0.01716129 0.0055605285
0001b0 b7 29 2e 3d 6f 12 29 3d b0 e3 e8 3d 97 6d eb bc
       0.04252025 0.041277345 0.11371553 -0.02873878
0001c0 02 2f c3 bc 0f b8 ab 3c 4d 87 63 3c 32 8b 84 bc
       -0.023826126 0.02096179 0.013887239 -0.016179655
0001d0 60 d2 01 bc 32 25 81 bd e5 33 24 3c e7 f8 29 bc
       -0.007923692 -0.063059226 0.010022138 -0.010374284
0001e0 60 99 24 bc bf 46 41 3d a8 13 87 bc 1b de f7 bb
       -0.010046333 0.04718661 -0.016488865 -0.007564319
0001f0 6f fd 07 bd f3 33 0c bd d3 39 22 3c 65 c4 f4 bc
       -0.033200677 -0.03422923 0.009901482 -0.029878804
000200 f0 cb 34 3d eb ab 47 3c 10 fb ef bc 5b 90 0c bd
       0.044139802 0.0121869845 -0.02929452 -0.034317356
000210 7f e9 00 bd 88 92 59 bd 7f f3 dc bc 0f b0 4e bc
       -0.03147268 -0.05311826 -0.026971577 -0.012615218
000220 05 b4 74 bd 02 d1 a8 3b 0f 90 ef bc ce c6 9a 3c
       -0.059741993 0.005151869 -0.029243497 0.018893626
000230 dd d8 36 39 8e 1c 4a 3d 4b 49 fd 3c 6f 91 ad 3c
       0.0001743766 0.049343638 0.030918738 0.021187512
000240 49 ae 2b 3d 83 96 50 bc 4b 8d f8 bc b7 13 9f 3c
       0.04191426 -0.012731197 -0.030340811 0.01941858
000250 c5 1f 90 bb 23 a0 55 3c dd c4 2b bc b7 95 18 3d
       -0.0043983185 0.013038668 -0.010483948 0.037252154
000260 f1 2b 08 bc 60 ed 04 3d 4b c6 85 3d 3d 01 ea bc
       -0.008311258 0.03245294 0.06531962 -0.028565044
000270 cd 92 6e bc 1b 3c 93 3c 43 86 16 bc 58 ca a9 bc
       -0.014561367 0.017972996 -0.009187284 -0.020726368
000280 75 8d 1b 3d 4c 89 96 3d 1f c2 6e 3d 7d d8 e6 bc
       0.0379767 0.07350406 0.058290597 -0.028179402
000290 ab c6 1e 3c 3f 88 4a 3c 2b 06 09 3d 06 15 18 3d
       0.009690921 0.012361585 0.033453148 0.037129425
0002a0 f7 57 2a bd 94 86 09 bd d2 aa 55 3d 42 a2 18 3c
       -0.041587796 -0.03357561 0.05216486 0.009316029
0002b0 58 66 15 3d ff a0 22 3c 15 e0 9c bd cb e7 7a bc
       0.036474556 0.00992608 -0.07659928 -0.015314053
0002c0 2f e7 cf bc 63 b8 83 bd f5 18 f1 bb 77 98 b8 bc
       -0.025378792 -0.06431653 -0.0073577114 -0.022533638
0002d0 48 e8 12 3d b7 ec 17 bc 52 7c 7b 3b 5e 7b 17 3d
       0.035866052 -0.009272746 0.0038373661 0.036982886
0002e0 a7 85 d0 bc 48 69 a0 bd a2 72 0b 3d 03 f2 a6 bc
       -0.025454355 -0.07832581 0.03404487 -0.020379072
0002f0 f2 47 12 bb 95 8f e3 3b 77 99 2c 3c 5d f8 14 3c
       -0.0022320715 0.0069446065 0.010534636 0.009092418
000300 9b 48 aa bd b3 07 89 3b 32 68 74 3d 87 7f 9f bc
       -0.0831463 0.004181826 0.05966968 -0.01946999
000310 93 de ec 3c 50 e9 fd 3a f9 41 c7 bb c0 cf 4e 3d
       0.028914725 0.0019371901 -0.0060808626 0.050491095
000320 0d b2 09 3d 35 87 43 bd bd f5 2c bc 1d 3b 96 3c
       0.033617068 -0.047736365 -0.010556635 0.018338734
000330 49 6d 11 3d c2 5b bc bd 90 d7 d9 bb fa 14 84 3d
       0.035504613 -0.09197189 -0.0066480115 0.064493135
000340 6f 99 00 bc 73 cb 2a bd 59 12 b4 3c da dc dc 3a
       -0.007849081 -0.04169793 0.021981405 0.0016850487
000350 fd d9 3b 3d 81 c0 c7 3c 1b b5 cc bc 6b f0 26 3d
       0.045862187 0.024383785 -0.024988702 0.040756624
000360 3b ea b3 ba b9 91 34 3d 17 d1 9f bd 78 98 10 bb
       -0.0013726422 0.044084284 -0.078035526 -0.0022063535
000370 f3 85 96 bb 5f eb c5 3b aa 76 bf bd 03 49 a3 3c
       -0.0045936047 0.0060400213 -0.09348805 0.019932276
000380 93 25 98 3a 83 c8 1b 3d f2 4f 72 3d 16 b3 22 bd
       0.0011607878 0.03803302 0.059158273 -0.03972157
000390 2d e1 54 bd 10 60 1f bd 7d 9e 11 3d 41 ac 27 3d
       -0.051972557 -0.03890997 0.035551537 0.04093576
0003a0 dd c3 7a 3d 37 49 88 bc cb 46 78 ba 4d 05 b9 bc
       0.061221946 -0.016636474 -0.0009470998 -0.022585535
0003b0 b1 38 06 bd a9 b9 14 bc 19 07 82 bd 30 3d 4c 3c
       -0.03276891 -0.009077468 -0.0634901 0.01246576
0003c0 5f f3 04 bc ba 6a 51 3c 4f c4 ed 3c 62 c6 f9 bb
       -0.008114665 0.012781793 0.029024271 -0.007622526
0003d0 63 a6 d8 bc 80 0b 0c bc fd 92 53 bc 07 99 7e 3d
       -0.026446527 -0.008547664 -0.012913463 0.062157657
0003e0 eb f6 d7 3c 2d a1 d7 3c 38 8a f4 bc 9f 65 22 bd
       0.026362857 0.026321972 -0.029851064 -0.039647695
0003f0 9c 99 b8 3b f5 0d 79 bc 9a 44 19 3d ab 7f d2 3c
       0.005633546 -0.0152010815 0.03741894 0.025695642

fc2.bias f4 [10]
000000 fa a4 d3 bd 5f 2e ee 3b a4 8f 9d 3d dd ca f2 bb
       -0.10334201 0.0072687115 0.07693413 -0.007409437
000010 df 6f 94 3d 25 f3 d3 bc 33 6d 74 3c e0 51 e8 bc
       0.072479 -0.025872776 0.014918613 -0.028359354
000020 79 15 20 bc ba d5 a8 bd
       -0.0097707445 -0.0824389
