torch_to_tf/torch_models/model_round659.model (torch, 493063 bytes, 10 tensors)

conv1.weight f4 [32, 3, 3, 3]
00000000: c764 ca3d 32e5 5cbd 79bc b8bc 3a85 cf3d
00000010: fa6b 0bbe fdd7 4cbd 2a0a 6e3c 1b6f 6fbb
00000020: c066 be3d 21a7 a83d 4ea3 1dbd c5b5 783d
00000030: a37b 393c 731f b5bd 3f49 863c 3087 093d
00000040: ca13 c8bc a208 f6bb b7dd 06bd 3561 e73d
00000050: bc8b bdbd dee5 15bc 7218 463c c9b1 b7bc
00000060: 5e48 aabc 9c56 3dbd f894 643c 1cfc 233c
00000070: 9050 cf3c cf06 64bb b69a 9fbd 5ca8 c9bd
00000080: c5f1 953d 5ace cebc daa8 01bc 34cf b7bc
00000090: eaa8 9b3d 9fab df3d 43f5 0d3d 8f45 483c
000000a0: 77c5 06bd d798 d03b bd98 5a3c 0a00 293d
000000b0: 4084 c5bc 67de 313d 6217 903c f8d6 6d3d
000000c0: 5b3a fbbb 5ad3 b1bd b740 85bd 0efa 82bd
000000d0: f2f6 ccbb 5ca3 26bc f8ca 51bd a30a 993d
000000e0: 877e dd3d a199 ccbd aac6 733b 57b1 68bd
000000f0: 6dc8 613d 08e5 2b39 0660 00bd d245 b43c
00000100: 2e31 3abd c762 2e3d 60da 5fbc b3c0 e13d
00000110: 6359 43bd 0d5c 733c f7dd 413d 92e5 4c3c
00000120: 2d60 6fbd 8ad1 0abe 52d9 fc3c ce68 19bb
00000130: 20c5 ff3d 73e0 0bbd a9dc 3ebd dd11 463d
00000140: 56f8 a2bd f5e8 783d 07d9 973d 9215 74bc
00000150: 30e6 3d3d 1d9f 3bbc b32d 8d3b 5781 f63d
00000160: 7fef 2bbd 70fc 92bd b5b0 75bd 2dce 5a3d
00000170: f6c9 a1bc e7cc 8a3b 920b bc3d 47cd ebbd
00000180: ca6c 79bd efa8 c0bd 8074 62bd 7315 03bc
00000190: f884 7dbc 06a4 1f3d 5b98 833d 9d51 513c
000001a0: 1072 98bd 4b0f 143d bf4d 0abd d848 b03d
000001b0: fb45 e23c 73ae 8e3d 6820 053d 5cec 473d
000001c0: 580b 143d 8d71 523c b24d e83c 96b9 803d
000001d0: 5500 7e3d 0ffa 50bc 0af2 72bd f03c cfbd
000001e0: 1b68 7cbd 40c6 f5bc 3f0a a73a e0c7 48bd
000001f0: af01 a1bd c81e 3bbd ab2c afbc f0f8 f4bb
00000200: b33b a33d 7fa6 f03a f437 24bc 9c00 09bc
00000210: 26ba 0c3d 10d4 a1bd 3899 533d a6d9 9c3b
00000220: db9b 29bb 1ba3 3fbd fdf6 f73c 87be 8a3d
00000230: 5f29 923d f7f5 4d3c ab43 353d 3719 c2bb
00000240: 0549 79bd dd71 7a3d c06c e33b 4ea2 06be
00000250: 8709 0937 e386 c8bd 0f40 0cbd 3241 42bd
00000260: f00e b9bd 03dc 02bc 9db1 bc3c e306 f1bb
00000270: 08d9 cb3b 03e2 d23d e305 b0bc e5bc b6bd
00000280: bad4 473d ad6c d43d e2b4 973d 67ad 3bbd
00000290: 2087 073d 08b8 33bb e737 fa3c e83a b33d
000002a0: dd2a 60bd 2f84 d23c 40bb ec3d d093 12bd
000002b0: a699 c5bd 132a 9dbd c379 d4bc 3627 8d3c
000002c0: 89e0 4a3c d5c6 84bd 6897 f4bc 2039 7a3d
000002d0: 6ddd 47bd 1055 14be 458b 213c 63b8 86bd
000002e0: 9d73 a0bd fd1c 9f3d 0d82 95bd 5bf4 923c
000002f0: b22f 903d 3d42 da3d 10fd f6bd 473a c7bc
00000300: 07ed 5cbd 632c 8fbd 7aaa 5c3c e379 04bc
00000310: d6e2 373c cbce 3d3c 1447 8fbd c118 13bc
00000320: ca84 143d 2809 cf3c 746c 0bbd eb41 f53c
00000330: fa26 f63b 0f8f 02bd 4bfc 81bd ca36 d13d
00000340: 34ff 9fbd 189b 4b3c a5cf 5a3d 2f45 ff3d
00000350: ebef 87bd 3fb4 8f3d c601 0a3c 6f29 cbba
00000360: 77c3 cfbc 9a76 bdbc 50c4 f43c 90ac 77bd
00000370: f3c5 cd3c 6326 98bd 4238 b63c 0d3b 553d
00000380: ab34 693d 4cd5 013d 7f6b 03bc 1b86 57bd
00000390: 17c0 713c 1be0 14bd 8ae0 abbd dbf9 92bd
000003a0: 05c1 05bd 9a47 d73d c67a 46bd 57ab 863c
000003b0: 0eab b13b 1fed 14bc 4586 7bbd ad66 ec3c
000003c0: 57af 94bb 1be6 513d abad 873d 1006 d2bd
000003d0: f8d5 4b3c 3712 32bd 8f39 0cbc 90c8 503d
000003e0: 5df9 54bc 4a55 0bbd 177e 1e3c f706 683c
000003f0: 382e d5bd 129f 0fbd bbf1 5d3c b820 d53c
0.09882503 -0.053929515 -0.022550808 0.10132833 -0.13615409 -0.05001067 0.0145287905 -0.003653473
0.09296942 0.08235002 -0.038485818 0.060720224 0.011320981 -0.08843889 0.016392348 0.03357619
-0.024423499 -0.0075083533 -0.032926288 0.11297838 -0.09255168 -0.009149043 0.012090789 -0.022423642
-0.02078646 -0.046225175 0.013951533 0.010008838 0.02530697 -0.0034794097 -0.07793181 -0.09846565
0.073215045 -0.02524488 -0.0079137925 -0.02243767 0.07600577 0.10921406 0.034657728 0.012223615
-0.03290316 0.006365876 0.01334208 0.041259803 -0.024110913 0.04342499 0.017589275 0.05806634
-0.0076668686 -0.0868289 -0.06506484 -0.063953504 -0.006255024 -0.010170784 -0.051218957 0.07472732
0.10815149 -0.0999024 0.003719727 -0.05680975 0.05512278 0.00016393152 -0.031341575 0.02200595
-0.045457058 0.04257467 -0.0136629045 0.110230826 -0.047692668 0.01485349 0.047330823 0.012505906
-0.05844133 -0.13556495 0.030865345 -0.0023408416 0.124887705 -0.0341496 -0.046597157 0.04835688
-0.079575226 0.06076904 0.074144416 -0.014897721 0.046362102 -0.01145151 0.0043084263 0.12036388
-0.04197645 -0.07177055 -0.059982974 0.05341928 -0.019749623 0.004235852 0.09181894 -0.11513763
-0.060894765 -0.094072215 -0.055286884 -0.008000719 -0.015473597 0.038974784 0.06425544 0.012775806
-0.07443631 0.036147397 -0.03376555 0.08607644 0.02762126 0.06966867 0.032501608 0.048809394
0.03614363 0.012844455 0.02835736 0.06285398 0.062012035 -0.012754931 -0.059312858 -0.10119045
-0.06162272 -0.03000176 0.0012744142 -0.04901874 -0.07861649 -0.045683652 -0.021383604 -0.0074759647
0.07970371 0.0018360167 -0.010023106 -0.008361962 0.034357212 -0.07901776 0.051659793 0.004786688
-0.002588025 -0.04678641 0.03026914 0.067746215 0.07136797 0.01257085 0.044253986 -0.005923416
-0.060860652 0.061143745 0.0069404542 -0.13147852 8.168055e-06 -0.097913526 -0.03424078 -0.047425456
-0.09036052 -0.007987025 0.023033911 -0.0073555573 0.0062209405 0.102970146 -0.021487182 -0.089227475
0.048786856 0.10372291 0.074075475 -0.045819666 0.03308785 -0.0027422924 0.030544234 0.0875147
-0.054728378 0.025697796 0.115591526 -0.035785496 -0.09648447 -0.07674041 -0.025936967 0.017230611
0.012382635 -0.06483237 -0.029857352 0.061089635 -0.048795152 -0.14485574 0.009859865 -0.06578138
-0.078345515 0.07769201 -0.07300196 0.017938783 0.07040347 0.10657165 -0.120599866 -0.024319781
-0.053936984 -0.06990888 0.013468379 -0.008085701 0.0112235155 0.011584948 -0.06995979 -0.00897807
0.03625945 0.02527292 -0.034038976 0.029938659 0.0075119706 -0.031874713 -0.06346949 0.10215528
-0.07812348 0.012427114 0.05342068 0.124643676 -0.066375576 0.07016801 0.008423274 -0.0015500019
-0.02536176 -0.023127843 0.029878765 -0.060467303 0.025118804 -0.07429197 0.022243623 0.05205827
0.056934994 0.031697556 -0.008021235 -0.052618127 0.01475527 -0.036346536 -0.08392437 -0.071765624
-0.03265478 0.10511704 -0.04845693 0.016439123 0.0054220026 -0.009089737 -0.061407346 0.028857553
-0.0045375037 0.051244836 0.066249214 -0.102550626 0.012441151 -0.043474402 -0.008558645 0.05097252
-0.012998906 -0.034016885 0.009673617 0.014161817 -0.10409206 -0.03506381 0.013546403 0.026016578

conv1.bias f4 [32]
00000000: d228 ed3d a5f0 d4bd aa7f 4f3c 3ce7 20bc
00000010: f7bd 973d ca8a 84bc eb86 a83d be92 b53d
00000020: e8de 8e3d f537 f9bd 6b4b 033d 0c7b 08bc
00000030: 073e eabd c803 793d c756 36bc b7a2 c9bc
00000040: 070f 453d a382 563d 3296 9c3d 0803 c83d
00000050: c307 3dbc df27 f83c cdb0 b73b c8c7 abbd
00000060: 4b0e c3bd 7c3b 103b c203 cabb 07f2 9dbd
00000070: d7b5 353c 6536 153c e305 663d 1ba7 2fbe
0.115800515 -0.10397462 0.012664715 -0.009820756 0.0740928 -0.016179461 0.082288586 0.088658795
0.0697611 -0.12168876 0.032054346 -0.008330118 -0.11437612 0.06079462 -0.011129088 -0.024613721
0.048110034 0.05237068 0.07645835 0.09766203 -0.011537495 0.03029245 0.005605793 -0.083877146
-0.095242105 0.0022008112 -0.0061649987 -0.07712179 0.011090717 0.009107207 0.056157958 -0.1715359

conv2.weight f4 [64, 32, 3, 3]
00000000: a84f 15bd e0a5 78bd 91e5 873c ac1a 20bd
00000010: fb5d 17bd 4ba5 3a3d 011b 87bc 2533 0fbd
00000020: 2aab dabb 45bb b43b 4007 35bd 5038 23bd
00000030: c590 4cbd c038 24bd 9de2 86bc c7d8 cb3b
00000040: 2d44 b23b 4102 adbb e9c1 b5bc 07b4 03bd
00000050: d20a 913b 814e b9bc d932 93bd 7e6f 183d
00000060: 34a3 afba 0d45 19bd 90b3 e2ba 4aa6 573b
00000070: 33d8 fbbc 87eb 57bd 376c debc 508b 03bd
00000080: c5f4 0dbd 1417 40bd 23f9 cebc 18d8 d4bc
00000090: fa07 c2bc 3028 7bbc 67e7 193d fd84 8e3a
000000a0: cd3b 653c d0ee 0d3d a7e0 cb3c 03b2 003d
000000b0: cdb0 553d 82fc e53b 0af2 8dbc 9b8e fb3c
000000c0: f585 9cbb ecdf 34bd 8e21 0e3d e641 a1bb
000000d0: c86b 26bc 0757 af3d c34e 81bc c5d7 0e3d
000000e0: c23f 0e3e 62ab 29bc 397a 813c f5e0 ce3d
000000f0: aad3 74bd 11a3 823c 289b c93d a2f1 f6bc
00000100: 6bd1 79bc 9740 8e3b ab8f 33bc 50c5 6e3c
00000110: 63b4 0a3d 0d26 fc3b 9120 423d 3875 923d
00000120: 3b44 d4bc 3dfa 9ebd 2fff 7b3d 7b80 38bc
00000130: 0f14 29bd 5f7a cc3c 0464 02bd 3fc6 b1bd
00000140: ee03 18bd cade a43b 5a14 2cbc 1f40 8c3d
00000150: 6f93 5abc dd99 0ebc 4b54 803d b8f1 1ebc
00000160: 419b 923a d8a6 7a3b 6532 c1bc afcf 99bd
00000170: 5ac2 feb7 61a0 1bbd 1304 5fbd ccd9 1fbc
00000180: 0a05 f53b adfb 16bc 42f8 813d 1592 16bd
00000190: 3571 b2bc 3757 023b 3776 1ebd 1bd4 27bd
000001a0: 2813 003d fcc2 c5bb df60 71bc 3fbc 863d
000001b0: 876a 05bd f2ed eabc 9d8f 4c3c 9d3d ccba
000001c0: aa36 f1bc c09c 443d c520 6bbc 2d42 0ebd
000001d0: 4b86 743d df8d e8bc 6e4e c4bc 17b9 3e3d
000001e0: 0da7 fbbb 3f5a 203c 38eb 133c 20ac 66bb
000001f0: e646 a13c e033 043d 1fda 04bd 0817 a3bd
00000200: 7311 16bd 5d16 4dbd d895 33bd 3b82 c0bc
00000210: cd62 2bbd 1612 abbc 3f92 7f3c 4f31 2b3b
00000220: 74b4 abbc 280c b5bc 023c e2bc 4140 b6bb
00000230: 7180 173c 7f97 dd3c d5ac d13c 3a07 523d
00000240: 975c 03bd 82ba 00bd 20e3 7c3d 9a21 febc
00000250: 6aaa d8bc f354 523d 9d5c 4ebd 545b 31bd
00000260: 8339 5b3d b78f 85bc ca51 32bd 38c3 86bc
00000270: 0fc8 30bd 071b afbc 0f6d 37bc d5f8 79bc
00000280: e775 1cbc 5fd7 23bc e26f 62bc f15c a3bd
00000290: 8ec7 8fbd 5063 7cbd 10a3 debc e237 4e3d
000002a0: 8588 16bd b7c4 48bc a556 13bc e2d5 7dbc
000002b0: f7fe e7bc 3e94 223d 6e98 9b3c e049 74bc
000002c0: a748 bd3c dfa1 80bc c386 85bc 48da 023d
000002d0: 95b5 06bd cb6c 8abd 60a2 073d d77e 69bd
000002e0: d01f acbc ab6d 0b3d b242 00bc b3dc c33c
000002f0: bdd0 543c e592 cfbb 2378 78bc 30bc 043d
00000300: 8d19 86bc 9974 06bd cb26 4b3d 4c29 01bd
00000310: 4724 10bc 9c57 b53c cafc 65bc 131d ffbc
00000320: 85b7 a23c 235c 57bc d1bf 09bc b24f 8a3c
00000330: ee88 b7bc 20cc eabb 5afe 793d e344 123d
00000340: 054a 45bd cb04 05bd 562e 0a3b b21c b6bd
00000350: 6065 22bd 0836 3fba 7821 feba 57bf 88bb
00000360: 61bd 38bc 3a60 043c 6d1e a8bc 9b6b 25bb
00000370: 5397 f1bc da52 66bd d0c1 4ebd 1289 9fbc
00000380: 713d b83c 376e 23bd e7ab 22bc 5a78 48bc
00000390: f722 38bd ad24 e2bc 9fc1 173b 5e79 41bd
000003a0: affb 19bd 1274 f23c 0af5 e3bc 3ac0 65bc
000003b0: 2a46 073d 4535 b3bc c081 29bc 6c79 983d
000003c0: d18f 1e3c cb27 2e3d 9df5 533d 37f2 3cbc
000003d0: 6efb bf3b 48f6 2ebc 238b 29bd 23d7 e8ba
000003e0: a525 943c 181e dcbb af4f 8d3c 8a6b 4b3d
000003f0: 47a0 ba3b 92bc d8bc e8c2 a8bb 0ad8 973c
-0.03645292 -0.060705066 0.016588958 -0.039087936 -0.03695486 0.045567792 -0.016492369 -0.034960885
-0.0066732364 0.0055154883 -0.044196367 -0.039848626 -0.04994275 -0.040093184 -0.01646548 0.00622091
0.005440256 -0.0052798097 -0.02218719 -0.03215411 0.0044263387 -0.022620441 -0.07187433 0.037215702
-0.0013400079 -0.037419368 -0.0017295945 0.0032905512 -0.03074274 -0.05271485 -0.02715121 -0.03211528
-0.03465726 -0.04689701 -0.025265282 -0.025981948 -0.023685444 -0.015329406 0.037574198 0.0010873374
0.013991308 0.034651577 0.024887396 0.031419765 0.052170563 0.0070186267 -0.017327327 0.030707648
-0.004776711 -0.04415886 0.03469997 -0.004921186 -0.010157533 0.08561521 -0.015784627 0.034873743
0.13891509 -0.010355802 0.01580535 0.10101501 -0.05977217 0.015946897 0.09844047 -0.030144516
-0.015247683 0.004341196 -0.010959546 0.01457341 0.033863436 0.0076949657 0.04739434 0.07151264
-0.025911441 -0.07762573 0.06152266 -0.011261101 -0.041278895 0.024960695 -0.031833664 -0.086803906
-0.037113123 0.0050314413 -0.010502899 0.06848168 -0.013340815 -0.008703676 0.062660776 -0.009701185
0.0011185185 0.003824642 -0.0235836 -0.075103156 -3.0369662e-05 -0.037994746 -0.054447245 -0.009756517
0.0074774073 -0.009215278 0.063461795 -0.03676041 -0.021782497 0.001988841 -0.038686957 -0.040973764
0.03126827 -0.006035207 -0.0147325685 0.06578874 -0.032572296 -0.028677914 0.012485412 -0.0015582327
-0.029445011 0.04800105 -0.014351075 -0.03473108 0.059698384 -0.028387962 -0.02396318 0.046563234
-0.007679826 0.009787141 0.0090282485 -0.003519781 0.019687127 0.032276034 -0.03243458 -0.07963377
-0.036637735 -0.050070155 -0.043844074 -0.023499599 -0.04184227 -0.020882647 0.015598833 0.002612192
-0.02096007 -0.022100523 -0.027616505 -0.005561859 0.009246931 0.027049778 0.025595108 0.051276423
-0.032070722 -0.031427868 0.06174004 -0.031021882 -0.026448447 0.051350545 -0.05038129 -0.043299988
0.053521644 -0.01630388 -0.04353503 -0.01645051 -0.04315954 -0.021375192 -0.011195435 -0.01525708
-0.0095495945 -0.010000079 -0.01382062 -0.079767115 -0.07020484 -0.06161815 -0.027177364 0.050346263
-0.03675129 -0.012253932 -0.008992826 -0.015492888 -0.028319819 0.039692156 0.018993583 -0.014910191
0.023105932 -0.015702186 -0.016299611 0.03194645 -0.032888014 -0.06759032 0.033113837 -0.05700573
-0.021011263 0.034040134 -0.007828401 0.023908949 0.01298922 -0.00633465 -0.015165362 0.032406032
-0.016369605 -0.03282604 0.049597543 -0.031533524 -0.008797712 0.022136502 -0.01403732 -0.031141793
0.0198629 -0.013144526 -0.008407549 0.016883705 -0.02240416 -0.007165447 0.061033584 0.035710227
-0.048166294 -0.032475274 0.0021084747 -0.08892192 -0.03964746 -0.0007294123 -0.0019388637 -0.0041732
-0.01127562 0.008079583 -0.02052232 -0.002524114 -0.029491102 -0.056231357 -0.050477803 -0.01947454
0.022490235 -0.03990003 -0.00992868 -0.012235725 -0.04495522 -0.027605379 0.0023156179 -0.047234885
-0.03759354 0.029596362 -0.027826805 -0.014022881 0.033025898 -0.021875987 -0.010345876 0.074450344
0.009677843 0.04251842 0.051747907 -0.011532358 0.00585883 -0.010678835 -0.041392457 -0.0017764311
0.018084357 -0.0067174546 0.01724991 0.049663104 0.005695376 -0.026457105 -0.0051501878 0.018535633

conv2.bias f4 [64]
00000000: 6b7e a43d 3d98 6fbd b79d 303c e02c 433c
00000010: cc09 b7bc 7b85 34bb 13d2 443d 2f9c 3dbd
00000020: 4fbe 84bd 37f6 31bd 7350 75bd d236 6d3c
00000030: 2309 c53c 9268 a4bc 82f2 1b3d 4a50 40bd
00000040: cbf6 1b3d d034 88bb 51ec b53b 8913 c73d
00000050: b0cd 123c 1cd3 03bd 10ff a6bc 9de9 773c
00000060: 2d6c 49bc 00f2 b5bc 85df e03c b7e1 22bc
00000070: 8b85 bd3c fdb1 d1bd 3806 3bbd 48ab bc3d
00000080: c298 c43c 0d2b 553d b2bf 64bd 5f25 503c
00000090: 032b b83a 57f3 423d 2f03 c3bd 6209 cb3d
000000a0: 1e82 8bbd 6df4 c73d db7e 66bd 3937 1ebd
000000b0: 446b 88bc 4a35 593d 6b1b 093c 15d1 463d
000000c0: 3fb9 b5bc 358b 6bbc 22db ffbc 6d07 4dbc
000000d0: 7308 1b3d 6352 58bc a383 3dbc 289b afbd
000000e0: 404e ebbc b36c c63b e5e2 1b3d e5f4 babc
000000f0: ad4e 6f3d 7ade e73d 0ff4 d7bb 73aa 703d
0.08031925 -0.058494795 0.01077979 0.0119125545 -0.022343539 -0.002754538 0.048051905 -0.046291526
-0.06481611 -0.0434477 -0.059891175 0.014478402 0.024052208 -0.020069394 0.03807307 -0.04695157
0.038077157 -0.0041566864 0.0055518528 0.09720523 0.0089601725 -0.03218375 -0.020385295 0.015131381
-0.0122938575 -0.022210121 0.027450332 -0.00994151 0.023134967 -0.10239027 -0.045660228 0.09212357
0.023998622 0.05204301 -0.055846877 0.012704222 0.0014050904 0.04759535 -0.095220916 0.09913899
-0.06811927 0.097634174 -0.056273323 -0.038626883 -0.01665271 0.053029336 0.008368353 0.04853924
-0.022183059 -0.014376451 -0.03123242 -0.0125139775 0.037849855 -0.013203236 -0.011567029 -0.085745156
-0.028723836 0.0060554384 0.03805818 -0.022821853 0.05842464 0.11321731 -0.0065903733 0.058756303

conv3.weight f4 [64, 64, 3, 3]
00000000: b87a 67bd 6f19 7abc ea09 853d 1b2c 8bbc
00000010: bc9a a83c b9bd 0d3d 3db9 8bbc eefc 21bc
00000020: c282 15bd a2a7 05bd c790 d9bc cecf 9dbb
00000030: 006b 0fbd 7743 b5bc 41c9 8c3d eb76 28bb
00000040: 5817 5bbc e9e5 0c3d 0207 b53c 1c6a 933c
00000050: cbc1 b7bc 807b 5dbc 67c4 5b3c 53f1 233c
00000060: c1b7 9dbc 5831 1bbd 3542 caba 93ef acbc
00000070: 7ff0 16bd cf62 35bd 40d0 0abd 2b6b 4abd
00000080: df4b a8bc 5a5c e4bc c7a6 d2bc a9de 343d
00000090: 152c 55bc 801b a9bc 2793 7fbb bf4c 8dbc
000000a0: 33fa f8b8 a55d 943c 8067 703c 3f99 973c
000000b0: e7bc 1a3d 7b7b 04bc d31c 21bc b56a fa3c
000000c0: 61cf 23bc 0a93 32bd 48c9 2b3d 006e f2bb
000000d0: c661 07bc e1ce 173d 5209 64bc 228e 133d
000000e0: 618b 8f3d b6b3 b33c 189b d83d c51e e03d
000000f0: 2f18 6f3d 3f2b d93d fa68 c93d d03f d8bb
00000100: cf3d 04bc 6743 bebb 9355 38bc 0489 1cbc
00000110: 6772 edbc dcca 0ebc 78ad 9fbb 0db9 ecbc
00000120: e36d 95bc 1726 bbbc 578d 1a3c c248 ca3a
00000130: 82a7 e23b 4f8c 10ba c822 0bbc aaf1 f33c
00000140: b152 313c ebe2 3abd bf4c ddbd b53f 7cbd
00000150: f912 36bd 29e3 8fbd a224 2bbd 687f 1a3c
00000160: bab3 89bc db19 74bc 77ae 253c 641d c7bc
00000170: 4778 4fbc afea a8bc 94d3 88bc aae8 5ebc
00000180: 1876 6abc abfe 18bd 4563 563a 052e 70bd
00000190: 6da1 2ebd c7ec e03c 6852 75bd 5f65 b13b
000001a0: 586a 7b3d 7e51 1bbd 5c53 273d 3261 e13c
000001b0: 691d 12bd 2850 4ebc 02c4 363c 9b8d 60bd
000001c0: d2d6 63bd c38a 403c 778c d0bc 8bc1 27bc
000001d0: 0c40 823c dbf5 c2bd 7236 6ebd e537 e4bc
000001e0: 13ec 61bc d02d 84bd 5d8f 81bd 7535 c4bb
000001f0: 439f 8d3c 7512 10bb 37b0 41bc ad35 17bb
00000200: 2040 86bc fa39 743a 85e9 b5bb f78e c2bb
00000210: 3be6 f13b 4d2b dfbb 27dd aa3c 1d34 533a
00000220: d8b1 8abc 026a 0fbd ff55 94bc e045 72bc
00000230: 447c 893b eeab ccbc 7ffc 0b3b db33 c43a
00000240: b8bc 083d 1d1b e9bc 5b8a 43bd 3305 423d
00000250: 0486 b0bc 6241 6bbc 3a39 613d 8dcf cebc
00000260: 373a 6aba 7e74 28bb 83f7 bd3a 4b7f 133b
00000270: ca32 b83c 3ae9 08bc cd05 f3ba 0b5d f73c
00000280: c7ad b139 0745 163d 544b 2f3c f060 79bb
00000290: 2366 67bc 336e 47bc 9f35 003b bba3 b63a
000002a0: 4dc5 3b3c 0b6d 69bb d7d0 b1bb ab39 9bba
000002b0: 0d5e 163d a3aa f83d 5b22 093c 9d56 d03d
000002c0: f76f f03d 744c b43d 1884 ef3d f771 9c3c
000002d0: 13a9 72bc 5566 3fbc ed4f 6a3a 9f4f 1cba
000002e0: f492 c8bc 5f86 0cbc 7ddd 64bb a7da 0e3b
000002f0: 61a0 c6bb da31 41ba c8e8 ef3b 3755 c63c
00000300: a5b4 603c b313 243d ea3c fa3c c795 253d
00000310: df26 8a3d a37c c63c 6aad 4c3d 630d fe3c
00000320: 9239 9abc b07a ad3d 8dfb 30bc 3112 0abc
00000330: 723c c03d df4d 1bbd 40e0 fc3b 9fb4 863c
00000340: 289d 0d3c cc1e 023d 32aa 13bc 2824 da3c
00000350: a765 c83c 5be4 ba3c 8b3f 2a3d e561 203d
00000360: 0a21 7d3c d724 12bc 9bb8 9abb 6090 203d
00000370: bf2e 173c 323a 0ebb 90b8 1b3d 2fd7 cb3b
00000380: 470f f73c 7fd1 5c3c 9745 113b b248 323c
00000390: 63c9 c23b a169 1bbc 136c 513b 35bd 2e3a
000003a0: 4fc8 9cbb 8b88 92bc 49a9 03bd 2f0d d2bb
000003b0: 8356 c5bc 8230 dc3b adea 8fbb 02ac 8dbc
000003c0: b355 663c 7a41 a2bc 2a82 653c 7cc7 c8bc
000003d0: a345 26bc cbad 87bb 833b 973b 8bbf 1bbd
000003e0: 8366 213c f37a 2ebc abed 53bd cc16 af3c
000003f0: 82c5 edbb fffb 913c a501 a4bc e4fa 4b3c
-0.056513518 -0.015264853 0.064960316 -0.016988805 0.020581596 0.03460476 -0.017056102 -0.009886963
-0.036501653 -0.03263057 -0.026558293 -0.004816032 -0.035014153 -0.022126896 0.06874324 -0.0025705646
-0.013372265 0.034398947 0.022098068 0.017994933 -0.022431275 -0.013518214 0.013413525 0.010006267
-0.01925266 -0.037888855 -0.0015431108 -0.021110332 -0.03685045 -0.044283684 -0.03389001 -0.04941861
-0.02054399 -0.027876068 -0.025714291 0.044157658 -0.013010998 -0.020642996 -0.0038997622 -0.01724851
-0.00011872165 0.01811106 0.014673114 0.01850569 0.037777808 -0.008086081 -0.009833532 0.03056846
-0.009998173 -0.04359726 0.041940004 -0.007398367 -0.008263057 0.03706253 -0.013918238 0.03602422
0.07009006 0.021936279 0.10576457 0.10943369 0.058372673 0.10603952 0.09834476 -0.006599404
-0.008071377 -0.005806375 -0.011250871 -0.009554151 -0.028985215 -0.008715358 -0.004872974 -0.028896833
-0.018240875 -0.022845311 0.009433112 0.001543306 0.006916941 -0.00055140717 -0.008492179 0.02977832
0.010822938 -0.045626562 -0.10805654 -0.061584193 -0.044451687 -0.07025749 -0.041782983 0.00942979
-0.016809333 -0.014898743 0.010112396 -0.024306007 -0.012662954 -0.020619718 -0.01670245 -0.013605276
-0.014310382 -0.037352245 0.00081782445 -0.058637638 -0.042634416 0.027456654 -0.05989304 0.0054136957
0.061380714 -0.037919514 0.040850982 0.027512167 -0.03567258 -0.012592353 0.01115513 -0.054822545
-0.05562479 0.011751833 -0.025457604 -0.010239015 0.01589968 -0.095195495 -0.05815739 -0.027858684
-0.013789195 -0.064540505 -0.063261725 -0.005987818 0.017287856 -0.0021983657 -0.011821798 -0.0023072765
-0.016387999 0.00093165005 -0.0055515193 -0.005937453 0.007382182 -0.006810582 0.020857407 0.0008056777
-0.016930506 -0.035013206 -0.018107412 -0.014787167 0.004195722 -0.024984326 0.0021360216 0.0014969067
0.0333831 -0.028455311 -0.047739368 0.04736824 -0.021548279 -0.01435885 0.054986216 -0.025245452
-0.0008935066 -0.00257042 0.001449332 0.0022506292 0.022485156 -0.008356387 -0.0018541157 0.030195734
0.00033889545 0.036686923 0.010699112 -0.0038052164 -0.014123472 -0.01217227 0.001956321 0.0013934294
0.011460614 -0.0035617973 -0.005426507 -0.0011842748 0.036710788 0.12141921 0.008370007 0.1017277
0.117401056 0.08803645 0.11695117 0.019097311 -0.014810818 -0.011682113 0.00089383015 -0.0005962792
-0.024484135 -0.008576958 -0.0034922056 0.0021797807 -0.006061599 -0.0007369794 0.007321451 0.024210555
0.013714944 0.04005785 0.030546624 0.040426042 0.06745695 0.024229353 0.049970068 0.031012243
-0.01882628 0.084706664 -0.010802162 -0.008427189 0.09386529 -0.03791606 0.0077171624 0.016443549
0.008643426 0.03176765 -0.009012746 0.026628569 0.024462534 0.022813966 0.041564506 0.03915586
0.015449772 -0.008919916 -0.0047217137 0.039200187 0.009227454 -0.0021702168 0.03801781 0.0062207202
0.030158652 0.013477682 0.0022166723 0.01088159 0.0059444173 -0.009485633 0.0031955286 0.0006665767
-0.004784621 -0.017887374 -0.032143865 -0.006410263 -0.024089104 0.00671965 -0.004391989 -0.017293934
0.014058518 -0.019806612 0.014008084 -0.024509184 -0.010148439 -0.004140591 0.0046152486 -0.038024466
0.009851101 -0.010649431 -0.05174033 0.021373175 -0.007256211 0.017820356 -0.020020315 0.012449954

conv3.bias f4 [64]
00000000: 232f 443c 983f 8fbd 556b d7bb c877 e23c
00000010: 3f07 babb 45ca 7e3b 77fa 7e3c 635f 2b3c
00000020: dff7 833d b5f8 8ebb b7cb dcbc ef50 823d
00000030: c369 72bb 37b0 b6bc 5239 4dbb 7496 033a
00000040: 4d22 723d d5dd e93d b83f d0ba 7de3 41bc
00000050: f876 babc 2589 883a 9ad2 e83d cf4d e1bc
00000060: f51e 05bb ddd1 bf3d 43ab debb 17ce 443c
00000070: b897 2ebc 4d7f f4bb 288b 71bc 504e 1ebc
00000080: 3717 a7bc 3389 c53b 6449 40bb ef0c f13a
00000090: eb4e dd3c e1da 85bc 0a25 27bc 83bb cd3d
000000a0: 1dbf 803c ff09 e7bb ef47 e7bc 3817 e2bb
000000b0: b328 8dba 0774 793d fbe3 d8bb 0f4f a33c
000000c0: 5af3 da3b d2fc 883d 6278 b43b 8d83 f3bb
000000d0: b307 e83c 0063 c7bd c2df 38bc 9504 0ebb
000000e0: 8a7e ecba 18c9 793d 97e0 3e3d da14 043e
000000f0: eba2 60bd fc46 133c c10a adbc 267a 30bc
0.011974129 -0.069945514 -0.0065740743 0.027645007 -0.0056771333 0.0038877886 0.015562645 0.010459754
0.06443762 -0.0043631443 -0.026952608 0.06363093 -0.0036989308 -0.022300823 -0.0031314683 0.00050196727
0.059114743 0.11419264 -0.001588813 -0.011834023 -0.022761807 0.0010416849 0.11368294 -0.027502922
-0.0020312641 0.093662 -0.0067953183 0.012012026 -0.01065629 -0.0074614645 -0.01474265 -0.009662226
-0.020396812 0.0060283183 -0.002934062 0.0018390695 0.02701517 -0.016339721 -0.010201702 0.10045531
0.01571613 -0.007050752 -0.028232543 -0.0068997405 -0.0010769576 0.060901668 -0.0066189743 0.019935159
0.006681842 0.06688847 0.005507515 -0.0074314536 0.028323984 -0.097356796 -0.011283817 -0.0021670212
-0.0018043083 0.060982794 0.046600904 0.12898579 -0.05484287 0.008989092 -0.021123292 -0.01077131

fc1.weight f4 [64, 1024]
00000000: b787 03bd c221 b7bc 7af1 d73c ffef 483d
00000010: 8ce3 48bd 4846 3bbd 1e1f 00bd 7ba8 8fbc
00000020: b3fa bcbc f74b 39bd 57a9 26bd 7f6e 48bd
00000030: b81a 52bd 4d19 e9bc d21d 0bba 4fcb 0dbd
00000040: 67ba da3c c2c0 f5ba 8f58 4bbc 5f85 ac3c
00000050: 0762 54bb b506 18bb a731 2d3b bdf3 61bc
00000060: d351 4cbc f2de 373c 5ce2 02bc ebd3 0cbc
00000070: db54 cfbc 3063 77bc 550b c1bc bb99 01bc
00000080: 5878 07bc 8aa3 cebc 3347 bdbb 7c44 3fbc
00000090: 4b7f 1dbb c078 87bb a58b 30bb 84d4 c03b
000000a0: f823 6dbc dd7c 65ba 609b e2bb 8d0b a2bb
000000b0: 880f 99bc ad43 e9bb 57d3 f5ba fecf 31bc
000000c0: b5cb 68bc b7c9 a0bc a92f 0c3c ba42 e03c
000000d0: 9756 ce3c 8a51 6a3c 43aa d23c 1f48 763d
000000e0: 3f92 3e3b f1f2 0abc 580c fd3b e612 c93c
000000f0: 5d56 9abc 0dad d5bc 3267 3ebc 4b2b 1abc
00000100: 8f03 8ebc ab18 9d3a 70c5 4bbc ad3b febb
00000110: d711 23bc efdd 63bc 67f4 1a3c c792 59ba
00000120: 2f88 3f3b da6b f4bb 3268 76bb 2f43 a2bb
00000130: 6ac4 953c 1bf5 75b9 1a2b 8a3b e77a 58bc
00000140: 5c1b 94bc 7bca f7ba 992d 8b3c 078b e2bb
00000150: 6bf0 36bc b08d 68bc 2b9e fcbb 3298 38bc
00000160: 70fc d8bc d36e 9bbc 3adf b9bc b775 3bbc
00000170: 48d9 9e39 28e0 81bb 148e 92ba af61 2c3b
00000180: 7b0b 673d 2a1f c13c 5538 203d 1785 7e3b
00000190: 9324 0fbc 1f3c 14bc b215 4cbc 6e25 883c
000001a0: 2a35 2f3c 07b3 3e3d 567b 023d 57ab 153d
000001b0: 4b57 1f3d 3377 9d3d 7fea 9b3d 7205 873d
000001c0: 1cd4 aa3b 072b a33a 23de 7aba f23d 37bc
000001d0: b7b8 e9bb 6bc8 5bbb 1b20 12bc 073d 59bc
000001e0: dc41 8fbb 027f 5cbc b71f 45bb 4346 41bc
000001f0: c482 a5ba 7541 28bc 3708 823a 2b27 a73b
00000200: 1f09 86bd d524 03bd 3211 37bd af6a 3bbd
00000210: b03b 99bd 80ed 1dbd 389b ecbc bd99 86bc
00000220: cd59 db3c b36b de3c a294 153d b7a9 953d
00000230: d2e5 f73d c68f 0d3e 70af e93d b2fc c43d
00000240: 7714 163b 3dd5 63bc 90a3 b4bb e503 1d3b
00000250: 5b35 6ebc cbc3 adb6 4bc9 533a 6174 20ba
00000260: 1ba3 a6bc 0894 14bc e840 1dbc c5af 80bc
00000270: ba37 50bb 2506 d9bb c9e9 14bc 2775 df3a
00000280: aa3f 46bc 7598 d3bb ed30 ef3b ea93 56bc
00000290: f29a cf3b a7ee 7f3b 136c 303c 0ac3 e4bb
000002a0: dbae c5bb f7d6 043b 5a51 d73a 0d9e 4fbc
000002b0: eb46 50bc 1f2c 3fbc 0ad7 733a 9914 983a
000002c0: 3d65 683d 3229 2c3d 513e 84bc 2bfa 48bc
000002d0: 4bcf 753d 0b8b 073d 8237 1f3c 37dc fb3b
000002e0: b98f 393d 607b 9a3c d44b 0dbc cd32 3e3b
000002f0: dbab 323d 654d 723c cbef 4c3c 9dae be3a
00000300: 0f19 9ebc d529 91bc 50c1 7abb 78e6 83bb
00000310: 1de2 76bb 0b12 58bc 9ded e9ba d396 59bc
00000320: 1848 85bb b44d 84bc 1f0e 48bc 7b20 773b
00000330: ebbe 0c3b 1fbd 4dbc 3d82 78ba d059 9ebb
00000340: c41e a1ba e43a 35bc f589 003a dc22 8b3a
00000350: e37d fa3a d3c1 cfbb 4773 b8bc 0022 0e3c
00000360: 5008 7dbb d2f1 28b9 b0af d93b e2d7 90bc
00000370: f510 823a 5c54 89bb 7015 8dbb bbae 9e3b
00000380: 9744 64bc 534a 4f3c 82db 8b3b 50b1 8c3b
00000390: 341e 133c 7259 55bc 80fa b7bb 555b 89b9
000003a0: fd67 f73a 4b9a 543b ebd2 d13a 179b c4bb
000003b0: 7f78 af3c b5a1 cb3b f332 56bb 0db4 b43b
000003c0: cb0c 76bc 5b5c 80bb e452 b2bb cab4 b2bb
000003d0: d760 48bb 272e 16bc c27e e63b eb39 99bb
000003e0: ab79 1cbc ef75 d03a 02cf ebba 1a5e cc3b
000003f0: cfa0 91bb 8b99 c53a 8b60 abbb c841 04bc
-0.03211185 -0.022354964 0.026360262 0.049057003 -0.04904513 -0.045721322 -0.031279676 -0.017536392
-0.023068761 -0.04523846 -0.04068884 -0.048933502 -0.051295012 -0.028454447 -0.0005306873 -0.03461772
0.026700212 -0.0018749463 -0.012411251 0.02105969 -0.0032407062 -0.0023197357 0.00264273 -0.013791022
-0.01247068 0.011222588 -0.007988539 -0.008595447 -0.025309017 -0.015099332 -0.023564974 -0.007910187
-0.008268438 -0.025224466 -0.00577631 -0.011674043 -0.0024032171 -0.0041342676 -0.0026938703 0.005884709
-0.014473908 -0.0008754263 -0.006915495 -0.0049452246 -0.018684164 -0.0071186633 -0.0018755001 -0.010852812
-0.014208724 -0.019627435 0.008556285 0.027375568 0.025187774 0.014301667 0.025715953 0.060127374
0.0029078869 -0.008480773 0.0077224188 0.024545144 -0.01884001 -0.026083494 -0.011621283 -0.009409736
-0.017335681 0.0011985501 -0.0124372095 -0.0077585788 -0.009952984 -0.013907894 0.009457684 -0.00082997646
0.002922546 -0.007459146 -0.0037598726 -0.0049518566 0.018282134 -0.0002345633 0.004216564 -0.013212896
-0.018079452 -0.0018904948 0.016989516 -0.006913546 -0.011165719 -0.014193937 -0.007709285 -0.011266755
-0.02648756 -0.018973744 -0.02268945 -0.01144164 0.00030297996 -0.003963489 -0.0011181259 0.002630334
0.056407433 0.02357443 0.039116222 0.0038836652 -0.008736747 -0.009047537 -0.012456344 0.01661941
0.010693828 0.046557453 0.031855904 0.036540356 0.03890161 0.07688751 0.07613086 0.065928355
0.0052132737 0.0012448736 -0.0009569844 -0.0111842025 -0.0071326154 -0.0033536206 -0.008918787 -0.013259179
-0.0043718647 -0.013458015 -0.0030078718 -0.011796537 -0.0012627472 -0.010269512 0.0009920661 0.0051011047
-0.065447085 -0.032017548 -0.044694133 -0.04575604 -0.074820876 -0.038556576 -0.028882608 -0.01643073
0.026776219 0.027150964 0.0365187 0.07307761 0.121043816 0.13824376 0.11410415 0.0961851
0.0022900382 -0.01390582 -0.005512662 0.002395862 -0.014539088 -5.178595e-06 0.0008079006 -0.00061208574
-0.020341447 -0.0090684965 -0.009597994 -0.015708813 -0.0031771497 -0.006623047 -0.009088942 0.0017048464
-0.01210014 -0.0064573833 0.0072995336 -0.013096789 0.0063356096 0.003905216 0.010767954 -0.0069812583
-0.0060328073 0.002026973 0.0016427443 -0.01267196 -0.012712221 -0.011668234 0.00093017577 0.0011602818
0.056737173 0.042031474 -0.016142996 -0.012266676 0.060012143 0.033091586 0.009717824 0.0076861638
0.04530308 0.018857658 -0.008624036 0.002902198 0.043620925 0.01478896 0.012508343 0.0014547888
-0.019299058 -0.017720142 -0.0038262196 -0.0040252768 -0.0037671395 -0.0131878955 -0.0017847304 -0.013280588
-0.004067432 -0.016150333 -0.012210398 0.003770857 0.00214761 -0.012557297 -0.0009479856 -0.004832484
-0.0012292494 -0.011061404 0.00049033697 0.0010615247 0.0019111003 -0.0063402443 -0.022515906 0.008675098
-0.003860969 -0.00016111814 0.006643258 -0.017681066 0.0009923266 -0.0041909646 -0.004305534 0.004842607
-0.013932369 0.012651998 0.0042681107 0.0042935982 0.008979369 -0.013021814 -0.0056145787 -0.00026198724
0.0018875595 0.0032440599 0.0016008293 -0.0059999335 0.021419762 0.0062143453 -0.0032684177 0.005514628
-0.0150176985 -0.0039172596 -0.0054420102 -0.0054536806 -0.00305753 -0.009166277 0.0070341537 -0.004676094
-0.009550492 0.0015904288 -0.001799077 0.0062368037 -0.0044442187 0.0015075667 -0.0052300147 -0.008072324

fc1.bias f4 [64]
00000000: 7352 01bc cd05 c8bc 1264 5dbd b0e6 613d
00000010: 9593 8abb 2abf e8bd 4af9 b9ba a56a 543b
00000020: dbc7 7d3a 971a 133c 1546 dabb 1a43 0f39
00000030: 9df6 f3bb 9759 37bb 229c 91bd 510b a2bc
00000040: 80b7 06bb 7ac9 77bd 2f93 88bb 7de4 b2bb
00000050: e015 093b 9798 083b e715 903c 48aa 8ebc
00000060: 1f54 103a c344 f63b b1c8 94bb d806 c2bc
00000070: 2267 af3b a842 5dbd 7bfd 1c3c eddb 05bc
00000080: ff00 2f3c 0223 5ebc 0035 853a 50ff d23d
00000090: 5045 88ba 4927 b2b9 25cf 3c3d f8a7 90bd
000000a0: 5722 633d 9351 32bd d765 9dba 9bbd bfbc
000000b0: c5ce b23b f3f5 6dbb 0276 963d c893 8bbc
000000c0: 4b6f 463c 41bb 09bc e060 edb9 8b03 983d
000000d0: 7f63 87bc a4d0 3fbc 9d33 bdbb f730 48bd
000000e0: 8d91 67bc 4806 51bd 12df bfbc 9b0b 883d
000000f0: aaa5 d0bc d822 50b9 0b16 b7bb 51ae 843a
-0.007893193 -0.024416829 -0.054050513 0.05515164 -0.004229019 -0.11364587 -0.0014188674 0.0032412198
0.0009680965 0.0089785075 -0.0066611865 0.0001366254 -0.00744517 -0.0027976984 -0.07109858 -0.019780787
-0.0020556152 -0.060494877 -0.0041679363 -0.005459367 0.002091758 0.0020842904 0.017588569 -0.01741518
0.0005505699 0.0075155213 -0.004540526 -0.023684904 0.0053528706 -0.054018646 0.009581919 -0.00817011
0.01068139 -0.013558151 0.001016289 0.10302603 -0.0010396633 -0.00033980075 0.046095986 -0.070632875
0.05545267 -0.043534826 -0.00120085 -0.02340584 0.0054567778 -0.0036309927 0.07346727 -0.017038241
0.012111495 -0.008406461 -0.0004527634 0.07422551 -0.016526936 -0.011707459 -0.005773975 -0.04887482
-0.014133823 -0.05103138 -0.023421798 0.066428386 -0.02546962 -0.00019849406 -0.0055873445 0.0010122751

fc2.weight f4 [10, 64]
00000000: d0a2 8a3d fafe 9a3d f501 d5bc 2066 c1bc
00000010: e089 65bc f203 293c a7cb a2bb accc 95bd
00000020: 1a26 edbc 5b45 13bd a714 81bd 470b 203d
00000030: 1078 633c 475d 7d3d 7389 b23c 679c 3f3c
00000040: 0d85 0cbd 95a4 813c 87fc adbc d837 183d
00000050: 0ac8 9f3b 8366 8a3c 8d72 dabc 985d f4ba
00000060: 4d20 aa3c ba6d b3bd 652d f93c 3826 1bbc
00000070: 85ea 733d 7a1a 703d 0ad2 1f3c bfcf 4bbc
00000080: 14dc bfbc 88de 05bc f359 283d d531 66bd
00000090: e378 dc3c daae cbbc fae6 13bd ed72 9f3d
000000a0: 18ec 4fbd 46dc 46bc 7cdb 2bbd 221b e33d
000000b0: c3aa 15bd 0558 d1bc f942 153d 0270 d03c
000000c0: 0853 d7bc 3f98 973b 1247 eebc 35ae 1bbd
000000d0: 906b d23c 5a84 8e3d 757e b13c 4bee 603c
000000e0: 0a55 773d a721 9f3a 4723 323d 5f05 293d
000000f0: 7ad5 21bd cd63 5abd ffaf 033c 0256 9cbb
00000100: 37fe fabc 355e f738 eac8 dc3c 0726 82bd
00000110: 0854 da3c 1851 883c b6d9 8e3c 5dca 5abd
00000120: 70c3 6f3c d875 bfbb cd8d cfbc a230 6d3d
00000130: 3264 9abd af8a 97bc 9908 a0bc 0f7e 123c
00000140: e3f2 b23c c136 253c 5094 57bb b3c5 dd3d
00000150: 301a 09bd bced acbc 4180 813d 0cdf c23c
00000160: c308 cfbb ba2f 373d 8023 1b3c 7513 553b
00000170: 2f98 c7bc 6244 cc3d 90f2 a7bd 3530 cdbc
00000180: 5a85 3b3d eae8 1f3c 069c ab3c c30a 29bc
00000190: 3353 18bb 4b32 113c afa2 623d f38b ef3d
000001a0: 7059 dfbc e820 943c 7381 5b3d f302 0abe
000001b0: ca57 00bd 234a a53c a073 77bd 8361 d3bc
000001c0: 0740 6ebd 4f0b 913b 9f33 c539 8312 b0bd
000001d0: c8ec 193d 23ef 5e3c 0f8e c5bc 28e1 463d
000001e0: b85a c5bc cd93 6a3d b743 393c b188 37bb
000001f0: 6783 d8bc ab8a 243d 477a 03bc b787 033d
00000200: 6786 03bc 42a5 993c 4b0f 65bb 6775 a73c
00000210: b397 893b 5bfc 32bd b430 a2bd c398 7a3b
00000220: 2615 2f3c d518 30bd 0d74 cd3b 7589 593d
00000230: 0aa8 ca3b 885d c93b e5d5 813d 67f5 853c
00000240: 5479 c7bc 3b6d df3b cb82 31bd 1d31 113b
00000250: 5757 5dbd 8747 57bc 37fd 993d 0c7e 883c
00000260: 1173 07bb b379 323d e79a a43c 5b33 4abd
00000270: 0bf2 9abc c9e2 81bd 03b5 e8bc 1087 38bd
00000280: 5572 553c dfee a1bc 457e 8b3c 491b 8d3d
00000290: 5b8e 973c 58ee ef3c 8794 e4bc ef95 32bd
000002a0: 68d8 f33c 9a42 d0bd 336a 3a3d 1037 543d
000002b0: b29c a0bb c2a8 7d3c 4b9b c33d b2c3 77bd
000002c0: f4ff 0dbc 8b95 7a3a 6a6f 7b3c e778 f73c
000002d0: 6dfb 613c 60f7 843c 27d2 7fbc b775 54bd
000002e0: 0a00 533c fa24 863d 1069 ebbb 4557 99b9
000002f0: a2d8 d8ba 650b 2dbd 8594 c0bc 8c8d 82bc
00000300: 05ec 673d 0cdb 09be 7f52 16bd 37b4 d53b
00000310: 8df6 51bd 2745 643c b5cd 2e3d 726f 483d
00000320: 8383 78bd 1cf1 26bd d87f 80bc e700 143d
00000330: cf40 ce38 fb5a 5e3d 3785 7dbc e79b 0fbc
00000340: e75d f73c 88bb c6bc e581 3cbd df66 02bd
00000350: fb52 153c ed13 063d dfea 533c 4b0d 643b
00000360: 5a5f 1dbd cfc2 803c e0df 10bd 6236 8a3d
00000370: 7588 273c fa40 4ebc 3a5a 68bc d878 b23c
00000380: 9230 bebd c897 67bc 7a24 883d 7725 e73c
00000390: bff3 a6bc 2af3 ea3c 78ff 37bc 8f1f 7dbd
000003a0: 5cad 373a 48d9 23bd 2b7a a0bc 1a02 92b9
000003b0: 62ea fcbc 8764 fc3c 5496 3bbc 97ae 22bd
000003c0: 7f38 203c d16d 823c 00ae 883c e556 7f3c
000003d0: d0e0 363d e0ca f9ba 8bea f6bc afd9 863c
000003e0: eb7b 65bd fdba a53c 0fed 31bd 815e 9e3d
000003f0: b0f2 d9bc b43d 42bd bab5 bdbc 7f7e dabb
0.06769335 0.07568164 -0.02600191 -0.023608267 -0.014009923 0.010315882 -0.004968125 -0.07314429
-0.028948832 -0.035954814 -0.06302767 0.039073255 0.013883606 0.061856534 0.021794057 0.011695004
-0.034306575 0.01582555 -0.021238578 0.03716263 0.0048761414 0.016894585 -0.02666595 -0.0018643616
0.020767355 -0.08761163 0.030417154 -0.009469561 0.059549827 0.058619 0.009754667 -0.012439667
-0.023420371 -0.008170731 0.041101407 -0.056199867 0.026913112 -0.02486365 -0.03610895 0.07785592
-0.050762266 -0.012137478 -0.041957363 0.110891595 -0.036539804 -0.025554666 0.036440823 0.025444034
-0.02628471 0.0046263034 -0.029086623 -0.038007934 0.025686055 0.06958838 0.021666745 0.0137286885
0.060383834 0.0012140766 0.043490674 0.041264888 -0.039510228 -0.053317834 0.008037566 -0.004770995
-0.030638797 0.00011795425 0.026951272 -0.063549094 0.026651397 0.016640231 0.017437797 -0.053415645
0.014633998 -0.0058429055 -0.02533617 0.057907708 -0.07538642 -0.018498747 -0.01953535 0.0089411875
0.021844333 0.010083855 -0.0032894798 0.10828724 -0.03347224 -0.021109454 0.063232906 0.023787998
-0.006318183 0.04472325 0.009468913 0.0032512818 -0.024364559 0.099739805 -0.08200562 -0.025047401
0.04578147 0.009760121 0.020948421 -0.010317507 -0.002324295 0.008862088 0.05533093 0.11696615
-0.027264327 0.018082097 0.05359025 -0.13477688 -0.031333722 0.020176953 -0.060413003 -0.025803333
-0.05816653 0.004426397 0.0003761323 -0.08597281 0.037579328 0.013606819 -0.02411559 0.04855457
-0.02409111 0.05726986 0.011307648 -0.0028005058 -0.026429845 0.040171307 -0.008024759 0.03211185
-0.0080276495 0.018755559 -0.0034951742 0.020441724 0.004198992 -0.043697696 -0.07919446 0.0038238026
0.0106861945 -0.04299243 0.006269938 0.053109605 0.0061845826 0.006145183 0.06339625 0.016352369
-0.024349846 0.006818441 -0.043337625 0.0022154518 -0.054038372 -0.013139612 0.07519 0.016661666
-0.002066795 0.043573093 0.020093394 -0.049365383 -0.018914243 -0.06342084 -0.028406626 -0.04505068
0.013027747 -0.019767223 0.017027983 0.0688997 0.018500498 0.029288456 -0.027902855 -0.04360002
0.029766276 -0.10168953 0.045511436 0.051810324 -0.004901492 0.0154821295 0.09551104 -0.060489364
-0.008666981 0.0009559027 0.015346387 0.030209018 0.013792855 0.016231239 -0.015614069 -0.051870074
0.012878427 0.065500215 -0.0071841553 -0.00029247455 -0.0016544054 -0.042247195 -0.02350832 -0.015936635
0.05662157 -0.13462466 -0.03669977 0.0065217274 -0.05126052 0.013932503 0.042676646 0.048934408
-0.060672294 -0.040757284 -0.01568596 0.036133673 9.834917e-05 0.054285984 -0.015473655 -0.008765197
0.030196143 -0.024259344 -0.046022315 -0.031836387 0.009114022 0.032733846 0.012934416 0.0034797962
-0.038421012 0.015717892 -0.035369754 0.06748654 0.010225405 -0.012588734 -0.014181668 0.021786138
-0.09286608 -0.014135309 0.06647582 0.028216107 -0.0203799 0.028680403 -0.011230342 -0.061797675
0.00070067286 -0.040002137 -0.019589504 -0.00027848856 -0.030873481 0.030809654 -0.011449415 -0.039717283
0.009779095 0.015921505 0.016684532 0.015584682 0.04464799 -0.0019057654 -0.030141136 0.016461222
-0.05602638 0.020230765 -0.043438967 0.07732869 -0.02660498 -0.047422126 -0.023157943 -0.0066679115

fc2.bias f4 [10]
00000000: b25b 9cbd ba66 a1bd 605d 1c3d d3b2 223d
00000010: 9048 083e 9658 03bd a31f 913d eafc 19bd
00000020: 888b 14bd b048 d8bc
-0.07634677 -0.07880922 0.038174987 0.03972132 0.1330893 -0.032066904 0.07086112 -0.037594713
-0.03626588 -0.026401848
