torch_to_tf/torch_models/model_round1339.model (torch, 493063 bytes, 10 tensors)

conv1.weight f4 [32, 3, 3, 3]
000000 48 14 d2 3d 25 53 63 bd 2f 50 c5 bc 06 62 c7 3d
       0.102577746 -0.055499215 -0.024086086 0.09735493
000010 90 b5 1c be ad 2c 4d bd 87 b9 64 3b d0 14 b1 bc
       -0.15303636 -0.050091434 0.0034900622 -0.02161637
000020 af 0a c8 3d ca 0d b4 3d 5f f9 1f bd 68 1e 7e 3d
       0.09767663 0.087916926 -0.03905618 0.062040716
000030 b3 49 20 3c 4d 5a d5 bd 9f 83 95 3c eb e8 cb 3c
       0.009783196 -0.10417614 0.018251238 0.024891337
000040 dc 9a 24 bd e0 f1 e4 38 57 4c af bc b0 e7 f7 3d
       -0.040186748 0.0001091694 -0.021398706 0.12104738
000050 58 e2 a4 bd 8f 94 b8 ba 7d 7a bf 3b 92 37 2a bc
       -0.08050984 -0.001408236 0.005843459 -0.010389226
000060 ee de a1 bc c0 1c 52 bd 2f 68 03 3d fa 7c 67 3c
       -0.019759621 -0.05129695 0.03208178 0.014128918
000070 82 13 ec 3c 10 97 97 bb e7 6a a0 bd 20 89 d8 bd
       0.028817896 -0.0046261624 -0.0783289 -0.105730295
000080 97 55 8a 3d b7 b7 e4 bc 59 5c 35 bc f3 3b d0 bc
       0.06754606 -0.027919633 -0.011069381 -0.025419211
000090 b4 5b ad 3d fd c9 f1 3d 77 77 20 3d 7a 98 8c 3c
       0.084647566 0.11806104 0.03917643 0.01716255
0000a0 8c ff 0f bd b3 46 ee 3b 47 05 7f 3c 49 15 30 3d
       -0.035155818 0.0072716116 0.015565223 0.04298905
0000b0 44 af a7 bc 42 2a 37 3d 69 34 9f 3c 62 d4 6c 3d
       -0.020469315 0.044718035 0.01943417 0.05781973
0000c0 aa 59 45 bc ff 31 c9 bd 0f 0e 8d bd 74 28 8e bd
       -0.012045303 -0.09823989 -0.06887447 -0.069413096
0000d0 5e fd 3c bc 53 8f 1f bc ab 4d 6e bd a0 15 8b 3d
       -0.011535017 -0.009738761 -0.05817954 0.06791234
0000e0 6f 19 df 3d 47 16 cf bd 13 7e 0e 3c 83 5c 73 bd
       0.10893523 -0.10111671 0.008697051 -0.059414398
0000f0 67 08 6c 3d 77 d8 b3 ba 9d 99 2b bd 5b da 85 3c
       0.0576252 -0.0013721128 -0.041894544 0.016339472
000100 c5 be 4d bd a0 7c 3a 3d 3c 20 80 bc 47 44 ed 3d
       -0.05023076 0.045529008 -0.01564037 0.115852885
000110 7e 0c 4c bd ae 1f 8a 3c e0 d1 3c 3d 11 a0 0f 3b
       -0.0498166 0.01686081 0.04609859 0.0021915475
000120 0f 02 79 bd 17 cd 09 be 0f a0 2e 3d 19 91 1f bb
       -0.06079298 -0.13457142 0.042633113 -0.002434796
000130 7a 88 0b 3e 40 d5 ef bc 79 d8 28 bd 67 8f 55 3d
       0.1362628 -0.02927649 -0.04122207 0.052138712
000140 1a f7 ab bd 15 cf 62 3d 07 44 b8 3d be c9 2c bc
       -0.0839674 0.05537327 0.0899735 -0.010546146
000150 33 dc 76 3d 93 e9 95 bb 89 2e 8e bc 8f 9a fa 3d
       0.060268592 -0.0045749634 -0.017356174 0.12236511
000160 5a 87 79 bd ef 3c ad bd 8a 57 82 bd 5d de 91 3d
       -0.060920097 -0.08458888 -0.06364353 0.071224906
000170 33 e9 56 bc 92 25 8a 3c e5 27 c9 3d a5 8c 09 be
       -0.013117122 0.016863618 0.098220624 -0.13432558
000180 c7 c4 7e bd 62 3e ec bd 9c bd 86 bd 47 d9 94 bc
       -0.06219938 -0.11535336 -0.06579134 -0.018170012
000190 c0 46 fa 39 6f d1 3d 3d 6e 4f 98 3d 7e 5e a6 3c
       0.0004773643 0.04634231 0.07437025 0.02030873
0001a0 c7 13 b9 bd 17 86 17 3d da 6c 58 bd 5d 6b 9f 3d
       -0.09036975 0.036993112 -0.052838184 0.0778415
0001b0 7b 81 f7 3c 84 8e 99 3d 6f c5 ff 3c fa b3 51 3d
       0.030213108 0.07497886 0.031222073 0.05119703
0001c0 8f ca 36 3d 63 07 74 3c 55 4d ff 3c f4 4d 89 3d
       0.04462677 0.014894339 0.031164804 0.067043215
0001d0 8d 83 86 3d 7b d4 88 bc bb bf 78 bd b8 55 dd bd
       0.0656806 -0.016702881 -0.060729723 -0.10807365
0001e0 d7 ea 8c bd 2b fb 04 bd c3 98 aa bb 8a 70 58 bd
       -0.0688073 -0.032466095 -0.005206199 -0.0528417
0001f0 d9 16 ad bd 27 b7 47 bd e3 ac 98 bc 19 c1 0f bb
       -0.084516235 -0.048758652 -0.018637126 -0.0021935164
000200 d6 99 9f 3d df d6 b5 3a 4b 92 bd bb e4 d7 19 bc
       0.07793014 0.0013873241 -0.0057852617 -0.009389851
000210 53 fb 16 3d 03 5f a2 bd c3 78 5b 3d c2 07 6a bb
       0.036860775 -0.07928278 0.053581964 -0.003571019
000220 2d c6 0c bb 1f bb 66 bd 97 90 db 3c a6 d6 92 3d
       -0.0021480427 -0.056330796 0.026802344 0.07169847
000230 e2 5c 85 3d 6b c7 14 3c 4a 3e 53 3d 9c 8e b2 bb
       0.065118566 0.009080748 0.051573075 -0.0054491293
000240 72 58 81 bd 3d cc 95 3d 1a 5e 83 3b 28 0a 11 be
       -0.06315698 0.07314346 0.0040090205 -0.1416403
000250 9f 89 0c 3c 8a 8c d2 bd 0f af 45 bd c6 7a 18 bd
       0.008577733 -0.10280712 -0.048262652 -0.03722646
000260 76 1e b5 bd a3 de 98 bb 2a ac 13 3d 23 a8 28 bc
       -0.088437006 -0.0046652122 0.03605286 -0.010293993
000270 43 a7 15 3b 22 24 e9 3d 7d c2 cd bc ba 68 cd bd
       0.0022835291 0.11383845 -0.025117153 -0.10029741
000280 47 02 77 3d 2b 5d d9 3d b8 a6 ae 3d fb 47 6a bd
       0.060304906 0.106134735 0.08527893 -0.057197552
000290 5c 19 0b 3d 23 ab 41 bc ff 7e 6c 3c 38 96 c4 3d
       0.03395973 -0.011820587 0.014434575 0.095989645
0002a0 98 29 81 bd 28 24 db 3c 33 60 ed 3d 5f 7c e7 bc
       -0.063067615 0.02675064 0.11590614 -0.028257547
0002b0 35 93 e5 bd 5c af 93 bd af 0f 32 bd 9f 4f 2f bb
       -0.11209718 -0.072111815 -0.04347199 -0.0026750339
0002c0 40 48 d9 3c 67 fa a8 bd 3b 46 ef bc fc 80 89 3d
       0.02652371 -0.082508855 -0.029208293 0.06714055
0002d0 38 f5 c1 bc fb e9 11 be fd d7 04 3d ad 85 8b bd
       -0.0236765 -0.14249413 0.032432545 -0.06812606
0002e0 a1 ee af bd 03 dc d6 3d 2c 32 9d bd 4d 4d 05 3d
       -0.08590437 0.10491183 -0.07675585 0.032544423
0002f0 10 1e b3 3d 9f 41 d5 3d 47 a9 fa bd 3b 07 db bb
       0.08745968 0.10412907 -0.12239318 -0.0066842115
000300 83 46 5f bd 33 6e a0 bd c8 41 98 3c 42 5f 1c bc
       -0.054510605 -0.07833519 0.018586054 -0.009544196
000310 1d d4 f6 3b 55 6e 70 3c 71 5f 8a bd ac 09 2d bc
       0.00753261 0.014674743 -0.06756485 -0.010561388
000320 de 6e 31 3d c5 8e fd 3c c4 17 25 bd bb 3c d8 3c
       0.04331862 0.030951867 -0.040305868 0.026396146
000330 6b 69 51 3c 1a de 08 bd a8 e9 87 bd da 1b d6 3d
       0.012781481 -0.033414938 -0.06636363 0.10454531
000340 05 34 a4 bd 45 b4 29 3c ba e6 7a 3d 78 01 f9 3d
       -0.080177344 0.010357921 0.061255194 0.12158483
000350 cf a8 97 bd fc c4 9f 3d 43 af 2b 3c 1a 06 bb bb
       -0.074052446 0.07801244 0.010478797 -0.0057075145
000360 a3 a5 94 bc af 2b ff bc 97 f4 6c 3c d8 55 83 bd
       -0.018145388 -0.03114876 0.014462612 -0.06412858
000370 9d 1a d9 3a 56 51 a3 bd 3b 2a ea 3c 7a 8a 83 3d
       0.0016563718 -0.07974498 0.02858459 0.06422897
000380 9e d8 94 3d 77 c5 20 3d ff d9 68 bc 9f 3c 92 bd
       0.07267879 0.039250817 -0.014212131 -0.07140469
000390 80 68 57 3c 0a ed 6c bd 87 fc b9 bd e0 7c 85 bd
       0.013147473 -0.057843246 -0.09081369 -0.06517959
0003a0 04 b2 a2 bc e0 09 f2 3d f2 ac 0e bd 1b e1 bb 3c
       -0.019860275 0.1181829 -0.034832902 0.022934487
0003b0 92 ad ab ba c8 b3 b2 bb 92 dd 95 bd d3 0a ef 3c
       -0.0013097993 -0.0054535605 -0.07317652 0.029179966
0003c0 bd 46 05 3b 17 c9 84 3d 23 7a 9d 3d 07 ac d7 bd
       0.0020336353 0.06483667 0.07689311 -0.105308585
0003d0 b8 39 2f 3c 4e bf 35 bd 7f f1 84 bc fb 80 48 3d
       0.010694914 -0.044371895 -0.016228436 0.04895113
0003e0 7f b6 83 bc f3 92 16 bd 42 5a dc 3b ef 21 2b 3c
       -0.016078232 -0.036761235 0.0067246268 0.010445102
0003f0 9a 5e db bd bb fa 0d bd cf 57 83 3c bb 47 8e 3c
       -0.10711403 -0.034662943 0.016033081 0.017368188

conv1.bias f4 [32]
000000 1d ed 0d 3e 4d a7 d2 bd 2c 51 a6 3d 8f da b4 ba
       0.13859983 -0.10285816 0.08120951 -0.0013798046
000010 8f 1e 1e 3e e3 ed 9a bd 1b cf 16 3e 63 7a 69 3d
       0.15441345 -0.075649045 0.14727442 0.057001483
000020 1f bc d7 3d 4e ba 25 be 9d 2c 12 ba 95 c6 3d 3c
       0.10533928 -0.16184351 -0.0005576106 0.01158299
000030 2b f9 cf bd f7 46 f3 3d 78 28 7a bc f3 6e 5a bd
       -0.10154947 0.1187877 -0.015268438 -0.053328466
000040 28 c8 b7 3d 3f 11 a3 3d ea 20 ec 3d be 81 10 3e
       0.08973724 0.07962274 0.11529715 0.14111993
000050 b2 50 61 3c 52 40 9f 3d 9f 2d 28 3d 57 8c eb bd
       0.013752149 0.0777594 0.041059133 -0.11501377
000060 0a f5 dd bd d5 bc 74 bb 5f 07 e3 bc 9d 5e fd bd
       -0.10837753 -0.0037343998 -0.027713476 -0.12371562
000070 67 3a 8b b5 c7 5f ac bb e5 8d bb 3d d9 58 2b be
       -1.0373304e-06 -0.005260441 0.091579236 -0.16733111

conv2.weight f4 [64, 32, 3, 3]
000000 2a d2 59 bb dd a6 76 bd 3e 0e 2f 3d 1b d8 01 bd
       -0.003323684 -0.060217727 0.04273819 -0.031700235
000010 ce 06 93 bd 6b 85 d1 3d 83 da 4c 3c 26 dd 88 bd
       -0.07179032 0.102305256 0.012503269 -0.06682806
000020 04 fb 12 3d d7 3c bf 3c b7 0e 74 bd 82 26 4d bd
       0.03588392 0.02334444 -0.059584346 -0.050085552
000030 d8 36 30 bd 46 63 92 bd fa 3a fd bc e5 4a 07 3d
       -0.043021053 -0.07147841 -0.030911911 0.03303041
000040 95 18 af 3c 3b 16 3a 3c ef 62 46 bd 75 00 a7 bd
       0.021374026 0.011357839 -0.048434194 -0.08154384
000050 95 08 1a 3d e4 b6 01 bd f3 0f 0a be 47 46 64 3d
       0.03760584 -0.03166856 -0.13482647 0.055731084
000060 a7 b8 40 bc bb c9 84 bd 40 9e db bb 8f 98 52 3d
       -0.011762775 -0.064837895 -0.0067022145 0.051415022
000070 7f 41 40 bc d2 e5 f8 bb 9b 51 0f bc c2 4d 82 bd
       -0.0117343655 -0.007595756 -0.008747484 -0.063624874
000080 73 e1 c1 3c 7f a6 4e bc 27 07 3e bd a8 30 22 bd
       0.023667073 -0.012612938 -0.04639354 -0.039597183
000090 58 f7 12 3b 55 e7 c3 bc 57 13 5b bc 1f df 6b bb
       0.002242526 -0.023914019 -0.01337131 -0.0035991145
0000a0 e0 14 ee bb 98 86 95 bc 13 c2 6f 3c 37 b8 b7 3c
       -0.007265672 -0.018252656 0.014633673 0.022426708
0000b0 80 b9 60 3d c5 c8 8f 3c b3 5c 11 bd 77 a0 6c 3b
       0.054864407 0.017551789 -0.035488795 0.0036106387
0000c0 58 a7 ee bc 4d da 67 bd ed ce e4 ba ff e2 88 bc
       -0.02913253 -0.056604672 -0.0017456688 -0.016709803
0000d0 58 17 ee 3c 95 18 de 3d 90 be f6 bb 1d f2 3f 3d
       0.029063866 0.108445324 -0.007530041 0.046861757
0000e0 53 44 18 3e bc 55 03 bd c8 05 82 bc 2b 74 b3 3d
       0.14869814 -0.032064185 -0.015871897 0.08762392
0000f0 a6 1e 94 bd 6f 8d c2 bc b2 cb c4 3d f7 45 7e bc
       -0.07232408 -0.023749081 0.09609164 -0.015519611
000100 ba 21 6d bd f0 ab 71 3b 43 e9 56 3c 3e 4a b0 bc
       -0.057893492 0.0036876164 0.013117137 -0.021519776
000110 83 13 1c 3d 9a 8d 04 3d 11 5d 0a 3d c9 b9 82 3d
       0.038104545 0.032361604 0.03378016 0.06383092
000120 56 5d 18 bd eb 74 1b be d7 58 29 3d 40 e5 85 3d
       -0.037198387 -0.1518132 0.04134449 0.065378666
000130 95 4a c3 bd 80 98 09 3c eb d8 25 3d f2 3e d9 bd
       -0.0953571 0.008398175 0.040490072 -0.10607709
000140 84 14 06 bd 28 d5 3f bc 6c cd 90 bc 33 13 c1 3d
       -0.03273441 -0.011708535 -0.017676078 0.0942749
000150 00 7d d9 bc 46 03 82 bc e9 44 94 3d c1 1b 22 bc
       -0.026548862 -0.015870702 0.07239706 -0.009894312
000160 97 99 4f bc 10 b6 04 3c bf 55 a4 3b e7 88 08 be
       -0.012670896 0.008100048 0.0050151045 -0.13333474
000170 68 29 19 bc bb bf 6d bd fd ad e0 bd c8 0b 2b 3b
       -0.009348251 -0.058044177 -0.10970686 0.0026099551
000180 a2 af 17 3d 96 2e 84 bc a3 28 7f 3d 17 f2 ff bc
       0.03703273 -0.016135495 0.062294614 -0.031243367
000190 11 88 83 bc 9b 3d d7 3c fc 9e 3a bd b7 79 2f bd
       -0.016056092 0.026274493 -0.045561776 -0.042840686
0001a0 ca 82 03 3d ed 71 53 3b a7 76 45 bc 5d 63 84 3d
       0.032107152 0.003226395 -0.012052215 0.064642645
0001b0 43 bf 13 bd bf 11 11 bd 83 a5 2b 3d 48 62 98 bc
       -0.036071073 -0.035417315 0.04190589 -0.018601552
0001c0 df 2d 21 bd d5 13 78 3d f9 16 a6 bc 9b f9 2d bd
       -0.039350387 0.06056579 -0.020274626 -0.04247437
0001d0 a8 af 8c 3d e7 60 55 bd 2f 50 f5 bc f0 34 83 3d
       0.06869441 -0.052094366 -0.029945461 0.064065814
0001e0 87 8c 04 bd e0 42 c3 3c 22 84 cc 3a 8c a9 c9 3c
       -0.03236058 0.0238356 0.0015603343 0.024616979
0001f0 cb 20 13 3d bf eb b0 3c a5 f9 e1 b9 d7 fa a7 bd
       0.035919946 0.021596787 -0.00043101344 -0.08202141
000200 4c c8 a6 bd cd ce f7 bc 0a 61 df bc 4d a5 31 3c
       -0.08143672 -0.030249977 -0.027267952 0.010842633
000210 45 16 f9 bc aa f5 28 bd df f4 5a 3d 77 1c 8c 3c
       -0.030406127 -0.04124991 0.053456184 0.017103417
000220 e3 bb fc bc e2 fa 09 bd fb 7a 2e bd be f3 8d bc
       -0.03085131 -0.033686526 -0.042597752 -0.01732814
000230 83 df f5 b9 2e f4 3c 3d eb 7b 87 3c 68 d0 32 3d
       -0.0004689657 0.046131305 0.01653858 0.043655783
000240 10 19 c0 bb 49 d2 0c bd 6f 8b c3 3d 00 8d 96 bc
       -0.0058623627 -0.03438023 0.09548079 -0.01837778
000250 5a f5 42 bd 25 27 6b 3d e5 79 35 bd 8e 46 a0 bd
       -0.047597267 0.057410378 -0.0443057 -0.07825957
000260 3a 4f 83 3d cd bc 8a bc c1 34 41 bd 61 27 89 bc
       0.06411596 -0.01693573 -0.04716945 -0.01674241
000270 a3 98 88 bd 90 b0 52 bd bf 7b d3 bc a7 55 12 bc
       -0.06669738 -0.051437914 -0.025815843 -0.008931554
000280 85 7c 03 bd 63 19 ca bc 18 83 d4 3b 47 f7 fb bd
       -0.032101173 -0.024670308 0.006485354 -0.12303024
000290 0d 22 14 bd f3 08 90 bd 8b 88 9a bd 1d 95 08 3e
       -0.036165286 -0.07032957 -0.07545575 0.13338132
0002a0 c5 a1 64 bc 02 d5 60 bd f7 e0 72 3b 5d ce fc 3b
       -0.0139545845 -0.05489064 0.003706036 0.00771503
0002b0 a7 a4 96 bc 58 b0 b1 3d d7 84 20 3d 9f 06 b9 bc
       -0.01838906 0.08676213 0.039189186 -0.022586165
0002c0 8a 9d 30 3d d7 9e 9a bb 0a ea e3 bc e2 91 63 3d
       0.04311899 -0.004718642 -0.02782156 0.055559047
0002d0 da ce 7e bc 24 6a 04 be 45 94 ed 3c 13 4f 40 bd
       -0.015552247 -0.12931114 0.029001364 -0.04695041
0002e0 e5 9e b2 bc 07 ff 65 3a f2 bc d6 bb 80 4b 33 3c
       -0.021804282 0.0008773659 -0.0065532858 0.010943294
0002f0 9b 0d 24 bd 9e 20 30 bc a2 56 42 bc 4d 85 28 3d
       -0.040052038 -0.010749964 -0.011861475 0.04114275
000300 9f 61 03 bd bd 20 14 bd c3 2c 73 3d f9 08 16 bd
       -0.03207552 -0.036164034 0.05936886 -0.03662965
000310 53 61 76 ba 9b 38 33 3d 57 c2 6c 3b e3 22 2f bd
       -0.0009398658 0.043755155 0.0036126578 -0.04275788
000320 3b 87 f2 3c c2 1d e0 bc 73 2e 07 bd 6f 56 8c 3d
       0.029605499 -0.02735794 -0.03300328 0.068524234
000330 15 6c ce 3c 19 5c 41 3b af 31 16 3e 08 27 11 3e
       0.025198022 0.0029504357 0.1466739 0.14175045
000340 b3 b2 ab bc 04 ff 8e bd c8 59 bd 3d a5 f3 37 bd
       -0.020959234 -0.06982234 0.0924564 -0.044910092
000350 7e 37 c5 bc 99 3f 2c 3d 33 62 36 bb 22 57 50 bd
       -0.024074312 0.04205284 -0.0027829527 -0.050864346
000360 7f 13 94 bc 9f 38 90 bc 43 4c 6c bd 19 3b b7 bb
       -0.018075703 -0.017605124 -0.057689916 -0.005591762
000370 f0 9e 3c bd af f1 cf bd 87 4c 89 bd 3b 66 28 bd
       -0.046050012 -0.10153519 -0.067040496 -0.04111312
000380 63 16 64 3c d5 e0 bf bb af 41 01 bb 17 06 d1 bc
       0.013921353 -0.0058556595 -0.0019722988 -0.0255156
000390 8c f1 16 bd 87 4b 76 bd 63 46 2c bd 23 60 49 bd
       -0.03685145 -0.060130622 -0.042059314 -0.04916395
0003a0 70 cc a0 bd 00 1a fd 3b f0 16 f9 bc 0b 84 4d bd
       -0.07851493 0.0077240467 -0.030406445 -0.050174754
0003b0 03 c0 55 bd f0 3a 61 bc 37 62 3d 3b a4 bd 19 3d
       -0.05218507 -0.013746962 0.0028897652 0.03753437
0003c0 a7 9f 06 3d 5e 04 80 3d 8b 41 e8 3c 1b 28 79 3c
       0.0328671 0.06250833 0.028351566 0.015207316
0003d0 48 00 46 bc 8f 60 6b bd dc 9a 80 bd 48 37 9a bb
       -0.012085028 -0.057465132 -0.06279537 -0.004706297
0003e0 00 ef cb 3c 7a 99 05 3d 66 a0 a1 3d 97 69 0d 3e
       0.024894238 0.03261707 0.07891922 0.1380981
0003f0 0f 4c a0 3c 9f 40 5f bc 42 2c 67 bb 5a 61 70 3c
       0.019567518 -0.013626247 -0.0035274182 0.014671648

conv2.bias f4 [64]
000000 42 ae b1 3d bc 27 c6 bd 9f 30 be 3c d8 4f 25 3d
       0.08675815 -0.096755475 0.023216544 0.040359348
000010 c2 e8 bd bc 3c 0d a3 3b 34 47 8b 3d 62 1e 2a bd
       -0.023182277 0.004975943 0.0680069 -0.04153288
000020 10 50 ab bd 73 62 95 bd c7 e6 e2 bd a8 65 7a 3c
       -0.0836488 -0.07294168 -0.110791735 0.015283026
000030 7a e1 8a bc 97 af ff bc 3b bb d3 3d fa 1f c4 bd
       -0.016953219 -0.031211657 0.10338446 -0.095764115
000040 03 46 67 3d c7 a0 58 3b cc 80 b5 3b 73 e7 25 3e
       0.056463253 0.0033054815 0.0055390354 0.16201572
000050 10 b0 fd 3c eb 45 90 bd 5c f3 12 bd 32 7a 16 3d
       0.030967742 -0.07044586 -0.035876617 0.03673763
000060 20 ad c4 bd 00 f2 b5 bc c8 de af 3d cf 46 da bc
       -0.096033335 -0.022210121 0.08587414 -0.026645092
000070 f7 6d bd 3c 9a e9 32 be 6f 14 fa bc ec 10 21 3e
       0.023123724 -0.17471924 -0.030527322 0.15729111
000080 c5 b2 fd 3d 3e c2 98 3d 92 6e f8 bd 0f 38 2b 3d
       0.12387613 0.07458924 -0.121304646 0.04180151
000090 8b 5a b3 3c 0a 57 c6 3d fb d0 00 be d5 df 3e 3e
       0.02189376 0.0968457 -0.1257972 0.18640073
0000a0 4f 17 f3 bd 17 46 3d 3e 0a 0a b0 bd a3 a7 c2 bd
       -0.1186968 0.18483768 -0.08595665 -0.095046304
0000b0 73 ba 3a bd a7 4a ef 3d 3b 6b 9f 3d c8 d6 59 3d
       -0.045587968 0.11684161 0.077841245 0.053183347
0000c0 c7 a7 e5 bc e3 34 6d bc 6f 9c 94 bd 8d aa b4 b7
       -0.028034104 -0.014477941 -0.072564 -2.1537091e-05
0000d0 20 ef f2 3d af b1 40 bd 02 35 47 bc fd 1b 04 be
       0.11862016 -0.047044452 -0.012158634 -0.12901302
0000e0 ba 79 ec bc b3 6c c6 3b 70 15 63 3d 57 e8 fb 3a
       -0.028866637 0.0060554384 0.055440366 0.0019219023
0000f0 80 7c d8 3d f8 b4 52 3e ec cd aa bc a3 61 16 3e
       0.105706215 0.20576847 -0.020850144 0.14685683

conv3.weight f4 [64, 64, 3, 3]
000000 1b 00 85 bd 47 9d ed 3c 45 2f 8e 3c 2d b3 56 bc
       -0.06494161 0.02900566 0.017356524 -0.013104242
000010 13 27 83 3d 78 ea 88 3c da f2 97 bb 20 3f 76 bb
       0.06403937 0.016713366 -0.0046371045 -0.0037574247
000020 0c d5 1b bd b6 0a 09 3c 6e 79 4a 3c 8f 4b 58 3d
       -0.038044974 0.00836437 0.012358053 0.052806433
000030 a7 cb d3 3c 7f e4 08 3d 77 b1 12 3e 75 13 94 3c
       0.025853945 0.033421036 0.1432551 0.018075684
000040 65 b8 69 bc a6 7b a8 3d 43 b6 46 3b c3 f2 05 bc
       -0.0142651545 0.08226709 0.0030321039 -0.008175555
000050 55 c2 98 bd 80 5e d1 bc ef 28 5c 3c c6 0c 0f bc
       -0.07458941 -0.025557756 0.013437494 -0.008731073
000060 59 b8 c2 3b 2a 86 0d bd af f9 cf 3c ad fa db b9
       0.005942386 -0.034551777 0.025387613 -0.00041957703
000070 87 ec 87 39 c7 3e 02 be 3c ae 8c bc 60 35 87 3b
       0.00025925433 -0.1271926 -0.017172925 0.004126236
000080 51 83 8c bd 0d 98 4c bd 28 2f 48 bd 1e dd c8 3d
       -0.06860984 -0.049949694 -0.048873097 0.098078
000090 cb 3f 40 bb 28 6d 82 bc 42 85 06 3c 7f 8c a5 bc
       -0.0029334899 -0.01592119 0.008210482 -0.020208595
0000a0 66 9d b8 ba ba 18 ee 3c c0 0b 56 3c 14 8b 2f 3c
       -0.0014084994 0.029064525 0.013064325 0.010714311
0000b0 03 6e 54 3d 93 ad 93 3c 4b 07 ac 3c 22 39 af 3d
       0.051862728 0.018027103 0.020999571 0.08555819
0000c0 47 30 ad bc 41 8c 4a bd 28 76 8b 3d 6d 6f 22 bd
       -0.021141184 -0.049450163 0.06809646 -0.039657045
0000d0 9a 81 b0 bc e3 30 55 3d 78 d1 fa bc 95 2d 16 3c
       -0.021546174 0.052048575 -0.03061746 0.009166141
0000e0 68 11 7c 3d 68 d9 22 3d 27 8e b9 3d 98 fc 03 3e
       0.061540037 0.039758116 0.090603165 0.12889326
0000f0 10 42 6b 3d e0 2b ae 3d f8 72 a3 3d 0d 78 ac 3c
       0.05743605 0.08504462 0.07980913 0.021053338
000100 cd 8d fa bc 03 2a 14 bd ea 5f 31 bc d2 65 13 bd
       -0.030585194 -0.036172878 -0.01082609 -0.035985775
000110 5a 75 83 bd 7b d1 4c bb 20 22 5f bc 83 fb 23 bd
       -0.064188674 -0.003125279 -0.013618976 -0.040034782
000120 35 16 5f bd 57 b1 30 bd ef c6 b7 3b 6a f0 2a bd
       -0.054464538 -0.043137874 0.0056084315 -0.041733183
000130 23 c6 a2 bc 03 d9 e7 bc 5b 54 3a bd 78 36 a8 3c
       -0.01986987 -0.028301721 -0.045490604 0.020533785
000140 08 44 ef bb ff 83 0e bd 85 9e da bd 0b 61 74 bc
       -0.007301811 -0.03479385 -0.106747665 -0.014915715
000150 4b fe 25 bd 0a de 82 bd 68 4e b2 bc a8 66 11 3d
       -0.040525716 -0.06390007 -0.021765903 0.03549829
000160 b0 54 5d bc a9 23 0a 3c 1d 9c 1e 3d 6f b5 f3 bc
       -0.013508961 0.008431354 0.0387231 -0.0297496
000170 4f 03 2b bd 1f 17 84 bc 77 30 3b bd f2 b8 45 bd
       -0.041751202 -0.016124306 -0.045700517 -0.04827208
000180 45 7d 44 bc e6 eb a0 bd 3a aa 6b bd d1 ba 1c 3c
       -0.011992757 -0.07857494 -0.057535388 0.009566025
000190 40 b2 46 bd b7 b6 20 3d f7 cb ae bc ca 4f ae bc
       -0.048509836 0.03923675 -0.021337492 -0.02127828
0001a0 62 bb 4c 3d b8 4b db bc 3d a8 d6 3b df 35 c8 3c
       0.04998339 -0.026769504 0.0065508173 0.02443975
0001b0 32 0f bd bc 95 82 d9 3c be 3a c6 3d 19 b2 41 bd
       -0.023078535 0.026551524 0.09679173 -0.047288988
0001c0 48 4e f8 bd ba d0 3e 3c 6f 62 e5 bc 57 60 50 bd
       -0.12124306 0.011646444 -0.028001038 -0.050873127
0001d0 3d 41 a5 3d 40 56 91 bd 13 d2 d1 bd 50 85 6f bd
       0.08069084 -0.07096529 -0.102451466 -0.058476746
0001e0 0d 53 eb bc 93 5d fe bd 2f a3 17 be 49 20 45 3d
       -0.028726125 -0.124201916 -0.14808343 0.048126493
0001f0 34 d0 0f 3d c0 e2 52 bd 2f 5f 0d bc 81 15 82 3c
       0.035110667 -0.051485777 -0.008628651 0.015879394
000200 3f fd 5d bd ce 9f c1 3c 6b c7 9a 3c 37 dd 8f 3b
       -0.054196592 0.023635771 0.018893918 0.0043903845
000210 2a 3d e0 3b 4b ae cd 3c 1c 04 b1 3c 50 eb 73 3c
       0.006843229 0.025107523 0.021608405 0.014887646
000220 1f 3e a3 bc 08 8a 44 bd bb 5a 77 bb 1b c1 63 bc
       -0.019927083 -0.0479832 -0.0037743289 -0.01390102
000230 82 c8 b0 bc 08 21 28 bd 92 ae 4f 3c f7 3b 46 bc
       -0.021579985 -0.041047126 0.012675898 -0.012099258
000240 cb fe 81 bc dc 91 88 bd ba 61 66 bd 2b a4 78 3d
       -0.015868565 -0.066684455 -0.056245543 0.060703438
000250 da a7 05 bd 9c 31 b2 bc 7b c6 d1 3c 1a 5b 6f bc
       -0.03263078 -0.021752171 0.025607338 -0.014609123
000260 84 f2 c6 bc 7f e3 9c bc a3 39 2d bc df aa f4 3b
       -0.024285562 -0.019151447 -0.010572824 0.0074666585
000270 61 55 14 bb dc 34 47 bd b6 2f 40 bb 62 8f ff bc
       -0.0022633898 -0.048634395 -0.0029325313 -0.0311963
000280 d3 94 33 bd 82 5a db 3d 54 4b 2f 3c f0 60 79 bb
       -0.0438431 0.10710622 0.010699112 -0.0038052164
000290 23 66 67 bc 22 6e 47 bc 9f 35 00 3b bb a3 b6 3a
       -0.014123472 -0.012172254 0.001956321 0.0013934294
0002a0 37 c5 3b 3c 0b 6d 69 bb d7 d0 b1 bb 8a 41 2d 3c
       0.011460594 -0.0035617973 -0.005426507 0.010574708
0002b0 17 c2 9b 3c c3 dd f8 3d 00 c1 7b bd c3 4c 5e 3d
       0.019013448 0.12151673 -0.061463356 0.054272424
0002c0 4f 26 a2 3d fa 6d 53 3d 3d a4 bd 3d 0d 11 ee bc
       0.07917463 0.051618554 0.092598416 -0.029060865
0002d0 10 05 ed bc c2 8c d0 ba 85 4c 30 bc b2 6a 13 3d
       -0.028933078 -0.001591109 -0.010760431 0.035990424
0002e0 1a a7 ae 3c 1b ea 58 bc e0 c5 bf 3c 07 34 e4 3c
       0.021319915 -0.013239409 0.023409784 0.02785684
0002f0 a2 74 7a bc 52 7f ef 3c 47 e2 46 3d 3a 8f 3c 3d
       -0.0152865965 0.029235516 0.04855564 0.04603503
000300 d8 2a a9 3b 7b 9f e1 3c cb d3 55 3d c2 9f 3c 3d
       0.005162578 0.027541867 0.052203935 0.046050794
000310 52 3c a5 3d 7b ff 29 3d c2 90 08 3d 39 d0 c9 3c
       0.08068146 0.04150341 0.033341177 0.024635421
000320 57 50 39 bd 0e 1a 98 3d 98 19 32 bd 93 0f 6c bd
       -0.045242634 0.074268445 -0.04348144 -0.05763204
000330 cb 60 d7 3d bf 9e 99 bd 08 11 5a bc 87 85 b9 3d
       0.10516509 -0.075009815 -0.013309725 0.090586714
000340 b3 a4 0e 3d fe 2f c1 3d ef 5d 82 bc 5d 80 44 3c
       0.03482504 0.09432982 -0.015913932 0.011993495
000350 6d a7 f0 3c bf fe 4c 3c 82 84 b4 3d 9b fd fe 3c
       0.02937671 0.012511908 0.08814336 0.031126788
000360 fd ac 14 3d 9f e9 43 3b 07 98 5a 3c 13 7b 47 3d
       0.036297787 0.0029893888 0.01334191 0.048701357
000370 b4 b3 c9 3c 30 b3 71 3c 68 30 9b 3d c3 99 3e 3d
       0.024621822 0.014752194 0.07577592 0.046533357
000380 9f 00 36 3d 7f d1 5c 3c 97 45 11 3b b2 48 32 3c
       0.044434186 0.013477682 0.0022166723 0.01088159
000390 63 c9 c2 3b a1 69 1b bc 13 6c 51 3b 35 bd 2e 3a
       0.0059444173 -0.009485633 0.0031955286 0.0006665767
0003a0 4f c8 9c bb 8b 88 92 bc 47 9b 0a bd 7b 42 3c bd
       -0.004784621 -0.017887374 -0.03383949 -0.04596184
0003b0 0a 73 5c bd 74 fc b0 3c 44 ca c8 3c 73 ec 0a 3c
       -0.053820647 0.021604754 0.02451051 0.008479225
0003c0 21 c2 a6 bd e6 f0 c6 bd c3 52 0d bd 2b a2 2a bd
       -0.08142496 -0.097139165 -0.034502756 -0.04165856
0003d0 b4 b4 08 bd 8d 71 b3 bc e2 fb 00 bd b3 8c 84 bd
       -0.033375457 -0.021904731 -0.031490214 -0.06472149
0003e0 c5 80 f5 3c 72 ca 90 bd 4a 56 a4 bd 5a 4e 0e 3d
       0.029968629 -0.070698634 -0.08024271 0.03474269
0003f0 f0 36 02 bc 48 4e 80 3c e2 3c a8 bc ed 71 13 3c
       -0.007947668 0.015662327 -0.020536844 0.00899933

conv3.bias f4 [64]
000000 ce e0 15 bc 62 28 e7 bd cd 92 4f 3c 46 88 3d 3d
       -0.009147836 -0.11286999 0.012669277 0.04627254
000010 3f 07 ba bb 97 d5 57 bb 67 e9 38 3d 63 5f 2b 3c
       -0.0056771333 -0.0032933706 0.045144465 0.010459754
000020 1f 21 ee 3d ec a5 8f bb b7 cb dc bc fb 87 e1 3d
       0.11627411 -0.004383793 -0.026952608 0.11012264
000030 c3 69 72 bb 37 b0 b6 bc 30 2f 4d bb 0b b9 e7 ba
       -0.0036989308 -0.022300823 -0.0031308644 -0.0017679048
000040 a1 c2 ae 3d 23 22 32 3e 4b 60 99 bc 33 fb a0 bc
       0.08533216 0.17395835 -0.018722674 -0.019651031
000050 92 68 d6 bc 25 89 88 3a 80 38 3b 3e 30 a5 5a bd
       -0.02617291 0.0010416849 0.18283272 -0.05338019
000060 2b 62 3e 3d 57 d5 11 3e 90 39 f5 bb 63 96 1a 3d
       0.04648034 0.14241539 -0.0074836686 0.037741076
000070 b8 97 2e bc 88 8c f4 bb 28 8b 71 bc 50 4e 1e bc
       -0.01065629 -0.0074630417 -0.01474265 -0.009662226
000080 82 17 a7 bc 33 89 c5 3b ca 51 40 bb 34 b3 b2 3d
       -0.020396952 0.0060283183 -0.0029345625 0.087255865
000090 43 af af 3d e1 da 85 bc 0a 25 27 bc e2 af 24 3e
       0.085783504 -0.016339721 -0.010201702 0.16082719
0000a0 1d bf 80 3c 13 66 03 3d ef 47 e7 bc 38 17 e2 bb
       0.01571613 0.032079767 -0.028232543 -0.0068997405
0000b0 b3 28 8d ba e2 39 76 3d d7 09 d9 bb 0f 4f a3 3c
       -0.0010769576 0.060113795 -0.0066234875 0.019935159
0000c0 92 c0 bd 3c 27 82 c7 3d 12 77 b4 3b 20 6c 39 bc
       0.023163114 0.097416215 0.0055073583 -0.011317283
0000d0 a7 cc 3a bb d2 bd 10 be d2 6a 39 bc 95 04 0e bb
       -0.002850333 -0.1413491 -0.011316972 -0.0021670212
0000e0 8a 7e ec ba 1f 86 de 3d bb 20 8f 3d 70 85 56 3e
       -0.0018043083 0.10865425 0.06988665 0.2094934
0000f0 87 77 da bd 77 ba 81 3b c1 0a ad bc 20 81 30 bc
       -0.10667329 0.003958996 -0.021123292 -0.010772973

fc1.weight f4 [64, 1024]
000000 92 26 b2 bc cb e0 e5 bc 2d cc 8e 3c 51 c7 83 3d
       -0.021746907 -0.028061291 0.017431343 0.06434501
000010 37 46 ac bd ac c0 c3 bd a7 68 ab bd bc ad c2 bc
       -0.0841183 -0.095582336 -0.0836957 -0.023764484
000020 1e 7f c1 bb b7 6d bf bd cb 30 99 bc 8d 8c c3 bc
       -0.005905046 -0.09347098 -0.018700024 -0.02387073
000030 48 0b 41 bd fa 91 5d 3c 52 2d 0a 3d f4 97 c8 bd
       -0.0471299 0.013523573 0.033734627 -0.09794608
000040 bb ef 0b 3d 9b da e8 bc 3b af 0a bd fd 85 7d 3c
       0.03416417 -0.028424552 -0.03385852 0.01547384
000050 e8 54 46 3b a7 cf 89 3b c3 0d bf bb a3 ff 49 bc
       0.003026301 0.0042056623 -0.005830498 -0.012329015
000060 1b 8f ba 3b c8 ae fa 3c cb 96 7d bc 80 3b bd bc
       0.005693329 0.03060092 -0.015477846 -0.02309966
000070 b3 73 f5 bc c4 fd 82 bc 87 33 c6 bc 79 1a a1 bc
       -0.029962396 -0.015990146 -0.024194492 -0.019665943
000080 85 2e 8f 3d 8a 08 63 bc 67 b5 69 3d 7d d3 ba 3b
       0.06991295 -0.013857016 0.057057764 0.005701481
000090 f7 82 34 3d f7 15 e6 3b 18 27 86 3b 6b cf 22 3c
       0.04407021 0.0070216614 0.004094016 0.009937148
0000a0 d0 63 3b bd 4a 8b 9d bc fb 1d af 3c 77 60 de 3c
       -0.045749485 -0.019231457 0.0213766 0.027145607
0000b0 bd dc 7a 3c c3 68 39 bd 47 e7 b0 bc 6d 71 97 bb
       0.015311417 -0.045265924 -0.021594657 -0.0046216757
0000c0 43 48 10 bd 45 34 d4 bc 3b bd 70 3c 77 85 ef 3c
       -0.035225164 -0.02590383 0.014693554 0.029238446
0000d0 12 d7 9b 3a 42 04 55 3c 40 5e db 3c 68 0a 62 3d
       0.0011889657 0.013001503 0.02677834 0.055185705
0000e0 c5 09 31 bb 9c 17 0f bc 9d 0f fa 3b 38 67 3d 3d
       -0.002701388 -0.008733656 0.007631256 0.046241015
0000f0 d4 f0 02 bd 0d 16 bb bc 6d 36 47 3b 8d ca 54 3c
       -0.031967953 -0.022837663 0.003039743 0.012987745
000100 8f 03 8e bc ab 18 9d 3a 70 c5 4b bc ad 3b fe bb
       -0.017335681 0.0011985501 -0.0124372095 -0.0077585788
000110 d7 11 23 bc ef dd 63 bc 67 f4 1a 3c c7 92 59 ba
       -0.009952984 -0.013907894 0.009457684 -0.00082997646
000120 2f 88 3f 3b da 6b f4 bb 32 68 76 bb 2f 43 a2 bb
       0.002922546 -0.007459146 -0.0037598726 -0.0049518566
000130 6a c4 95 3c 1b f5 75 b9 1a 2b 8a 3b e7 7a 58 bc
       0.018282134 -0.0002345633 0.004216564 -0.013212896
000140 3e 25 ad bd df f5 24 bd 1c 10 17 bd c7 0c 7d bc
       -0.08454369 -0.040273543 -0.036880597 -0.015444941
000150 97 5b 06 3d 87 e6 bf bc 51 ec a2 bd 32 67 3a bd
       0.03280219 -0.023425354 -0.0795523 -0.04550857
000160 c3 65 11 bd 40 6a 61 bc 9b 24 02 bc 7a f5 63 bc
       -0.03549744 -0.013758242 -0.007943298 -0.013913507
000170 73 ac 98 3c ed e2 d0 bb 00 ce 04 bc 33 4f c0 bb
       0.018636918 -0.006374708 -0.008105755 -0.0058688163
000180 fd 47 6c 3d f7 c7 09 3d 5b 75 f2 3d c2 c1 7a 3d
       0.05768584 0.033637967 0.1183879 0.061219938
000190 67 c8 19 bd 8f 28 d9 bb b4 36 ac bd b3 3c 27 bd
       -0.037544634 -0.0066271494 -0.08408871 -0.04082937
0001a0 a0 91 40 bc 20 f4 6f 3d f3 ba fc 3a 06 1e c2 3c
       -0.01175347 0.058582425 0.001928179 0.023695957
0001b0 ad 2f f0 3d 45 a4 d1 3d 48 16 44 3e a5 a7 a4 3d
       0.117278434 0.1023641 0.19149125 0.08039788
0001c0 1c d4 aa 3b 07 2b a3 3a 23 de 7a ba f2 3d 37 bc
       0.0052132737 0.0012448736 -0.0009569844 -0.0111842025
0001d0 b7 b8 e9 bb 6b c8 5b bb 1b 20 12 bc 07 3d 59 bc
       -0.0071326154 -0.0033536206 -0.008918787 -0.013259179
0001e0 dc 41 8f bb 02 7f 5c bc b7 1f 45 bb 43 46 41 bc
       -0.0043718647 -0.013458015 -0.0030078718 -0.011796537
0001f0 c4 82 a5 ba 75 41 28 bc 37 08 82 3a 2b 27 a7 3b
       -0.0012627472 -0.010269512 0.0009920661 0.0051011047
000200 bf 25 c9 bd 97 36 32 bd 50 f8 ba bd a0 b7 a7 bd
       -0.098216526 -0.043509092 -0.09129393 -0.081893206
000210 27 73 d2 bd e0 8f fb bc ee 15 37 bd 2f 4d c5 bc
       -0.1027587 -0.030708253 -0.04469865 -0.024084656
000220 41 f4 c6 3c 62 35 09 3c a9 73 86 3c cd 66 7d 3d
       0.024286391 0.008374544 0.016412573 0.061865617
000230 77 02 08 3e eb 12 fd 3d 58 d3 89 3d 85 31 cb 3d
       0.1328219 0.12357124 0.06729764 0.099215545
000240 7b 14 16 3b 3d d5 63 bc 90 a3 b4 bb e5 03 1d 3b
       0.002290039 -0.01390582 -0.005512662 0.002395862
000250 5b 35 6e bc cb c3 ad b6 4b c9 53 3a 61 74 20 ba
       -0.014539088 -5.178595e-06 0.0008079006 -0.00061208574
000260 1b a3 a6 bc 08 94 14 bc e8 40 1d bc c5 af 80 bc
       -0.020341447 -0.0090684965 -0.009597994 -0.015708813
000270 03 d6 dc bb 25 06 d9 bb c9 e9 14 bc 27 75 df 3a
       -0.0067393794 -0.006623047 -0.009088942 0.0017048464
000280 aa 3f 46 bc 75 98 d3 bb ed 30 ef 3b ea 93 56 bc
       -0.01210014 -0.0064573833 0.0072995336 -0.013096789
000290 f2 9a cf 3b a7 ee 7f 3b 13 6c 30 3c 0a c3 e4 bb
       0.0063356096 0.003905216 0.010767954 -0.0069812583
0002a0 db ae c5 bb f7 d6 04 3b 5a 51 d7 3a 0d 9e 4f bc
       -0.0060328073 0.002026973 0.0016427443 -0.01267196
0002b0 eb 46 50 bc 1f 2c 3f bc 0a d7 73 3a 99 14 98 3a
       -0.012712221 -0.011668234 0.00093017577 0.0011602818
0002c0 be 71 00 3e 59 6d 9c 3d 73 89 34 ba 18 69 4e bc
       0.12543389 0.07638044 -0.00068869366 -0.0125982985
0002d0 62 a8 b3 3d 20 1d d5 3c b3 48 f9 3a 3f de 11 bb
       0.08772351 0.026014864 0.0019018858 -0.0022257713
0002e0 0c cd 4a 3d aa 74 75 3c ca 84 2f 3c 07 88 8e 3b
       0.049511954 0.014981428 0.010712812 0.004349712
0002f0 fd 67 50 3d 2e b4 80 3b 8d 1d 0e 3c a7 b4 b2 bc
       0.05088042 0.003927729 0.008674038 -0.021814657
000300 0f 19 9e bc d5 29 91 bc 50 c1 7a bb 78 e6 83 bb
       -0.019299058 -0.017720142 -0.0038262196 -0.0040252768
000310 1d e2 76 bb 0b 12 58 bc 9d ed e9 ba d3 96 59 bc
       -0.0037671395 -0.0131878955 -0.0017847304 -0.013280588
000320 18 48 85 bb b4 4d 84 bc 1f 0e 48 bc 7b 20 77 3b
       -0.004067432 -0.016150333 -0.012210398 0.003770857
000330 eb be 0c 3b 1f bd 4d bc 3d 82 78 ba d0 59 9e bb
       0.00214761 -0.012557297 -0.0009479856 -0.004832484
000340 c4 1e a1 ba e4 3a 35 bc f5 89 00 3a dc 22 8b 3a
       -0.0012292494 -0.011061404 0.00049033697 0.0010615247
000350 e3 7d fa 3a d3 c1 cf bb 47 73 b8 bc 00 22 0e 3c
       0.0019111003 -0.0063402443 -0.022515906 0.008675098
000360 50 08 7d bb d2 f1 28 b9 b0 af d9 3b e2 d7 90 bc
       -0.003860969 -0.00016111814 0.006643258 -0.017681066
000370 f5 10 82 3a 5c 54 89 bb 70 15 8d bb bb ae 9e 3b
       0.0009923266 -0.0041909646 -0.004305534 0.004842607
000380 97 44 64 bc 53 4a 4f 3c 82 db 8b 3b 50 b1 8c 3b
       -0.013932369 0.012651998 0.0042681107 0.0042935982
000390 34 1e 13 3c 33 5a 55 bc 80 fa b7 bb 55 5b 89 b9
       0.008979369 -0.013021993 -0.0056145787 -0.00026198724
0003a0 fd 67 f7 3a 4b 9a 54 3b eb d2 d1 3a 17 9b c4 bb
       0.0018875595 0.0032440599 0.0016008293 -0.0059999335
0003b0 7f 78 af 3c b5 a1 cb 3b 0d 2c 98 bb 0d b4 b4 3b
       0.021419762 0.0062143453 -0.004643923 0.005514628
0003c0 f0 84 93 bc 49 8b 18 bc 5a 18 09 bc eb 3a 72 bb
       -0.018007725 -0.009310552 -0.008367622 -0.0036961387
0003d0 c5 3b 5f bb d2 70 4c bc 44 25 0a 3c a3 11 69 bb
       -0.0034062725 -0.01247807 0.008431736 -0.003556349
0003e0 50 82 20 bc c1 93 48 bb b7 95 64 3a 00 74 e2 3b
       -0.009796694 -0.0030605646 0.0008719819 0.006910801
0003f0 65 66 11 bc 6d 28 c5 bb fc ef 86 bb 05 45 16 bc
       -0.00887451 -0.006016782 -0.004117964 -0.009171729

fc1.bias f4 [64]
000000 05 5f 91 3a fe 6e bf bc cb 4d 92 bd 12 5d b7 3d
       0.001109094 -0.023368355 -0.07143744 0.08953299
000010 95 93 8a bb 42 d3 33 be 8b 55 98 bb 55 8c bd 3b
       -0.004229019 -0.17561057 -0.0046488694 0.005784551
000020 f3 7c c4 39 87 fc 7c 36 15 46 da bb 2a 53 0f bc
       0.00037477128 3.7697916e-06 -0.0066611865 -0.008747855
000030 9d f6 f3 bb 34 65 37 bb c5 9a cb bd 51 0b a2 bc
       -0.00744517 -0.0027983906 -0.09941629 -0.019780787
000040 dd 26 64 3c 3d 69 f4 bd 2f 93 88 bb 2f e5 a4 3a
       0.013925281 -0.11934135 -0.0041679363 0.0012580509
000050 e0 15 09 3b 97 98 08 3b 22 74 11 3d 48 aa 8e bc
       0.002091758 0.0020842904 0.035511144 -0.01741518
000060 1f 54 10 3a ff f9 07 3d b1 c8 94 bb 83 ea d1 bc
       0.0005505699 0.0331974 -0.004540526 -0.02562452
000070 22 67 af 3b e2 78 a4 bd 0e 4f 1c 3c ed db 05 bc
       0.0053528706 -0.08030869 0.0095403325 -0.00817011
000080 f5 6a 96 3c 02 23 5e bc d4 a7 2d 3b 2b 80 27 3e
       0.018361548 -0.013558151 0.0026497738 0.16357486
000090 50 45 88 ba 49 27 b2 b9 5f a8 a8 3d 13 be ff bd
       -0.0010396633 -0.00033980075 0.08235239 -0.12487426
0000a0 82 be cc 3d a3 8c 71 bd c4 c8 9f ba 1c 0e 23 bd
       0.09997274 -0.058972012 -0.001219057 -0.039808378
0000b0 c5 ce b2 3b f3 f5 6d bb 66 f6 1e 3e c8 93 8b bc
       0.0054567778 -0.0036309927 0.15523681 -0.017038241
0000c0 4b 6f 46 3c 41 bb 09 bc e0 60 ed b9 6f d3 06 3e
       0.012111495 -0.008406461 -0.0004527634 0.13166593
0000d0 7f 63 87 bc 33 13 41 bc 9d 33 bd bb 57 23 a6 bd
       -0.016526936 -0.011784363 -0.005773975 -0.08112209
0000e0 0a 23 57 bc 11 3e 94 bd 72 d9 bc bc 03 8f bd 3d
       -0.013130913 -0.07238401 -0.023052905 0.09255793
0000f0 aa a5 d0 bc 98 36 a3 3c 0b 16 b7 bb 51 ae 84 3a
       -0.02546962 0.019923493 -0.0055873445 0.0010122751

fc2.weight f4 [10, 64]
000000 ac 33 8f 3d 97 f9 b8 3d 46 92 0b bd bb 5e e1 bc
       0.069922775 0.090319805 -0.034075044 -0.027510991
000010 e0 89 65 bc b9 ff 8c 3c ce ae 26 bc 84 74 b8 bd
       -0.014009923 0.017211782 -0.010173513 -0.090065986
000020 68 a8 e5 bc b0 bd 19 bd a7 14 81 bd bb 7b 57 3d
       -0.028034404 -0.037534416 -0.06302767 0.052608233
000030 10 78 63 3c 40 5d 7d 3d fd fe cd 3c 67 9c 3f 3c
       0.013883606 0.06185651 0.025146002 0.011695004
000040 77 7a 75 bd 4b 33 c4 3c 87 fc ad bc 74 78 12 3d
       -0.059931245 0.02395024 -0.021238578 0.035759404
000050 0a c8 9f 3b 83 66 8a 3c cb 14 69 bd 98 5d f4 ba
       0.0048761414 0.016894585 -0.056904595 -0.0018643616
000060 4d 20 aa 3c 17 22 f9 bd 65 2d f9 3c 25 1b 6a bc
       0.020767355 -0.12164705 0.030417154 -0.014288698
000070 85 ea 73 3d 0f 44 7a 3d df 40 1d 3c bf cf 4b bc
       0.059549827 0.061100062 0.009597986 -0.012439667
000080 e0 00 b0 bc 88 de 05 bc b5 16 1b 3d 1e 8c 8e bd
       -0.021484792 -0.008170731 0.037863452 -0.06960319
000090 e3 78 dc 3c da ae cb bc b5 1d a2 bd f3 8d e4 3d
       0.026913112 -0.02486365 -0.079158224 0.11159887
0000a0 5f ee 8d bd 88 00 8c bc 70 d8 2b bd 5d b2 fa 3d
       -0.06930231 -0.017090097 -0.041954458 0.12241051
0000b0 c3 aa 15 bd 05 58 d1 bc 0f a8 ab 3d 02 70 d0 3c
       -0.036539804 -0.025554666 0.08381664 0.025444034
0000c0 08 53 d7 bc 3f 98 97 3b 12 47 ee bc 83 18 3e bd
       -0.02628471 0.0046263034 -0.029086623 -0.046410095
0000d0 90 6b d2 3c eb 77 8d 3d 75 7e b1 3c 2c cb 89 3c
       0.025686055 0.06907638 0.021666745 0.016820513
0000e0 3f 31 92 3d 3b 63 aa 3b a6 91 44 3d c0 74 83 3d
       0.07138299 0.0051998175 0.047990464 0.06418753
0000f0 7a d5 21 bd 83 fa 00 be ff af 03 3c 02 56 9c bb
       -0.039510228 -0.12595563 0.008037566 -0.004770995
000100 77 6f 34 bd cd 0a e9 bb 90 4c e9 3c e1 a8 a2 bd
       -0.044051614 -0.0071118833 0.02847889 -0.07942367
000110 08 54 da 3c 87 ce ac 3c a4 60 92 3c 9b 61 8a bd
       0.026651397 0.021094574 0.017868347 -0.06756898
000120 95 d7 5d 3c 0d 59 09 bc cd 8d cf bc c7 4b b9 3d
       0.013540168 -0.008383048 -0.02533617 0.090476565
000130 32 64 9a bd b1 8a 97 bc c5 5c d0 bc 0f 7e 12 3c
       -0.07538642 -0.01849875 -0.025434861 0.0089411875
000140 ad 75 17 3d 8d 27 bc 3b 50 94 57 bb 80 1f f9 3d
       0.03697746 0.0057420195 -0.0032894798 0.12164211
000150 30 1a 09 bd bc ed ac bc 76 18 ad 3d 0c df c2 3c
       -0.03347224 -0.021109454 0.08451931 0.023787998
000160 c3 08 cf bb 23 a5 51 3d 80 23 1b 3c c2 96 4f 3b
       -0.006318183 0.051182877 0.009468913 0.0031675552
000170 2f 98 c7 bc 70 98 e2 3d 3a 00 a8 bd 35 30 cd bc
       -0.024364559 0.110642314 -0.08203168 -0.025047401
000180 b5 34 4e 3d ea e8 1f 3c d1 c4 c5 3c 33 f5 7b bc
       0.050343234 0.009760121 0.024141701 -0.015378284
000190 33 53 18 bb 4b 32 11 3c f8 33 66 3d fd 78 06 3e
       -0.002324295 0.008862088 0.056201905 0.13132091
0001a0 65 91 04 bd 6c bc 81 3c 73 81 5b 3d 2b 6f 36 be
       -0.03236522 0.015836917 0.05359025 -0.17815845
0001b0 ca 57 00 bd 23 4a a5 3c 68 6d a7 bd 83 61 d3 bc
       -0.031333722 0.020176953 -0.081751645 -0.025803333
0001c0 07 40 6e bd 4f 0b 91 3b 9f 33 c5 39 32 9d f2 bd
       -0.05816653 0.004426397 0.0003761323 -0.11846389
0001d0 c8 ec 19 3d 90 3f 67 3c 0f 8e c5 bc a7 76 3c 3d
       0.037579328 0.014114276 -0.02411559 0.046011593
0001e0 33 70 01 bd b3 60 83 3d b0 09 52 3c d0 a9 d5 bc
       -0.031601142 0.06414928 0.0128196925 -0.02608195
0001f0 67 83 d8 bc 7a 94 c3 3d 47 7a 03 bc b7 87 03 3d
       -0.026429845 0.09549804 -0.008024759 0.03211185
000200 ff 22 33 bc 60 99 5c 3d a9 f2 2c 3b ea ec be 3c
       -0.010933637 0.053857207 0.0026389754 0.023306329
000210 b3 97 89 3b d5 90 61 bd 0f aa c4 bd 17 b2 3a 3c
       0.004198992 -0.055069763 -0.096027486 0.011394999
000220 6f 4f 30 3c 2f e4 6b bd 0d 74 cd 3b 13 11 a5 3d
       0.010761126 -0.05759066 0.006269938 0.08059897
000230 0a a8 ca 3b 83 5d c9 3b f3 cc af 3d 67 f5 85 3c
       0.0061845826 0.0061451807 0.08584013 0.016352369
000240 23 dc 54 bd 97 7a e6 3a cb 82 31 bd b5 32 5d bb
       -0.05196775 0.0017584142 -0.043337625 -0.0033752148
000250 57 57 5d bd 87 47 57 bc ff ec aa 3d 0c 7e 88 3c
       -0.054038372 -0.013139612 0.08345985 0.016661666
000260 11 73 07 bb 8d d1 6b 3d e7 9a a4 3c fd fb 61 bd
       -0.002066795 0.05757289 0.020093394 -0.055171955
000270 0b f2 9a bc 8a fa cf bd 13 b2 e6 bc 10 87 38 bd
       -0.018914243 -0.101552084 -0.028161084 -0.04505068
000280 37 97 83 3c df ee a1 bc 78 39 55 3c 37 06 9b 3d
       0.016063316 -0.019767223 0.01301419 0.07569545
000290 5b 8e 97 3c 58 ee ef 3c c2 de 43 bd 0f 57 6d bd
       0.018500498 0.029288456 -0.04781986 -0.057944354
0002a0 80 f4 10 3d 50 46 03 be 2f 6a 3a 3d 6f 80 68 3d
       0.035389423 -0.12819791 0.04551142 0.05676311
0002b0 b2 9c a0 bb c2 a8 7d 3c c4 de 10 3e b2 c3 77 bd
       -0.004901492 0.0154821295 0.14147478 -0.060489364
0002c0 f4 ff 0d bc 8b 95 7a 3a 6a 6f 7b 3c b2 e0 1a 3d
       -0.008666981 0.0009559027 0.015346387 0.037811942
0002d0 6d fb 61 3c 7f 3b 84 3c 27 d2 7f bc 53 24 89 bd
       0.013792855 0.016141651 -0.015614069 -0.066963814
0002e0 6d c1 9a 3c 7b cb a3 3d 15 dc c8 bb b6 dd 13 bc
       0.01889106 0.07997795 -0.0061297514 -0.009025028
0002f0 a2 d8 d8 ba 44 8c c6 bd 85 94 c0 bc 8c 8d 82 bc
       -0.0016544054 -0.09694722 -0.02350832 -0.015936635
000300 33 34 92 3d 02 af 53 be 33 ac 54 bd 1f 8c 21 3c
       0.071388625 -0.20672229 -0.051922034 0.009860068
000310 8d f6 51 bd b7 29 8b 3c d0 37 43 3d 75 b0 5a 3d
       -0.05126052 0.016987665 0.04766065 0.05339094
000320 92 15 75 bd aa a8 65 bd d8 7f 80 bc f5 35 eb 3c
       -0.059835024 -0.056069054 -0.01568596 0.028712252
000330 cf 40 ce 38 f8 5a 5e 3d 2b 51 65 bc e7 9b 0f bc
       9.834917e-05 0.054285973 -0.013996403 -0.008765197
000340 1e 0e 87 3d 2a 89 c9 bc e5 81 3c bd 58 3a 0f bd
       0.065944895 -0.024601538 -0.046022315 -0.03496775
000350 fb 52 15 3c ed 13 06 3d 2f 4e 17 3c 4b 0d 64 3b
       0.009114022 0.032733846 0.009234949 0.0034797962
000360 5a 5f 1d bd 5a 80 d9 3c e0 df 10 bd ef 8e 9f 3d
       -0.038421012 0.02655046 -0.035369754 0.07790934
000370 75 88 27 3c 0c 50 a4 bc 6a 74 76 bc d8 78 b2 3c
       0.010225405 -0.0200577 -0.015042404 0.021786138
000380 6a e3 cb bd c8 97 67 bc db b1 a6 3d 13 f7 f4 3c
       -0.09955485 -0.014135309 0.08139392 0.02990297
000390 bf f3 a6 bc 2a f3 ea 3c cd 97 5d bc 8e 9a 9d bd
       -0.0203799 0.028680403 -0.013524962 -0.076954946
0003a0 36 60 40 ba 9b 06 41 bd 8a 7a a0 bc c2 9c d1 39
       -0.00073385553 -0.04712544 -0.019589681 0.0003998038
0003b0 62 ea fc bc 87 64 fc 3c 3a 0c 19 bd 97 ae 22 bd
       -0.030873481 0.030809654 -0.037365176 -0.039717283
0003c0 7f 38 20 3c d1 6d 82 3c 00 ae 88 3c ec c8 b6 3c
       0.009779095 0.015921505 0.016684532 0.022312604
0003d0 d0 e0 36 3d 4f 22 c4 ba 8b ea f6 bc 15 49 ce 3c
       0.04464799 -0.0014963838 -0.030141136 0.025181333
0003e0 fb d8 32 bd 1d aa 17 3d 43 3a 71 bd 5b 65 bd 3d
       -0.04366396 0.037027467 -0.058893453 0.09247848
0003f0 b0 f2 d9 bc da 25 df bd ba b5 bd bc 7f 7e da bb
       -0.02660498 -0.108958915 -0.023157943 -0.0066679115

fc2.bias f4 [10]
000000 4d 4b f0 bd 05 b2 ba bd df bb 83 3d 73 d3 78 3d
       -0.117331125 -0.09115986 0.06432318 0.06074853
000010 9b 95 3b 3e f3 cf 2a bd cb 6e a0 3d c3 58 81 bd
       0.18318789 -0.041702222 0.07833632 -0.06315758
000020 5b 45 15 bd 2a ac 3a bd
       -0.036443096 -0.045574345
