torch_to_tf/torch_models/model_round879.model (torch, 493063 bytes, 10 tensors)

conv1.weight f4 [32, 3, 3, 3]
0	0x3dcd221d	0.10016272
1	0xbd614d3b	-0.055005293
2	0xbcc0a35d	-0.023515398
3	0x3dcbb11f	0.099458925
4	0xbe1261be	-0.14295098
5	0xbd4f57c8	-0.050620824
6	0x3c257a04	0.010099892
7	0xbc359aef	-0.011084302
8	0x3dc07b97	0.09398573
9	0x3dad84a1	0.084725626
10	0xbd1d9808	-0.038475066
11	0x3d7b7e7b	0.061399918
12	0x3c2d2812	0.010568636
13	0xbdc0cd64	-0.09414175
14	0x3c8c89ff	0.017155645
15	0x3cf4ea0b	0.029896757
16	0xbcfcf588	-0.030878797
17	0xbbabac2f	-0.0052390317
18	0xbce6b2ba	-0.028161395
19	0x3deec6df	0.116590254
20	0xbdb37cec	-0.08764061
21	0xbbd1b24d	-0.006399429
22	0x3c2c8747	0.0105302995
23	0xbc8d815f	-0.017273603
24	0xbca8cb8a	-0.020604867
25	0xbd454302	-0.048159607
26	0x3ca8dd33	0.020613289
27	0x3c3e8631	0.011628673
28	0x3cd98d3f	0.02655661
29	0xbb6f254a	-0.0036490732
30	0xbda096e1	-0.07841278
31	0xbdcf125f	-0.10110926
32	0x3d93ab4c	0.07210407
33	0xbcd0efe0	-0.025505006
34	0xbc0f96a7	-0.008763946
35	0xbcbe5080	-0.023231745
36	0x3da0ef93	0.07858195
37	0x3de4dd77	0.111750536
38	0x3d139fb6	0.036040984
39	0x3c569032	0.013095902
40	0xbd0bf87a	-0.034172513
41	0x3bef5d88	0.007304851
42	0x3c6c512a	0.014423648
43	0x3d2b2d89	0.041791473
44	0xbcbbad13	-0.022909677
45	0x3d3525cf	0.04422551
46	0x3c982fc3	0.018577462
47	0x3d6f8055	0.058471996
48	0xbc23de73	-0.0100017665
49	0xbdba83c1	-0.09107161
50	0xbd85dd9a	-0.06536408
51	0xbd86e52a	-0.06586678
52	0xbc09f997	-0.008421323
53	0xbc2685ad	-0.010163707
54	0xbd5bac2f	-0.053631004
55	0x3d93f5dc	0.07224628
56	0x3ddd4808	0.108047545
57	0xbdcdec38	-0.10054821
58	0x3bb97f95	0.005660961
59	0xbd6d491f	-0.05793106
60	0x3d641933	0.055688094
61	0xb95eefa7	-0.00021260847
62	0xbd0ffa07	-0.035150554
63	0x3ca757dd	0.020427639
64	0xbd40486b	-0.046944063
65	0x3d320e07	0.04347041
66	0xbc6a4578	-0.014298789
67	0x3de66c5f	0.11251139
68	0xbd471c87	-0.04861119
69	0x3c7b28dd	0.015329567
70	0x3d40b61b	0.04704867
71	0x3c0ee8d4	0.008722503
72	0xbd7067b3	-0.058692645
73	0xbe0a1566	-0.13484725
74	0x3d0f6ade	0.035014026
75	0xbb0ff943	-0.002196864
76	0x3e045ae0	0.12925291
77	0xbd04f2dc	-0.03245817
78	0xbd37da9b	-0.044886213
79	0x3d4c7973	0.04992051
80	0xbda5f4db	-0.08103343
81	0x3d7488ca	0.059700765
82	0x3da61f75	0.08111469
83	0xbc5c20e3	-0.013435575
84	0x3d55edc7	0.052228715
85	0xbc11e26a	-0.008904079
86	0xbb90f963	-0.0044242605
87	0x3df9a278	0.121891916
88	0xbd49b7eb	-0.049247663
89	0xbd9e78cb	-0.07737883
90	0xbd793af2	-0.06084723
91	0x3d79b0ef	0.060959753
92	0xbc9436a2	-0.018092457
93	0x3c12f577	0.008969656
94	0x3dbfd6e0	0.09367156
95	0xbdfda70b	-0.123853765
96	0xbd7cb0df	-0.061692115
97	0xbdd37d77	-0.10326665
98	0xbd7ad8ad	-0.061241794
99	0xbc3a0cbf	-0.011355578
100	0xbc08b8a9	-0.008344808
101	0x3d28ecc2	0.041241415
102	0x3d8ba74a	0.06819017
103	0x3c7e8368	0.015534259
104	0xbda608c9	-0.081071444
105	0x3d148665	0.03626098
106	0xbd29b543	-0.04143263
107	0x3da8275e	0.08210634
108	0x3ce7deba	0.028304446
109	0x3d927ada	0.07152338
110	0x3d005e78	0.031340092
111	0x3d497994	0.04918821
112	0x3d204438	0.03912756
113	0x3c5d9dea	0.013526419
114	0x3cea9c8a	0.028639097
115	0x3d82b1ee	0.06381594
116	0x3d81f7e4	0.063461095
117	0xbc6dfc57	-0.014525495
118	0xbd752bb3	-0.059856128
119	0xbdd6b37d	-0.104834534
120	0xbd8475e9	-0.06467802
121	0xbcfc0deb	-0.030768355
122	0xbab152fa	-0.0013528757
123	0xbd521a35	-0.051294524
124	0xbda69221	-0.081333406
125	0xbd404595	-0.04694136
126	0xbca1df78	-0.019759879
127	0xbb9418e5	-0.004519569
128	0x3da1d355	0.079016365
129	0x3b175f3a	0.002309753
130	0xbbeb78db	-0.007186038
131	0xbc014ecf	-0.007892325
132	0x3d117f23	0.035521638
133	0xbda09f5e	-0.07842897
134	0x3d5a8c5d	0.053356517
135	0x3a44c9fe	0.0007506906
136	0xbb208fcd	-0.0024499774
137	0xbd51d7ab	-0.051231068
138	0x3ce44eb2	0.027869556
139	0x3d8d0a4b	0.06886729
140	0x3d8be42f	0.06830632
141	0x3c323fb3	0.010879445
142	0x3d42f7fd	0.04759978
143	0xbbcbcd90	-0.0062195733
144	0xbd80761c	-0.062725276
145	0x3d87b04d	0.066254236
146	0x3bb9b397	0.0056671607
147	0xbe0c28d0	-0.13687444
148	0x3b4ae532	0.0030959365
149	0xbdccc087	-0.09997659
150	0xbd25984a	-0.040428437
151	0xbd2d7417	-0.04234704
152	0xbdb6a3a5	-0.089179315
153	0xbbe2a230	-0.006916307
154	0x3cf03d08	0.029325977
155	0xbc046c70	-0.008082494
156	0x3b83d4e7	0.0040231827
157	0x3ddc73ad	0.10764251
158	0xbcb8d432	-0.02256212
159	0xbdbe4e75	-0.09292308
160	0x3d63492a	0.055489697
161	0x3dd8c960	0.10585284
162	0x3da8fdbf	0.08251523
163	0xbd504463	-0.05084647
164	0x3d089647	0.03334644
165	0xbc00d268	-0.007862665
166	0x3caccde3	0.021094268
167	0x3db9655c	0.09052536
168	0xbd7492f0	-0.059710443
169	0x3ccd3707	0.025050653
170	0x3deb2190	0.11481011
171	0xbce19993	-0.02753905
172	0xbdd05bf5	-0.101737894
173	0xbd95df00	-0.073179245
174	0xbd0c1a1a	-0.03420458
175	0x3be5293f	0.0069934423
176	0x3c9a8ad8	0.018865034
177	0xbd956122	-0.07293917
178	0xbcf02030	-0.029312223
179	0x3d83e56b	0.064402424
180	0xbcf90745	-0.030398974
181	0xbe0f164b	-0.13973348
182	0x3cbedd0d	0.023298765
183	0xbd8560b9	-0.06512589
184	0xbda62059	-0.081116386
185	0x3dbb7bab	0.09154447
186	0xbd943d50	-0.07238257
187	0x3cda8853	0.026676333
188	0x3da4398d	0.080187894
189	0x3dd9c107	0.1063252
190	0xbdf8370f	-0.121198766
191	0xbc9b7e90	-0.018981248
192	0xbd5b96c3	-0.053610574
193	0xbd966783	-0.07343962
194	0x3c69aed2	0.014262872
195	0xbc02ef53	-0.00799163
196	0x3c1e2a71	0.0096536735
197	0x3c5162aa	0.012779871
198	0xbd8cd84e	-0.06877194
199	0xbc190efd	-0.009341952
200	0x3d1cefd3	0.03831465
201	0x3ce25ed7	0.027633114
202	0xbd15fdb6	-0.03661891
203	0x3ce669cf	0.028126625
204	0x3c22d3a6	0.009938156
205	0xbd058148	-0.032593995
206	0xbd83978f	-0.06425392
207	0x3dd35dc3	0.10320618
208	0xbda0dd41	-0.07854701
209	0x3c466c9f	0.012110858
210	0x3d672a75	0.056436975
211	0x3dfc44e5	0.12317828
212	0xbd8d9751	-0.06913627
213	0x3d96a6e1	0.073560484
214	0x3c13c74a	0.009019682
215	0xbb181d6b	-0.0023210894
216	0xbc981427	-0.018564297
217	0xbcd8c1ef	-0.026459662
218	0x3cc950b3	0.024574613
219	0xbd7ad28f	-0.06123596
220	0x3c71eb33	0.0147655485
221	0xbd98e045	-0.07464651
222	0x3cc3f800	0.023921967
223	0x3d6242cb	0.05523948
224	0x3d805f53	0.06268182
225	0x3d231eab	0.03982417
226	0xbc26b675	-0.010175337
227	0xbd76dc30	-0.06026858
228	0x3c818933	0.015812492
229	0xbd3c8249	-0.046022687
230	0xbdaee76a	-0.085402325
231	0xbd8c525d	-0.06851647
232	0xbcec022b	-0.028809628
233	0x3de13f3a	0.10998388
234	0xbd1921e3	-0.037385833
235	0x3c9b4437	0.018953426
236	0x3ae4e77d	0.0017464008
237	0xbbade8e5	-0.005307304
238	0xbd8a4353	-0.06751122
239	0x3cf731d7	0.030175133
240	0xba5945e5	-0.0008288308
241	0x3d637ee5	0.055540938
242	0x3d8f640d	0.07001505
243	0xbdd64a23	-0.10463359
244	0x3c309aec	0.010779124
245	0xbd36a5ff	-0.0445919
246	0xbc451921	-0.012029917
247	0x3d4a5777	0.04939982
248	0xbc6dfe27	-0.014525927
249	0xbd12021d	-0.035646547
250	0x3bffefa7	0.007810551
251	0x3c4a9b61	0.012366147
252	0xbdd88d30	-0.105738044
253	0xbd11fe0b	-0.035642665
254	0x3c617ba8	0.013762392
255	0x3cbb5430	0.022867292

conv1.bias f4 [32]
0	0x3e00888f	0.12552093
1	0xbdcc7bfb	-0.09984585
2	0x3d298b63	0.041392695
3	0xbb0143a6	-0.001972416
4	0x3dd76ee5	0.10519198
5	0xbd272d77	-0.040814843
6	0x3de26485	0.11054329
7	0x3d9d043f	0.076668255
8	0x3dac22cd	0.08405075
9	0xbe111913	-0.14169721
10	0x3cb41396	0.021981996
11	0x3b9576a8	0.004561264
12	0xbde5a64a	-0.11213358
13	0x3dabe715	0.08393685
14	0xbc4fb683	-0.0126777915
15	0xbd050552	-0.032475777
16	0x3d764acd	0.06012993
17	0x3d85a2e5	0.0652521
18	0x3db9d6e2	0.09074189
19	0x3debc95f	0.11513018
20	0x3a5285c3	0.00080307963
21	0x3d3e5f58	0.046477646
22	0x3c956f87	0.018241657
23	0xbdc8ff4c	-0.09814319
24	0xbdc2c042	-0.095093265
25	0xbb0bb237	-0.002131594
26	0xbc305df0	-0.010764584
27	0xbdc62c75	-0.09676448
28	0x3bf5d5e2	0.0075023035
29	0xbaecdb00	-0.0018070638
30	0x3d97cf5d	0.07412598
31	0xbe2cd6ce	-0.16878816

conv2.weight f4 [64, 32, 3, 3]
0	0xbccef03d	-0.025261039
1	0xbd91a56d	-0.071116306
2	0x3ca74173	0.02041695
3	0xbd10c5a2	-0.035344727
4	0xbd627822	-0.05529035
5	0x3d90e90b	0.070756994
6	0xbbab78c7	-0.0052329036
7	0xbd63dc18	-0.05562982
8	0x3c14cec8	0.009082504
9	0x3c86b34a	0.016442914
10	0xbd5e5d43	-0.05428816
11	0xbd3f5943	-0.046715986
12	0xbd33da03	-0.043909084
13	0xbd73d89d	-0.05953275
14	0xbca0f71b	-0.01964908
15	0x3ce55987	0.027996792
16	0x3c6674da	0.0140659455
17	0xbacdf3e2	-0.0015712942
18	0xbd05b197	-0.032640066
19	0xbd80a693	-0.062817715
20	0x3c6e698f	0.014551534
21	0xbca7a75c	-0.020465545
22	0xbdc95193	-0.09830012
23	0x3d2d55d7	0.04231819
24	0x392b0303	0.00016308953
25	0xbd40b973	-0.04705186
26	0xbbe287c0	-0.0069131553
27	0x3cc9acc8	0.024618521
28	0xbce7af67	-0.02828188
29	0xbd2c4cee	-0.042065553
30	0xbc8ff34b	-0.017572066
31	0xbd1dce4b	-0.038526814
32	0xbc6ac892	-0.014330046
33	0xbd11016b	-0.035401743
34	0xbd3e116e	-0.04640334
35	0xbd3cdfa3	-0.046111714
36	0xbaccc075	-0.0015621322
37	0xbc54d11d	-0.01298931
38	0x3c974a17	0.018467946
39	0x3c59b4ba	0.0132877175
40	0x3c6e2da8	0.0145372525
41	0x3c7ad490	0.015309468
42	0x3caf99c6	0.02143563
43	0x3ce3eb12	0.027822051
44	0x3d4ee643	0.050512563
45	0x3c404eaf	0.01173751
46	0xbd0ea735	-0.03482743
47	0x3c86415e	0.016388591
48	0xbc139d7d	-0.009009716
49	0xbd569daf	-0.052396473
50	0x3c89bba3	0.016813105
51	0xbcc372ab	-0.023858389
52	0xbba4d912	-0.0050307596
53	0x3db8bca7	0.090203576
54	0xbc90972c	-0.01765021
55	0x3d235980	0.039880276
56	0x3e18ce3a	0.14922419
57	0xbbcdc2cb	-0.0062793246
58	0x3beb99db	0.007189972
59	0x3dc90398	0.098151386
60	0xbda1c2f3	-0.07898512
61	0xbbf86b75	-0.0075811693
62	0x3dcc3b5b	0.09972259
63	0xbcd6cf00	-0.026221752
64	0xbd0e36cb	-0.034720223
65	0xbafd13ad	-0.0019308232
66	0x3ba25ca2	0.0049548903
67	0xbb904722	-0.004403011
68	0x3d013038	0.031540126
69	0x3cb81898	0.022472665
70	0x3d278c57	0.040905323
71	0x3d90c735	0.07069246
72	0xbcb24450	-0.02176109
73	0xbdcdfda7	-0.10058146
74	0x3d81463f	0.063122265
75	0x3c7b4e1d	0.015338448
76	0xbd84b30f	-0.06479465
77	0x3cc8ea94	0.024525918
78	0xbc6a6a07	-0.014307505
79	0xbdefc908	-0.117082655
80	0xbd1b1a66	-0.037866972
81	0xbb84a49a	-0.0040479423
82	0xbc3eedc4	-0.011653367
83	0x3dafe3bb	0.08588358
84	0xbc9d321f	-0.019188939
85	0xbc307b1e	-0.010771541
86	0x3d91e5f2	0.07123937
87	0xbc7626fa	-0.015023941
88	0xbc2300ab	-0.00994889
89	0x3c0ff693	0.008786815
90	0xbc1eb635	-0.009686996
91	0xbdd2668f	-0.10273468
92	0xbbe171e5	-0.0068800324
93	0xbd18908e	-0.037247233
94	0xbda610a0	-0.0810864
95	0xbbba12f8	-0.005678531
96	0x3cda0915	0.026615659
97	0xbc2a9472	-0.010411369
98	0x3d7590fd	0.059952725
99	0xbd06f035	-0.032943923
100	0xbc944777	-0.018100483
101	0x3c8a0e10	0.016852409
102	0xbd2b5fe2	-0.041839488
103	0xbd292d7b	-0.04130314
104	0x3d229400	0.039691925
105	0xbb5b7ddd	-0.0033491768
106	0xbc86a38b	-0.016435405
107	0x3d873336	0.066015646
108	0xbd0ee6c2	-0.034888037
109	0xbcf7c367	-0.030244542
110	0x3cd8580d	0.026409173
111	0xbc13bee2	-0.009017678
112	0xbd05c354	-0.032656983
113	0x3d64effd	0.055892933
114	0xbc9d6025	-0.019210884
115	0xbd238787	-0.03992417
116	0x3d885444	0.066566974
117	0xbd2028ff	-0.039101597
118	0xbcfd5350	-0.030923516
119	0x3d6f4073	0.058411073
120	0xbc7790eb	-0.015110235
121	0x3c75894a	0.014986346
122	0x3c2afeb0	0.010436699
123	0xba6b147b	-0.00089675904
124	0x3cc6d219	0.024270104
125	0x3cfa8c5b	0.030584505
126	0xbc8b6471	-0.017015668
127	0xbdb0d743	-0.08634808
128	0xbd582d63	-0.05277766
129	0xbd41700b	-0.047225993
130	0xbd2b64f4	-0.041844323
131	0xbc51f4fa	-0.012814755
132	0xbd1faf63	-0.03898562
133	0xbcfe3e42	-0.031035546
134	0x3d00df4c	0.031462952
135	0x3c1ef74e	0.009702517
136	0xbcdbe79b	-0.026843837
137	0xbcd56e45	-0.026053557
138	0xbd0021e9	-0.03128234
139	0xbc4c9ed3	-0.0124890385
140	0x3bdba430	0.0067029223
141	0x3d1f12e0	0.03883636
142	0x3ca79ac8	0.020459548
143	0x3d35867a	0.0443177
144	0xbd09bd80	-0.033627987
145	0xbd1c98da	-0.038231708
146	0x3d9b9733	0.07597198
147	0xbcc9f865	-0.024654577
148	0xbd0c22ad	-0.034212757
149	0x3d60bbdd	0.05486666
150	0xbd609cf3	-0.05483718
151	0xbd801f12	-0.06255926
152	0x3d6ec332	0.05829162
153	0xbc730c08	-0.014834411
154	0xbd439ca2	-0.0477568
155	0xbc8cfe5a	-0.017211128
156	0xbd3a359f	-0.045461293
157	0xbd0103e8	-0.031497866
158	0xbc90abcb	-0.017660042
159	0xbc2b897b	-0.01046979
160	0xbc8afefa	-0.016967285
161	0xbc87bc6f	-0.016569344
162	0xbbf6aa9a	-0.0075276615
163	0xbdd23882	-0.10264684
164	0xbd8ea7c3	-0.06965592
165	0xbd6990a7	-0.057022717
166	0xbd48fa3e	-0.049066775
167	0x3db0a1fd	0.08624647
168	0xbccc1306	-0.024911415
169	0xbd13658b	-0.03598551
170	0xbc21cf9d	-0.009876159
171	0xbc1a2623	-0.009408507
172	0xbcf46b70	-0.029836386
173	0x3d69bdb2	0.057065673
174	0x3cfd1038	0.030891523
175	0xbc652f97	-0.013988397
176	0x3d031967	0.032006647
177	0xbc269e77	-0.010169617
178	0xbcaf0750	-0.021365792
179	0x3d321aeb	0.043482702
180	0xbcbd2ec8	-0.023093596
181	0xbdd11000	-0.1020813
182	0x3cc414e1	0.023935737
183	0xbd4c4041	-0.049865965
184	0xbcd9b5a3	-0.026575869
185	0x3ca7d077	0.020485146
186	0xbb95230b	-0.0045512966
187	0x3cbe9973	0.02326653
188	0xbc4529f2	-0.012033926
189	0xbc3ff251	-0.011715488
190	0xbc80d2ae	-0.01572546
191	0x3d1485d8	0.036260456
192	0xbcd91110	-0.026497394
193	0xbd127f3e	-0.03576588
194	0x3d5f48b0	0.05451268
195	0xbd33bdd7	-0.043882217
196	0xbc48634d	-0.012230706
197	0x3ceca877	0.028888924
198	0xbc13d8d5	-0.009023865
199	0xbd4a9e6f	-0.0494675
200	0x3c34ef4f	0.011043384
201	0xbcbc5f9a	-0.022994805
202	0xbcbef897	-0.023311896
203	0x3d05a733	0.032630157
204	0xbbc66efb	-0.0060557104
205	0xbbe513ba	-0.006990877
206	0x3dbaa457	0.091133766
207	0x3da66668	0.08125001
208	0xbd3bac45	-0.045818586
209	0xbd5471b3	-0.051866245
210	0x3d02a8e6	0.031899355
211	0xbdca932f	-0.09891354
212	0xbd4dcaba	-0.050242163
213	0x3d21eb4d	0.03953104
214	0x3c8d667b	0.01726078
215	0xbc3dd41d	-0.011586216
216	0xbc719903	-0.0147459535
217	0xb8d3d433	-0.00010100789
218	0xbd1cadca	-0.038251676
219	0xbabffec1	-0.0014648066
220	0xbd1a50f5	-0.037674863
221	0xbdabab70	-0.083823085
222	0xbd802334	-0.062567145
223	0xbd0e6547	-0.034764554
224	0x3c5f293b	0.01362067
225	0xbcf64daf	-0.03006634
226	0xbc32dde3	-0.01091716
227	0xbcbf22c5	-0.02333201
228	0xbd2e2e79	-0.04252479
229	0xbd27d46a	-0.04097406
230	0xbc2387aa	-0.009981075
231	0xbd69dd4d	-0.057095814
232	0xbd75386d	-0.059868265
233	0x3cd3a4d0	0.025835425
234	0xbcaa3571	-0.020777436
235	0xbd147edb	-0.03625379
236	0xbba7603f	-0.005107909
237	0xbc71b6ff	-0.014753102
238	0xbc74f800	-0.014951706
239	0x3d60b032	0.054855533
240	0x3c55382a	0.013013879
241	0x3d493249	0.04912022
242	0x3d1b5834	0.037925914
243	0xbafec01b	-0.0019435914
244	0xbc057bf0	-0.008147225
245	0xbd295ccd	-0.041348267
246	0xbd4b6523	-0.049657
247	0xba1acb12	-0.00059048936
248	0x3c8fcb5b	0.017553022
249	0xbb8045d4	-0.003914574
250	0x3cfb80f8	0.030701146
251	0x3d974423	0.07386043
252	0x3c4c1309	0.01245571
253	0xbc9b6cf2	-0.018972848
254	0xbb22b576	-0.0024827397
255	0x3c956170	0.018234938

conv2.bias f4 [64]
0	0x3daff063	0.08590772
1	0xbd93f7f3	-0.07225027
2	0x3c858a17	0.016301198
3	0x3cfc4025	0.030792305
4	0xbcaf700b	-0.021415731
5	0x3a39f578	0.00070937676
6	0x3d6d5eba	0.057951666
7	0xbd38ff43	-0.04516531
8	0xbd945b87	-0.0724402
9	0xbd540297	-0.051760282
10	0xbda261c3	-0.07928803
11	0x3c5fb8e7	0.013654924
12	0x3ccde3a0	0.025132954
13	0xbcc77f03	-0.024352556
14	0x3d821d07	0.06353193
15	0xbd87b2f7	-0.06625932
16	0x3d44a453	0.048008274
17	0x3b74d1cb	0.0037356492
18	0x3bb580cc	0.0055390354
19	0x3e06d8cd	0.1316864
20	0x3c13766f	0.009000405
21	0xbd54bf42	-0.05194021
22	0xbd0365e7	-0.032079604
23	0x3cbc4f4f	0.022987036
24	0xbd405c6a	-0.046963133
25	0xbcb5f200	-0.022210121
26	0x3d6c96d2	0.05776102
27	0xbc81e0ee	-0.015854325
28	0x3cbd424a	0.023102898
29	0xbe07c604	-0.1325913
30	0xbd34af23	-0.044112336
31	0x3dfc7ddf	0.123286955
32	0x3d731347	0.059344556
33	0x3d7e3243	0.062059652
34	0xbdacdf6a	-0.0844105
35	0x3cc751b7	0.024330957
36	0x3a73ef88	0.00093054073
37	0x3d8ba291	0.068181165
38	0xbddef4c5	-0.1088653
39	0x3e078843	0.13235573
40	0xbdb35f85	-0.08758453
41	0x3e0e3932	0.13889006
42	0xbd8c55bc	-0.0685229
43	0xbd815963	-0.06315877
44	0xbc9cf467	-0.019159509
45	0x3dc57eed	0.0964335
46	0x3c39d0e8	0.011341311
47	0x3d4e072b	0.050299805
48	0xbcfa6b8f	-0.030568866
49	0xbc6d5080	-0.014484525
50	0xbd48e75e	-0.049048774
51	0xbc2f389a	-0.010694647
52	0x3d8f4df4	0.0699729
53	0xbce8a2b7	-0.028397901
54	0xbc91be13	-0.01779083
55	0xbdd45b0b	-0.103689276
56	0xbcec667a	-0.028857458
57	0x3bc66cb3	0.0060554384
58	0x3d2f68d7	0.042824592
59	0xbc88a8b9	-0.016682016
60	0x3d9d4953	0.07680001
61	0x3e186626	0.14882717
62	0x3a9e2959	0.0012066766
63	0x3dbd3cb9	0.092400976

conv3.weight f4 [64, 64, 3, 3]
0	0xbd8cf2c0	-0.068822384
1	0x3bd0cd4a	0.0063721286
2	0x3d1ca989	0.03824762
3	0xbcffe7fa	-0.031238545
4	0x3d04ade5	0.0323924
5	0x3cad3610	0.021143943
6	0xbcd81aed	-0.026380027
7	0xbcc37dba	-0.023863662
8	0xbd6615ab	-0.056173008
9	0xbb8bd53b	-0.0042673624
10	0xbc68e363	-0.0142143695
11	0x3ca3bb6b	0.019986829
12	0xbc442b9c	-0.011973288
13	0x3be3a20a	0.006946807
14	0x3de39e87	0.11114221
15	0x3bf494cd	0.0074640275
16	0xb9c01cfb	-0.00036642686
17	0x3d823373	0.063574694
18	0x3c88e29b	0.016709616
19	0x3b84ab03	0.0040487065
20	0xbd37b8d3	-0.044853996
21	0xbc9a2f30	-0.018821329
22	0x3bdc7830	0.0067281947
23	0xbbb3d377	-0.005487855
24	0xbc451c56	-0.012030682
25	0xbd1192d3	-0.035540413
26	0x3c4902fa	0.012268776
27	0xbc9a23ea	-0.018815953
28	0xbc161986	-0.009161359
29	0xbdb2bb42	-0.08727123
30	0xbd2c23e5	-0.04202642
31	0xbd14d726	-0.036337994
32	0xbd374ce7	-0.044751074
33	0xbd3bf6af	-0.045889553
34	0xbd2cb914	-0.04216869
35	0x3d9ab6fb	0.07554432
36	0xbc178279	-0.009247416
37	0xbc86386f	-0.016384332
38	0x3b7e7493	0.0038826808
39	0xbc8c5311	-0.017129453
40	0x3b4b3f4f	0.0031013077
41	0x3cd42dd3	0.025900757
42	0x3c3d0357	0.011536441
43	0x3c73fa60	0.014891237
44	0x3d37c88b	0.044868987
45	0x3a86f11a	0.0010295243
46	0x3b919b47	0.0044435593
47	0x3d716fca	0.0589445
48	0xbc74d43d	-0.01494318
49	0xbd3572d7	-0.044298973
50	0x3d694647	0.056951787
51	0xbcadc0ab	-0.021210035
52	0xbca1c987	-0.019749416
53	0x3d2d9fea	0.042388834
54	0xbb92eabb	-0.0044835485
55	0x3d22a685	0.039709587
56	0x3da2b3d7	0.07944458
57	0x3d072162	0.03299082
58	0x3dd2a6d5	0.10285727
59	0x3e088443	0.13331704
60	0x3d60fb07	0.0549269
61	0x3dd6f598	0.10496062
62	0x3dc8fea2	0.09814192
63	0xbbccc09a	-0.006248546
64	0xbcccd60a	-0.025004406
65	0xbcbc342e	-0.0229741
66	0xbc2a10d2	-0.010379987
67	0xbca96f8b	-0.02068307
68	0xbd49a692	-0.04923112
69	0xbc06a30d	-0.008217585
70	0xbc2faf7a	-0.010722989
71	0xbd199488	-0.037495166
72	0xbd2360dc	-0.039887294
73	0xbd0a5660	-0.03377378
74	0x3c4a5fd3	0.012351948
75	0xbc8523a6	-0.01625235
76	0xba99a352	-0.0011721647
77	0xbc2a6b34	-0.010401536
78	0xbcc477ba	-0.023982871
79	0x3cdcb745	0.026942858
80	0x3b7fa133	0.0039005994
81	0xbd2ede38	-0.042692393
82	0xbde24e10	-0.110500455
83	0xbd30d228	-0.04316917
84	0xbd2eeebf	-0.042708155
85	0xbd946b59	-0.072470374
86	0xbd0aff3b	-0.033934813
87	0x3c7d362d	0.015454811
88	0xbca40543	-0.02002204
89	0xbc0e913c	-0.008701619
90	0x3c8c959a	0.01716118
91	0xbd16ac17	-0.03678521
92	0xbcf2fa95	-0.029660502
93	0xbcaf1f6c	-0.021377288
94	0xbcfdfded	-0.03100487
95	0xbcfbb55a	-0.030726124
96	0xbc4d244d	-0.012520862
97	0xbd4c1c5b	-0.04983173
98	0xbc9a9775	-0.018871048
99	0xbd02ce03	-0.03193475
100	0xbd2593b6	-0.04042407
101	0x3cf36322	0.029710356
102	0xbd52a62d	-0.05142801
103	0xbbb9818a	-0.005661194
104	0x3d708b3b	0.05872653
105	0xbd1fa231	-0.038973037
106	0x3caf21ef	0.021378485
107	0x3cd7ba15	0.026333848
108	0xbd23a912	-0.03995616
109	0x3c33502b	0.0109444065
110	0x3ceefe7a	0.029174078
111	0xbd554410	-0.052066863
112	0xbd9eb283	-0.07748892
113	0x3be15357	0.00687639
114	0xbcddd6c5	-0.02707995
115	0xbce17195	-0.02751998
116	0x3d633793	0.05547292
117	0xbde55c2d	-0.11199222
118	0xbdc7bc17	-0.09752672
119	0xbd501e7a	-0.050810315
120	0xbce4837d	-0.02789473
121	0xbdc0f886	-0.09422402
122	0xbde21f0a	-0.110410765
123	0x3c44a2de	0.012001721
124	0x3cb28cd8	0.021795675
125	0xbcafef43	-0.021476394
126	0xbc79d3ca	-0.015248248
127	0xbc094c63	-0.008380028
128	0xbd0c95e6	-0.03432264
129	0xb9f17020	-0.00046050642
130	0xbb36257f	-0.0027793346
131	0xbb819acf	-0.003955222
132	0x3c07b8eb	0.008283834
133	0xbb27e672	-0.0025619534
134	0x3caf658d	0.021410728
135	0x3bd65588	0.006540958
136	0xbcc897aa	-0.024486382
137	0xbd5cf7f7	-0.053947415
138	0xbc3454ab	-0.011006515
139	0xbcad5c76	-0.021162253
140	0xbbe30d25	-0.006929057
141	0xbceee367	-0.029161168
142	0x3b64a612	0.0034889025
143	0xbbb4fa7b	-0.0055230237
144	0x3cd4b165	0.025963495
145	0xbd070b78	-0.03296992
146	0xbd4c5690	-0.04988724
147	0x3d8434eb	0.06455406
148	0xbaee34ea	-0.0018173729
149	0xbbe7bbea	-0.0070719616
150	0x3d52315b	0.0513166
151	0xbd0f2701	-0.034949306
152	0x3bd906dd	0.0066231326
153	0xbb9efa1b	-0.0048515922
154	0xbb1284b7	-0.0022356936
155	0x3ca83798	0.020534322
156	0x3c602785	0.013681297
157	0xbce500fd	-0.027954573
158	0x3c1adef2	0.009452568
159	0x3ac7105c	0.0015187371
160	0xbcaa1eaf	-0.020766584
161	0x3d92ab4e	0.0716158
162	0x3c2f4b54	0.010699112
163	0xbb7960f0	-0.0038052164
164	0xbc676623	-0.014123472
165	0xbc476e22	-0.012172254
166	0x3b00359f	0.001956321
167	0x3ab6a3bb	0.0013934294
168	0x3c3bc537	0.011460594
169	0xbb696d0b	-0.0035617973
170	0xbbb1d0d7	-0.005426507
171	0x3aff626b	0.0019484287
172	0x3cde5ee5	0.027144859
173	0x3e036060	0.12829733
174	0xbcd5df35	-0.02610741
175	0x3da692f3	0.08133497
176	0x3de0983f	0.10966539
177	0x3d8f2f4d	0.06991444
178	0x3de4d552	0.111735
179	0x3b3c1acd	0.0028702498
180	0xbc72a883	-0.014810684
181	0xbc3f6742	-0.011682333
182	0x3a6e268d	0.0009084724
183	0xba1c4f9f	-0.0005962792
184	0xbcc892f4	-0.024484135
185	0xbc0c865f	-0.008576958
186	0xbb64dd7d	-0.0034922056
187	0x3b0edaa7	0.0021797807
188	0xbbc6a061	-0.006061599
189	0x3ca5e454	0.020250477
190	0x3d073a6a	0.033014692
191	0x3d1c8940	0.03821683
192	0x3c8ec988	0.017430082
193	0x3d1c77a3	0.038200032
194	0x3d4170cb	0.04722671
195	0x3d330dc0	0.043714285
196	0x3d996921	0.07490755
197	0x3d1379a3	0.036004674
198	0x3d44ab8b	0.04801516
199	0x3cfe4d00	0.031042576
200	0xbd1fc1ae	-0.039003067
201	0x3db91d02	0.09038736
202	0xbca3b46b	-0.01998349
203	0xbd201dad	-0.0390908
204	0x3dd7a6c8	0.10529858
205	0xbd5d9cd2	-0.054104634
206	0xba775f5a	-0.0009436511
207	0x3d18c81a	0.037300207
208	0x3c6e175d	0.014531937
209	0x3d5a6477	0.053318467
210	0xbc809bb0	-0.015699238
211	0x3cb79ae0	0.022412717
212	0x3cdef577	0.027216656
213	0x3ce261ab	0.027634462
214	0x3d8f6c4b	0.07003077
215	0x3d25edb8	0.04050991
216	0x3c8d5534	0.017252542
217	0x393740c0	0.00017476361
218	0x3bae8d73	0.0053269207
219	0x3d348e98	0.0440813
220	0x3cadf597	0.02123527
221	0xba3a6c22	-0.000711145
222	0x3d5be738	0.053687304
223	0x3cd598ef	0.026073901
224	0x3d0d83fb	0.034549695
225	0x3c5cd17f	0.013477682
226	0x3b114597	0.0022166723
227	0x3c3248b2	0.01088159
228	0x3bc2c963	0.0059444173
229	0xbc1b69a1	-0.009485633
230	0x3b516c13	0.0031955286
231	0x3a2ebd35	0.0006665767
232	0xbb9cc84f	-0.004784621
233	0xbc92888b	-0.017887374
234	0xbce01338	-0.027352914
235	0xbcb04462	-0.021516982
236	0xbd3e2a92	-0.046427317
237	0x3c87fbff	0.016599653
238	0x3c7ac1eb	0.015305023
239	0xbd1ffeba	-0.039061286
240	0xbc553e32	-0.013015317
241	0xbd509ccd	-0.050930787
242	0xbcb8bbdb	-0.022550514
243	0xbd02c6fb	-0.031928044
244	0xbcbf36fd	-0.02334165
245	0xbc858faf	-0.016303865
246	0xbc25552b	-0.010091106
247	0xbd567167	-0.052354243
248	0x3c5edeab	0.013602893
249	0xbd26bb50	-0.04070598
250	0xbd916cb7	-0.07100814
251	0x3c7cf077	0.015438191
252	0xbbeea4ed	-0.0072828443
253	0x3c8f6e67	0.017508699
254	0xbca5823f	-0.020203708
255	0x3c47a7a3	0.012185964

conv3.bias f4 [64]
0	0x3b63ddcb	0.003476965
1	0xbdb1aeab	-0.086758934
2	0xbbe83cb0	-0.0070873126
3	0x3d097c39	0.033565734
4	0xbbba073f	-0.0056771333
5	0x3b34c353	0.0027582243
6	0x3cef2db0	0.02919659
7	0x3c2b5f63	0.010459754
8	0x3da9f3e3	0.08298471
9	0xbb8f9e62	-0.0043828944
10	0xbcdccbb7	-0.026952608
11	0x3da72d9a	0.08162995
12	0xbb7269c3	-0.0036989308
13	0xbcb6b037	-0.022300823
14	0xbb4d3952	-0.0031314683
15	0xbacd39ca	-0.0015657481
16	0x3d8ccdfc	0.06875226
17	0x3e0b13d9	0.1358179
18	0xbc04fbe6	-0.008116698
19	0xbca0fb33	-0.019651031
20	0xbce741c5	-0.028229604
21	0x3a888925	0.0010416849
22	0x3e10dda8	0.14147055
23	0xbd1e45b7	-0.038640704
24	0x3ca9aaae	0.02071127
25	0x3deac5ea	0.1146353
26	0xbbdeaa8f	-0.0067952345
27	0x3c9cc2af	0.019135801
28	0xbc2e97b8	-0.01065629
29	0xbbf48c88	-0.0074630417
30	0xbc718b28	-0.01474265
31	0xbc1e4e50	-0.009662226
32	0xbca71782	-0.020396952
33	0x3bc58933	0.0060283183
34	0xbb404964	-0.002934062
35	0x3ce5aced	0.028036559
36	0x3d56dfdd	0.052459586
37	0xbc85dae1	-0.016339721
38	0xbc27250a	-0.010201702
39	0x3e01bd45	0.12669857
40	0x3c80bf1d	0.01571613
41	0xbbc96bf6	-0.006146903
42	0xbce747ef	-0.028232543
43	0xbbe21738	-0.0068997405
44	0xba8d28b3	-0.0010769576
45	0x3d7af727	0.06127086
46	0xbbd8e488	-0.00661904
47	0x3ca34f0f	0.019935159
48	0x3bdd9d7a	0.0067631574
49	0x3da3e61a	0.08002873
50	0x3bb47862	0.005507515
51	0xbbe9bc2f	-0.007133029
52	0x3c7e61b5	0.015526225
53	0xbdeaffea	-0.11474593
54	0xbc396ad2	-0.011316972
55	0xbb0e0495	-0.0021670212
56	0xbaec7e8a	-0.0018043083
57	0x3d9f1f12	0.07769598
58	0x3d6c09d7	0.05762657
59	0x3e2728d6	0.16324171
60	0xbd94669f	-0.07246136
61	0x3c0dde1a	0.00865891
62	0xbcad0ac1	-0.021123292
63	0xbc308120	-0.010772973

fc1.weight f4 [64, 1024]
0	0xbcedb76d	-0.029018128
1	0xbcae3a30	-0.02126798
2	0x3cdcb4df	0.026941715
3	0x3d81cdcf	0.06338083
4	0xbd8b48bc	-0.06800982
5	0xbd8a806b	-0.06762775
6	0xbd5b643b	-0.053562384
7	0xbcd0ea72	-0.025502417
8	0xbc88698a	-0.016651887
9	0xbd8fda75	-0.07024089
10	0xbd26314b	-0.040574353
11	0xbd3f9fe3	-0.04678334
12	0xbd56898a	-0.05237726
13	0xbc06c89a	-0.008226538
14	0x3c992942	0.018696431
15	0xbd90dcad	-0.070733406
16	0x3cefa43a	0.029253114
17	0xbc2d41e6	-0.010574793
18	0xbc9e4d3c	-0.019323938
19	0x3c9b919a	0.018990327
20	0xbb463cef	-0.0030248722
21	0xbae5b78a	-0.0017526012
22	0x3a3f4358	0.0007296107
23	0xbc712e37	-0.014720491
24	0xbc16398a	-0.009168992
25	0x3c798963	0.015230509
26	0xbc471c43	-0.012152734
27	0xbc78e1d7	-0.015190563
28	0xbcded42f	-0.027200786
29	0xbc897c37	-0.016782863
30	0xbcbbef83	-0.022941357
31	0xbc22d10a	-0.009937534
32	0xbbd806b2	-0.006592595
33	0xbcb1709b	-0.02166014
34	0x390bea07	0.00013343255
35	0xbc99635b	-0.018724134
36	0xbab48a5e	-0.0013774147
37	0xbb2f494e	-0.0026746574
38	0xbc15c9fe	-0.009142397
39	0x3bbe2428	0.00580265
40	0xbcba15bf	-0.022715447
41	0xbb91b1db	-0.004446251
42	0xbb97dfae	-0.004634819
43	0xbac91ba1	-0.0015343317
44	0xbc56954a	-0.013097117
45	0xbafc6c9d	-0.0019258443
46	0xba24eea3	-0.0006291663
47	0xbbffb093	-0.0078030317
48	0xbcd2e745	-0.025745044
49	0xbcca2810	-0.024677306
50	0x3c5f1e93	0.013618129
51	0x3d08557f	0.03328466
52	0x3ca7ad25	0.020468304
53	0x3c5753ba	0.013142521
54	0x3cbcfef8	0.023070797
55	0x3d700648	0.05859974
56	0x3bbfeb7b	0.005856929
57	0xbbe488ad	-0.006974301
58	0x3bec1b4f	0.007205404
59	0x3d065cdd	0.032803405
60	0xbcacb1d7	-0.021080894
61	0xbcc4714e	-0.02397981
62	0xbbb4708b	-0.00550658
63	0xbb6c2aaf	-0.0036036184
64	0xbc8e038f	-0.017335681
65	0x3a9d18ab	0.0011985501
66	0xbc4bc570	-0.0124372095
67	0xbbfe3bad	-0.0077585788
68	0xbc2311d7	-0.009952984
69	0xbc63ddef	-0.013907894
70	0x3c1af467	0.009457684
71	0xba5992c7	-0.00082997646
72	0x3b3f882f	0.002922546
73	0xbbf46bda	-0.007459146
74	0xbb766832	-0.0037598726
75	0xbba2432f	-0.0049518566
76	0x3c95c46a	0.018282134
77	0xb975f51b	-0.0002345633
78	0x3b8a2b1a	0.004216564
79	0xbc587ae7	-0.013212896
80	0xbd75710f	-0.059922274
81	0xbd031e4f	-0.032011326
82	0xbb0bb213	-0.0021315857
83	0xbbb7138f	-0.0055870484
84	0xbc887db4	-0.016661502
85	0xbc6352dd	-0.013874737
86	0xbd016c39	-0.03159735
87	0xbcaf8dfd	-0.02143001
88	0xbd023c10	-0.03179556
89	0xbce1ca3b	-0.027562251
90	0xbd1a4987	-0.037667777
91	0xbcbada50	-0.022809178
92	0x3b9bb4f7	0.0047517973
93	0xbc5ef333	-0.013607788
94	0xbc8e025e	-0.017335113
95	0xbbf052ea	-0.007334103
96	0x3d807b1b	0.062734805
97	0x3cea3650	0.028590351
98	0x3da526d5	0.08064047
99	0x3cdb1418	0.02674298
100	0xbca17a13	-0.01971153
101	0xbc420382	-0.011841657
102	0xbd2a725a	-0.04161296
103	0xbc333e23	-0.0109401075
104	0x3b67f80f	0.0035395657
105	0x3d6c28c3	0.05765606
106	0x3bd0115b	0.006349725
107	0x3cd4bc67	0.025968743
108	0x3d8840af	0.066529624
109	0x3dbb09fb	0.09132763
110	0x3e08efdd	0.1337275
111	0x3d9a790b	0.07542618
112	0x3baad41c	0.0052132737
113	0x3aa32b07	0.0012448736
114	0xba7ade23	-0.0009569844
115	0xbc373df2	-0.0111842025
116	0xbbe9b8b7	-0.0071326154
117	0xbb5bc86b	-0.0033536206
118	0xbc12201b	-0.008918787
119	0xbc593d07	-0.013259179
120	0xbb8f41dc	-0.0043718647
121	0xbc5c7f02	-0.013458015
122	0xbb451fb7	-0.0030078718
123	0xbc414643	-0.011796537
124	0xbaa582c4	-0.0012627472
125	0xbc284175	-0.010269512
126	0x3a820837	0.0009920661
127	0x3ba7272b	0.0051011047
128	0xbd966f8b	-0.07345494
129	0xbd186d1a	-0.037213422
130	0xbd893cd8	-0.06701058
131	0xbd827453	-0.06369843
132	0xbda70b70	-0.081564784
133	0xbd23758e	-0.03990703
134	0xbd20bfef	-0.039245542
135	0xbccb913f	-0.024849532
136	0x3ce579b8	0.028012142
137	0x3c85e310	0.016343623
138	0x3cc8dc1e	0.024519023
139	0x3d8430ad	0.06454597
140	0x3e030e91	0.12798525
141	0x3e090631	0.13381268
142	0x3dc55e6f	0.096371524
143	0x3dc6f62d	0.09714923
144	0x3b16147b	0.002290039
145	0xbc63d53d	-0.01390582
146	0xbbb4a390	-0.005512662
147	0x3b1d03e5	0.002395862
148	0xbc6e355b	-0.014539088
149	0xb6adc3cb	-5.178595e-06
150	0x3a53c94b	0.0008079006
151	0xba207461	-0.00061208574
152	0xbca6a31b	-0.020341447
153	0xbc149408	-0.0090684965
154	0xbc1d40e8	-0.009597994
155	0xbc80afc5	-0.015708813
156	0xbbd7cb13	-0.0065854876
157	0xbbd90625	-0.006623047
158	0xbc14e9c9	-0.009088942
159	0x3adf7527	0.0017048464
160	0xbc463faa	-0.01210014
161	0xbbd39875	-0.0064573833
162	0x3bef30ed	0.0072995336
163	0xbc5693ea	-0.013096789
164	0x3bcf9af2	0.0063356096
165	0x3b7feea7	0.003905216
166	0x3c306c13	0.010767954
167	0xbbe4c30a	-0.0069812583
168	0xbbc5aedb	-0.0060328073
169	0x3b04d6f7	0.002026973
170	0x3ad7515a	0.0016427443
171	0xbc4f9e0d	-0.01267196
172	0xbc5046eb	-0.012712221
173	0xbc3f2c1f	-0.011668234
174	0x3a73d70a	0.00093017577
175	0x3a981499	0.0011602818
176	0x3daaf857	0.08348148
177	0x3d6cd18d	0.05781703
178	0xbc2fc480	-0.010728002
179	0xbc6d2fda	-0.014476741
180	0x3d8cef60	0.06881595
181	0x3d011722	0.0315162
182	0x3c28b4f8	0.010297053
183	0x3b8352f1	0.00400769
184	0x3d443a2a	0.047907032
185	0x3c935d3e	0.017988797
186	0x3b8ef5b7	0.0043627876
187	0x3a7f462a	0.0009737933
188	0x3d3b4354	0.045718506
189	0x3c4d8db3	0.012545991
190	0x3c6898f5	0.014196624
191	0xbc18899d	-0.009310153
192	0xbc9e190f	-0.019299058
193	0xbc9129d5	-0.017720142
194	0xbb7ac150	-0.0038262196
195	0xbb83e678	-0.0040252768
196	0xbb76e21d	-0.0037671395
197	0xbc58120b	-0.0131878955
198	0xbae9ed9d	-0.0017847304
199	0xbc5996d3	-0.013280588
200	0xbb854818	-0.004067432
201	0xbc844db4	-0.016150333
202	0xbc480e1f	-0.012210398
203	0x3b77207b	0.003770857
204	0x3b0cbeeb	0.00214761
205	0xbc4dbd1f	-0.012557297
206	0xba78823d	-0.0009479856
207	0xbb9e59d0	-0.004832484
208	0xbaa11ec4	-0.0012292494
209	0xbc353ae4	-0.011061404
210	0x3a0089f5	0.00049033697
211	0x3a8b22dc	0.0010615247
212	0x3afa7de3	0.0019111003
213	0xbbcfc1d3	-0.0063402443
214	0xbcb87347	-0.022515906
215	0x3c0e2200	0.008675098
216	0xbb7d0850	-0.003860969
217	0xb928f1d2	-0.00016111814
218	0x3bd9afb0	0.006643258
219	0xbc90d7e2	-0.017681066
220	0x3a8210f5	0.0009923266
221	0xbb89545c	-0.0041909646
222	0xbb8d1570	-0.004305534
223	0x3b9eaebb	0.004842607
224	0xbc644497	-0.013932369
225	0x3c4f4a53	0.012651998
226	0x3b8bdb82	0.0042681107
227	0x3b8cb150	0.0042935982
228	0x3c131e34	0.008979369
229	0xbc555972	-0.013021814
230	0xbbb7fa80	-0.0056145787
231	0xb9895b55	-0.00026198724
232	0x3af767fd	0.0018875595
233	0x3b549a4b	0.0032440599
234	0x3ad1d2eb	0.0016008293
235	0xbbc49b17	-0.0059999335
236	0x3caf787f	0.021419762
237	0x3bcba1b5	0.0062143453
238	0xbb5632f3	-0.0032684177
239	0x3bb4b40d	0.005514628
240	0xbc921aad	-0.017834986
241	0xbc119d2b	-0.008887569
242	0xbc04a30e	-0.008095516
243	0xbb7b8230	-0.0038377158
244	0xbb63b41b	-0.0034744802
245	0xbc47cccb	-0.012194823
246	0x3c086cd3	0.008326727
247	0xbb6c266a	-0.0036033639
248	0xbc212185	-0.009834652
249	0xbb309ed9	-0.002695015
250	0x3a2c3e87	0.00065705966
251	0x3be1a32f	0.006885908
252	0xbc0b03f7	-0.008484832
253	0xbbae6969	-0.0053226245
254	0xbb892e24	-0.0041864086
255	0xbc1475bf	-0.009061276

fc1.bias f4 [64]
0	0xbbb182c7	-0.005417201
1	0xbcd45ef8	-0.02592419
2	0xbd7babfa	-0.061443307
3	0x3d8a4574	0.067515284
4	0xbb8a9395	-0.004229019
5	0xbe0b9ccd	-0.13634034
6	0xbb1493ab	-0.0022671025
7	0x3b7324aa	0.003710071
8	0x3a9c9d5d	0.0011948753
9	0x3bd5bb1a	0.0065225484
10	0xbbda4615	-0.0066611865
11	0xba66a6c0	-0.00087986514
12	0xbbf3f69d	-0.00744517
13	0xbb376534	-0.0027983906
14	0xbdabe300	-0.08392906
15	0xbca20b51	-0.019780787
16	0x3a294b43	0.0006458053
17	0xbda45729	-0.08024437
18	0xbb88932f	-0.0041679363
19	0xbb61ba83	-0.0034443445
20	0x3b0915e0	0.002091758
21	0x3b089897	0.0020842904
22	0x3cd04f55	0.025428453
23	0xbc8eaa48	-0.01741518
24	0x3a10541f	0.0005505699
25	0x3c82c724	0.015964098
26	0xbb94c8b1	-0.004540526
27	0xbcc190fa	-0.0236287
28	0x3baf6722	0.0053528706
29	0xbd83017b	-0.06396767
30	0x3c1cfd7b	0.009581919
31	0xbc05dbed	-0.00817011
32	0x3c689300	0.014195204
33	0xbc5e2302	-0.013558151
34	0x3af44468	0.0018636109
35	0x3dffa0df	0.124818556
36	0xba884550	-0.0010396633
37	0xb9b22749	-0.00033980075
38	0x3d6b77c5	0.057487268
39	0xbdb68162	-0.089113966
40	0x3d900640	0.07032442
41	0xbd4cc1cb	-0.049989503
42	0xba9fc8c4	-0.001219057
43	0xbcf39098	-0.029732034
44	0x3bb2cec5	0.0054567778
45	0xbb6df5f3	-0.0036309927
46	0x3ddd7d63	0.10814931
47	0xbc8b93c8	-0.017038241
48	0x3c466f4b	0.012111495
49	0xbc09bb41	-0.008406461
50	0xb9ed60e0	-0.0004527634
51	0x3dc238e5	0.09483508
52	0xbc87637f	-0.016526936
53	0xbc411333	-0.011784363
54	0xbbbd339d	-0.005773975
55	0xbd78d448	-0.060749322
56	0xbc82f1e3	-0.015984481
57	0xbd6ea5c2	-0.058263548
58	0xbccc3048	-0.024925366
59	0x3d9cd8d2	0.07658543
60	0xbcd0a5aa	-0.02546962
61	0xbb26576f	-0.0025381704
62	0xbbb7160b	-0.0055873445
63	0x3a84ae51	0.0010122751

fc2.weight f4 [10, 64]
0	0x3d8e3187	0.0694304
1	0x3da68b0b	0.08131989
2	0xbce7e6ca	-0.028308291
3	0xbcca7213	-0.024712598
4	0xbc6589e0	-0.014009923
5	0x3c4e862d	0.012605232
6	0xbbf49b98	-0.0074648373
7	0xbd9d65e9	-0.076854534
8	0xbced4332	-0.028962705
9	0xbd133632	-0.035940357
10	0xbd8114a7	-0.06302767
11	0x3d34fe13	0.044187617
12	0x3c637810	0.013883606
13	0x3d7d5d40	0.06185651
14	0x3cb84767	0.022494985
15	0x3c3f9c67	0.011695004
16	0xbd29fcec	-0.04150097
17	0x3c9ab777	0.018886311
18	0xbcadfc87	-0.021238578
19	0x3d100141	0.035157446
20	0x3b9fc80a	0.0048761414
21	0x3c8a6683	0.016894585
22	0xbd17fc73	-0.03710599
23	0xbaf45d98	-0.0018643616
24	0x3caa204d	0.020767355
25	0xbdccbb93	-0.099967144
26	0x3cf92d65	0.030417154
27	0xbc39e733	-0.011346626
28	0x3d73ea85	0.059549827
29	0x3d73762f	0.05943888
30	0x3c1fd20a	0.009754667
31	0xbc4bcfbf	-0.012439667
32	0xbcb94ac4	-0.022618659
33	0xbc05de88	-0.008170731
34	0x3d261923	0.040551316
35	0xbd7b4555	-0.061345417
36	0x3cdc78e3	0.026913112
37	0xbccbaeda	-0.02486365
38	0xbd350e79	-0.044203255
39	0x3db83550	0.089945436
40	0xbd764cea	-0.060131945
41	0xbc62d01d	-0.013843563
42	0xbd2bd870	-0.041954458
43	0x3ded4f35	0.11587373
44	0xbd15aac3	-0.036539804
45	0xbcd15805	-0.025554666
46	0x3d49c872	0.049263425
47	0x3cd07002	0.025444034
48	0xbcd75308	-0.02628471
49	0x3b97983f	0.0046263034
50	0xbcee4712	-0.029086623
51	0xbd33afb4	-0.043868735
52	0x3cd26b90	0.025686055
53	0x3d8d77eb	0.06907638
54	0x3cb17e75	0.021666745
55	0x3c6e8ad3	0.014559465
56	0x3d83a9f7	0.064289026
57	0xba951abd	-0.0011375766
58	0x3d38b04b	0.04509
59	0x3d40fb4d	0.04711466
60	0xbd21d57a	-0.039510228
61	0xbdb72efc	-0.089445084
62	0x3c03afff	0.008037566
63	0xbb9c5602	-0.004770995
64	0xbd113857	-0.03545412
65	0x3b2e9d9e	0.002664424
66	0x3cdf720d	0.027276063
67	0xbd8d8d6d	-0.069117405
68	0x3cda5408	0.026651397
69	0x3c8b2e5a	0.016989876
70	0x3c8f8e2e	0.017523851
71	0xbd695f4b	-0.056975644
72	0x3c6ea45d	0.014565554
73	0xbbdb6f53	-0.0066966205
74	0xbccf8dcd	-0.02533617
75	0x3d891332	0.06693114
76	0xbd9a6432	-0.07538642
77	0xbc978ab1	-0.01849875
78	0xbcb81173	-0.022469258
79	0x3c127e0f	0.0089411875
80	0x3cc739e3	0.024319595
81	0x3c0d0535	0.0086071985
82	0xbb579450	-0.0032894798
83	0x3de7a94d	0.113115884
84	0xbd091a30	-0.03347224
85	0xbcacedbc	-0.021109454
86	0x3d939ab7	0.07207244
87	0x3cc2df0c	0.023787998
88	0xbbcf08c3	-0.006318183
89	0x3d39336a	0.045215048
90	0x3c1b2380	0.009468913
91	0x3b47eb36	0.0030505187
92	0xbcc7982f	-0.024364559
93	0x3dd2e7c2	0.102981105
94	0xbda7f290	-0.08200562
95	0xbccd3035	-0.025047401
96	0x3d3f0c27	0.04664245
97	0x3c1fe8ea	0.009760121
98	0x3cb3f227	0.021966053
99	0xbc3fc81f	-0.011705427
100	0xbb185333	-0.002324295
101	0x3c11324b	0.008862088
102	0x3d5c8127	0.053834107
103	0x3df5ffd3	0.12011685
104	0xbce8bd2a	-0.028410513
105	0x3c86f962	0.016476337
106	0x3d5b8173	0.05359025
107	0xbe19394b	-0.14963262
108	0xbd0057ca	-0.031333722
109	0x3ca54a23	0.020176953
110	0xbd7b456a	-0.061345495
111	0xbcd36183	-0.025803333
112	0xbd6e4007	-0.05816653
113	0x3b910b4f	0.004426397
114	0x39c5339f	0.0003761323
115	0xbdc770c8	-0.09738308
116	0x3d19ecc8	0.037579328
117	0x3c673f90	0.014114276
118	0xbcc58e0f	-0.02411559
119	0x3d398da3	0.04530109
120	0xbce3cd4a	-0.02780785
121	0x3d6c91e2	0.057756312
122	0x3c3c3337	0.01148682
123	0xbc16c8a8	-0.009203114
124	0xbcd88367	-0.026429845
125	0x3d2e4027	0.04254165
126	0xbc037a47	-0.008024759
127	0x3d0387b7	0.03211185
128	0xbc289915	-0.010290404
129	0x3cf2ae3b	0.029624095
130	0x3a504647	0.00079450425
131	0x3cb7d2b7	0.022439344
132	0x3b8997b3	0.004198992
133	0xbd45e448	-0.04831341
134	0xbdafd5e8	-0.08585721
135	0x3bc2be61	0.005943105
136	0x3c2f23aa	0.010689655
137	0xbd404f76	-0.04695078
138	0x3bcd740d	0.006269938
139	0x3d792ee3	0.06083573
140	0x3bcaa80a	0.0061845826
141	0x3bc95d83	0.0061451807
142	0x3d92fedf	0.07177519
143	0x3c85f567	0.016352369
144	0xbd04da27	-0.03243461
145	0x3c015005	0.007892613
146	0xbd3182cb	-0.043337625
147	0xbb19ef23	-0.0023488484
148	0xbd5d5757	-0.054038372
149	0xbc574787	-0.013139612
150	0x3da636ab	0.08115896
151	0x3c887e0c	0.016661666
152	0xbb077311	-0.002066795
153	0x3d4c0f77	0.049819436
154	0x3ca49ae7	0.020093394
155	0xbd560483	-0.052250396
156	0xbc9af20b	-0.018914243
157	0xbda230c5	-0.07919458
158	0xbce8b503	-0.028406626
159	0xbd388710	-0.04505068
160	0x3c87868f	0.016543655
161	0xbca1eedf	-0.019767223
162	0x3c7b665b	0.015344228
163	0x3d92636f	0.07147872
164	0x3c978e5b	0.018500498
165	0x3cefee58	0.029288456
166	0xbd19a5ec	-0.03751175
167	0xbd3c953b	-0.046040755
168	0x3d06345b	0.032764774
169	0xbdeb3bea	-0.11486037
170	0x3d3a6a2f	0.04551142
171	0x3d5c5f45	0.053801794
172	0xbba09cb2	-0.004901492
173	0x3c7da8c2	0.0154821295
174	0x3de8700f	0.113494985
175	0xbd77c3b2	-0.060489364
176	0xbc0dfff4	-0.008666981
177	0x3a7a958b	0.0009559027
178	0x3c7b6f6a	0.015346387
179	0x3d0fa5e8	0.03507033
180	0x3c61fb6d	0.013792855
181	0x3c843b7f	0.016141651
182	0xbc7fd227	-0.015614069
183	0xbd691390	-0.056903422
184	0x3c83e9ff	0.016102789
185	0x3d95d4bd	0.07315967
186	0xbbcd47fa	-0.006264684
187	0xbb9c1a53	-0.0047638803
188	0xbad8d8a2	-0.0016544054
189	0xbd543c70	-0.05181545
190	0xbcc09485	-0.02350832
191	0xbc828d8c	-0.015936635
192	0x3d8163f2	0.06317891
193	0xbe27a0fe	-0.16370007
194	0xbd32327c	-0.043505177
195	0x3bfcabb8	0.0077109
196	0xbd51f68d	-0.05126052
197	0x3c8b2363	0.016984647
198	0x3d3a5530	0.045491397
199	0x3d53e810	0.051734984
200	0xbd788c60	-0.060680747
201	0xbd3f8be8	-0.046764284
202	0xbc807fd8	-0.01568596
203	0x3d13dada	0.036097385
204	0x38ce40cf	9.834917e-05
205	0x3d5e5af8	0.054285973
206	0xbc75d8c2	-0.015005292
207	0xbc0f9be7	-0.008765197
208	0x3d24a020	0.04019177
209	0xbce03fbd	-0.027374143
210	0xbd3c81e5	-0.046022315
211	0xbd083cdd	-0.03326117
212	0x3c1552fb	0.009114022
213	0x3d0613ed	0.032733846
214	0x3c17d33b	0.00926667
215	0x3b640d4b	0.0034797962
216	0xbd1d5f5a	-0.038421012
217	0x3c8bdada	0.01707213
218	0xbd10dfe0	-0.035369754
219	0x3d927498	0.07151145
220	0x3c278875	0.010225405
221	0xbc70ffa7	-0.01470939
222	0xbc685a3a	-0.014181668
223	0x3cb278d8	0.021786138
224	0xbdc691f8	-0.0969581
225	0xbc6797c8	-0.014135309
226	0x3d954221	0.07288004
227	0x3ce9b697	0.028529448
228	0xbca6f3bf	-0.0203799
229	0x3ceaf32a	0.028680403
230	0xbc55c053	-0.013046342
231	0xbd8b427d	-0.06799791
232	0xb9d8c24d	-0.00041343496
233	0xbd2a6bbf	-0.04160666
234	0xbca07a8a	-0.019589681
235	0x3aadb748	0.0013253475
236	0xbcfcea62	-0.030873481
237	0x3cfc6487	0.030809654
238	0xbcb00213	-0.021485364
239	0xbd22ae97	-0.039717283
240	0x3c20387f	0.009779095
241	0x3c826dd1	0.015921505
242	0x3c88ae00	0.016684532
243	0x3c90df9a	0.017684747
244	0x3d36e0d0	0.04464799
245	0xbac4224f	-0.0014963838
246	0xbcf6ea8b	-0.030141136
247	0x3c9acc69	0.018896298
248	0xbd5adf93	-0.053435873
249	0x3ccd776d	0.02508136
250	0xbd41c3d3	-0.047305893
251	0x3daa93a4	0.083289415
252	0xbcd9f2b0	-0.02660498
253	0xbd844a67	-0.064595036
254	0xbcbdb5ba	-0.023157943
255	0xbbda7e7f	-0.0066679115

fc2.bias f4 [10]
0	0xbdbb09ad	-0.09132705
1	0xbda964bf	-0.08271169
2	0x3d47a48a	0.0487409
3	0x3d4372c8	0.047716886
4	0x3e1b146a	0.15144506
5	0xbd17aa31	-0.03702754
6	0x3d9870d4	0.07443395
7	0xbd3dd932	-0.04634971
8	0xbd14db90	-0.036342204
9	0xbd0aed80	-0.033917904
