torch_to_tf/torch_models/model_round599.model (torch, 493063 bytes, 10 tensors)

conv1.weight f4 [32, 3, 3, 3]
00000000: af7d c93d 6df7 5abd 226c b6bc 4796 d03d
00000010: f755 09be 7bb0 4bbd dfde 803c 6206 b8ba
00000020: 3d2d be3d 92ea a63d 6b7f 1dbd 3aa5 773d
00000030: e09c 3c3c 4fad b1bd 5d04 853c 38d1 0d3d
00000040: ca68 b7bc 3f34 02bc bae8 0dbd 1501 e53d
00000050: fbb7 c0bd 5758 23bc eb24 4d3c 4b72 c3bc
00000060: dfe8 a9bc b1db 39bd 8bba 4a3c cdcd 193c
00000070: 6e5c cb3c a2da 5abb 4a70 9fbd 17f3 c7bd
00000080: 4e78 963d 63fb cebc 70d5 f7bb 0dbc b4bc
00000090: 1db3 993d 1ad7 dd3d 3793 0c3d 0b48 423c
000000a0: 780b 05bd f386 c53b 155e 533c 49d6 283d
000000b0: 0de3 c6bc 19a2 2f3d 7f40 8b3c dbcc 6c3d
000000c0: c71c eabb bf67 afbd 4f9c 85bd e60e 82bd
000000d0: 7451 b6bb adb8 25bc 4a7b 4ebd 36ab 9a3d
000000e0: 5de2 dd3d 9cdc cbbd a3e0 563b 6ff5 66bd
000000f0: ddd1 613d 9680 a439 d0bb f7bc d7e9 b63c
00000100: c4e5 38bd e83c 2d3d 270f 5dbc 7a56 e03d
00000110: 4c84 42bd 2554 723c 96f5 413d 85d7 5c3c
00000120: 4bd2 6fbd 402d 0bbe 9dc6 f23c 3a18 22bb
00000130: d80f fd3d 8357 0ebd 1fa6 40bd 87d3 433d
00000140: 0880 a2bd 9b2d 793d 9059 943d 0771 74bc
00000150: 572d 373d 99fa 43bc 2774 df3b 170b f53d
00000160: c5cb 23bd 9dbd 8fbd cf6c 75bd db2e 533d
00000170: b3a3 a1bc 727b 403b 1280 bb3d 3068 e6bd
00000180: b088 79bd c54d bbbd bd31 5bbd d3a1 02bc
00000190: bc8f 92bc 1ddc 1c3d 422c 803d e667 3f3c
000001a0: 5e5d 95bd 5728 113d 302e 03bd 8fe2 b13d
000001b0: f81a e03c b08e 8d3d e5ee 063d 8709 483d
000001c0: c622 113d 904a 4f3c 0a0b e93c f89c 803d
000001d0: a047 7c3d 788c 47bc 3ad8 71bd d37a ccbd
000001e0: 5bf7 77bd c545 f2bc 7bf0 0b3b f54b 45bd
000001f0: 89d6 9ebd 1055 39bd 9445 b3bc 076d 08bc
00000200: 32fd a33d c743 dd3a eaf6 31bc d733 0dbc
00000210: 491e 0b3d e03f a2bd 62b3 503d 0bef d03b
00000220: fb41 32bb f0bb 39bd 7f5f ff3c 9c43 8a3d
00000230: 0390 943d f5be 553c d73b 303d 13c6 b6bb
00000240: 187c 75bd cf52 723d ade8 e93b 8872 04be
00000250: a319 61ba a3f4 c6bd fdb5 02bd 10ad 49bd
00000260: 30ab b9bd a3d4 07bc 66ec a63c 081a fcbb
00000270: 6b9a e63b 6a8a cf3d 7829 afbc 7b40 b4bd
00000280: 431a 3d3d ed97 d23d 4f29 903d 940f 36bd
00000290: 1773 023d 80df 74ba 1ffe 093d 5d1e b03d
000002a0: 3314 57bd 337e d23c 1f5d ec3d 789e 21bd
000002b0: 9de0 c2bd ffa3 a2bd cfd1 bcbc da83 a53c
000002c0: 3173 163c 3de5 7dbd 0ad0 fcbc 43fd 713d
000002d0: 25fd 59bd 8f90 13be 8b94 b23b 6306 81bd
000002e0: 63fd 9abd e36b 953d 25a4 91bd 0876 7d3c
000002f0: 8b1b 893d 7a05 da3d fb4c f6bd 100b d1bc
00000300: 6fa8 5dbd 1b5e 8cbd 800d 5c3c 4870 06bc
00000310: 1edc 453c 4899 373c 938c 90bd b2c9 13bc
00000320: 2307 123d 6eb8 c73c 0b26 08bd 38bf f83c
00000330: 9819 d73b b520 01bd d9f1 81bd 3529 d03d
00000340: fa2e a0bd ca98 4a3c 68a6 563d 2d15 003e
00000350: 53a1 86bd 8f2e 8d3d 22d1 083c 7805 c6ba
00000360: c8ec e6bc 1dfb babc 0f79 f53c 4a7b 75bd
00000370: 8036 e73c 23a6 99bd d6e0 b43c 6d28 523d
00000380: 57ff 603d a377 e83c 7076 fcbb 27c5 52bd
00000390: 184d 763c 6b4a 06bd 03e3 abbd 6898 93bd
000003a0: 9391 07bd fa95 d43d 972a 5ebd 8b55 6c3c
000003b0: 7de4 9a3b c589 32bc 2d2d 74bd 553e e03c
000003c0: b372 c4bb e7f2 4c3d b6a5 843d f755 d0bd
000003d0: 3028 553c 8307 31bd a2fa fabb fd99 523d
000003e0: db78 4fbc 026b 09bd 9b4c 273c e518 6f3c
000003f0: c87b d3bd afff 0dbd 9f62 5e3c 6ffc db3c
0.09838425 -0.05345862 -0.022268359 0.10184913 -0.13411699 -0.04972885 0.015731273 -0.0014039988
0.09285972 0.081502095 -0.038451593 0.060460307 0.011512011 -0.08675634 0.016237432 0.034623355
-0.022388835 -0.007947027 -0.034645773 0.11181847 -0.094100915 -0.009969792 0.012521009 -0.02385821
-0.020740924 -0.04537553 0.012373577 0.009387446 0.024824347 -0.0033394475 -0.07785089 -0.097631626
0.07347165 -0.025266355 -0.0075632855 -0.022062326 0.07504866 0.10832043 0.034320083 0.011857997
-0.03248164 0.00602805 0.012900849 0.041219983 -0.024278188 0.042879198 0.016998528 0.057812553
-0.007144544 -0.0856471 -0.06523954 -0.06350498 -0.005563909 -0.010114831 -0.050410546 0.07552187
0.10834191 -0.09954187 0.0032787703 -0.056386407 0.05513178 0.00031376322 -0.030240923 0.0223283
-0.045140997 0.042294413 -0.013492382 0.10953994 -0.04748945 0.014790569 0.04735335 0.013479118
-0.05855016 -0.1359148 0.029635722 -0.0024733678 0.123565376 -0.034751426 -0.047033425 0.04780915
-0.07934576 0.06083451 0.07243645 -0.014919526 0.044720974 -0.011961603 0.0068192664 0.11965006
-0.03998925 -0.07018588 -0.05991822 0.051558357 -0.019731378 0.0029370454 0.09155287 -0.11250341
-0.06092137 -0.09145693 -0.05351423 -0.007973152 -0.017890804 0.038295854 0.062584415 0.011682486
-0.07293199 0.03543886 -0.03202647 0.08685791 0.02735661 0.06911981 0.03294267 0.04883721
0.035433553 0.012652054 0.028447647 0.062799394 0.061591744 -0.012179486 -0.0590441 -0.09984364
-0.06053863 -0.029574284 0.0021353054 -0.04816814 -0.07755763 -0.045247138 -0.021883763 -0.008326775
0.080072775 0.0016881161 -0.010862092 -0.008618317 0.03396443 -0.079223394 0.050952323 0.0063761524
-0.0027199972 -0.045345247 0.031173466 0.06751177 0.072540306 0.013046016 0.043025818 -0.0055778115
-0.0599328 0.059161004 0.007138333 -0.12934315 -0.0008586889 -0.097146295 -0.03191184 -0.04923731
-0.090658545 -0.008290443 0.020376395 -0.007693533 0.007037451 0.10133822 -0.021382079 -0.08801361
0.046167623 0.10282884 0.07039129 -0.04444845 0.03184804 -0.00093411654 0.033689614 0.08599541
-0.052509498 0.025694942 0.11541199 -0.03945777 -0.09515498 -0.07941436 -0.023049263 0.020204473
0.009182737 -0.061986197 -0.03086092 0.05907942 -0.053219933 -0.14410613 0.0054498366 -0.06300046
-0.07567861 0.072959684 -0.07111386 0.015470035 0.066947065 0.10645576 -0.120264016 -0.02551797
-0.05411571 -0.06853887 0.013430953 -0.008205481 0.012076406 0.011205979 -0.070580624 -0.009020256
0.035651337 0.024379935 -0.033239406 0.030364618 0.0065643303 -0.031525332 -0.06344957 0.101641096
-0.0782146 0.012365529 0.05240479 0.12508078 -0.06573739 0.06893646 0.008350642 -0.0015107831
-0.028189078 -0.022824818 0.029964952 -0.05993203 0.02822423 -0.07502391 0.022079866 0.051308084
0.05493101 0.02837736 -0.0077045485 -0.05145755 0.015033029 -0.032785814 -0.083929084 -0.072068036
-0.033097815 0.10380168 -0.054239836 0.014424692 0.004726945 -0.010897105 -0.059613395 0.027373472
-0.0059951185 0.050036337 0.06476919 -0.101726465 0.01301007 -0.043220054 -0.0076592723 0.051416386
-0.0126630915 -0.033549316 0.010211135 0.014593338 -0.10326344 -0.034667667 0.013573318 0.026853768

conv1.bias f4 [32]
00000000: f7c7 e43d 8312 d9bd 5ae5 703b f579 62bc
00000010: 03b2 823d 9f70 fdbb 1d7d 933d 2e34 bb3d
00000020: 2b75 823d dfb8 ecbd 8b72 0e3d 032d 55bc
00000030: aa58 eabd 6052 5b3d 6713 2dbc dd84 b5bc
00000040: cf72 373d c88a 423d 3d4f 933d 2197 bd3d
00000050: 1aa8 6fbc 838e d93c e9a6 2c3a 4a5a a2bd
00000060: e44a c4bd 8912 893b 6018 b5bb ccd2 91bd
00000070: 9d1d 513c abae 6c3c 4f7d 4d3d 0743 30be
0.11170953 -0.10599234 0.0036757798 -0.013823022 0.06381609 -0.0077343727 0.07201598 0.09140812
0.06370004 -0.11558699 0.034777205 -0.01301122 -0.114426926 0.053545356 -0.010563708 -0.02215808
0.044787224 0.047495633 0.07192848 0.09257341 -0.014627481 0.026557213 0.0006586151 -0.079273775
-0.09584597 0.0041831178 -0.0055265874 -0.071202844 0.012763408 0.014445941 0.05016833 -0.17213069

conv2.weight f4 [64, 32, 3, 3]
00000000: 7388 24bd 503c 5cbd d772 873c 9cb3 29bd
00000010: ce0a 00bd 4781 293d bf29 95bc 3708 f2bc
00000020: 4d3e 2abc 2746 a4ba c7fc 1ebd 2447 15bd
00000030: bdc1 5cbd 9583 0abd 7811 59bc da97 0cbb
00000040: 2c69 363a 0110 21bc b5b2 aabc 6978 afbc
00000050: 9040 ee3a f753 cbbc bdaa 89bd 04f7 0b3d
00000060: 4fe8 7cbb 736e 0fbd e217 6fba ebc0 0bba
00000070: c09d ddbc 0096 3abd 5d5e d2bc 62f2 e9bc
00000080: 4fc7 fbbc 740e 3ebd ebd6 8cbc 10b3 83bc
00000090: 72a7 dcbc 588c 79bc 05c8 2b3d f7db 90ba
000000a0: c3c3 6a3c 7515 253d 3da8 cf3c 3ab8 043d
000000b0: 7f34 5d3d 9be4 7a3c 75fb 80bb 4543 1f3d
000000c0: e00f 793b 4f56 fcbc 8583 2b3d 357e e03a
000000d0: b01a 83bb 1038 ae3d 30c4 5fbc c341 133d
000000e0: 3fe6 083e 0b2c 0dbc f74c a53c 0e03 c73d
000000f0: ed25 4dbd b30a c33c 66a7 c93d d794 e6bc
00000100: 9f9c 8abb 1bf9 403c b021 58bc b02e bc3c
00000110: 41d2 1e3d 2731 993b a795 493d 4242 943d
00000120: 5117 8ebc b7a6 73bd ad11 7d3d 5995 3dbc
00000130: e345 05bd 0a16 d23c 9538 eabc d492 94bd
00000140: f8b6 febc 974f 073c 4302 1ebc ad09 7b3d
00000150: 5547 41bc d4e6 03bc a575 6c3d 2025 f9bb
00000160: e6e7 923b 12e5 4f3a 8f46 d1bc 2f8e 7cbd
00000170: 8d58 c93b db74 14bd c959 3bbd cf1e eabb
00000180: d34e 1e3b 8720 09bc 4e8a 813d f732 25bd
00000190: 9678 c1bc 6342 a5bb 5a29 22bd ad08 31bd
000001a0: a2b5 d03c e84d 14bc bdf1 83bc a785 7c3d
000001b0: 384a 04bd e82d eebc fb31 c83b d263 983a
000001c0: faae ebbc 743e 303d 1736 55bc c026 08bd
000001d0: eb7d 613d 14d7 a8bc c30f 92bc 39de 293d
000001e0: d570 89bb a771 0e3c 6f71 053c bcaf 27bb
000001f0: 6b82 933c aff5 003d a8f7 01bd 4973 8dbd
00000200: ef9f 01bd 1214 4cbd eb58 23bd 8adb adbc
00000210: e03e 1fbd 77fd 80bc 5f34 2d3c 60be 2138
00000220: d8ca 80bc 9b77 9dbc 3f90 d1bc 8537 7bbb
00000230: 9b44 2c3c f3c4 ba3c 15bd cd3c aada 4b3d
00000240: eab7 e6bc e8b3 f2bc 983e 673d f02f f8bc
00000250: e3a3 c6bc 90da 443d 9cc6 46bd aaf6 19bd
00000260: 0b0d 553d 1819 68bc 71c0 24bd 15ad 35bc
00000270: 4368 2cbd 84d7 90bc 1db2 c2bb c889 8fbc
00000280: 0865 fcbb b718 cfbb 0848 89bc a905 8dbd
00000290: e4a8 80bd fdd5 81bd 319a 9dbc 2730 393d
000002a0: 0bbc 20bd e768 06bc df86 0bbc e0e3 77bc
000002b0: 3f5c eebc a46b 0d3d 251a 753c c999 90bc
000002c0: c863 973c 134b 9fbc 43b2 77bc 83ca e03c
000002d0: 0bf4 0fbd 6748 68bd 39e1 013d 0b0a 7dbd
000002e0: 6245 b5bc 2705 0d3d 1bf3 4ebc e36e aa3c
000002f0: 48dd 583c 4077 aebb b473 85bc c530 ea3c
00000300: 1b7c 5ebc 2b3c 04bd bbe4 3c3d 8762 e1bc
00000310: af88 0bbc 99d5 9b3c ac2d 9ebc 6034 cfbc
00000320: 2a39 c83c 9a5f 73bc 9194 ccbb 2b47 493c
00000330: 33ea e2bc 88b6 06bc 40d4 593d e01c d33c
00000340: b382 36bd 7a3d cdbc 07bb bd39 a80c 9bbd
00000350: 00ad d3bc 8f8f 07bc 6f7f 65bb 1e25 81ba
00000360: ad69 12bc 855e 4f3c 02ed 64bc 22e8 72ba
00000370: ed63 c8bc 1323 3dbd 8473 39bd 734b 60bc
00000380: dde7 cf3c ef9a 1dbd 33cb 0ebc 1758 23bc
00000390: 35e4 31bd 3fd0 c1bc 0848 a23b 7c26 39bd
000003a0: 82d0 f8bc 0506 fb3c ab55 d9bc f0d2 d4bb
000003b0: 63b6 333d 1002 9cbc 1bdd f8bb 2a50 a33d
000003c0: 6762 1c3c 9057 243d 2aec 603d 1a0f 69bc
000003d0: 83c7 043c 97a3 8eba 69a2 24bd 0fbe 8fbb
000003e0: b726 a03c 940c 23bc b7b2 503c 2574 3a3d
000003f0: 4548 4b3b 0d64 d5bc d662 a9bb 33eb 983c
-0.04016919 -0.053768456 0.016534252 -0.041431054 -0.031260304 0.041383054 -0.018208383 -0.029544933
-0.01039083 -0.0012533114 -0.038815286 -0.036444798 -0.0538957 -0.033816893 -0.013248794 -0.0021452815
0.0006958421 -0.009830476 -0.020837167 -0.02141972 0.00181772 -0.024820311 -0.06722019 0.03417112
-0.0038590615 -0.035017442 -0.0009120685 -0.0005331176 -0.02705276 -0.045553207 -0.025679762 -0.02855796
-0.030734686 -0.046400502 -0.017192325 -0.016076595 -0.026935313 -0.015231214 0.0419388 -0.0011051883
0.0143289 0.040303666 0.025348777 0.032402255 0.054005142 0.015313293 -0.003936226 0.038882513
0.0038003847 -0.030802874 0.041873474 0.0017127456 -0.004000984 0.08506787 -0.013657615 0.035951387
0.13369082 -0.008616458 0.020178301 0.097173795 -0.050084997 0.023808813 0.09846382 -0.028147144
-0.0042300965 0.011778141 -0.0131916255 0.022971481 0.038774733 0.004675049 0.049214985 0.072392
-0.017345103 -0.059485164 0.061784435 -0.011571252 -0.032537352 0.025645275 -0.028591434 -0.07254568
-0.031093106 0.008258722 -0.009644094 0.061288524 -0.011796792 -0.008050639 0.057729382 -0.0076033026
0.004483211 0.00079305575 -0.02554634 -0.061659034 0.0061445893 -0.036244255 -0.045739923 -0.007144786
0.002415587 -0.0083695715 0.06325208 -0.040331807 -0.02361707 -0.0050433143 -0.039590217 -0.043221164
0.025477234 -0.009051777 -0.01610648 0.0616509 -0.032297343 -0.029074624 0.0061094738 0.0011626428
-0.028769959 0.04302831 -0.013013384 -0.03324008 0.055051725 -0.02061037 -0.017829781 0.041471694
-0.004194359 0.008694089 0.00814472 -0.0025586924 0.018006524 0.031484302 -0.031730324 -0.069067545
-0.031646665 -0.049823828 -0.03987972 -0.021222848 -0.03887832 -0.015745861 0.010571568 3.856269e-05
-0.015721723 -0.019222071 -0.025581477 -0.0038332653 0.010514404 0.02279899 0.025114575 0.04976908
-0.028163869 -0.029626802 0.05645618 -0.030296296 -0.02424807 0.04806 -0.048529252 -0.037588753
0.052014392 -0.014166139 -0.04022259 -0.011088629 -0.04209162 -0.01768089 -0.005941643 -0.017521754
-0.0077024736 -0.006320085 -0.01675798 -0.06885845 -0.06282213 -0.06339643 -0.019238563 0.045211937
-0.03924183 -0.008203722 -0.0085160425 -0.015130013 -0.02909672 0.034526482 0.014959847 -0.017651455
0.018480197 -0.019444978 -0.0151181845 0.027440315 -0.035144847 -0.056709673 0.03170893 -0.061777156
-0.02212781 0.03442874 -0.012631203 0.020804828 0.013236351 -0.0053242743 -0.016290523 0.028587708
-0.013579394 -0.032283943 0.046116572 -0.027512802 -0.008516475 0.01902275 -0.019308887 -0.025293529
0.02444132 -0.014854336 -0.0062432964 0.012285034 -0.027699566 -0.00822223 0.053180933 0.025770605
-0.04455824 -0.025053728 0.00036188235 -0.07570773 -0.025839329 -0.008273973 -0.0035018583 -0.0009852981
-0.008936328 0.012656813 -0.013972523 -0.0009266158 -0.02446171 -0.046176028 -0.04527618 -0.0136898635
0.025379116 -0.038477834 -0.008715439 -0.009969733 -0.043430526 -0.02365887 0.0049524345 -0.045202717
-0.030372862 0.030642519 -0.026530107 -0.0064948723 0.04387511 -0.019043952 -0.007594717 0.079742745
0.009544945 0.04012257 0.054912724 -0.014224792 0.008104208 -0.0010882494 -0.04019395 -0.0043866704
0.01954971 -0.009951729 0.012737921 0.04552092 0.0031018418 -0.026048684 -0.005169253 0.01866684

conv2.bias f4 [64]
00000000: 77b8 993d b0ce 5fbd 0128 0c3c 63b3 ab3b
00000010: 6544 b9bc d705 52bb 1bf3 313d 1054 3dbd
00000020: ebae 80bd a277 2bbd c757 60bd 0f5a 793c
00000030: 7cae 8f3c 387e 9abc 076d 053d 24a4 2cbd
00000040: 178c 0d3d d82d cdbb d7eb b53b 7e2a af3d
00000050: b0cd 123c 455d d9bc 4ab1 7ebc f203 5f3c
00000060: d209 9bbb 00f2 b5bc cf1b 953c 6077 07bc
00000070: 33c8 bd3c 66ce bebd c43f 3dbd 0db8 a63d
00000080: dd54 513c efba 473d 72b5 3abd 4f8d 133c
00000090: b825 b03a 1e62 2a3d f868 b7bd bf5d b73d
000000a0: 9daa 7fbd e24c a73d 1bc1 56bd 053a 01bd
000000b0: 810f 86bc f5fc 153d a508 e6ba dbf2 443d
000000c0: 771a a2bc 63f3 6abc 0a42 c9bc e31a 18bc
000000d0: e75e 043d 1466 00bc d3b5 f2bb bf79 a3bd
000000e0: 404e ebbc b36c c63b b93c 193d 9c5f aebc
000000f0: fa36 5a3d 42b6 d33d 4254 35bc d320 493d
0.07505887 -0.054640472 0.00855446 0.0052398904 -0.02261562 -0.0032046938 0.043444734 -0.046222746
-0.06283363 -0.041862138 -0.05477121 0.015219226 0.017539255 -0.018859014 0.03257468 -0.042148724
0.03455743 -0.0062615685 0.005551796 0.085530266 0.0089601725 -0.026533732 -0.015545199 0.0136117805
-0.0047313953 -0.022210121 0.018201737 -0.008268207 0.023166751 -0.09316711 -0.04620339 0.08140574
0.012776581 0.04876226 -0.045583196 0.009005859 0.0013438975 0.041597478 -0.08955568 0.089534275
-0.06241857 0.08168961 -0.052430253 -0.031549472 -0.016364815 0.03661819 -0.0017550184 0.048083168
-0.01978801 -0.0143402545 -0.024567623 -0.009283754 0.03231707 -0.007836837 -0.007406929 -0.079822056
-0.028723836 0.0060554384 0.037411425 -0.021285824 0.053275086 0.10337497 -0.011067452 0.04910357

conv3.weight f4 [64, 64, 3, 3]
00000000: 70be 7abd 631e a4bc afdb 973d 1fef 81bc
00000010: f083 a73c 1b7e 273d 7276 61bc 48da f33a
00000020: 6932 95bc 1451 22bd 45bc debc 709d d8bb
00000030: d39f 18bd 75ed e6bc 8f9f 5b3d c87d f238
00000040: b94b 8bbc b917 cc3c 6bf2 a53c 67fb 833c
00000050: 7021 91bc 7041 58bc 6972 883c f244 533c
00000060: 5a4f 6bbc 9639 04bd cf75 38ba 2d71 9dbc
00000070: e423 1fbd 5f9f c3bc 1006 bdbc 53eb 2dbd
00000080: c051 dcbb 5ae5 8ebc 2fb2 2ebc 1df7 223d
00000090: 9747 78bc 3395 b2bc e207 06bc a40e 99bc
000000a0: 8f5c aeba 1500 653c 4b40 813c 3755 a63c
000000b0: b149 103d e583 6abc ebbf 9dbc 74c8 803c
000000c0: d55f 63bc 35d8 41bd 7744 003d cf5b 03bc
000000d0: 3fc5 a4bb d786 0a3d e525 6ebc 25bd f43c
000000e0: 95d0 783d 2792 733c 8370 c63d a85a b93d
000000f0: 2d6c 643d aca8 c43d 0021 bd3d 496d 00bc
00000100: 6f51 a6bb 3052 16bb d234 62bc 8a30 cdbb
00000110: 1051 b5bc c619 32bc 4357 05bb 3b59 c0bc
00000120: 4a33 18bc d58c 92bc f4a3 133c 7d76 f13b
00000130: bd35 203c 4f0e 523b 9097 d6bb e2b9 ee3c
00000140: 584c 443c 1ba8 25bd 73e7 ccbd 1b25 86bd
00000150: 2757 2dbd 22ce 83bd c0a1 30bd 7942 043c
00000160: ba2d 56bc 259f 78bc 837b ff3b 8100 b7bc
00000170: 4324 1cbc 3f45 92bc 0a06 28bc 579c 34bc
00000180: e450 3ebc b378 03bd 51dc cb3b 3ab8 76bd
00000190: 1b5e 40bd 9fc6 bb3c 8272 7ebd f10c a83b
000001a0: 8798 673d 77ef 21bd b839 3a3d 8b99 cd3c
000001b0: e8e7 cdbc c737 2fbc 6d1d 643c b8f2 38bd
000001c0: 0ee3 3cbd a9ac 193c c0ed 57bc 5eea acba
000001d0: 1311 f73b 339f b3bd e26b 38bd 259e aabc
000001e0: 0429 29bc e8aa 53bd a7c3 30bd 8d53 5dbc
000001f0: 3fc3 733c 8f18 03ba 2bdf 3bbc 231c f5ba
00000200: 3387 71bc 1d78 823a c188 b9bb 2b7c c4bb
00000210: 6a48 f23b fd23 ddbb cedb aa3c 7f7b bb39
00000220: 03f5 5ebc d373 c3bc c25e aebc 96b5 21bc
00000230: bbd7 153c 2d85 c0bc 23e5 493b 2195 a33a
00000240: 1fbb de3c 8b3b cebc 3a0b 28bd 4786 0d3d
00000250: b88f d3bc 77c6 7bbc f55f 4e3d 13c4 b1bc
00000260: 30ae 8fbb 9dca e5bb d426 2bba 5ae5 77ba
00000270: 0d44 8a3c db5c 37bb b5b6 0a3b 45b7 bc3c
00000280: e808 523b f209 df3c 544b 2f3c f060 79bb
00000290: 2366 67bc 516e 47bc c035 003b bba3 b63a
000002a0: 67c5 3b3c 0b6d 69bb d7d0 b1bb 6dad c1ba
000002b0: 6740 273d c292 eb3d 0d68 8f3c 8afa d93d
000002c0: c0ec f03d 6861 af3d 0da4 e93d 1289 bc3c
000002d0: 13a9 72bc 5566 3fbc ed4f 6a3a 9f4f 1cba
000002e0: f492 c8bc 5f86 0cbc 7ddd 64bb a7da 0e3b
000002f0: 61a0 c6bb 5a75 fabb 955a 41bb d079 5d3c
00000300: cb51 e93b b4b4 0f3d 5c7d 9e3c fab7 173d
00000310: b500 7d3d fb3e 9e3c b94c 493d 2257 b93c
00000320: 1817 45bc b31f a43d de37 33bc e39c 42bb
00000330: ec31 ba3d e0ee debc fb6c 0b3c 2aac 0e3c
00000340: aabe ff3b aab7 dd3c cfaa 28bc 93eb cc3c
00000350: b55e b73c 6b3e 723c 0346 d53c 024d 043d
00000360: 4de6 953c 2242 49bc 5d4a 2dbb 9753 193d
00000370: d0b7 7a3b c73b 61ba 650a 0f3d c27d 6439
00000380: ee86 c63c 7fd1 5c3c 9745 113b b248 323c
00000390: 63c9 c23b a169 1bbc 136c 513b 35bd 2e3a
000003a0: 4fc8 9cbb 8b88 92bc 8851 c0bc a430 063c
000003b0: 3025 48bc 4b1f 073c a727 18bc 531d 77bc
000003c0: cdc7 103c 28ce 93bc f39a a83c 18c8 e3bc
000003d0: 2936 47bc 6868 f7bb 02c6 993b c94c 22bd
000003e0: 2066 993b 4165 3ebb 447d 41bd 4b5c c83c
000003f0: 15c9 edbb ef6f 923c cfcf a3bc 3b85 4c3c
-0.06121677 -0.02003402 0.07414948 -0.015861092 0.020448655 0.040891748 -0.01376115 0.0018604482
-0.018212514 -0.039628103 -0.027189383 -0.006610565 -0.037261795 -0.0281894 0.053618964 0.00011562888
-0.01700388 0.024913656 0.020257195 0.016111089 -0.01771614 -0.013199195 0.016656118 0.012894856
-0.014362181 -0.03228148 -0.0007036598 -0.019219005 -0.038852587 -0.023879705 -0.02307418 -0.04246075
-0.0067236125 -0.017443348 -0.0106625995 0.039786447 -0.015153787 -0.02179966 -0.00818059 -0.018683739
-0.0013302731 0.01397707 0.015777728 0.020304305 0.035226528 -0.014313673 -0.019256553 0.015720583
-0.013877829 -0.04732533 0.031315293 -0.008017494 -0.0050283964 0.03382 -0.014535402 0.029875347
0.060745794 0.014866388 0.09689429 0.090504944 0.055767227 0.09602484 0.0923481 -0.007838556
-0.0050756256 -0.002293717 -0.013806539 -0.00626189 -0.02213338 -0.010870403 -0.0020346201 -0.023480048
-0.009289572 -0.01788942 0.009011257 0.007368861 0.009778437 0.0032051986 -0.0065488294 0.02914137
0.011981092 -0.04044352 -0.10005083 -0.06550046 -0.042319443 -0.06435801 -0.043123007 0.008072489
-0.0130724255 -0.015174662 0.007796706 -0.022339107 -0.00953013 -0.017855285 -0.010255346 -0.011023602
-0.0116159655 -0.03209753 0.006221332 -0.060234286 -0.046964746 0.022921858 -0.062120922 0.005128496
0.056541946 -0.039535012 0.0454652 0.025097629 -0.025134996 -0.010694451 0.013923031 -0.04515335
-0.046114974 0.009379544 -0.013179243 -0.0013192405 0.007539877 -0.08770599 -0.04502476 -0.020827362
-0.01032472 -0.05167666 -0.04315534 -0.01350869 0.014878093 -0.0005000913 -0.011466782 -0.0018700402
-0.014741707 0.000995401 -0.0056620543 -0.0059962473 0.0073938863 -0.006748675 0.020856764 0.0003575943
-0.01360822 -0.02385894 -0.021285418 -0.009869954 0.009145672 -0.023501003 0.0030806742 0.0012480357
0.027188836 -0.025174877 -0.04102633 0.034551885 -0.025825366 -0.015367142 0.05038448 -0.02169994
-0.0043847784 -0.007012679 -0.0006528918 -0.00094564783 0.016878152 -0.002797893 0.002116603 0.023036608
0.0032048766 0.027226422 0.010699112 -0.0038052164 -0.014123472 -0.012172298 0.0019563287 0.0013934294
0.011460639 -0.0035617973 -0.005426507 -0.0014776416 0.040832903 0.11502601 0.01750567 0.1064349
0.117639065 0.08563501 0.11408243 0.023014579 -0.014810818 -0.011682113 0.00089383015 -0.0005962792
-0.024484135 -0.008576958 -0.0034922056 0.0021797807 -0.006061599 -0.007643384 -0.0029503454 0.013517812
0.007120346 0.03508444 0.019346885 0.037040688 0.061768252 0.01931714 0.049145434 0.022624556
-0.012029432 0.08013859 -0.010938613 -0.0029695563 0.09091553 -0.027213514 0.00850987 0.008708039
0.0078047113 0.027065117 -0.01029463 0.025014674 0.022384027 0.014785389 0.02603436 0.032300003
0.018298293 -0.012283834 -0.002644203 0.037433233 0.0038256533 -0.00085919764 0.034922022 0.00021790623
0.024234261 0.013477682 0.0022166723 0.01088159 0.0059444173 -0.009485633 0.0031955286 0.0006665767
-0.004784621 -0.017887374 -0.023476377 0.008190308 -0.012215897 0.008247207 -0.009286798 -0.015082675
0.008836699 -0.018042639 0.020581698 -0.027805373 -0.012158909 -0.007550288 0.004692794 -0.03962401
0.0046813637 -0.0029052051 -0.047238603 0.024458071 -0.007256637 0.01787564 -0.019996552 0.0124829365

conv3.bias f4 [64]
00000000: e203 433c 5d8e 85bd 7b89 d1bb 1308 ce3c
00000010: 3f07 babb c30b 5e3b 9ae0 423c 635f 2b3c
00000020: 40c9 713d a9f8 8ebb b7cb dcbc a86c 6a3d
00000030: c369 72bb 37b0 b6bc 5239 4dbb 7496 033a
00000040: f732 663d 20fc dc3d 3f5e ba39 6cfc 3dbc
00000050: a2c0 a2bc 2589 883a 2f35 d73d 39a6 c3bc
00000060: b0fc f6bb db91 b23d 43ab debb 1f42 263c
00000070: b897 2ebc 5a88 d9bb 288b 71bc 504e 1ebc
00000080: 3717 a7bc 3389 c53b 6449 40bb 70c1 a1bb
00000090: c5af 963c e1da 85bc 0a25 27bc 141d bb3d
000000a0: 1dbf 803c 98e6 e4bb ef47 e7bc 3817 e2bb
000000b0: b328 8dba 9d66 773d fbe3 d8bb 0f4f a33c
000000c0: 68f3 da3b 0489 803d 6278 b43b b8d3 f6bb
000000d0: 68eb fc3c b334 bdbd c2df 38bc 9504 0ebb
000000e0: 8a7e ecba 73d8 683d 5960 303d 5041 f13d
000000f0: 2bef 4dbd 50fd f73b c10a adbc ff68 30bc
0.011902781 -0.06521294 -0.006394563 0.025150334 -0.0056771333 0.0033881522 0.0118943695 0.010459754
0.059029818 -0.0043631387 -0.026952608 0.05723253 -0.0036989308 -0.022300823 -0.0031314683 0.00050196727
0.056200948 0.107902765 0.00035546903 -0.011595827 -0.019867245 0.0010416849 0.10508191 -0.023882972
-0.007537447 0.08719226 -0.0067953183 0.0101476 -0.01065629 -0.006638569 -0.01474265 -0.009662226
-0.020396812 0.0060283183 -0.002934062 -0.0049363896 0.01839436 -0.016339721 -0.010201702 0.091364056
0.01571613 -0.0069854967 -0.028232543 -0.0068997405 -0.0010769576 0.060400594 -0.0066189743 0.019935159
0.0066818483 0.06276134 0.005507515 -0.007532563 0.03087397 -0.09238567 -0.011283817 -0.0021670212
-0.0018043083 0.056847047 0.043060634 0.117800355 -0.050276916 0.007568039 -0.021123292 -0.0107672205

fc1.weight f4 [64, 1024]
00000000: 3b23 d7bc 6e80 a4bc 9da6 be3c 2868 233d
00000010: c5af 0fbd 9200 13bd b787 9abc 3ac0 57bc
00000020: 4811 a0bc 8243 0abd 3fc5 02bd 2267 33bd
00000030: 8a88 39bd 7f18 fbbc eacc 5dbb 3342 96bc
00000040: 4881 cf3c 4704 a338 5b0a 36bc fc79 ad3c
00000050: e858 28bb c752 91ba 8f7d 763b 37a7 4cbc
00000060: 6865 4bbc d3df 363c 8221 d6bb e765 d4bb
00000070: 7f44 c6bc 1f87 67bc 3a45 c1bc b866 f7bb
00000080: 6396 08bc 2af6 ccbc 4569 c3bb 558f 43bc
00000090: 160e 21bb c7a9 86bb 83d3 25bb 8f21 c33b
000000a0: f3a9 6abc c5ac 3cba 6546 debb fb80 adbb
000000b0: ac2d 99bc 4815 e1bb a8df fcba 37e2 39bc
000000c0: 52fa 33bc b0e2 91bc 2849 be3b 47be b93c
000000d0: 5b50 d23c 207e 783c 2a40 dd3c 92d3 723d
000000e0: 20c0 033b f3fb 13bc 3568 043c f9d7 b63c
000000f0: 875d 90bc 5d42 d9bc b875 5fbc 063c 1bbc
00000100: 8f03 8ebc ab18 9d3a 70c5 4bbc ad3b febb
00000110: d711 23bc efdd 63bc 67f4 1a3c c792 59ba
00000120: 2f88 3f3b da6b f4bb 3268 76bb 2f43 a2bb
00000130: 6ac4 953c 1bf5 75b9 1a2b 8a3b e77a 58bc
00000140: c2ef eebb 62df ea3a b84c 613b 0c87 08bc
00000150: aa6e 9fbb 4bc2 5fbc 9831 a2bb 62af 3ebc
00000160: b005 75bc d20a 34bc 6a3d 86bc 88fc 2abc
00000170: 5352 a33a 3010 d3bb e3a0 74b8 c3ad 293c
00000180: c517 473d 09b7 a43c 1615 083d 75d3 4aba
00000190: f0f4 e4bb 67e2 02bc c0b2 d4bb 7698 b63c
000001a0: f042 3c3c c8fc 193d 5b7e 0e3d 6f51 073d
000001b0: e4a2 ca3c 45d5 8e3d c372 6e3d bf33 663d
000001c0: 1cd4 aa3b 072b a33a 23de 7aba f23d 37bc
000001d0: b7b8 e9bb 6bc8 5bbb 1b20 12bc 073d 59bc
000001e0: dc41 8fbb 027f 5cbc b71f 45bb 4346 41bc
000001f0: c482 a5ba 7541 28bc 3708 823a 2b27 a73b
00000200: 221e 82bd 4d03 f8bc 9c4c 19bd de3b 25bd
00000210: 4d1c 97bd 4e08 1abd 1301 d2bc ea1f 63bc
00000220: a27a ce3c a0a5 fb3c ded7 213d 9747 963d
00000230: 1a1a f13d 09f3 0c3e 157e ee3d 4bfb be3d
00000240: 7314 163b 3dd5 63bc 90a3 b4bb e503 1d3b
00000250: 5b35 6ebc cbc3 adb6 4bc9 533a 6174 20ba
00000260: 1ba3 a6bc 0894 14bc e840 1dbc c5af 80bc
00000270: ba37 50bb 2506 d9bb c9e9 14bc 2775 df3a
00000280: aa3f 46bc 7598 d3bb ed30 ef3b ea93 56bc
00000290: f29a cf3b a7ee 7f3b 136c 303c 0ac3 e4bb
000002a0: dbae c5bb f7d6 043b 5a51 d73a 0d9e 4fbc
000002b0: eb46 50bc 1f2c 3fbc 0ad7 733a 9914 983a
000002c0: 30c7 463d 9c5c 133d 034a 93bc b14f 3bbc
000002d0: b385 6e3d c79f 053d 415e 0c3c 6fc2 103c
000002e0: 2cd3 3a3d a02f a33c f489 42bc 0cc3 883b
000002f0: 1c8f 2f3d c539 7a3c 9a7d 363c 4f13 973b
00000300: 0f19 9ebc d529 91bc 50c1 7abb 78e6 83bb
00000310: 1de2 76bb 0b12 58bc 9ded e9ba d396 59bc
00000320: 1848 85bb b44d 84bc 1f0e 48bc 7b20 773b
00000330: ebbe 0c3b 1fbd 4dbc 3d82 78ba d059 9ebb
00000340: c41e a1ba e43a 35bc f589 003a dc22 8b3a
00000350: e37d fa3a d3c1 cfbb 4773 b8bc 0022 0e3c
00000360: 5008 7dbb d2f1 28b9 b0af d93b e2d7 90bc
00000370: f510 823a 5c54 89bb 7015 8dbb bbae 9e3b
00000380: 9744 64bc 534a 4f3c 82db 8b3b 50b1 8c3b
00000390: 341e 133c 7259 55bc 80fa b7bb 555b 89b9
000003a0: fd67 f73a 4b9a 543b ebd2 d13a 179b c4bb
000003b0: 7f78 af3c b5a1 cb3b f332 56bb 0db4 b43b
000003c0: cb0c 76bc 5b5c 80bb e452 b2bb cab4 b2bb
000003d0: d760 48bb 272e 16bc c27e e63b eb39 99bb
000003e0: ab79 1cbc ef75 d03a 02cf ebba 1a5e cc3b
000003f0: cfa0 91bb 8b99 c53a 8b60 abbb c841 04bc
-0.026261916 -0.020080771 0.023272807 0.039894253 -0.035079736 -0.035889216 -0.018863542 -0.013168389
-0.01953949 -0.033755787 -0.03192639 -0.043799527 -0.04529623 -0.03065133 -0.0033844062 -0.018342113
0.0253302 7.7732424e-05 -0.011110867 0.02117633 -0.0025687758 -0.0011087292 0.003761146 -0.012491039
-0.012414314 0.011161762 -0.006534756 -0.0064818743 -0.024202583 -0.0141313365 -0.02359258 -0.007550087
-0.008336636 -0.025019724 -0.005963477 -0.0119360285 -0.0024575046 -0.0041095945 -0.0025303073 0.005954928
-0.014322746 -0.00071973755 -0.006783294 -0.0052949167 -0.018698536 -0.006868992 -0.0019292729 -0.011345438
-0.010984974 -0.017808288 0.0058070607 0.02267374 0.025673082 0.015166789 0.027008135 0.0592838
0.002010353 -0.009032237 0.0080814855 0.02231978 -0.017622722 -0.026520902 -0.013638906 -0.00947476
-0.017335681 0.0011985501 -0.0124372095 -0.0077585788 -0.009952984 -0.013907894 0.009457684 -0.00082997646
0.002922546 -0.007459146 -0.0037598726 -0.0049518566 0.018282134 -0.0002345633 0.004216564 -0.013212896
-0.007291765 0.0017919356 0.0034378003 -0.008332979 -0.004865487 -0.013657163 -0.0049497597 -0.011638494
-0.014954969 -0.010988908 -0.016386706 -0.010436185 0.0012460448 -0.0064411387 -5.832397e-05 0.010356369
0.048606653 0.02010681 0.033223234 -0.0007737198 -0.0069872066 -0.007988549 -0.006491035 0.022289496
0.0114905685 0.037594587 0.03478847 0.033036646 0.024735875 0.06974272 0.058214914 0.056201693
0.0052132737 0.0012448736 -0.0009569844 -0.0111842025 -0.0071326154 -0.0033536206 -0.008918787 -0.013259179
-0.0043718647 -0.013458015 -0.0030078718 -0.011796537 -0.0012627472 -0.010269512 0.0009920661 0.0051011047
-0.06353404 -0.030275011 -0.037426576 -0.040340297 -0.07378445 -0.037605576 -0.025635278 -0.013862589
0.02520496 0.030718625 0.039512508 0.073378734 0.117725566 0.13764586 0.11645142 0.09325274
0.0022900372 -0.01390582 -0.005512662 0.002395862 -0.014539088 -5.178595e-06 0.0008079006 -0.00061208574
-0.020341447 -0.0090684965 -0.009597994 -0.015708813 -0.0031771497 -0.006623047 -0.009088942 0.0017048464
-0.01210014 -0.0064573833 0.0072995336 -0.013096789 0.0063356096 0.003905216 0.010767954 -0.0069812583
-0.0060328073 0.002026973 0.0016427443 -0.01267196 -0.012712221 -0.011668234 0.00093017577 0.0011602818
0.048529804 0.03597699 -0.017979627 -0.011432574 0.058232974 0.03262308 0.008567394 0.008835419
0.045611545 0.01992017 -0.011873711 0.004173642 0.04286109 0.015272562 0.011138344 0.004610456
-0.019299058 -0.017720142 -0.0038262196 -0.0040252768 -0.0037671395 -0.0131878955 -0.0017847304 -0.013280588
-0.004067432 -0.016150333 -0.012210398 0.003770857 0.00214761 -0.012557297 -0.0009479856 -0.004832484
-0.0012292494 -0.011061404 0.00049033697 0.0010615247 0.0019111003 -0.0063402443 -0.022515906 0.008675098
-0.003860969 -0.00016111814 0.006643258 -0.017681066 0.0009923266 -0.0041909646 -0.004305534 0.004842607
-0.013932369 0.012651998 0.0042681107 0.0042935982 0.008979369 -0.013021814 -0.0056145787 -0.00026198724
0.0018875595 0.0032440599 0.0016008293 -0.0059999335 0.021419762 0.0062143453 -0.0032684177 0.005514628
-0.0150176985 -0.0039172596 -0.0054420102 -0.0054536806 -0.00305753 -0.009166277 0.0070341537 -0.004676094
-0.009550492 0.0015904288 -0.001799077 0.0062368037 -0.0044442187 0.0015075667 -0.0052300147 -0.008072324

fc1.bias f4 [64]
00000000: 8047 0abc 27d1 bcbc b85f 53bd 37ca 533d
00000010: 9393 8abb f59b dabd 455f abba dadc 6a3b
00000020: 58da 753a afc4 183c 1546 dabb 8a66 283a
00000030: 9df6 f3bb 9759 37bb f261 88bd 510b a2bc
00000040: df65 2bbb c529 62bd 2f93 88bb 785b c0bb
00000050: e015 093b 9798 083b 880f 763c 48aa 8ebc
00000060: 1f54 103a 5d8d af3b b1c8 94bb 7373 c0bc
00000070: 2267 af3b c846 52bd 7bfd 1c3c eddb 05bc
00000080: 79c8 133c 0223 5ebc b760 383a c665 c63d
00000090: 5045 88ba 4927 b2b9 7451 2e3d 4475 86bd
000000a0: 2f48 533d 5539 2abd d765 9dba 9f36 abbc
000000b0: c5ce b23b f3f5 6dbb 30cb 803d c893 8bbc
000000c0: 4b6f 463c 41bb 09bc e060 edb9 0f68 8c3d
000000d0: 7f63 87bc a4d0 3fbc 9d33 bdbb a0d5 38bd
000000e0: 0ff6 5fbc e78e 48bd 4ff4 bbbc 3870 823d
000000f0: aaa5 d0bc cdf6 1aba 0b16 b7bb 51ae 843a
-0.0084398985 -0.02304895 -0.051604956 0.05170652 -0.004229018 -0.10674278 -0.0013074657 0.0035837204
0.0009378544 0.009324237 -0.0066611865 0.0006423971 -0.00744517 -0.0027976984 -0.066593066 -0.019780787
-0.002615325 -0.055215616 -0.0041679363 -0.005870279 0.002091758 0.0020842904 0.015018351 -0.01741518
0.0005505699 0.005357428 -0.004540526 -0.02349255 0.0053528706 -0.051337034 0.009581919 -0.00817011
0.009019964 -0.013558151 0.00070334546 0.096873805 -0.0010396633 -0.00033980075 0.04255815 -0.065653354
0.05158251 -0.041558582 -0.00120085 -0.020900069 0.0054567778 -0.0036309927 0.06288755 -0.017038241
0.012111495 -0.008406461 -0.0004527634 0.06855785 -0.016526936 -0.011707459 -0.005773975 -0.045125604
-0.013669505 -0.048964407 -0.022943644 0.0636906 -0.02546962 -0.000591141 -0.0055873445 0.0010122751

fc2.weight f4 [10, 64]
00000000: 4596 883d 9b85 963d 4d13 d5bc df29 b8bc
00000010: e089 65bc bbdf 193c f0d7 7abb c5f5 93bd
00000020: aa24 edbc f054 11bd a714 81bd e81e 183d
00000030: 1078 633c 475d 7d3d 3f8a b43c 679c 3f3c
00000040: bfef 07bd 1810 7b3c 87fc adbc f052 1c3d
00000050: 0ac8 9f3b 8366 8a3c 64b6 c1bc 985d f4ba
00000060: 4d20 aa3c 8024 afbd 652d f93c d727 19bc
00000070: 85ea 733d 0219 6e3d 0ad2 1f3c bfcf 4bbc
00000080: 8013 c0bc 88de 05bc dfc6 283d 85c0 5fbd
00000090: e378 dc3c daae cbbc df59 07bd f789 973d
000000a0: 4aef 3fbd 8d5c 42bc 7cdb 2bbd 4d58 e03d
000000b0: c3aa 15bd 0558 d1bc 0057 073d 0270 d03c
000000c0: 0853 d7bc 3f98 973b 1247 eebc 6e9c 0ebd
000000d0: 906b d23c 5a84 8e3d 757e b13c 831f 573c
000000e0: 6ddd 713d 64c2 353b 4ba0 303d 37fa 263d
000000f0: 7ad5 21bd c219 47bd ffaf 033c 0256 9cbb
00000100: 5bdc eabc 1f35 ddb9 8594 de3c 6297 7dbd
00000110: 0854 da3c 4b2f 863c 7b39 8f3c ea2b 55bd
00000120: 0ddf 6f3c a813 a5bb cd8d cfbc 7510 643d
00000130: 3264 9abd af8a 97bc 2f0a 9cbc 0f7e 123c
00000140: 45b6 b53c 5b8c 2d3c 5094 57bb 6b5c d93d
00000150: 301a 09bd bced acbc df16 763d 0cdf c23c
00000160: c308 cfbb c15d 363d 8023 1b3c 4a96 523b
00000170: 2f98 c7bc 01f5 c93d 90f2 a7bd 3530 cdbc
00000180: 0f20 3d3d eae8 1f3c a5d6 a93c cb45 18bc
00000190: 3353 18bb 4b32 113c bd55 653d 6ad7 ed3d
000001a0: 35b2 e0bc df35 9d3c 7381 5b3d 770c 05be
000001b0: ca57 00bd 234a a53c e7d5 77bd 8361 d3bc
000001c0: 0740 6ebd 4f0b 913b 9f33 c539 8b65 aabd
000001d0: c8ec 193d 23ef 5e3c 0f8e c5bc 5d5d 493d
000001e0: a188 bcbc c39f 6a3d eda6 363c 5a0d 05bb
000001f0: 6783 d8bc e635 293d 477a 03bc b787 033d
00000200: 30f9 e8bb b284 903c c7c1 b3bb 98b8 a03c
00000210: b397 893b 4f0b 2fbd ac70 9dbd 8dad 833b
00000220: 6c15 2f3c e7f6 31bd 0d74 cd3b 10ef 533d
00000230: 0aa8 ca3b 885d c93b 5261 783d 67f5 853c
00000240: 6e38 a6bc 5092 903b cb82 31bd eb43 723b
00000250: 5757 5dbd 8747 57bc 4278 933d 0c7e 883c
00000260: 1173 07bb 222c 2d3d e79a a43c e890 45bd
00000270: 0bf2 9abc 07d5 6dbd 03b5 e8bc 1087 38bd
00000280: 6238 3e3c dfee a1bc 2121 993c 1076 8b3d
00000290: 5b8e 973c 58ee ef3c 901d d0bc e31c 2ebd
000002a0: 8864 ee3c a374 c8bd 336a 3a3d 72d1 4f3d
000002b0: b29c a0bb c2a8 7d3c 51d7 b83d b2c3 77bd
000002c0: f4ff 0dbc 8b95 7a3a 6a6f 7b3c ea94 ee3c
000002d0: 6dfb 613c 60f7 843c 27d2 7fbc df92 52bd
000002e0: a7e9 373c 2489 813d f5be d1bb b039 ef3a
000002f0: a2d8 d8ba 035a 28bd 8594 c0bc 8c8d 82bc
00000300: f781 5d3d 8ef0 01be a0d8 0bbd 90c7 d03b
00000310: 8df6 51bd f035 5d3c 4315 2a3d 14e1 433d
00000320: 7f83 78bd a335 22bd d87f 80bc 9b64 0b3d
00000330: cf40 ce38 fb5a 5e3d 6d18 70bc e79b 0fbc
00000340: 3b24 e13c 94b4 b8bc e581 3cbd e598 00bd
00000350: fb52 153c ed13 063d 00bd 6e3c 4b0d 643b
00000360: 5a5f 1dbd 4bb2 843c e0df 10bd 4215 883d
00000370: 7588 273c 3b48 2fbc 3a5a 68bc d878 b23c
00000380: 03e0 bbbd c897 67bc 851b 843d 9ddc e43c
00000390: bff3 a6bc 2af3 ea3c 7749 40bc 42c6 7cbd
000003a0: b4c1 0d3b 92a9 23bd 2b7a a0bc acfb 8bba
000003b0: 62ea fcbc 8764 fc3c 4b73 0fbc 97ae 22bd
000003c0: 7f38 203c d16d 823c 00ae 883c e0c4 783c
000003d0: d0e0 363d e0ca f9ba 8bea f6bc f34c 883c
000003e0: 9bb2 60bd 0872 aa3c 7a5f 30bd c82a 9b3d
000003f0: b0f2 d9bc f29e 38bd bab5 bdbc 7f7e dabb
0.06669287 0.07349702 -0.02601018 -0.022480903 -0.014009923 0.00939172 -0.0038275681 -0.07224611
-0.028948147 -0.035481393 -0.06302767 0.03713885 0.013883606 0.061856534 0.022038577 0.011695004
-0.033187624 0.015323661 -0.021238578 0.038165033 0.0048761414 0.016894585 -0.023646541 -0.0018643616
0.020767355 -0.08551884 0.030417154 -0.009347877 0.059549827 0.058129318 0.009754667 -0.012439667
-0.023446798 -0.008170731 0.041205283 -0.05462696 0.026913112 -0.02486365 -0.033044692 0.073993616
-0.046859063 -0.011862886 -0.041957363 0.10954342 -0.036539804 -0.025554666 0.033041954 0.025444034
-0.02628471 0.0046263034 -0.029086623 -0.03481715 0.025686055 0.06958838 0.021666745 0.013130072
0.05904906 0.0027734274 0.043121617 0.040765967 -0.039510228 -0.04860855 0.008037566 -0.004770995
-0.028669527 -0.00042191983 0.027170429 -0.061911948 0.026651397 0.016379973 0.017483464 -0.052043833
0.014640582 -0.0050377436 -0.02533617 0.055679757 -0.07538642 -0.018498747 -0.019047825 0.0089411875
0.02218164 0.010592545 -0.0032894798 0.106133305 -0.03347224 -0.021109454 0.060080405 0.023787998
-0.006318183 0.044523004 0.009468913 0.0032133036 -0.024364559 0.09861184 -0.08200562 -0.025047401
0.04617315 0.009760121 0.020732233 -0.009293984 -0.002324295 0.008862088 0.05598997 0.116133526
-0.027428726 0.019190727 0.05359025 -0.12993036 -0.031333722 0.020176953 -0.060506728 -0.025803333
-0.05816653 0.004426397 0.0003761323 -0.08320149 0.037579328 0.013606819 -0.02411559 0.049161304
-0.023014368 0.057281267 0.011148197 -0.0020302148 -0.026429845 0.041311167 -0.008024759 0.03211185
-0.0071097836 0.017641399 -0.0054857465 0.019619271 0.004198992 -0.042735394 -0.07687506 0.0040184916
0.01068626 -0.043448355 0.006269938 0.05174166 0.0061845826 0.006145183 0.060639687 0.016352369
-0.02029058 0.004411973 -0.043337625 0.0036966752 -0.054038372 -0.013139612 0.07200672 0.016661666
-0.002066795 0.042278416 0.020093394 -0.048233896 -0.018914243 -0.058064487 -0.028406626 -0.04505068
0.011610122 -0.019767223 0.018692555 0.06809628 0.018500498 0.029288456 -0.025404721 -0.042508017
0.029100671 -0.09787872 0.045511436 0.050736852 -0.004901492 0.0154821295 0.09025443 -0.060489364
-0.008666981 0.0009559027 0.015346387 0.029123742 0.013792855 0.016231239 -0.015614069 -0.0514096
0.011225141 0.063249856 -0.0064009377 0.0018251445 -0.0016544054 -0.041101467 -0.02350832 -0.015936635
0.054079022 -0.1268942 -0.034142137 0.006371446 -0.05126052 0.013501629 0.041524183 0.047822073
-0.06067228 -0.039601933 -0.01568596 0.03403149 9.834917e-05 0.054285984 -0.014654261 -0.008765197
0.027483096 -0.022547044 -0.046022315 -0.03139581 0.009114022 0.032733846 0.014571428 0.0034797962
-0.038421012 0.016198298 -0.035369754 0.066446796 0.010225405 -0.010698373 -0.014181668 0.021786138
-0.09173586 -0.014135309 0.064505614 0.027937228 -0.0203799 0.028680403 -0.011736265 -0.06171251
0.0021630349 -0.039956637 -0.019589504 -0.0010679862 -0.030873481 0.030809654 -0.008755515 -0.039717283
0.009779095 0.015921505 0.016684532 0.015183657 0.04464799 -0.0019057654 -0.030141136 0.016638255
-0.05485783 0.020806327 -0.043059804 0.07576519 -0.02660498 -0.045073457 -0.023157943 -0.0066679115

fc2.bias f4 [10]
00000000: dd14 93bd 8f37 9fbd 0f9a 0e3d c1e1 193d
00000010: 587e 023e 7b21 f5bc 752a 8e3d 81c0 0ebd
00000020: 8b44 15bd 8ae4 c5bc
-0.07181714 -0.07774269 0.03481489 0.03756881 0.12743509 -0.029923191 0.06941692 -0.034851555
-0.03644232 -0.024156827
