torch_to_tf/torch_models/model_round499.model (torch, 493063 bytes, 10 tensors)

conv1.weight f4 [32, 3, 3, 3]
0	0xbd29e7c3	-0.04148079
1	0xbd32c4de	-0.04364478
2	0xbdbe85de	-0.09302877
3	0xbd91aca0	-0.07113004
4	0xbcc6d133	-0.024269676
5	0xbd16d357	-0.036822643
6	0x3d93252a	0.07184823
7	0x3d7da7c5	0.061927576
8	0x3cb4d922	0.022076193
9	0x3d12d845	0.035850782
10	0xbd54e12b	-0.05197255
11	0xbd960aff	-0.07326316
12	0x3cfea153	0.031082785
13	0x3c2e732b	0.010647575
14	0x3d36639f	0.0445286
15	0xbc91e012	-0.01780704
16	0xbdd872f3	-0.105688
17	0x3bb28187	0.00544757
18	0x3d04c04a	0.032409944
19	0x3d81f82b	0.063461624
20	0x3db35227	0.08755904
21	0xbd166fcd	-0.036727715
22	0x3cd887c2	0.026431922
23	0x3cb4e5db	0.02208226
24	0x3df159bb	0.11784693
25	0x3d327003	0.043563854
26	0x3cf812c8	0.030282393
27	0xbd54b4c8	-0.05193022
28	0xbd0c5f6d	-0.034270693
29	0x3d7aa1e3	0.061189543
30	0x3d18c56b	0.037297647
31	0xbd21224c	-0.03933935
32	0x3cfc41ef	0.030793158
33	0xbbd02fe5	-0.0063533657
34	0x3d20d1d0	0.039262593
35	0x3cdef705	0.027217397
36	0xbcfa9fcf	-0.03059378
37	0x3abd99ef	0.0014465431
38	0x3d712000	0.05886841
39	0xbd27dc65	-0.04098167
40	0x3ba2b6b0	0.0049656257
41	0x3cc43cc4	0.023954757
42	0xbb6f4a72	-0.0036512879
43	0x3d51be9f	0.05120718
44	0xbbc7ec23	-0.0061011477
45	0xbd1ff0a5	-0.039047856
46	0x3d0ffc4c	0.03515272
47	0xbd29e96b	-0.04148237
48	0xbde095d0	-0.109660745
49	0x3c980987	0.01855923
50	0xbc0e1a7f	-0.008673309
51	0xbda60861	-0.08107067
52	0x3c820193	0.015869891
53	0x3df5f345	0.120092906
54	0xbd8effe2	-0.069823995
55	0xbcd35c33	-0.0258008
56	0x3d948f26	0.07253866
57	0x3db63e88	0.08898646
58	0xbd277883	-0.040886413
59	0xbd5b562f	-0.053548988
60	0xbd1154d4	-0.03548129
61	0x3dca6f9f	0.09884571
62	0xbd3b92fc	-0.045794472
63	0x3c234733	0.009965706
64	0x3ca8d7ea	0.020610768
65	0x3a6ace03	0.000895709
66	0xbc572077	-0.013130299
67	0xbbdf33ad	-0.00681158
68	0x3d1639a3	0.03667606
69	0x3bbe596d	0.005809
70	0x3cb5ad72	0.022177432
71	0x3d009ff4	0.031402543
72	0x3ccce817	0.025013013
73	0xbd52356a	-0.05132047
74	0x3c5a1c6f	0.013312443
75	0x3dd48c63	0.10378339
76	0x3b298a7f	0.0025869904
77	0xbc6e4ebb	-0.014545138
78	0xbd00d817	-0.03145608
79	0x3dae9359	0.08524198
80	0x3d811bd1	0.06304134
81	0x3e149d5b	0.14513151
82	0x3ca1c667	0.019747926
83	0xbdc70612	-0.09717955
84	0x3c8edfbd	0.017440671
85	0x3c828e32	0.015936945
86	0xbcf55fb8	-0.029952869
87	0x3da83177	0.0821256
88	0x3be20ef8	0.006898757
89	0xbd96767d	-0.073468186
90	0x3a690a5a	0.0008889787
91	0xbd89e59b	-0.06733247
92	0x3d975cfd	0.07390783
93	0x3d40d46d	0.047077585
94	0xbdd63a3b	-0.10460325
95	0xbd6eda58	-0.058313698
96	0x3cd11432	0.025522325
97	0xbd8958b9	-0.06706376
98	0x3d6f54e0	0.058430552
99	0x3d05914f	0.03260928
100	0xbd3c923b	-0.046037894
101	0xbcad69d2	-0.021168623
102	0x3d5b1c33	0.05349369
103	0x3caaa596	0.02083091
104	0xbb82bf9b	-0.0039901263
105	0x3d910f07	0.07082944
106	0xbcb07edf	-0.021544872
107	0xbdada8e7	-0.08479481
108	0xbcae209b	-0.021255782
109	0xbb9697d8	-0.004595738
110	0xbc87a25f	-0.016556917
111	0x3d9bb85f	0.07603525
112	0xbd00cde8	-0.031446368
113	0x3d6cc18f	0.05780178
114	0xbd7601c0	-0.060060263
115	0xbd35b06c	-0.044357702
116	0x3d5ec5a0	0.05438769
117	0xbe03e552	-0.12880448
118	0xbbbe8c08	-0.005815033
119	0xbd4fe708	-0.050757438
120	0xbcb725d3	-0.022356903
121	0x3a8b9863	0.0010650273
122	0xbd926bc7	-0.07149463
123	0x3d324f5a	0.043532707
124	0x3db745fb	0.089488946
125	0x3d53973a	0.051657893
126	0x3d5eb243	0.054369222
127	0xbcf0b2a7	-0.029382063
128	0xbd1e9085	-0.038712043
129	0xbd2e56d5	-0.04256328
130	0xbd3508cf	-0.044197854
131	0x3b783790	0.0037874915
132	0x3d7b8115	0.0614024
133	0x3da28efb	0.079374276
134	0xbc13cc97	-0.009020946
135	0x3d10d87a	0.0353627
136	0xbc80e083	-0.015732056
137	0x3daf2641	0.08552218
138	0x3ce6be28	0.028166845
139	0x3bfc3858	0.0076971464
140	0x3da72d78	0.08162969
141	0xbd0adb3d	-0.03390049
142	0xbda25699	-0.079266734
143	0x3d3a080f	0.04541784
144	0xbc9534aa	-0.018213589
145	0xbdbf2063	-0.09332349
146	0x3dcd4740	0.100233555
147	0x3b81f517	0.0039659846
148	0x3be1f11d	0.006895198
149	0xbc95429b	-0.018220237
150	0xbd8d4597	-0.06898039
151	0xbe0c9713	-0.13729505
152	0x3d0ef223	0.03489889
153	0x3cb5cdb2	0.02219281
154	0xbdc3bc0e	-0.09557353
155	0x3da390ea	0.079866245
156	0xbcd01f9a	-0.025405694
157	0x3d7e74ba	0.062123038
158	0x3d029222	0.031877644
159	0xbcf9796f	-0.030453412
160	0x3c247163	0.010036799
161	0xbcbb18a1	-0.022838892
162	0xbd72624a	-0.059175767
163	0xbd7109e2	-0.058847316
164	0xbd84d48c	-0.064858526
165	0x3c8338bb	0.016018262
166	0x3d037977	0.03209826
167	0xbd53b68b	-0.05168776
168	0xbd092cab	-0.033489864
169	0x3c8815a3	0.01661188
170	0x3bdc97ad	0.0067319483
171	0xbd6005eb	-0.054693144
172	0x3d9a91b5	0.07547323
173	0x3cdb5dc7	0.026778115
174	0x3d63d910	0.05562693
175	0xbd8a74c6	-0.06760554
176	0x3d66d06b	0.056351107
177	0xbcee9da5	-0.029127905
178	0x3d208552	0.039189644
179	0x3d49ea18	0.049295515
180	0x3d10a703	0.035315525
181	0xbc471121	-0.01215008
182	0x3d22910a	0.0396891
183	0x3d53db80	0.051723003
184	0xbc998b84	-0.018743284
185	0x3dcd0e83	0.100125335
186	0x3d26474b	0.040595334
187	0xbd1a9281	-0.037737373
188	0xbc04c23f	-0.0081029525
189	0xbd19bd04	-0.037533775
190	0xbcd9d1e0	-0.026589334
191	0x3d8db487	0.069191985
192	0xbd8987de	-0.06715368
193	0x3be2d29b	0.006922079
194	0xbc831573	-0.016001439
195	0x3d811cff	0.06304359
196	0x3bfd686d	0.007733396
197	0x3bda6167	0.0066644433
198	0xbcb73e60	-0.02236861
199	0xbab33ed9	-0.0013675346
200	0xbbc89e55	-0.0061223903
201	0x3dae2fe8	0.08505231
202	0xbd113396	-0.035449587
203	0x3d47230b	0.048617404
204	0x3b284909	0.0025678298
205	0x3d00628b	0.031343978
206	0xbe0d5365	-0.13801344
207	0x3bb440ff	0.005500912
208	0x3c070eb7	0.008243254
209	0x3cdc5898	0.026897714
210	0x3c89e65a	0.016833473
211	0xbc78b3ef	-0.015179618
212	0xbdbe776d	-0.093001224
213	0x3dbffb89	0.093741484
214	0x3bea33e0	0.0071472973
215	0xbd30d4ef	-0.04317182
216	0x3d4b8a6f	0.049692567
217	0x3db65ec9	0.089047976
218	0xbc09272d	-0.008371157
219	0x3d256245	0.04037692
220	0x3c40a333	0.01175766
221	0xbcf504af	-0.02990946
222	0x3d2337bb	0.03984807
223	0xbd0affdd	-0.033935416
224	0x3ce3a9fd	0.027791018
225	0x3d4d1513	0.050068926
226	0x3df13b05	0.11778835
227	0x3d8c8689	0.06861598
228	0xbdda8782	-0.10670377
229	0xbd61dd20	-0.05514252
230	0xbd4a35ee	-0.049367838
231	0xbd908dca	-0.07058294
232	0xbc929e9f	-0.017897902
233	0x3d1e0bc7	0.03858545
234	0x3cc0bafb	0.02352666
235	0x3dc07dcd	0.093989946
236	0xbd454bc1	-0.048167948
237	0x3d8b5317	0.068029575
238	0xbd1f8511	-0.03894526
239	0xbc87919f	-0.01654893
240	0x3d3b6cfd	0.045758236
241	0xbe04c774	-0.1296671
242	0xbdba67c5	-0.09101824
243	0xbdb43968	-0.08800012
244	0xbd088762	-0.033332236
245	0x3d676fd2	0.056503125
246	0x3d4e55d2	0.050374813
247	0xbd315eba	-0.04330323
248	0xbd44cd30	-0.048047245
249	0xbd3b4ffd	-0.04573058
250	0x3d0d5a28	0.034509808
251	0xbd3c22b7	-0.045931544
252	0x3d85099f	0.06495976
253	0xbc2ccfab	-0.010547559
254	0x3c9a4ccf	0.018835453
255	0x3d70d640	0.058798075

conv1.bias f4 [32]
0	0xbd65b61b	-0.056081872
1	0x3cd17b62	0.025571529
2	0x3ce99cc5	0.028517136
3	0x3cc44d80	0.023962736
4	0xbddd334d	-0.108008005
5	0x3c096dde	0.008388011
6	0x3c969f97	0.018386645
7	0x3d20e2be	0.03927874
8	0xbcd3209b	-0.025772383
9	0xbd6ef3b3	-0.05833788
10	0x3de24738	0.1104874
11	0xbda0faaa	-0.078603104
12	0xbd41ba6a	-0.04729692
13	0xbdc5159f	-0.096232645
14	0xbc8d1ab3	-0.017224645
15	0xbd669862	-0.056297667
16	0x3d88fea5	0.066891946
17	0x3c03b4b6	0.00803869
18	0x3dc6995d	0.096972205
19	0xbd714a6d	-0.05890887
20	0x3debbd17	0.115106754
21	0x3ddfbcea	0.109247044
22	0x3d2e97a0	0.04262507
23	0x3c7b02b0	0.015320465
24	0x3c69637b	0.014244909
25	0xbe593217	-0.21210514
26	0x3e1b8378	0.1518687
27	0x3d2a5d1e	0.04159271
28	0xbcedebf7	-0.02904318
29	0xbb8d44fb	-0.0043112016
30	0xbd65ebd3	-0.056133103
31	0x3d8ec8e7	0.06971913

conv2.weight f4 [64, 32, 3, 3]
0	0x3c2345b3	0.009965348
1	0xbcde87a3	-0.027164286
2	0x3c6c8e5b	0.014438237
3	0xbc0a86b2	-0.008454965
4	0xbca9da98	-0.020734116
5	0xbc067eb1	-0.0082089165
6	0xbb8a1e5d	-0.0042150454
7	0x3b9681b8	0.0045931004
8	0x3a779078	0.000944383
9	0x3cce553d	0.02518713
10	0x3bb3b2a0	0.0054839402
11	0xbb2537ca	-0.0025210255
12	0xbd04cb08	-0.03242019
13	0xbc831ee5	-0.016005943
14	0xbca2ffa7	-0.019897295
15	0xbb286722	-0.0025696238
16	0x3b84651c	0.0040403735
17	0x3ab18085	0.001354233
18	0xbc4fe45f	-0.012688725
19	0xbc89e2ba	-0.016831744
20	0xbc922b0d	-0.017842794
21	0x3bec6c2b	0.007215043
22	0x3adfe5dd	0.0017082054
23	0x39b0c879	0.000337187
24	0xbcd2fc28	-0.025755003
25	0xbce360ea	-0.027756173
26	0x3c576c60	0.013148397
27	0xbc7545ed	-0.014970285
28	0xbc609f3f	-0.013709842
29	0xbc8885a5	-0.01666529
30	0xbc8187e3	-0.015811866
31	0x3cb6ccf4	0.022314526
32	0xbcabf487	-0.020990623
33	0x36a36498	4.869489e-06
34	0xbc97dbbb	-0.018537393
35	0x39cbc0f5	0.0003886294
36	0x3d03f660	0.032217383
37	0x3bc81410	0.0061059073
38	0xbc7dafb0	-0.015483782
39	0x3bb3850b	0.0054785064
40	0x3c84af18	0.016196772
41	0xbc41123f	-0.011784135
42	0xba1bc7cf	-0.00059425546
43	0xba971523	-0.0011526685
44	0xbc349bc7	-0.011023468
45	0x3c4c4853	0.012468415
46	0xbc4ff758	-0.012693249
47	0x3ca5ddbd	0.020247335
48	0xbcfb3ccb	-0.030668637
49	0x3c842f67	0.016135884
50	0xbc8100a4	-0.015747376
51	0x3c539995	0.012915035
52	0xbd0fcca5	-0.035107274
53	0xbcbf2ea2	-0.023337666
54	0xbd15c239	-0.03656218
55	0xbcdeb553	-0.027186072
56	0x3ba7dca7	0.0051227394
57	0xbbb8d76d	-0.005640915
58	0xbb292ac8	-0.0025812853
59	0xbcaaf9a9	-0.020871
60	0x3cc80b77	0.02441953
61	0xbbff12da	-0.0077842297
62	0x3b82c655	0.003990928
63	0xbc96b0dd	-0.018394882
64	0xbb582f13	-0.0032987043
65	0xbc9a38d4	-0.018825926
66	0xbabc8beb	-0.001438496
67	0xbd093142	-0.03349424
68	0xbce1fe60	-0.027587116
69	0xbc627ae3	-0.013823244
70	0x3b80dd9c	0.003932668
71	0xbc8cdc62	-0.01719493
72	0x3bc57678	0.0060260855
73	0x3c2a912a	0.010410586
74	0xbb717a10	-0.0036846437
75	0x3c20fb81	0.009825588
76	0xbc2b46d0	-0.010453895
77	0xbc804da4	-0.015662022
78	0xbc00f74b	-0.007871459
79	0x3c35377a	0.01106059
80	0xbcb81924	-0.022472925
81	0xbc52d4a3	-0.012868079
82	0x3bb3a54f	0.005482353
83	0xbcd9b0b8	-0.026573524
84	0x3c892890	0.016742975
85	0xbcce5510	-0.025187045
86	0x3a8c3687	0.0010697403
87	0x3c9c861f	0.019106923
88	0xbce24458	-0.02762048
89	0xbd1c37a1	-0.03813899
90	0xbd1d9ee8	-0.038481623
91	0xbc551e9d	-0.013007787
92	0x3bf6e213	0.0075342744
93	0x3c69d357	0.014271579
94	0xbc2b2a77	-0.010447136
95	0x3bb92a02	0.0056507597
96	0xbb0ea6a7	-0.0021766813
97	0x3ac25ca3	0.0014828633
98	0xbcb27d48	-0.021788254
99	0xbcd7cab0	-0.026341766
100	0x3cb6acfa	0.022299279
101	0xbc05a7d0	-0.008157685
102	0xbc6d0370	-0.014466152
103	0xbcf8cbd8	-0.030370638
104	0x3c68afb2	0.014202045
105	0xbd035368	-0.032061964
106	0xbcc8a00f	-0.024490384
107	0x3c730a47	0.014833993
108	0xbcd002f3	-0.025392031
109	0x3b363ab8	0.0027805995
110	0xbb28bf44	-0.0025748769
111	0xbaf5f108	-0.001876385
112	0xbc9085a3	-0.017641848
113	0xbc15790a	-0.009123096
114	0xba6abebb	-0.00089548127
115	0xbc8bbca3	-0.017057722
116	0x3a162125	0.0005726985
117	0xbd06739f	-0.03282511
118	0xbc2955c2	-0.010335388
119	0xbcdbbebf	-0.026824353
120	0xbc65bff8	-0.01402282
121	0xbc929cd0	-0.01789704
122	0xbadbfdff	-0.0016784071
123	0x3c0ae3cf	0.008477165
124	0x3bb19ac7	0.005420062
125	0xbc573983	-0.01313627
126	0xbcb9d768	-0.022685722
127	0x3b169527	0.0022977085
128	0xbb99321f	-0.0046751644
129	0xbc8b826f	-0.017029969
130	0xbcd225d7	-0.025652809
131	0xbc879240	-0.01654923
132	0xbc4968b1	-0.012293027
133	0xbd0119ab	-0.03151862
134	0x3c0c61b7	0.008568219
135	0x3907ca23	0.00012949905
136	0x3c5f657b	0.013635035
137	0xbcb68ecd	-0.02228489
138	0xbc8b5f10	-0.017013103
139	0xbc3ed51f	-0.011647492
140	0xbc800a35	-0.015629867
141	0xbc12051c	-0.008912351
142	0xbcb4ae3f	-0.022055743
143	0xbbf7136a	-0.007540156
144	0xbcbcdf39	-0.02305566
145	0xbc56a663	-0.013101193
146	0xbce8e1d8	-0.028428003
147	0xbc75c55d	-0.015000668
148	0x3c9ac45c	0.01889246
149	0xbab6ab63	-0.0013936575
150	0xbc32ca58	-0.0109125
151	0xbbf1b962	-0.0073768357
152	0xbca291bc	-0.019844882
153	0xbc23a82b	-0.009988825
154	0xbc373577	-0.011182181
155	0xbc63a85a	-0.013895119
156	0x3bf53b38	0.007483866
157	0x3c205b7b	0.009787436
158	0xbbe298ad	-0.006915173
159	0x3c0372e7	0.008023
160	0xbbe0854a	-0.006851827
161	0xbc392192	-0.011299508
162	0xbbe11988	-0.0068694986
163	0x3c78d84d	0.015188289
164	0x3c8edd3f	0.017439483
165	0xbced33f0	-0.02895543
166	0x3b1819a2	0.0023208638
167	0xbb27e108	-0.0025616307
168	0xbcd89bc3	-0.02644146
169	0x3c0f116f	0.008732184
170	0xbcb4ad0a	-0.022055168
171	0xbb974829	-0.0046167565
172	0xbba0bbf5	-0.0049052187
173	0xbcc6526a	-0.02420922
174	0xbb6b21b8	-0.0035878252
175	0xbc8cd04c	-0.017189167
176	0xbce4a4eb	-0.02791067
177	0x3a6c0617	0.0009003593
178	0xbb093d94	-0.0020941244
179	0x3d0c7537	0.034291472
180	0xbb1f62a7	-0.0024320276
181	0xbc11f867	-0.008909321
182	0xbcbbf02f	-0.022941677
183	0xbb7ef2f0	-0.0038902126
184	0xbc606885	-0.013696794
185	0xbb58b33f	-0.0033065823
186	0xbc74fdf0	-0.014953122
187	0x3cc56a38	0.0240985
188	0xbc19c7c2	-0.009386005
189	0xbcaa4b92	-0.020787988
190	0xbbb183a2	-0.005417303
191	0xbb649e77	-0.0034884491
192	0xbc9a285f	-0.018818079
193	0xbb49c7c5	-0.0030789238
194	0x3c988a13	0.018620526
195	0xbbc228e8	-0.0059252866
196	0x3c9731a4	0.018456288
197	0xbb918170	-0.004440479
198	0x3a8109fb	0.0009844893
199	0x3c7f4a6f	0.015581711
200	0xbc59fc5d	-0.013304797
201	0xbb08a548	-0.0020850468
202	0x3ceff3ab	0.029290995
203	0x3c6ba3af	0.014382287
204	0x3b93ab4c	0.004506504
205	0x3c449032	0.0119972695
206	0xbcff0768	-0.031131461
207	0xbc9832ef	-0.018578975
208	0xb9eef0f5	-0.00045574424
209	0xbc300695	-0.010743757
210	0xbcd145aa	-0.025545914
211	0xbc00a212	-0.007851141
212	0xba030bc0	-0.00049990043
213	0xbc16870f	-0.009187474
214	0x3cf1ab52	0.029500637
215	0x3c993963	0.018704122
216	0xbcda4c40	-0.026647687
217	0xbd0ae874	-0.03391309
218	0xbd09b67f	-0.033621307
219	0x3c5b2832	0.0133762825
220	0x3c8c1bb3	0.017103052
221	0xbcac190b	-0.021008035
222	0x3c0d6d58	0.008632027
223	0x3bab3ada	0.0052255215
224	0x3a7d8807	0.0009671454
225	0x3c5b46e0	0.013383597
226	0xba865ac1	-0.0010250435
227	0xbab45be4	-0.0013760296
228	0xbc2d742f	-0.010586782
229	0xb98dda30	-0.00027056178
230	0xbcb1fe08	-0.021727577
231	0xbc2c4413	-0.010514277
232	0xbbcd45df	-0.006264433
233	0xbcb8f422	-0.02257735
234	0x3c0616c7	0.0081841415
235	0xbbc25aa7	-0.0059312168
236	0xbd131d47	-0.035916593
237	0xbab3549b	-0.0013681831
238	0xbc111977	-0.008856169
239	0xbc262329	-0.010140219
240	0xbcb960b0	-0.022629112
241	0xbcde48ad	-0.027134264
242	0x3bc05eab	0.0058706603
243	0xbbde72aa	-0.0067885714
244	0x3ca4cbbf	0.020116685
245	0x3d111227	0.035417702
246	0xbb5b22fb	-0.0033437598
247	0xbcb5541d	-0.022134835
248	0xbc46989a	-0.012121344
249	0xbb8d15bf	-0.004305571
250	0x3b983535	0.0046450146
251	0xbcef20c0	-0.029190421
252	0x3ba16b17	0.004926096
253	0xbca3771f	-0.019954262
254	0x3b92112a	0.0044576125
255	0xbd15ee62	-0.036604293

conv2.bias f4 [64]
0	0x3c976cdc	0.018484525
1	0xbc39d065	-0.011341189
2	0x3a48b27c	0.0007655991
3	0x3d3d7bd4	0.04626067
4	0xbd4d3ecf	-0.050108727
5	0xbbc47402	-0.0059952745
6	0x396e93c0	0.0002275249
7	0xbc9dce57	-0.01926343
8	0xbcdcc80f	-0.026950864
9	0x3bc6ee37	0.006070878
10	0x3bd407f5	0.006470675
11	0x3c415c4b	0.0118017895
12	0x3b3bbad7	0.00286453
13	0xbbfa1f6a	-0.0076331394
14	0xbc0e23cb	-0.008675526
15	0xbd1e802f	-0.038696464
16	0x3c17bde5	0.009261583
17	0x3df14668	0.11781007
18	0x3d1cb85d	0.03826176
19	0xbcec201f	-0.02882391
20	0xbd261f70	-0.040557325
21	0xbc0ec5b2	-0.008714126
22	0xbbe484f8	-0.006973859
23	0xbd130974	-0.035897687
24	0x3d1533fd	0.036426533
25	0xbcc67d1d	-0.02422958
26	0xbc8108c3	-0.015751248
27	0x3d0da3fd	0.03458022
28	0x3d6bc247	0.057558324
29	0xbd1f44cb	-0.038883965
30	0xbc515c30	-0.012778327
31	0xbaa300d3	-0.0012436159
32	0xbb2d19f9	-0.0026413186
33	0xbd7f8c20	-0.062389493
34	0xbda1105d	-0.07864449
35	0x3d9a2873	0.07527246
36	0xbbc158cc	-0.005900478
37	0x3c03bc8b	0.008040558
38	0x3bbdea78	0.005795773
39	0x3d86fc99	0.06591148
40	0xba7ccf42	-0.0009643921
41	0xbc926a9a	-0.017873097
42	0x3cab4a36	0.02090941
43	0xba8d7bde	-0.0010794362
44	0xba08c46f	-0.0005217259
45	0xbc944885	-0.018100986
46	0x3c086b65	0.008326386
47	0x3c8352e9	0.016030746
48	0xbcf0e102	-0.029404167
49	0x3bcc03bc	0.006226031
50	0xbd3204bb	-0.043461543
51	0x3d138de0	0.036023974
52	0xbc3e61c3	-0.011619988
53	0xbcb44b8c	-0.02200868
54	0x3dcdd5fd	0.10050581
55	0x3c6dd20b	0.01451541
56	0xbc8c1b95	-0.017102996
57	0x3d48d93a	0.04903529
58	0x3b91fbb7	0.0044550556
59	0xbd39bda4	-0.04534687
60	0x3d96dc1b	0.073662005
61	0x3c0bd8bc	0.00853556
62	0x3d864147	0.065554194
63	0x3ca79a85	0.020459423

conv3.weight f4 [64, 64, 3, 3]
0	0x3bd86915	0.0066043236
1	0x3bc75e2a	0.0060842233
2	0x3c2f3f01	0.010696174
3	0xbc8b3eb1	-0.016997667
4	0xbcc78c6f	-0.024358956
5	0x3b3effe7	0.002914423
6	0xbbb7a477	-0.0056043225
7	0xbcab56ca	-0.020915408
8	0xbbc2a65f	-0.005940243
9	0xbb833ae8	-0.004004825
10	0x3ac0994f	0.0014694127
11	0xbc748efb	-0.014926667
12	0x3bd1b297	0.0063994634
13	0x3c754f87	0.014972574
14	0xbbd48b80	-0.0064863563
15	0xbc1e2a94	-0.009653706
16	0x3b1a379a	0.0023531676
17	0x3c081347	0.008305377
18	0x3b1831bc	0.0023223003
19	0x3c5b6e17	0.013392947
20	0x3b3c66a8	0.0028747711
21	0x3bdd242a	0.006748696
22	0xbc6f38f2	-0.014600979
23	0xbc5946a5	-0.013261472
24	0xbc60febb	-0.0137326075
25	0x3beb69e8	0.007184256
26	0xbc559b48	-0.01303751
27	0x3a4bb3df	0.00077706383
28	0x3c9b5312	0.01896051
29	0x3b8be2e9	0.004268993
30	0xbcafb420	-0.021448195
31	0x3c110252	0.008850651
32	0x3c1c1a28	0.0095277205
33	0xbcb4e609	-0.022082346
34	0xbcc1cb3c	-0.02365648
35	0xbbd9060a	-0.0066230344
36	0xbc8549c9	-0.016270535
37	0xbc06d7f9	-0.008230203
38	0x3c39d6b2	0.011342691
39	0x3c3c9ce7	0.011512018
40	0x3bd260bf	0.0064202244
41	0x3b0fb68b	0.0021928872
42	0xbb792b1f	-0.0038020087
43	0xbcade78f	-0.02122858
44	0xbc8ffedd	-0.017577583
45	0x3c056141	0.008140863
46	0xbb05e077	-0.002042798
47	0xbc9294d9	-0.017893242
48	0x3c10bae7	0.0088336235
49	0xbbbb5d3f	-0.005717903
50	0xbc8248cb	-0.015903851
51	0x3c3e32a2	0.0116087515
52	0x3bd17162	0.00639169
53	0xbce0cf55	-0.027442614
54	0x3abdb070	0.0014472138
55	0xbc37fac3	-0.01122922
56	0xbc023473	-0.007947075
57	0xbcabc25b	-0.0209667
58	0xbc63af5b	-0.0138967885
59	0xbb696cc5	-0.003561781
60	0x3be37558	0.0069414787
61	0x3c22cfe5	0.009937261
62	0x3bc8aefc	0.0061243754
63	0xbc5e8fe0	-0.013584107
64	0xbc165879	-0.009176367
65	0xbb6a883a	-0.0035786764
66	0x39148087	0.0001416226
67	0xbaf07337	-0.0018344884
68	0x3b25afc2	0.0025281762
69	0xbc9405f2	-0.018069241
70	0xbba8c1c3	-0.0051500513
71	0xbccd9ba5	-0.025098631
72	0xbb1a9482	-0.0023587053
73	0xbbf5b257	-0.0074980664
74	0xbc05870f	-0.008149876
75	0xbc358b0f	-0.011080517
76	0xbc9802b2	-0.018555973
77	0xbb0cbecb	-0.0021476026
78	0x3be49447	0.006975684
79	0xbb65378a	-0.003497573
80	0x3c0a3dd5	0.0084375935
81	0xbbc4d8a4	-0.006007271
82	0xbb678983	-0.0035329766
83	0xbba6931a	-0.005083454
84	0xbcbb7d10	-0.022886783
85	0xbcd20db8	-0.025641307
86	0x3c0dc5f4	0.008653153
87	0x3c89636f	0.016771046
88	0xbc552e1d	-0.013011483
89	0xbb02ac4b	-0.001993912
90	0xbc261eaa	-0.010139147
91	0xbb9a1868	-0.0047026165
92	0xbc8e6657	-0.017382784
93	0xbba52315	-0.0050395825
94	0x3bf1f555	0.007383982
95	0xbc3c4581	-0.01149118
96	0xbbb9f443	-0.00567487
97	0x3c0f7b6c	0.008757453
98	0x3c00400f	0.007827773
99	0xbbecd7da	-0.00722788
100	0xb9cffb7b	-0.00039669484
101	0xbb93c2fb	-0.0045093275
102	0x3c0828ef	0.008310541
103	0xbba1e179	-0.0049402085
104	0xbb211a02	-0.0024582152
105	0xbbd8d7a0	-0.0066175014
106	0xbb2b1dad	-0.0026110217
107	0xbbefcaeb	-0.007317891
108	0x3c555288	0.013020165
109	0xbbe26f75	-0.0069102594
110	0xbcf6dab8	-0.03013359
111	0xbc81e18f	-0.015854625
112	0x3c556d43	0.013026538
113	0xbbc3ac43	-0.005971463
114	0x3b072062	0.0020618667
115	0xbc20fdf3	-0.009826171
116	0xbc1a01ca	-0.009399841
117	0x3b841a99	0.004031491
118	0x3c436503	0.011925939
119	0x3c0941eb	0.0083775325
120	0x3a693788	0.00088965194
121	0xbc842a35	-0.016133407
122	0xbbba26a7	-0.0056808772
123	0xbbc3bf32	-0.00597372
124	0xbacebc40	-0.0015772656
125	0xbb853658	-0.004065316
126	0xbc057427	-0.008145369
127	0xbc8272b3	-0.015923833
128	0x3c38fc2f	0.011290594
129	0xbc02ccf3	-0.007983434
130	0xbb4c11af	-0.003113847
131	0x3a6e60b3	0.0009093389
132	0xbb00993b	-0.0019622582
133	0xbc154fe4	-0.009113286
134	0xbc9ec090	-0.01937893
135	0x3c3a7373	0.011380064
136	0x3b1ae075	0.0023632322
137	0x3be31c2f	0.00693085
138	0xbc5c2a7d	-0.013437864
139	0xbc9f7f33	-0.019469833
140	0xbc238ddc	-0.009982552
141	0xbc286b40	-0.010279477
142	0xbbbf5dca	-0.005840038
143	0xbc324e7b	-0.010882969
144	0xbb87ec3d	-0.004148035
145	0xbbd7fbf7	-0.006591316
146	0xbc161320	-0.009159833
147	0x3c650e33	0.013980436
148	0x3b9c3508	0.004767064
149	0xbc99ea5d	-0.018788511
150	0xb998dfc3	-0.00029158415
151	0xbc95620a	-0.018235225
152	0xbb0a23e8	-0.002107853
153	0x3b9ac5f0	0.004723303
154	0xbb6ccbd5	-0.0036132236
155	0xbbe1ff5d	-0.0068968968
156	0x3bf3782a	0.007430096
157	0xbb03e398	-0.002012467
158	0x3b97fed2	0.0046385312
159	0xbc5ee728	-0.013604917
160	0xbb7c580a	-0.0038504624
161	0xbc5814fd	-0.013188598
162	0x3c5b013d	0.013366994
163	0x3c99d27b	0.018777123
164	0x3b226a48	0.0024782587
165	0xb8e44658	-0.0001088499
166	0x3ab4dd0f	0.0013798791
167	0xbc281728	-0.010259427
168	0xbbb6cf87	-0.0055789384
169	0x3bbde737	0.005795385
170	0x38ccb58f	9.761296e-05
171	0xbb8fa477	-0.0043836194
172	0xbc00627a	-0.007835979
173	0xba471e6f	-0.00075957825
174	0x3bc2c590	0.0059439614
175	0xbcf99aef	-0.030469386
176	0x3c28507f	0.010273098
177	0xbc9ea4a3	-0.019365614
178	0x3b827c87	0.00398213
179	0xbc9add3f	-0.018904326
180	0xbb0acdd5	-0.0021179814
181	0xbab021df	-0.0013437829
182	0xba4d5387	-0.0007832576
183	0xbacac8b1	-0.0015471188
184	0xbcb7bec9	-0.02242984
185	0xbc014d6b	-0.007891993
186	0xbb93d32d	-0.004511258
187	0xbafc5a27	-0.0019252942
188	0xbb9285e3	-0.004471527
189	0xbc81260b	-0.01576521
190	0x3c08499f	0.008318334
191	0x3b0f243f	0.0021841673
192	0x3c4ca0bb	0.012489493
193	0xbb60acea	-0.0034282752
194	0x3b1a5360	0.002354823
195	0x3b5d0a90	0.003372822
196	0xb9132865	-0.0001403406
197	0x3c0f7483	0.008755806
198	0xbcb1c46a	-0.021700103
199	0x3aa7314f	0.0012755784
200	0x3c2570ab	0.010097663
201	0xba78b6bd	-0.00094876793
202	0xbc1bfcd4	-0.009520728
203	0x3bae83e8	0.005325783
204	0xbcb588da	-0.022159982
205	0xbba11d3b	-0.0049168146
206	0x3be1029d	0.0068667666
207	0xbc6d6348	-0.0144890025
208	0x3c59eb4a	0.013300726
209	0xbc54dba8	-0.012991823
210	0xbcd93365	-0.026513765
211	0xbae67940	-0.0017583743
212	0x3b7b8c6f	0.0038383265
213	0xbc59d167	-0.013294554
214	0xbbbfec5a	-0.0058570327
215	0xbb850993	-0.004059979
216	0xbc047fab	-0.008087079
217	0xbbcf33f3	-0.0063233315
218	0xbcd3ed77	-0.025870068
219	0xbad395e0	-0.0016142689
220	0xbc03238b	-0.00800408
221	0x3a95ad63	0.0011419471
222	0xbc8f3528	-0.017481402
223	0x3b6d2a23	0.0036188446
224	0xbc908064	-0.017639346
225	0xbc6308f2	-0.013857113
226	0xbc3f1b78	-0.011664264
227	0xbc42b199	-0.011883163
228	0xbca457c0	-0.020061374
229	0xbc838134	-0.01605282
230	0x39673fe7	0.00022053682
231	0x3ba090dc	0.004900081
232	0x3b628f43	0.0034570254
233	0x3ca26ac7	0.019826306
234	0x3bb5c38f	0.005546994
235	0x3ccf5e25	0.025313446
236	0x3c06d8ab	0.008230369
237	0x3a75260d	0.00093516783
238	0xbcb72b47	-0.022359503
239	0xbc19748b	-0.009366165
240	0xbaffd6b2	-0.001951894
241	0xbcb644c0	-0.02224958
242	0xbc3f0677	-0.011659256
243	0x3c6a65b3	0.014306474
244	0xbc160163	-0.009155604
245	0x3b13b975	0.002254096
246	0xbc7307f7	-0.014833442
247	0xbc1db81f	-0.009626417
248	0xbc042aeb	-0.008066873
249	0xbc3509ea	-0.011049727
250	0xbb97cf00	-0.0046328306
251	0x3c304f43	0.010761085
252	0xbbdd4eff	-0.006753802
253	0x3bf5b10f	0.0074979137
254	0xbccff460	-0.025385082
255	0xbc85835b	-0.016297987

conv3.bias f4 [64]
0	0xbbf50533	-0.0074774264
1	0xbbf8f9db	-0.0075981445
2	0xbbf897b5	-0.0075864443
3	0xbb030ef3	-0.0019997924
4	0x3c063cb3	0.008193183
5	0xbc7bd973	-0.015371668
6	0xbc5103ba	-0.012757236
7	0xbc02842a	-0.007966081
8	0x3b48b427	0.0030624957
9	0xbcde6068	-0.02714558
10	0x3c82fb72	0.01598904
11	0xbc14a78d	-0.00907315
12	0xbc4f6840	-0.0126591325
13	0xbb85f7b8	-0.0040883683
14	0xbc0d9ad2	-0.008642869
15	0x3c9b49b2	0.01895604
16	0xbd3f9e57	-0.046781864
17	0x3cf6461d	0.03006273
18	0xbc3d00ef	-0.011535867
19	0xbbfe4a1a	-0.0077602984
20	0xbbcf8a3f	-0.006333619
21	0xbd5998eb	-0.05312435
22	0x3c5074c5	0.0127231525
23	0xbc5ffe63	-0.01367149
24	0x3acc5f37	0.0015592341
25	0xbb6b7d8d	-0.0035932988
26	0xbba5d42a	-0.0050606923
27	0xbc1286b3	-0.008943248
28	0xbb3e0dd5	-0.0028999944
29	0x3bf22540	0.0073896945
30	0x3c40084c	0.011720728
31	0xbcc20a1f	-0.023686467
32	0x3c07ff37	0.008300594
33	0x3c015bb1	0.007895396
34	0x3c0b0ccf	0.0084869405
35	0xbcd90000	-0.026489258
36	0xbc3f80ff	-0.01168847
37	0xbc150772	-0.009096013
38	0xbbda9460	-0.0066705197
39	0xbc2d3217	-0.010571024
40	0xbc2cf827	-0.010557211
41	0xbc3e8867	-0.011629201
42	0x3c994f23	0.018714493
43	0x3b42b348	0.002970891
44	0x3cc2840b	0.023744604
45	0xbc8ad03b	-0.016944995
46	0x3bd1efeb	0.0064067743
47	0xbca00adc	-0.019536428
48	0xbb139449	-0.0022518805
49	0xbb89c718	-0.004204642
50	0x3bcd2127	0.0062600556
51	0x3bd2b8b2	0.006430709
52	0x3a16c269	0.0005751015
53	0x3dd4d26b	0.103916965
54	0x3b4ea675	0.0031532322
55	0xbc63cdaf	-0.013904019
56	0xbb505303	-0.003178776
57	0xbc3fec1a	-0.011714006
58	0xbb03b19f	-0.0020094884
59	0x3cb2db28	0.021833017
60	0xbbe40092	-0.006958076
61	0xbbb2fd07	-0.005462292
62	0xbc09a018	-0.008399986
63	0xbc2a5a67	-0.01039753

fc1.weight f4 [64, 1024]
0	0xbba58698	-0.005051445
1	0xbb7c4efb	-0.0038499224
2	0x3c208d4f	0.009799316
3	0x3b82a753	0.0039872318
4	0xbbd8dab2	-0.0066178674
5	0x3bcb94bb	0.0062127984
6	0x3b74f58b	0.00373778
7	0x3beff6c8	0.00732312
8	0x3b56d32a	0.0032779672
9	0xbb31342f	-0.002703916
10	0xbb86d809	-0.004115109
11	0x3c718587	0.014741308
12	0xbafc6f9a	-0.0019259334
13	0x3b4f27df	0.0031609458
14	0xbbb23b97	-0.0054392326
15	0x3bf5bdb2	0.00749942
16	0x3a9486cd	0.0011331678
17	0x3ba7bb5a	0.0051187696
18	0xbb1969f8	-0.002340911
19	0xbbf675b2	-0.0075213546
20	0x3b8b35c7	0.004248354
21	0xbc31d147	-0.010853118
22	0x3b90e3ba	0.0044216784
23	0x3ba84219	0.0051348326
24	0x3c6d29d5	0.014475306
25	0xbc9e630a	-0.019334335
26	0x3b96714f	0.004591144
27	0xbbe36cb2	-0.0069404477
28	0xbb5065dd	-0.0031798996
29	0xbc54c115	-0.0129854875
30	0x3af45d5f	0.0018643549
31	0x3b61753d	0.0034402155
32	0x3a12f022	0.00056052406
33	0xbc58400b	-0.013198863
34	0xbbc68987	-0.006058875
35	0xbbb9f0a0	-0.0056744367
36	0x3bb283bf	0.0054478343
37	0xbbe53d58	-0.006995838
38	0xbb02e142	-0.001997069
39	0xbafe5687	-0.0019404449
40	0xbbb785ca	-0.0056006657
41	0x3b8c5823	0.0042829677
42	0xbc458b88	-0.012057193
43	0xbb5425d3	-0.0032371178
44	0x3bfb8f50	0.0076769963
45	0x3c434080	0.0119172335
46	0xbc66be1f	-0.014083414
47	0xbb21d8eb	-0.0024695944
48	0xba334bea	-0.000683962
49	0x3c23833a	0.009980017
50	0xb9a7f9e7	-0.00032038914
51	0xbac286ba	-0.0014841177
52	0x3cb43348	0.021997109
53	0x3b4b4be7	0.0031020583
54	0xbca74bcf	-0.02042189
55	0x3b083912	0.002078597
56	0x3ac3a7c8	0.0014927322
57	0x3c24637f	0.010033487
58	0x3abc79c7	0.0014379554
59	0x3ca2d50f	0.019876985
60	0x3b3bb750	0.0028643198
61	0x392f2f82	0.00016706999
62	0xbc1df6c8	-0.009641357
63	0xbb79aefd	-0.0038098686
64	0xbc5130c3	-0.012767973
65	0x3c25da3f	0.010122835
66	0x3d39c804	0.045356765
67	0x3ce9e058	0.028549358
68	0x3910ff05	0.00013827912
69	0x3c8b1c3d	0.016981238
70	0x3ba15283	0.0049231662
71	0xbc541123	-0.012943539
72	0xbc579103	-0.013157132
73	0xbce48d58	-0.02789943
74	0xbc73890a	-0.014864216
75	0xbd222b25	-0.039591927
76	0x3b908402	0.004410268
77	0x3d4fa8d2	0.05069811
78	0x3d340787	0.04395249
79	0xbc98f010	-0.018669158
80	0xbc215654	-0.009847242
81	0x3bfa0617	0.0076301205
82	0x3b76bb2b	0.0037648182
83	0x3b4f926f	0.0031672975
84	0xbbfbe4a0	-0.0076871663
85	0xbb62cdd5	-0.0034607549
86	0xbc9834d5	-0.01857988
87	0xbc74173f	-0.01489812
88	0xbc85359f	-0.01626092
89	0xbb936604	-0.004498245
90	0xb949e71b	-0.00019254947
91	0x3b543ad3	0.0032383695
92	0xbbca64e3	-0.0061765774
93	0x3ad97818	0.0016591577
94	0x3c4255ba	0.011861259
95	0xbb3c1db7	-0.0028704235
96	0xbbdb4117	-0.006691109
97	0x3a95b313	0.0011421166
98	0xbb58848b	-0.0033037986
99	0xbb7e576b	-0.003880943
100	0x3bf143d3	0.0073628216
101	0x3bc0e577	0.0058867293
102	0x3b5355a5	0.0032247093
103	0x3bd6892f	0.0065471153
104	0xbb830f3c	-0.003999619
105	0xbc6c215f	-0.014412253
106	0xbb8d6b81	-0.004315794
107	0xbbac430a	-0.005257015
108	0xb897848d	-7.2249306e-05
109	0xbc1f10f7	-0.009708635
110	0x3b758f70	0.0037469529
111	0x3c4f96c0	0.012670219
112	0xbca5abbf	-0.020223496
113	0x3c37c380	0.011216044
114	0xbb2e267a	-0.0026573227
115	0xba86d057	-0.0010285479
116	0x3b889fd2	0.0041694427
117	0xbb262e51	-0.0025357197
118	0xbb111974	-0.0022140415
119	0xbc626fca	-0.013820598
120	0x3bb4c587	0.005516711
121	0x3b63af2a	0.0034741857
122	0x3c3a6d18	0.011378549
123	0x3c604708	0.01368881
124	0x3c01497c	0.007891055
125	0x3bb082db	0.005386693
126	0xbc54180d	-0.012945187
127	0x3be40d72	0.0069596106
128	0x3b16619a	0.0022946359
129	0xbbe3ac42	-0.006948025
130	0x3c0f26b8	0.008737259
131	0x3c3dbd1b	0.011580731
132	0x3c49d438	0.012318663
133	0xbb5c9867	-0.0033660175
134	0x3b514577	0.0031932273
135	0xbbfe0417	-0.0077519524
136	0x3b546057	0.0032406056
137	0xbb9d176f	-0.0047940533
138	0x3c68cbad	0.014208716
139	0x3b3123f0	0.0027029477
140	0xba524073	-0.0008020468
141	0x3b8d649f	0.0043149735
142	0x3c05352f	0.008130356
143	0xbbd598f8	-0.0065184794
144	0xbd031a13	-0.03200729
145	0x3be00fea	0.0068378346
146	0x3d49d088	0.049271137
147	0x3d7375e3	0.059438597
148	0xbd931c87	-0.071831755
149	0xbc5c1f80	-0.013435245
150	0x3ccddaa2	0.025128666
151	0x3d574853	0.052559208
152	0xbd9a40ff	-0.07531928
153	0xbbfeb9d3	-0.007773617
154	0x3c15610d	0.009117377
155	0x3d9acbb0	0.075583816
156	0xbd322e07	-0.043500926
157	0x3c0d4463	0.008622262
158	0x3c3107d1	0.010805086
159	0x3d5ddbd7	0.054164734
160	0x3bae5810	0.0053205565
161	0x3b643b6a	0.0034825453
162	0xbc6c2793	-0.014413732
163	0x3bb0f5af	0.0054003815
164	0xba67e945	-0.00088467106
165	0xbc0b31b7	-0.00849574
166	0xbb9f234a	-0.0048565017
167	0xba179992	-0.00057830766
168	0x3c2c528d	0.0105177285
169	0x3b70c700	0.0036739707
170	0x3a5a8945	0.0008336495
171	0x3bea1858	0.0071440153
172	0x3c8c82af	0.017152159
173	0x3bcd67a5	0.006268459
174	0x3c033761	0.008008809
175	0x3c172209	0.009224423
176	0xbc20fcd5	-0.009825905
177	0xbc7a3563	-0.015271517
178	0xbbfe9e5d	-0.007770343
179	0xba0bcce0	-0.0005332958
180	0xb9936fc7	-0.00028121306
181	0x3c72524d	0.01479013
182	0xb9a4b78b	-0.00031417268
183	0xbc18f2c8	-0.009335227
184	0x3b420361	0.0029604065
185	0xbc19152f	-0.0093434295
186	0x3b41fce3	0.0029600195
187	0xbc69ebf0	-0.014277443
188	0x3b29df6f	0.002592053
189	0x394ae0bf	0.00019347946
190	0xbabd3573	-0.0014435485
191	0xbbd6ddf2	-0.0065572197
192	0xbc5822b0	-0.013191864
193	0xbc0f984c	-0.008764338
194	0x3c2ce8d8	0.010553561
195	0xba173687	-0.0005768318
196	0x3c08734b	0.008328269
197	0x3b0cd43b	0.0021488804
198	0xbad25087	-0.0016045728
199	0xbba59f89	-0.0050544185
200	0xbb92e97b	-0.0044833994
201	0x3c484fea	0.012226084
202	0x3bbefc64	0.005828427
203	0x3c782202	0.015144827
204	0xbb6dbcbd	-0.0036275827
205	0xbb8710c5	-0.004121872
206	0xbaf16f5a	-0.0018420026
207	0x3bfe9d6f	0.0077702324
208	0x3b6de9bd	0.003630265
209	0xbb81e1bc	-0.003963677
210	0xbbe48a23	-0.006974475
211	0xbbb6df18	-0.005580794
212	0x3bd83c43	0.0065989806
213	0x3ca9c31f	0.020722924
214	0xbc0e397f	-0.0086807
215	0x3c5dbc07	0.013533599
216	0xbbe9e25b	-0.0071375794
217	0xbc127f25	-0.008941446
218	0xbae90953	-0.0017779268
219	0x3b165c1f	0.0022943092
220	0x3b0fa657	0.0021919215
221	0xbb0adbe7	-0.00211882
222	0x3b34dd38	0.0027597677
223	0x3c2cb5d3	0.010541397
224	0xbb4625fb	-0.003023504
225	0x3ad9308d	0.0016570255
226	0xbbd003b2	-0.0063480968
227	0xbb3d6f7b	-0.002890556
228	0xbb00800b	-0.001960757
229	0x3c160868	0.009157278
230	0x3c0d2143	0.008613887
231	0x3c8957a0	0.016765416
232	0x3bb23570	0.005438499
233	0xbb805fc5	-0.0039176666
234	0xbc4c2513	-0.012460011
235	0x399ebdb3	0.00030277445
236	0x3a82c4d0	0.0009976868
237	0x3a2595cc	0.0006316572
238	0xbc590410	-0.0132455975
239	0x3c25871b	0.010103012
240	0x3bd368c2	0.006451697
241	0xbb39024a	-0.0028230124
242	0x3c738980	0.0148643255
243	0x3cd056eb	0.02543207
244	0x3d16bc7f	0.036800858
245	0x3c9cb8fb	0.019131174
246	0x3c954c26	0.018224787
247	0x3d3fc68d	0.046820212
248	0xbbbd651b	-0.005779875
249	0xbb95300b	-0.0045528463
250	0x3c422d97	0.01185169
251	0x3d2ca395	0.04214819
252	0xbd9c433a	-0.0763001
253	0xbd1c4497	-0.03815135
254	0xbbd3639a	-0.0064510824
255	0x3cd2605b	0.025680711

fc1.bias f4 [64]
0	0xbc392cc3	-0.011302176
1	0xbcc39299	-0.023873614
2	0xbc8b8c23	-0.017034596
3	0xbcb2a9c7	-0.021809472
4	0xbc34f833	-0.011045503
5	0x3b53233b	0.0032217044
6	0xbd2d0765	-0.04224338
7	0xba9b7741	-0.0011861102
8	0xbc7fefc8	-0.015621133
9	0x3c406d8d	0.011744869
10	0xbbac54a4	-0.0052591134
11	0xbb01d1ca	-0.0019808882
12	0x3c1a4f7f	0.009418367
13	0xbcd28af0	-0.025701016
14	0xbbca0440	-0.0061650574
15	0xbafcfe2a	-0.0019301821
16	0xbbc14bcf	-0.0058989297
17	0xbd28f790	-0.04125172
18	0xbca75fcb	-0.02043142
19	0xbc161f9f	-0.0091628125
20	0x3bb03d23	0.005378382
21	0xbb9e5853	-0.0048323064
22	0xbca5910e	-0.020210769
23	0x3a75ec72	0.00093812414
24	0xba0c67ba	-0.00053560326
25	0x3d9ad43f	0.07560014
26	0x3ddeecc0	0.10885
27	0xbb83fc43	-0.0040278747
28	0x3a829cdd	0.0009964962
29	0x3c7f62aa	0.015587488
30	0xbc807940	-0.015682817
31	0x3cf096ad	0.029368723
32	0x3c096e4b	0.008388112
33	0x3d88e52e	0.066843376
34	0x3d5a86b3	0.053351115
35	0xbc001fbe	-0.007820068
36	0xbcb237ef	-0.021755187
37	0xbc98b9f1	-0.018643351
38	0x3da4f31c	0.08054182
39	0x3da73520	0.0816443
40	0xbd73a085	-0.059479255
41	0xbbe39b18	-0.006945979
42	0x3db3ce14	0.08779541
43	0xbc3692c2	-0.011143388
44	0xbc6078dd	-0.013700691
45	0x3c08c80c	0.008348476
46	0x3c3b3cab	0.011428039
47	0x3bc08b85	0.005876007
48	0x3b52a5c7	0.0032142268
49	0xbd3560df	-0.044281837
50	0xbb136e51	-0.0022496174
51	0x3bc5b337	0.006033327
52	0xb8b9962b	-8.8494584e-05
53	0x3c5509f0	0.013002858
54	0xbc94b807	-0.018154157
55	0xbd263166	-0.040574454
56	0x3c41fbfd	0.011839864
57	0x3b9d6cdd	0.0048042373
58	0xbbb75fcb	-0.005596136
59	0xbcdf3220	-0.027245581
60	0xbbc14f85	-0.005899372
61	0xbd7a1cbd	-0.061062563
62	0x3cf06a67	0.029347612
63	0x3d0b6864	0.0340351

fc2.weight f4 [10, 64]
0	0x3dc08f02	0.094022766
1	0x3cffd95b	0.031231573
2	0x3d390b2b	0.045176666
3	0xbc223da9	-0.009902396
4	0xbd3698c8	-0.044579297
5	0xbc13b29d	-0.009014753
6	0x3dfa6745	0.12226728
7	0x3b2370af	0.002493899
8	0x3ccf4e9d	0.02530604
9	0x3d147d17	0.036252107
10	0xbd92b5ba	-0.07163568
11	0x3d4f2a98	0.05057773
12	0xbd31e94b	-0.043435376
13	0x3dc8f93d	0.098131634
14	0x3c269777	0.010167948
15	0x3bd7987f	0.0065794582
16	0x3d594998	0.0530487
17	0xbbf18a97	-0.0073712575
18	0xbcb33bad	-0.021879042
19	0xbce63482	-0.02810121
20	0x3babd78a	0.0052442
21	0xbc88c657	-0.016696138
22	0x3d12f970	0.035882413
23	0xbd0a7fd3	-0.03381331
24	0x3c6e1940	0.014532387
25	0xbc49930f	-0.012303128
26	0xbbb6d8c7	-0.005580041
27	0x3cb3137b	0.021859875
28	0xbc273a0d	-0.0102067115
29	0xbc996248	-0.018723622
30	0x3c32c943	0.010912242
31	0x3ce5cb8d	0.028051162
32	0x3d33a4c1	0.043858293
33	0xbd6fbe35	-0.058531005
34	0x3d1bd3c0	0.038043737
35	0xbc5d0b5d	-0.013491479
36	0x3c24ba09	0.01005412
37	0x3d50bfcf	0.050964173
38	0x3c2f67bd	0.0107058855
39	0xbc83f983	-0.016110187
40	0xb8904cff	-6.880797e-05
41	0x3c089fbf	0.008338868
42	0xbd1cf9e4	-0.03832425
43	0xbd66ad57	-0.056317654
44	0x3d1f20a0	0.038849473
45	0x3c94c425	0.018159935
46	0xbc82dd78	-0.015974745
47	0x3d10185f	0.035179492
48	0xbd6bd215	-0.057573397
49	0xba9baad2	-0.001187647
50	0xbc4217a3	-0.011846456
51	0x3ceeb785	0.029140243
52	0xbc19d39d	-0.009388831
53	0x3d28f3a5	0.041247983
54	0x3ce4fb65	0.027951906
55	0x3c8d4d35	0.01724873
56	0xbd8e7da8	-0.06957561
57	0xbd29bc92	-0.0414396
58	0x3d425523	0.047444474
59	0xbcb97e27	-0.022643162
60	0x3d796c2d	0.06089418
61	0xbc37f8bf	-0.011228739
62	0x3cbb60c2	0.022873286
63	0x3c5a278a	0.013315091
64	0xbdb637db	-0.08897372
65	0x3d91e6e7	0.07124119
66	0xbc66cd2b	-0.014087002
67	0xbcb0f44a	-0.021600861
68	0xbc77b132	-0.01511793
69	0x3d210144	0.039307848
70	0xbc3468df	-0.011011331
71	0x3d15c454	0.036564186
72	0x3cc57914	0.024105586
73	0x3d921eb8	0.071347654
74	0x3c21af7f	0.009868502
75	0xbd860120	-0.06543183
76	0x3db21421	0.086952455
77	0xbd172200	-0.03689766
78	0x3ce4ea70	0.02794382
79	0xbb7153eb	-0.00368237
80	0xbcc1ce02	-0.023657802
81	0xbd005d85	-0.031339187
82	0x3d192a97	0.037394132
83	0xbd436cc4	-0.04771115
84	0x3cddfeff	0.02709913
85	0x3cb7be01	0.022429468
86	0x3b340127	0.0027466507
87	0x3d0f9f5d	0.03506409
88	0xbc20b06d	-0.009807688
89	0xbd82c843	-0.06385853
90	0xbbd0388d	-0.0063543976
91	0x3ce98d83	0.02850986
92	0xbc8f8043	-0.017517215
93	0x3d19bc25	0.037532944
94	0xbc1bc300	-0.009506941
95	0x3d46be65	0.048521418
96	0x3caf80fd	0.021423811
97	0xbd8fc26a	-0.070195034
98	0xbdb485c1	-0.08814574
99	0xbd2340cf	-0.03985673
100	0x3d860f13	0.06545844
101	0xbd5e38c5	-0.05425336
102	0xbdb09328	-0.08621818
103	0xbe04c380	-0.12965202
104	0x3d3a0476	0.04541441
105	0x3b5009cb	0.0031744118
106	0xbc90748a	-0.017633695
107	0x3bb9bdd7	0.0056683826
108	0x3d2e29b7	0.04252025
109	0x3d29126f	0.041277345
110	0x3deb5748	0.11491257
111	0xbceb6d97	-0.02873878
112	0xbcc32f02	-0.023826126
113	0x3c97c97b	0.01852869
114	0x3c63874d	0.013887239
115	0xbc848b32	-0.016179655
116	0xbc01d260	-0.007923692
117	0xbd812532	-0.063059226
118	0x3c274fc4	0.010211889
119	0xbc036f7a	-0.008022184
120	0xbc68e63f	-0.014215051
121	0x3d3aa679	0.045568917
122	0xbc8713a8	-0.016488865
123	0xbbede7e2	-0.0072603086
124	0xbd07fd6f	-0.033200677
125	0xbd15b5ba	-0.03655026
126	0x3bba8deb	0.0056931875
127	0xbcee94d7	-0.029123707
128	0x3d45e9bc	0.04831861
129	0x3c69935f	0.014256327
130	0xbd2e89ca	-0.042611875
131	0xbd06048d	-0.032719184
132	0xbd00e97f	-0.03147268
133	0xbd599288	-0.05311826
134	0xbd04f51b	-0.032460313
135	0xbc4eb00f	-0.012615218
136	0xbd8bc5ef	-0.06824862
137	0x3c308b70	0.010775432
138	0xbcef900f	-0.029243497
139	0x3c86d007	0.016456617
140	0x3b4b86f4	0.003105578
141	0x3d4de5a0	0.050267816
142	0x3cfd494b	0.030918738
143	0x3cad916f	0.021187512
144	0x3d2bae49	0.04191426
145	0xbc2a60e4	-0.010399077
146	0xbcf88d4b	-0.030340811
147	0x3c9f13b7	0.01941858
148	0xbb901fc5	-0.0043983185
149	0x3c559fff	0.013038634
150	0xbc4f6b7d	-0.012659905
151	0x3d1897a8	0.037254006
152	0xbc082bf1	-0.008311258
153	0x3cfad040	0.03061688
154	0x3d8abfb3	0.06774845
155	0xbcea018b	-0.028565189
156	0xbc6e92cd	-0.014561367
157	0x3c933c1b	0.017972996
158	0xbc0b400f	-0.0084991595
159	0xbc9e20c8	-0.01930274
160	0x3d1b5f4e	0.037932687
161	0x3d9b6f28	0.07589561
162	0x3d65a20f	0.056062754
163	0xbc9e0757	-0.01929061
164	0x3c1ec613	0.009690779
165	0x3c4a883f	0.012361585
166	0x3cf1cdad	0.02951702
167	0x3d0e1bb7	0.0346944
168	0xbd3a1b96	-0.045436464
169	0xbd09f2e7	-0.033678915
170	0x3d5d63aa	0.054050125
171	0x3c887b6e	0.016660418
172	0x3d156658	0.036474556
173	0x3c22a0ff	0.00992608
174	0xbd9d2e56	-0.076748535
175	0xbc7ae7cb	-0.015314053
176	0xbccfe72f	-0.025378792
177	0xbd8b84cf	-0.068124406
178	0xbbf118f5	-0.0073577114
179	0xbcb89877	-0.022533638
180	0x3d12e848	0.035866052
181	0xbc17ecbf	-0.009272753
182	0x3b6a5725	0.0035757509
183	0x3d1857db	0.03719316
184	0xbcceb3e2	-0.02523226
185	0xbda65fbd	-0.081237294
186	0x3d0b72a2	0.03404487
187	0xbca76a0b	-0.020436307
188	0xbb1247f2	-0.0022320715
189	0x3c6fd88a	0.014639029
190	0x3b78cc87	0.0037963705
191	0x3c11f798	0.008909129
192	0xbdb26156	-0.087099716
193	0xba8a2d6b	-0.00105421
194	0x3d903211	0.070407994
195	0xbc99edd4	-0.018790163
196	0x3cecde93	0.028914725
197	0x3afde950	0.0019371901
198	0xbc14560a	-0.009053716
199	0x3d4ecfc0	0.050491095
200	0x3d23aad7	0.039957847
201	0xbd4dbcab	-0.050228756
202	0xbc2cf5bd	-0.010556635
203	0x3cbdcd5b	0.02316921
204	0x3d1398a2	0.036034234
205	0xbdbf7d52	-0.09350075
206	0xbbd9d790	-0.0066480115
207	0x3d8414fa	0.064493135
208	0xbc00996f	-0.007849081
209	0xbd299f3b	-0.04141162
210	0x3cb41259	0.021981405
211	0x3adcdcda	0.0016850487
212	0x3d3bd9fd	0.045862187
213	0x3cc7c072	0.024383757
214	0xbcbcd47f	-0.023050545
215	0x3d26ebfb	0.040752392
216	0xbab3ea3b	-0.0013726422
217	0x3d435152	0.047684975
218	0xbda023fb	-0.07819363
219	0xbb108537	-0.0022052058
220	0xbb9685f3	-0.0045936047
221	0x3bc5eb5f	0.0060400213
222	0xbdca68aa	-0.09883244
223	0x3cb8bf13	0.022552049
224	0x3b1abf2a	0.0023612478
225	0x3d145937	0.036217894
226	0x3d7d2ec5	0.06181218
227	0xbd2e1356	-0.04249891
228	0xbd54e10b	-0.05197243
229	0xbd1f6010	-0.03890997
230	0x3d2328ad	0.039833713
231	0x3d304f4c	0.043044373
232	0x3d85b12f	0.06527936
233	0xbc88d6b3	-0.016703939
234	0xbbd4390f	-0.0064765285
235	0xbcd4c6e7	-0.02597375
236	0xbd0638b1	-0.03276891
237	0xbc14b9a9	-0.009077468
238	0xbd827cc6	-0.06371455
239	0x3c4c3d30	0.01246576
240	0xbc04f35f	-0.008114665
241	0x3c7ce4b0	0.015435383
242	0x3cedc44f	0.029024271
243	0xbbf9c662	-0.007622526
244	0xbcd8a663	-0.026446527
245	0xbc0c0b8a	-0.008547673
246	0xbc43ddd9	-0.011954748
247	0x3d7a57f8	0.06111905
248	0x3cf04f6a	0.029334743
249	0x3d017047	0.031601217
250	0xbcf48a38	-0.029851064
251	0xbd2210e9	-0.039566908
252	0x3bb8999c	0.005633546
253	0xbc836cf1	-0.016043158
254	0x3d259100	0.040421486
255	0x3cdbd22a	0.026833612

fc2.bias f4 [10]
0	0xbde79e80	-0.11309528
1	0x3ba9a9ea	0.005177726
2	0x3db322a8	0.087468445
3	0xbac8534f	-0.0015283617
4	0x3daf0fba	0.085479215
5	0xbcff818d	-0.031189704
6	0x3c88ebdf	0.016714035
7	0xbd0b9f86	-0.03408768
8	0xbc2ef318	-0.010678075
9	0xbdb12c1d	-0.08650992
