torch_to_tf/torch_models/model_round99.model (torch, 493063 bytes, 10 tensors)

conv1.weight f4 [32, 3, 3, 3]
0	0xbd1ff939	-0.039056037
1	0xbd21937f	-0.039447304
2	0xbdb6bbd7	-0.08922546
3	0xbd902aa2	-0.070393816
4	0xbcb6ef1b	-0.022330811
5	0xbd0cf457	-0.034412708
6	0x3d9492aa	0.072545364
7	0x3d740cdd	0.05958258
8	0x3c9f0058	0.019409344
9	0x3d0dfd9d	0.034665693
10	0xbd54f397	-0.051990118
11	0xbd967e2b	-0.073482834
12	0x3cf2040d	0.029542947
13	0x3c22f3f7	0.009945861
14	0x3d373a02	0.044733055
15	0xbc8ec731	-0.017428966
16	0xbdddeb8f	-0.10835945
17	0x3b3f6298	0.0029203054
18	0x3ceac5f7	0.02865885
19	0x3d78a498	0.060703844
20	0x3dade19f	0.084902994
21	0xbd25105b	-0.0402988
22	0x3cc0a94b	0.023518225
23	0x3ca6974f	0.020335821
24	0x3df11ccf	0.11773073
25	0x3d24c51e	0.040227048
26	0x3cdef058	0.027214214
27	0xbd2fde43	-0.042936575
28	0xbcf296ff	-0.029613016
29	0x3d80c637	0.062878065
30	0x3d49eeb9	0.04929993
31	0xbd1327d2	-0.035926647
32	0x3cf7d058	0.030250713
33	0x3b26a117	0.0025425607
34	0x3d258c93	0.040417265
35	0x3cd87d45	0.02642692
36	0xbca5e241	-0.020249488
37	0x3bd5382a	0.0065069394
38	0x3d76cdba	0.06025479
39	0xbce89f63	-0.028396314
40	0x3c06d162	0.008228632
41	0x3cbcaa44	0.023030408
42	0x3bd45b1a	0.0064805867
43	0x3d57e807	0.052711513
44	0xbbdb50a5	-0.006692963
45	0xbd003c17	-0.031307306
46	0x3d1a7e25	0.037717957
47	0xbd2e8067	-0.042602923
48	0xbdcf1f65	-0.1011341
49	0x3c9783f6	0.018495541
50	0xbc496512	-0.012292163
51	0xbd98b0b3	-0.07455578
52	0x3c6ee043	0.014579835
53	0x3df119c8	0.117724955
54	0xbd83bb74	-0.06432238
55	0xbcd966f8	-0.026538357
56	0x3da151e7	0.0787695
57	0x3dc11b69	0.09429056
58	0xbd29b928	-0.041436344
59	0xbd46e599	-0.048558805
60	0xbd00442d	-0.031315017
61	0x3dd0d473	0.101967715
62	0xbd2e493b	-0.042550307
63	0x3c918a9b	0.017766288
64	0x3cb0f6eb	0.021602115
65	0x3c1d9ff1	0.0096206525
66	0xbb7bb2cf	-0.0038406139
67	0xbb8f4f25	-0.0043734484
68	0x3d382c54	0.04496415
69	0x3c6e857f	0.014558195
70	0x3ced7925	0.02898843
71	0x3d1c3635	0.038137633
72	0x3cdc9a60	0.02692908
73	0xbd689ff8	-0.056793183
74	0x3c8b70f4	0.017021634
75	0x3ddc9df0	0.10772312
76	0xba91b7b6	-0.0011117372
77	0xbc3529a1	-0.011057288
78	0xbcdd4dd7	-0.027014656
79	0x3db25907	0.08708387
80	0x3d871999	0.06596679
81	0x3e123d72	0.14281252
82	0x3cd2c61b	0.02572923
83	0xbdb5e9e2	-0.088825
84	0x3c15c6f3	0.0091416715
85	0x3c9af36e	0.018914904
86	0xbcb34e4a	-0.021887917
87	0x3d982883	0.07429602
88	0x3c045e1a	0.008079076
89	0xbd8998c7	-0.06718593
90	0xba34645a	-0.00068814086
91	0xbd6f4d9b	-0.05842362
92	0x3db21b88	0.086966574
93	0x3d20acfb	0.039227467
94	0xbdcbfa12	-0.099598065
95	0xbd418ae9	-0.047251616
96	0x3c92eb23	0.017934388
97	0xbd83d767	-0.06437569
98	0x3d88c077	0.06677335
99	0x3cbc7476	0.023004752
100	0xbd397d5f	-0.04528558
101	0xbc810511	-0.015749486
102	0x3d1b3923	0.037896287
103	0x3c927a78	0.017880663
104	0xba1a03f2	-0.00058752217
105	0x3d6200e8	0.055176646
106	0xbce57fa3	-0.028014963
107	0xbdaf8c0f	-0.08571636
108	0xbbd56070	-0.0065117404
109	0x3c4b25be	0.012399135
110	0xb7b49647	-2.152765e-05
111	0x3da6456c	0.0811871
112	0xbcd72f48	-0.026267663
113	0x3d8a67f6	0.0675811
114	0xbd841008	-0.0644837
115	0xbd2ee88a	-0.042702235
116	0x3d6d98a8	0.058006912
117	0xbe006edd	-0.12542291
118	0xba1d1514	-0.00059922156
119	0xbd3c121a	-0.0459157
120	0xbcf0fd05	-0.029417524
121	0xbbe46497	-0.006969999
122	0xbd982cb6	-0.07430403
123	0x3cd01da2	0.025404755
124	0x3d9e30fd	0.077241875
125	0x3d2982a3	0.04138435
126	0x3d744008	0.059631377
127	0xbcb3bd28	-0.021940783
128	0xbd017f95	-0.031615812
129	0xbd387a97	-0.045038786
130	0xbd43de4f	-0.047819432
131	0x3ba76ef0	0.0051096603
132	0x3d44312a	0.04789845
133	0x3d919d90	0.07110131
134	0xbc7da532	-0.01548128
135	0x3d1340eb	0.035950582
136	0xbc8506ca	-0.016238589
137	0x3d9f1e1a	0.07769413
138	0x3d1726ea	0.036902346
139	0x3c8cdb34	0.017194368
140	0x3d97a3d4	0.074042946
141	0xbcc2ea15	-0.02379326
142	0xbd915ddb	-0.0709798
143	0x3d25f44b	0.04051618
144	0xbc608a0a	-0.013704786
145	0xbdbabb12	-0.09117712
146	0x3dbc5d8f	0.091975324
147	0x3c845701	0.016154768
148	0x3c9a33f8	0.018823609
149	0xbcde2db2	-0.027121399
150	0xbd619777	-0.05507609
151	0xbe016233	-0.12635116
152	0x3cefb6dd	0.029262
153	0x3c94b8f1	0.018154593
154	0xbdd119cb	-0.10209998
155	0x3d8667ba	0.06562753
156	0xbcc6003d	-0.024170035
157	0x3d828d6a	0.06374629
158	0x3c79ebc2	0.015253963
159	0xbcff0e17	-0.031134648
160	0x3be750ad	0.007059178
161	0xbd21f313	-0.039538454
162	0xbd4380a7	-0.047730114
163	0xbd570d3f	-0.052502867
164	0xbd5fd0cb	-0.05464248
165	0x3cdd495d	0.027012521
166	0x3d0863e2	0.03329838
167	0xbd387074	-0.04502912
168	0xbcdacd1f	-0.026709137
169	0x3c8bc520	0.01706177
170	0x3c18e78a	0.009332547
171	0xbd464e07	-0.048414256
172	0x3d98c000	0.07458496
173	0x3cef4803	0.029209143
174	0x3d84bcc3	0.06481316
175	0xbd8fc2c7	-0.07019573
176	0x3d7123af	0.05887192
177	0xbcafc737	-0.021457298
178	0x3d1f4b2a	0.03889004
179	0x3d502375	0.050815064
180	0x3d1a3490	0.037647784
181	0xbc8b911a	-0.017036963
182	0x3d1ed3e3	0.03877629
183	0x3d749128	0.059708744
184	0xbcbd5d70	-0.023115844
185	0x3dcf96df	0.10136198
186	0x3d49e43b	0.049289923
187	0xbd1985c4	-0.037481084
188	0xbbbe6186	-0.0058099655
189	0xbd15e4e1	-0.03659523
190	0xbcefa53f	-0.0292536
191	0x3d4f0670	0.05054325
192	0xbda70e9b	-0.08157083
193	0x3b3c2048	0.0028705765
194	0xbcc801d2	-0.02441493
195	0x3d12be58	0.035826057
196	0xbc1be3df	-0.009514778
197	0x3b969eca	0.004596566
198	0xbc259c89	-0.010108122
199	0x3c295348	0.010334797
200	0xbc0d32b0	-0.008618042
201	0x3da41a7d	0.08012865
202	0xbcd8734a	-0.026422162
203	0x3d6b87eb	0.05750267
204	0xbc989daf	-0.018629877
205	0x3cbcbab0	0.023038238
206	0xbe013455	-0.1261762
207	0x3c733fa7	0.014846719
208	0x3c966bab	0.018361887
209	0x3cc5f9f3	0.024167037
210	0x3c0188b4	0.007906128
211	0xbc117968	-0.008879043
212	0xbdad01c3	-0.08447602
213	0x3d8c8d7f	0.06862926
214	0xbb73adf3	-0.003718254
215	0xbcfc704b	-0.030815264
216	0x3d59ff2f	0.053221878
217	0x3db145b8	0.08655876
218	0xbb465c83	-0.0030267544
219	0x3d35d1e3	0.044389617
220	0x3caa4df7	0.02078913
221	0xbcad0753	-0.021121657
222	0x3d46ac9b	0.048504453
223	0xbc7edea7	-0.015556014
224	0x3d22e2e3	0.039767157
225	0x3d55c9d0	0.052194417
226	0x3de717fd	0.11283872
227	0x3d93f5b0	0.072245955
228	0xbdd41127	-0.10354834
229	0xbd42f4f5	-0.04759689
230	0xbd2c631f	-0.042086717
231	0xbd820787	-0.06349092
232	0xbaf70a7a	-0.0018847727
233	0x3d451760	0.048117995
234	0x3d048032	0.03234882
235	0x3dc2d460	0.095131636
236	0xbd19ae25	-0.037519593
237	0x3da0c591	0.07850183
238	0xbcc39160	-0.023873031
239	0xbab9dc88	-0.0014180103
240	0x3d73640f	0.059421595
241	0xbddaef80	-0.10690212
242	0xbd99493b	-0.07484671
243	0xbdb54337	-0.08850711
244	0xbd14a744	-0.03629233
245	0x3d5439a5	0.051812787
246	0x3d4488f5	0.047982175
247	0xbd358e8b	-0.044325393
248	0xbd48d7a8	-0.04903379
249	0xbd2b86a4	-0.04187645
250	0x3d1d30ef	0.038376745
251	0xbd3867ba	-0.045020796
252	0x3d850dfb	0.06496807
253	0xbc57b487	-0.0131656
254	0x3c69c700	0.014268637
255	0x3d66d7af	0.056358036

conv1.bias f4 [32]
0	0xbc16ca52	-0.00920351
1	0xbcc503b7	-0.024049623
2	0x3cd213c5	0.025644192
3	0xbd14e69e	-0.036352746
4	0xbd55449a	-0.052067377
5	0x3cbeac73	0.02327559
6	0x3d7aaf5d	0.061202396
7	0xbc8ca9ed	-0.01717087
8	0xbd8ff9ea	-0.07030089
9	0xbd3fde73	-0.046843003
10	0x3d25b7a1	0.040458325
11	0xbd464470	-0.04840511
12	0xbcca7b7c	-0.024717085
13	0xbd5958d7	-0.05306324
14	0xbcfae823	-0.03062827
15	0xbc3caa0f	-0.0115151545
16	0xbccec573	-0.025240635
17	0x3d42560a	0.047445334
18	0x3d3ffa5b	0.046869617
19	0xbb4620ec	-0.0030232025
20	0x3d68e8ba	0.05686257
21	0x3ddb4a83	0.10707571
22	0x3c0561b5	0.008140971
23	0xbc132f86	-0.008983498
24	0x3d1d409f	0.038391706
25	0xbde74fda	-0.11294527
26	0x3dac449f	0.08411526
27	0x3d738bd3	0.05945952
28	0x3d820947	0.06349426
29	0xbcd77308	-0.026299968
30	0xbc04446b	-0.008072953
31	0x3cbcf5cd	0.023066426

conv2.weight f4 [64, 32, 3, 3]
0	0x3c234778	0.00996577
1	0xbcde86ba	-0.027163852
2	0x3c6c8f8f	0.014438524
3	0xbc0a8564	-0.008454654
4	0xbca9d9e7	-0.020733787
5	0xbc067d6b	-0.008208613
6	0xbb8a1b75	-0.004214699
7	0x3b9684d7	0.0045934725
8	0x3a77a643	0.0009447077
9	0x3cce55fa	0.025187481
10	0x3bb3b5e3	0.005484329
11	0xbb253112	-0.002520625
12	0xbd04cab0	-0.03241986
13	0xbc831e1d	-0.01600557
14	0xbca2fed5	-0.019896904
15	0xbb286142	-0.0025692736
16	0x3b84685f	0.0040407623
17	0x3ab18dc2	0.0013546275
18	0xbc4fe2f0	-0.012688383
19	0xbc89e218	-0.016831443
20	0xbc922a72	-0.017842505
21	0x3bec6ff8	0.007215496
22	0x3adff3b0	0.0017086174
23	0x39b0f684	0.00033753004
24	0xbcd2fb57	-0.025754614
25	0xbce36038	-0.027755842
26	0x3c576dc7	0.013148732
27	0xbc7544b8	-0.014969997
28	0xbc609de8	-0.013709523
29	0xbc888502	-0.016664986
30	0xbc81873a	-0.015811551
31	0x3cb6cd79	0.022314774
32	0xbcabf393	-0.020990169
33	0x36afafe8	5.2358846e-06
34	0xbc97db1b	-0.018537095
35	0x39cc04de	0.00038913538
36	0x3d03f6a7	0.032217648
37	0x3bc8162a	0.006106158
38	0xbc7dae97	-0.01548352
39	0x3bb3872f	0.0054787616
40	0x3c84afcb	0.016197106
41	0xbc4110a4	-0.011783753
42	0xba1baba5	-0.0005938358
43	0xba9709a3	-0.0011523258
44	0xbc349a06	-0.01102305
45	0x3c4c4922	0.012468608
46	0xbc4ff5fa	-0.012692923
47	0x3ca5de90	0.020247728
48	0xbcfb3c17	-0.030668302
49	0x3c843040	0.016136289
50	0xbc80ffd6	-0.015746992
51	0x3c539a65	0.0129152285
52	0xbd0fcc3e	-0.03510689
53	0xbcbf2df7	-0.023337347
54	0xbd15c1cd	-0.036561776
55	0xbcdeb467	-0.027185632
56	0x3ba7e065	0.0051231855
57	0xbbb8d3f5	-0.0056405016
58	0xbb292393	-0.0025808557
59	0xbcaaf8cf	-0.020870594
60	0x3cc80c45	0.024419913
61	0xbbff0fc0	-0.00778386
62	0x3b82c990	0.0039913133
63	0xbc96aff3	-0.018394446
64	0xbb582765	-0.0032982465
65	0xbc9a37e3	-0.018825477
66	0xbabc7e03	-0.0014380816
67	0xbd0930cf	-0.033493813
68	0xbce1fd68	-0.027586654
69	0xbc627918	-0.013822816
70	0x3b80e1ad	0.0039331526
71	0xbc8cdb58	-0.017194435
72	0x3bc57a01	0.006026507
73	0x3c2a92ff	0.010411023
74	0xbb7172c2	-0.0036842083
75	0x3c20fd3a	0.009825999
76	0xbc2b4500	-0.010453463
77	0xbc804cbf	-0.015661595
78	0xbc00f593	-0.007871049
79	0x3c35392a	0.011060992
80	0xbcb8184f	-0.022472529
81	0xbc52d38f	-0.012867822
82	0x3bb3a7e0	0.0054826587
83	0xbcd9aff7	-0.026573164
84	0x3c892956	0.016743343
85	0xbcce5428	-0.025186613
86	0x3a8c44d6	0.0010701667
87	0x3c9c8705	0.019107351
88	0xbce243ab	-0.027620157
89	0xbd1c3739	-0.038138602
90	0xbd1d9e89	-0.03848127
91	0xbc551d33	-0.01300745
92	0x3bf6e472	0.007534557
93	0x3c69d498	0.014271878
94	0xbc2b298f	-0.01044692
95	0x3bb92c81	0.005651057
96	0xbb0ea2b2	-0.0021764454
97	0x3ac26176	0.0014830071
98	0xbcb27cd8	-0.021788046
99	0xbcd7ca43	-0.026341563
100	0x3cb6ad0e	0.022299316
101	0xbc05a715	-0.008157511
102	0xbc6d02d7	-0.014466009
103	0xbcf8cae5	-0.030370185
104	0x3c68b033	0.014202165
105	0xbd03531b	-0.032061677
106	0xbcc89f57	-0.024490042
107	0x3c730bf5	0.014834394
108	0xbcd00220	-0.025391638
109	0x3b3641d9	0.0027810244
110	0xbb28b821	-0.0025744515
111	0xbaf5e44d	-0.0018760056
112	0xbc9084d8	-0.01764147
113	0xbc157762	-0.009122701
114	0xba6aa40d	-0.0008950837
115	0xbc8bbbd8	-0.017057344
116	0x3a163c4b	0.000573103
117	0xbd06733f	-0.03282475
118	0xbc2953f2	-0.0103349555
119	0xbcdbbe33	-0.026824092
120	0xbc65beb7	-0.014022521
121	0xbc929bf3	-0.017896628
122	0xbadbef6b	-0.0016779726
123	0x3c0ae4f0	0.0084774345
124	0x3bb19dfa	0.0054204436
125	0xbc573820	-0.01313594
126	0xbcb9d699	-0.022685336
127	0x3b169c57	0.002298137
128	0xbb992efb	-0.00467479
129	0xbc8b8207	-0.017029775
130	0xbcd22512	-0.025652442
131	0xbc879196	-0.016548913
132	0xbc49673e	-0.012292681
133	0xbd01196c	-0.031518385
134	0x3c0c639d	0.0085686715
135	0x39083a48	0.00012991682
136	0x3c5f6755	0.013635476
137	0xbcb68dde	-0.022284444
138	0xbc8b5e32	-0.01701269
139	0xbc3ed331	-0.011647032
140	0xbc800947	-0.015629424
141	0xbc120355	-0.008911927
142	0xbcb4ad43	-0.022055274
143	0xbbf70f9f	-0.007539704
144	0xbcbcde81	-0.023055317
145	0xbc56a538	-0.013100915
146	0xbce8e14f	-0.028427748
147	0xbc75c395	-0.015000244
148	0x3c9ac541	0.018892886
149	0xbab69e8b	-0.0013932748
150	0xbc32c91b	-0.010912205
151	0xbbf1b62a	-0.007376452
152	0xbca290f7	-0.019844515
153	0xbc23a6ef	-0.009988531
154	0xbc37336f	-0.011181696
155	0xbc63a6d3	-0.013894754
156	0x3bf53e0f	0.0074842046
157	0x3c205cdb	0.0097877635
158	0xbbe29520	-0.0069147497
159	0x3c03744f	0.008023336
160	0xbbe081d7	-0.0068514156
161	0xbc3920a0	-0.011299282
162	0xbbe11755	-0.0068692365
163	0x3c78da1b	0.015188719
164	0x3c8ede3d	0.017439956
165	0xbced3360	-0.028955162
166	0x3b181e10	0.0023211278
167	0xbb27dbfb	-0.0025613296
168	0xbcd89ac2	-0.026440982
169	0x3c0f12db	0.008732523
170	0xbcb4abef	-0.02205464
171	0xbb974583	-0.0046164407
172	0xbba0b87a	-0.004904804
173	0xbcc6518c	-0.024208806
174	0xbb6b1b6b	-0.0035874497
175	0xbc8ccf69	-0.017188745
176	0xbce4a41a	-0.027910281
177	0x3a6c2240	0.0009007789
178	0xbb093659	-0.0020936935
179	0x3d0c75a3	0.034291875
180	0xbb1f5be8	-0.0024316255
181	0xbc11f6bb	-0.008908923
182	0xbcbbef52	-0.022941265
183	0xbb7eec82	-0.0038898294
184	0xbc6066da	-0.013696397
185	0xbb58ac08	-0.0033061523
186	0xbc74fc50	-0.014952734
187	0x3cc56b17	0.024098916
188	0xbc19c5eb	-0.009385566
189	0xbcaa4b2d	-0.0207878
190	0xbbb1810c	-0.005416995
191	0xbb649c1a	-0.0034883083
192	0xbc9a27f7	-0.018817885
193	0xbb49c5ca	-0.0030788057
194	0x3c988a2c	0.018620573
195	0xbbc227bf	-0.0059251483
196	0x3c9731d3	0.018456375
197	0xbb917f1b	-0.004440201
198	0x3a8117e8	0.0009849044
199	0x3c7f4c30	0.015582129
200	0xbc59fa95	-0.013304372
201	0xbb089e0c	-0.0020846156
202	0x3ceff490	0.029291421
203	0x3c6ba57f	0.014382719
204	0x3b93aed3	0.0045069247
205	0x3c4491ef	0.011997684
206	0xbcff0683	-0.031131035
207	0xbc983228	-0.018578604
208	0xb9eebec2	-0.00045537023
209	0xbc3004f2	-0.010743367
210	0xbcd144c3	-0.025545483
211	0xbc00a060	-0.007850736
212	0xba02f197	-0.0004995106
213	0xbc168559	-0.009187066
214	0x3cf1ac00	0.029500961
215	0x3c9939f0	0.018704385
216	0xbcda4b52	-0.026647244
217	0xbd0ae7f3	-0.03391261
218	0xbd09b61b	-0.033620935
219	0x3c5b299b	0.013376619
220	0x3c8c1c7c	0.017103426
221	0xbcac183a	-0.021007646
222	0x3c0d6f1b	0.008632447
223	0x3bab3df5	0.0052258917
224	0x3a7d9dd7	0.0009674704
225	0x3c5b47bd	0.013383803
226	0xba864f4f	-0.0010247024
227	0xbab44da4	-0.0013756049
228	0xbc2d729e	-0.010586409
229	0xb98da887	-0.00027019178
230	0xbcb1fd7c	-0.021727316
231	0xbc2c42ac	-0.010513943
232	0xbbcd430d	-0.0062640966
233	0xbcb8f35b	-0.022576978
234	0x3c061657	0.008184037
235	0xbbc25a2f	-0.005931161
236	0xbd131ce2	-0.035916217
237	0xbab34e09	-0.0013679872
238	0xbc1117ef	-0.008855804
239	0xbc262252	-0.010140019
240	0xbcb96047	-0.022628916
241	0xbcde47fd	-0.027133936
242	0x3bc06117	0.005870949
243	0xbbde6f9f	-0.0067882086
244	0x3ca4cca0	0.020117104
245	0x3d111284	0.03541805
246	0xbb5b1d7a	-0.0033434317
247	0xbcb5535d	-0.022134477
248	0xbc4696b8	-0.012120895
249	0xbb8d1313	-0.0043052523
250	0x3b9837f7	0.0046453434
251	0xbcef1fdb	-0.029189995
252	0x3ba16c8f	0.0049262713
253	0xbca37675	-0.019953946
254	0x3b921388	0.0044578947
255	0xbd15ee2f	-0.036604103

conv2.bias f4 [64]
0	0x3c976dbb	0.01848494
1	0xbbfc8790	-0.00770659
2	0xbb747dd2	-0.003730644
3	0xbb9c61e9	-0.004772414
4	0xbb1d6c46	-0.0024020835
5	0xbbd5d490	-0.0065255836
6	0xba1e10d6	-0.00060297304
7	0x3c34a43d	0.011025486
8	0xbcdcb2d7	-0.026940746
9	0x3c0f2192	0.008736031
10	0x3c021da3	0.007941636
11	0x3c41d13f	0.011829673
12	0xbbbdb940	-0.005789906
13	0x3bff91ed	0.007799378
14	0xbc0fbfe4	-0.008773778
15	0x3a857aa1	0.0010183641
16	0x3c1810e2	0.009281369
17	0x3d489021	0.048965577
18	0xb7e8a12f	-2.7731612e-05
19	0xbcec1f2f	-0.028823463
20	0xbca9a397	-0.020707889
21	0xbc8d78ef	-0.01726958
22	0xbc0863ad	-0.008324546
23	0xbcaba3d0	-0.020952135
24	0x3a93e3ef	0.001128314
25	0x3c9497e1	0.018138828
26	0xbc810807	-0.015750898
27	0x3c6e12ca	0.014530847
28	0x3d067ec7	0.032835748
29	0xba876e8d	-0.0010332629
30	0xbca32c33	-0.019918537
31	0xbaa2f4ab	-0.0012432536
32	0xbb1b2157	-0.0023670995
33	0xbbd9c703	-0.0066460385
34	0xbd054b3b	-0.03254245
35	0x3b4f8a5d	0.0031668164
36	0xbc947d79	-0.018126236
37	0xbcaacc0b	-0.020849248
38	0xbbc0897f	-0.005875766
39	0x3c98bb97	0.018644137
40	0x3d19ef18	0.037581533
41	0xbc92770b	-0.01787903
42	0x3bbc6a29	0.00574996
43	0xbc87b8ba	-0.016567577
44	0xba21ac9c	-0.00061673834
45	0xbc94d6bc	-0.0181688
46	0xbab1d4e3	-0.0013567474
47	0x3c836275	0.016038159
48	0x3caf4877	0.021396859
49	0x3bff9bda	0.0078005614
50	0xbd316133	-0.043305587
51	0x3c6e4a1f	0.014544039
52	0xbc3dfc53	-0.011595803
53	0xbcb4521b	-0.022011807
54	0x3d095e7f	0.033537384
55	0xbb9f9ca1	-0.0048709665
56	0xbc8cc41a	-0.017183352
57	0x3cb7957a	0.022410143
58	0xbcd0df80	-0.025497198
59	0xbd398abf	-0.045298334
60	0x3cd7bbf3	0.026334738
61	0x3bf08d55	0.007341067
62	0xbbe5ffe7	-0.0070190313
63	0x3c69ac25	0.014262234

conv3.weight f4 [64, 64, 3, 3]
0	0x3bd86b23	0.0066045686
1	0x3bc76049	0.006084476
2	0x3c2f401a	0.010696435
3	0xbc8b3dff	-0.016997335
4	0xbcc78bee	-0.024358716
5	0x3b3f0360	0.0029146299
6	0xbbb7a252	-0.005604067
7	0xbcab5652	-0.020915184
8	0xbbc2a3c3	-0.005939932
9	0xbb8338b4	-0.0040045623
10	0x3ac0a10b	0.0014696432
11	0xbc748e55	-0.014926513
12	0x3bd1b492	0.0063996995
13	0x3c75508b	0.014972816
14	0xbbd489ef	-0.0064861695
15	0xbc1e2a4e	-0.009653641
16	0x3b1a38df	0.0023532433
17	0x3c08140b	0.00830556
18	0x3b183761	0.0023226368
19	0x3c5b6ef2	0.013393151
20	0x3b3c6b47	0.0028750466
21	0x3bdd2615	0.0067489245
22	0xbc6f37a3	-0.014600667
23	0xbc59455d	-0.013261166
24	0xbc60fd32	-0.0137322415
25	0x3beb6c78	0.0071845613
26	0xbc559a02	-0.013037207
27	0x3a4bc65c	0.00077733933
28	0x3c9b538a	0.018960733
29	0x3b8be4e7	0.0042692306
30	0xbcafb36c	-0.02144786
31	0x3c1103b8	0.008850984
32	0x3c1c1b80	0.009528041
33	0xbcb4e53b	-0.022081962
34	0xbcc1cad7	-0.023656292
35	0xbbd9027a	-0.0066226097
36	0xbc8546a8	-0.016269043
37	0xbc06c6e9	-0.008226135
38	0x3c39d86b	0.011343102
39	0x3c3ca2ed	0.011513454
40	0x3bd26a77	0.006421383
41	0x3b0fb6cb	0.0021929021
42	0xbb792c27	-0.0038020702
43	0xbcade792	-0.021228585
44	0xbc8ffe5c	-0.017577343
45	0x3c05629e	0.008141188
46	0xbb05dc84	-0.0020425627
47	0xbc929410	-0.017892867
48	0x3c10bbd4	0.008833844
49	0xbbbb5afd	-0.0057176338
50	0xbc82484d	-0.015903616
51	0x3c3e33b3	0.011609006
52	0x3bd1730d	0.006391889
53	0xbce0cecf	-0.027442364
54	0x3abdbd5e	0.0014475991
55	0xbc37f8b4	-0.011228729
56	0xbc0232c7	-0.007946677
57	0xbcabc183	-0.020966297
58	0xbc63ad6a	-0.013896326
59	0xbb69664f	-0.003561396
60	0x3be3798d	0.00694198
61	0x3c22d1ff	0.009937762
62	0x3bc8b277	0.0061247903
63	0xbc5e8f05	-0.013583903
64	0xbc1657d3	-0.009176212
65	0xbb6a862b	-0.0035785537
66	0x391498d8	0.00014171319
67	0xbaf06a2a	-0.0018342186
68	0x3b25b407	0.0025284307
69	0xbc9405a8	-0.018069103
70	0xbba8c0df	-0.005149945
71	0xbccd9b4d	-0.025098467
72	0xbb1a8e44	-0.0023583332
73	0xbbf5afef	-0.0074977796
74	0xbc058583	-0.008149507
75	0xbc3589e3	-0.011080238
76	0xbc9801f8	-0.018555626
77	0xbb0cb8db	-0.0021472487
78	0x3be49758	0.0069760494
79	0xbb6531b5	-0.0034972255
80	0x3c0a3f33	0.008437919
81	0xbbc4d683	-0.006007017
82	0xbb6785bd	-0.0035327517
83	0xbba69167	-0.0050832513
84	0xbcbb7c9e	-0.02288657
85	0xbcd20d3a	-0.025641073
86	0x3c0dc6f3	0.00865339
87	0x3c8963cb	0.016771218
88	0xbc552d15	-0.013011237
89	0xbb02a753	-0.0019936159
90	0xbc261d6b	-0.01013885
91	0xbb9a1617	-0.0047023403
92	0xbc8e65ca	-0.017382521
93	0xbba52099	-0.0050392863
94	0x3bf1f7f7	0.007384296
95	0xbc3c44ae	-0.011490984
96	0xbbb9f20d	-0.0056746067
97	0x3c0f7c90	0.008757725
98	0x3c00413c	0.007828053
99	0xbbecd560	-0.0072275847
100	0xb9cfe850	-0.00039655203
101	0xbb93c10f	-0.0045090984
102	0x3c082a68	0.008310892
103	0xbba1df94	-0.0049399827
104	0xbb2115d6	-0.0024579666
105	0xbbd8d61f	-0.006617322
106	0xbb2b1b1d	-0.002610869
107	0xbbefc92b	-0.0073176823
108	0x3c5553f3	0.013020503
109	0xbbe26c98	-0.006909918
110	0xbcf6da0a	-0.030133266
111	0xbc81e0d7	-0.015854282
112	0x3c556eb0	0.013026878
113	0xbbc3a975	-0.0059711286
114	0x3b0726af	0.0020622422
115	0xbc20fc75	-0.009825815
116	0xbc1a00b8	-0.009399585
117	0x3b841cdd	0.004031761
118	0x3c43667d	0.011926291
119	0x3c094367	0.008377886
120	0x3a69452a	0.0008898551
121	0xbc842998	-0.016133115
122	0xbbba23be	-0.0056805303
123	0xbbc3be4f	-0.0059736143
124	0xbaceb80d	-0.0015771404
125	0xbb85356a	-0.0040652053
126	0xbc0572b6	-0.008145025
127	0xbc827207	-0.015923513
128	0x3c38fd8e	0.011290921
129	0xbc02cb19	-0.007982993
130	0xbb4c08b7	-0.0031133124
131	0x3a6e7b58	0.0009097359
132	0xbb009357	-0.0019619071
133	0xbc154dc6	-0.009112781
134	0xbc9ebfe3	-0.019378608
135	0x3c3a7629	0.011380711
136	0x3b1af020	0.002364166
137	0x3be31e45	0.0069310986
138	0xbc5c28aa	-0.013437429
139	0xbc9f7e57	-0.019469423
140	0xbc238c6b	-0.009982209
141	0xbc2868eb	-0.010278921
142	0xbbbf5b2b	-0.0058397255
143	0xbc324cf6	-0.010882607
144	0xbb87ea08	-0.0041477717
145	0xbbd7f995	-0.006591032
146	0xbc1611d0	-0.00915952
147	0x3c650f68	0.013980724
148	0x3b9c37d0	0.0047673956
149	0xbc99e9af	-0.018788187
150	0xb998c359	-0.00029137245
151	0xbc956157	-0.018234892
152	0xbb0a1ea8	-0.0021075401
153	0x3b9ac83b	0.0047235764
154	0xbb6cc750	-0.0036129542
155	0xbbe1fd0d	-0.006896621
156	0x3bf37a8d	0.0074303807
157	0xbb03defb	-0.002012192
158	0x3b9800fc	0.004638789
159	0xbc5ee5e2	-0.013604613
160	0xbb7c531a	-0.003850168
161	0xbc5813d3	-0.01318832
162	0x3c5b0275	0.013367285
163	0x3c99d333	0.018777465
164	0x3b2270c9	0.0024786463
165	0xb8e3b08b	-0.00010857087
166	0x3ab4e36b	0.0013800686
167	0xbc281634	-0.0102592
168	0xbbb6ce21	-0.0055787717
169	0x3bbdea0a	0.005795722
170	0x38cd138b	9.778802e-05
171	0xbb8fa1df	-0.00438331
172	0xbc006142	-0.007835688
173	0xba470c43	-0.00075930747
174	0x3bc2c811	0.00594426
175	0xbcf99a5b	-0.03046911
176	0x3c2851bb	0.010273392
177	0xbc9ea3db	-0.019365242
178	0x3b827f70	0.003982477
179	0xbc9adc77	-0.018903954
180	0xbb0ac803	-0.0021176345
181	0xbab01a70	-0.0013435613
182	0xba4d469d	-0.00078306516
183	0xbacac29f	-0.0015469379
184	0xbcb7bde3	-0.022429412
185	0xbc014c3f	-0.007891714
186	0xbb93d14f	-0.0045110355
187	0xbafc4ff0	-0.0019249897
188	0xbb9284e3	-0.0044714077
189	0xbc8125b7	-0.015765054
190	0x3c084a94	0.008318562
191	0x3b0f28bb	0.0021844346
192	0x3c4ca236	0.012489846
193	0xbb60a708	-0.0034279246
194	0x3b1a57c2	0.0023550843
195	0x3b5d0f8a	0.0033731186
196	0xb912ee7a	-0.00014012484
197	0x3c0f75cc	0.008756112
198	0xbcb1c3ea	-0.021699864
199	0x3aa73616	0.0012757208
200	0x3c257193	0.010097879
201	0xba78ac6b	-0.00094861415
202	0xbc1bfc59	-0.009520614
203	0x3bae8593	0.005325982
204	0xbcb5885c	-0.022159748
205	0xbba11b52	-0.004916587
206	0x3be10462	0.0068669776
207	0xbc6d61e2	-0.014488669
208	0x3c59ecea	0.013301114
209	0xbc54d9b0	-0.012991354
210	0xbcd9326f	-0.026513306
211	0xbae66d07	-0.00175801
212	0x3b7b941d	0.0038387843
213	0xbc59cf9a	-0.013294125
214	0xbbbfe8a9	-0.0058565927
215	0xbb85058d	-0.0040594996
216	0xbc047e27	-0.008086718
217	0xbbcf30d7	-0.006322961
218	0xbcd3ecc0	-0.025869727
219	0xbad38a0d	-0.0016139165
220	0xbc032210	-0.008003727
221	0x3a95b7ab	0.0011422535
222	0xbc8f345f	-0.017481027
223	0x3b6d308f	0.0036192273
224	0xbc907fc5	-0.01763905
225	0xbc63088d	-0.013857019
226	0xbc3f1a66	-0.011664009
227	0xbc42b0a3	-0.011882934
228	0xbca4571a	-0.020061065
229	0xbc83807a	-0.016052473
230	0x3967759d	0.00022073691
231	0x3ba09293	0.0049002855
232	0x3b629315	0.003457253
233	0x3ca26b3c	0.019826524
234	0x3bb5c467	0.0055470946
235	0x3ccf5e98	0.02531366
236	0x3c06d8ef	0.008230432
237	0x3a752de3	0.0009352846
238	0xbcb72ae8	-0.022359326
239	0xbc197481	-0.009366156
240	0xbaffd333	-0.0019517898
241	0xbcb6443d	-0.022249335
242	0xbc3f0670	-0.01165925
243	0x3c6a677b	0.014306898
244	0xbc15ffc7	-0.00915522
245	0x3b13c3bc	0.0022547087
246	0xbc730650	-0.014833048
247	0xbc1db6f0	-0.009626135
248	0xbc042973	-0.008066523
249	0xbc35099d	-0.011049655
250	0xbb97cc41	-0.0046325033
251	0x3c3050ab	0.01076142
252	0xbbdd4c92	-0.0067535127
253	0x3bf5b1b7	0.007497992
254	0xbccff3ad	-0.025384748
255	0xbc8582d7	-0.01629774

conv3.bias f4 [64]
0	0xbbf500c2	-0.007476897
1	0xbbf8f6f5	-0.007597799
2	0xbbf86748	-0.0075806715
3	0xbb0435c3	-0.0020173646
4	0xbc0e931a	-0.008702064
5	0xbc7c0655	-0.015382369
6	0xbc510253	-0.012756902
7	0xbc0281a3	-0.007965478
8	0x3b48da6f	0.0030647775
9	0x3b158871	0.002281692
10	0x3c82fc3d	0.015989417
11	0xbc14a45c	-0.009072389
12	0xbc4f6563	-0.01265845
13	0xbb8527ee	-0.004063598
14	0xbc0d99d5	-0.008642633
15	0xbc622e57	-0.013804994
16	0xbc88281e	-0.016620692
17	0xbb9366b8	-0.004498329
18	0xbc3cffc7	-0.011535591
19	0xbbfe4650	-0.0077598467
20	0xbbcf8725	-0.006333249
21	0xb84269cd	-4.635174e-05
22	0x3c5075fb	0.012723441
23	0xbc5ffd23	-0.013671192
24	0x3acc6d6f	0.0015596579
25	0xbb677ebb	-0.003532334
26	0xbba5d072	-0.005060249
27	0xbc14647f	-0.009057163
28	0xbb3db67b	-0.0028947878
29	0x3bf3033b	0.0074161566
30	0x3c4009b5	0.011721064
31	0xbcc20996	-0.023686212
32	0x3c0800a7	0.008300937
33	0x3c015cfd	0.007895705
34	0xbc5f35d0	-0.01362367
35	0xbcd5f500	-0.026117802
36	0xbc3f7f3a	-0.011688048
37	0xbc1505b9	-0.009095603
38	0xbbda9080	-0.006670058
39	0xbc019f20	-0.0079114735
40	0xbc2cf6f2	-0.010556923
41	0xbc3e86eb	-0.011628847
42	0x3bc6734b	0.0060562245
43	0x3b42a79f	0.002970196
44	0xbbd96587	-0.0066344175
45	0xbc8acf83	-0.016944652
46	0x3bd1f273	0.006407076
47	0xbca00a0a	-0.019536037
48	0xbb138e0f	-0.0022515093
49	0xbb89c3b3	-0.0042042374
50	0x3bcd24f7	0.00626051
51	0x3bd2bb40	0.0064310133
52	0x3a166e1c	0.00057384535
53	0x3cd5fed2	0.026122484
54	0x3b2eb40d	0.0026657612
55	0xbb074b44	-0.0020644227
56	0xbbcd822b	-0.0062716207
57	0xbc3feb03	-0.011713746
58	0xbb0374a8	-0.0020058546
59	0x3c54c0a3	0.012985381
60	0xbbe3a657	-0.0069473195
61	0xbbb4251f	-0.0054975892
62	0xbc099fa8	-0.008399881
63	0xbc2a58db	-0.010397161

fc1.weight f4 [64, 1024]
0	0xbba586b4	-0.0050514583
1	0xbb7c4e03	-0.0038498647
2	0x3c208d8a	0.009799371
3	0x3b82a7cd	0.0039872886
4	0xbbd8da37	-0.00661781
5	0x3bcb9534	0.0062128548
6	0x3b74f495	0.0037377228
7	0x3beff743	0.007323177
8	0x3b56d420	0.0032780245
9	0xbb313523	-0.0027039729
10	0xbb86d78d	-0.004115051
11	0x3c7185c2	0.014741363
12	0xbafc6dad	-0.001925876
13	0x3b4f26e8	0.0031608883
14	0xbbb23c0f	-0.0054392884
15	0x3bf5bd3a	0.007499364
16	0x3a948402	0.0011330845
17	0x3ba7bad3	0.0051187067
18	0xbb19679b	-0.00234077
19	0xbbf674cf	-0.007521249
20	0x3b8b352f	0.0042482833
21	0xbc31d18d	-0.010853183
22	0x3b90e31a	0.004421604
23	0x3ba8419b	0.005134774
24	0x3c6d299a	0.014475251
25	0xbc9e6327	-0.019334389
26	0x3b9670c7	0.004591081
27	0xbbe36d30	-0.0069405064
28	0xbb5066d2	-0.0031799567
29	0xbc54c0d3	-0.012985426
30	0x3af45fbd	0.0018644255
31	0x3b6173ca	0.003440129
32	0x3a12f479	0.0005605887
33	0xbc583fbf	-0.013198792
34	0xbbc688fa	-0.0060588093
35	0xbbb9ee72	-0.005674177
36	0x3bb284cb	0.005447959
37	0xbbe53c9f	-0.006995752
38	0xbb02e001	-0.0019969943
39	0xbafe5057	-0.0019402605
40	0xbbb78540	-0.0056006014
41	0x3b8c58b5	0.0042830356
42	0xbc458b50	-0.0120571405
43	0xbb542270	-0.003236916
44	0x3bfb8fd3	0.0076770573
45	0x3c4340be	0.011917291
46	0xbc66bde8	-0.014083363
47	0xbb21d606	-0.0024694218
48	0xba3318cd	-0.0006832004
49	0x3c2383c5	0.009980147
50	0xb9cc8b82	-0.00039013854
51	0xbacb76fb	-0.001552313
52	0x3cb43a9b	0.022000602
53	0x3b4b4817	0.003101831
54	0xbca74c6a	-0.02042218
55	0x3b07c0bb	0.0020714242
56	0x3ac3a438	0.001492626
57	0x3c246305	0.010033374
58	0x3abc7a18	0.0014379648
59	0x3ca2d663	0.019877618
60	0x3b40e4b9	0.0029433204
61	0x38b8c2a8	8.810061e-05
62	0xbc1cb008	-0.0095634535
63	0xbb748275	-0.0037309204
64	0xbbd934cb	-0.006628608
65	0xbcac29d7	-0.021016045
66	0x3a01df0f	0.0004954198
67	0x39b59de3	0.00034640645
68	0x3c139d51	0.009009675
69	0x3c8de753	0.017322218
70	0x381e548f	3.7748887e-05
71	0x3bfc7c0a	0.0077052163
72	0x3c94e1b8	0.018174037
73	0xbc128dd9	-0.008944952
74	0x3aff3f10	0.001947375
75	0x3a755f83	0.00093602407
76	0xbc01cce7	-0.007922388
77	0x3bb463e5	0.0055050724
78	0x3b88f6b8	0.004179802
79	0x3c7f71a5	0.01559106
80	0xbc2154af	-0.00984685
81	0x3bfa08ab	0.007630428
82	0x3b76bf5a	0.0037650676
83	0x3b4f967f	0.0031675396
84	0xbbfbe22f	-0.0076868753
85	0xbb62c922	-0.0034604748
86	0xbc983488	-0.018579736
87	0xbc7416e7	-0.0148980385
88	0xbc85350b	-0.016260644
89	0xbb9363d4	-0.0044979844
90	0xb949bacb	-0.0001923844
91	0x3b543ca2	0.0032384773
92	0xbbca6272	-0.0061762864
93	0x3ad9806b	0.0016594058
94	0x3c42565b	0.011861409
95	0xbb3c1bc8	-0.0028703082
96	0xbbdb418b	-0.006691163
97	0x3a95b1ae	0.001142075
98	0xbb5884fd	-0.0033038252
99	0xbb7e58ab	-0.0038810174
100	0x3bf14342	0.007362754
101	0x3bc0e4f5	0.005886669
102	0x3b5353a7	0.0032245906
103	0x3bd68892	0.006547042
104	0xbb830f28	-0.0039996095
105	0xbc6c2112	-0.014412181
106	0xbb8d6a79	-0.004315671
107	0xbbac4187	-0.005256835
108	0xb897547a	-7.215976e-05
109	0xbc1f110a	-0.009708652
110	0x3b759073	0.0037470132
111	0x3c4f9703	0.012670281
112	0xbca5ab9f	-0.020223437
113	0x3c37c3bc	0.0112161
114	0xbb2e2585	-0.0026572656
115	0xba86d058	-0.001028548
116	0x3b88a04b	0.004169499
117	0xbb262d5b	-0.0025356624
118	0xbb11187e	-0.0022139843
119	0xbc626f8f	-0.013820543
120	0x3bb4c58b	0.005516713
121	0x3b63b01d	0.0034742423
122	0x3c3a6d18	0.011378549
123	0x3c604743	0.013688865
124	0x3c0149b8	0.007891111
125	0x3bb08353	0.005386749
126	0xbc5417cf	-0.01294513
127	0x3be40ded	0.006959668
128	0x3b1660ab	0.0022945802
129	0xbbe3aca8	-0.0069480725
130	0x3c0f2685	0.008737211
131	0x3c3dbce9	0.011580684
132	0x3c49d437	0.012318662
133	0xbb5c9853	-0.0033660128
134	0x3b514577	0.0031932273
135	0xbbfe0487	-0.0077520045
136	0x3b54605b	0.0032406065
137	0xbb9d1776	-0.0047940565
138	0x3c68cbaa	0.014208714
139	0x3b3123e3	0.0027029447
140	0xba523faa	-0.0008020351
141	0x3b8d64a9	0.004314978
142	0x3c053532	0.0081303585
143	0xbbd598ed	-0.0065184743
144	0xbc488bf9	-0.012240403
145	0xbc535b22	-0.012900146
146	0x3c638ed3	0.013889032
147	0x3c0e1b82	0.008673551
148	0xbcbd1e7e	-0.023085829
149	0xbc52cbca	-0.01286597
150	0xbae1c423	-0.0017224591
151	0xbb250955	-0.0025182564
152	0xbcc61f7c	-0.024184935
153	0x3b96cb27	0.0046018544
154	0xbb405117	-0.0029345208
155	0x3ca203a8	0.019777134
156	0xbcb20bb4	-0.021734096
157	0x3c624a7b	0.013811703
158	0xbc385089	-0.01124967
159	0xba47d47d	-0.0007622911
160	0x3bae5869	0.005320598
161	0x3b643c60	0.0034826025
162	0xbc6c2758	-0.014413677
163	0x3bb0f618	0.0054004304
164	0xba67e625	-0.0008846245
165	0xbc0b317a	-0.008495683
166	0xbb9f22db	-0.00485645
167	0xba1795f7	-0.00057825394
168	0x3c2c52c3	0.010517779
169	0x3b70c7e5	0.003674024
170	0x3a5a8d3d	0.0008337086
171	0x3bea18d5	0.0071440735
172	0x3c8c82cf	0.017152218
173	0x3bcd682d	0.0062685222
174	0x3c03379f	0.008008867
175	0x3c172247	0.009224481
176	0xbc20dd7a	-0.009818429
177	0xbc7a34a8	-0.015271343
178	0xbbfe9ce2	-0.0077701667
179	0xba0bbe85	-0.0005330819
180	0xb99356d9	-0.0002810273
181	0x3c725307	0.014790303
182	0xb9a4a0a5	-0.00031400207
183	0xbc18f202	-0.009335043
184	0x3b420652	0.0029605818
185	0xbc19148b	-0.009343277
186	0x3b41fdbf	0.0029600707
187	0xbc69eba5	-0.014277373
188	0x3b29e260	0.0025922284
189	0x394b0d44	0.0001936453
190	0xbabd2fe1	-0.0014433825
191	0xbbd6dd7f	-0.006557166
192	0xbc5820da	-0.013191426
193	0xbc0f988f	-0.0087644
194	0x3c2ce897	0.010553501
195	0xba173052	-0.0005767393
196	0x3c087343	0.008328262
197	0x3b0cd147	0.0021487044
198	0xbad2528a	-0.0016046327
199	0xbba59f0f	-0.0050543617
200	0xbb92e9f7	-0.004483457
201	0x3c484f29	0.0122259045
202	0x3bbefaee	0.005828253
203	0x3c78223d	0.015144882
204	0xbb6dbbda	-0.0036275298
205	0xbb871263	-0.004122065
206	0xbaf17527	-0.0018421755
207	0x3bfe9de7	0.0077702883
208	0x3b6deca2	0.0036304374
209	0xbb81dffb	-0.003963468
210	0xbbe488f2	-0.006974333
211	0xbbb6dde3	-0.00558065
212	0x3bd83d8a	0.006599133
213	0x3ca9c368	0.02072306
214	0xbc0e38dc	-0.0086805485
215	0x3c5dbca0	0.013533741
216	0xbbe9e108	-0.0071374215
217	0xbc127e7b	-0.008941288
218	0xbae90450	-0.0017777774
219	0x3b165eab	0.002294461
220	0x3b0fa911	0.002192084
221	0xbb0adb40	-0.0021187812
222	0x3b34ddb0	0.0027597956
223	0x3c2cbc1d	0.010542897
224	0xbb46261a	-0.0030235113
225	0x3ad9305d	0.00165702
226	0xbbd003b3	-0.006348097
227	0xbb3d6f87	-0.0028905587
228	0xbb008123	-0.0019608221
229	0x3c160867	0.009157277
230	0x3c0d2142	0.008613886
231	0x3c89579d	0.01676541
232	0x3bb23564	0.0054384936
233	0xbb805fcd	-0.0039176703
234	0xbc4c2515	-0.012460013
235	0x399ebcb8	0.00030276715
236	0x3a82c4ba	0.0009976842
237	0x3a25959a	0.0006316543
238	0xbc590410	-0.0132455975
239	0x3c258716	0.010103008
240	0xbb9036ff	-0.0044010873
241	0x3acd8dfd	0.0015682575
242	0x3c00d0bf	0.007862269
243	0x3bf88357	0.0075840163
244	0x3aa586f7	0.0012628724
245	0x3c27e531	0.010247515
246	0x3c1d92b0	0.009617493
247	0x3ba5fb29	0.005065341
248	0xbb70c690	-0.0036739446
249	0xbb501c40	-0.003175512
250	0x3badc658	0.0053031854
251	0xba2629ef	-0.0006338646
252	0xbc17bc8a	-0.00926126
253	0xbcac935f	-0.021066366
254	0xbc0d9e3e	-0.008643685
255	0x3c1bb767	0.009504176

fc1.bias f4 [64]
0	0xbc20a50d	-0.009804976
1	0x3ab7a9eb	0.0014012431
2	0xbc76124b	-0.01501901
3	0xba013093	-0.00049281976
4	0xbc360232	-0.011108922
5	0x3b5326ef	0.003221925
6	0xbcc04423	-0.02346999
7	0xba9b6e83	-0.0011858497
8	0xbbf93c1f	-0.007606044
9	0xbb8a98d7	-0.0042296457
10	0xbbac524d	-0.0052588345
11	0xbc2b32fd	-0.010449168
12	0x3c6033df	0.013684242
13	0xbc90638a	-0.017625589
14	0xbbbfdcdd	-0.0058551864
15	0xbafcf60f	-0.0019299405
16	0xbbc14670	-0.0058982894
17	0xbc172ba3	-0.009226712
18	0xbca75ed6	-0.020430963
19	0xbc161ea7	-0.0091625815
20	0x3bb03fd3	0.005378702
21	0xbb709fcd	-0.0036716342
22	0x3b964d52	0.004586854
23	0x3a78ed30	0.0009495793
24	0xb9c911fb	-0.00038351104
25	0x3c77a297	0.015114448
26	0x3bf3f43d	0.007444887
27	0xbb830709	-0.0039986414
28	0x3a82a800	0.0009968281
29	0x3c801216	0.015633624
30	0x3bea89b8	0.0071575306
31	0x3cb192d5	0.02167646
32	0x3b6bf5c2	0.0036004637
33	0x3d02df29	0.031951103
34	0x3c411ec7	0.011787123
35	0x3c573a9d	0.013136533
36	0xbcb10410	-0.021608382
37	0xbc98abbe	-0.01863658
38	0x3cbdac83	0.023153549
39	0x3ca22c41	0.019796493
40	0xbc68f82a	-0.014219323
41	0xbbed2587	-0.0072371396
42	0x3d054b43	0.03254248
43	0xb97ba068	-0.00023996981
44	0xbc5f0fcd	-0.013614607
45	0x3c08c966	0.008348798
46	0x3c5eeb5a	0.013605917
47	0x3bc08c02	0.005876065
48	0x3b52ad77	0.003214685
49	0xba84dfeb	-0.0010137534
50	0xbb265ae4	-0.0025383765
51	0x3bc78ebe	0.0060900142
52	0xb892034d	-6.962437e-05
53	0x3c551e28	0.013007678
54	0xbc906dbf	-0.017630456
55	0xbc15e780	-0.009149432
56	0xbb0483a4	-0.0020220065
57	0x3b302bbf	0.0026881543
58	0xbbb7384c	-0.005591428
59	0xbcd42b97	-0.025899692
60	0xbbc14c44	-0.005898984
61	0xbc6aa6dd	-0.01432201
62	0xbaae9f5c	-0.0013322639
63	0x3c49f8cb	0.012327383

fc2.weight f4 [10, 64]
0	0x3d6f5ee0	0.05844009
1	0x3d3c41e3	0.045961272
2	0x3d1027ae	0.03519409
3	0xbc53d6a7	-0.012929595
4	0xbd412c73	-0.04716153
5	0xbc13b3db	-0.009015049
6	0x3db555d5	0.08854262
7	0x3b236aa3	0.0024935387
8	0x3cecf09b	0.028923323
9	0x3cccf6ef	0.02502009
10	0xbd92b5d6	-0.07163589
11	0x3c99cc1b	0.018774083
12	0xbd05f6f5	-0.03270622
13	0x3d1805a3	0.03711475
14	0x3c2d4ff3	0.010578143
15	0x3bd79975	0.006579573
16	0x3d5949b2	0.053048797
17	0xbc28b64e	-0.010297371
18	0xbcb33c7a	-0.021879423
19	0xbce6351b	-0.028101495
20	0x3babd59b	0.0052439696
21	0xbcb6097a	-0.022221316
22	0x3cdcce72	0.02695391
23	0xbd0a8005	-0.033813495
24	0x3c6e3015	0.014537831
25	0xbc8d3140	-0.017235398
26	0xbbd2806b	-0.006424
27	0x3cb31313	0.021859681
28	0xbc273b48	-0.010207005
29	0xbc99623b	-0.018723598
30	0x3c4e37f8	0.012586586
31	0x3c8223cb	0.015886208
32	0x3d2fb7ab	0.04289977
33	0xbd29d441	-0.041462187
34	0x3cb6bd8f	0.022307185
35	0xbcfc3e13	-0.030791318
36	0x3bd63d37	0.006538059
37	0x3d50bfa2	0.050964005
38	0x3bd434e2	0.0064760307
39	0xbc2314a8	-0.009953655
40	0x3ac576de	0.0015065332
41	0x3c0dbbfa	0.008650774
42	0xbd321058	-0.043472618
43	0xbcf4435d	-0.029817278
44	0x3d1f20bf	0.03884959
45	0x3c94c38d	0.018159652
46	0xbbb4b8e4	-0.0055152047
47	0x3d101844	0.03517939
48	0xbd6bd1f8	-0.05757329
49	0xbb1143ee	-0.0022165733
50	0xbc3dfc82	-0.011595847
51	0x3ceee330	0.029161066
52	0xbc19cfd3	-0.009387928
53	0x3d28f393	0.041247915
54	0x3ce0c668	0.027438357
55	0x3c88c1e3	0.016694015
56	0xbd1c79a8	-0.038201958
57	0xbc8341cc	-0.016022585
58	0x3d425558	0.04744467
59	0xbcba741f	-0.022760449
60	0x3d796c3d	0.06089424
61	0xbb4a260b	-0.003084543
62	0x3cc5df6b	0.024154386
63	0x39c09539	0.00036732273
64	0xbd4eac72	-0.050457425
65	0x3d5e3c7d	0.054256905
66	0xbc901b6a	-0.017591197
67	0xbcfe1e35	-0.031020263
68	0xbc635337	-0.01387482
69	0x3d21012f	0.03930777
70	0x3c86ed32	0.016470525
71	0x3d15c456	0.036564194
72	0x3c9afc6f	0.018919198
73	0x3d1bc012	0.03802497
74	0x3c21afa3	0.009868535
75	0xbd82458b	-0.063609205
76	0x3d95d56e	0.07316099
77	0xbaf8215f	-0.0018930844
78	0x3ce722a3	0.028214758
79	0xbb7158e5	-0.0036826667
80	0xbcc1cd63	-0.023657506
81	0xbcb3737a	-0.02190565
82	0x3d192a8f	0.037394103
83	0xbd436cf5	-0.04771133
84	0x3cddfec8	0.027099028
85	0x3cbb416c	0.022858344
86	0xba8ba7be	-0.001065485
87	0x3d0fa641	0.03507066
88	0xbc20a8b8	-0.009805851
89	0xbcb94aca	-0.02261867
90	0xbcd2176b	-0.025645932
91	0x3ce98d73	0.028509831
92	0xbc8f8097	-0.017517371
93	0x3d19bc43	0.037533056
94	0xbaecc807	-0.0018064984
95	0x3d2c07f9	0.04199979
96	0x3cb61a89	0.02222945
97	0xbd5f80ea	-0.0545663
98	0xbd8a7f9a	-0.06762619
99	0xbd428ee7	-0.047499564
100	0x3d8cc755	0.06873957
101	0xbd5e38a0	-0.05425322
102	0xbd661d32	-0.056180187
103	0xbdc05c02	-0.09392549
104	0x3d49debc	0.04928468
105	0x3b61c8d0	0.003445197
106	0xba000163	-0.0004883019
107	0xbb9c07fd	-0.0047616945
108	0x3d2e2e00	0.042524338
109	0x3d29125e	0.041277282
110	0x3de3d94d	0.11125431
111	0xbceb6e17	-0.028739018
112	0xbcc32e73	-0.02382586
113	0x3d31cf15	0.04341038
114	0x3c818269	0.015809255
115	0xbc84d487	-0.016214622
116	0xbc01cb78	-0.007922046
117	0xbd812538	-0.06305927
118	0x3c244280	0.01002562
119	0xbba78cf1	-0.005113237
120	0xbb1be9ef	-0.0023790558
121	0x3d189b5d	0.03725754
122	0xbc87119f	-0.016487895
123	0xbbf7dead	-0.007564387
124	0xbd07fdd9	-0.033201072
125	0xbc73044b	-0.0148325665
126	0x3d45232d	0.04812925
127	0xbcf05c37	-0.029340846
128	0x3c9b053c	0.018923394
129	0xbaee8043	-0.0018196184
130	0xbcfabd0d	-0.030607725
131	0xbcea85f5	-0.028628329
132	0xbccfa502	-0.025347237
133	0xbd5992d5	-0.053118546
134	0xbd06a6e3	-0.032874
135	0xbc4eb107	-0.012615449
136	0xbd3b1c08	-0.04568103
137	0xbcc784e0	-0.024355352
138	0xbcef9040	-0.029243588
139	0x3c73acda	0.014872754
140	0x3ba86486	0.0051389365
141	0x3cb68cd8	0.022283956
142	0x3d061cfb	0.03274248
143	0x3cad9108	0.02118732
144	0x3d2bae5a	0.04191432
145	0xbbf57347	-0.007490549
146	0xbcf88d42	-0.030340794
147	0x3c9f1398	0.019418523
148	0xbb90207e	-0.0043984046
149	0x3c8712b0	0.016488403
150	0xbbc723cc	-0.0060772654
151	0x3d18726b	0.037218492
152	0xbc07f39d	-0.008297828
153	0x3d0e7e93	0.03478868
154	0x3c66f2ba	0.014095956
155	0xbcea012b	-0.02856501
156	0xbc6e9372	-0.014561521
157	0x3c933c3d	0.01797306
158	0xbbc23461	-0.005926654
159	0xbcaceea6	-0.02110989
160	0x3cf6984d	0.03010192
161	0x3d932310	0.07184422
162	0x3d631905	0.055443782
163	0xbce023d7	-0.02736084
164	0x3c56077f	0.013063311
165	0x3c4a8943	0.012361827
166	0x3cfed96a	0.03110953
167	0x3d054683	0.03253795
168	0xbc82c278	-0.01596187
169	0xbd08af20	-0.033370137
170	0x3d1eb028	0.038742214
171	0x3b365a25	0.0027824726
172	0x3d156683	0.036474716
173	0x3c229ff2	0.009925829
174	0xbd93870d	-0.07203493
175	0xbc7ae763	-0.015313956
176	0xbccfe7ab	-0.025379023
177	0xbd0d6e2b	-0.034528892
178	0xbc058efb	-0.008151765
179	0xbcb81fda	-0.022476126
180	0x3d12e8dc	0.035866603
181	0xbc17eb1a	-0.009272361
182	0x3b7ac017	0.0038261467
183	0x3d39ef1b	0.045394044
184	0xbc9e8405	-0.019350061
185	0xbd9088c4	-0.07057336
186	0x3d0b737f	0.034045693
187	0xbca6f24f	-0.020379214
188	0xbb1247b1	-0.0022320563
189	0x3c423a77	0.011854759
190	0x3c03db7f	0.008047937
191	0x3b9f68af	0.004864774
192	0xbd846337	-0.06464236
193	0x3c1060fe	0.008812187
194	0x3d7675ed	0.060171057
195	0xbc88ec9d	-0.016714389
196	0x3cd57c6d	0.026060307
197	0x3afde403	0.0019370321
198	0x3b0b3ab0	0.0021244697
199	0x3d4ecf7f	0.050490852
200	0x3cf6f0ab	0.030144056
201	0xbce7615b	-0.028244665
202	0xbc2cf64b	-0.010556768
203	0x3bb16dff	0.005414724
204	0x3d02842d	0.031864334
205	0xbd9a208b	-0.07525738
206	0xbbdd65ea	-0.006756534
207	0x3d841514	0.06449333
208	0xbc009af2	-0.007849442
209	0xbd196808	-0.037452728
210	0x3cb411a2	0.021981064
211	0x3adcd697	0.0016848621
212	0x3d3bd9c7	0.045861986
213	0x3ce0c642	0.027438287
214	0xbc971cc7	-0.01844634
215	0x3d2716d7	0.040793266
216	0xbab1c3b0	-0.0013562348
217	0x3d046acd	0.032328416
218	0xbc8ba5a3	-0.017046755
219	0xbb10a147	-0.0022068785
220	0xbb968724	-0.0045937467
221	0x3bc5ef1f	0.0060404683
222	0xbda3f9c3	-0.08006623
223	0x3cd9374d	0.026515627
224	0x3bba6623	0.005688445
225	0x3d333f25	0.04376139
226	0x3d22186f	0.039574083
227	0xbc57ee0a	-0.0131793115
228	0xbd61725a	-0.055040695
229	0xbd1f6013	-0.038909983
230	0x3cd83822	0.026393954
231	0x3d1f81ed	0.038942266
232	0x3d3e6d9b	0.046491247
233	0xbc88b223	-0.016686505
234	0xbb15b2a4	-0.0022842074
235	0xbc8b6407	-0.01701547
236	0xbd0638b8	-0.032768935
237	0xbc14ba9b	-0.009077693
238	0xbd7f3b37	-0.06231233
239	0x3c4c3cc3	0.012465659
240	0xbc04f433	-0.008114862
241	0xbc3faea0	-0.011699349
242	0x3d10e105	0.035370845
243	0xbbfb447b	-0.0076680756
244	0xbcd8b313	-0.026452577
245	0xbc0c0973	-0.008547175
246	0xbc537ce5	-0.012908195
247	0x3d685545	0.056721944
248	0x3cdf9947	0.027294768
249	0x3caca896	0.021076482
250	0xbcf482ed	-0.029847587
251	0xbd2265f9	-0.03964803
252	0x3bb8994b	0.0056335083
253	0xbd08b28f	-0.03337341
254	0x3cfd32a7	0.030907942
255	0x3ce65262	0.028115455

fc2.bias f4 [10]
0	0xbd8b7807	-0.06810003
1	0x3ca93039	0.020652877
2	0x3d194570	0.037419736
3	0xbcdd43b5	-0.027009824
4	0x3ccbc543	0.024874335
5	0x3bdf3347	0.0068115327
6	0xbc84c6ff	-0.01620817
7	0xba837803	-0.0010030273
8	0xbc509815	-0.012731572
9	0xbd7a3647	-0.06108692
