torch_to_tf/torch_models/model_round459.model (torch, 493063 bytes, 10 tensors)

conv1.weight f4 [32, 3, 3, 3]
0	0xbd2a0de1	-0.041517142
1	0xbd32425b	-0.043520313
2	0xbdbe2943	-0.09285214
3	0xbd918ff7	-0.07107537
4	0xbcc558e2	-0.024090234
5	0xbd15de6d	-0.036589075
6	0x3d9394dd	0.07206128
7	0x3d7df96b	0.06200544
8	0x3cb56d5b	0.022146871
9	0x3d127a7a	0.035761334
10	0xbd54aa10	-0.051919997
11	0xbd95c2fa	-0.073125795
12	0x3cff0a8d	0.03113296
13	0x3c311526	0.010808265
14	0x3d377bcc	0.044795796
15	0xbc8fb92f	-0.017544357
16	0xbdd82533	-0.1055397
17	0x3bb93a86	0.0056527285
18	0x3d03729f	0.032091733
19	0x3d818c3b	0.06325575
20	0x3db31c93	0.087456845
21	0xbd170b9e	-0.036876313
22	0x3cd7e450	0.026353985
23	0x3cb54154	0.022125877
24	0x3df1aeff	0.11800956
25	0x3d327d68	0.043576628
26	0x3cf8bbc0	0.030362964
27	0xbd51a5d0	-0.05118352
28	0xbd0a9ab2	-0.033838935
29	0x3d7b3ac5	0.061335344
30	0x3d1c8b6e	0.038218908
31	0xbd205598	-0.03914413
32	0x3cfb1ad3	0.03065244
33	0xbbc3e86d	-0.005978635
34	0x3d20564b	0.039144795
35	0x3cdd1477	0.026987297
36	0xbcf516f3	-0.02991817
37	0x3ae1ecd7	0.0017236721
38	0x3d71097f	0.058846947
39	0xbd2443a3	-0.040103566
40	0x3ba54637	0.0050437707
41	0x3cc243e8	0.02371402
42	0xbb505ab3	-0.0031792342
43	0x3d514570	0.05109161
44	0xbbcfd037	-0.00634196
45	0xbd1e1ac3	-0.03859974
46	0x3d106b5b	0.035258632
47	0xbd2aa04a	-0.04165677
48	0xbddf960a	-0.109172896
49	0x3c967ff4	0.01837156
50	0xbc1512e0	-0.009098738
51	0xbda5df10	-0.080991864
52	0x3c7dc567	0.015488959
53	0x3df52d03	0.11971476
54	0xbd8de56c	-0.069285244
55	0xbcd1b39a	-0.025598336
56	0x3d95b05a	0.07309027
57	0x3db76bb7	0.08956092
58	0xbd25e147	-0.040498044
59	0xbd57b0ca	-0.052658834
60	0xbd0d1035	-0.034439284
61	0x3dcb794f	0.09935247
62	0xbd38bce7	-0.045102026
63	0x3c312a25	0.010813271
64	0x3cad63dc	0.02116578
65	0x3afc57d7	0.0019252253
66	0xbc49c6fd	-0.012315509
67	0xbbc9ba7a	-0.006156263
68	0x3d1b5df3	0.037931394
69	0x3be2e785	0.006924572
70	0x3cba7a34	0.02276335
71	0x3d03fb08	0.032221824
72	0x3cd0fb1b	0.025510361
73	0xbd517d1f	-0.051144715
74	0x3c650262	0.013977619
75	0x3dd56fb0	0.10421693
76	0x3b39804d	0.0028305233
77	0xbc5fe903	-0.013666394
78	0xbcfbb5ab	-0.030726274
79	0x3daedc73	0.08538141
80	0x3d81e9af	0.063434
81	0x3e148926	0.14505443
82	0x3ca46db0	0.020071834
83	0xbdc62869	-0.096756764
84	0x3c8b72b0	0.01702246
85	0x3c83b3f2	0.016077016
86	0xbcf21d33	-0.029554939
87	0x3da7805d	0.0817878
88	0x3be2bd43	0.0069195344
89	0xbd960d8a	-0.07326801
90	0x3a4a7132	0.0007722556
91	0xbd8901a3	-0.06689765
92	0x3d9874c7	0.074441485
93	0x3d3f373b	0.04668353
94	0xbdd5a485	-0.1043177
95	0xbd6cef17	-0.0578452
96	0x3ccebbeb	0.02523609
97	0xbd890402	-0.066902176
98	0x3d705c57	0.058681812
99	0x3d035743	0.03206564
100	0xbd3cb354	-0.046069458
101	0xbcaced7f	-0.02110934
102	0x3d57d1aa	0.052690186
103	0x3ca9316c	0.020653449
104	0xbb837435	-0.0040116557
105	0x3d8f9025	0.07009915
106	0xbcb3caeb	-0.021947345
107	0xbdae67e4	-0.08515909
108	0xbcaba9d2	-0.020955
109	0xbb7738b3	-0.0037723004
110	0xbc833159	-0.016014742
111	0x3d9bc9c8	0.07606846
112	0xbd0053d8	-0.03132996
113	0x3d6e487f	0.058174606
114	0xbd76d9eb	-0.060266417
115	0xbd356a31	-0.044290725
116	0x3d5fc7f2	0.054634042
117	0xbe040323	-0.12891822
118	0xbbb0b0ea	-0.0053921835
119	0xbd5018ed	-0.05080502
120	0xbcbaf0f8	-0.022819981
121	0x3a1f7e39	0.00060841773
122	0xbd930c33	-0.07180061
123	0x3d2ee978	0.042703122
124	0x3db5fe05	0.08886341
125	0x3d51688b	0.05112509
126	0x3d5ec5d8	0.054387897
127	0xbcec311a	-0.028832007
128	0xbd1e4fd8	-0.038650364
129	0xbd2e017b	-0.04248188
130	0xbd34e1ac	-0.04416053
131	0x3b817684	0.0039508957
132	0x3d7a76f2	0.06114859
133	0x3da24f80	0.0792532
134	0xbc13f9da	-0.009031737
135	0x3d112999	0.03544006
136	0xbc7f1f55	-0.015571435
137	0x3dae9f9f	0.08526539
138	0x3ceab2ff	0.028649805
139	0x3c0a1be1	0.008429498
140	0x3da62a3f	0.081135266
141	0xbd0a6d17	-0.033795442
142	0xbda1bb26	-0.07897024
143	0x3d37c75b	0.044867855
144	0xbc95e024	-0.018295355
145	0xbdbf3c43	-0.09337666
146	0x3dcbe764	0.09956244
147	0x3b919e39	0.0044439104
148	0x3bf95530	0.007609032
149	0xbc9b9416	-0.018991511
150	0xbd8ca6e2	-0.06867768
151	0xbe0c1d17	-0.13682972
152	0x3d0c7f60	0.03430116
153	0x3cb2a697	0.021807952
154	0xbdc4796f	-0.09593474
155	0x3da20ba2	0.07912375
156	0xbccdf66d	-0.025141919
157	0x3d805cd8	0.062677085
158	0x3cff272a	0.031146605
159	0xbcf86f93	-0.03032664
160	0x3c2a83ed	0.01040743
161	0xbcbf6d81	-0.023367645
162	0xbd6fdddb	-0.058561187
163	0xbd6f254b	-0.058385175
164	0xbd836779	-0.0641622
165	0x3c8b218f	0.016983775
166	0x3d04f1d0	0.032457173
167	0xbd512b20	-0.051066518
168	0xbd054766	-0.032538794
169	0x3c8ba841	0.017048003
170	0x3be78708	0.0070656575
171	0xbd5f4040	-0.054504633
172	0x3d9a58c5	0.07536463
173	0x3cdc06c0	0.026858687
174	0x3d66cfa0	0.05635035
175	0xbd8a6e37	-0.06759303
176	0x3d67eacd	0.056620408
177	0xbce76007	-0.028244032
178	0x3d21a719	0.039465997
179	0x3d4a8e8e	0.049452357
180	0x3d124792	0.035712786
181	0xbc446fcb	-0.011989544
182	0x3d23e459	0.04001269
183	0x3d589777	0.052878823
184	0xbc95efc8	-0.018302813
185	0x3dce63f0	0.10077655
186	0x3d2c3b06	0.042048477
187	0xbd170fdf	-0.03688037
188	0xbbf41e8d	-0.007449931
189	0xbd173042	-0.036911257
190	0xbcda1140	-0.026619554
191	0x3d8a2e6b	0.06747135
192	0xbd8b7c02	-0.06810762
193	0x3be30c9f	0.006928995
194	0xbc86cc96	-0.016454976
195	0x3d7a5fb5	0.06112643
196	0x3be35a83	0.00693828
197	0x3bf565bf	0.0074889357
198	0xbcaa4303	-0.020783907
199	0xb9d910c2	-0.0004140195
200	0xbbe64443	-0.0070271804
201	0x3dadaa9f	0.08479809
202	0xbd0dc53a	-0.034611918
203	0x3d48ed13	0.049054217
204	0x3a7a8ff0	0.00095581915
205	0x3cfd738f	0.030938892
206	0xbe0bd626	-0.1365591
207	0x3be78b1f	0.007066145
208	0x3c17a0cd	0.0092546465
209	0x3cd4fff3	0.026000952
210	0x3c850c20	0.016241133
211	0xbc6d4aad	-0.014483136
212	0xbdbd929a	-0.09256478
213	0x3dbbcdb1	0.09170092
214	0x3bd67842	0.0065450976
215	0xbd2a59bd	-0.041589487
216	0x3d4cfe7f	0.050047394
217	0x3db5c75e	0.08875917
218	0xbc0759cb	-0.008261154
219	0x3d25f948	0.040520936
220	0x3c48fcc4	0.012267295
221	0xbcf49468	-0.029855922
222	0x3d2540cf	0.04034501
223	0xbd06734e	-0.032824807
224	0x3ce4f9bb	0.027951112
225	0x3d500893	0.050789427
226	0x3df12497	0.11774557
227	0x3d8d723b	0.06906553
228	0xbdd9945a	-0.10623999
229	0xbd5ec1bd	-0.054383982
230	0xbd491157	-0.049088802
231	0xbd8f0a15	-0.06984345
232	0xbc88cd83	-0.016699558
233	0x3d1eea60	0.038797736
234	0x3cc9d40f	0.02463725
235	0x3dc0d6e2	0.09415986
236	0xbd429282	-0.047503002
237	0x3d8d05c9	0.06885869
238	0xbd1b46d4	-0.037909344
239	0xbc844f97	-0.016151233
240	0x3d3f2b09	0.0466719
241	0xbe0379bd	-0.12839408
242	0xbdba569a	-0.09098549
243	0xbdb3e98e	-0.087847814
244	0xbd09d9bf	-0.033654924
245	0x3d65bc02	0.0560875
246	0x3d4cf610	0.05003935
247	0xbd31ee69	-0.043440256
248	0xbd450c3d	-0.048107374
249	0xbd3acc0a	-0.045604743
250	0x3d0e531d	0.03474723
251	0xbd3c8219	-0.04602251
252	0x3d857d67	0.06518059
253	0xbc30db28	-0.010794438
254	0x3c977d30	0.018492311
255	0x3d6f4942	0.058419473

conv1.bias f4 [32]
0	0xbd54d813	-0.051963877
1	0x3cb32bd8	0.021871492
2	0x3ce63c1f	0.02810484
3	0x3ca68d76	0.020331126
4	0xbdd474d3	-0.10373845
5	0x3bf7461f	0.007546201
6	0x3cba031f	0.022706566
7	0x3d0e7da7	0.0347878
8	0xbcfa4ad5	-0.03055326
9	0xbd6fa0aa	-0.05850283
10	0x3dd958ad	0.10612617
11	0xbd9fdd1d	-0.07805846
12	0xbd404460	-0.046940207
13	0xbdbaeb7f	-0.091269486
14	0xbca756e3	-0.020427173
15	0xbd596002	-0.053070076
16	0x3d7693ea	0.060199656
17	0x3c35f29a	0.011105204
18	0x3dbf6628	0.09345657
19	0xbd614260	-0.05499494
20	0x3de5155b	0.11185714
21	0x3ddee1ed	0.10882936
22	0x3d1fe050	0.03903228
23	0x3c7052f5	0.014668216
24	0x3c865521	0.016398015
25	0xbe540762	-0.20705941
26	0x3e1644ea	0.14674726
27	0x3d29362d	0.04131143
28	0xbca76891	-0.020435603
29	0xbb7df518	-0.0038750824
30	0xbd58cb3d	-0.052928198
31	0x3d8a544f	0.06754362

conv2.weight f4 [64, 32, 3, 3]
0	0x3c2345b3	0.009965348
1	0xbcde87a3	-0.027164286
2	0x3c6c8e5b	0.014438237
3	0xbc0a86b2	-0.008454965
4	0xbca9da98	-0.020734116
5	0xbc067eb1	-0.0082089165
6	0xbb8a1e5d	-0.0042150454
7	0x3b9681b8	0.0045931004
8	0x3a779078	0.000944383
9	0x3cce553d	0.02518713
10	0x3bb3b2a0	0.0054839402
11	0xbb2537ca	-0.0025210255
12	0xbd04cb08	-0.03242019
13	0xbc831ee5	-0.016005943
14	0xbca2ffa7	-0.019897295
15	0xbb286722	-0.0025696238
16	0x3b84651c	0.0040403735
17	0x3ab18085	0.001354233
18	0xbc4fe45f	-0.012688725
19	0xbc89e2ba	-0.016831744
20	0xbc922b0d	-0.017842794
21	0x3bec6c2b	0.007215043
22	0x3adfe5dd	0.0017082054
23	0x39b0c879	0.000337187
24	0xbcd2fc28	-0.025755003
25	0xbce360ea	-0.027756173
26	0x3c576c60	0.013148397
27	0xbc7545ed	-0.014970285
28	0xbc609f3f	-0.013709842
29	0xbc8885a5	-0.01666529
30	0xbc8187e3	-0.015811866
31	0x3cb6ccf4	0.022314526
32	0xbcabf487	-0.020990623
33	0x36a36498	4.869489e-06
34	0xbc97dbbb	-0.018537393
35	0x39cbc0f5	0.0003886294
36	0x3d03f660	0.032217383
37	0x3bc81410	0.0061059073
38	0xbc7dafb0	-0.015483782
39	0x3bb3850b	0.0054785064
40	0x3c84af18	0.016196772
41	0xbc41123f	-0.011784135
42	0xba1bc7cf	-0.00059425546
43	0xba971523	-0.0011526685
44	0xbc349bc7	-0.011023468
45	0x3c4c4853	0.012468415
46	0xbc4ff758	-0.012693249
47	0x3ca5ddbd	0.020247335
48	0xbcfb3ccb	-0.030668637
49	0x3c842f67	0.016135884
50	0xbc8100a4	-0.015747376
51	0x3c539995	0.012915035
52	0xbd0fcca5	-0.035107274
53	0xbcbf2ea2	-0.023337666
54	0xbd15c239	-0.03656218
55	0xbcdeb553	-0.027186072
56	0x3ba7dca7	0.0051227394
57	0xbbb8d76d	-0.005640915
58	0xbb292ac8	-0.0025812853
59	0xbcaaf9a9	-0.020871
60	0x3cc80b77	0.02441953
61	0xbbff12da	-0.0077842297
62	0x3b82c655	0.003990928
63	0xbc96b0dd	-0.018394882
64	0xbb582f13	-0.0032987043
65	0xbc9a38d4	-0.018825926
66	0xbabc8beb	-0.001438496
67	0xbd093142	-0.03349424
68	0xbce1fe60	-0.027587116
69	0xbc627ae3	-0.013823244
70	0x3b80dd9c	0.003932668
71	0xbc8cdc62	-0.01719493
72	0x3bc57678	0.0060260855
73	0x3c2a912a	0.010410586
74	0xbb717a10	-0.0036846437
75	0x3c20fb81	0.009825588
76	0xbc2b46d0	-0.010453895
77	0xbc804da4	-0.015662022
78	0xbc00f74b	-0.007871459
79	0x3c35377a	0.01106059
80	0xbcb81924	-0.022472925
81	0xbc52d4a3	-0.012868079
82	0x3bb3a54f	0.005482353
83	0xbcd9b0b8	-0.026573524
84	0x3c892890	0.016742975
85	0xbcce5510	-0.025187045
86	0x3a8c3687	0.0010697403
87	0x3c9c861f	0.019106923
88	0xbce24458	-0.02762048
89	0xbd1c37a1	-0.03813899
90	0xbd1d9ee8	-0.038481623
91	0xbc551e9d	-0.013007787
92	0x3bf6e213	0.0075342744
93	0x3c69d357	0.014271579
94	0xbc2b2a77	-0.010447136
95	0x3bb92a02	0.0056507597
96	0xbb0ea6a7	-0.0021766813
97	0x3ac25ca3	0.0014828633
98	0xbcb27d48	-0.021788254
99	0xbcd7cab0	-0.026341766
100	0x3cb6acfa	0.022299279
101	0xbc05a7d0	-0.008157685
102	0xbc6d0370	-0.014466152
103	0xbcf8cbd8	-0.030370638
104	0x3c68afb2	0.014202045
105	0xbd035368	-0.032061964
106	0xbcc8a00f	-0.024490384
107	0x3c730a47	0.014833993
108	0xbcd002f3	-0.025392031
109	0x3b363ab8	0.0027805995
110	0xbb28bf44	-0.0025748769
111	0xbaf5f108	-0.001876385
112	0xbc9085a3	-0.017641848
113	0xbc15790a	-0.009123096
114	0xba6abebb	-0.00089548127
115	0xbc8bbca3	-0.017057722
116	0x3a162125	0.0005726985
117	0xbd06739f	-0.03282511
118	0xbc2955c2	-0.010335388
119	0xbcdbbebf	-0.026824353
120	0xbc65bff8	-0.01402282
121	0xbc929cd0	-0.01789704
122	0xbadbfdff	-0.0016784071
123	0x3c0ae3cf	0.008477165
124	0x3bb19ac7	0.005420062
125	0xbc573983	-0.01313627
126	0xbcb9d768	-0.022685722
127	0x3b169527	0.0022977085
128	0xbb99321f	-0.0046751644
129	0xbc8b826f	-0.017029969
130	0xbcd225d7	-0.025652809
131	0xbc879240	-0.01654923
132	0xbc4968b1	-0.012293027
133	0xbd0119ab	-0.03151862
134	0x3c0c61b7	0.008568219
135	0x3907ca23	0.00012949905
136	0x3c5f657b	0.013635035
137	0xbcb68ecd	-0.02228489
138	0xbc8b5f10	-0.017013103
139	0xbc3ed51f	-0.011647492
140	0xbc800a35	-0.015629867
141	0xbc12051c	-0.008912351
142	0xbcb4ae3f	-0.022055743
143	0xbbf7136a	-0.007540156
144	0xbcbcdf39	-0.02305566
145	0xbc56a663	-0.013101193
146	0xbce8e1d8	-0.028428003
147	0xbc75c55d	-0.015000668
148	0x3c9ac45c	0.01889246
149	0xbab6ab63	-0.0013936575
150	0xbc32ca58	-0.0109125
151	0xbbf1b962	-0.0073768357
152	0xbca291bc	-0.019844882
153	0xbc23a82b	-0.009988825
154	0xbc373577	-0.011182181
155	0xbc63a85a	-0.013895119
156	0x3bf53b38	0.007483866
157	0x3c205b7b	0.009787436
158	0xbbe298ad	-0.006915173
159	0x3c0372e7	0.008023
160	0xbbe0854a	-0.006851827
161	0xbc392192	-0.011299508
162	0xbbe11988	-0.0068694986
163	0x3c78d84d	0.015188289
164	0x3c8edd3f	0.017439483
165	0xbced33f0	-0.02895543
166	0x3b1819a2	0.0023208638
167	0xbb27e108	-0.0025616307
168	0xbcd89bc3	-0.02644146
169	0x3c0f116f	0.008732184
170	0xbcb4ad0a	-0.022055168
171	0xbb974829	-0.0046167565
172	0xbba0bbf5	-0.0049052187
173	0xbcc6526a	-0.02420922
174	0xbb6b21b8	-0.0035878252
175	0xbc8cd04c	-0.017189167
176	0xbce4a4eb	-0.02791067
177	0x3a6c0617	0.0009003593
178	0xbb093d94	-0.0020941244
179	0x3d0c7537	0.034291472
180	0xbb1f62a7	-0.0024320276
181	0xbc11f867	-0.008909321
182	0xbcbbf02f	-0.022941677
183	0xbb7ef2f0	-0.0038902126
184	0xbc606885	-0.013696794
185	0xbb58b33f	-0.0033065823
186	0xbc74fdf0	-0.014953122
187	0x3cc56a38	0.0240985
188	0xbc19c7c2	-0.009386005
189	0xbcaa4b92	-0.020787988
190	0xbbb183a2	-0.005417303
191	0xbb649e77	-0.0034884491
192	0xbc9a285f	-0.018818079
193	0xbb49c7c5	-0.0030789238
194	0x3c988a13	0.018620526
195	0xbbc228e8	-0.0059252866
196	0x3c9731a4	0.018456288
197	0xbb918170	-0.004440479
198	0x3a8109fb	0.0009844893
199	0x3c7f4a6f	0.015581711
200	0xbc59fc5d	-0.013304797
201	0xbb08a548	-0.0020850468
202	0x3ceff3ab	0.029290995
203	0x3c6ba3af	0.014382287
204	0x3b93ab4c	0.004506504
205	0x3c449032	0.0119972695
206	0xbcff0768	-0.031131461
207	0xbc9832ef	-0.018578975
208	0xb9eef0f5	-0.00045574424
209	0xbc300695	-0.010743757
210	0xbcd145aa	-0.025545914
211	0xbc00a212	-0.007851141
212	0xba030bc0	-0.00049990043
213	0xbc16870f	-0.009187474
214	0x3cf1ab52	0.029500637
215	0x3c993963	0.018704122
216	0xbcda4c40	-0.026647687
217	0xbd0ae874	-0.03391309
218	0xbd09b67f	-0.033621307
219	0x3c5b2832	0.0133762825
220	0x3c8c1bb3	0.017103052
221	0xbcac190b	-0.021008035
222	0x3c0d6d58	0.008632027
223	0x3bab3ada	0.0052255215
224	0x3a7d8807	0.0009671454
225	0x3c5b46e0	0.013383597
226	0xba865ac1	-0.0010250435
227	0xbab45be4	-0.0013760296
228	0xbc2d742f	-0.010586782
229	0xb98dda30	-0.00027056178
230	0xbcb1fe08	-0.021727577
231	0xbc2c4413	-0.010514277
232	0xbbcd45df	-0.006264433
233	0xbcb8f422	-0.02257735
234	0x3c0616c7	0.0081841415
235	0xbbc25aa7	-0.0059312168
236	0xbd131d47	-0.035916593
237	0xbab3549b	-0.0013681831
238	0xbc111977	-0.008856169
239	0xbc262329	-0.010140219
240	0xbcb960b0	-0.022629112
241	0xbcde48ad	-0.027134264
242	0x3bc05eab	0.0058706603
243	0xbbde72aa	-0.0067885714
244	0x3ca4cbbf	0.020116685
245	0x3d111227	0.035417702
246	0xbb5b22fb	-0.0033437598
247	0xbcb5541d	-0.022134835
248	0xbc46989a	-0.012121344
249	0xbb8d15bf	-0.004305571
250	0x3b983535	0.0046450146
251	0xbcef20c0	-0.029190421
252	0x3ba16b17	0.004926096
253	0xbca3771f	-0.019954262
254	0x3b92112a	0.0044576125
255	0xbd15ee62	-0.036604293

conv2.bias f4 [64]
0	0x3c976cdc	0.018484525
1	0xbbfc3460	-0.0076966733
2	0x3aedb0ca	0.0018134352
3	0x3d1e23df	0.038608428
4	0xbd3dbe03	-0.046323787
5	0xbbd55c37	-0.006511237
6	0xb8bad8b3	-8.9095345e-05
7	0xbc45ae78	-0.012065522
8	0xbcdcc867	-0.026951028
9	0x3bc6ee9d	0.0060709254
10	0x3c11b6a2	0.008893641
11	0x3c41cb3c	0.01182824
12	0xbb2ed94b	-0.002667981
13	0xbbbbb99f	-0.005728915
14	0xbc0dc691	-0.008653299
15	0xbd0d255c	-0.034459457
16	0x3c17a86b	0.009256463
17	0x3de5e78f	0.11225807
18	0x3d013810	0.031547606
19	0xbcec201f	-0.02882391
20	0xbd20487b	-0.039131623
21	0xbc0aa8a1	-0.008463056
22	0xbbc9e79e	-0.006161644
23	0xbcf35fc0	-0.029708743
24	0x3d0cb238	0.03434965
25	0xbca7bb1b	-0.020474961
26	0xbc8108c3	-0.015751248
27	0x3d0949af	0.033517536
28	0x3d69d080	0.057083607
29	0xbd19693c	-0.037453875
30	0xbc41d9f7	-0.011831752
31	0xbaa300d3	-0.0012436159
32	0xb9c8b61f	-0.00038282663
33	0xbd6ce2e8	-0.057833582
34	0xbd98732a	-0.07443841
35	0x3d8f03aa	0.06983121
36	0xbc4c4acf	-0.012469008
37	0x3bbae3bc	0.0057034176
38	0x3b7b0c5b	0.0038306925
39	0x3d7d43c8	0.06183222
40	0x3b666595	0.0035155762
41	0xbc9269e7	-0.017872764
42	0x3c9f9f5f	0.019485174
43	0xbba15635	-0.0049236068
44	0xba1263e0	-0.00055843405
45	0xbc948112	-0.018127952
46	0x3bc78daf	0.006089888
47	0x3c835b84	0.016034849
48	0xbcd5ab08	-0.02608253
49	0x3bcc03bc	0.006226031
50	0xbd31f7f7	-0.04344937
51	0x3d0c8d8f	0.03431469
52	0xbc3e5347	-0.011616535
53	0xbcb452d1	-0.022012146
54	0x3dc1ef44	0.094694644
55	0x3c63d98f	0.0139068505
56	0xbc8bfb46	-0.01708759
57	0x3d403183	0.046922218
58	0xbbb12a2a	-0.0054066377
59	0xbd39b74b	-0.045340817
60	0x3d8f25d0	0.06989634
61	0x3c0bbfae	0.008529587
62	0x3d72d3aa	0.05928389
63	0x3c8b3849	0.016994612

conv3.weight f4 [64, 64, 3, 3]
0	0x3bd86915	0.0066043236
1	0x3bc75e2a	0.0060842233
2	0x3c2f3f01	0.010696174
3	0xbc8b3eb1	-0.016997667
4	0xbcc78c6f	-0.024358956
5	0x3b3effe7	0.002914423
6	0xbbb7a477	-0.0056043225
7	0xbcab56ca	-0.020915408
8	0xbbc2a65f	-0.005940243
9	0xbb833ae8	-0.004004825
10	0x3ac0994f	0.0014694127
11	0xbc748efb	-0.014926667
12	0x3bd1b297	0.0063994634
13	0x3c754f87	0.014972574
14	0xbbd48b80	-0.0064863563
15	0xbc1e2a94	-0.009653706
16	0x3b1a379a	0.0023531676
17	0x3c081347	0.008305377
18	0x3b1831bc	0.0023223003
19	0x3c5b6e17	0.013392947
20	0x3b3c66a8	0.0028747711
21	0x3bdd242a	0.006748696
22	0xbc6f38f2	-0.014600979
23	0xbc5946a5	-0.013261472
24	0xbc60febb	-0.0137326075
25	0x3beb69e8	0.007184256
26	0xbc559b48	-0.01303751
27	0x3a4bb3df	0.00077706383
28	0x3c9b5312	0.01896051
29	0x3b8be2e9	0.004268993
30	0xbcafb420	-0.021448195
31	0x3c110252	0.008850651
32	0x3c1c1a28	0.0095277205
33	0xbcb4e609	-0.022082346
34	0xbcc1cb3c	-0.02365648
35	0xbbd9060a	-0.0066230344
36	0xbc8549c9	-0.016270535
37	0xbc06d7f9	-0.008230203
38	0x3c39d6b2	0.011342691
39	0x3c3c9ce7	0.011512018
40	0x3bd260bf	0.0064202244
41	0x3b0fb68b	0.0021928872
42	0xbb792b1f	-0.0038020087
43	0xbcade78f	-0.02122858
44	0xbc8ffedd	-0.017577583
45	0x3c056141	0.008140863
46	0xbb05e077	-0.002042798
47	0xbc9294d9	-0.017893242
48	0x3c10bae7	0.0088336235
49	0xbbbb5d3f	-0.005717903
50	0xbc8248cb	-0.015903851
51	0x3c3e32a2	0.0116087515
52	0x3bd17162	0.00639169
53	0xbce0cf55	-0.027442614
54	0x3abdb070	0.0014472138
55	0xbc37fac3	-0.01122922
56	0xbc023473	-0.007947075
57	0xbcabc25b	-0.0209667
58	0xbc63af5b	-0.0138967885
59	0xbb696cc5	-0.003561781
60	0x3be37558	0.0069414787
61	0x3c22cfe5	0.009937261
62	0x3bc8aefc	0.0061243754
63	0xbc5e8fe0	-0.013584107
64	0xbc165879	-0.009176367
65	0xbb6a883a	-0.0035786764
66	0x39148087	0.0001416226
67	0xbaf07337	-0.0018344884
68	0x3b25afc2	0.0025281762
69	0xbc9405f2	-0.018069241
70	0xbba8c1c3	-0.0051500513
71	0xbccd9ba5	-0.025098631
72	0xbb1a9482	-0.0023587053
73	0xbbf5b257	-0.0074980664
74	0xbc05870f	-0.008149876
75	0xbc358b0f	-0.011080517
76	0xbc9802b2	-0.018555973
77	0xbb0cbecb	-0.0021476026
78	0x3be49447	0.006975684
79	0xbb65378a	-0.003497573
80	0x3c0a3dd5	0.0084375935
81	0xbbc4d8a4	-0.006007271
82	0xbb678983	-0.0035329766
83	0xbba6931a	-0.005083454
84	0xbcbb7d10	-0.022886783
85	0xbcd20db8	-0.025641307
86	0x3c0dc5f4	0.008653153
87	0x3c89636f	0.016771046
88	0xbc552e1d	-0.013011483
89	0xbb02ac4b	-0.001993912
90	0xbc261eaa	-0.010139147
91	0xbb9a1868	-0.0047026165
92	0xbc8e6657	-0.017382784
93	0xbba52315	-0.0050395825
94	0x3bf1f555	0.007383982
95	0xbc3c4581	-0.01149118
96	0xbbb9f443	-0.00567487
97	0x3c0f7b6c	0.008757453
98	0x3c00400f	0.007827773
99	0xbbecd7da	-0.00722788
100	0xb9cffb7b	-0.00039669484
101	0xbb93c2fb	-0.0045093275
102	0x3c0828ef	0.008310541
103	0xbba1e179	-0.0049402085
104	0xbb211a02	-0.0024582152
105	0xbbd8d7a0	-0.0066175014
106	0xbb2b1dad	-0.0026110217
107	0xbbefcaeb	-0.007317891
108	0x3c555288	0.013020165
109	0xbbe26f75	-0.0069102594
110	0xbcf6dab8	-0.03013359
111	0xbc81e18f	-0.015854625
112	0x3c556d43	0.013026538
113	0xbbc3ac43	-0.005971463
114	0x3b072062	0.0020618667
115	0xbc20fdf3	-0.009826171
116	0xbc1a01ca	-0.009399841
117	0x3b841a99	0.004031491
118	0x3c436503	0.011925939
119	0x3c0941eb	0.0083775325
120	0x3a693788	0.00088965194
121	0xbc842a35	-0.016133407
122	0xbbba26a7	-0.0056808772
123	0xbbc3bf32	-0.00597372
124	0xbacebc40	-0.0015772656
125	0xbb853658	-0.004065316
126	0xbc057427	-0.008145369
127	0xbc8272b3	-0.015923833
128	0x3c38fc2f	0.011290594
129	0xbc02ccf3	-0.007983434
130	0xbb4c11af	-0.003113847
131	0x3a6e60b3	0.0009093389
132	0xbb00993b	-0.0019622582
133	0xbc154fe4	-0.009113286
134	0xbc9ec090	-0.01937893
135	0x3c3a7373	0.011380064
136	0x3b1ae075	0.0023632322
137	0x3be31c2f	0.00693085
138	0xbc5c2a7d	-0.013437864
139	0xbc9f7f33	-0.019469833
140	0xbc238ddc	-0.009982552
141	0xbc286b40	-0.010279477
142	0xbbbf5dca	-0.005840038
143	0xbc324e7b	-0.010882969
144	0xbb87ec3d	-0.004148035
145	0xbbd7fbf7	-0.006591316
146	0xbc161320	-0.009159833
147	0x3c650e33	0.013980436
148	0x3b9c3508	0.004767064
149	0xbc99ea5d	-0.018788511
150	0xb998dfc3	-0.00029158415
151	0xbc95620a	-0.018235225
152	0xbb0a23e8	-0.002107853
153	0x3b9ac5f0	0.004723303
154	0xbb6ccbd5	-0.0036132236
155	0xbbe1ff5d	-0.0068968968
156	0x3bf3782a	0.007430096
157	0xbb03e398	-0.002012467
158	0x3b97fed2	0.0046385312
159	0xbc5ee728	-0.013604917
160	0xbb7c580a	-0.0038504624
161	0xbc5814fd	-0.013188598
162	0x3c5b013d	0.013366994
163	0x3c99d27b	0.018777123
164	0x3b226a48	0.0024782587
165	0xb8e44658	-0.0001088499
166	0x3ab4dd0f	0.0013798791
167	0xbc281728	-0.010259427
168	0xbbb6cf87	-0.0055789384
169	0x3bbde737	0.005795385
170	0x38ccb58f	9.761296e-05
171	0xbb8fa477	-0.0043836194
172	0xbc00627a	-0.007835979
173	0xba471e6f	-0.00075957825
174	0x3bc2c590	0.0059439614
175	0xbcf99aef	-0.030469386
176	0x3c28507f	0.010273098
177	0xbc9ea4a3	-0.019365614
178	0x3b827c87	0.00398213
179	0xbc9add3f	-0.018904326
180	0xbb0acdd5	-0.0021179814
181	0xbab021df	-0.0013437829
182	0xba4d5387	-0.0007832576
183	0xbacac8b1	-0.0015471188
184	0xbcb7bec9	-0.02242984
185	0xbc014d6b	-0.007891993
186	0xbb93d32d	-0.004511258
187	0xbafc5a27	-0.0019252942
188	0xbb9285e3	-0.004471527
189	0xbc81260b	-0.01576521
190	0x3c08499f	0.008318334
191	0x3b0f243f	0.0021841673
192	0x3c4ca0bb	0.012489493
193	0xbb60acea	-0.0034282752
194	0x3b1a5360	0.002354823
195	0x3b5d0a90	0.003372822
196	0xb9132865	-0.0001403406
197	0x3c0f7483	0.008755806
198	0xbcb1c46a	-0.021700103
199	0x3aa7314f	0.0012755784
200	0x3c2570ab	0.010097663
201	0xba78b6bd	-0.00094876793
202	0xbc1bfcd4	-0.009520728
203	0x3bae83e8	0.005325783
204	0xbcb588da	-0.022159982
205	0xbba11d3b	-0.0049168146
206	0x3be1029d	0.0068667666
207	0xbc6d6348	-0.0144890025
208	0x3c59eb4a	0.013300726
209	0xbc54dba8	-0.012991823
210	0xbcd93365	-0.026513765
211	0xbae67940	-0.0017583743
212	0x3b7b8c6f	0.0038383265
213	0xbc59d167	-0.013294554
214	0xbbbfec5a	-0.0058570327
215	0xbb850993	-0.004059979
216	0xbc047fab	-0.008087079
217	0xbbcf33f3	-0.0063233315
218	0xbcd3ed77	-0.025870068
219	0xbad395e0	-0.0016142689
220	0xbc03238b	-0.00800408
221	0x3a95ad63	0.0011419471
222	0xbc8f3528	-0.017481402
223	0x3b6d2a23	0.0036188446
224	0xbc908064	-0.017639346
225	0xbc6308f2	-0.013857113
226	0xbc3f1b78	-0.011664264
227	0xbc42b199	-0.011883163
228	0xbca457c0	-0.020061374
229	0xbc838134	-0.01605282
230	0x39673fe7	0.00022053682
231	0x3ba090dc	0.004900081
232	0x3b628f43	0.0034570254
233	0x3ca26ac7	0.019826306
234	0x3bb5c38f	0.005546994
235	0x3ccf5e25	0.025313446
236	0x3c06d8ab	0.008230369
237	0x3a75260d	0.00093516783
238	0xbcb72b47	-0.022359503
239	0xbc19748b	-0.009366165
240	0xbaffd6b2	-0.001951894
241	0xbcb644c0	-0.02224958
242	0xbc3f0677	-0.011659256
243	0x3c6a65b3	0.014306474
244	0xbc160163	-0.009155604
245	0x3b13b975	0.002254096
246	0xbc7307f7	-0.014833442
247	0xbc1db81f	-0.009626417
248	0xbc042aeb	-0.008066873
249	0xbc3509ea	-0.011049727
250	0xbb97cf00	-0.0046328306
251	0x3c304f43	0.010761085
252	0xbbdd4eff	-0.006753802
253	0x3bf5b10f	0.0074979137
254	0xbccff460	-0.025385082
255	0xbc85835b	-0.016297987

conv3.bias f4 [64]
0	0xbbf50533	-0.0074774264
1	0xbbf8f9db	-0.0075981445
2	0xbbf897b5	-0.0075864443
3	0xbb030ef3	-0.0019997924
4	0x3c174bc8	0.009234376
5	0xbc7bd973	-0.015371668
6	0xbc5103ba	-0.012757236
7	0xbc02842a	-0.007966081
8	0x3b48b427	0.0030624957
9	0xbcd83058	-0.02639024
10	0x3c82fb72	0.01598904
11	0xbc14a78d	-0.00907315
12	0xbc4f6840	-0.0126591325
13	0xbb85f7b8	-0.0040883683
14	0xbc0d9ad2	-0.008642869
15	0x3c82bb5e	0.015958484
16	0xbd36e3a0	-0.044650674
17	0x3c82b2af	0.015954344
18	0xbc3d00ef	-0.011535867
19	0xbbfe4a1a	-0.0077602984
20	0xbbcf8a3f	-0.006333619
21	0xbd4c1bb2	-0.0498311
22	0x3c5074c5	0.0127231525
23	0xbc5ffe63	-0.01367149
24	0x3acc5f37	0.0015592341
25	0xbb6b7d8d	-0.0035932988
26	0xbba5d42a	-0.0050606923
27	0xbc134ae8	-0.008990027
28	0xbb3e0dd5	-0.0028999944
29	0x3bf21ceb	0.007388701
30	0x3c40084c	0.011720728
31	0xbcc20a1f	-0.023686467
32	0x3c07ff37	0.008300594
33	0x3c015bb1	0.007895396
34	0x3b52af52	0.0032147956
35	0xbcd900ab	-0.026489576
36	0xbc3f80ff	-0.01168847
37	0xbc150772	-0.009096013
38	0xbbda9460	-0.0066705197
39	0xbc2d3215	-0.0105710225
40	0xbc2cf827	-0.010557211
41	0xbc3e8867	-0.011629201
42	0x3c579c8f	0.013159885
43	0x3b42b348	0.002970891
44	0x3cb3faf9	0.021970259
45	0xbc8ad03b	-0.016944995
46	0x3bd1efeb	0.0064067743
47	0xbca00adc	-0.019536428
48	0xbb139449	-0.0022518805
49	0xbb89c718	-0.004204642
50	0x3bcd2127	0.0062600556
51	0x3bd2b8b2	0.006430709
52	0x3a16c269	0.0005751015
53	0x3dc6598b	0.09685048
54	0x3b3e4d56	0.0029037795
55	0xbc6cd390	-0.014454737
56	0xbbc00b87	-0.005860749
57	0xbc3fec1a	-0.011714006
58	0xbb03b19f	-0.0020094884
59	0x3caad1a5	0.02085192
60	0xbbe40092	-0.006958076
61	0xbbb2fd07	-0.005462292
62	0xbc09a018	-0.008399986
63	0xbc2a5a67	-0.01039753

fc1.weight f4 [64, 1024]
0	0xbba58698	-0.005051445
1	0xbb7c4efb	-0.0038499224
2	0x3c208d4f	0.009799316
3	0x3b82a753	0.0039872318
4	0xbbd8dab2	-0.0066178674
5	0x3bcb94bb	0.0062127984
6	0x3b74f58b	0.00373778
7	0x3beff6c8	0.00732312
8	0x3b56d32a	0.0032779672
9	0xbb31342f	-0.002703916
10	0xbb86d809	-0.004115109
11	0x3c718587	0.014741308
12	0xbafc6f9a	-0.0019259334
13	0x3b4f27df	0.0031609458
14	0xbbb23b97	-0.0054392326
15	0x3bf5bdb2	0.00749942
16	0x3a9486cd	0.0011331678
17	0x3ba7bb5a	0.0051187696
18	0xbb1969f8	-0.002340911
19	0xbbf675b2	-0.0075213546
20	0x3b8b35c7	0.004248354
21	0xbc31d147	-0.010853118
22	0x3b90e3ba	0.0044216784
23	0x3ba84219	0.0051348326
24	0x3c6d29d5	0.014475306
25	0xbc9e630a	-0.019334335
26	0x3b96714f	0.004591144
27	0xbbe36cb2	-0.0069404477
28	0xbb5065dd	-0.0031798996
29	0xbc54c115	-0.0129854875
30	0x3af45d5f	0.0018643549
31	0x3b61753d	0.0034402155
32	0x3a12f022	0.00056052406
33	0xbc58400b	-0.013198863
34	0xbbc68987	-0.006058875
35	0xbbb9f0a0	-0.0056744367
36	0x3bb283bf	0.0054478343
37	0xbbe53d58	-0.006995838
38	0xbb02e142	-0.001997069
39	0xbafe5687	-0.0019404449
40	0xbbb785ca	-0.0056006657
41	0x3b8c5823	0.0042829677
42	0xbc458b88	-0.012057193
43	0xbb5425d3	-0.0032371178
44	0x3bfb8f50	0.0076769963
45	0x3c434080	0.0119172335
46	0xbc66be1f	-0.014083414
47	0xbb21d8eb	-0.0024695944
48	0xba334bea	-0.000683962
49	0x3c23833a	0.009980017
50	0xb9a7f9e7	-0.00032038914
51	0xbac286ba	-0.0014841177
52	0x3cb43348	0.021997109
53	0x3b4b4be7	0.0031020583
54	0xbca74bcf	-0.02042189
55	0x3b083912	0.002078597
56	0x3ac3a7c8	0.0014927322
57	0x3c24637f	0.010033487
58	0x3abc79c7	0.0014379554
59	0x3ca2d50f	0.019876985
60	0x3b3bb750	0.0028643198
61	0x392f2f82	0.00016706999
62	0xbc1df6c8	-0.009641357
63	0xbb79aefd	-0.0038098686
64	0xbc3af932	-0.011411952
65	0x3bedf950	0.0072623864
66	0x3d308764	0.04309787
67	0x3ce75385	0.028238067
68	0x3a339fbb	0.000685211
69	0x3c7f9c78	0.01560127
70	0x3b858355	0.004074494
71	0xbc22e86a	-0.009943107
72	0xbc4e2e93	-0.012584346
73	0xbce986dd	-0.02850669
74	0xbc711b6f	-0.014716013
75	0xbd1ea333	-0.038729858
76	0x3ac3dc15	0.0014942909
77	0x3d40d4d3	0.047077965
78	0x3d283e20	0.041074872
79	0xbc8d5792	-0.01725367
80	0xbc215654	-0.009847242
81	0x3bfa0617	0.0076301205
82	0x3b76bb2b	0.0037648182
83	0x3b4f926f	0.0031672975
84	0xbbfbe4a0	-0.0076871663
85	0xbb62cdd5	-0.0034607549
86	0xbc9834d5	-0.01857988
87	0xbc74173f	-0.01489812
88	0xbc85359f	-0.01626092
89	0xbb936604	-0.004498245
90	0xb949e71b	-0.00019254947
91	0x3b543ad3	0.0032383695
92	0xbbca64e3	-0.0061765774
93	0x3ad97818	0.0016591577
94	0x3c4255ba	0.011861259
95	0xbb3c1db7	-0.0028704235
96	0xbbdb4117	-0.006691109
97	0x3a95b313	0.0011421166
98	0xbb58848b	-0.0033037986
99	0xbb7e576b	-0.003880943
100	0x3bf143d3	0.0073628216
101	0x3bc0e577	0.0058867293
102	0x3b5355a5	0.0032247093
103	0x3bd6892f	0.0065471153
104	0xbb830f3c	-0.003999619
105	0xbc6c215f	-0.014412253
106	0xbb8d6b81	-0.004315794
107	0xbbac430a	-0.005257015
108	0xb897848d	-7.2249306e-05
109	0xbc1f10f7	-0.009708635
110	0x3b758f70	0.0037469529
111	0x3c4f96c0	0.012670219
112	0xbca5abbf	-0.020223496
113	0x3c37c380	0.011216044
114	0xbb2e267a	-0.0026573227
115	0xba86d057	-0.0010285479
116	0x3b889fd2	0.0041694427
117	0xbb262e51	-0.0025357197
118	0xbb111974	-0.0022140415
119	0xbc626fca	-0.013820598
120	0x3bb4c587	0.005516711
121	0x3b63af2a	0.0034741857
122	0x3c3a6d18	0.011378549
123	0x3c604708	0.01368881
124	0x3c01497c	0.007891055
125	0x3bb082db	0.005386693
126	0xbc54180d	-0.012945187
127	0x3be40d72	0.0069596106
128	0x3b16619a	0.0022946359
129	0xbbe3ac42	-0.006948025
130	0x3c0f26b8	0.008737259
131	0x3c3dbd1b	0.011580731
132	0x3c49d438	0.012318663
133	0xbb5c9867	-0.0033660175
134	0x3b514577	0.0031932273
135	0xbbfe0417	-0.0077519524
136	0x3b546057	0.0032406056
137	0xbb9d176f	-0.0047940533
138	0x3c68cbad	0.014208716
139	0x3b3123f0	0.0027029477
140	0xba524073	-0.0008020468
141	0x3b8d649f	0.0043149735
142	0x3c05352f	0.008130356
143	0xbbd598f8	-0.0065184794
144	0xbd03b967	-0.032159235
145	0x3ba210ef	0.0049458663
146	0x3d426978	0.047463864
147	0x3d6fb08f	0.05851799
148	0xbd934f93	-0.07192912
149	0xbc736d1a	-0.014857555
150	0x3cc7f5bd	0.02440917
151	0x3d4f58d3	0.05062182
152	0xbd9bccff	-0.07607459
153	0xbc0cc18f	-0.00859107
154	0x3c2af7ac	0.010435026
155	0x3d971356	0.07376735
156	0xbd32f568	-0.04369107
157	0x3c120183	0.008911493
158	0x3c2d9dc7	0.010596699
159	0x3d523080	0.051315784
160	0x3bae5810	0.0053205565
161	0x3b643b6a	0.0034825453
162	0xbc6c2793	-0.014413732
163	0x3bb0f5af	0.0054003815
164	0xba67e945	-0.00088467106
165	0xbc0b31b7	-0.00849574
166	0xbb9f234a	-0.0048565017
167	0xba179992	-0.00057830766
168	0x3c2c528d	0.0105177285
169	0x3b70c700	0.0036739707
170	0x3a5a8945	0.0008336495
171	0x3bea1858	0.0071440153
172	0x3c8c82af	0.017152159
173	0x3bcd67a5	0.006268459
174	0x3c033761	0.008008809
175	0x3c172209	0.009224423
176	0xbc20fcd5	-0.009825905
177	0xbc7a3563	-0.015271517
178	0xbbfe9e5d	-0.007770343
179	0xba0bcce0	-0.0005332958
180	0xb9936fc7	-0.00028121306
181	0x3c72524d	0.01479013
182	0xb9a4b78b	-0.00031417268
183	0xbc18f2c8	-0.009335227
184	0x3b420361	0.0029604065
185	0xbc19152f	-0.0093434295
186	0x3b41fce3	0.0029600195
187	0xbc69ebf0	-0.014277443
188	0x3b29df6f	0.002592053
189	0x394ae0bf	0.00019347946
190	0xbabd3573	-0.0014435485
191	0xbbd6ddf2	-0.0065572197
192	0xbc5822b0	-0.013191864
193	0xbc0f984c	-0.008764338
194	0x3c2ce8d8	0.010553561
195	0xba173687	-0.0005768318
196	0x3c08734b	0.008328269
197	0x3b0cd43b	0.0021488804
198	0xbad25087	-0.0016045728
199	0xbba59f89	-0.0050544185
200	0xbb92e97b	-0.0044833994
201	0x3c484fea	0.012226084
202	0x3bbefc64	0.005828427
203	0x3c782202	0.015144827
204	0xbb6dbcbd	-0.0036275827
205	0xbb8710c5	-0.004121872
206	0xbaf16f5a	-0.0018420026
207	0x3bfe9d6f	0.0077702324
208	0x3b6de9bd	0.003630265
209	0xbb81e1bc	-0.003963677
210	0xbbe48a23	-0.006974475
211	0xbbb6df18	-0.005580794
212	0x3bd83c43	0.0065989806
213	0x3ca9c31f	0.020722924
214	0xbc0e397f	-0.0086807
215	0x3c5dbc07	0.013533599
216	0xbbe9e25b	-0.0071375794
217	0xbc127f25	-0.008941446
218	0xbae90953	-0.0017779268
219	0x3b165c1f	0.0022943092
220	0x3b0fa657	0.0021919215
221	0xbb0adbe7	-0.00211882
222	0x3b34dd38	0.0027597677
223	0x3c2cb5d3	0.010541397
224	0xbb4625fb	-0.003023504
225	0x3ad9308d	0.0016570255
226	0xbbd003b2	-0.0063480968
227	0xbb3d6f7b	-0.002890556
228	0xbb00800b	-0.001960757
229	0x3c160868	0.009157278
230	0x3c0d2143	0.008613887
231	0x3c8957a0	0.016765416
232	0x3bb23570	0.005438499
233	0xbb805fc5	-0.0039176666
234	0xbc4c2513	-0.012460011
235	0x399ebdb3	0.00030277445
236	0x3a82c4d0	0.0009976868
237	0x3a2595cc	0.0006316572
238	0xbc590410	-0.0132455975
239	0x3c25871b	0.010103012
240	0x3bfccaf7	0.007714625
241	0xba10ba85	-0.00055209576
242	0x3c7e0d43	0.0155060915
243	0x3cc7be95	0.024382869
244	0x3d155e8c	0.03646712
245	0x3ca9baaf	0.0207189
246	0x3ca0c10e	0.019623306
247	0x3d38dad0	0.04513055
248	0xbbefbad7	-0.007315974
249	0xbb9ac8ef	-0.00472366
250	0x3c37d724	0.011220727
251	0x3d1e4c83	0.038647186
252	0xbd98af57	-0.074553184
253	0xbd199388	-0.037494212
254	0xbbbdd68b	-0.005793398
255	0x3cc10c17	0.023565335

fc1.bias f4 [64]
0	0xbc3d420c	-0.011551391
1	0xbcb219ab	-0.021740755
2	0xbc9971fb	-0.018731108
3	0xbcaa76d2	-0.020808611
4	0xbc34f833	-0.011045503
5	0x3b53233b	0.0032217044
6	0xbd280305	-0.041018505
7	0xba9b7741	-0.0011861102
8	0xbc7e9d03	-0.015540364
9	0x3c2f7ba7	0.010710633
10	0xbbac54a4	-0.0052591134
11	0xbb2071d8	-0.0024481919
12	0x3c138520	0.009003907
13	0xbcc242c7	-0.023713483
14	0xbbca0440	-0.0061650574
15	0xbafcfe2a	-0.0019301821
16	0xbbc14bcf	-0.0058989297
17	0xbd262179	-0.040559266
18	0xbca75fcb	-0.02043142
19	0xbc161f9f	-0.0091628125
20	0x3bb03d23	0.005378382
21	0xbb9e5853	-0.0048323064
22	0xbc928873	-0.01788733
23	0x3a733c30	0.0009278683
24	0xba0c67ba	-0.00053560326
25	0x3d92a0e3	0.07159593
26	0x3dcec0d3	0.10095372
27	0xbb83fbe2	-0.0040278295
28	0x3a829cdd	0.0009964962
29	0x3c7f62aa	0.015587488
30	0xbc5f2267	-0.013619042
31	0x3cec0a00	0.028813362
32	0x3c04514f	0.008076026
33	0x3d83fbe2	0.06444527
34	0x3d4e482a	0.05036179
35	0xbbdde29d	-0.006771399
36	0xbcb237ef	-0.021755187
37	0xbc98b9f1	-0.018643351
38	0x3d9bad13	0.07601371
39	0x3d9ee98a	0.07759388
40	0xbd64862d	-0.055792022
41	0xbbe4a9b2	-0.006978237
42	0x3dab55fc	0.083660096
43	0xbc533d1f	-0.01289299
44	0xbc6078dd	-0.013700691
45	0x3c08c80c	0.008348476
46	0x3c3ae5dc	0.011407342
47	0x3bc08b85	0.005876007
48	0x3b52a5c7	0.0032142268
49	0xbd25e56f	-0.040502008
50	0xbb136e51	-0.0022496174
51	0x3bc5b337	0.006033327
52	0xb8b9962b	-8.8494584e-05
53	0x3c5509f2	0.013002859
54	0xbc8fdfd8	-0.017562792
55	0xbd1b882e	-0.037971668
56	0x3c2c9a7f	0.010534882
57	0x3b9531bc	0.004553048
58	0xbbb75fcb	-0.005596136
59	0xbcdf1a60	-0.027234256
60	0xbbc14f85	-0.005899372
61	0xbd75c43a	-0.06000159
62	0x3cdf0d7b	0.027228108
63	0x3d06d986	0.03292229

fc2.weight f4 [10, 64]
0	0x3dbc9744	0.09208539
1	0x3d01cc33	0.03168888
2	0x3d24e48a	0.040257014
3	0xbc2caebb	-0.010539706
4	0xbd3698c8	-0.044579297
5	0xbc13b29d	-0.009014753
6	0x3dedcbc3	0.1161113
7	0x3b2370af	0.002493899
8	0x3cd74bfd	0.026281351
9	0x3d177e0b	0.03698544
10	0xbd92b5ba	-0.07163568
11	0x3d3eab4b	0.046550076
12	0xbd30b380	-0.043139935
13	0x3dbfa8ed	0.09358392
14	0x3c269777	0.010167948
15	0x3bd7987f	0.0065794582
16	0x3d594998	0.0530487
17	0xbbfd0fc0	-0.007722825
18	0xbcb33bad	-0.021879042
19	0xbce63482	-0.02810121
20	0x3babd78a	0.0052442
21	0xbc88c657	-0.016696138
22	0x3d0eab96	0.034831606
23	0xbd0a805c	-0.03381382
24	0x3c6e1940	0.014532387
25	0xbc568988	-0.013094313
26	0xbbb3067c	-0.0054634195
27	0x3cb3137b	0.021859875
28	0xbc273a0d	-0.0102067115
29	0xbc996248	-0.018723622
30	0x3c2fd6cf	0.010732367
31	0x3cd705b2	0.026247833
32	0x3d32f800	0.043693542
33	0xbd646002	-0.055755623
34	0x3d1474af	0.03624409
35	0xbc7a4be3	-0.015276882
36	0x3c24ba09	0.01005412
37	0x3d50bfcf	0.050964173
38	0x3c2f92b7	0.010716132
39	0xbc6f4d72	-0.014605867
40	0xba17e3c1	-0.0005794131
41	0x3c096401	0.008385659
42	0xbd21b4fc	-0.03947924
43	0xbd600d35	-0.054700095
44	0x3d1f20a0	0.038849473
45	0x3c94c425	0.018159935
46	0xbc7c0ebd	-0.015384373
47	0x3d10185f	0.035179492
48	0xbd6bd215	-0.057573397
49	0xbb596fa8	-0.0033178125
50	0xbc4217a3	-0.011846456
51	0x3ceeb785	0.029140243
52	0xbc19d39d	-0.009388831
53	0x3d28f3a5	0.041247983
54	0x3ce0f238	0.027459249
55	0x3c8c59ba	0.017132629
56	0xbd850d5b	-0.06496688
57	0xbd223ff4	-0.03961177
58	0x3d425523	0.047444474
59	0xbcb9803b	-0.022644153
60	0x3d796c2d	0.06089418
61	0xbc50d600	-0.012746334
62	0x3cbbbe7e	0.022917982
63	0x3c49343b	0.012280519
64	0xbdb0e7df	-0.08637976
65	0x3d8bb4eb	0.06821617
66	0xbc8495b8	-0.016184673
67	0xbcafa8dc	-0.021442823
68	0xbc77b132	-0.01511793
69	0x3d210144	0.039307848
70	0xbbf9170f	-0.0076016258
71	0x3d15c454	0.036564186
72	0x3cc99af9	0.02461003
73	0x3d8cce72	0.06875314
74	0x3c21af7f	0.009868502
75	0xbd86a6ba	-0.06574769
76	0x3daf94fc	0.085733384
77	0xbd1c6b83	-0.03818847
78	0x3ce4ea70	0.02794382
79	0xbb7153eb	-0.00368237
80	0xbcc1ce02	-0.023657802
81	0xbcf83907	-0.03030063
82	0x3d192a97	0.037394132
83	0xbd436cc4	-0.04771115
84	0x3cddfeff	0.02709913
85	0x3cb7be01	0.022429468
86	0x3b17b35b	0.0023147676
87	0x3d0f9f28	0.035063893
88	0xbc20b06d	-0.009807688
89	0xbd7b0758	-0.0612863
90	0xbb7034e0	-0.003665261
91	0x3ce98d83	0.02850986
92	0xbc8f8043	-0.017517215
93	0x3d19bc25	0.037532944
94	0xbc20da63	-0.009817692
95	0x3d470155	0.048585255
96	0x3ca97d28	0.020689562
97	0xbd8fa242	-0.0701337
98	0xbdaee25b	-0.08539268
99	0xbd22d48b	-0.039753478
100	0x3d860f13	0.06545844
101	0xbd5e38c5	-0.05425336
102	0xbda6d6af	-0.081464164
103	0xbe017baa	-0.1264483
104	0x3d3ac4d7	0.045597877
105	0x3b521beb	0.0032060097
106	0xbc8eda3f	-0.017438052
107	0x3bbf9f78	0.0058478676
108	0x3d2e29b7	0.04252025
109	0x3d29126f	0.041277345
110	0x3de9b1b2	0.11410846
111	0xbceb6d97	-0.02873878
112	0xbcc32f02	-0.023826126
113	0x3c9bb24b	0.019005915
114	0x3c63874d	0.013887239
115	0xbc848b32	-0.016179655
116	0xbc01d260	-0.007923692
117	0xbd812532	-0.063059226
118	0x3c251761	0.010076375
119	0xbc11367a	-0.008863086
120	0xbc545e12	-0.012961881
121	0x3d3c6bf1	0.04600138
122	0xbc8713a8	-0.016488865
123	0xbbedfcaa	-0.007262786
124	0xbd07fd6f	-0.033200677
125	0xbd1265e9	-0.03574172
126	0x3bde4262	0.006782816
127	0xbcedddda	-0.029036451
128	0x3d3ff7c2	0.04686714
129	0x3c5aff0b	0.013366471
130	0xbd049a3d	-0.032373656
131	0xbd06be9f	-0.032896634
132	0xbd00e97f	-0.03147268
133	0xbd599288	-0.05311826
134	0xbcf55a5b	-0.029950311
135	0xbc4eb00f	-0.012615218
136	0xbd83dd8a	-0.064387396
137	0x3c09c3d1	0.008408503
138	0xbcef900f	-0.029243497
139	0x3c8d8347	0.017274512
140	0x3b07656a	0.0020659813
141	0x3d4d6dd5	0.050153572
142	0x3cfd494b	0.030918738
143	0x3cad916f	0.021187512
144	0x3d2bae49	0.04191426
145	0xbc333794	-0.010938544
146	0xbcf88d4b	-0.030340811
147	0x3c9f13b7	0.01941858
148	0xbb901fc5	-0.0043983185
149	0x3c559fff	0.013038634
150	0xbc4085e3	-0.011750671
151	0x3d1895b7	0.037252154
152	0xbc082bf1	-0.008311258
153	0x3d009d97	0.03140029
154	0x3d898026	0.067138955
155	0xbcea018b	-0.028565189
156	0xbc6e92cd	-0.014561367
157	0x3c933c1b	0.017972996
158	0xbc0c4b2b	-0.008562843
159	0xbc9d534d	-0.01920476
160	0x3d1a0469	0.037601862
161	0x3d99eb6b	0.075156055
162	0x3d686c98	0.056744188
163	0xbcb368fa	-0.021900643
164	0x3c1ec613	0.009690779
165	0x3c4a883f	0.012361585
166	0x3cfc1c65	0.030775258
167	0x3d11e4eb	0.035618704
168	0xbd314d35	-0.04328652
169	0xbd09cbe2	-0.033641703
170	0x3d592bd7	0.053020325
171	0x3c6d2f2b	0.014476578
172	0x3d156658	0.036474556
173	0x3c22a0ff	0.00992608
174	0xbd9ae359	-0.075628944
175	0xbc7ae7cb	-0.015314053
176	0xbccfe72f	-0.025378792
177	0xbd87306b	-0.06601032
178	0xbbf118f5	-0.0073577114
179	0xbcb89877	-0.022533638
180	0x3d12e848	0.035866052
181	0xbc17ecbf	-0.009272753
182	0x3b7a7e2a	0.0038222172
183	0x3d173b9d	0.036922086
184	0xbccabae8	-0.024747327
185	0xbda285fd	-0.079357125
186	0x3d0b72a2	0.03404487
187	0xbca7690f	-0.020435838
188	0xbb1247f2	-0.0022320715
189	0x3c44355d	0.011975613
190	0x3bd9909b	0.006639553
191	0x3c15a7f7	0.009134284
192	0xbdae8d1d	-0.08523009
193	0x3ab30cef	0.0013660471
194	0x3d83d490	0.064370275
195	0xbc9853b5	-0.018594602
196	0x3cecde93	0.028914725
197	0x3afde950	0.0019371901
198	0xbc00089b	-0.007814552
199	0x3d4ecfc0	0.050491095
200	0x3d18c8bd	0.037300814
201	0xbd4a9c24	-0.049465314
202	0xbc2cf5bd	-0.010556635
203	0x3cb11a90	0.021619111
204	0x3d141ecf	0.036162194
205	0xbdbc1f2d	-0.09185634
206	0xbbd9d790	-0.0066480115
207	0x3d8414fa	0.064493135
208	0xbc00996f	-0.007849081
209	0xbd287e2f	-0.041135963
210	0x3cb41259	0.021981405
211	0x3adcdcda	0.0016850487
212	0x3d3bd9fd	0.045862187
213	0x3cc7c072	0.024383757
214	0xbcc344b6	-0.023836475
215	0x3d26f06b	0.040756624
216	0xbab3ea3b	-0.0013726422
217	0x3d3efadb	0.046625953
218	0xbda1060e	-0.07862483
219	0xbb10853e	-0.0022052075
220	0xbb9685f3	-0.0045936047
221	0x3bc5eb5f	0.0060400213
222	0xbdc62045	-0.09674124
223	0x3cb18cb7	0.021673543
224	0x3b0e194f	0.0021682566
225	0x3d179567	0.037007716
226	0x3d7b2865	0.06131782
227	0xbd276391	-0.04086644
228	0xbd54e10b	-0.05197243
229	0xbd1f6010	-0.03890997
230	0x3d1ea513	0.038731646
231	0x3d2ccbb7	0.042186465
232	0x3d830e24	0.063991815
233	0xbc888c7f	-0.016668556
234	0xbb79031d	-0.003799624
235	0xbcc8fc54	-0.024534382
236	0xbd0638b1	-0.03276891
237	0xbc14b9a9	-0.009077468
238	0xbd816e1a	-0.06319828
239	0x3c4c3d30	0.01246576
240	0xbc04f35f	-0.008114665
241	0x3c76bc05	0.015059476
242	0x3cedc44f	0.029024271
243	0xbbf9c662	-0.007622526
244	0xbcd8a663	-0.026446527
245	0xbc0c0b8a	-0.008547673
246	0xbc539a7a	-0.012915248
247	0x3d7d25b3	0.06180353
248	0x3ce8d52b	0.028421959
249	0x3ceeed90	0.029166013
250	0xbcf48a38	-0.029851064
251	0xbd221188	-0.0395675
252	0x3bb8999c	0.005633546
253	0xbc7b5573	-0.015340197
254	0x3d20f1cd	0.0392931
255	0x3cda8105	0.02667285

fc2.bias f4 [10]
0	0xbde01185	-0.109408416
1	0x3bc717d7	0.00607584
2	0x3dab02e3	0.0835016
3	0xbb61537a	-0.0034382031
4	0x3da4692a	0.08027871
5	0xbceeef3d	-0.029166812
6	0x3c82dbd0	0.015973955
7	0xbd0206e3	-0.03174485
8	0xbc2638fc	-0.010145422
9	0xbdaee314	-0.085394055
