torch_to_tf/torch_models/model_round219.model (torch, 493063 bytes, 10 tensors)

conv1.weight f4 [32, 3, 3, 3]
000000 f8 dd be 3d 5a c3 4f bd d8 9e 9c bc 93 47 ce 3d
       0.09319681 -0.05072341 -0.019118711 0.100722454
000010 a3 dd fb bd df 8e 3b bd 90 5a 95 3c 95 24 38 3c
       -0.12298133 -0.04579055 0.01823166 0.011239191
000020 dd 83 c6 3d 5f d8 96 3d 74 2c 1c bd 70 a3 77 3d
       0.0969312 0.07365488 -0.03812833 0.0604586
000030 9b 57 04 3c d3 ed 9e bd 18 9f 8e 3c 1e 94 12 3d
       0.008077527 -0.07760205 0.017409846 0.035785787
000040 4b 67 33 bc e0 a4 c1 bb 20 8e 3d bd 12 f4 d8 3d
       -0.01094992 -0.005909547 -0.04627812 0.10593428
000050 10 c7 d0 bd 51 26 8f bc 7d 19 7a 3c 38 47 f8 bc
       -0.10194218 -0.017474325 0.015264866 -0.030307397
000060 bf 83 be bc dd 28 21 bd fa 30 0b 3c 87 c0 be 3b
       -0.02325618 -0.03934561 0.008495564 0.005821291
000070 a3 32 bc 3c 0b 36 f3 3a 78 8a 9f bd 83 0f b8 bd
       0.022973364 0.0018555535 -0.07790083 -0.089873336
000080 3e 9f a0 3d 38 69 df bc 70 fb d2 bb 62 1c 90 bc
       0.07842873 -0.027271852 -0.006438665 -0.017591659
000090 12 f4 8d 3d bf df d3 3d 85 30 13 3d 7b 7e 2f 3c
       0.06931318 0.103454106 0.035934944 0.010711308
0000a0 40 44 d6 bc c9 55 05 3c 5d c4 47 3c ed 56 30 3d
       -0.026155591 0.008138129 0.012192813 0.04305165
0000b0 68 e4 a8 bc dd 63 14 3d 4b 0a 28 3c 12 a8 66 3d
       -0.020616725 0.03622805 0.01025636 0.056312628
0000c0 1b 94 ff bb 50 f6 a2 bd 80 38 87 bd be e2 82 bd
       -0.007799638 -0.07957137 -0.066025734 -0.06390904
0000d0 98 e9 96 bb d2 5d 19 bc e3 15 33 bd e4 ab a3 3d
       -0.0046054833 -0.009360747 -0.043722045 0.0799177
0000e0 27 9d e2 3d f1 ff c1 bd f7 a6 b4 3a 22 3b 5a bd
       0.11065131 -0.09472645 0.001378267 -0.05327905
0000f0 a7 90 67 3d d1 be a1 ba bd f3 d7 bc 5b fa cb 3c
       0.056534436 -0.0012340193 -0.02636134 0.024899652
000100 a4 7d 37 bd fb 98 28 3d 94 5e 2e bc 2f ca d7 3d
       -0.044797555 0.04116152 -0.010642666 0.1053661
000110 95 af 3e bd f8 6a 7a 3c 9d 97 35 3d 79 4f 80 3c
       -0.046554167 0.015284292 0.044334043 0.015662896
000120 92 c6 6f bd 83 f6 0d be 4b 2e cc 3c 2d 1f 9b ba
       -0.05853898 -0.13863568 0.024924418 -0.0011834853
000130 20 6e ef 3d c4 23 17 bd 53 21 43 bd fd 30 2f 3d
       0.116909266 -0.036899343 -0.047639202 0.04277133
000140 70 33 a4 bd ef ca 5a 3d 27 4b 86 3d 4a 6d 18 bc
       -0.080176234 0.05341619 0.06557303 -0.0093034
000150 57 0b 0d 3d cf f5 57 bc 6f 3c ac 3c df f9 e3 3d
       0.034434643 -0.013181164 0.02102491 0.111316435
000160 0f 87 02 bd 98 52 62 bd 49 d9 88 bd 22 2e 37 3d
       -0.031867083 -0.05525455 -0.06682069 0.04472173
000170 20 df 57 bc 94 3f aa bb 07 d4 bd 3d 7b c8 c4 bd
       -0.013175756 -0.0051955674 0.09268957 -0.09608551
000180 40 a3 86 bd 88 1d a2 bd 38 c7 10 bd e0 b6 94 bc
       -0.06574106 -0.07915789 -0.03534624 -0.018153608
000190 23 70 ed bc 30 60 27 3d cb 6d 50 3d 9b c3 f4 3b
       -0.028984135 0.040863216 0.050885957 0.007469607
0001a0 51 35 81 bd 10 f8 d3 3c 48 c0 d4 bc c0 a7 c9 3d
       -0.063089974 0.025875121 -0.025970593 0.09846449
0001b0 a7 fe c0 3c d7 12 83 3d e3 94 fa 3c 38 16 46 3d
       0.023558928 0.06400078 0.030588573 0.048361033
0001c0 13 3c f1 3c 59 d3 8b 3b 96 21 b0 3c ef c3 5a 3d
       0.029447591 0.004267138 0.02150039 0.053409513
0001d0 77 e3 48 3d d7 44 5a bb 15 5e 50 bd 91 b2 b8 bd
       0.049045052 -0.0033305192 -0.050870974 -0.09018434
0001e0 79 df 3d bd 8b d6 9a bc 00 f8 d6 3b 77 cd 31 bd
       -0.0463557 -0.01890113 0.0065603256 -0.043408837
0001f0 8f 35 92 bd 52 48 40 bd 67 6d d3 bc 0a 95 2f bc
       -0.07139122 -0.04694397 -0.025809003 -0.010716686
000200 de 21 a8 3d e1 27 43 3b 04 15 44 bc 82 f9 62 bc
       0.08209585 0.0029778408 -0.011967901 -0.013853433
000210 7d 72 cd 3c 39 4a b1 bd c0 f2 1d 3d 52 d4 78 3c
       0.025079006 -0.08656735 0.038561583 0.01518734
000220 dd b4 f9 bb 80 f0 34 bd 1b 08 05 3d 07 f5 81 3d
       -0.0076204375 -0.04417467 0.032478433 0.063455634
000230 18 ee 9c 3d 07 cd 19 3c fb 00 09 3d 1a 73 37 bb
       0.076626 0.009387261 0.0334482 -0.002799219
000240 f3 55 40 bd fb 2f 3d 3d 23 d6 8e 3b 3a 9a de bd
       -0.046956968 0.046188336 0.004359023 -0.1086926
000250 07 cf a1 ba 03 e7 b1 bd eb 82 81 bc 5d 05 61 bd
       -0.0012345024 -0.0868664 -0.015809497 -0.054936755
000260 1b 24 ac bd e1 2d 95 bc 80 42 47 bc 1d 3e ef bc
       -0.08405324 -0.018210353 -0.012161851 -0.029204423
000270 12 cf 53 3b 2f ac a6 3d 9f 98 f0 bc e8 56 c1 bd
       0.0032319468 0.0813831 -0.02936965 -0.09440404
000280 3c b3 ad 3c bf 23 bf 3d 55 73 48 3d 17 8b 1d bd
       0.02120363 0.0933299 0.048938114 -0.038462725
000290 1d 0b 9a 3c d8 d7 01 3a 4b e4 28 3d 78 e5 7a 3d
       0.018804127 0.00049531227 0.041233342 0.061253995
0002a0 b8 a3 71 bd 47 52 12 bb fa f1 90 3d f1 06 41 bd
       -0.058994025 -0.0022326873 0.07077403 -0.04712576
0002b0 36 48 90 bd 10 36 b5 bd 5e e8 11 b9 07 91 24 3d
       -0.07045023 -0.08848202 -0.00013914841 0.04017737
0002c0 43 43 b8 bc 5b dc 72 bd 06 b7 91 bd bb 4c 08 bc
       -0.02249301 -0.05929218 -0.07114987 -0.008319075
0002d0 b5 1d 4b bd 27 d4 de bd b7 d4 2e bc 9b 91 eb bc
       -0.049588878 -0.108803086 -0.010670832 -0.028755954
0002e0 cd 9a 57 bd 60 3e f8 3c 6a 35 8c bd 6d 96 17 bd
       -0.052637864 0.03030318 -0.068461254 -0.03700869
0002f0 83 6f 8c bc 40 81 d2 3d 40 b5 ee bd 10 a0 cf bc
       -0.017143017 0.10278559 -0.116556644 -0.025344878
000300 bd f1 79 bd 13 12 60 bd da 20 a7 3c bb a5 5c bc
       -0.061021555 -0.054704737 0.020401407 -0.013467248
000310 f7 17 aa 3c 7f 73 4c 3c b3 70 a1 bd 45 23 16 bc
       0.02076338 0.012478708 -0.07882824 -0.009163682
000320 9e fe 1f 3d b7 a3 32 3c fa 31 d4 bc e4 19 20 3d
       0.03906118 0.0109032905 -0.025902737 0.03908719
000330 b5 85 dd bb f2 c0 ef bc c0 4c 7a bd 8b 3e bc 3d
       -0.006760324 -0.029266808 -0.06110835 0.091916166
000340 97 b8 a6 bd c7 01 8f 3c 7c ed 12 3d 11 69 01 3e
       -0.081406765 0.017456902 0.035871014 0.12637736
000350 8a 11 6d bd 60 07 51 3d f5 98 8e 3b 98 24 8b ba
       -0.057878055 0.051032424 0.00435173 -0.0010615764
000360 90 24 86 bd cb 92 ae bc 7a 01 e3 3c 73 59 83 bd
       -0.065499425 -0.02131023 0.027710665 -0.064135455
000370 f9 a4 2b 3d 43 3a be bd 6f c5 93 3c 12 6c eb 3c
       0.041905377 -0.09288456 0.01803848 0.028738055
000380 49 a7 1b 3c af 16 57 3b d2 97 9f 3b 33 40 31 bd
       0.009500333 0.0032819917 0.0048703933 -0.043274116
000390 3e 69 b9 3c 04 a8 2a bc 35 a9 c8 bd ac b2 8e bd
       0.022633191 -0.010416035 -0.09797899 -0.06967673
0003a0 50 bf 58 bd d2 9e 77 3d e2 6e 9d bd 3a 70 db 3c
       -0.052916825 0.060454197 -0.07687165 0.026786912
0003b0 b7 65 61 3c f8 ad b0 ba b5 11 18 bd 67 10 49 3c
       0.013757161 -0.0013479581 -0.03712626 0.012271977
0003c0 ff 8c c3 39 5a f8 0e 3d 85 e9 e3 3c 59 f3 c7 bd
       0.0003729835 0.034904815 0.027821312 -0.09763212
0003d0 cb b1 7a 3c 4e 35 2d bd ad 30 79 bb aa e7 54 3d
       0.015301178 -0.042287163 -0.0038023398 0.051978745
0003e0 17 4c 4a bc d3 d4 02 bd dc 5a 3c 3c 6a d4 60 3c
       -0.012347243 -0.031941246 0.011496272 0.013722518
0003f0 ab bf c8 bd be 43 04 bd 77 f3 71 3c 30 07 00 3d
       -0.09802183 -0.032291166 0.014767519 0.031256855

conv1.bias f4 [32]
000000 1b cb 86 3d 9b 57 eb bd 5f 74 76 bd a3 94 93 bc
       0.06581708 -0.11491319 -0.060169574 -0.018015211
000010 1a af 6f bc e9 35 47 3d 70 67 0a bd 7e f6 b6 3d
       -0.01462915 0.048635397 -0.033790052 0.089337334
000020 ba f5 c8 3c 2d d2 7b bd 3b 41 6f 3d eb e1 17 bd
       0.024531234 -0.061479736 0.058411818 -0.037080687
000030 af 05 f8 bd 5d 0e 62 3b 5d 71 41 3c 15 2a 11 3c
       -0.12110459 0.0034493424 0.011806813 0.008860131
000040 98 fe 53 3c 17 7f 1a 3c 07 7b db 3c 20 be 61 3d
       0.012939118 0.009429715 0.026792062 0.055112958
000050 72 ff 0d bd 55 59 59 bb 4b d9 30 bd 38 23 34 bd
       -0.03466744 -0.0033164818 -0.043175977 -0.0439789
000060 7f 53 8e bd 98 bc be 3c f3 65 52 bc 3d 26 db bb
       -0.06949519 0.023283288 -0.012841689 -0.006687908
000070 15 90 18 3d 27 2b 0b 3d a8 5f a3 3b 83 11 1f be
       0.037246782 0.0339767 0.0049857683 -0.15534024

conv2.weight f4 [64, 32, 3, 3]
000000 a7 12 50 bc 78 ec e7 bb ba 27 ae 3c 97 b2 21 bb
       -0.01269976 -0.00707775 0.021259177 -0.0024673098
000010 92 63 12 bc 2d f3 20 3d 82 e9 79 3c b3 ab 5c bc
       -0.008934872 0.03929441 0.0152534265 -0.013468671
000020 60 ee ca bc 73 a7 3f 3c d1 6d 1f 3c ad 5c b7 bc
       -0.02477187 0.011697638 0.009730772 -0.022383058
000030 bf 62 89 bc 79 d0 13 3c 4b 9f 6b bb b5 80 54 3c
       -0.016770719 0.009021872 -0.00359531 0.012970139
000040 3f 24 8c 3c 70 11 11 bd 6c 47 2c 3c 7d fc 90 3c
       0.017107127 -0.03541702 0.010515075 0.01769852
000050 82 62 f8 bc a0 32 41 bc a0 fd 15 bd a3 cb df 3a
       -0.03032041 -0.011791855 -0.03661883 0.0017074238
000060 6f 39 30 3b 22 56 6b bb 08 b5 dc bc 92 80 5d 3c
       0.0026889702 -0.0035909493 -0.026941791 0.013519423
000070 6e be 00 bc 1f df 2b bc e7 3e b2 3c 57 23 3f bc
       -0.007857902 -0.010490208 0.02175851 -0.0116661405
000080 12 41 dc bb a2 91 76 bc 03 28 90 3a 2a 82 6f 3c
       -0.006721624 -0.01504937 0.0010998253 0.014618436
000090 1a cb e5 bc cf b0 95 bc 27 5d cc bb 86 43 a9 bb
       -0.028050948 -0.018272785 -0.0062366906 -0.00516552
0000a0 03 81 32 3c 6f 8a b9 3b 3f 3a 8f 3c d5 4f 08 3c
       0.010895017 0.0056622545 0.017483829 0.008319815
0000b0 d8 31 c8 3b 93 b3 dc 3b 28 01 af bb e7 e4 80 3b
       0.0061094575 0.006735274 -0.005340714 0.0039335373
0000c0 f5 d9 d6 ba 17 70 82 bc 40 35 68 bb 90 4b a0 bc
       -0.001639186 -0.01592259 -0.003543213 -0.019567281
0000d0 63 cb 81 bc 3b 31 9e 3b 53 b6 bc bc 4d f6 88 3b
       -0.015844053 0.004827646 -0.023036158 0.004179752
0000e0 67 c0 7b 3b 73 9d da bb f8 e5 8d 3b 25 fd db bb
       0.0038414241 -0.0066716014 0.004330393 -0.006713527
0000f0 70 ed cd bb 35 8f de 3b eb bd 97 3c 36 58 94 bc
       -0.0062844083 0.006791974 0.018523177 -0.018108469
000100 68 7f 25 bc 9b 88 f0 3c dd a3 40 bc 47 35 0d bc
       -0.010101177 0.029362014 -0.011757818 -0.008618659
000110 bd 71 7b 3b 71 13 90 3b 8d 9e 3a bc f0 92 12 bb
       0.0038367354 0.004396849 -0.0113903405 -0.0022365414
000120 92 98 81 3b 93 63 ce bc ed 19 43 bb 80 9c aa bb
       0.0039549554 -0.025193965 -0.0029770092 -0.0052066445
000130 6a 3b a3 3a e6 71 04 bb bf 8f 91 3b c2 92 98 bc
       0.001245362 -0.002020949 0.0044421847 -0.018624667
000140 a5 6d e3 bc 40 34 23 3c 4b c0 64 bb d7 2d 7c 3c
       -0.027762244 0.009961188 -0.0034904655 0.015391788
000150 51 1f 33 bc d5 b2 9e 3a 70 f0 66 3c 9d 38 75 3c
       -0.010932759 0.001210774 0.014095411 0.014967111
000160 b5 e1 a8 3c 0b 4e 15 bd 67 a6 21 ba 8c 0b 81 bc
       0.020615438 -0.03645138 -0.00061664585 -0.015752576
000170 b3 9a 0f 3c 7d 07 e5 bb 07 9b 02 bc eb af 29 bc
       0.0087649105 -0.006989418 -0.007971532 -0.0103568835
000180 db 3c 04 3c 57 02 2d bc 1a e1 e8 3c 67 56 a4 bc
       0.00807115 -0.01055964 0.02842765 -0.020060731
000190 5f b4 a2 3a b3 41 82 bc 78 1a ac bc 28 40 f4 bc
       0.0012413374 -0.015900468 -0.021008715 -0.029815748
0001a0 ba 63 6f 3b 8e d2 a3 3b 1b b3 32 bc 20 c9 12 3d
       0.0036527948 0.0049994653 -0.01090696 0.03583634
0001b0 6e 12 84 bc 25 dd 71 bc 33 13 d3 bc 62 48 81 3c
       -0.01612207 -0.014762198 -0.02576599 0.015781585
0001c0 70 db 59 bc a7 ef 1f 3c f7 64 3c 3b 1a f5 be bc
       -0.013296947 0.009761727 0.0028746703 -0.023310233
0001d0 53 8a aa 3c 3e 06 01 3c 36 af 1b 3c c9 9d 9c bc
       0.020817911 0.007875023 0.009502223 -0.019118207
0001e0 6b aa d2 3c 79 ca ba 3b fb 4a 02 bd bc a1 8f 3a
       0.025716027 0.005700406 -0.03180979 0.0010958235
0001f0 50 c3 fd 3b 5d 29 40 bb d7 ff 0a bc 04 9a 17 bc
       0.0077442303 -0.002932153 -0.008483849 -0.009253029
000200 e8 57 bc bc d7 5e 42 bc ed bc e2 bb bd de ed bb
       -0.022991136 -0.011863432 -0.0069194944 -0.0072592185
000210 35 f1 a6 bc 98 6e 41 3c 03 1c af bb 4a 3e 6f 3a
       -0.020378688 0.011806153 -0.0053439154 0.0009126408
000220 0f b0 07 3c 8d b4 ab bc 6b 15 c9 bc da 94 ee bb
       0.008281722 -0.020960117 -0.024546346 -0.007280928
000230 46 77 0e bc 3d 08 1a 3c cb e9 d8 ba 83 d7 13 bc
       -0.008695429 0.009401378 -0.0016549168 -0.00902355
000240 39 9a bd bc c8 82 d3 bc 50 73 de bb b2 4f 8c bc
       -0.023144828 -0.025819197 -0.0067886487 -0.017127845
000250 cd 24 7d bc 0d 1d ec bb fd 6b f1 bc 4d 01 c9 bc
       -0.0154506685 -0.0072056116 -0.029470438 -0.024536753
000260 be 96 2b 3c 29 4a 3d bb 3b ef cf bc 38 ea 77 3b
       0.010472951 -0.0028883314 -0.025382629 0.0037828814
000270 42 82 b9 bc 6f 71 d9 bb 39 06 9a ba bd b2 20 bc
       -0.02264512 -0.006635837 -0.0011751122 -0.0098082395
000280 d0 48 36 bc da 39 4a bb 8b fc 8e bb fb 62 6a bc
       -0.011125758 -0.0030857236 -0.0043636016 -0.014305825
000290 49 72 80 bc a3 e4 c6 bc 18 1c 27 3b 45 76 c3 3c
       -0.015679495 -0.024278944 0.0025498923 0.023860106
0002a0 73 e8 35 bb 73 2f 9c bb c8 20 ae bc 9f 02 aa ba
       -0.0027756959 -0.0047663986 -0.021255866 -0.0012970752
0002b0 3d e9 57 bc 48 20 c2 3a 37 7d 37 3c 13 7a e6 bb
       -0.013178167 0.0014810646 0.011199287 -0.0070335953
0002c0 87 20 a7 bc 6c 16 91 bc 8c 6e a7 3b bb f6 10 bc
       -0.020401252 -0.017710887 0.0051096138 -0.008847888
0002d0 42 52 eb bb ef 27 0a bc 07 81 20 3c 64 d2 9d bc
       -0.0071814368 -0.0084323725 0.0097963875 -0.019265361
0002e0 22 23 eb 3a f9 a7 4c 3c 72 15 fe bb 80 7e 62 3c
       0.0017939548 0.01249122 -0.0077540213 0.013824105
0002f0 60 a5 69 bc 4b 07 a1 3c f6 1a a5 ba 55 ab 91 bb
       -0.01426062 0.019656798 -0.0012596536 -0.004445473
000300 13 07 50 3c 2e a9 a1 bc 53 b6 51 3c b3 16 f3 ba
       0.012696999 -0.019733991 0.012799817 -0.0018546194
000310 33 3f 2d bb d0 4c e0 bb c7 64 b7 bb 7b 77 62 3c
       -0.0026435375 -0.0068450943 -0.0055967304 0.013822432
000320 22 e2 b6 3c 45 6d 95 3c d5 46 3c 3c 58 92 c4 bb
       0.022324625 0.01824058 0.011491497 -0.005998891
000330 5b 0b 56 bc 6f 5c 0c 3b bd 93 c0 3c 9f 5b 40 3c
       -0.013064231 0.00214174 0.023507947 0.011740594
000340 67 95 2a bc f1 4f 37 3c f3 29 dc 3a 9a 76 d4 bc
       -0.010411597 0.011188493 0.001679717 -0.02593546
000350 3a dd d9 3b 71 95 39 bc 03 38 c3 bb 39 58 96 bb
       0.0066486867 -0.0113271335 -0.005957605 -0.0045881537
000360 43 de 25 bc ba 19 3d 3b 80 b9 19 3c ba 01 4b 3c
       -0.010123792 0.0028854446 0.009382606 0.012390548
000370 11 a3 cc bc 73 61 c1 bc 47 b0 25 bc 31 4b cb 3a
       -0.0249801 -0.023606038 -0.010112829 0.001551008
000380 90 63 9a 3c fb b8 90 bc c6 b9 c6 3b 53 1e a6 bc
       0.018846303 -0.01766633 0.0060646264 -0.020278132
000390 c1 4d 81 bc 9b f9 1f 3c aa 40 a8 bb 03 a5 04 bd
       -0.015784146 0.0097641 -0.0051346617 -0.03238393
0003a0 8b 56 8d ba 80 29 c9 3c a6 cb aa bc b0 fa 13 3c
       -0.0010783238 0.024555922 -0.02084906 0.0090319365
0003b0 0b 96 bc b9 f7 5e dc 3b 6b e8 10 bb a8 1e ab 3c
       -0.00035969945 0.006725188 -0.0022111188 0.020888641
0003c0 8a d4 fc 3b 06 5a 8c 3b ee b0 03 bb 63 a1 bf 3b
       0.0077157663 0.0042831926 -0.0020094472 0.005848096
0003d0 d5 86 66 3c 15 a1 1f 3a 3c d6 a4 bc e3 fe 19 bc
       0.014070232 0.0006089372 -0.020121686 -0.009399149
0003e0 45 cc c5 3b d0 f6 d2 bc 35 2a c6 bb d2 b2 30 3c
       0.0060363137 -0.025752455 -0.006047512 0.010784822
0003f0 5b 0b 40 bb 4f a1 49 bc fd 72 15 bb 00 4a c1 3b
       -0.0029303643 -0.012306525 -0.0022804134 0.005898714

conv2.bias f4 [64]
000000 d7 4f 44 3c 7e 09 b1 bc 91 25 a5 bb a3 b6 d7 bc
       0.011981926 -0.021610972 -0.0050398787 -0.026332205
000010 80 7d 42 bc cc 3d 08 3c 40 6f af 3b fd 8d fc bc
       -0.011870742 0.008315515 0.005353838 -0.030829424
000020 6c eb 34 bd 1d 28 d8 bc 63 6e 82 bc f3 dd a0 3c
       -0.04416983 -0.026386315 -0.015921777 0.019637084
000030 ab 5e 06 3c e2 b4 10 bb b5 34 d4 3c 4f 18 88 bc
       0.008201282 -0.002208047 0.025904039 -0.016613154
000040 3f 79 00 3c 5f 40 99 bc 06 e0 b6 3b 31 69 b3 3b
       0.007841407 -0.018707452 0.005580905 0.0054751863
000050 b0 cd 12 3c c3 f4 78 bc e8 e6 0a 3c ef 21 17 bb
       0.0089601725 -0.0151950745 0.008477904 -0.0023060997
000060 ec e1 30 3c 00 f2 b5 bc ad de 64 bb e2 5b 34 3c
       0.0107960515 -0.022210121 -0.0034922764 0.011008235
000070 89 8c be 3c 48 11 f8 bc ae b9 16 bd 48 dc a6 3c
       0.023260372 -0.030281678 -0.03679817 0.02036871
000080 ac bf 47 bc 8d e9 dd 3c 34 b5 4a bc 92 6e 3c bc
       -0.012191694 0.027088905 -0.012372304 -0.011500971
000090 78 d2 a4 3a ef 53 3b 3c ba 84 2f bd 07 ba ab 3c
       0.0012574932 0.011433586 -0.042851187 0.020962728
0000a0 23 d6 d9 bc cd 63 07 3d fb bf c6 bc 68 48 43 bc
       -0.026591366 0.03305416 -0.024261465 -0.011919118
0000b0 d6 51 84 bc 22 78 bd 3b 95 3b 69 bb 6e 11 19 3d
       -0.016152304 0.005782143 -0.0035588492 0.037370138
0000c0 de 60 87 bc 62 b0 6a bc 5d 8d 79 3c 9f 16 18 bc
       -0.016525682 -0.0143242795 0.015231458 -0.009282737
0000d0 5e c6 c1 3b 73 e8 40 3b 37 7d fa 3c 77 9f eb bc
       0.00591354 0.0029435426 0.030577285 -0.028762562
0000e0 2d b5 f2 bc b3 6c c6 3b a3 f4 0d 3c 9f b0 ca bc
       -0.029627407 0.0060554384 0.008664283 -0.024742423
0000f0 8b 35 88 3c ea bd 50 3d bb 5f 88 bc d7 3b df ba
       0.016627094 0.050962366 -0.01664721 -0.0017031383

conv3.weight f4 [64, 64, 3, 3]
000000 28 07 0b bc 65 6d 09 bc 77 b1 29 3c c2 8b e9 3b
       -0.008485593 -0.008387898 0.010357252 0.007127256
000010 60 d6 7d bc 4a a2 01 bc 10 70 38 bc 30 a3 86 bb
       -0.0154930055 -0.007912228 -0.0112571865 -0.004108809
000020 25 b6 3a 3c 27 c7 05 bc c8 d1 c3 3b 1d b6 a3 3b
       0.011395966 -0.008165157 0.0059759356 0.004996075
000030 07 96 eb ba b8 7d 24 bc 2d a4 81 3c 4f 3a f1 3b
       -0.0017973789 -0.010039739 0.015825355 0.0073616873
000040 33 f1 b0 bc a4 75 b2 bb 3c 4f 10 bc 9a a6 8b bb
       -0.021599388 -0.0054461528 -0.008807953 -0.004261804
000050 c7 2d b3 bc e3 d7 bd b9 63 71 ab 3c e5 61 86 3c
       -0.021872414 -0.00036209737 0.02092809 0.016404102
000060 12 66 53 3c f0 9d 61 bc fa 82 75 bb 31 3b 8c bb
       0.012902753 -0.013770565 -0.0037462101 -0.004279517
000070 9d c9 21 bb 0f 5d 8a 3b e7 2d ea 3b 8f 62 68 bb
       -0.0024686821 0.004222519 0.0071465853 -0.0035459136
000080 f8 bd 48 3a 6a 2d 0a bc 60 e1 eb 3a 52 39 4a 3c
       0.0007657702 -0.008433679 0.0017996244 0.012342768
000090 c0 7c 1e 3c ab af 15 3c a7 a5 d3 bb ef 15 13 bc
       0.009673297 0.009136121 -0.0064589563 -0.008977397
0000a0 78 9f 5a 3b ad ba 4d bb 01 c1 10 3c 4d 0f 25 3b
       0.003335921 -0.0031391785 0.008835078 0.0025186122
0000b0 5f 00 4d 3c 99 7d ae bb d1 b5 b6 3b bd 50 41 ba
       0.0125122955 -0.005325031 0.0055758734 -0.00073743967
0000c0 cd d8 5a bc 2b b5 9b bc 97 5e c6 bb eb bf 9c bb
       -0.013357353 -0.019007286 -0.0060537565 -0.0047836206
0000d0 1f 8c ae 3b cb 91 5f bb 4b bc 34 bc ac 1a 0d 3c
       0.0053267623 -0.0034114 -0.011031221 0.008612316
0000e0 67 39 11 3c 33 a2 37 bc e5 90 5e 3c 1f 93 5c bc
       0.008863783 -0.011208105 0.01358435 -0.013462811
0000f0 db ae 60 bb 93 09 a7 3b 47 bd ac bc 2f 01 8c bc
       -0.003428391 0.005097577 -0.021086348 -0.017090408
000100 45 ec 1a bc 14 f2 9a bb 28 f4 a1 bc cd f5 55 ba
       -0.009455745 -0.004728565 -0.019769743 -0.00081619323
000110 c0 30 4c bc 20 56 7f bc 68 99 9e 3b 3d 27 0a bc
       -0.012462795 -0.015584499 0.004840065 -0.008432207
000120 0d 8f a9 3b 39 72 9d bc cb 28 84 ba ab 59 17 3c
       0.0051745237 -0.019219505 -0.0010082958 0.009237687
000130 61 d0 a9 ba 12 32 c7 3a c0 9b 92 bb 9a b0 82 3c
       -0.0012955779 0.0015197417 -0.0044741333 0.01595335
000140 0c 12 aa 3b 7b be 71 bb eb 63 72 bc ba 34 17 bc
       0.0051901396 -0.0036887217 -0.01479433 -0.00922888
000150 3f 34 d0 bb c0 a1 6b 3b 8b c9 71 bb b8 53 a7 39
       -0.0063538845 0.0035954565 -0.003689381 0.00031915097
000160 eb 0f 03 39 2d 8d c9 bc 22 01 06 3c b7 df 7c bc
       0.00012499063 -0.02460345 0.008178981 -0.015434197
000170 c0 a4 67 3b f9 03 27 bb dc b2 17 3c a7 05 50 bc
       0.0035346001 -0.0025484546 0.009258952 -0.01269666
000180 57 75 8d bb 30 cc 8f bc d7 e8 1c 3c 92 c8 f9 bb
       -0.0043169665 -0.017553419 0.009576998 -0.007622787
000190 b8 2f 94 bc 9c e7 b8 bb c3 74 b6 bb 3b fe 40 ba
       -0.01808916 -0.0056428444 -0.0055681183 -0.0007362102
0001a0 cb 03 bc 3b 8f 2d 29 bc 85 e9 98 3c 6d d8 80 39
       0.005737757 -0.010325803 0.018666038 0.00024575312
0001b0 04 2b a4 3b 0d 86 5b 3c 7c 70 9f 3c c3 8a 0c bc
       0.0050100107 0.013398659 0.019462816 -0.008578005
0001c0 62 a5 ea bc ff 6c 7c bb eb 46 6e 3c 7f 25 1a 3b
       -0.028643314 -0.0038517115 0.014543275 0.0023520885
0001d0 22 c4 68 bc 33 a1 d7 bc a2 30 9e 3c 03 19 30 3c
       -0.014206918 -0.026321983 0.0193103 0.010748151
0001e0 a0 a1 a4 3b b6 8a 38 bb 5a 49 e4 3a d5 8c 52 bb
       0.00502415 -0.002815885 0.001741688 -0.00321274
0001f0 97 50 b7 3c e7 ad 16 bb 5a bc 37 bc f3 94 c1 ba
       0.022377295 -0.0022991837 -0.01121434 -0.0014769122
000200 c7 36 41 bc 22 81 77 3a 0b 82 c2 bb b9 41 c8 bb
       -0.011792845 0.00094415445 -0.0059359125 -0.0061113504
000210 82 a9 f2 3b f8 ff d7 bb b8 c7 aa 3c 90 8a dc 39
       0.007405461 -0.006591793 0.020847186 0.00042064907
000220 e8 ea af ba 07 35 e1 bb 1a 43 ee bc 2d b8 93 bb
       -0.0013421448 -0.0068727764 -0.02908473 -0.0045080394
000230 4a d6 d7 3b 52 88 e6 bc 53 16 ac 3b af 04 c7 ba
       0.0065868245 -0.028141174 0.0052516847 -0.0015183891
000240 a9 75 98 3c 93 8c 01 3c c7 b3 62 bc 48 2f b6 bb
       0.018610792 0.007907051 -0.013836808 -0.0055598356
000250 5f 4f 2d bc a1 f7 15 bc 53 75 4e 3c 50 c7 32 3c
       -0.010578006 -0.009153278 0.012601214 0.010911778
000260 5c 11 cb bc d2 85 18 bc b7 30 3c 3c 03 d2 e6 3b
       -0.024788551 -0.009309249 0.011486224 0.0070440783
000270 d8 4b 99 bb 35 43 db ba 9f 19 4b 3c 8b 06 2f bb
       -0.0046782307 -0.0016728403 0.012396245 -0.002670678
000280 b2 ed 9c bb 0c 3b 29 3c 54 4b 2f 3c f0 60 79 bb
       -0.0047890777 0.010329019 0.010699112 -0.0038052164
000290 c8 66 67 bc 8c 6e 47 bc 4b 38 00 3b 83 a3 b6 3a
       -0.014123626 -0.0121723525 0.0019564803 0.0013934228
0002a0 77 c5 3b 3c 85 6d 69 bb d7 d0 b1 bb e7 a2 b4 3b
       0.0114606535 -0.0035618257 -0.005426507 0.0055125835
0002b0 b0 94 6e bc a5 b6 89 bb c0 29 af bc 15 8d d5 ba
       -0.014561817 -0.004202681 -0.021382213 -0.0016292656
0002c0 33 f0 fa 3c 5c 9b 95 3a 7b 85 80 b9 dd 26 83 bc
       0.030632114 0.0011414099 -0.00024513513 -0.016009742
0002d0 13 a9 72 bc 55 66 3f bc ed 4f 6a 3a 9f 4f 1c ba
       -0.014810818 -0.011682113 0.00089383015 -0.0005962792
0002e0 f4 92 c8 bc 5f 86 0c bc 7d dd 64 bb a7 da 0e 3b
       -0.024484135 -0.008576958 -0.0034922056 0.0021797807
0002f0 61 a0 c6 bb 97 5a 12 bc 98 5d 0f bb 36 bc ae bb
       -0.006061599 -0.008932731 -0.0021875855 -0.005332495
000300 97 e0 64 bb 80 23 dc 3a 79 12 a0 bc eb ee fa 3b
       -0.0034923905 0.0016795248 -0.019540058 0.007657876
000310 7d 16 fc 3b e5 5c ac bb 1b f3 1f bc ba ba 3e 3b
       0.0076931105 -0.0052600973 -0.009762551 0.0029102997
000320 d7 3f 8d 3c 6b af 0c 3a b5 20 35 3b 9b 52 b8 3b
       0.017242355 0.00053667155 0.0027637903 0.0056250817
000330 83 63 55 3c 68 77 d9 b9 40 5b fd 3b 63 ab 4f 3b
       0.013024214 -0.0004147843 0.007731825 0.0031687848
000340 53 6b 68 3b 5a 1f d6 3b 70 f0 f4 bc eb 49 e8 3a
       0.003546436 0.006534499 -0.029899806 0.0017722225
000350 33 06 85 bb 83 56 9e ba d0 38 26 bc 02 68 f8 3a
       -0.004059577 -0.0012080226 -0.010145381 0.0018951895
000360 e2 20 4e 3c 3a 96 35 bc 3d d9 80 3c b3 07 7e 3c
       0.012581082 -0.01108318 0.015728587 0.015504765
000370 1b 30 e9 bb 67 38 b7 3b 22 7a 1e 3c 3c fc ae bb
       -0.0071163303 0.0055914405 0.009672673 -0.0053401273
000380 25 09 1d 3a 7f d1 5c 3c 97 45 11 3b b2 48 32 3c
       0.00059904373 0.013477682 0.0022166723 0.01088159
000390 63 c9 c2 3b a1 69 1b bc 13 6c 51 3b 35 bd 2e 3a
       0.0059444173 -0.009485633 0.0031955286 0.0006665767
0003a0 4f c8 9c bb 8b 88 92 bc f8 02 69 3b a1 0b 12 3c
       -0.004784621 -0.017887374 0.0035554748 0.008913905
0003b0 9f 15 2c bc 7b ca 6a 3c 8d 26 e4 bb cb 88 8f bc
       -0.010503202 0.014330502 -0.0069626034 -0.017521283
0003c0 0b 10 94 bb fa 45 5c bc 87 d8 74 3c 4e 82 37 bc
       -0.004518514 -0.013444418 0.014944202 -0.011200501
0003d0 f2 1d 79 3c c2 5a 37 bc b3 78 44 3c 0a 3b 71 bc
       0.015204893 -0.011191072 0.011991668 -0.014723549
0003e0 52 51 76 bc 5f 0a 00 3c 61 2c 05 ba df 44 39 3b
       -0.015034037 0.007814973 -0.00050801603 0.002826981
0003f0 0b c1 ed bb 48 ab 92 3c 10 b8 a3 bc e3 fa 4c 3c
       -0.0072556785 0.017903939 -0.019985229 0.012510988

conv3.bias f4 [64]
000000 75 e5 e6 3b bc 9b 16 bd e3 9b 00 bc ea a1 ee 38
       0.0070463964 -0.036769614 -0.007849666 0.00011378883
000010 02 60 b9 bb 48 f1 58 3b 3f 4b e7 3a 63 5f 2b 3c
       -0.005657197 0.00331028 0.0017646326 0.010459754
000020 a5 c9 a9 3c 07 f6 8e bb b7 cb dc bc 51 b7 16 bc
       0.020726034 -0.004362825 -0.026952608 -0.0091989795
000030 c3 69 72 bb 37 b0 b6 bc b0 75 4d bb 77 96 03 3a
       -0.0036989308 -0.022300823 -0.0031350665 0.00050196744
000040 6a f7 e1 3c 4f 33 5b 3d a8 02 ae bb da 03 43 bc
       0.027583797 0.05351573 -0.0053103752 -0.011902774
000050 0b 9b 16 3c 27 7a 88 3a 60 cd e9 3c 87 25 33 ba
       0.009192239 0.0010412381 0.028540313 -0.00068339
000060 70 91 6d bc 32 45 18 3d 43 ab de bb ea 62 b0 3b
       -0.014500007 0.037175365 -0.0067953183 0.005382885
000070 b8 97 2e bc b3 d8 6d bb 8f 8c 71 bc 50 4e 1e bc
       -0.01065629 -0.0036292493 -0.014742984 -0.009662226
000080 2c 17 a7 bc 33 89 c5 3b 64 49 40 bb 64 6f 1f bc
       -0.020396791 0.0060283183 -0.002934062 -0.009731147
000090 1b 8a 8e bb e1 da 85 bc 0a 25 27 bc f2 cd 3e 3b
       -0.0043499595 -0.016339721 -0.010201702 0.0029114452
0000a0 1d bf 80 3c 22 15 e5 bb ef 47 e7 bc 38 17 e2 bb
       0.01571613 -0.0069910446 -0.028232543 -0.0068997405
0000b0 b3 28 8d ba 5f c5 38 3d fb e3 d8 bb 68 4f a3 3c
       -0.0010769576 0.045110103 -0.0066189743 0.019935325
0000c0 df 0c db 3b b9 65 ca 3c 45 78 b4 3b 92 2d 8a bb
       0.006684884 0.024706708 0.0055075013 -0.004216858
0000d0 9f 30 7a 3b 2d 12 5e bd c2 df 38 bc 95 04 0e bb
       0.0038175953 -0.054216553 -0.011283817 -0.0021670212
0000e0 8a 7e ec ba 6b 12 00 3d 1f 35 d6 3c 23 57 21 3d
       -0.0018043083 0.031267565 0.026148377 0.03938974
0000f0 8f 5b 83 bc 0a 25 ee 3b c1 0a ad bc 72 4b 30 bc
       -0.01603487 0.007267599 -0.021123292 -0.010760175

fc1.weight f4 [64, 1024]
000000 a9 f2 84 ba c8 14 33 bc dc 74 1a 3b 57 74 f9 3b
       -0.0010143119 -0.010930248 0.0023568189 0.0076127457
000010 a7 8e ab 3b c8 dd 19 bc 7a 5f 39 3a 50 e1 9f 3b
       0.0052355113 -0.009391256 0.0007071417 0.0048791543
000020 03 09 ed b9 bf e9 43 39 a0 60 56 bb 0c 56 b5 bb
       -0.00045210877 0.00018683726 -0.0032711402 -0.005533939
000030 71 ab 82 bc 60 ee 8f bc e4 cd be bb 91 5f 47 3a
       -0.01595089 -0.01756972 -0.005822884 0.0007605488
000040 50 d0 08 3c 1f 02 ac 3a 0a 72 1d bc e9 a0 1d 3c
       0.008350447 0.0013123191 -0.009609709 0.0096208835
000050 c3 a9 a8 39 25 7e 48 3c 8d a7 9b 3c 46 b1 98 bb
       0.0003216994 0.012237106 0.019000793 -0.0046598045
000060 48 7e b7 bb df 85 86 3c 90 e8 33 3a 63 be 50 ba
       -0.0055997707 0.016421257 0.00068629626 -0.000796294
000070 17 dd 30 bc fa 42 62 ba e8 61 91 bc 3a 9f 6b bb
       -0.010794899 -0.0008631196 -0.01774688 -0.003595306
000080 8c 65 8f bb fc 9b a5 bc 47 ad 55 bc 9d 01 7e bc
       -0.004376119 -0.02021598 -0.013041801 -0.015503314
000090 c8 ee 83 b8 47 84 b1 bb 82 6b 5c ba 97 d2 90 3b
       -6.291043e-05 -0.00541738 -0.0008408354 0.0044196355
0000a0 57 5b 9a bc cf 18 98 bb 30 73 ef bb 64 b1 37 bc
       -0.018842382 -0.0046416293 -0.0073074326 -0.011211727
0000b0 40 11 5e bc ef c7 bc bb 8d 0c 35 bb cc 76 93 bc
       -0.013553917 -0.0057611386 -0.002762589 -0.018000983
0000c0 39 97 20 bc 19 8b 25 bc da 74 68 bc 53 63 2c bc
       -0.009801679 -0.010103964 -0.014188016 -0.010521728
0000d0 a4 11 b5 3c db 07 0b 3d f8 72 2e 3d 5f b3 35 3d
       0.022103138 0.03394304 0.04259011 0.044360515
0000e0 cb d2 06 3a 3c 63 9b bb ff fb 96 3c f5 e8 fc 3b
       0.0005143105 -0.0047420543 0.018430708 0.0077182003
0000f0 2d 60 4d bc 89 7d 0e bd 3a 88 05 bd e0 d6 6d bc
       -0.012535137 -0.03478769 -0.03260062 -0.014516562
000100 52 11 06 bc ab 18 9d 3a 70 c5 4b bc 77 24 05 bb
       -0.00818284 0.0011985501 -0.0124372095 -0.0020315924
000110 e1 dd 0f 3a ef dd 63 bc 67 f4 1a 3c c7 92 59 ba
       0.00054880796 -0.013907894 0.009457684 -0.00082997646
000120 92 d3 c2 3b da 6b f4 bb 32 68 76 bb 2f 43 a2 bb
       0.0059456313 -0.007459146 -0.0037598726 -0.0049518566
000130 97 7d 95 3c 55 2f 32 3b 1a 2b 8a 3b e7 7a 58 bc
       0.018248362 0.0027188857 0.004216564 -0.013212896
000140 b2 81 70 3b 80 33 1e 3b 9a 22 e1 ba 40 cd 42 bc
       0.0036698398 0.0024139583 -0.001717645 -0.011889756
000150 f7 87 5f bb 1c 94 0f bc 25 29 b1 bb 3d 13 40 bc
       -0.003410814 -0.008763339 -0.005406516 -0.011723337
000160 40 5b e8 bb 04 92 bf bb 55 f6 08 bc a3 c3 25 bc
       -0.007090956 -0.005846264 -0.008359511 -0.010117444
000170 93 6a e6 3a 32 4b a9 bb 9c 64 88 bb bb 48 e1 3b
       0.0017579369 -0.0051664347 -0.004162384 0.006875125
000180 d8 b2 0c 3c eb ec b8 3b ea 1c af b9 30 21 6b bc
       0.008587562 0.005643477 -0.00033400144 -0.014351174
000190 90 0a 57 bc 80 65 93 3a 2f 77 46 bc 95 a1 94 3a
       -0.013125077 0.0011245459 -0.0121133765 0.0011339659
0001a0 02 ca 8e bb fb 52 a5 bb b0 4d 58 3b 50 61 43 bb
       -0.0043575773 -0.0050452924 0.003300529 -0.0029812641
0001b0 43 15 5e bc 6d 90 48 3c 08 9e b1 3b 4f fe c7 bb
       -0.013554874 0.012241465 0.00542045 -0.006103314
0001c0 1c d4 aa 3b 07 2b a3 3a 23 de 7a ba f2 3d 37 bc
       0.0052132737 0.0012448736 -0.0009569844 -0.0111842025
0001d0 b7 b8 e9 bb 6b c8 5b bb 1b 20 12 bc 07 3d 59 bc
       -0.0071326154 -0.0033536206 -0.008918787 -0.013259179
0001e0 dc 41 8f bb 02 7f 5c bc b7 1f 45 bb 43 46 41 bc
       -0.0043718647 -0.013458015 -0.0030078718 -0.011796537
0001f0 c4 82 a5 ba 75 41 28 bc 37 08 82 3a 2b 27 a7 3b
       -0.0012627472 -0.010269512 0.0009920661 0.0051011047
000200 1a cf 2f bd fb 33 e9 bc 55 d2 8c bc f7 a2 a4 bc
       -0.042922117 -0.028467169 -0.017190138 -0.020097239
000210 43 e8 38 bd 7b bf c6 bc 91 96 b6 bc 0d c8 9b bc
       -0.045143377 -0.024261227 -0.022288593 -0.01901629
000220 9c 7d 43 3c cd de d4 3c ea d9 61 3c b5 19 e7 3c
       0.011931803 0.025985146 0.013784865 0.0282105
000230 fe 8f 8c 3d ab a2 b0 3d 50 39 74 3d 3b a5 06 3d
       0.06863402 0.086247765 0.05962497 0.03287242
000240 88 12 16 3b 3d d5 63 bc 90 a3 b4 bb e5 03 1d 3b
       0.002289923 -0.01390582 -0.005512662 0.002395862
000250 5b 35 6e bc cb c3 ad b6 4b c9 53 3a 61 74 20 ba
       -0.014539088 -5.178595e-06 0.0008079006 -0.00061208574
000260 1b a3 a6 bc 08 94 14 bc e8 40 1d bc c5 af 80 bc
       -0.020341447 -0.0090684965 -0.009597994 -0.015708813
000270 ba 37 50 bb 25 06 d9 bb c9 e9 14 bc 27 75 df 3a
       -0.0031771497 -0.006623047 -0.009088942 0.0017048464
000280 aa 3f 46 bc 75 98 d3 bb ed 30 ef 3b ea 93 56 bc
       -0.01210014 -0.0064573833 0.0072995336 -0.013096789
000290 f2 9a cf 3b a7 ee 7f 3b 13 6c 30 3c 0a c3 e4 bb
       0.0063356096 0.003905216 0.010767954 -0.0069812583
0002a0 db ae c5 bb f7 d6 04 3b 5a 51 d7 3a 0d 9e 4f bc
       -0.0060328073 0.002026973 0.0016427443 -0.01267196
0002b0 eb 46 50 bc 1f 2c 3f bc 0a d7 73 3a 99 14 98 3a
       -0.012712221 -0.011668234 0.00093017577 0.0011602818
0002c0 4c 34 a5 3b c4 ac ae 3b 84 69 a6 bc b7 78 a8 bc
       0.0050416347 0.005330654 -0.020313986 -0.020565374
0002d0 c2 f1 e1 3c f1 9e 80 3c 7f ec 89 3a 02 f8 85 bb
       0.0275811 0.01570079 0.0010522752 -0.0040884027
0002e0 5e b1 cb 3c 3b 89 f9 3c ca 76 d2 ba e8 95 85 3c
       0.024864849 0.030460944 -0.001605713 0.016306832
0002f0 cb 01 d0 3b aa fe 85 3a 1d 2c 14 3c 70 ac 3d 3c
       0.00634787 0.001022299 0.009043721 0.011576757
000300 0f 19 9e bc d5 29 91 bc 50 c1 7a bb 78 e6 83 bb
       -0.019299058 -0.017720142 -0.0038262196 -0.0040252768
000310 1d e2 76 bb 0b 12 58 bc 9d ed e9 ba d3 96 59 bc
       -0.0037671395 -0.0131878955 -0.0017847304 -0.013280588
000320 18 48 85 bb b4 4d 84 bc 1f 0e 48 bc 7b 20 77 3b
       -0.004067432 -0.016150333 -0.012210398 0.003770857
000330 eb be 0c 3b 1f bd 4d bc 3d 82 78 ba d0 59 9e bb
       0.00214761 -0.012557297 -0.0009479856 -0.004832484
000340 c4 1e a1 ba e4 3a 35 bc f5 89 00 3a dc 22 8b 3a
       -0.0012292494 -0.011061404 0.00049033697 0.0010615247
000350 e3 7d fa 3a d3 c1 cf bb 47 73 b8 bc 00 22 0e 3c
       0.0019111003 -0.0063402443 -0.022515906 0.008675098
000360 50 08 7d bb d2 f1 28 b9 b0 af d9 3b e2 d7 90 bc
       -0.003860969 -0.00016111814 0.006643258 -0.017681066
000370 f5 10 82 3a 5c 54 89 bb 70 15 8d bb bb ae 9e 3b
       0.0009923266 -0.0041909646 -0.004305534 0.004842607
000380 97 44 64 bc 53 4a 4f 3c 82 db 8b 3b 50 b1 8c 3b
       -0.013932369 0.012651998 0.0042681107 0.0042935982
000390 34 1e 13 3c 72 59 55 bc 80 fa b7 bb 55 5b 89 b9
       0.008979369 -0.013021814 -0.0056145787 -0.00026198724
0003a0 fd 67 f7 3a 4b 9a 54 3b eb d2 d1 3a 1f c6 c4 bb
       0.0018875595 0.0032440599 0.0016008293 -0.006005063
0003b0 7f 78 af 3c b5 a1 cb 3b f3 32 56 bb 0d b4 b4 3b
       0.021419762 0.0062143453 -0.0032684177 0.005514628
0003c0 cb 0c 76 bc 5b 5c 80 bb e4 52 b2 bb ca b4 b2 bb
       -0.0150176985 -0.0039172596 -0.0054420102 -0.0054536806
0003d0 d7 60 48 bb 27 2e 16 bc c0 7e e6 3b eb 39 99 bb
       -0.00305753 -0.009166277 0.0070341527 -0.004676094
0003e0 ab 79 1c bc ef 75 d0 3a 02 cf eb ba 1a 5e cc 3b
       -0.009550492 0.0015904288 -0.001799077 0.0062368037
0003f0 cf a0 91 bb 8b 99 c5 3a 8b 60 ab bb c8 41 04 bc
       -0.0044442187 0.0015075667 -0.0052300147 -0.008072324

fc1.bias f4 [64]
000000 d5 be 23 bc 53 38 20 bc 3a 31 e8 bc c3 a2 cd 3c
       -0.009994228 -0.009779054 -0.028343786 0.025102025
000010 c8 2f 8a bb a4 01 48 bd fb 48 36 bb fa 5d a1 3b
       -0.0042171218 -0.04882969 -0.0027814496 0.004924533
000020 1c d6 c2 3a 68 52 aa 3b 15 46 da bb 7d 48 2f 3b
       0.0014864835 0.005197812 -0.0066611865 0.0026746087
000030 9d f6 f3 bb 97 59 37 bb 97 24 af bc 51 0b a2 bc
       -0.00744517 -0.0027976984 -0.021379752 -0.019780787
000040 50 a2 bb bb 7a b9 a4 bc 2f 93 88 bb 9f 42 79 bb
       -0.0057261363 -0.020107973 -0.0041679363 -0.0038034094
000050 e0 15 09 3b 97 98 08 3b 4b d3 ad 3b 48 aa 8e bc
       0.002091758 0.0020842904 0.005304729 -0.01741518
000060 1f 54 10 3a 75 ed 2b bb b1 c8 94 bb 8c 6e a9 bc
       0.0005505699 -0.0026234065 -0.004540526 -0.020682596
000070 22 67 af 3b 9a 85 da bc 7b fd 1c 3c ed db 05 bc
       0.0053528706 -0.026675034 0.009581919 -0.00817011
000080 97 84 a0 bb 02 23 5e bc 10 e3 bb ba f7 df 4e 3d
       -0.0048986184 -0.013558151 -0.0014334638 0.05050656
000090 50 45 88 ba 49 27 b2 b9 97 72 96 3c b7 1c d6 bc
       -0.0010396633 -0.00033980075 0.018365188 -0.02613674
0000a0 f0 0a d1 3c 07 25 b8 bc ba 84 9c ba 7b 2d 3e bb
       0.02551791 -0.022478594 -0.0011941411 -0.0029018808
0000b0 c5 ce b2 3b fb 6a 6d bb 37 7e 40 bc c8 93 8b bc
       0.0054567778 -0.0036227095 -0.011748842 -0.017038241
0000c0 4b 6f 46 3c 41 bb 09 bc e0 60 ed b9 c2 ff d3 3c
       0.012111495 -0.008406461 -0.0004527634 0.02587879
0000d0 7f 63 87 bc 12 cd 3f bc 9d 33 bd bb 97 af 02 bc
       -0.016526936 -0.011706607 -0.005773975 -0.007976434
0000e0 16 49 1d bc 8d 26 02 bd 9d 49 96 bc 1b de 29 3d
       -0.009599945 -0.031775046 -0.018345648 0.041471582
0000f0 6c 80 ae bc ca 87 ca 3a 0b 16 b7 bb 51 ae 84 3a
       -0.02130147 0.0015451845 -0.0055873445 0.0010122751

fc2.weight f4 [10, 64]
000000 15 93 80 3d 1a 6c 39 3d cd 86 b6 bc 73 e3 58 bc
       0.06278054 0.04526911 -0.022281075 -0.013237822
000010 e0 89 65 bc f7 6a 26 3b 67 b6 02 3c 6f 1f 49 bd
       -0.014009923 0.0025393346 0.007978058 -0.049102243
000020 df c5 f5 bc b7 f0 e4 bc a7 14 81 bd 80 5c c0 3c
       -0.030001579 -0.027946813 -0.06302767 0.023481607
000030 10 78 63 3c 47 5d 7d 3d f3 de f3 3c 67 9c 3f 3c
       0.013883606 0.061856534 0.029769396 0.011695004
000040 ee 76 a9 bc bf 2c 91 3c 87 fc ad bc cb ad 30 3d
       -0.020686593 0.017721532 -0.021238578 0.043134492
000050 0a c8 9f 3b 83 66 8a 3c 2a f2 d0 bb 98 5d f4 ba
       0.0048761414 0.016894585 -0.0063765245 -0.0018643616
000060 4d 20 aa 3c ca 23 a3 bd 65 2d f9 3c c0 c9 57 bc
       0.020767355 -0.079658106 0.030417154 -0.01317066
000070 85 ea 73 3d 8f 34 5a 3d 0a d2 1f 3c bf cf 4b bc
       0.059549827 0.05327278 0.009754667 -0.012439667
000080 91 db a3 bc 88 de 05 bc fb 54 30 3d c4 0e 27 bd
       -0.020002158 -0.008170731 0.043049794 -0.040785566
000090 e3 78 dc 3c da ae cb bc c8 5f 98 bb c0 07 4c 3d
       0.026913112 -0.02486365 -0.00465009 0.04981208
0000a0 07 aa 14 bd dc 59 0e bc 7c db 2b bd 07 dd d9 3d
       -0.036294963 -0.008688416 -0.041957363 0.10637861
0000b0 c3 aa 15 bd 1d 58 d1 bc 4b 7c e1 3b 02 70 d0 3c
       -0.036539804 -0.025554711 0.006881272 0.025444034
0000c0 08 53 d7 bc 3f 98 97 3b 12 47 ee bc 6a 88 86 bc
       -0.02628471 0.0046263034 -0.029086623 -0.01642247
0000d0 90 6b d2 3c 5a 84 8e 3d 75 7e b1 3c f0 13 43 bb
       0.025686055 0.06958838 0.021666745 -0.0029766522
0000e0 6a ca 40 3d 6a a8 9a 3b 03 45 2d 3d 93 6f e2 3c
       0.047068037 0.0047197836 0.042302143 0.027641093
0000f0 fb c7 29 bd f0 4a 25 bd ff af 03 3c 02 56 9c bb
       -0.04145048 -0.04035467 0.008037566 -0.004770995
000100 73 fc 65 bc ff b3 01 3a 33 02 fa 3c 47 c3 68 bd
       -0.014037239 0.0004947781 0.030518627 -0.056826856
000110 08 54 da 3c 10 b8 4f 3c f3 53 23 3c df 07 33 bd
       0.026651397 0.012678161 0.0099687455 -0.04370868
000120 30 04 4f 3c 82 2b 42 bb cd 8d cf bc c3 39 25 3d
       0.012635276 -0.0029627983 -0.02533617 0.04033829
000130 32 64 9a bd af 8a 97 bc df 1b 34 bc 0f 7e 12 3c
       -0.07538642 -0.018498747 -0.010992973 0.0089411875
000140 a0 f6 b7 3c 67 0a 5d 3c 50 94 57 bb 15 af af 3d
       0.022456467 0.01349125 -0.0032894798 0.08578316
000150 30 1a 09 bd bc ed ac bc 06 39 34 3d 0c df c2 3c
       -0.03347224 -0.021109454 0.043999694 0.023787998
000160 c3 08 cf bb 98 f9 29 3d 80 23 1b 3c f0 bf f7 bb
       -0.006318183 0.041497797 0.009468913 -0.0075607225
000170 2d 98 c7 bc df cf ae 3d 90 f2 a7 bd 35 30 cd bc
       -0.024364555 0.08535742 -0.08200562 -0.025047401
000180 d0 72 47 3d ea e8 1f 3c a2 c7 a0 3c 93 f7 06 3a
       0.048693478 0.009760121 0.019626442 0.0005148586
000190 33 53 18 bb 4b 32 11 3c c3 5c 67 3d 8e f3 c8 3d
       -0.002324295 0.008862088 0.05648495 0.09812079
0001a0 7f 1a 04 bd a3 6d ab 3c 73 81 5b 3d b7 ba ba bd
       -0.03225183 0.020926302 0.05359025 -0.09117644
0001b0 ca 57 00 bd 23 4a a5 3c b3 2b 31 bd 83 61 d3 bc
       -0.031333722 0.020176953 -0.043254565 -0.025803333
0001c0 07 40 6e bd 4f 0b 91 3b 9f 33 c5 39 cb 86 84 bd
       -0.05816653 0.004426397 0.0003761323 -0.06471022
0001d0 c8 ec 19 3d 33 ef 5e 3c 0f 8e c5 bc 80 e5 42 3d
       0.037579328 0.013606834 -0.02411559 0.04758215
0001e0 5d 15 98 bc f7 ff 5b 3d dc 16 25 3c 27 74 8c bc
       -0.018564874 0.053710904 0.010076251 -0.01714523
0001f0 17 dd e2 bc 6d 0c 30 3d 47 7a 03 bc b7 87 03 3d
       -0.027693314 0.0429806 -0.008024759 0.03211185
000200 b3 62 35 bb 7b 61 aa 3c 1a cb de bb 89 44 8f 3c
       -0.0027677238 0.020798435 -0.006799114 0.017488735
000210 02 92 89 3b 2a ea bf bc d0 1c 85 bd b3 b0 9f 3b
       0.0041983137 -0.023427088 -0.06499636 0.004873359
000220 7a 32 4c 3c a8 18 3c bd 0d 74 cd 3b e2 4a f3 3c
       0.012463206 -0.04592195 0.006269938 0.029698793
000230 0a a8 ca 3b 88 5d c9 3b 9f 17 30 3d 67 f5 85 3c
       0.0061845826 0.006145183 0.042991277 0.016352369
000240 e8 4e f0 3b d6 b3 94 bb cb 82 31 bd ad 64 6d 3c
       0.007333625 -0.0045380397 -0.043337625 0.014489335
000250 57 57 5d bd 87 47 57 bc d3 db 16 3d 0c 7e 88 3c
       -0.054038372 -0.013139612 0.036830734 0.016661666
000260 11 73 07 bb a0 43 ef 3c e7 9a a4 3c 03 0e 30 bd
       -0.002066795 0.02920705 0.020093394 -0.042982113
000270 0b f2 9a bc 5b 68 07 bd 03 b5 e8 bc 10 87 38 bd
       -0.018914243 -0.033058506 -0.028406626 -0.04505068
000280 e7 b2 ed 3b df ee a1 bc a7 27 8b 3c fc 4a 87 3d
       0.007253993 -0.019767223 0.016986681 0.06606099
000290 5b 8e 97 3c 58 ee ef 3c 91 36 8b bb 07 80 12 bd
       0.018500498 0.029288456 -0.004248448 -0.035766628
0002a0 c3 56 e6 3c fd 04 88 bd 33 6a 3a 3d 54 b9 35 3d
       0.028117543 -0.066415764 0.045511436 0.044366196
0002b0 b2 9c a0 bb cf a8 7d 3c 02 e0 6c 3d b2 c3 77 bd
       -0.004901492 0.015482142 0.057830818 -0.060489364
0002c0 f4 ff 0d bc 8b 95 7a 3a 6a 6f 7b 3c 61 8b ae 3c
       -0.008666981 0.0009559027 0.015346387 0.021306695
0002d0 6d fb 61 3c 89 f7 84 3c 27 d2 7f bc e7 58 4b bd
       0.013792855 0.016231315 -0.015614069 -0.04964533
0002e0 27 1b a0 3b f2 8f 2e 3d c9 9d ba ba 7b 58 af 3b
       0.0048860493 0.042617746 -0.0014237697 0.005351124
0002f0 1c cc b3 bb 97 2d 40 bd 85 94 c0 bc 8c 8d 82 bc
       -0.005486978 -0.046918478 -0.02350832 -0.015936635
000300 7f b4 1d 3d 21 a1 b2 bd 2b 64 ad bc ac df b8 3b
       0.038502213 -0.08722139 -0.021165928 0.005641898
000310 8b f6 51 bd 23 80 76 3c b8 4f 0d 3d fd c2 30 3d
       -0.051260512 0.015045199 0.034499854 0.043154705
000320 0d dd 78 bd ab a6 fc bc d8 7f 80 bc d3 f9 0d 3d
       -0.060757685 -0.030841192 -0.01568596 0.03466208
000330 cf 40 ce 38 fb 5a 5e 3d a6 35 3f bc e7 9b 0f bc
       9.834917e-05 0.054285984 -0.011670506 -0.008765197
000340 3f 7f a2 3c 4b 17 ac bc e5 81 3c bd ef 28 ec bc
       0.019836066 -0.0210072 -0.046022315 -0.028828112
000350 fb 52 15 3c ed 13 06 3d 46 1d 4c bb 4b 0d 64 3b
       0.009114022 0.032733846 -0.0031145378 0.0034797962
000360 5a 5f 1d bd 17 c2 e2 3c e0 df 10 bd 4b b6 88 3d
       -0.038421012 0.02768044 -0.035369754 0.066753946
000370 6e 88 27 3c 84 01 a0 bb 3a 5a 68 bc d8 78 b2 3c
       0.0102253985 -0.004882993 -0.014181668 0.021786138
000380 6b 83 b6 bd c8 97 67 bc d5 2e 53 3d 38 8f da 3c
       -0.08911785 -0.014135309 0.051558334 0.02667962
000390 bf f3 a6 bc 2a f3 ea 3c 3a b2 f4 bb e7 cf 57 bd
       -0.0203799 0.028680403 -0.0074675353 -0.052688506
0003a0 9a c7 75 3c b8 13 02 bd 2b 7a a0 bc 0b cf 05 bc
       0.015001202 -0.031757087 -0.019589504 -0.008167039
0003b0 62 ea fc bc 9a 64 fc 3c 1a 4a 79 bb 97 ae 22 bd
       -0.030873481 0.03080969 -0.0038038553 -0.039717283
0003c0 7f 38 20 3c d1 6d 82 3c 00 ae 88 3c b0 c8 83 3c
       0.009779095 0.015921505 0.016684532 0.016086906
0003d0 d0 e0 36 3d 5a ca f9 ba 8b ea f6 bc e8 52 fc 3c
       0.04464799 -0.0019057498 -0.030141136 0.030801252
0003e0 2b f9 47 bd a7 d2 ea 3c a3 19 37 bd 18 9a 88 3d
       -0.04882161 0.0286649 -0.044702183 0.06670016
0003f0 57 bb ba bc 32 98 1a bd ba b5 bd bc 7f 7e da bb
       -0.022794409 -0.0377428 -0.023157943 -0.0066679115

fc2.bias f4 [10]
000000 92 37 10 bd 08 cf 84 bd 1f 98 ef 3b 72 fc a5 3c
       -0.035209246 -0.064848006 0.0073118354 0.020261977
000010 63 04 9b 3d 7a 91 94 bb ad 06 54 3d 13 13 4b bc
       0.07569196 -0.0045339437 0.05176418 -0.012394684
000020 4c 13 25 bd 1b 9a de bb
       -0.040301606 -0.006793273
