torch_to_tf/torch_models/model_round259.model (torch, 493063 bytes, 10 tensors)

conv1.weight f4 [32, 3, 3, 3]
000000 24 80 2a bd a3 88 2e bd 31 49 bc bd 97 12 92 bd
       -0.04162611 -0.042610776 -0.09193648 -0.07132452
000010 1b 51 c2 bc 9c 3b 12 bd 75 35 95 3d 2b 49 7b 3d
       -0.023720315 -0.03570138 0.07285587 0.061349075
000020 0d 9f b1 3c c5 ff 0c 3d c0 e1 56 bd 5b 90 96 bd
       0.021682287 0.03442361 -0.052461386 -0.07351752
000030 e7 0c f7 3c 18 e1 28 3c 10 8d 38 3d db 30 89 bc
       0.03015752 0.010307573 0.045056403 -0.016746929
000040 58 65 d9 bd 0c 2c b4 3b 50 55 f2 3c f0 90 7b 3d
       -0.10615033 0.005498415 0.029581696 0.06141752
000050 fb 01 b0 3d 47 0d 1f bd 53 7c ca 3c db 6d af 3c
       0.08594128 -0.03883102 0.024717486 0.021414688
000060 80 90 f2 3d 47 fc 2d 3d 57 79 f4 3c a2 41 41 bd
       0.118439674 0.04247692 0.029843016 -0.047181733
000070 b6 4f 02 bd 75 ad 7e 3d fd 3c 32 3d 5e 5f 1b bd
       -0.0318143 0.06217714 0.043515194 -0.037932746
000080 a8 8b f7 3c 03 a5 50 bb c3 80 1d 3d 0f d7 d1 3c
       0.03021796 -0.0031836636 0.038452875 0.025615243
000090 c3 04 d2 bc c7 1d 72 3b eb 95 73 3d e7 df 0d bd
       -0.025637036 0.0036944018 0.059469145 -0.034637358
0000a0 04 a1 cb 3b b1 fc be 3c aa 1c c6 39 33 3b 50 3d
       0.006214263 0.023313852 0.0003778686 0.050837707
0000b0 60 64 ec bb b5 1c 12 bd 96 35 14 3d 0b 72 2b bd
       -0.007214114 -0.03567191 0.036183916 -0.041856807
0000c0 c7 12 d9 bd 7f e7 92 3c f8 30 2d bc ee 20 a3 bd
       -0.105992846 0.017932652 -0.010570757 -0.07965265
0000d0 43 8c 60 3c 6a ad f1 3d 11 83 86 bd 14 01 c9 bc
       0.013705316 0.11800654 -0.06567968 -0.024536647
0000e0 0a 97 9d 3d 8a 06 bd 3d 5e 45 23 bd 06 17 49 bd
       0.07694824 0.09229763 -0.039861076 -0.049094222
0000f0 c2 b8 fe bc 50 fc cf 3d 50 02 2d bd 72 81 80 3c
       -0.031093959 0.10155547 -0.042238533 0.015686724
000100 35 18 c1 3c ed 69 00 3c 00 06 06 bc 55 c1 8b bb
       0.023571113 0.007837755 -0.008180141 -0.0042649903
000110 5c 08 31 3d be 51 38 3c cd 88 d3 3c 3f c6 13 3d
       0.043220863 0.011249958 0.025822068 0.036077734
000120 82 74 e7 3c 50 74 50 bd 8f 6c 97 3c d5 89 d9 3d
       0.028253797 -0.050892174 0.018484382 0.106219925
000130 ce 15 1e 3b c9 14 24 bc c7 82 e7 bc 5d f0 b0 3d
       0.0024121883 -0.010014721 -0.028260602 0.08639596
000140 6d 8e 86 3d 40 f5 13 3e 52 b2 b6 3c 2d 4f c1 bd
       0.06570134 0.14449024 0.022301827 -0.0943893
000150 27 68 68 3c 07 2b 8e 3c 47 29 dd bc 55 74 a1 3d
       0.014184988 0.017354501 -0.026997222 0.07883517
000160 60 16 e4 3b 37 22 93 bd 47 64 f2 38 5d ba 82 bd
       0.006960675 -0.0718426 0.00011558137 -0.06383202
000170 af 1f a0 3d 37 a4 34 3d f2 23 d1 bd 17 61 5e bd
       0.07818543 0.04410192 -0.10211934 -0.05429181
000180 d2 31 bb 3c 1f 9f 86 bd 1d 6e 7a 3d 72 0c ef 3c
       0.022850905 -0.06573319 0.06114017 0.02918074
000190 c3 04 3a bd 43 59 a1 bc f2 d4 44 3d a1 43 a8 3c
       -0.045414697 -0.019695884 0.048054643 0.02054006
0001a0 bf 25 38 bb b2 35 86 3d b7 d0 c1 bc 7e a8 af bd
       -0.002809867 0.0655321 -0.023659093 -0.08577059
0001b0 7d 9d 8c bc 78 d6 16 3b 20 94 36 bc 45 68 9e 3d
       -0.01716494 0.0023016017 -0.011143714 0.077347316
0001c0 fd a4 f6 bc b8 6f 7a 3d e2 e7 7a bd 5a 77 30 bd
       -0.03010797 0.0611417 -0.061256297 -0.043082573
0001d0 55 3c 68 3d c3 85 04 be 48 ac 66 bb 5f 94 4f bd
       0.056698162 -0.12941651 -0.0035197902 -0.050678607
0001e0 30 a9 da bc 73 1c 77 bb 27 90 98 bd 75 27 12 3d
       -0.026692003 -0.0037706166 -0.0744937 0.03568216
0001f0 ba b8 ab 3d d8 ee 3f 3d 4b 5f 67 3d ff 75 c6 bc
       0.08384843 0.04685864 0.056487363 -0.024226187
000200 37 cd 13 bd 87 b9 2e bd 0b 9e 38 bd 3f c4 91 3b
       -0.03608438 -0.0426574 -0.045072597 0.004448443
000210 c0 57 6b 3d e1 b8 9d 3d d3 30 2d bc 02 14 19 3d
       0.05745673 0.077012785 -0.010570723 0.037372597
000220 92 d2 56 bc 9e f3 ac 3d c9 cc 09 3d 77 dd 73 3c
       -0.013111727 0.08444904 0.033642564 0.014884344
000230 78 56 a2 3d c5 c5 f8 bc 3f ed 99 bd 1f ed 2f 3d
       0.07926649 -0.030367741 -0.07515954 0.042950746
000240 e4 92 8d bc 0f 78 bc bd 22 cf c5 3d 4b e5 15 3c
       -0.017281957 -0.09202587 0.09658648 0.009148906
000250 9d ae 60 3c 4b aa b9 bc b7 2e 84 bd 77 ad 07 be
       0.013713506 -0.02266421 -0.06454223 -0.13249765
000260 94 71 01 3d 85 a2 a5 3c 5e 27 c7 bd da 1c 99 3d
       0.031602457 0.020219097 -0.097243056 0.07476206
000270 eb 20 bd bc 00 26 88 3d 33 35 d8 3c 3b ec eb bc
       -0.023086986 0.06647873 0.026392555 -0.028799167
000280 8a 4b 4d 3c c2 f3 de bc 78 7e 55 bd 13 f4 5a bd
       0.012530217 -0.027215842 -0.052122563 -0.053455424
000290 22 53 68 bd c1 97 c2 3c 3f d0 10 3d 08 c1 39 bd
       -0.056719907 0.023754003 0.03535485 -0.045350105
0002a0 db 05 de bc 30 c0 a0 3c 54 f3 2e 3c ef 35 52 bd
       -0.027102401 0.019622892 0.010678131 -0.051320966
0002b0 20 c3 9b 3d 13 3f f5 3c 38 0d 7c 3d cc 92 89 bd
       0.076055765 0.029937303 0.061536044 -0.067174524
0002c0 c8 29 75 3d 1b 67 be bc 14 b4 27 3d 12 cb 54 3d
       0.0598543 -0.023242524 0.04094322 0.051951475
0002d0 b8 99 1a 3d 47 38 48 bc 82 89 2e 3d ed fa 6e 3d
       0.037744254 -0.012220449 0.042611606 0.05834477
0002e0 c9 6e 91 bc 9a d0 d5 3d 4d ea 45 3d 93 43 0c bd
       -0.017753022 0.10440178 0.04831915 -0.03424413
0002f0 ba 33 75 bb 34 c0 01 bd 03 52 cb bc 10 32 6c 3d
       -0.0037414865 -0.03167744 -0.02481938 0.05766493
000300 d0 a7 97 bd 48 fc de 3b 18 44 9d bc fb 0e 3e 3d
       -0.074050546 0.0068049766 -0.019197509 0.046401005
000310 2b 04 b9 ba 88 77 1d 3c 27 f1 04 bc 34 99 2d 3c
       -0.0014115622 0.009611018 -0.008114136 0.0105956085
000320 c0 82 de bb 11 e5 ae 3d 00 69 d5 bc bf e7 6a 3d
       -0.006790489 0.08539785 -0.026051044 0.057349917
000330 0b 06 11 bc 23 a4 ef 3c bf c8 ff bd 90 0b 84 3c
       -0.008851538 0.029253071 -0.12489461 0.016118795
000340 c7 57 90 3c a2 38 c8 3c 7e 95 4c 3c df 64 1b bc
       0.01761998 0.024441067 0.012486814 -0.009484499
000350 1d ec b0 bd dc 76 9f 3d bd 43 dd 3a 5a 91 ff bc
       -0.08638785 0.077863425 0.001688115 -0.031197239
000360 95 dc 56 3d 9b 4f b1 3d f0 48 04 bc 25 df 2b 3d
       0.052456457 0.08657762 -0.00807403 0.041960854
000370 b5 2a 77 3c 0b 9b f2 bc f7 25 31 3d 03 f7 d5 bc
       0.015085866 -0.029614946 0.043249097 -0.02611876
000380 ba b8 ed 3c 02 21 67 3d 62 a0 f1 3d c8 8b 93 3d
       0.029018749 0.056427963 0.11798169 0.072043955
000390 cb 35 cf bd f3 44 46 bd 75 1b 3c bd 80 3a 82 bd
       -0.10117682 -0.0484056 -0.045924623 -0.06358814
0003a0 05 f1 eb bb d7 30 2d 3d 23 82 01 3d 07 a2 c2 3d
       -0.0072003626 0.042282905 0.03161825 0.095035605
0003b0 1a 69 33 bd 8b 32 9b 3d 55 3a f9 bc 2a 64 45 bc
       -0.043801405 0.07578 -0.030423323 -0.012047807
0003c0 33 52 5f 3d 3d da f0 bd 94 55 b2 bd 51 90 b3 bd
       0.05452175 -0.11760376 -0.08707729 -0.087677605
0003d0 4e 67 12 bd 8d 29 5b 3d a3 ac 44 3d 91 bd 35 bd
       -0.03574305 0.053506423 0.0480162 -0.044370238
0003e0 57 70 45 bd cc c0 36 bd 0d 1a 14 3d 72 e5 3c bd
       -0.04820284 -0.04461746 0.036157656 -0.046117254
0003f0 4e 4d 87 3d 50 ec 47 bc d2 15 87 3c e0 a3 68 3d
       0.066065416 -0.012202337 0.016489897 0.05679691

conv1.bias f4 [32]
000000 42 7f f3 bc 53 48 a1 ba 73 0e 00 3d 5f 49 8c bb
       -0.029723767 -0.001230488 0.03126378 -0.0042812075
000010 55 ea a0 bd 2a b2 f1 3b 57 93 43 3d c0 a5 24 38
       -0.07857195 0.007375975 0.047747936 3.9255014e-05
000020 22 06 68 bd d5 54 68 bd 45 c7 98 3d 60 1f 83 bd
       -0.056646474 -0.056721527 0.07459883 -0.06402469
000030 dc 7c 14 bd 02 2b 83 bd 35 1c 10 bd 17 ee 07 bd
       -0.036251888 -0.064046875 -0.03518315 -0.033186045
000040 07 a4 2b 3c 92 bc f2 3c 64 71 8e 3d 17 6d f6 bc
       0.010476119 0.029630933 0.06955221 -0.030081315
000050 0b 88 ae 3d 73 85 d6 3d 12 7c 99 3c 12 68 c3 3b
       0.08522042 0.10474672 0.01873592 0.005963334
000060 d7 30 e6 3c 90 06 27 be 3f 4e e7 3d 83 ce 3c 3d
       0.02809946 -0.16311097 0.11294221 0.046095382
000070 fc 9d 37 3d e1 3e 02 bc ae 0b 00 bd ca b5 01 3d
       0.0448284 -0.007949562 -0.03126114 0.03166751

conv2.weight f4 [64, 32, 3, 3]
000000 b3 45 23 3c a3 87 de bc 5b 8e 6c 3c b2 86 0a bc
       0.009965348 -0.027164286 0.014438237 -0.008454965
000010 98 da a9 bc b1 7e 06 bc 5d 1e 8a bb b8 81 96 3b
       -0.020734116 -0.0082089165 -0.0042150454 0.0045931004
000020 78 90 77 3a 3d 55 ce 3c a0 b2 b3 3b ca 37 25 bb
       0.000944383 0.02518713 0.0054839402 -0.0025210255
000030 08 cb 04 bd e5 1e 83 bc a7 ff a2 bc 22 67 28 bb
       -0.03242019 -0.016005943 -0.019897295 -0.0025696238
000040 1c 65 84 3b 85 80 b1 3a 5f e4 4f bc ba e2 89 bc
       0.0040403735 0.001354233 -0.012688725 -0.016831744
000050 0d 2b 92 bc 2b 6c ec 3b dd e5 df 3a 79 c8 b0 39
       -0.017842794 0.007215043 0.0017082054 0.000337187
000060 28 fc d2 bc ea 60 e3 bc 60 6c 57 3c ed 45 75 bc
       -0.025755003 -0.027756173 0.013148397 -0.014970285
000070 3f 9f 60 bc a5 85 88 bc e3 87 81 bc f4 cc b6 3c
       -0.013709842 -0.01666529 -0.015811866 0.022314526
000080 87 f4 ab bc 98 64 a3 36 bb db 97 bc f5 c0 cb 39
       -0.020990623 4.869489e-06 -0.018537393 0.0003886294
000090 60 f6 03 3d 10 14 c8 3b b0 af 7d bc 0b 85 b3 3b
       0.032217383 0.0061059073 -0.015483782 0.0054785064
0000a0 18 af 84 3c 3f 12 41 bc cf c7 1b ba 23 15 97 ba
       0.016196772 -0.011784135 -0.00059425546 -0.0011526685
0000b0 c7 9b 34 bc 53 48 4c 3c 58 f7 4f bc bd dd a5 3c
       -0.011023468 0.012468415 -0.012693249 0.020247335
0000c0 cb 3c fb bc 67 2f 84 3c a4 00 81 bc 95 99 53 3c
       -0.030668637 0.016135884 -0.015747376 0.012915035
0000d0 a5 cc 0f bd a2 2e bf bc 39 c2 15 bd 53 b5 de bc
       -0.035107274 -0.023337666 -0.03656218 -0.027186072
0000e0 a7 dc a7 3b 6d d7 b8 bb c8 2a 29 bb a9 f9 aa bc
       0.0051227394 -0.005640915 -0.0025812853 -0.020871
0000f0 77 0b c8 3c da 12 ff bb 55 c6 82 3b dd b0 96 bc
       0.02441953 -0.0077842297 0.003990928 -0.018394882
000100 13 2f 58 bb d4 38 9a bc eb 8b bc ba 42 31 09 bd
       -0.0032987043 -0.018825926 -0.001438496 -0.03349424
000110 60 fe e1 bc e3 7a 62 bc 9c dd 80 3b 62 dc 8c bc
       -0.027587116 -0.013823244 0.003932668 -0.01719493
000120 78 76 c5 3b 2a 91 2a 3c 10 7a 71 bb 81 fb 20 3c
       0.0060260855 0.010410586 -0.0036846437 0.009825588
000130 d0 46 2b bc a4 4d 80 bc 4b f7 00 bc 7a 37 35 3c
       -0.010453895 -0.015662022 -0.007871459 0.01106059
000140 24 19 b8 bc a3 d4 52 bc 4f a5 b3 3b b8 b0 d9 bc
       -0.022472925 -0.012868079 0.005482353 -0.026573524
000150 90 28 89 3c 10 55 ce bc 87 36 8c 3a 1f 86 9c 3c
       0.016742975 -0.025187045 0.0010697403 0.019106923
000160 58 44 e2 bc a1 37 1c bd e8 9e 1d bd 9d 1e 55 bc
       -0.02762048 -0.03813899 -0.038481623 -0.013007787
000170 13 e2 f6 3b 57 d3 69 3c 77 2a 2b bc 02 2a b9 3b
       0.0075342744 0.014271579 -0.010447136 0.0056507597
000180 a7 a6 0e bb a3 5c c2 3a 48 7d b2 bc b0 ca d7 bc
       -0.0021766813 0.0014828633 -0.021788254 -0.026341766
000190 fa ac b6 3c d0 a7 05 bc 70 03 6d bc d8 cb f8 bc
       0.022299279 -0.008157685 -0.014466152 -0.030370638
0001a0 b2 af 68 3c 68 53 03 bd 0f a0 c8 bc 47 0a 73 3c
       0.014202045 -0.032061964 -0.024490384 0.014833993
0001b0 f3 02 d0 bc b8 3a 36 3b 44 bf 28 bb 08 f1 f5 ba
       -0.025392031 0.0027805995 -0.0025748769 -0.001876385
0001c0 a3 85 90 bc 0a 79 15 bc bb be 6a ba a3 bc 8b bc
       -0.017641848 -0.009123096 -0.00089548127 -0.017057722
0001d0 25 21 16 3a 9f 73 06 bd c2 55 29 bc bf be db bc
       0.0005726985 -0.03282511 -0.010335388 -0.026824353
0001e0 f8 bf 65 bc d0 9c 92 bc ff fd db ba cf e3 0a 3c
       -0.01402282 -0.01789704 -0.0016784071 0.008477165
0001f0 c7 9a b1 3b 83 39 57 bc 68 d7 b9 bc 27 95 16 3b
       0.005420062 -0.01313627 -0.022685722 0.0022977085
000200 1f 32 99 bb 6f 82 8b bc d7 25 d2 bc 40 92 87 bc
       -0.0046751644 -0.017029969 -0.025652809 -0.01654923
000210 b1 68 49 bc ab 19 01 bd b7 61 0c 3c 23 ca 07 39
       -0.012293027 -0.03151862 0.008568219 0.00012949905
000220 7b 65 5f 3c cd 8e b6 bc 10 5f 8b bc 1f d5 3e bc
       0.013635035 -0.02228489 -0.017013103 -0.011647492
000230 35 0a 80 bc 1c 05 12 bc 3f ae b4 bc 6a 13 f7 bb
       -0.015629867 -0.008912351 -0.022055743 -0.007540156
000240 39 df bc bc 63 a6 56 bc d8 e1 e8 bc 5d c5 75 bc
       -0.02305566 -0.013101193 -0.028428003 -0.015000668
000250 5c c4 9a 3c 63 ab b6 ba 58 ca 32 bc 62 b9 f1 bb
       0.01889246 -0.0013936575 -0.0109125 -0.0073768357
000260 bc 91 a2 bc 2b a8 23 bc 77 35 37 bc 5a a8 63 bc
       -0.019844882 -0.009988825 -0.011182181 -0.013895119
000270 38 3b f5 3b 7b 5b 20 3c ad 98 e2 bb e7 72 03 3c
       0.007483866 0.009787436 -0.006915173 0.008023
000280 4a 85 e0 bb 92 21 39 bc 88 19 e1 bb 4d d8 78 3c
       -0.006851827 -0.011299508 -0.0068694986 0.015188289
000290 3f dd 8e 3c f0 33 ed bc a2 19 18 3b 08 e1 27 bb
       0.017439483 -0.02895543 0.0023208638 -0.0025616307
0002a0 c3 9b d8 bc 6f 11 0f 3c 0a ad b4 bc 29 48 97 bb
       -0.02644146 0.008732184 -0.022055168 -0.0046167565
0002b0 f5 bb a0 bb 6a 52 c6 bc b8 21 6b bb 4c d0 8c bc
       -0.0049052187 -0.02420922 -0.0035878252 -0.017189167
0002c0 eb a4 e4 bc 17 06 6c 3a 94 3d 09 bb 37 75 0c 3d
       -0.02791067 0.0009003593 -0.0020941244 0.034291472
0002d0 a7 62 1f bb 67 f8 11 bc 2f f0 bb bc f0 f2 7e bb
       -0.0024320276 -0.008909321 -0.022941677 -0.0038902126
0002e0 85 68 60 bc 3f b3 58 bb f0 fd 74 bc 38 6a c5 3c
       -0.013696794 -0.0033065823 -0.014953122 0.0240985
0002f0 c2 c7 19 bc 92 4b aa bc a2 83 b1 bb 77 9e 64 bb
       -0.009386005 -0.020787988 -0.005417303 -0.0034884491
000300 5f 28 9a bc c5 c7 49 bb 13 8a 98 3c e8 28 c2 bb
       -0.018818079 -0.0030789238 0.018620526 -0.0059252866
000310 a4 31 97 3c 70 81 91 bb fb 09 81 3a 6f 4a 7f 3c
       0.018456288 -0.004440479 0.0009844893 0.015581711
000320 5d fc 59 bc 48 a5 08 bb ab f3 ef 3c af a3 6b 3c
       -0.013304797 -0.0020850468 0.029290995 0.014382287
000330 4c ab 93 3b 32 90 44 3c 68 07 ff bc ef 32 98 bc
       0.004506504 0.0119972695 -0.031131461 -0.018578975
000340 f5 f0 ee b9 95 06 30 bc aa 45 d1 bc 12 a2 00 bc
       -0.00045574424 -0.010743757 -0.025545914 -0.007851141
000350 c0 0b 03 ba 0f 87 16 bc 52 ab f1 3c 63 39 99 3c
       -0.00049990043 -0.009187474 0.029500637 0.018704122
000360 40 4c da bc 74 e8 0a bd 7f b6 09 bd 32 28 5b 3c
       -0.026647687 -0.03391309 -0.033621307 0.0133762825
000370 b3 1b 8c 3c 0b 19 ac bc 58 6d 0d 3c da 3a ab 3b
       0.017103052 -0.021008035 0.008632027 0.0052255215
000380 07 88 7d 3a e0 46 5b 3c c1 5a 86 ba e4 5b b4 ba
       0.0009671454 0.013383597 -0.0010250435 -0.0013760296
000390 2f 74 2d bc 30 da 8d b9 08 fe b1 bc 13 44 2c bc
       -0.010586782 -0.00027056178 -0.021727577 -0.010514277
0003a0 df 45 cd bb 22 f4 b8 bc c7 16 06 3c a7 5a c2 bb
       -0.006264433 -0.02257735 0.0081841415 -0.0059312168
0003b0 47 1d 13 bd 9b 54 b3 ba 77 19 11 bc 29 23 26 bc
       -0.035916593 -0.0013681831 -0.008856169 -0.010140219
0003c0 b0 60 b9 bc ad 48 de bc ab 5e c0 3b aa 72 de bb
       -0.022629112 -0.027134264 0.0058706603 -0.0067885714
0003d0 bf cb a4 3c 27 12 11 3d fb 22 5b bb 1d 54 b5 bc
       0.020116685 0.035417702 -0.0033437598 -0.022134835
0003e0 9a 98 46 bc bf 15 8d bb 35 35 98 3b c0 20 ef bc
       -0.012121344 -0.004305571 0.0046450146 -0.029190421
0003f0 17 6b a1 3b 1f 77 a3 bc 2a 11 92 3b 62 ee 15 bd
       0.004926096 -0.019954262 0.0044576125 -0.036604293

conv2.bias f4 [64]
000000 dc 6c 97 3c a0 ad fc bb e3 b5 0d 3c af 6b 7d ba
       0.018484525 -0.0077111274 0.008649322 -0.000966723
000010 95 7f d5 bc 30 b8 da bb 78 48 13 ba d8 64 65 3c
       -0.026061812 -0.006674789 -0.00056184037 0.014001094
000020 c7 c2 dc bc 83 a5 09 3c c7 02 04 3c 2f 72 43 3c
       -0.026948346 0.0084012775 0.008057303 0.011929079
000030 1f b1 c0 bb d7 44 bc 3b d8 cc 0e bc e3 15 52 bc
       -0.0058804895 0.005745511 -0.008715831 -0.012822601
000040 80 0e 18 3c 33 cc a3 3d 8a 07 b8 b9 1f 20 ec bc
       0.009280801 0.07997932 -0.00035100832 -0.02882391
000050 f2 f8 dd bc a2 a0 8b bb 40 9a e6 ba 1d 6c ab bc
       -0.027096245 -0.0042610923 -0.0017593578 -0.020925576
000060 5d 48 bb 3c be ec 8e 3c c3 08 81 bc 2d fd e7 3c
       0.022861654 0.017446872 -0.015751248 0.028318966
000070 87 59 5b 3d 44 03 bd bc d9 d6 91 bc d3 00 a3 ba
       0.053552177 -0.023072846 -0.017802643 -0.0012436159
000080 a1 e9 06 ba 3e 80 9e bc f8 53 5c bd e7 e0 df 3c
       -0.0005146508 -0.01934826 -0.053791016 0.027328921
000090 b3 33 93 bc e5 e2 5b bc fd 27 84 bb 38 0e b9 3c
       -0.017968988 -0.013420795 -0.0040330873 0.022589788
0000a0 6f 01 e7 3c 6e 6c 92 bc 97 b2 1d 3c 90 4e 5a bc
       0.028198926 -0.017873969 0.009625099 -0.013324395
0000b0 01 a1 1f ba 6b c3 94 bc d0 5e bf bb 29 62 83 3c
       -0.000608936 -0.018159589 -0.00584016 0.016038017
0000c0 c5 c7 2c ba c0 03 cc 3b 3a fc 31 bd 3f 9d de 3c
       -0.0006591047 0.006226033 -0.043453433 0.02717459
0000d0 73 fd 3d bc d1 52 b4 bc cf 57 87 3d 27 d3 a3 bb
       -0.0115960715 -0.022012146 0.06608545 -0.0049995366
0000e0 6b a1 8c bc c7 3e fa 3c 80 55 c1 bc 72 97 39 bd
       -0.017166814 0.030547513 -0.02360034 -0.045310445
0000f0 8b 4c 4c 3d b2 de 0a 3c ea 90 c8 3c f8 f5 68 3c
       0.049877685 0.008475946 0.024483163 0.0142188

conv3.weight f4 [64, 64, 3, 3]
000000 15 69 d8 3b 2a 5e c7 3b 01 3f 2f 3c b1 3e 8b bc
       0.0066043236 0.0060842233 0.010696174 -0.016997667
000010 6f 8c c7 bc e7 ff 3e 3b 77 a4 b7 bb ca 56 ab bc
       -0.024358956 0.002914423 -0.0056043225 -0.020915408
000020 5f a6 c2 bb e8 3a 83 bb 4f 99 c0 3a fb 8e 74 bc
       -0.005940243 -0.004004825 0.0014694127 -0.014926667
000030 97 b2 d1 3b 87 4f 75 3c 80 8b d4 bb 94 2a 1e bc
       0.0063994634 0.014972574 -0.0064863563 -0.009653706
000040 9a 37 1a 3b 47 13 08 3c bc 31 18 3b 17 6e 5b 3c
       0.0023531676 0.008305377 0.0023223003 0.013392947
000050 a8 66 3c 3b 2a 24 dd 3b f2 38 6f bc a5 46 59 bc
       0.0028747711 0.006748696 -0.014600979 -0.013261472
000060 bb fe 60 bc e8 69 eb 3b 48 9b 55 bc df b3 4b 3a
       -0.0137326075 0.007184256 -0.01303751 0.00077706383
000070 12 53 9b 3c e9 e2 8b 3b 20 b4 af bc 52 02 11 3c
       0.01896051 0.004268993 -0.021448195 0.008850651
000080 28 1a 1c 3c 09 e6 b4 bc 3c cb c1 bc 0a 06 d9 bb
       0.0095277205 -0.022082346 -0.02365648 -0.0066230344
000090 c9 49 85 bc f9 d7 06 bc b2 d6 39 3c e7 9c 3c 3c
       -0.016270535 -0.008230203 0.011342691 0.011512018
0000a0 bf 60 d2 3b 8b b6 0f 3b 1f 2b 79 bb 8f e7 ad bc
       0.0064202244 0.0021928872 -0.0038020087 -0.02122858
0000b0 dd fe 8f bc 41 61 05 3c 77 e0 05 bb d9 94 92 bc
       -0.017577583 0.008140863 -0.002042798 -0.017893242
0000c0 e7 ba 10 3c 3f 5d bb bb cb 48 82 bc a2 32 3e 3c
       0.0088336235 -0.005717903 -0.015903851 0.0116087515
0000d0 62 71 d1 3b 55 cf e0 bc 70 b0 bd 3a c3 fa 37 bc
       0.00639169 -0.027442614 0.0014472138 -0.01122922
0000e0 73 34 02 bc 5b c2 ab bc 5b af 63 bc c5 6c 69 bb
       -0.007947075 -0.0209667 -0.0138967885 -0.003561781
0000f0 58 75 e3 3b e5 cf 22 3c fc ae c8 3b e0 8f 5e bc
       0.0069414787 0.009937261 0.0061243754 -0.013584107
000100 79 58 16 bc 3a 88 6a bb 87 80 14 39 37 73 f0 ba
       -0.009176367 -0.0035786764 0.0001416226 -0.0018344884
000110 c2 af 25 3b f2 05 94 bc c3 c1 a8 bb a5 9b cd bc
       0.0025281762 -0.018069241 -0.0051500513 -0.025098631
000120 82 94 1a bb 57 b2 f5 bb 0f 87 05 bc 0f 8b 35 bc
       -0.0023587053 -0.0074980664 -0.008149876 -0.011080517
000130 b2 02 98 bc cb be 0c bb 47 94 e4 3b 8a 37 65 bb
       -0.018555973 -0.0021476026 0.006975684 -0.003497573
000140 d5 3d 0a 3c a4 d8 c4 bb 83 89 67 bb 1a 93 a6 bb
       0.0084375935 -0.006007271 -0.0035329766 -0.005083454
000150 10 7d bb bc b8 0d d2 bc f4 c5 0d 3c 6f 63 89 3c
       -0.022886783 -0.025641307 0.008653153 0.016771046
000160 1d 2e 55 bc 4b ac 02 bb aa 1e 26 bc 68 18 9a bb
       -0.013011483 -0.001993912 -0.010139147 -0.0047026165
000170 57 66 8e bc 15 23 a5 bb 55 f5 f1 3b 81 45 3c bc
       -0.017382784 -0.0050395825 0.007383982 -0.01149118
000180 43 f4 b9 bb 6c 7b 0f 3c 0f 40 00 3c da d7 ec bb
       -0.00567487 0.008757453 0.007827773 -0.00722788
000190 7b fb cf b9 fb c2 93 bb ef 28 08 3c 79 e1 a1 bb
       -0.00039669484 -0.0045093275 0.008310541 -0.0049402085
0001a0 02 1a 21 bb a0 d7 d8 bb ad 1d 2b bb eb ca ef bb
       -0.0024582152 -0.0066175014 -0.0026110217 -0.007317891
0001b0 88 52 55 3c 75 6f e2 bb b8 da f6 bc 8f e1 81 bc
       0.013020165 -0.0069102594 -0.03013359 -0.015854625
0001c0 43 6d 55 3c 43 ac c3 bb 62 20 07 3b f3 fd 20 bc
       0.013026538 -0.005971463 0.0020618667 -0.009826171
0001d0 ca 01 1a bc 99 1a 84 3b 03 65 43 3c eb 41 09 3c
       -0.009399841 0.004031491 0.011925939 0.0083775325
0001e0 88 37 69 3a 35 2a 84 bc a7 26 ba bb 32 bf c3 bb
       0.00088965194 -0.016133407 -0.0056808772 -0.00597372
0001f0 40 bc ce ba 58 36 85 bb 27 74 05 bc b3 72 82 bc
       -0.0015772656 -0.004065316 -0.008145369 -0.015923833
000200 2f fc 38 3c f3 cc 02 bc af 11 4c bb b3 60 6e 3a
       0.011290594 -0.007983434 -0.003113847 0.0009093389
000210 3b 99 00 bb e4 4f 15 bc 90 c0 9e bc 73 73 3a 3c
       -0.0019622582 -0.009113286 -0.01937893 0.011380064
000220 75 e0 1a 3b 2f 1c e3 3b 7d 2a 5c bc 33 7f 9f bc
       0.0023632322 0.00693085 -0.013437864 -0.019469833
000230 dc 8d 23 bc 40 6b 28 bc ca 5d bf bb 7b 4e 32 bc
       -0.009982552 -0.010279477 -0.005840038 -0.010882969
000240 3d ec 87 bb f7 fb d7 bb 20 13 16 bc 33 0e 65 3c
       -0.004148035 -0.006591316 -0.009159833 0.013980436
000250 08 35 9c 3b 5d ea 99 bc c3 df 98 b9 0a 62 95 bc
       0.004767064 -0.018788511 -0.00029158415 -0.018235225
000260 e8 23 0a bb f0 c5 9a 3b d5 cb 6c bb 5d ff e1 bb
       -0.002107853 0.004723303 -0.0036132236 -0.0068968968
000270 2a 78 f3 3b 98 e3 03 bb d2 fe 97 3b 28 e7 5e bc
       0.007430096 -0.002012467 0.0046385312 -0.013604917
000280 0a 58 7c bb fd 14 58 bc 3d 01 5b 3c 7b d2 99 3c
       -0.0038504624 -0.013188598 0.013366994 0.018777123
000290 48 6a 22 3b 58 46 e4 b8 0f dd b4 3a 28 17 28 bc
       0.0024782587 -0.0001088499 0.0013798791 -0.010259427
0002a0 87 cf b6 bb 37 e7 bd 3b 8f b5 cc 38 77 a4 8f bb
       -0.0055789384 0.005795385 9.761296e-05 -0.0043836194
0002b0 7a 62 00 bc 6f 1e 47 ba 90 c5 c2 3b ef 9a f9 bc
       -0.007835979 -0.00075957825 0.0059439614 -0.030469386
0002c0 7f 50 28 3c a3 a4 9e bc 87 7c 82 3b 3f dd 9a bc
       0.010273098 -0.019365614 0.00398213 -0.018904326
0002d0 d5 cd 0a bb df 21 b0 ba 87 53 4d ba b1 c8 ca ba
       -0.0021179814 -0.0013437829 -0.0007832576 -0.0015471188
0002e0 c9 be b7 bc 6b 4d 01 bc 2d d3 93 bb 27 5a fc ba
       -0.02242984 -0.007891993 -0.004511258 -0.0019252942
0002f0 e3 85 92 bb 0b 26 81 bc 9f 49 08 3c 3f 24 0f 3b
       -0.004471527 -0.01576521 0.008318334 0.0021841673
000300 bb a0 4c 3c ea ac 60 bb 60 53 1a 3b 90 0a 5d 3b
       0.012489493 -0.0034282752 0.002354823 0.003372822
000310 65 28 13 b9 83 74 0f 3c 6a c4 b1 bc 4f 31 a7 3a
       -0.0001403406 0.008755806 -0.021700103 0.0012755784
000320 ab 70 25 3c bd b6 78 ba d4 fc 1b bc e8 83 ae 3b
       0.010097663 -0.00094876793 -0.009520728 0.005325783
000330 da 88 b5 bc 3b 1d a1 bb 9d 02 e1 3b 48 63 6d bc
       -0.022159982 -0.0049168146 0.0068667666 -0.0144890025
000340 4a eb 59 3c a8 db 54 bc 65 33 d9 bc 40 79 e6 ba
       0.013300726 -0.012991823 -0.026513765 -0.0017583743
000350 6f 8c 7b 3b 67 d1 59 bc 5a ec bf bb 93 09 85 bb
       0.0038383265 -0.013294554 -0.0058570327 -0.004059979
000360 ab 7f 04 bc f3 33 cf bb 77 ed d3 bc e0 95 d3 ba
       -0.008087079 -0.0063233315 -0.025870068 -0.0016142689
000370 8b 23 03 bc 63 ad 95 3a 28 35 8f bc 23 2a 6d 3b
       -0.00800408 0.0011419471 -0.017481402 0.0036188446
000380 64 80 90 bc f2 08 63 bc 78 1b 3f bc 99 b1 42 bc
       -0.017639346 -0.013857113 -0.011664264 -0.011883163
000390 c0 57 a4 bc 34 81 83 bc e7 3f 67 39 dc 90 a0 3b
       -0.020061374 -0.01605282 0.00022053682 0.004900081
0003a0 43 8f 62 3b c7 6a a2 3c 8f c3 b5 3b 25 5e cf 3c
       0.0034570254 0.019826306 0.005546994 0.025313446
0003b0 ab d8 06 3c 0d 26 75 3a 47 2b b7 bc 8b 74 19 bc
       0.008230369 0.00093516783 -0.022359503 -0.009366165
0003c0 b2 d6 ff ba c0 44 b6 bc 77 06 3f bc b3 65 6a 3c
       -0.001951894 -0.02224958 -0.011659256 0.014306474
0003d0 63 01 16 bc 75 b9 13 3b f7 07 73 bc 1f b8 1d bc
       -0.009155604 0.002254096 -0.014833442 -0.009626417
0003e0 eb 2a 04 bc ea 09 35 bc 00 cf 97 bb 43 4f 30 3c
       -0.008066873 -0.011049727 -0.0046328306 0.010761085
0003f0 ff 4e dd bb 0f b1 f5 3b 60 f4 cf bc 5b 83 85 bc
       -0.006753802 0.0074979137 -0.025385082 -0.016297987

conv3.bias f4 [64]
000000 33 05 f5 bb db f9 f8 bb b5 97 f8 bb f3 0e 03 bb
       -0.0074774264 -0.0075981445 -0.0075864443 -0.0019997924
000010 a7 4b 07 3c 73 d9 7b bc ba 03 51 bc 2a 84 02 bc
       0.008257783 -0.015371668 -0.012757236 -0.007966081
000020 27 b4 48 3b f3 22 6b bc 72 fb 82 3c 79 a6 14 bc
       0.0030624957 -0.014351594 0.01598904 -0.009072893
000030 40 68 4f bc ed 26 85 bb d2 9a 0d bc 00 f6 c4 bb
       -0.0126591325 -0.004063478 -0.008642869 -0.006010771
000040 48 c4 02 bd 33 eb 95 bb ef 00 3d bc 1a 4a fe bb
       -0.03192547 -0.004575157 -0.011535867 -0.0077602984
000050 3f 8a cf bb 42 90 e0 bc c5 74 50 3c 63 fe 5f bc
       -0.006333619 -0.027412537 0.0127231525 -0.01367149
000060 37 5f cc 3a 2f 80 67 bb 2a d4 a5 bb 72 64 14 bc
       0.0015592341 -0.0035324206 -0.0050606923 -0.009057151
000070 d5 0d 3e bb a0 3f f2 3b 4c 08 40 3c 1f 0a c2 bc
       -0.0028999944 0.0073928386 0.011720728 -0.023686467
000080 37 ff 07 3c b1 5b 01 3c 6b 68 6d bc 92 f3 d8 bc
       0.008300594 0.007895396 -0.014490227 -0.02648333
000090 ff 80 3f bc 72 07 15 bc 60 94 da bb 15 a3 01 bc
       -0.01168847 -0.009096013 -0.0066705197 -0.007912417
0000a0 27 f8 2c bc 67 88 3e bc 60 95 c9 3b 48 b3 42 3b
       -0.010557211 -0.011629201 0.00615184 0.002970891
0000b0 8e 95 2b 3b 3b d0 8a bc eb ef d1 3b dc 0a a0 bc
       0.002618167 -0.016944995 0.0064067743 -0.019536428
0000c0 49 94 13 bb 18 c7 89 bb 27 21 cd 3b b2 b8 d2 3b
       -0.0022518805 -0.004204642 0.0062600556 0.006430709
0000d0 69 c2 16 3a 22 ca 73 3d 40 81 30 3b 8a af 85 bc
       0.0005751015 0.05951894 0.0026932508 -0.016319055
0000e0 2f c3 cb bb 1a ec 3f bc 9f b1 03 bb 5f 3f 8c 3c
       -0.006218336 -0.011714006 -0.0020094884 0.017120061
0000f0 a5 a9 e3 bb 07 fd b2 bb 18 a0 09 bc 67 5a 2a bc
       -0.0069477134 -0.005462292 -0.008399986 -0.01039753

fc1.weight f4 [64, 1024]
000000 98 86 a5 bb fb 4e 7c bb 4f 8d 20 3c 53 a7 82 3b
       -0.005051445 -0.0038499224 0.009799316 0.0039872318
000010 b2 da d8 bb bb 94 cb 3b 8b f5 74 3b c8 f6 ef 3b
       -0.0066178674 0.0062127984 0.00373778 0.00732312
000020 2a d3 56 3b 2f 34 31 bb 09 d8 86 bb 87 85 71 3c
       0.0032779672 -0.002703916 -0.004115109 0.014741308
000030 9a 6f fc ba df 27 4f 3b 97 3b b2 bb b2 bd f5 3b
       -0.0019259334 0.0031609458 -0.0054392326 0.00749942
000040 cd 86 94 3a 5a bb a7 3b f8 69 19 bb b2 75 f6 bb
       0.0011331678 0.0051187696 -0.002340911 -0.0075213546
000050 c7 35 8b 3b 47 d1 31 bc ba e3 90 3b 19 42 a8 3b
       0.004248354 -0.010853118 0.0044216784 0.0051348326
000060 d5 29 6d 3c 0a 63 9e bc 4f 71 96 3b b2 6c e3 bb
       0.014475306 -0.019334335 0.004591144 -0.0069404477
000070 dd 65 50 bb 15 c1 54 bc 5f 5d f4 3a 3d 75 61 3b
       -0.0031798996 -0.0129854875 0.0018643549 0.0034402155
000080 22 f0 12 3a 0b 40 58 bc 87 89 c6 bb a0 f0 b9 bb
       0.00056052406 -0.013198863 -0.006058875 -0.0056744367
000090 bf 83 b2 3b 58 3d e5 bb 42 e1 02 bb 87 56 fe ba
       0.0054478343 -0.006995838 -0.001997069 -0.0019404449
0000a0 ca 85 b7 bb 23 58 8c 3b 88 8b 45 bc d3 25 54 bb
       -0.0056006657 0.0042829677 -0.012057193 -0.0032371178
0000b0 50 8f fb 3b 80 40 43 3c 1f be 66 bc eb d8 21 bb
       0.0076769963 0.0119172335 -0.014083414 -0.0024695944
0000c0 ea 4b 33 ba 3a 83 23 3c e7 f9 a7 b9 ba 86 c2 ba
       -0.000683962 0.009980017 -0.00032038914 -0.0014841177
0000d0 48 33 b4 3c e7 4b 4b 3b cf 4b a7 bc 12 39 08 3b
       0.021997109 0.0031020583 -0.02042189 0.002078597
0000e0 c8 a7 c3 3a 7f 63 24 3c c7 79 bc 3a 0f d5 a2 3c
       0.0014927322 0.010033487 0.0014379554 0.019876985
0000f0 50 b7 3b 3b 82 2f 2f 39 c8 f6 1d bc fd ae 79 bb
       0.0028643198 0.00016706999 -0.009641357 -0.0038098686
000100 4b 6c 13 bc 04 83 a3 bc 77 7d ef 3b 57 73 38 3b
       -0.008997987 -0.019959934 0.0073086577 0.002814492
000110 53 3c d3 3b 3a 05 b1 3a ed f0 11 bc e0 8d ce 3a
       0.0064464 0.0013505586 -0.008907539 0.0015758835
000120 27 c6 23 3b 8a 77 df bc 4f ce 41 bc cb e3 a3 bc
       0.0024989934 -0.02727868 -0.011828973 -0.020006081
000130 17 92 70 bb 8b 08 c3 3c b0 dd b2 3c fb 3b 48 3a
       -0.003670817 0.023807785 0.021834224 0.00076383323
000140 54 56 21 bc 17 06 fa 3b 2b bb 76 3b 6f 92 4f 3b
       -0.009847242 0.0076301205 0.0037648182 0.0031672975
000150 a0 e4 fb bb d5 cd 62 bb d5 34 98 bc 3f 17 74 bc
       -0.0076871663 -0.0034607549 -0.01857988 -0.01489812
000160 9f 35 85 bc 04 66 93 bb 1b e7 49 b9 d3 3a 54 3b
       -0.01626092 -0.004498245 -0.00019254947 0.0032383695
000170 e3 64 ca bb 18 78 d9 3a ba 55 42 3c b7 1d 3c bb
       -0.0061765774 0.0016591577 0.011861259 -0.0028704235
000180 17 41 db bb 13 b3 95 3a 8b 84 58 bb 6b 57 7e bb
       -0.006691109 0.0011421166 -0.0033037986 -0.003880943
000190 d3 43 f1 3b 77 e5 c0 3b a5 55 53 3b 2f 89 d6 3b
       0.0073628216 0.0058867293 0.0032247093 0.0065471153
0001a0 3c 0f 83 bb 5f 21 6c bc 81 6b 8d bb 0a 43 ac bb
       -0.003999619 -0.014412253 -0.004315794 -0.005257015
0001b0 8d 84 97 b8 f7 10 1f bc 70 8f 75 3b c0 96 4f 3c
       -7.2249306e-05 -0.009708635 0.0037469529 0.012670219
0001c0 bf ab a5 bc 80 c3 37 3c 7a 26 2e bb 57 d0 86 ba
       -0.020223496 0.011216044 -0.0026573227 -0.0010285479
0001d0 d2 9f 88 3b 51 2e 26 bb 74 19 11 bb ca 6f 62 bc
       0.0041694427 -0.0025357197 -0.0022140415 -0.013820598
0001e0 87 c5 b4 3b 2a af 63 3b 18 6d 3a 3c 08 47 60 3c
       0.005516711 0.0034741857 0.011378549 0.01368881
0001f0 7c 49 01 3c db 82 b0 3b 0d 18 54 bc 72 0d e4 3b
       0.007891055 0.005386693 -0.012945187 0.0069596106
000200 9a 61 16 3b 42 ac e3 bb b8 26 0f 3c 1b bd 3d 3c
       0.0022946359 -0.006948025 0.008737259 0.011580731
000210 38 d4 49 3c 67 98 5c bb 77 45 51 3b 17 04 fe bb
       0.012318663 -0.0033660175 0.0031932273 -0.0077519524
000220 57 60 54 3b 6f 17 9d bb ad cb 68 3c f0 23 31 3b
       0.0032406056 -0.0047940533 0.014208716 0.0027029477
000230 73 40 52 ba 9f 64 8d 3b 2f 35 05 3c f8 98 d5 bb
       -0.0008020468 0.0043149735 0.008130356 -0.0065184794
000240 03 e3 f4 bc ad 5e ef ba 8c e4 29 3d 3d e6 4b 3d
       -0.029893404 -0.0018262469 0.041477725 0.04978012
000250 85 76 80 bd 0e de b9 bc f3 13 91 3c 28 94 08 3d
       -0.06272606 -0.022688892 0.017709708 0.033344418
000260 b7 a7 93 bd 9b 0e 93 bc 59 29 27 3c 95 da 63 3d
       -0.072097234 -0.0179513 0.010202729 0.055628378
000270 8b fc 37 bd c7 00 ae 3b 09 f9 37 3c 72 a3 12 3d
       -0.044918578 0.0053101513 0.011228808 0.035800405
000280 10 58 ae 3b 6a 3b 64 3b 93 27 6c bc af f5 b0 3b
       0.0053205565 0.0034825453 -0.014413732 0.0054003815
000290 45 e9 67 ba b7 31 0b bc 4a 23 9f bb 92 99 17 ba
       -0.00088467106 -0.00849574 -0.0048565017 -0.00057830766
0002a0 8d 52 2c 3c 00 c7 70 3b 45 89 5a 3a 58 18 ea 3b
       0.0105177285 0.0036739707 0.0008336495 0.0071440153
0002b0 af 82 8c 3c a5 67 cd 3b 61 37 03 3c 09 22 17 3c
       0.017152159 0.006268459 0.008008809 0.009224423
0002c0 ba e0 20 bc 63 35 7a bc 5d 9e fe bb e0 cc 0b ba
       -0.009819204 -0.015271517 -0.007770343 -0.0005332958
0002d0 c7 6f 93 b9 4d 52 72 3c 8b b7 a4 b9 c8 f2 18 bc
       -0.00028121306 0.01479013 -0.00031417268 -0.009335227
0002e0 61 03 42 3b 2f 15 19 bc e3 fc 41 3b f0 eb 69 bc
       0.0029604065 -0.0093434295 0.0029600195 -0.014277443
0002f0 6f df 29 3b bf e0 4a 39 73 35 bd ba f2 dd d6 bb
       0.002592053 0.00019347946 -0.0014435485 -0.0065572197
000300 b0 22 58 bc 4c 98 0f bc d8 e8 2c 3c 87 36 17 ba
       -0.013191864 -0.008764338 0.010553561 -0.0005768318
000310 4b 73 08 3c 3b d4 0c 3b 87 50 d2 ba 89 9f a5 bb
       0.008328269 0.0021488804 -0.0016045728 -0.0050544185
000320 7b e9 92 bb ea 4f 48 3c 64 fc be 3b 02 22 78 3c
       -0.0044833994 0.012226084 0.005828427 0.015144827
000330 bd bc 6d bb c5 10 87 bb 5a 6f f1 ba 6f 9d fe 3b
       -0.0036275827 -0.004121872 -0.0018420026 0.0077702324
000340 bd e9 6d 3b 50 e1 81 bb 23 8a e4 bb 18 df b6 bb
       0.003630265 -0.003963627 -0.006974475 -0.005580794
000350 43 3c d8 3b 1f c3 a9 3c 7f 39 0e bc 07 bc 5d 3c
       0.0065989806 0.020722924 -0.0086807 0.013533599
000360 5b e2 e9 bb 25 7f 12 bc 53 09 e9 ba 1f 5c 16 3b
       -0.0071375794 -0.008941446 -0.0017779268 0.0022943092
000370 57 a6 0f 3b e7 db 0a bb 38 dd 34 3b fa bb 2c 3c
       0.0021919215 -0.00211882 0.0027597677 0.010542864
000380 fb 25 46 bb 8d 30 d9 3a b2 03 d0 bb 7b 6f 3d bb
       -0.003023504 0.0016570255 -0.0063480968 -0.002890556
000390 0b 80 00 bb 68 08 16 3c 43 21 0d 3c a0 57 89 3c
       -0.001960757 0.009157278 0.008613887 0.016765416
0003a0 70 35 b2 3b c5 5f 80 bb 13 25 4c bc b3 bd 9e 39
       0.005438499 -0.0039176666 -0.012460011 0.00030277445
0003b0 d0 c4 82 3a cc 95 25 3a 10 04 59 bc 1b 87 25 3c
       0.0009976868 0.0006316572 -0.0132455975 0.010103012
0003c0 6a e6 7c 3b 60 fa 1b 3c fd 06 a6 3c 44 af bc 3c
       0.0038589486 0.009520143 0.020267004 0.023032792
0003d0 c5 07 ba 3c c0 73 d6 3c c8 97 dd 3c 5b 39 fa 3c
       0.022708783 0.02617824 0.027049914 0.030544927
0003e0 1f 83 45 bc a0 79 d2 bb 67 36 f2 3b c3 2b 6f 3c
       -0.0120551875 -0.0064231902 0.007391739 0.014597836
0003f0 fd 4f 51 bd c6 a6 12 bd 2b 8d f8 bb fd fb dd 3b
       -0.051101673 -0.03580358 -0.007585188 0.006774424

fc1.bias f4 [64]
000000 4d 6a 19 bc c7 d8 4d bc 6b 13 76 bc dd f3 3c bc
       -0.009363723 -0.012563891 -0.015019278 -0.011532751
000010 37 f8 34 bc 3b 23 53 3b c8 4f 0a bd 41 77 9b ba
       -0.011045507 0.0032217044 -0.03376749 -0.0011861102
000020 10 8e 76 bc 7b 53 a3 3b a4 54 ac bb 4b a3 c3 bb
       -0.015048519 0.004984317 -0.0052591134 -0.005970394
000030 cb 3a 0a 3c eb 53 95 bc 3b 04 ca bb 2a fe fc ba
       0.008436869 -0.018228492 -0.006165055 -0.0019301821
000040 cf 4b c1 bb d8 94 e5 bc cb 5f a7 bc 9f 1f 16 bc
       -0.0058989297 -0.028025076 -0.02043142 -0.0091628125
000050 23 3d b0 3b f5 a4 70 bb f0 79 8a bb 30 3c 73 3a
       0.005378382 -0.0036719416 -0.004225962 0.0009278683
000060 16 fa 03 ba cf b5 38 3d 30 c3 74 3d 67 09 83 bb
       -0.0005034519 0.04509526 0.059756458 -0.0039989236
000070 dd 9c 82 3a aa 62 7f 3c 1b 54 2f ba a5 09 e0 3c
       0.0009964962 0.015587488 -0.0006688253 0.027348349
000080 ba f5 e5 3b 51 be 44 3d 37 57 00 3d 13 a1 b6 3a
       0.0070178183 0.048033062 0.031333175 0.0013933502
000090 39 06 b1 bc f1 b9 98 bc 8f e3 50 3d 23 21 52 3d
       -0.021609413 -0.018643351 0.050998267 0.051301133
0000a0 33 e0 24 bd 4f 3b ed bb ca bc 5f 3d 4a b2 30 bc
       -0.040252876 -0.007239736 0.054623403 -0.010784695
0000b0 af 78 60 bc 0c c8 08 3c 2b 71 30 3c 85 8b c0 3b
       -0.013700648 0.008348476 0.010769169 0.005876007
0000c0 c7 a5 52 3b 4f f4 ae bc e2 6d 13 bb 37 b3 c5 3b
       0.0032142268 -0.02135673 -0.0022495915 0.006033327
0000d0 6b 76 9c b8 1b 13 55 3c 92 6e 90 bc 4f 61 d5 bc
       -7.460717e-05 0.013005043 -0.017630849 -0.026047377
0000e0 87 0d 38 3b 2b 68 d5 3a de 57 b7 bb ed 2a d4 bc
       0.0028084235 0.0016281655 -0.0055951914 -0.025899375
0000f0 85 4f c1 bb 24 c0 39 bd 12 4a 6f 3c 7d 55 c6 3c
       -0.005899372 -0.045349255 0.014605062 0.024210686

fc2.weight f4 [10, 64]
000000 f9 9e a1 3d 70 97 16 3d b9 27 10 3d 75 3b 3e bc
       0.0789165 0.036765516 0.035194132 -0.011610855
000010 d3 98 36 bd 9d b2 13 bc db 8a c7 3d af 70 23 3b
       -0.04457934 -0.009014753 0.097432815 0.002493899
000020 0e 97 04 3d 23 55 1e 3d ba b5 92 bd dd 76 e4 3c
       0.03237062 0.03865541 -0.07163568 0.02788871
000030 13 07 29 bd 65 a5 7d 3d 78 97 26 3c 7f 98 d7 3b
       -0.041266512 0.06192531 0.010167949 0.0065794582
000040 98 49 59 3d cd 0d a8 bb ad 3b b3 bc 82 34 e6 bc
       0.0530487 -0.0051285983 -0.021879042 -0.02810121
000050 8a d7 ab 3b e1 08 b6 bc f8 33 f5 3c 5c 80 0a bd
       0.0052442 -0.02222103 0.029932007 -0.03381382
000060 45 1e 6e 3c ea 44 88 bc c9 2e 42 3c 93 13 b3 3c
       0.014533584 -0.016634423 0.011851975 0.02185992
000070 0d 3a 27 bc 48 62 99 bc 5d f3 4c 3c c4 b1 95 3c
       -0.0102067115 -0.018723622 0.012509194 0.018273242
000080 d8 1d 2f 3d ff 16 33 bd e7 35 e3 3c 7f 47 7d bc
       0.04275307 -0.043723103 0.027735664 -0.0154589405
000090 cb 3d d6 3b cf bf 50 3d 1e 18 27 3c 8b 9b fb bb
       0.006538128 0.050964173 0.010198621 -0.0076784543
0000a0 85 39 55 bb f7 af 0d 3c e0 84 3a bd 8f cb 01 bd
       -0.0032535505 0.00864791 -0.045536876 -0.03168827
0000b0 a0 20 1f 3d 25 c4 94 3c 50 80 43 bc 5f 18 10 3d
       0.038849473 0.018159935 -0.011932448 0.035179492
0000c0 15 d2 6b bd a5 86 35 bc f2 17 42 bc 85 b7 ee 3c
       -0.057573397 -0.011079465 -0.011846529 0.029140243
0000d0 5f d3 19 bc a7 f3 28 3d 90 c5 e0 3c ad d3 82 3c
       -0.009388774 0.04124799 0.027437955 0.015970076
0000e0 ed 2c 3f bd d0 e8 eb bc 4b 55 42 3d ab 73 ba bc
       -0.046673704 -0.028797537 0.047444623 -0.022760233
0000f0 2d 6c 79 3d 1f d9 33 bc 8d 0b ce 3c 3b 9b bd 3b
       0.06089418 -0.010977059 0.025151992 0.005786327
000100 9b f4 86 bd 40 35 74 3d 4b 1b 90 bc 0a dc d4 bc
       -0.065896235 0.059621096 -0.01759114 -0.025983829
000110 38 b1 77 bc 44 01 21 3d 02 06 0f 3c 54 c4 15 3d
       -0.015117936 0.039307848 0.00872946 0.036564186
000120 58 f7 e9 3c 2f 9c 5c 3d 7f af 21 3c 79 aa 87 bd
       0.028560326 0.053859886 0.009868502 -0.06624312
000130 63 35 9b 3d d0 e6 09 bd 70 ea e4 3c eb 53 71 bb
       0.07578542 -0.033667386 0.02794382 -0.00368237
000140 02 ce c1 bc 57 5e f4 bc 97 2a 19 3d c4 6c 43 bd
       -0.023657802 -0.029830141 0.037394132 -0.04771115
000150 ff fe dd 3c b7 41 bb 3c ec cf 98 ba 28 9f 0f 3d
       0.02709913 0.022858484 -0.0011658645 0.035063893
000160 8b ae 20 bc bd e3 32 bd 0d fd e8 bb 9f 8d e9 3c
       -0.009807239 -0.04367422 -0.007110244 0.028509913
000170 43 80 8f bc 25 bc 19 3d e7 e5 0e bc 87 05 28 3d
       -0.017517215 0.037532944 -0.008721805 0.041020896
000180 cd ef a3 3c 40 53 87 bd 41 0f 92 bd 02 44 48 bd
       0.020011807 -0.066076756 -0.07131816 -0.048892982
000190 47 c7 8c 3d c5 38 5e bd eb e5 6c bd fd 5c d9 bd
       0.06873947 -0.05425336 -0.057836454 -0.10613439
0001a0 aa ac 42 3d b3 9c 61 3b 16 5b 2b bc 5a 53 81 38
       0.047527947 0.0034425675 -0.010458728 6.166725e-05
0001b0 b7 29 2e 3d 6f 12 29 3d dd f1 de 3d 97 6d eb bc
       0.04252025 0.041277345 0.108859755 -0.02873878
0001c0 02 2f c3 bc 4d 02 e0 3c 98 87 63 3c 32 8b 84 bc
       -0.023826126 0.027344847 0.013887309 -0.016179655
0001d0 74 d1 01 bc 31 25 81 bd 41 3e 24 3c 38 f0 11 bc
       -0.007923473 -0.06305922 0.010024608 -0.00890737
0001e0 5e 97 35 bb ff 27 3a 3d 79 12 87 bc 1b de f7 bb
       -0.002770863 0.0454483 -0.0164883 -0.007564319
0001f0 6f fd 07 bd 50 81 e1 bc 6b 50 c4 3c 4f dd 01 bd
       -0.033200677 -0.027527481 0.023964128 -0.031705197
000200 7a ad f5 3c 83 83 4e 3c 62 bc fa bc 93 17 10 bd
       0.029989947 0.012604597 -0.030607406 -0.035178732
000210 59 e9 00 bd 88 92 59 bd a0 dc ca bc 0f b0 4e bc
       -0.031472538 -0.05311826 -0.024763405 -0.012615218
000220 7f 24 3c bd 17 21 e3 ba 0f 90 ef bc bf d2 b1 3c
       -0.045933243 -0.0017328587 -0.029243497 0.021706937
000230 10 b3 3c b9 6a fa 4d 3d 52 49 fd 3c 6f 91 ad 3c
       -0.00017995783 0.05028764 0.03091875 0.021187512
000240 49 ae 2b 3d 7a 73 50 bc 4b 8d f8 bc b7 13 9f 3c
       0.04191426 -0.012722844 -0.030340811 0.01941858
000250 c5 1f 90 bb b3 12 87 3c 82 c5 bd bb b7 95 18 3d
       -0.0043983185 0.016488409 -0.005791367 0.037252154
000260 0d 20 08 bc c6 4a 11 3d db 48 80 3d 2a 01 ea bc
       -0.008308423 0.0354717 0.06263896 -0.028565008
000270 cd 92 6e bc 1b 3c 93 3c 1d 85 df bb 4f b5 cc bc
       -0.014561367 0.017972996 -0.0068212883 -0.024988798
000280 00 06 27 3d 93 1e 90 3d eb 6e 72 3d d8 96 1b bd
       0.040777206 0.070370816 0.05918781 -0.037985653
000290 eb 07 56 3c 3f 88 4a 3c 22 b7 21 3d 40 3e 21 3d
       0.013063411 0.012361585 0.03948129 0.039366007
0002a0 6a fe fb bc 03 b3 08 bd 52 07 4a 3d a5 c9 b6 3b
       -0.030760963 -0.033373844 0.049323387 0.005578237
0002b0 58 66 15 3d ff a0 22 3c 54 a3 97 bd cb e7 7a bc
       0.036474556 0.00992608 -0.07404199 -0.015314053
0002c0 2f e7 cf bc 78 49 5b bd 10 19 f1 bb 77 98 b8 bc
       -0.025378792 -0.053536862 -0.007357724 -0.022533638
0002d0 8f e8 12 3d b0 ec 17 bc 77 de 7a 3b 02 ff 28 3d
       0.035866316 -0.009272739 0.0038279572 0.04125882
0002e0 3b 36 ac bc c3 8f 8f bd db 72 0b 3d 03 f2 a6 bc
       -0.021021953 -0.07009842 0.03404508 -0.020379072
0002f0 f2 47 12 bb b2 f8 f1 3b 67 4e a3 3c 03 7f 0b 3c
       -0.0022320715 0.007384383 0.019934846 0.008514169
000300 af cd ad bd 17 c4 3b 3c e3 75 76 3d 42 53 a2 bc
       -0.08486497 0.011460326 0.06017102 -0.019815091
000310 8a de ec 3c 50 e9 fd 3a 7a 6b 93 bb c0 cf 4e 3d
       0.028914709 0.0019371901 -0.004498896 0.050491095
000320 ca 58 d0 3c 50 7c 3b bd bd f5 2c bc 6b f0 44 3c
       0.025432963 -0.04577285 -0.010556635 0.012020211
000330 21 dd 23 3d f0 1f c4 bd 90 d7 d9 bb fa 14 84 3d
       0.040005807 -0.09576404 -0.0066480115 0.064493135
000340 6f 99 00 bc 09 49 36 bd 59 12 b4 3c da dc dc 3a
       -0.007849081 -0.044503246 0.021981405 0.0016850487
000350 fd d9 3b 3d 3f c7 e0 3c 98 66 db bc 6b f0 26 3d
       0.045862187 0.027438758 -0.026782319 0.040756624
000360 de 79 b3 ba eb cc 21 3d 64 72 90 bd eb 9c 10 bb
       -0.0013692935 0.039502066 -0.07053068 -0.0022066187
000370 f3 85 96 bb 5f eb c5 3b 39 7b b7 bd 01 e5 99 3c
       -0.0045936047 0.0060400213 -0.0895905 0.018785955
000380 71 ed 8a ba b4 30 26 3d 7f 39 5d 3d db 6c 0f bd
       -0.0010599328 0.04057379 0.05400991 -0.035015922
000390 10 72 61 bd 10 60 1f bd d2 e1 e7 3c 65 e4 1c 3d
       -0.05504042 -0.03890997 0.028305922 0.03830375
0003a0 15 5e 60 3d e3 a3 88 bc 5d 27 69 3a bf 99 8b bc
       0.054777224 -0.01667971 0.000889411 -0.017041085
0003b0 b1 38 06 bd a9 b9 14 bc 4a bd 88 bd 30 3d 4c 3c
       -0.03276891 -0.009077468 -0.06676729 0.01246576
0003c0 5f f3 04 bc f0 cc 97 3b e5 c4 ed 3c 62 c6 f9 bb
       -0.008114665 0.0046325848 0.02902455 -0.007622526
0003d0 d7 a5 d8 bc 74 0b 0c bc ea 7f 53 bc 55 41 7e 3d
       -0.026446266 -0.0085476525 -0.012908915 0.062074024
0003e0 92 3b ce 3c 1b de bc 3c 6d 89 f4 bc 9f 65 22 bd
       0.02517489 0.023055127 -0.029850686 -0.039647695
0003f0 9c 99 b8 3b 9b 71 83 bc ca 46 de 3c 28 2a d4 3c
       0.005633546 -0.016045382 0.027133364 0.025899008

fc2.bias f4 [10]
000000 4b 38 b1 bd 65 9d 31 3c 12 36 76 3d 85 3d 8c bc
       -0.08653315 0.010840748 0.06011016 -0.017119179
000010 25 4f 5e 3d 73 ff 82 bc 88 dd b7 3b 1d fe 92 bc
       0.054274697 -0.015990948 0.0056111254 -0.017943436
000020 6f 1d 39 bc 2b 65 95 bd
       -0.011298521 -0.07294687
