torch_to_tf/torch_models/model_round79.model (torch, 493063 bytes, 10 tensors)

conv1.weight f4 [32, 3, 3, 3]
000000 17 21 1a bd 44 52 1c bd 5f e5 b4 bd a3 85 8e bd
       -0.037629213 -0.038164392 -0.088328116 -0.06959083
000010 ab ef b0 bc db 2a 0b bd c4 e4 94 3d 05 a7 72 3d
       -0.021598658 -0.033976417 0.07270196 0.059241313
000020 09 97 99 3c 4f 32 11 3d a5 a7 52 bd 00 36 96 bd
       0.018748777 0.03544837 -0.05142941 -0.073345184
000030 aa aa f4 3c c1 54 26 3c 45 ce 36 3d 57 18 8f bc
       0.029866535 0.010152043 0.044630308 -0.01746766
000040 23 13 df bd 3b 1e 04 3b 3a 24 ee 3c 4a 71 79 3d
       -0.10892322 0.002015962 0.029070009 0.060899056
000050 80 5c ad 3d ca bd 24 bd 8f 6f c0 3c 67 90 a3 3c
       0.084649086 -0.04022006 0.023490695 0.019966317
000060 8d f1 f0 3d 5b 36 22 3d dd 9a d6 3c 78 d7 2b bd
       0.11764822 0.03960262 0.026196891 -0.041953534
000070 da 40 ef bc a5 bf 80 3d 1d cf 4f 3d 18 14 11 bd
       -0.029205728 0.06286553 0.050734628 -0.035419554
000080 83 38 f7 3c 15 1c 8e 3b 44 1c 29 3d b7 63 dc 3c
       0.030178314 0.0043368437 0.04128672 0.026903016
000090 98 9c 9f bc 2f 72 db 3b 1b a6 75 3d 87 33 df bc
       -0.01948385 0.0066969614 0.059972864 -0.02724625
0000a0 81 8a 0a 3c d4 a1 b9 3c 2b 4d 04 3c 9d 9b 5a 3d
       0.0084558735 0.022660173 0.008075039 0.05337106
0000b0 93 b8 d2 bb 55 ad f9 bc 31 35 1b 3d 70 07 30 bd
       -0.0064306944 -0.030478159 0.037892524 -0.042975843
0000c0 96 b2 cc bd 1e fb 98 3c 30 0f 51 bc 52 35 95 bd
       -0.09995 0.01867443 -0.012759969 -0.07285561
0000d0 d3 3e 7a 3c e0 ac f1 3d 95 27 7d bd 2b 5d c9 bc
       0.0152737675 0.118005514 -0.061805326 -0.024580559
0000e0 a9 ef a4 3d 2e 57 c7 3d 3a 6b 20 bd 1e 83 3f bd
       0.08053524 0.09733425 -0.03916476 -0.046755902
0000f0 27 23 ec bc c8 fd d4 3d 55 15 28 bd 5b 59 95 3c
       -0.028825356 0.103999674 -0.04103597 0.018231085
000100 44 18 af 3c a6 f4 14 3c d8 f3 12 bb 68 8a 72 bb
       0.021373875 0.009091532 -0.0022423174 -0.0037008766
000110 13 2b 38 3d 53 7a 83 3c 78 73 f5 3c 6c 49 1d 3d
       0.044962954 0.01604954 0.029962286 0.0384001
000120 c3 1a c9 3c 12 01 76 bd 8f 62 5b 3c 23 fa da 3d
       0.024548894 -0.060059614 0.013390197 0.10692241
000130 41 28 45 bb 78 bf 60 bc 1f 0b e1 bc a2 3c b0 3d
       -0.0030083808 -0.013717525 -0.027471123 0.08605315
000140 03 7d 83 3d 92 f0 10 3e 70 9b d4 3c ab 48 b3 bd
       0.064203285 0.1415427 0.025953025 -0.08754095
000150 47 10 eb 3b 63 a1 99 3c 9f 83 a9 bc 67 af 94 3d
       0.0071735713 0.018753713 -0.020692645 0.07260018
000160 f3 73 01 3c 8e 83 87 bd bd 3e fe ba 17 a9 6d bd
       0.00790118 -0.06616889 -0.001939736 -0.058022585
000170 2c 87 b5 3d b1 e2 17 3d cb 78 cc bd 6d 2e 3c bd
       0.088636726 0.037081424 -0.09983977 -0.045942713
000180 61 8d 82 3c 76 af 84 bd da b0 8a 3d fa 52 b1 3c
       0.015936555 -0.06478779 0.06772013 0.021646012
000190 0f 9d 37 bd 2d fe 62 bc d6 94 11 3d d7 6f 90 3c
       -0.044827517 -0.013854546 0.03554233 0.017631454
0001a0 22 a0 6f 3a 15 85 58 3d 73 32 ea bc 5f 96 ad bd
       0.0009140988 0.052861292 -0.02858851 -0.08475947
0001b0 a3 11 c7 bb fb f1 50 3c 8b 46 72 3a c8 1c a4 3d
       -0.0060751005 0.012753005 0.0009242079 0.08013302
0001c0 e8 72 dd bc ef 8f 8a 3d 6b 0b 8a bd fa ea 35 bd
       -0.02703233 0.067657344 -0.06740459 -0.044413544
0001d0 dd 4c 68 3d 63 9f fd bd d8 db 66 3a 2a 02 33 bd
       0.056713928 -0.12383916 0.0008806563 -0.043703236
0001e0 23 f6 f3 bc 32 56 e7 bb 8d 31 96 bd 4b d6 b7 3c
       -0.029780453 -0.007059836 -0.0733367 0.02244105
0001f0 aa b3 9a 3d 03 02 25 3d 9f 40 7b 3d 7b 24 a6 bc
       0.075537995 0.04028512 0.061340924 -0.020281067
000200 f5 bc ee bc a8 95 38 bd 57 b6 42 bd 85 02 d4 3b
       -0.029142836 -0.0450646 -0.047537174 0.006470027
000210 c5 7e 39 3d db e7 8e 3d 97 a9 84 bc d0 41 05 3d
       0.045286912 0.06977817 -0.016194148 0.032533467
000220 b2 a6 a0 bc 0b 98 99 3d 47 cb 0b 3d ea 21 71 3c
       -0.019610737 0.07499703 0.034129407 0.014717558
000230 fb 66 93 3d 6f b9 c0 bc 62 35 90 bd b7 92 27 3d
       0.07197376 -0.023525922 -0.07041432 0.040911403
000240 a5 70 82 bc d8 38 bf bd e8 0a b9 3d 3f 1e 6d 3c
       -0.015922854 -0.09337014 0.09035283 0.014472543
000250 f8 13 8f 3c 88 6f e6 bc f8 c5 5b bd d0 14 ff bd
       0.017465577 -0.028129354 -0.053655595 -0.124551415
000260 ea f5 fb 3c 83 31 8e 3c a8 95 d2 bd 0b 37 86 3d
       0.03075691 0.017357593 -0.10282451 0.06553467
000270 c0 17 cb bc d5 f4 81 3d 63 f3 7c 3c 27 1c ef bc
       -0.024791598 0.06345526 0.015438887 -0.029188229
000280 ea 94 19 3c 60 df 18 bd 37 8c 3f bd 53 b6 53 bd
       0.009373883 -0.037322402 -0.04676458 -0.05168755
000290 83 ea 5c bd 6f db e3 3c 0a 10 0a 3d e5 c6 36 bd
       -0.053934585 0.027814595 0.033706702 -0.044623274
0002a0 3a 5e d7 bc 9f 71 8d 3c fd ea 19 3c 5b f5 44 bd
       -0.026290048 0.017266093 0.0093944045 -0.04808555
0002b0 e4 0b 99 3d df 5d ef 3c 87 8e 85 3d a2 d1 8f bd
       0.07472971 0.029219566 0.065213256 -0.07022406
0002c0 2f e6 70 3d d8 bc ad bc 90 5b 1f 3d af 82 4f 3d
       0.05881327 -0.021208212 0.03890568 0.05066174
0002d0 4a b7 17 3d e7 5b 92 bc a4 df 1a 3d b3 5b 73 3d
       0.037040032 -0.017866088 0.037810937 0.059413623
0002e0 5b ba c3 bc fd ef cd 3d a3 e8 48 3d 7b a3 1b bd
       -0.023892572 0.1005554 0.049049985 -0.037997704
0002f0 0d 52 d5 bb a2 69 15 bd 85 8b ef bc 47 6b 4e 3d
       -0.0065100254 -0.036477692 -0.029241333 0.050395276
000300 0c 2b a6 bd 65 e1 53 3b ab 75 c6 bc 37 90 14 3d
       -0.08113679 0.003233039 -0.02422603 0.036270346
000310 f5 4b 15 bc f0 50 a0 3b ca 77 23 bc 67 38 2a 3c
       -0.009112348 0.004892461 -0.00997729 0.010389424
000320 d3 ea 0d bc 37 03 a5 3d b8 1a d5 bc db cf 6c 3d
       -0.0086619435 0.08057254 -0.026013717 0.057815414
000330 5f 6a 94 bc 0d e4 c0 3c 41 b7 00 be 2d 5b 73 3c
       -0.018117128 0.023546243 -0.12569906 0.014853281
000340 db d0 95 3c 17 99 c4 3c e0 0c 07 3c c6 fb 0c bc
       0.018288067 0.02399878 0.008242816 -0.008604949
000350 73 b1 ac bd c8 67 8d 3d 0a 34 5b bb 12 0b fa bc
       -0.08432283 0.0690456 -0.0033447766 -0.030522857
000360 98 cf 58 3d bf 0d b1 3d 3e 08 29 bb 53 b7 34 3d
       0.05293235 0.086452 -0.0025792266 0.044120144
000370 37 c1 ab 3c 9b e9 a7 bc f7 aa 47 3d 5f 1e 71 bc
       0.020966155 -0.020497134 0.04874703 -0.014716714
000380 93 65 27 3d 07 d0 54 3d 77 f2 e6 3d 1f 00 95 3d
       0.040868353 0.051956203 0.11276715 0.07275414
000390 92 2a d4 bd f3 51 41 bd 4a cf 28 bd b7 db 80 bd
       -0.10359682 -0.047197293 -0.04121331 -0.06291907
0003a0 5f a4 32 ba aa 38 4b 3d e3 59 04 3d d0 2e c3 3d
       -0.00068146543 0.049614586 0.032312285 0.09530413
0003b0 10 39 16 bd cf 37 a1 3d b3 71 bd bc 92 ab a3 b8
       -0.036675513 0.07871973 -0.023125505 -7.804403e-05
0003c0 c8 ed 76 3d 53 af d7 bd af 33 95 bd 98 52 b5 bd
       0.06028536 -0.10531487 -0.072852485 -0.08853644
0003d0 e0 54 14 bd 73 8e 53 3d 0e 67 46 3d 6f 49 35 bd
       -0.036213756 0.051649522 0.048438124 -0.044259485
0003e0 44 a6 4a bd af 6b 27 bd 34 c1 1f 3d f0 fb 37 bd
       -0.04947497 -0.04087418 0.039002612 -0.044918
0003f0 d5 f3 84 3d 27 20 57 bc fa 0d 66 3c 82 e2 68 3d
       0.0649182 -0.013130224 0.014041418 0.05685664

conv1.bias f4 [32]
000000 f8 b5 82 bb 17 25 ee bc b0 9e d3 3c 99 b3 31 bd
       -0.0039889775 -0.02907042 0.025832504 -0.04338417
000010 d8 96 44 bd 5a fa d1 3c c6 8f 83 3d 57 c1 87 bc
       -0.04799542 0.025632072 0.06423907 -0.016571684
000020 f1 50 92 bd 5f 04 31 bd f8 cd 1a 3d eb 19 36 bd
       -0.071443446 -0.04321706 0.037794083 -0.04445831
000030 40 c1 a2 bc 9b 84 3e bd ce 2d 1b bd bd c6 be bb
       -0.01986754 -0.04651318 -0.03788548 -0.0058220313
000040 df c9 f5 bc 83 7f 3d 3d cb d9 27 3d 07 d0 84 3a
       -0.030003486 0.046264183 0.040979188 0.0010132798
000050 1f bd 53 3d 9b 91 cd 3d 16 1b a6 3b 73 09 45 bc
       0.05169403 0.10037538 0.005069147 -0.012026179
000060 01 09 21 3d db 0a e1 bd 83 10 a1 3d db f0 70 3d
       0.039315227 -0.10988399 0.078644775 0.058823448
000070 6f 30 83 3d 27 c5 f0 bc 7b e9 85 bb a6 2a c6 3c
       0.06405722 -0.029390885 -0.004086671 0.024190258

conv2.weight f4 [64, 32, 3, 3]
000000 f7 52 23 3c da 80 de bc 63 97 6c 3c 0d 7d 0a bc
       0.009968511 -0.02716105 0.01444039 -0.008452666
000010 73 d5 a9 bc 53 75 06 bc d6 08 8a bb ef 98 96 3b
       -0.020731663 -0.008206683 -0.004212479 0.004595868
000020 c8 31 78 3a cf 5a ce 3c da ca b3 3b 0e 06 25 bb
       0.0009467867 0.025189785 0.0054868283 -0.002518061
000030 68 c8 04 bd 0e 19 83 bc 87 f9 a2 bc 9f 3b 28 bb
       -0.032417685 -0.016003158 -0.019894375 -0.0025670303
000040 51 7d 84 3b 97 e2 b1 3a b7 d9 4f bc f4 dd 89 bc
       0.004043259 0.0013571557 -0.012686185 -0.016829468
000050 98 26 92 bc 6d 88 ec 3b 4d 4c e0 3a 52 1d b2 39
       -0.017840669 0.0072184117 0.0017112583 0.0003397265
000060 fd f5 d2 bc b3 5b e3 bc e3 76 57 3c ff 3c 75 bc
       -0.025752062 -0.027753687 0.013150903 -0.014968156
000070 55 95 60 bc e3 80 88 bc fa 82 81 bc ef d0 b6 3c
       -0.0137074785 -0.01666302 -0.015809525 0.022316424
000080 6f ed ab bc 2a 5f fe 36 0c d7 97 bc a2 b7 cd 39
       -0.02098724 7.5808684e-06 -0.01853516 0.00039237464
000090 85 f8 03 3d bb 23 c8 3b 82 a7 7d bc f4 94 b3 3b
       0.03221943 0.006107775 -0.0154818315 0.005480403
0000a0 61 b4 84 3c 5b 06 41 bc 6b f7 1a ba fc bf 96 ba
       0.016199293 -0.0117813 -0.0005911502 -0.0011501308
0000b0 cb 8e 34 bc 5a 4e 4c 3c 2f ed 4f bc fd e3 a5 3c
       -0.011020373 0.012469852 -0.012690826 0.020250315
0000c0 8a 37 fb bc be 35 84 3c 9d fa 80 bc b2 9f 53 3c
       -0.030666132 0.016138908 -0.015744502 0.012916492
0000d0 95 c9 0f bd ae 29 bf bc 07 bf 15 bd 65 ae de bc
       -0.035104353 -0.023335304 -0.03655913 -0.027182767
0000e0 79 f8 a7 3b b3 bd b8 bb 73 f5 28 bb 57 f3 aa bc
       0.005126056 -0.0056378483 -0.0025781065 -0.020867987
0000f0 85 11 c8 3c c0 fb fe bb 5b de 82 3b 0b aa 96 bc
       0.024422416 -0.007781476 0.003993792 -0.01839163
000100 2b f6 57 bb d3 31 9a bc f5 24 bc ba da 2d 09 bd
       -0.0032953124 -0.018822586 -0.0014354276 -0.033490993
000110 28 f7 e1 bc 9f 6d 62 bc db fb 80 3b 98 d4 8c bc
       -0.027583674 -0.013820081 0.0039362735 -0.017191216
000120 b0 90 c5 3b d8 9e 2a 3c 00 44 71 bb 5b 08 21 3c
       0.006029211 0.010413848 -0.0036814213 0.009828652
000130 5d 39 2b bc f3 46 80 bc 7c ea 00 bc 0b 44 35 3c
       -0.010450688 -0.015658831 -0.007868405 0.011063586
000140 ed 12 b8 bc b7 cc 52 bc 62 b8 b3 3b 0b ab d9 bc
       -0.022469962 -0.012866191 0.0054846266 -0.026570817
000150 74 2e 89 3c 4d 4e ce bc 90 a0 8c 3a e5 8c 9c 3c
       0.016745783 -0.025183821 0.0010729004 0.019110152
000160 67 3f e2 bc 86 34 1c bd 15 9c 1d bd 18 14 55 bc
       -0.027618123 -0.038136028 -0.03847893 -0.013005279
000170 a5 f3 f6 3b ca dc 69 3c c4 23 2b bc 93 3c b9 3b
       0.007536369 0.014273832 -0.010445539 0.005652973
000180 53 89 0e bb 60 80 c2 3a fe 79 b2 bc 7a c7 d7 bc
       -0.0021749332 0.0014839284 -0.021786686 -0.026340235
000190 a2 ad b6 3c 6c a2 05 bc fa fe 6c bc b5 c4 f8 bc
       0.022299591 -0.0081564 -0.014465088 -0.030367235
0001a0 6f b3 68 3c 1d 51 03 bd a5 9a c8 bc d7 16 73 3c
       0.014202937 -0.032059778 -0.024487803 0.014836988
0001b0 c2 fc cf bc 9d 6f 36 3b 6d 8a 28 bb b5 92 f5 ba
       -0.025389079 0.0027837523 -0.0025717274 -0.0018735739
0001c0 a1 7f 90 bc c3 6c 15 bc 3a f9 69 ba a7 b6 8b bc
       -0.017638983 -0.009120169 -0.0008925382 -0.017054869
0001d0 38 ea 16 3a c5 70 06 bd 35 48 29 bc b7 ba db bc
       0.0005756947 -0.03282239 -0.010332157 -0.026822431
0001e0 ba b6 65 bc 53 96 92 bc ff 91 db ba 44 ec 0a 3c
       -0.014020616 -0.017893946 -0.0016751884 0.008479182
0001f0 93 b2 b1 3b 25 2f 57 bc 5a d1 b9 bc 7b ca 16 3b
       0.005422899 -0.013133799 -0.022682834 0.0023008871
000200 d0 1a 99 bb 69 7f 8b bc 1f 20 d2 bc 43 8d 87 bc
       -0.0046723858 -0.017028527 -0.025650082 -0.016546851
000210 e7 5d 49 bc c8 17 01 bd de 6f 0c 3c 17 08 0b 39
       -0.0122904545 -0.03151682 0.008571593 0.00013259087
000220 47 73 5f 3c d3 87 b6 bc 95 58 8b bc d2 c6 3e bc
       0.013638324 -0.022281563 -0.017010013 -0.011644082
000230 3b 03 80 bc db f7 11 bc ec a6 b4 bc 5d f7 f6 bb
       -0.01562654 -0.008909191 -0.02205225 -0.007536812
000240 df d9 bc bc bd 9d 56 bc c5 dd e8 bc 2d b8 75 bc
       -0.023053108 -0.013099131 -0.02842606 -0.014997524
000250 12 cb 9a 3c 43 4c b6 ba 2b c1 32 bc 75 a1 f1 bb
       0.01889566 -0.0013908226 -0.010910313 -0.0073739835
000260 f6 8b a2 bc 0a 9f 23 bc 67 26 37 bc 0d 9d 63 bc
       -0.01984213 -0.009986648 -0.011178589 -0.013892424
000270 55 50 f5 3b bd 65 20 3c 4d 7e e2 bb 6a 7d 03 3c
       0.007486383 0.009789881 -0.006912029 0.0080255065
000280 9f 6b e0 bb 8b 1a 39 bc 27 09 e1 bb bd e5 78 3c
       -0.006848767 -0.011297832 -0.006867546 0.015191493
000290 b6 e4 8e 3c b0 2f ed bc 8c 3a 18 3b a5 bb 27 bb
       0.017443042 -0.028953403 0.0023228256 -0.0025594023
0002a0 3f 94 d8 bc 10 1c 0f 3c c3 a4 b4 bc 83 34 97 bb
       -0.026437877 0.008734718 -0.02205122 -0.004614414
0002b0 2a a2 a0 bb f3 4b c6 bc 1f f3 6a bb a8 c9 8c bc
       -0.004902144 -0.024206137 -0.0035850478 -0.017186001
0002c0 cd 9e e4 bc 93 d6 6c 3a 06 08 09 bb 6b 78 0c 3d
       -0.027907753 0.00090346596 -0.0020909323 0.034294527
0002d0 ad 30 1f bb fc eb 11 bc bb e9 bb bc 63 c3 7e bb
       -0.0024290488 -0.008906361 -0.0229386 -0.0038873784
0002e0 23 5c 60 bc d3 7d 58 bb c5 f1 74 bc c0 70 c5 3c
       -0.013693842 -0.0033033981 -0.0149502205 0.024101615
0002f0 18 ba 19 bc a7 48 aa bc 68 70 b1 bb ed 8c 64 bb
       -0.009382747 -0.020786596 -0.005415011 -0.0034874037
000300 54 25 9a bc 13 b9 49 bb da 8a 98 3c 3a 20 c2 bb
       -0.018816628 -0.003078048 0.018620897 -0.005924252
000310 0a 33 97 3c 27 70 91 bb 3b 71 81 3a 7d 57 7f 3c
       0.018456955 -0.0044384184 0.0009875664 0.015584824
000320 2a ef 59 bc b2 6f 08 bb 63 fa ef 3c 30 b1 6b 3c
       -0.01330165 -0.0020818529 0.029294198 0.0143855065
000330 97 c5 93 3b 3b 9d 44 3c af 00 ff bc 26 2d 98 bc
       0.0045096385 0.012000377 -0.031128256 -0.018576216
000340 6d 7d ed b9 6e fa 2f bc f2 3e d1 bc 72 95 00 bc
       -0.00045297612 -0.010740859 -0.02554271 -0.007848131
000350 1b 4a 02 ba 59 7a 16 bc 70 b0 f1 3c 98 3d 99 3c
       -0.0004970149 -0.009184443 0.029503077 0.018706128
000360 5a 45 da bc a5 e4 0a bd 9a b3 09 bd b3 32 5b 3c
       -0.026644398 -0.03390946 -0.033618547 0.013378787
000370 9f 21 8c 3c fb 12 ac bc 7d 7a 0d 3c f5 51 ab 3b
       0.017105876 -0.021005144 0.0086351605 0.005228276
000380 a2 29 7e 3a 43 4d 5b 3c 08 06 86 ba 7b f2 b3 ba
       0.0009695535 0.01338512 -0.0010225186 -0.0013728881
000390 87 68 2d bc a9 6a 8c b9 03 fa b1 bc 97 39 2c bc
       -0.010584003 -0.0002678235 -0.02172566 -0.010511777
0003a0 02 31 cd bb 4a ee b8 bc a0 13 06 3c 26 57 c2 bb
       -0.0062619457 -0.022574563 0.00818339 -0.005930799
0003b0 49 1a 13 bd f8 23 b3 ba 1b 0e 11 bc e4 1c 26 bc
       -0.03591374 -0.0013667336 -0.008853461 -0.010138724
0003c0 9f 5d b9 bc 8b 43 de bc a7 70 c0 3b 20 5c de bb
       -0.02262765 -0.027131816 0.005872804 -0.0067858845
0003d0 5b d2 a4 3c 02 15 11 3d 40 fa 5a bb 73 4e b5 bc
       0.020119837 0.035420425 -0.003341332 -0.022132134
0003e0 a9 8a 46 bc fd 01 8d bb c3 49 98 3b 13 1a ef bc
       -0.01211802 -0.0043032155 0.004647465 -0.029187238
0003f0 fd 75 a1 3b 27 72 a3 bc cd 22 92 3b e0 ec 15 bd
       0.0049273954 -0.019951893 0.004459715 -0.036602855

conv2.bias f4 [64]
000000 69 73 97 3c b5 d8 fa bb f6 ae 98 bb 88 10 a0 bb
       0.018487649 -0.007655228 -0.004659529 -0.004884783
000010 77 e9 fa 3a e0 7b d5 bb 5a 84 1d ba 40 93 33 3c
       0.0019143064 -0.006515011 -0.00060087966 0.0109604
000020 d8 b5 dc bc 48 52 0f 3c 12 21 02 3c 2a ba 41 3c
       -0.026942179 0.008747645 0.007942455 0.01182417
000030 8f 49 b4 bb 55 ef ca 3b f3 a6 0f bc 47 6d ae 3b
       -0.005501933 0.0061930814 -0.008767831 0.0053230855
000040 03 1d 18 3c 40 ff 31 3d 30 93 fc b8 2d 19 ec bc
       0.009284261 0.043456316 -0.00012043712 -0.028820598
000050 58 40 8f bc 53 63 8c bc ab 2b 21 bc ab aa ab bc
       -0.017486736 -0.017137205 -0.009837071 -0.020955404
000060 2b 0b 94 3a 9f c6 92 3c 51 03 81 bc 39 f7 21 3c
       0.0011294832 0.017916976 -0.015748652 0.009885603
000070 67 db fd 3c 67 47 44 3b 4f 0b a3 bc c3 a6 a2 ba
       0.030988408 0.0029949786 -0.019902853 -0.0012409318
000080 3b 2c 1d bb db 45 df bb 5d 84 da bc b3 9b 4c 3b
       -0.0023982662 -0.0068137473 -0.026674444 0.0031220734
000090 25 83 94 bc f7 43 aa bc 5c d6 c0 bb a0 d4 98 3c
       -0.01812894 -0.020784361 -0.0058849286 0.018656075
0000a0 d2 65 10 3d ef 71 92 bc 2d ef fc 3a 6f b3 87 bc
       0.035253353 -0.017876593 0.0019297354 -0.016565053
0000b0 47 32 21 ba f9 d0 94 bc d9 7b 3a bb d1 66 83 3c
       -0.00061491545 -0.018166052 -0.0028455167 0.016040238
0000c0 68 f1 af 3c df cd fa 3b 40 6c 31 bd 2d 8c fc 3b
       0.021477416 0.0076539363 -0.043316126 0.00770714
0000d0 1d f5 3d bc 77 4d b4 bc a7 d8 f9 3c 1a 2b 98 bb
       -0.011594084 -0.022009594 0.030498816 -0.00464381
0000e0 aa c2 8c bc 86 98 b7 3c 0d d6 d0 bc 27 86 39 bd
       -0.017182667 0.022411596 -0.025492692 -0.045293953
0000f0 01 99 ae 3c 5d 27 ee 3b 32 77 54 bc 93 b5 69 3c
       0.021313192 0.007267876 -0.0129678715 0.014264482

conv3.weight f4 [64, 64, 3, 3]
000000 58 78 d8 3b f3 6d c7 3b 2b 47 2f 3c 80 39 8b bc
       0.006606143 0.006086105 0.01069812 -0.016995192
000010 ae 88 c7 bc b2 19 3f 3b 8a 94 b7 bb 47 53 ab bc
       -0.024357166 0.0029159603 -0.005602424 -0.020913733
000020 0c 93 c2 bb 9d 2a 83 bb b2 d2 c0 3a 27 8a 74 bc
       -0.0059379395 -0.0040028826 0.001471123 -0.014925516
000030 5a c1 d1 3b 20 57 75 3c c5 7f d4 bb 8e 28 1e bc
       0.006401223 0.0149743855 -0.006484958 -0.009653224
000040 0e 41 1a 3b 0b 19 08 3c 9a 5b 18 3b 7a 74 5b 3c
       0.002353731 0.008306752 0.0023247958 0.013394469
000050 fe 88 3c 3b 77 32 dd 3b 37 2f 6f bc 1a 3d 59 bc
       0.0028768177 0.0067504006 -0.014598659 -0.013259197
000060 52 f3 60 bc df 7c eb 3b e0 91 55 bc df 3c 4c 3a
       -0.013729887 0.0071865167 -0.013035268 0.0007791053
000070 8e 56 9b 3c ab f1 8b 3b d3 ae af bc bd 0c 11 3c
       0.01896217 0.0042707524 -0.021445667 0.008853135
000080 25 24 1c 3c 03 e0 b4 bc 4a c8 c1 bc 9a eb d8 bb
       0.009530102 -0.022079473 -0.023655076 -0.006619883
000090 9d 32 85 bc b3 59 06 bc 8a e3 39 3c ba c9 3c 3c
       -0.016259486 -0.008200097 0.011345753 0.011522705
0000a0 c0 a8 d2 3b 8d b8 0f 3b 9d 32 79 bb 98 e7 ad bc
       0.006428808 0.002193007 -0.0038024553 -0.021228597
0000b0 07 fb 8f bc 75 6b 05 3c 22 c3 05 bb 0d 8f 92 bc
       -0.017575754 0.0081432955 -0.0020410498 -0.017890478
0000c0 df c1 10 3c 8d 4c bb bb 20 45 82 bc a7 3a 3e 3c
       0.008835285 -0.0057159127 -0.015902102 0.0116106635
0000d0 d0 7d d1 3b 6a cb e0 bc 43 10 be 3a 81 eb 37 bc
       0.006393172 -0.027440745 0.0014500696 -0.011225582
0000e0 07 28 02 bc 1f bc ab bc f5 a0 63 bc ef 3c 69 bb
       -0.007944114 -0.020963727 -0.013893356 -0.0035589298
0000f0 7f 94 e3 3b 88 df 22 3c d3 c8 c8 3b 7d 89 5e bc
       0.0069451923 0.009940989 0.0061274557 -0.013582584
000100 aa 53 16 bc f8 78 6a bb a7 34 15 39 4b 30 f0 ba
       -0.0091752205 -0.003577767 0.00014229362 -0.0018324939
000110 7e cf 25 3b c2 03 94 bc 39 bb a8 bb 13 99 cd bc
       0.0025300677 -0.018068198 -0.005149272 -0.025097406
000120 36 66 1a bb 8b a0 f5 bb 93 7b 05 bc 65 82 35 bc
       -0.0023559458 -0.007495945 -0.008147138 -0.011078452
000130 40 fd 97 bc d7 92 0c bb 10 ab e4 3b 6f 0c 65 bb
       -0.018553376 -0.0021449828 0.0069784 -0.0034950038
000140 17 48 0a 3c da c8 c4 bb 90 6d 67 bb 8f 86 a6 bb
       0.008440039 -0.0060053887 -0.0035313107 -0.0050819586
000150 bb 79 bb bc 12 0a d2 bc 73 cd 0d 3c 2a 66 89 3c
       -0.022885194 -0.025639568 0.00865494 0.016772348
000160 63 26 55 bc 7f 87 02 bb 63 15 26 bc 43 07 9a bb
       -0.01300964 -0.0019917188 -0.010136935 -0.0047005727
000170 37 62 8e bc 9e 10 a5 bb ed 08 f2 3b 5e 3f 3c bc
       -0.017380817 -0.0050373813 0.007386318 -0.011489717
000180 f0 e3 b9 bb 00 84 0f 3c e4 48 00 3c 80 c5 ec bb
       -0.005672924 0.008759499 0.0078298785 -0.0072256923
000190 ad 6d cf b9 bf b4 93 bb f3 33 08 3c 62 d3 a1 bb
       -0.00039563832 -0.0045076306 0.008313167 -0.004938529
0001a0 20 fb 20 bb 75 cc d8 bb a8 0a 2b bb f8 bd ef bb
       -0.0024563745 -0.00661617 -0.002609888 -0.007316347
0001b0 28 5d 55 3c 48 5a e2 bb 8d d5 f6 bc 33 dc 81 bc
       0.013022698 -0.006907735 -0.030131126 -0.01585207
0001c0 d3 77 55 3c 75 97 c3 bb 0f 4f 07 3b dc f2 20 bc
       0.013029057 -0.005968983 0.0020646488 -0.009823527
0001d0 de f9 19 bc 74 2b 84 3b 08 70 43 3c fe 4c 09 3c
       -0.009397952 0.0040335003 0.011928566 0.008380173
0001e0 93 9c 69 3a 93 25 84 bc 1f 11 ba bb 93 b8 c3 bb
       0.0008911576 -0.016131198 -0.0056783105 -0.0059729307
0001f0 32 9d ce ba 75 2f 85 bb 7a 69 05 bc aa 6d 82 bc
       -0.0015763401 -0.004064495 -0.008142823 -0.015921433
000200 7c 06 39 3c 1e bf 02 bc f6 ce 4b bb ed 26 6f 3a
       0.01129305 -0.007980136 -0.00310987 0.0009122927
000210 b7 6d 00 bb 17 40 15 bc 6f bb 9e bc 98 87 3a 3c
       -0.0019596645 -0.0091095185 -0.019376485 0.011384867
000220 73 54 1b 3b b2 2b e3 3b d7 1c 5c bc c7 78 9f bc
       0.0023701459 0.006932699 -0.01343461 -0.01946677
000230 2c 83 23 bc fb 59 28 bc 63 4a bf bb 03 43 32 bc
       -0.009980004 -0.010275359 -0.005837725 -0.010880235
000240 c2 db 87 bb 55 ea d7 bb 62 09 16 bc 20 17 65 3c
       -0.00414607 -0.006589214 -0.0091575105 0.013982564
000250 a5 49 9c 3b 4b e5 99 bc 77 0d 98 b9 da 5c 95 bc
       0.0047695213 -0.018786093 -0.0002900173 -0.018232752
000260 10 fd 09 bb 03 d7 9a 3b 47 aa 6c bb 2d ee e1 bb
       -0.0021055378 0.0047253384 -0.0036112235 -0.006894848
000270 00 8a f3 3b 5a c1 03 bb fb 0e 98 3b af dd 5e bc
       0.0074322224 -0.002010426 0.0046404577 -0.013602658
000280 7f 33 7c bb 5b 0c 58 bc 57 0a 5b 3c f2 d7 99 3c
       -0.0038482843 -0.0131865395 0.013369164 0.018779729
000290 8b 9a 22 3b c7 f0 df b8 3b 0c b5 3a ff 0f 28 bc
       0.0024811353 -0.00010678317 0.0013812849 -0.01025772
0002a0 2f c5 b6 bb 36 fc bd 3b 3f 6d cf 38 45 91 8f bb
       -0.0055777053 0.005797888 9.890878e-05 -0.004381331
0002b0 5d 59 00 bc eb 97 46 ba 25 d8 c2 3b a5 96 f9 bc
       -0.007833806 -0.0007575738 0.0059461766 -0.03046734
0002c0 c3 59 28 3c c1 9e 9e bc 31 92 82 3b 5d d7 9a bc
       0.010275307 -0.01936281 0.0039847125 -0.018901521
0002d0 c7 a2 0a bb d7 ea af ba ea f3 4c ba 5f 9b ca ba
       -0.0021154152 -0.0013421428 -0.00078183284 -0.0015457681
0002e0 21 b8 b7 bc b0 44 01 bc 53 c5 93 bb 83 0e fc ba
       -0.022426667 -0.0078899115 -0.004509607 -0.0019230399
0002f0 7f 7e 92 bb 91 23 81 bc d2 50 08 3c 89 45 0f 3b
       -0.004470646 -0.01576403 0.00832005 0.0021861515
000300 cb ab 4c 3c 5a 81 60 bb f0 73 1a 3b 75 2f 5d 3b
       0.0124921305 -0.0034256787 0.002356764 0.003375021
000310 d2 7b 11 b9 20 7e 0f 3c ab c0 b1 bc ba 54 a7 3a
       -0.00013874404 0.008758098 -0.021698317 0.0012766339
000320 78 77 25 3c 52 6a 78 ba 32 f9 1b bc 53 90 ae 3b
       0.010099284 -0.0009476292 -0.009519862 0.0053272634
000330 22 85 b5 bc 0b 0f a1 bb c5 0f e1 3b dd 58 6d bc
       -0.02215821 -0.0049151233 0.006868335 -0.014486519
000340 6b f7 59 3c ff cc 54 bc 2d 2c d9 bc c8 1e e6 ba
       0.013303618 -0.012988328 -0.026510322 -0.0017556781
000350 6a c5 7b 3b 0f c4 59 bc f1 d0 bf bb c7 eb 84 bb
       0.0038417228 -0.013291373 -0.005853765 -0.004056427
000360 5b 74 04 bc d7 1c cf bb 17 e8 d3 bc 02 3e d3 ba
       -0.008084382 -0.0063205766 -0.025867505 -0.0016116502
000370 8a 18 03 bc 8b f9 95 3a 3f 2f 8f bc d3 59 6d 3b
       -0.008001456 0.0011442167 -0.017478583 0.003621687
000380 bc 7b 90 bc 0d 06 63 bc 81 13 3f bc 77 aa 42 bc
       -0.017637126 -0.013856423 -0.011662365 -0.011881462
000390 eb 52 a4 bc cf 7b 83 bc 75 cd 68 39 99 9d a0 3b
       -0.02005907 -0.016050247 0.00022201783 0.0049015996
0003a0 a2 ab 62 3b 33 6e a2 3c e1 c9 b5 3b 90 61 cf 3c
       0.0034587164 0.019827938 0.0055477475 0.025315076
0003b0 a2 da 06 3c 17 60 75 3a 7e 28 b7 bc 4b 74 19 bc
       0.008230837 0.0009360327 -0.022358175 -0.009366105
0003c0 d7 bc ff ba fb 40 b6 bc 56 06 3f bc 07 73 6a 3c
       -0.0019511235 -0.022247782 -0.011659225 0.014309651
0003d0 62 f5 15 bc ca 05 14 3b 9a fb 72 bc 46 af 1d bc
       -0.009152742 0.0022586458 -0.014830494 -0.009624308
0003e0 0a 20 04 bc b5 07 35 bc 99 ba 97 bb b0 59 30 3c
       -0.008064279 -0.011049201 -0.0046303985 0.010763571
0003f0 05 3d dd bb f5 b5 f5 3b 2a ef cf bc 6c 7f 85 bc
       -0.006751659 0.0074984976 -0.025382597 -0.016296111

conv3.bias f4 [64]
000000 37 e4 f4 bb 5b e4 f8 bb c7 39 f7 bb e0 9d 03 bb
       -0.0074734944 -0.0075955815 -0.0075447294 -0.0020083115
000010 df d3 13 bc fb 17 7c bc 4b f9 50 bc 5f 71 02 bc
       -0.009022682 -0.015386577 -0.012754749 -0.0079616
000020 f1 cb 49 3b a7 ed 57 3a 78 01 83 3c 17 a0 14 bc
       0.0030791725 0.0008237012 0.015991911 -0.0090713715
000030 02 53 4f bc 03 21 85 bb 62 93 0d bc 40 26 65 bc
       -0.012654068 -0.004062773 -0.008641096 -0.01398617
000040 4f 94 3e bc 53 34 94 bb 5f f8 3c bc 00 2e fe bb
       -0.011632039 -0.004522839 -0.011533826 -0.0077569485
000050 4b 73 cf bb 6a e4 20 39 e7 7d 50 3c 18 f5 5f bc
       -0.0063308827 0.0001534388 0.01272533 -0.013669275
000060 7f c8 cc 3a 77 75 67 bb 9d b8 a5 bb 2b 62 14 bc
       0.0015623717 -0.0035317817 -0.005057408 -0.009056608
000070 d6 86 3b bb 12 10 f3 3b c8 12 40 3c 27 06 c2 bc
       -0.0028614304 0.007417687 0.011723228 -0.023684574
000080 f4 09 08 3c 5e 65 01 3c 6d 10 5f bc 58 28 d7 bc
       0.008303154 0.007897703 -0.013614756 -0.026264355
000090 e2 73 3f bc ae fa 14 bc ab 77 da bb 0f 99 01 bc
       -0.011685343 -0.00909297 -0.0066670976 -0.007910027
0000a0 27 ef 2c bc 5f 7d 3e bc 3d 97 c6 3b be 06 43 3b
       -0.010555065 -0.0116265705 0.0060605095 0.0029758657
0000b0 03 61 dc bb df ca 8a bc c3 02 d2 3b bd 04 a0 bc
       -0.006725432 -0.01694244 0.0064090206 -0.01953351
0000c0 2e 66 13 bb c3 ad 89 bb 7a 3d cd 3b ab cb d2 3b
       -0.0022491324 -0.004201622 0.006263432 0.0064329705
0000d0 bd 8a 18 3a ff b3 a6 3c cf 0e 2f 3b 5f ac 30 bb
       0.00058190135 0.0203495 0.0026711707 -0.002695821
0000e0 82 6d cd bb f4 e3 3f bc 18 ff 01 bb 23 e6 b0 3b
       -0.006269158 -0.011712063 -0.0019835886 0.005398528
0000f0 2a 91 e3 bb 73 05 b4 bb f2 9c 09 bc da 4e 2a bc
       -0.006944795 -0.0054938137 -0.008399235 -0.010394776

fc1.weight f4 [64, 1024]
000000 6a 87 a5 bb dd 47 7c bb 10 8f 20 3c df aa 82 3b
       -0.005051543 -0.0038494982 0.009799734 0.0039876546
000010 23 d7 d8 bb 47 98 cb 3b 70 ee 74 3b 58 fa ef 3b
       -0.006617443 0.0062132212 0.0037373565 0.0073235445
000020 45 da 56 3b 4b 3b 31 bb 77 d4 86 bb 4a 87 71 3c
       0.0032783907 -0.0027043398 -0.0041146833 0.014741728
000030 62 61 fc ba c2 20 4f 3b 21 3f b2 bb 33 ba f5 3b
       -0.0019255097 0.0031605219 -0.0054396545 0.0074990033
000040 23 72 94 3a 75 b7 a7 3b 93 58 19 bb 15 6f f6 bb
       0.0011325519 0.0051183053 -0.0023398742 -0.007520566
000050 62 31 8b 3b 61 d3 31 bc 20 df 90 3b 80 3e a8 3b
       0.0042478302 -0.010853619 0.00442113 0.0051344037
000060 15 28 6d 3c e8 63 9e bc 6a 6d 96 3b 70 70 e3 bb
       0.014474888 -0.019334748 0.00459068 -0.006940894
000070 02 6d 50 bb 30 bf 54 bc f5 6e f4 3a 7a 6a 61 3b
       -0.0031803255 -0.012985036 0.001864879 0.003439574
000080 4c 10 13 3a e0 3d 58 bc 79 85 c6 bb 71 e0 b9 bb
       0.00056100334 -0.013198346 -0.0060583916 -0.0056725075
000090 96 8b b2 3b 00 38 e5 bb ec d7 02 bb ba 28 fe ba
       0.005448769 -0.006995201 -0.0019965125 -0.00193908
0000a0 df 81 b7 bb 62 5c 8c 3b e5 89 45 bc bd 0c 54 bb
       -0.0056001986 0.004283474 -0.012056802 -0.0032356225
0000b0 1d 93 fb 3b 53 42 43 3c 8b bc 66 bc 75 c3 21 bb
       0.0076774494 0.011917668 -0.014083038 -0.0024683152
0000c0 aa d1 31 ba 4f 87 23 3c 6f 4e 5b ba 67 57 02 bb
       -0.00067832565 0.009980991 -0.00083658745 -0.0019888522
0000d0 c8 69 b4 3c b5 2f 4b 3b 5f 50 a7 bc 76 bc 04 3b
       0.022023097 0.0031003777 -0.020424066 0.0020253933
0000e0 6b 8d c3 3a f7 5f 24 3c 23 7c bc 3a f4 de a2 3c
       0.0014919465 0.010032645 0.0014380257 0.019881703
0000f0 b7 0b 62 3b f7 fb da b9 fe 7f 14 bc 13 5c 53 bb
       0.0034491846 -0.0004176793 -0.009063719 -0.0032250925
000100 b5 b7 d8 bb f3 0f ac bc 32 b7 01 3a 87 8d af 39
       -0.0066136965 -0.021003699 0.00049482577 0.00033484047
000110 3d 9f 13 3c f7 e4 8d 3c ab 43 1a 38 4d 7b fc 3b
       0.009010133 0.017321093 3.6779482e-05 0.0077051283
000120 87 e2 94 3c 89 97 12 bc fc 20 02 3b 5f 67 75 3a
       0.018174423 -0.008947262 0.0019856086 0.0009361412
000130 da 6f ed bb a8 a6 b6 3b fb f4 88 3b 4e 1a 80 3c
       -0.0072459998 0.005574066 0.0041795946 0.015637543
000140 1e 4a 21 bc 3a 19 fa 3b 3f da 76 3b a0 b0 4f 3b
       -0.009844331 0.007632402 0.0037666706 0.003169097
000150 93 d2 fb bb 18 ab 62 bb a9 32 98 bc b7 14 74 bc
       -0.0076850145 -0.0034586843 -0.018578844 -0.014897517
000160 47 31 85 bc db 55 93 bb 43 9f 48 b9 4d 48 54 3b
       -0.016258849 -0.0044963188 -0.00019132816 0.0032391727
000170 d2 52 ca bb bd b5 d9 3a 6b 5a 42 3c 77 0f 3c bb
       -0.0061744237 0.0016609948 0.011862378 -0.0028695741
000180 8a 44 db bb d1 a8 95 3a d2 87 58 bb c0 60 7e bb
       -0.00669152 0.0011418109 -0.003303994 -0.0038814992
000190 a3 3f f1 3b bb e1 c0 3b e3 46 53 3b ad 84 d6 3b
       0.0073623224 0.005886284 0.0032238297 0.006546578
0001a0 b2 0e 83 bb 28 1f 6c bc f2 63 8d bb d8 37 ac bb
       -0.0039995546 -0.014411725 -0.004314893 -0.0052556805
0001b0 cb 20 96 b8 87 11 1f bc 02 97 75 3b bd 98 4f 3c
       -7.1586655e-05 -0.009708769 0.003747404 0.012670693
0001c0 d9 aa a5 bc 42 c5 37 3c 62 1f 2e bb 65 d0 86 ba
       -0.020223068 0.0112164635 -0.0026568999 -0.0010285495
0001d0 5c a3 88 3b 37 27 26 bb 63 12 11 bb 0d 6e 62 bc
       0.0041698646 -0.0025352964 -0.0022136203 -0.013820183
0001e0 a3 c5 b4 3b 42 b6 63 3b 1b 6d 3a 3c ca 48 60 3c
       0.005516724 0.0034746085 0.011378552 0.013689229
0001f0 3b 4b 01 3c 5f 86 b0 3b 43 16 54 bc 0d 11 e4 3b
       0.0078914715 0.005387112 -0.012944761 0.0069600404
000200 b9 5a 16 3b 3b af e3 bb 36 25 0f 3c 9a bb 3d 3c
       0.0022942259 -0.0069483793 0.008736899 0.011580372
000210 43 d4 49 3c db 97 5c bb 7d 45 51 3b 5d 07 fe bb
       0.012318674 -0.003365985 0.0031932287 -0.0077523426
000220 78 60 54 3b a6 17 9d bb 90 cb 68 3c 9d 23 31 3b
       0.0032406133 -0.004794079 0.014208689 0.0027029284
000230 a0 3a 52 ba f7 64 8d 3b 55 35 05 3c a7 98 d5 bb
       -0.00080196 0.0043150145 0.008130391 -0.0065184417
000240 8b 76 1b bc 13 08 4e bc d6 1f 2c 3c 53 07 58 3b
       -0.009488712 -0.012575167 0.010505637 0.003296335
000250 ff e9 95 bc 11 8a 32 bc 4b ab 90 bb 2f b7 e6 bb
       -0.018300055 -0.010897175 -0.004414951 -0.00704088
000260 03 79 98 bc 72 c1 00 3c 34 ec 85 bb b3 c6 89 3c
       -0.01861239 0.007858621 -0.0040869955 0.01681838
000270 21 a8 99 bc 7d 4c 6f 3c c7 4f 6a bc 5a 99 81 bb
       -0.018756928 0.014605639 -0.014301247 -0.0039550485
000280 a5 5a ae 3b 82 42 64 3b e0 25 6c bc cb f8 b0 3b
       0.0053208643 0.003482968 -0.014413327 0.005400752
000290 2a d2 67 ba 03 30 0b bc 15 20 9f bb e5 7e 17 ba
       -0.00088432676 -0.008495334 -0.0048561194 -0.00057791016
0002a0 17 54 2c 3c 9d cd 70 3b bf a6 5a 3a 07 1c ea 3b
       0.010518095 0.0036743649 0.0008340887 0.0071444544
0002b0 a6 83 8c 3c 9f 6b cd 3b 30 39 03 3c d5 23 17 3c
       0.017152619 0.006268933 0.00800924 0.009224852
0002c0 c2 d8 20 bc e7 2f 7a bc 67 93 fe bb 9c 62 0b ba
       -0.009817304 -0.01527021 -0.0077690366 -0.0005317123
0002d0 3e b7 92 b9 bf 57 72 3c 17 0e a4 b9 16 ed 18 bc
       -0.00027983816 0.014791428 -0.00031291015 -0.009333869
0002e0 43 19 42 3b 6d 10 19 bc 48 03 42 3b d7 e9 69 bc
       0.0029617108 -0.009342295 0.0029604007 -0.014276943
0002f0 51 f5 29 3b 2f 2a 4c 39 1f 0c bd ba 9f da d6 bb
       0.0025933573 0.0001947067 -0.0014423168 -0.0065568234
000300 20 15 58 bc 48 9a 0f bc fd e6 2c 3c 9b 08 17 ba
       -0.01318863 -0.008764811 0.010553119 -0.0005761475
000310 0b 73 08 3c 5f be 0c 3b 7d 5f d2 ba fe 9b a5 bb
       0.00832821 0.0021475775 -0.0016050186 -0.005053996
000320 1f ed 92 bb 53 4a 48 3c 97 f1 be 3b b2 23 78 3c
       -0.0044838334 0.0122247515 0.0058271396 0.015145229
000330 33 b6 6d bb ca 1c 87 bb 57 9a f1 ba eb a0 fe 3b
       -0.003627193 -0.004123305 -0.0018432838 0.0077706478
000340 40 ff 6d 3b 87 d7 81 bb 43 81 e4 bb 2b d6 b6 bb
       0.003631547 -0.0039624604 -0.006973417 -0.00557973
000350 d0 45 d8 3b 5f c5 a9 3c ca 34 0e bc 8a c0 5d 3c
       0.006600119 0.020723997 -0.008679578 0.013534674
000360 88 d8 e9 bb cd 7a 12 bc 3a e4 e8 ba 1d 6f 16 3b
       -0.0071364082 -0.008940411 -0.0017768212 0.0022954412
000370 a4 ba 0f 3b 84 d8 0a bb cf e0 34 3b 12 bd 2c 3c
       0.0021931315 -0.0021186182 0.0027599817 0.010543125
000380 e0 26 46 bb 2f 2f d9 3a c2 03 d0 bb e2 6f 3d bb
       -0.0030235574 0.0016569848 -0.006348104 -0.0028905799
000390 37 88 00 bb 68 08 16 3c 42 21 0d 3c 8b 57 89 3c
       -0.001961244 0.009157278 0.008613886 0.016765377
0003a0 20 35 b2 3b 0e 60 80 bb 28 25 4c bc 71 b6 9e 39
       0.005438462 -0.0039177006 -0.012460031 0.00030272038
0003b0 31 c4 82 3a 69 94 25 3a 1a 04 59 bc ec 86 25 3c
       0.0009976682 0.00063163653 -0.013245607 0.010102969
0003c0 6d 9c 94 bb ab 46 c9 3a a4 26 02 3c c3 d0 f7 3b
       -0.004535249 0.0015356144 0.007943783 0.007562728
0003d0 ba ec a8 3a 83 d9 25 3c 0f e0 1c 3c 33 00 a6 3b
       0.0012887933 0.01012266 0.009574904 0.0050659417
0003e0 d7 61 3d bb bf 2c 19 bb 14 1d c5 3b 7e ed 11 3a
       -0.0028897428 -0.0023372618 0.0060154293 0.00055667
0003f0 fa 66 00 bc 6e 97 a3 bc 4b 37 fb bb 7e 96 24 3c
       -0.0078370515 -0.019969668 -0.0076665035 0.010045646

fc1.bias f4 [64]
000000 8f 91 01 bc c2 c4 89 3b 0f 0b 76 bc e0 4d 2c bb
       -0.007908239 0.0042043636 -0.015017285 -0.0026291534
000010 ab f8 35 bc ba 3e 53 3b fd aa 9e bc 8c 36 9b ba
       -0.01110665 0.0032233433 -0.019368643 -0.0011841818
000020 7d de f9 bb e7 c4 9b bb 34 43 ac bb 98 59 20 bc
       -0.0076253996 -0.004753697 -0.0052570347 -0.009786986
000030 89 4a 2d 3c 8b 97 85 bc 52 d4 bf bb 2a c2 fc ba
       0.010576853 -0.016307613 -0.005854168 -0.001928394
000040 09 24 c1 bb 0a 1f f2 bb a8 58 a7 bc 78 18 16 bc
       -0.0058941883 -0.007388954 -0.020428017 -0.009161107
000050 1d 51 b0 3b ba 7e 70 bb 25 07 e5 3b 20 ad 8e 3a
       0.005380763 -0.0036696629 0.006989377 0.0010885336
000060 67 64 c9 b9 b6 63 36 3c 55 f8 0b 3b e5 f7 82 bb
       -0.00038412513 0.011132171 0.0021357734 -0.0039968365
000070 62 ef 82 3a a2 0e 80 3c ee 9f 1d 3c 1b b0 93 3c
       0.0009989555 0.015631977 0.00962065 0.01802831
000080 e2 8e e6 3b c0 78 e7 3c 7a df 16 3c 2d 43 32 3c
       0.007036076 0.02825582 0.009208554 0.010880274
000090 27 f6 b0 bc e3 50 98 bc c1 77 a4 3c a1 8f 84 3c
       -0.02160175 -0.018593257 0.020076634 0.016181769
0000a0 36 df 47 bc 62 10 ed bb e7 e9 ea 3c 90 a9 67 b9
       -0.012199214 -0.007234619 0.028675986 -0.00022093044
0000b0 d3 ff 5e bc 2f d2 08 3c bf 79 3a 3c 29 8f c0 3b
       -0.013610798 0.008350893 0.011381566 0.005876441
0000c0 c8 de 52 3b 67 7a df ba 4b 08 26 bb 96 69 c7 3b
       0.0032176245 -0.0017050029 -0.0025334533 0.006085585
0000d0 6a 2e 7c b8 83 21 55 3c c4 62 90 bc 38 10 d4 bb
       -6.012471e-05 0.013008478 -0.01762522 -0.00647166
0000e0 f3 4c 34 bb f5 8e 69 3b 95 29 b7 bb da 2f d4 bc
       -0.0027511686 0.0035638188 -0.0055896738 -0.025901724
0000f0 73 37 c1 bb 71 27 38 bc 7b 8b eb 39 7f 74 fc 3b
       -0.0058965026 -0.011239872 0.00044926614 0.007704317

fc2.weight f4 [10, 64]
000000 e0 e5 5d 3d 77 35 36 3d 7b 27 10 3d da 28 81 bc
       0.054174304 0.04448458 0.0351939 -0.01576655
000010 bd 2c 41 bd e7 bb 13 bc a7 fd af 3d df 43 23 3b
       -0.047161806 -0.009016967 0.08593302 0.002491228
000020 65 be a7 3c 80 69 c2 3c a3 b6 92 bd 9a 12 6c 3c
       0.02047653 0.023731947 -0.071637414 0.014408732
000030 e0 bc e2 bc 84 40 21 3d 1f 4b 2d 3c a2 9f d7 3b
       -0.027677953 0.039368168 0.010576992 0.006580309
000040 5d 4a 59 3d 49 c2 40 bc 9b 41 b3 bc 17 39 e6 bc
       0.053049434 -0.011765071 -0.021881869 -0.028103394
000050 2f c9 ab 3b 4b 0d b6 bc 52 9e e5 3c e2 7d 0a bd
       0.005242489 -0.022223135 0.028029595 -0.033811457
000060 aa 25 6e 3c af fd 83 bc 7d cb 3d bb ca 0f b3 3c
       0.014535347 -0.016112177 -0.00289604 0.021858115
000070 3c 43 27 bc c3 62 99 bc e2 18 60 3c 48 02 8e 3c
       -0.010208901 -0.018723851 0.0136778075 0.017335072
000080 8f 8d 30 3d 45 dc 32 bd 7e c9 a3 3c 8b 3e 18 bd
       0.04310375 -0.043667097 0.01999354 -0.03716902
000090 88 39 d6 3b 8d be 50 3d 38 b2 55 3b 67 72 62 bc
       0.00653762 0.050962973 0.0032607447 -0.013821221
0000a0 43 08 4d 3b 0b be 0d 3c 47 9f 28 bd a7 26 f4 bc
       0.0031285442 0.008651267 -0.041167524 -0.029803587
0000b0 a2 20 1f 3d af bf 94 3c 35 a6 2c 3b 80 17 10 3d
       0.03884948 0.018157808 0.0026344184 0.03517866
0000c0 4b d1 6b bd 67 8e 5f 3b b0 03 3e bc 35 e1 ee 3c
       -0.057572644 0.0034111978 -0.011597559 0.029160121
0000d0 99 b9 19 bc a9 f1 28 3d 77 c5 e0 3c f7 8c 7d 3c
       -0.009382629 0.04124609 0.027437909 0.015475503
0000e0 c7 9e 1e bd af fe 47 bc 36 54 42 3d 20 77 ba bc
       -0.03872564 -0.012206717 0.04744359 -0.022761881
0000f0 af 6c 79 3d aa 01 d3 ba c0 9e c9 3c a0 75 11 bb
       0.060894664 -0.0016098518 0.02461183 -0.0022195354
000100 40 65 4d bd e7 00 5e 3d 3a 1c 90 bc 9d aa ed bc
       -0.050145388 0.05420008 -0.017591584 -0.029012019
000110 ed 5e 63 bc a9 00 21 3d 57 41 88 3c 5f c4 15 3d
       -0.013877613 0.03930727 0.016632719 0.036564227
000120 ae 9c ca 3c d9 10 08 3d 8b b0 21 3c dd 10 7b bd
       0.024732914 0.033219192 0.009868751 -0.06129538
000130 db af 90 3d 8b dd c5 ba 1b 21 e7 3c c5 78 71 bb
       0.07064792 -0.0015095932 0.028214028 -0.0036845666
000140 5b c9 c1 bc ed 86 a1 bc 5e 2a 19 3d 43 6e 43 bd
       -0.023655584 -0.019717658 0.03739392 -0.047712576
000150 67 fd dd 3c 97 3f bb 3c 70 43 3c bb ba d3 0f 3d
       0.02709837 0.02285747 -0.002872672 0.035114028
000160 ab ab 20 bc 57 2b b4 bc 5f 0f e2 bc 53 8c e9 3c
       -0.009806554 -0.021993322 -0.02759522 0.028509295
000170 ba 82 8f bc ef b9 19 3d a8 95 26 bb 41 06 31 3d
       -0.01751839 0.037530836 -0.0025418792 0.043218855
000180 e9 d8 af 3c ed 55 53 bd db 63 85 bd 53 29 3c bd
       0.021465736 -0.051595617 -0.065131865 -0.045937847
000190 b5 c7 8c 3d aa 37 5e bd af 8b 59 bd 2a 39 b6 bd
       0.068740286 -0.054252304 -0.05311173 -0.08897622
0001a0 df 05 47 3d ed ce 61 3b 67 31 aa 39 3f 1f 9c bb
       0.048589583 0.0034455613 0.00032461734 -0.004764467
0001b0 7b 30 2e 3d eb 11 29 3d d7 1b de 3d 68 71 eb bc
       0.042526703 0.041276854 0.10845154 -0.0287406
0001c0 e2 2a c3 bc 79 b1 36 3d 68 7e 81 3c 33 d2 84 bc
       -0.023824159 0.044602845 0.015807346 -0.016213512
0001d0 fb a6 01 bc f6 25 81 bd c7 3e 24 3c fb da 8b bb
       -0.007913346 -0.063060686 0.010024733 -0.004268048
0001e0 c3 9d 59 ba e8 6f 15 3d ba 11 87 bc 6a e2 f7 bb
       -0.00083014014 0.036483675 -0.016487945 -0.0075648325
0001f0 9f 00 08 bd 7a e5 61 bc 53 d7 4d 3d dd 10 dc bc
       -0.033203717 -0.013787622 0.050254177 -0.02686351
000200 2d 68 73 3c 94 11 99 bb 6a c1 fa bc da eb e9 bc
       0.01485638 -0.004671285 -0.030609805 -0.028554846
000210 70 a6 cf bc da 94 59 bd cd 55 10 bd 4a b7 4e bc
       -0.025347918 -0.05312047 -0.035238076 -0.012616942
000220 98 32 40 bd f7 82 fe bc 8a 91 ef bc 95 2e 54 3c
       -0.04692325 -0.031068308 -0.029244203 0.012950559
000230 52 bc db 3b 84 74 91 3c 0f 1c 06 3d 66 8e ad 3c
       0.006705799 0.017755754 0.032741603 0.021186065
000240 bc ae 2b 3d 70 15 ee bb 17 8d f8 bc e3 12 9f 3c
       0.041914687 -0.007265739 -0.030340714 0.019418186
000250 37 25 90 bb 9f 12 87 3c 63 48 da bb a3 90 17 3d
       -0.0043989676 0.016488371 -0.006661461 0.03700317
000260 bf f2 07 bc b0 62 04 3d c2 5d b1 3b 27 01 ea bc
       -0.008297621 0.03232068 0.005412788 -0.028565003
000270 ad 97 6e bc c3 3b 93 3c b2 56 d0 bb 6f 93 bf bc
       -0.0145625295 0.017972833 -0.006357991 -0.023385732
000280 f7 d7 ea 3c 38 f7 90 3d 7a b1 56 3d d7 83 c9 bc
       0.028667433 0.07078403 0.05241535 -0.024598999
000290 ba 04 56 3c d8 8f 4a 3c 5a c2 e0 3c 13 fb ee 3c
       0.01306265 0.012363397 0.027436424 0.029172456
0002a0 b8 ba 6c bc 97 ad 08 bd e3 2f 10 3d a7 cf 34 3b
       -0.014448814 -0.033368673 0.03520192 0.002758959
0002b0 df 64 15 3d 42 99 22 3c 8c 97 91 bd bb e4 7a bc
       0.03647315 0.009924235 -0.071089834 -0.015313323
0002c0 e3 ea cf bc 3b 5b 0c bd 9d 85 05 bc 07 21 b8 bc
       -0.025380557 -0.03426669 -0.008149532 -0.022476686
0002d0 77 ea 12 3d de e5 17 bc 70 c2 7a 3b b0 d9 39 3d
       0.035868134 -0.009271113 0.0038262866 0.04537362
0002e0 71 49 a8 bc 9a 5a 92 bd 2a 72 0b 3d 3b f4 a6 bc
       -0.020542832 -0.07146187 0.034044422 -0.02038013
0002f0 2f 46 12 bb 0f b2 51 3c 32 8c 83 3b 17 06 c0 3a
       -0.0022319665 0.0127988 0.0040145153 0.0014650252
000300 c5 fd 6f bd 17 14 40 3b 2f 76 76 3d 2c 34 82 bc
       -0.058591623 0.002930885 0.060171302 -0.015894018
000310 67 7a d5 3c 13 c2 fd 3a cb 21 2b 3a b5 cd 4e 3d
       0.026059343 0.0019360207 0.0006528168 0.050489146
000320 66 a6 b1 3c af 52 cc bc e3 f9 2c bc 7b 96 12 3b
       0.02168579 -0.02494177 -0.0105576245 0.0022367525
000330 9f 4c 04 3d 6b d6 91 bd 48 70 dd bb c9 15 84 3d
       0.032299634 -0.07120975 -0.0067577697 0.06449468
000340 af a4 00 bc 2b e8 12 bd 13 0d b4 3c 90 ae dc 3a
       -0.007851764 -0.035865944 0.02197889 0.0016836692
000350 6a d8 3b 3d e3 bf e0 3c 17 ca 85 bc ba 0c 28 3d
       0.045860685 0.027435249 -0.016331716 0.041027762
000360 1b ad b1 ba 74 9c 01 3d 83 f4 36 bc 50 bd 10 bb
       -0.0013555618 0.031643346 -0.011166695 -0.0022085495
000370 d3 8e 96 bb 23 f6 c5 3b b9 6b 9f bd 07 2a e8 3c
       -0.0045946627 0.0060413047 -0.07784218 0.028340353
000380 de ff 96 3b 0c 8f 32 3d 9a cf 0f 3d d7 d5 3b bc
       0.0046081385 0.04359345 0.035110094 -0.011464558
000390 2a 74 61 bd 2b 60 1f bd c9 a2 be 3c 45 56 14 3d
       -0.055042423 -0.038910072 0.023270981 0.036215086
0003a0 3f 04 3b 3d cc b3 88 bc 13 27 3c bb d7 7c 8b bc
       0.045658346 -0.016687296 -0.0028709813 -0.017027302
0003b0 ad 39 06 bd b9 c0 14 bc b3 2f 73 bd 0e 3a 4c 3c
       -0.032769848 -0.009079152 -0.05937166 0.012465013
0003c0 89 f9 04 bc bd 9f 39 bc 64 e1 10 3d f8 3b fb bb
       -0.008116134 -0.0113295885 0.0353712 -0.007667061
0003d0 a0 08 d9 bc 07 07 0c bc aa 82 53 bc c3 cc 63 3d
       -0.02649337 -0.008546597 -0.012909571 0.055615198
0003e0 f0 28 ce 3c fc 42 a5 3c 0b 86 f4 bc 52 68 22 bd
       0.025166005 0.020173542 -0.029849073 -0.03965027
0003f0 45 97 b8 3b bb c7 0b bd 42 70 01 3d c7 6f e3 3c
       0.005633267 -0.034126025 0.031601198 0.02776326

fc2.bias f4 [10]
000000 c3 82 7f bd df b0 9f 3c 87 77 15 3d b2 9d e3 bc
       -0.062380563 0.019493518 0.036490943 -0.027785156
000010 ea 76 b4 3c cb 14 1d 3c 90 4b a5 bc 5a d1 cd ba
       0.022029359 0.009587477 -0.020177633 -0.001570265
000020 02 d7 06 bc 53 5c 84 bd
       -0.008229973 -0.06462922
