torch_to_tf/torch_models/model_round1179.model (torch, 493063 bytes, 10 tensors)

conv1.weight f4 [32, 3, 3, 3]
000000 42 08 d0 3d a3 3a 63 bd e7 86 c1 bc 36 9b c7 3d
       0.10157825 -0.055475842 -0.023623897 0.09746401
000010 8a a7 19 be 48 aa 4d bd 0c 60 ab 3b ce 82 99 bc
       -0.15005317 -0.05021122 0.0052299555 -0.01873913
000020 81 d9 c4 3d 7f 39 b2 3d 34 b7 1d bd 98 82 80 3d
       0.09611798 0.08702373 -0.038504794 0.06274909
000030 81 49 21 3c 20 ff cd bd 9c 38 99 3c da 37 d8 3c
       0.009844185 -0.10058427 0.018703751 0.02639382
000040 65 8b 18 bd 74 73 b7 ba 05 c7 c1 bc f8 1c f5 3d
       -0.037242312 -0.00139962 -0.02365447 0.11968416
000050 03 73 a8 bd 3a fb 60 bb eb e4 f7 3b cf fd 44 bc
       -0.08225062 -0.003432943 0.007565131 -0.012023403
000060 1d e8 a6 bc 40 2d 4f bd 10 c3 e7 3c e7 2f 58 3c
       -0.020374352 -0.050580263 0.028291255 0.013195015
000070 6a e4 e2 3c ba 3a 8e bb a9 f3 a0 bd 95 11 d6 bd
       0.027696807 -0.004340497 -0.078589745 -0.10452572
000080 bd 81 8d 3d ca 36 e0 bc 7a ce 2a bc 27 e9 ca bc
       0.06909511 -0.027369875 -0.010425204 -0.024769379
000090 a0 9f a8 3d c5 55 ec 3d fa 7c 1b 3d b3 57 7d 3c
       0.08233571 0.11539797 0.037960984 0.015462804
0000a0 53 7f 10 bd 9f 34 ee 3b 88 b2 75 3c c6 f9 2d 3d
       -0.035277676 0.0072694565 0.014996178 0.04247453
0000b0 83 78 af bc b1 84 37 3d f6 0d 9e 3c 50 b7 6f 3d
       -0.02141977 0.04480428 0.019293766 0.05852443
0000c0 13 50 3a bc 76 1a c4 bd 6b 4a 89 bd 9c a4 8b bd
       -0.01137163 -0.095753595 -0.06703647 -0.06818506
0000d0 df 77 27 bc 85 3c 1b bc 38 26 67 bd af 76 8e 3d
       -0.010221451 -0.009474878 -0.056432933 0.06956231
0000e0 4f 89 de 3d 9a 90 ce bd 8d b6 01 3c 1b 27 71 bd
       0.10866033 -0.10086174 0.007917059 -0.058875185
0000f0 4a 6d 69 3d 78 c9 5f ba e8 85 22 bd 53 45 93 3c
       0.05698899 -0.0008536796 -0.039678484 0.017977392
000100 67 13 48 bd 25 35 38 3d 3b 55 78 bc 3a 68 eb 3d
       -0.04884663 0.044972558 -0.015157039 0.11494489
000110 37 30 4a bd e5 9f 85 3c e9 6e 3e 3d b1 d7 8c 3b
       -0.049362388 0.016311595 0.04649249 0.0042981734
000120 ed d1 74 bd 17 76 09 be e9 2a 25 3d cf 2d 18 bb
       -0.059770513 -0.13423954 0.040324125 -0.0023220663
000130 e8 65 09 3e df 1c f8 bc b2 0e 2e bd d0 c3 52 3d
       0.1341778 -0.030287204 -0.042494483 0.051456273
000140 ba 3f aa bd 4a 18 6a 3d 9a b4 b3 3d ba 4f 35 bc
       -0.08312936 0.05715207 0.087746814 -0.011066372
000150 08 db 6e 3d b9 df b9 bb 0d 3c 53 bc 13 e7 fa 3d
       0.058314353 -0.005672422 -0.012892735 0.12251105
000160 ad 40 6a bd 44 f7 a7 bd 17 4c 80 bd 4f 14 8c 3d
       -0.057190586 -0.08201459 -0.06264513 0.06839811
000170 3f 15 6c bc f8 ef 6d 3c 4b 29 c6 3d a7 df 05 be
       -0.014409362 0.014522545 0.09675845 -0.13073598
000180 ad c6 7e bd db ec e4 bd 6d 55 83 bd 76 2e 84 bc
       -0.06220119 -0.11177989 -0.06412778 -0.016135436
000190 d2 0d 0e bb 2c f4 35 3d b6 6a 94 3d c5 9c 97 3c
       -0.0021675718 0.044422314 0.07246916 0.01850737
0001a0 d6 6c b3 bd a7 d3 14 3d c5 11 4c bd e3 ad a1 3d
       -0.08760993 0.03633466 -0.049821634 0.078944944
0001b0 4a 12 f2 3c 3b fc 96 3d 17 19 fd 3c 5a b0 4e 3d
       0.029549737 0.07372328 0.030895753 0.05046115
0001c0 5f 8c 2f 3d 03 f1 6b 3c 57 d3 f7 3c 63 37 87 3d
       0.042858478 0.014400723 0.030252142 0.06602361
0001d0 63 6c 85 3d 3b e7 82 bc 3f ed 77 bd aa 09 dc bd
       0.06514814 -0.0159794 -0.06052899 -0.10744031
0001e0 7f 60 8a bd 22 90 02 bd a2 4f 85 bb 8a 42 57 bd
       -0.067566864 -0.031875737 -0.004068331 -0.05255369
0001f0 5d 1e ab bd ab 11 45 bd 0f c3 98 bc e3 80 34 bb
       -0.08355401 -0.048112553 -0.018647699 -0.0027542643
000200 78 f1 9f 3d 92 82 f6 3a ac 1d c4 bb 93 83 10 bc
       0.078097284 0.0018807224 -0.0059849825 -0.008820432
000210 01 1a 15 3d b0 aa a1 bd d0 f1 5b 3d 73 6f 03 bb
       0.036401752 -0.07893884 0.053697407 -0.0020055443
000220 97 1a f0 ba ab b5 5f bd b3 1e e0 3c de 75 91 3d
       -0.0018318471 -0.05461661 0.027358389 0.071025595
000230 ee 54 87 3d f8 63 1b 3c 7f 03 4f 3d 98 8b bc bb
       0.06607996 0.009484284 0.050540444 -0.0057539456
000240 1f ba 80 bd 88 80 92 3d 75 cc a2 3b b3 59 0f be
       -0.062855 0.07153422 0.004968221 -0.13999061
000250 cb 30 e8 3b 08 54 d0 bd 0c 03 3d bd 0b 12 1e bd
       0.0070858947 -0.10172278 -0.046145484 -0.038591426
000260 67 5d b5 bd e7 9d ac bb 9d 12 0d 3d 03 ab 17 bc
       -0.08855706 -0.005267847 0.03444158 -0.009257081
000270 eb cf 3d 3b 08 83 e5 3d 8d fc c5 bc 83 25 c9 bd
       0.002896304 0.11206633 -0.024168277 -0.09821608
000280 ba 54 72 3d 28 ac d9 3d 3b 5e ac 3d a8 95 64 bd
       0.059162833 0.10628539 0.084164105 -0.055806786
000290 11 35 09 3d f4 f7 2a bc 0b 72 84 3c cc 47 c0 3d
       0.033497874 -0.010435093 0.016167661 0.09388694
0002a0 eb a8 7c bd b5 8f d5 3c 93 5f eb 3d c0 37 eb bc
       -0.06168453 0.026069501 0.11492839 -0.028713107
0002b0 bd 76 e0 bd 05 f0 94 bd d9 cf 27 bd 18 ab 01 b9
       -0.109601475 -0.072723426 -0.040969703 -0.00012366136
0002c0 50 05 c2 3c 93 61 a3 bd 80 b0 f1 bc 48 77 86 3d
       0.023684174 -0.07977595 -0.029503107 0.0656572
0002d0 c3 bc c9 bc b9 c8 0f be e7 a1 fa 3c 12 c8 86 bd
       -0.024626141 -0.14041413 0.03059478 -0.06581129
0002e0 9b c4 aa bd b2 3c cf 3d cd 24 98 bd 21 e2 00 3d
       -0.08338281 0.101189986 -0.07428894 0.031465653
0002f0 ab b6 ae 3d 57 a0 d7 3d 02 f1 f8 bd 64 49 2f bc
       0.08530935 0.10528629 -0.121553436 -0.01069865
000300 43 61 5c bd 2a a0 9c bd af ca 8b 3c 2d 00 0d bc
       -0.053803694 -0.07647736 0.01706442 -0.008605999
000310 cd 7a 07 3c e3 38 65 3c 47 ac 8a bd 4a 74 22 bc
       0.008269024 0.013990614 -0.067711405 -0.009915421
000320 68 14 2a 3d a0 07 f6 3c 56 f7 1f bd 5b f7 da 3c
       0.041523367 0.030032933 -0.039054237 0.026729276
000330 db 9c 45 3c 5f 5a 08 bd 7f dd 86 bd 43 a7 d5 3d
       0.012061323 -0.03328931 -0.06585216 0.10432293
000340 02 c3 a2 bd f5 7e 34 3c 67 c4 74 3d d3 e5 f9 3d
       -0.07947351 0.011016597 0.059757616 0.122020386
000350 bf 77 94 bd 45 30 9d 3d 2f 43 21 3c d3 03 93 bb
       -0.07249402 0.07675222 0.009842678 -0.00448654
000360 fd f8 8b bc 3b bc ee bc a3 c9 96 3c c8 ce 7e bd
       -0.0170865 -0.02914249 0.018406695 -0.06220892
000370 ee 0c b7 3b 20 c6 9e bd 2d 43 df 3c db 97 79 3d
       0.005586258 -0.07752633 0.027253712 0.060935836
000380 3f de 8d 3d 65 b8 25 3d ee 74 44 bc db 6b 89 bd
       0.06927156 0.040459055 -0.011990769 -0.06710025
000390 47 d9 77 3c 52 d2 5c bd 9a ae b4 bd d7 af 86 bd
       0.015127487 -0.053911515 -0.08822365 -0.065765075
0003a0 2f a8 ba bc 70 fd ec 3d 15 19 15 bd 95 92 ac 3c
       -0.022785274 0.11571777 -0.036400873 0.02106599
0003b0 d4 1e 2d ba ed 71 c6 bb 6a c4 94 bd a3 00 f3 3c
       -0.000660402 -0.0060560615 -0.072640255 0.02966339
0003c0 f0 79 d5 38 cb df 78 3d 6a 04 98 3d 6a aa d7 bd
       0.00010179344 0.0607603 0.07422717 -0.10530551
0003d0 34 84 29 3c 45 34 37 bd 25 2d 79 bc 03 2f 47 3d
       0.010346461 -0.044727582 -0.015208517 0.04862882
0003e0 e4 37 82 bc 4d dd 15 bd ea 31 d7 3b 21 a9 2f 3c
       -0.015895791 -0.036588002 0.0065672295 0.010721476
0003f0 fb 0a da bd 55 54 0f bd 6f a9 7b 3c 3f ac 9c 3c
       -0.106466256 -0.034992535 0.01536022 0.019125102

conv1.bias f4 [32]
000000 56 70 09 3e 6f d1 cf bd 32 df 8d 3d 7a d2 3c b9
       0.13421759 -0.10147368 0.06927337 -0.00018007486
000010 b9 25 0e 3e 2e da 85 bd 80 4e 0b 3e ad 64 7d 3d
       0.13881578 -0.06535755 0.13604164 0.06186359
000020 bf a8 cc 3d 19 84 20 be 03 bd de 3b 8e 5d 3a 3c
       0.09993123 -0.15675391 0.0067974343 0.011374844
000030 ff 8f d7 bd 60 80 dd 3d c3 ff 67 bc e2 90 39 bd
       -0.10525512 0.10815501 -0.014160099 -0.045304187
000040 7c b2 a0 3d 04 57 98 3d 15 99 da 3d a0 06 08 3e
       0.07846543 0.07438472 0.10673729 0.13283777
000050 80 cc fa 3b 4b b5 8c 3d 4f c9 04 3d 88 34 e1 bd
       0.007653773 0.068705164 0.032418545 -0.10996348
000060 90 ce d2 bd 3a 33 8f bb 29 57 bc bc a0 50 ec bd
       -0.10293305 -0.0043701204 -0.02299078 -0.115388155
000070 05 53 5d 3b 35 f7 b9 bb 37 e0 b4 3d aa 7b 29 be
       0.0033771407 -0.0056752213 0.08831828 -0.1655108

conv2.weight f4 [64, 32, 3, 3]
000000 30 e0 25 bc 32 57 83 bd 56 6e 13 3d 3f 1a 08 bd
       -0.010124251 -0.064131156 0.035993896 -0.033228155
000010 a2 55 91 bd 4f b7 c0 3d 63 56 9e 3b a8 3b 90 bd
       -0.07096411 0.09409963 0.0048320754 -0.070426285
000020 10 e6 d6 3c 91 fb b7 3c 73 c7 7d bd ea 5c 57 bd
       0.02623275 0.022458823 -0.061957788 -0.052578844
000030 ed 29 3a bd 5e 8d 93 bd f8 c9 d6 bc 73 8c f3 3c
       -0.04545014 -0.07204698 -0.026219353 0.029730057
000040 7d 28 8f 3c e2 8d dc 3b ec a3 3d bd d3 13 a5 bd
       0.017475361 0.006730781 -0.046298906 -0.08060422
000050 6f 46 01 3d 63 27 fd bc 2f 78 00 be 6a 16 4e 3d
       0.03156131 -0.03090257 -0.12545846 0.050314344
000060 cf 1f 67 bc 58 d0 7e bd 4f 13 10 bc 2f 9d 3a 3d
       -0.014106705 -0.06221041 -0.008793666 0.04556006
000070 e0 2e 8f bc 30 f8 68 bc 77 8a 35 bc 1f aa 76 bd
       -0.017478406 -0.014219329 -0.011080376 -0.060220834
000080 1d 29 7b 3c dc 45 a3 bc cd 21 58 bd 47 19 33 bd
       0.015329626 -0.019930772 -0.05276661 -0.04372528
000090 89 71 be 3b ba 6b 8d bc ab c4 49 bb 7f fc e4 3b
       0.0058118743 -0.017263282 -0.003078739 0.0069881077
0000a0 d7 20 05 3b b2 4a 0e bc 33 7e a6 3c 22 19 d2 3c
       0.0020313764 -0.008684801 0.020323848 0.02564675
0000b0 37 81 5b 3d 6a e9 d9 3c 15 a8 f2 bc d2 84 22 3c
       0.053590026 0.026600558 -0.029621163 0.009919362
0000c0 dd cc 62 bc af a6 40 bd 9a 19 b7 3b 27 70 82 bc
       -0.0138427885 -0.04703396 0.0055877687 -0.015922619
0000d0 e3 85 c4 3c ad ff d0 3d 8d d8 73 bc 75 ec 49 3d
       0.023989623 0.10205016 -0.014883173 0.04929777
0000e0 ec c2 1a 3e 9e 67 ba bc 87 78 ae bb 3f b4 bb 3d
       0.1511342 -0.022754487 -0.0053244266 0.091652386
0000f0 ef 68 90 bd 2f 8a 9e bc 9f d8 c9 3d 5c 84 8a bc
       -0.070512645 -0.019353 0.0985577 -0.016908817
000100 18 30 43 bd 0b 00 1c 3b 27 7f 3a 3c f8 c0 89 bc
       -0.047653288 0.0023803737 0.011382855 -0.016815647
000110 1c 27 1e 3d f7 83 f4 3c 7b 76 09 3d 4b aa 84 3d
       0.038611516 0.029848082 0.033560257 0.06477793
000120 50 c1 e8 bc 6d 7a 03 be 3d 25 47 3d 38 34 43 3d
       -0.028412491 -0.1283967 0.048619498 0.04765722
000130 5f ff b2 bd 37 4b 7f 3c 1f 52 bc 3c 6d 7f e7 bd
       -0.087401144 0.015581897 0.022988377 -0.113036014
000140 af 05 05 bd 76 4d 1a bc 2f c9 69 bc a6 85 c1 3d
       -0.032476123 -0.009417882 -0.014269157 0.094493195
000150 7b 4f c7 bc 2b f5 52 bc 0b 15 96 3d fb 39 42 bc
       -0.024329891 -0.012875835 0.073282324 -0.011854644
000160 1e 44 42 bc 9b fc 14 3c 87 78 36 3b 2b ec ff bd
       -0.011857061 0.009093429 0.0027842836 -0.12496217
000170 87 3f 03 bc 8a 6d 58 bd 90 2c d5 bd 3f 92 49 3b
       -0.008010752 -0.05283884 -0.1040889 0.0030757335
000180 9f b0 04 3d ae 97 84 bc ab 38 7c 3d b2 21 f5 bc
       0.032395 -0.016185608 0.06157748 -0.029923294
000190 3f 1d 7b bc 77 d9 d2 3c 8c 7b 30 bd ef ae 2a bd
       -0.015326797 0.025738461 -0.043086573 -0.041670736
0001a0 71 48 14 3d 7a 0a 43 39 6f da 60 bc 9b 9b 84 3d
       0.036201898 0.00018600552 -0.013723954 0.06474992
0001b0 35 00 11 bd b7 bf 04 bd 60 96 1f 3d d3 2c 80 bc
       -0.035400588 -0.032409396 0.03896177 -0.015646374
0001c0 2f 95 15 bd a7 20 74 3d df 8d ac bc b7 4e 2b bd
       -0.036519226 0.059601452 -0.021063743 -0.041823115
0001d0 e6 47 8b 3d c8 5a 45 bd b2 4c fb bc 25 fe 85 3d
       0.06800823 -0.04818228 -0.03067622 0.06542615
0001e0 2a 32 de bc a2 19 c9 3c 35 09 c1 3b ff a0 6d 3c
       -0.02712353 0.024548355 0.00589099 0.0145037165
0001f0 d2 88 07 3d 05 86 c4 3c fe 06 a8 ba 57 03 a5 bd
       0.033089466 0.023989687 -0.0012819467 -0.08057278
000200 e0 89 91 bd 62 72 0d bd 50 31 e9 bc 85 5b 32 3c
       -0.07106376 -0.034532912 -0.028465897 0.010886078
000210 de 82 15 bd 7e c0 28 bd 4b 53 4c 3d 25 e2 8f 3c
       -0.036501758 -0.0411992 0.049884122 0.017563889
000220 fa ae ed bc da 73 fc bc e5 9a 22 bd 0f c8 8b bc
       -0.0290141 -0.030816961 -0.0396985 -0.017063169
000230 32 44 59 3b 76 d3 36 3d f6 2a 8f 3c c7 de 2f 3d
       0.003315222 0.04463526 0.01747654 0.042937066
000240 4c 39 8f bc 9f ca 0d bd a6 17 ba 3d a2 e2 a3 bc
       -0.017483376 -0.034617063 0.09086542 -0.020005528
000250 47 e8 2f bd 67 e7 67 3d 7a 99 45 bd 55 b2 96 bd
       -0.042946126 0.056617167 -0.04824207 -0.07358233
000260 5f 51 84 3d 0d f4 75 bc 68 0d 4f bd 92 c0 8a bc
       0.06460833 -0.0150117995 -0.050549895 -0.016937528
000270 35 a0 72 bd 99 0c 42 bd 1b 72 b9 bc e7 68 40 bc
       -0.059234817 -0.047375295 -0.022637418 -0.011743761
000280 18 79 dd bc 8a 1f a5 bc 47 a4 79 3b 0f 15 e8 bd
       -0.027035281 -0.02015664 0.0038092302 -0.113321416
000290 e5 8a 45 bd ae a2 83 bd 80 01 89 bd 72 03 03 3e
       -0.048228163 -0.06427513 -0.06689739 0.12794283
0002a0 73 c3 9c bc 22 38 65 bd 23 7b 35 bb 01 4d 47 3a
       -0.019136166 -0.055961736 -0.0027691803 0.0007602722
0002b0 32 0b d4 bc 70 d8 9f 3d d3 3b 0e 3d bc d1 b0 bc
       -0.025884245 0.07804954 0.03472502 -0.021584384
0002c0 0b 61 1e 3d 9a 6c 10 bc 13 23 d2 bc 92 9b 50 3d
       0.038666766 -0.008814955 -0.02565149 0.050929613
0002d0 3f a6 8d bc ca 8d fe bd 6b d1 e3 3c e5 d1 55 bd
       -0.017291186 -0.12429388 0.02780982 -0.052202124
0002e0 45 93 d1 bc 6b 93 fc 3b c7 4b 35 bc 27 3a 41 3c
       -0.025582919 0.0077080033 -0.01106543 0.01179365
0002f0 9d be 0f bd ba ab 4f bc a5 45 73 bc 5c fe 1e 3d
       -0.035093892 -0.01267522 -0.0148481475 0.038816795
000300 29 a4 05 bd 60 50 17 bd 43 ff 6a 3d 71 ee 2c bd
       -0.03262726 -0.036941886 0.057372343 -0.042219583
000310 c5 8f a7 bb 9f 28 20 3d 9b b1 38 bb 08 2f 48 bd
       -0.005113574 0.03910124 -0.0028182033 -0.048872977
000320 4d a8 a3 3c 77 8c 00 bd 60 26 0b bd 57 6c 69 3d
       0.019977713 -0.031383958 -0.033972144 0.056988087
000330 f0 5b 59 3c cb f8 ec bb 87 5b 03 3e 83 e5 fb 3d
       0.0132665485 -0.007231807 0.12827884 0.12299635
000340 a3 ff 08 bd 33 b8 9b bd 09 02 9a 3d 43 c3 78 bd
       -0.03344692 -0.076034926 0.075199194 -0.06073309
000350 ba 8d c7 bc c7 e4 2b 3d 0d 3d e7 3a 21 07 25 bd
       -0.024359573 0.041966226 0.0017642096 -0.04029
000360 52 c4 7f bc cd 1e 29 bc b0 ac 57 bd 95 13 20 bb
       -0.015610771 -0.010322285 -0.052654922 -0.0024425734
000370 58 af 25 bd 86 0b c6 bd 59 3f 8a bd 31 a5 25 bd
       -0.040450424 -0.09670167 -0.06750364 -0.040440742
000380 3b 66 57 3c e7 d5 6b bc 9f 7a 8f bb 83 44 cc bc
       0.013146932 -0.01439426 -0.0043786312 -0.024935013
000390 0e 8c 25 bd ab 33 61 bd 3b d5 05 bd 2d 43 5e bd
       -0.04041677 -0.054980915 -0.032674056 -0.054263283
0003a0 52 3d 92 bd cb 81 95 3c 16 ef c8 bc 3f cd 42 bd
       -0.07140602 0.018250367 -0.024528068 -0.04755902
0003b0 75 30 1d bd c7 6a 81 bc 50 b2 93 bb 07 bb 26 3d
       -0.03837629 -0.015797986 -0.0045073405 0.040705707
0003c0 2d 6e d2 3c aa 1f 6c 3d db 4d eb 3c 0f 26 10 3c
       0.025687302 0.057647385 0.028723648 0.008798136
0003d0 1b 0d 81 bc f2 5b 64 bd e5 9c 78 bd 8a 0c bb bb
       -0.01575332 -0.05575175 -0.0606965 -0.005708282
0003e0 20 75 bd 3c 8f 74 b3 3c 32 94 84 3d 1d f9 f8 3d
       0.023127139 0.021906165 0.064735785 0.121568896
0003f0 7c fb 94 3c 43 02 62 bc db c7 e0 ba 71 e4 83 3c
       0.018186323 -0.013794485 -0.0017149405 0.01610014

conv2.bias f4 [64]
000000 7b 2d af 3d da dc b4 bd 83 79 b7 3c d5 f9 14 3d
       0.085535966 -0.088311866 0.022396808 0.03637107
000010 c3 4f ac bc 53 de 38 3b 28 10 86 3d e1 e1 2d bd
       -0.021034127 0.0028208687 0.0654605 -0.042451743
000020 fb 54 a4 bd 97 a6 86 bd f3 25 d1 bd 57 f6 63 3c
       -0.08024021 -0.06574743 -0.10212316 0.013913712
000030 ef 7f 2a b9 8f 2d eb bc 78 b1 af 3d 3e f6 af bd
       -0.00016260122 -0.028708247 0.08578771 -0.08591889
000040 af f2 5e 3d b6 0d b4 3b cc 80 b5 3b 20 0d 1f 3e
       0.05443066 0.0054947985 0.0055390354 0.1553235
000050 ca 62 65 3c 10 58 88 bd a6 a2 17 bd 3d d0 ff 3c
       0.014000604 -0.066574216 -0.037020348 0.031227225
000060 4f 8f a6 bd 00 f2 b5 bc c8 18 a3 3d 81 e3 c7 bc
       -0.08132803 -0.022210121 0.07963711 -0.024400475
000070 5a 73 bd 3c db 9c 27 be 80 8d 12 bd b3 62 17 3e
       0.023126293 -0.1636843 -0.035779476 0.14783745
000080 f8 3b df 3d 34 d6 90 3d 35 3d e0 bd 59 b4 1e 3d
       0.1090011 0.07072106 -0.10949174 0.03874621
000090 c3 d9 30 3c 67 c3 b5 3d 4d 6f f7 bd 32 8d 2d 3e
       0.010794106 0.08875161 -0.12081776 0.16948393
0000a0 0f 91 e1 bd 38 22 31 3e 30 53 a4 bd 13 0f af bd
       -0.11013996 0.1729821 -0.08023679 -0.08547797
0000b0 a0 5b 18 bd d5 8a e6 3d 48 ab 81 3d a0 34 53 3d
       -0.037196755 0.11256949 0.063314974 0.05156386
0000c0 d8 57 e4 bc b2 50 6d bc 78 2d 86 bd 55 83 4e bb
       -0.027873918 -0.014484571 -0.06551641 -0.0031511385
0000d0 da e0 df 3d 9a 64 29 bd 55 87 74 bc 52 f7 f9 bd
       0.10931559 -0.041355707 -0.014924844 -0.12205376
0000e0 ba 79 ec bc b3 6c c6 3b ef ce 52 3d cc fd 98 bb
       -0.028866637 0.0060554384 0.05146688 -0.004668927
0000f0 de f4 c4 3d 95 9c 41 3e a7 fa 38 bc b4 57 06 3e
       0.09617017 0.18907388 -0.011290229 0.13119394

conv3.weight f4 [64, 64, 3, 3]
000000 47 54 93 bd 9d dc c4 3c 53 2e d2 3c f7 34 b3 bc
       -0.07193809 0.024030978 0.025656855 -0.021875842
000010 ba 85 78 3d dd 41 ab 3c 6a 5b 63 bc c3 da 05 bc
       0.060674407 0.02090543 -0.013876775 -0.008169833
000020 77 b9 27 bd ed 1e 10 3c 26 f6 a7 3b a3 53 44 3d
       -0.040948357 0.008796436 0.0051257787 0.047931325
000030 e3 5a a5 3c 1f 98 f5 3c 53 65 0b 3e b1 b3 82 3c
       0.02018494 0.029979764 0.13612871 0.015954824
000040 43 00 18 bc 82 d9 98 3d a0 ce e1 b8 af 65 71 bc
       -0.009277406 0.07463361 -0.00010767323 -0.014733716
000050 52 bf 99 bd 3a b5 da bc db 61 cc 3b 24 ec 94 bc
       -0.075071946 -0.026697744 0.006237251 -0.018179007
000060 c0 40 2a ba c4 4b 12 bd 23 96 c9 3c bb fd 3e bc
       -0.0006494634 -0.035716787 0.024607724 -0.011657174
000070 2d 41 54 3a 35 33 f2 bd 65 a0 ef bc 46 89 1c bc
       0.000809687 -0.11826173 -0.029251287 -0.009554213
000080 18 2b 8c bd f2 6e 69 bd 97 a6 55 bd 7f b7 c3 3d
       -0.06844157 -0.05699057 -0.052160826 0.095564835
000090 42 50 b9 bb 00 d1 6e bc 9d d1 e4 3b c9 d1 98 bc
       -0.0056553194 -0.014576197 0.0069829957 -0.01865472
0000a0 cf a9 7b 3a 13 95 f3 3c 93 22 55 3c ef 61 3e 3c
       0.00096001936 0.02973417 0.013008731 0.011620029
0000b0 31 0f 4b 3d aa 6c 32 3c da 67 7f 3c 64 9d a0 3d
       0.049575035 0.010890165 0.015588725 0.0784252
0000c0 67 a2 9c bc 5d 49 44 bd f7 1f 85 3d a3 49 07 bd
       -0.019120408 -0.047921527 0.065002374 -0.03302921
0000d0 08 ce ad bc 4a dd 4f 3d bb 00 15 bc 58 ef d1 3c
       -0.021216407 0.050748147 -0.009094412 0.025626823
0000e0 05 8b 95 3d e4 b8 2e 3d a3 34 c3 3d 87 3e 07 3e
       0.073019065 0.042656794 0.09531524 0.13207446
0000f0 17 90 78 3d 5a f7 c0 3d e3 cd b4 3d f8 13 fe 3b
       0.06068429 0.094221786 0.08828332 0.0077538453
000100 17 b6 09 bd 28 1b 17 bd da 6b 52 bc 67 f7 06 bd
       -0.03362092 -0.036891133 -0.012843097 -0.032950785
000110 00 25 7d bd ea 67 e2 bb c8 0e 77 bc b2 5e 28 bd
       -0.061802864 -0.00690936 -0.015079208 -0.041105933
000120 d8 41 57 bd be 84 26 bd 67 fe 24 3c 5b 46 0c bd
       -0.052553028 -0.040653937 0.01007042 -0.034246784
000130 c0 8f 5b bc 0f 77 b0 bc 46 7a 28 bd 52 0b b1 3c
       -0.013400972 -0.021541147 -0.041132234 0.021611843
000140 dd 47 47 bb 74 24 0d bd 9f 6a d9 bd d0 2b c8 bc
       -0.0030407824 -0.034458593 -0.106160395 -0.024434954
000150 bd 19 25 bd 76 b9 87 bd 45 81 d2 bc 40 4f e1 3c
       -0.04030775 -0.06627171 -0.025696406 0.02750361
000160 00 66 8f bc 1f 37 96 3a 73 ae ed 3c 6d 87 17 bd
       -0.017504692 0.0011460519 0.029013848 -0.036994386
000170 75 d4 39 bd 15 7d b5 bc 47 be 2d bd 00 3d 3f bd
       -0.04536863 -0.02215437 -0.04241779 -0.046689034
000180 cd b4 41 bc ab 9e 8e bd 0a fe 40 bd 57 81 bb 3a
       -0.011822891 -0.06963857 -0.04711727 0.0014305514
000190 68 17 2e bd d2 a5 0e 3d e5 8a d6 bc 7d b7 77 bc
       -0.04250279 0.034826107 -0.026189277 -0.015119431
0001a0 2f 72 54 3d 5b f7 e4 bc ee 68 19 3c 43 9e c6 3c
       0.051866706 -0.02794998 0.009363396 0.024245387
0001b0 64 58 0b bd cd 2a 08 3d ce d7 91 3d 3f 4b 48 bd
       -0.034019843 0.033243943 0.071212396 -0.048899885
0001c0 cb 63 d0 bd cb e2 40 3c 92 49 e7 bc b0 95 49 bd
       -0.10175284 0.011772822 -0.028233323 -0.04921502
0001d0 6b 5b 9f 3d 2a d5 b1 bd 68 ca d4 bd 98 8f 74 bd
       0.077811085 -0.08683236 -0.103901684 -0.059707254
0001e0 3d 33 f3 bc 4a 7e eb bd e3 d9 10 be 90 6c 05 3d
       -0.029687518 -0.11498697 -0.14145617 0.032574236
0001f0 27 37 03 3d 41 f5 32 bd 52 d1 84 bc 45 a3 89 bc
       0.03203502 -0.043690924 -0.016213093 -0.016801486
000200 7f 1a 2d bd 25 a8 94 bb 65 47 c6 3b d3 85 d9 37
       -0.042261597 -0.004536646 0.0060509914 2.5930733e-05
000210 d7 72 e7 3b d9 b3 80 3b 2b f4 c2 3c 54 9d 0a 3c
       0.0070632505 0.0039276895 0.023798069 0.0084603615
000220 8d df da bc a5 87 5f bd cd 8e 5d bc fe 06 a7 bc
       -0.026717925 -0.05457272 -0.013522816 -0.020389076
000230 d6 04 96 bc 89 8f 2a bd 8d 20 c5 3b ba ec 6b bc
       -0.018312853 -0.041640792 0.0060158432 -0.014399702
000240 48 da c4 bb 7d 7b 7f bd ed 82 7a bd 20 e6 79 3d
       -0.0060074665 -0.062373627 -0.061160017 0.06101048
000250 8a ab d3 bc 34 d1 c0 bc 82 1e e1 3c 02 2c cb bc
       -0.025838632 -0.023537256 0.027480368 -0.024801258
000260 f0 03 35 bb 9f 70 40 bc 3a 09 85 bb 6b d1 7c 3c
       -0.0027620755 -0.011745601 -0.004059938 0.0154307885
000270 8b 4e b7 3b b0 eb 1e bd 9b 77 40 3b 4a 5b c3 bc
       0.00559408 -0.038798988 0.0029368165 -0.023847241
000280 b1 8d 13 bd b4 99 c8 3d 54 4b 2f 3c f0 60 79 bb
       -0.0360238 0.097949415 0.010699112 -0.0038052164
000290 23 66 67 bc 22 6e 47 bc 9f 35 00 3b bb a3 b6 3a
       -0.014123472 -0.012172254 0.001956321 0.0013934294
0002a0 37 c5 3b 3c 0b 6d 69 bb d7 d0 b1 bb fd db e4 3b
       0.011460594 -0.0035617973 -0.005426507 0.0069842325
0002b0 56 c7 b3 3c 72 70 00 3e 4a 5f 71 bd 82 1f 76 3d
       0.021945637 0.12542894 -0.058928765 0.060088642
0002c0 53 66 ae 3d da aa 6b 3d ab c4 cc 3d 76 35 98 bc
       0.085156105 0.057535984 0.09998449 -0.01858018
0002d0 ff e5 d2 bc 05 be cd bc 6b 2c bd bb a1 ba b3 bb
       -0.025744436 -0.025115022 -0.0057731173 -0.0054848944
0002e0 90 24 aa bc f7 24 cf bc 39 e5 a6 3a fa 0d b0 3b
       -0.020769387 -0.02528618 0.0012733109 0.00537276
0002f0 a0 b4 6c bc 88 01 eb 3c eb e7 37 3d a1 d8 30 3d
       -0.014447361 0.028687254 0.04489891 0.043175343
000300 ed 3a 21 3c 4a 8d ff 3c e3 2d 55 3d a7 98 44 3d
       0.009840709 0.031195302 0.052045714 0.047997143
000310 05 0c a9 3d 6d 64 37 3d 4b a4 0f 3d 0f 24 d3 3c
       0.08254246 0.044773508 0.03506879 0.02577403
000320 a3 64 58 bd 89 5f a3 3d 3a 8c 18 bd f3 0b 73 bd
       -0.05283035 0.07977206 -0.037243105 -0.059337568
000330 ca 67 d8 3d 33 62 94 bd f1 85 2c bc cb 7d a1 3d
       0.10566671 -0.072452925 -0.010529981 0.07885321
000340 f3 52 22 3d 01 95 b7 3d 73 16 66 bc 63 44 98 3c
       0.039629888 0.08963967 -0.014043438 0.018587297
000350 85 f1 f3 3c de b0 97 3c 13 a9 a9 3d 78 1a 0c 3d
       0.029778251 0.018516954 0.082842015 0.03420493
000360 d3 a4 ec 3c b5 8c ff 3b 52 6f 31 3c 83 e4 46 3d
       0.028887188 0.007798756 0.0108297635 0.04855777
000370 03 4a d5 3c 3f d4 bb 3b c5 a2 93 3d aa 25 26 3d
       0.026036268 0.005732089 0.0720878 0.040563263
000380 30 4c 29 3d 7f d1 5c 3c 97 45 11 3b b2 48 32 3c
       0.041332424 0.013477682 0.0022166723 0.01088159
000390 63 c9 c2 3b a1 69 1b bc 13 6c 51 3b 35 bd 2e 3a
       0.0059444173 -0.009485633 0.0031955286 0.0006665767
0003a0 4f c8 9c bb 8b 88 92 bc 1c c3 0c bd 70 36 25 bd
       -0.004784621 -0.017887374 -0.03436576 -0.04033512
0003b0 d2 d0 64 bd 10 18 ec 3c 33 d7 e9 3c bb b3 9f bc
       -0.05586321 0.028820068 0.028544998 -0.019494882
0003c0 17 64 6c bd 8f 64 b0 bd 97 d5 17 bd 10 de 1e bd
       -0.05771264 -0.0861293 -0.03706893 -0.038785994
0003d0 0f ab 06 bd d0 7b b7 bc 07 8b d3 bc 9b f0 83 bd
       -0.032877978 -0.022397906 -0.02582313 -0.06442376
0003e0 c0 f9 aa 3c c7 6a 82 bd 2c 02 9f bd 97 a1 c8 3c
       0.020871043 -0.063680224 -0.07764086 0.024491115
0003f0 4a fc fa bb a1 37 88 3c 9d 7a a7 bc 5b 6f 29 3c
       -0.0076594697 0.016628088 -0.020444209 0.010341491

conv3.bias f4 [64]
000000 0e e9 b2 bb 33 f7 d5 bd 8e 95 8e 3b a6 48 2d 3d
       -0.005459911 -0.1044754 0.0043513244 0.04230561
000010 3f 07 ba bb 36 37 a6 ba 4b 98 2f 3d 63 5f 2b 3c
       -0.0056771333 -0.0012681249 0.042869847 0.010459754
000020 b0 09 da 3d ec a5 8f bb b7 cb dc bc 5a 9e cf 3d
       0.10646379 -0.004383793 -0.026952608 0.10137625
000030 c3 69 72 bb 37 b0 b6 bc 52 39 4d bb 08 af e7 ba
       -0.0036989308 -0.022300823 -0.0031314683 -0.0017676065
000040 2e f3 a2 3d 4a 2a 26 3e d2 23 82 bc 33 fb a0 bc
       0.07956539 0.1622707 -0.015886221 -0.019651031
000050 cb d3 e7 bc 25 89 88 3a e3 ba 2e 3e 2d 9a 4d bd
       -0.028299233 0.0010416849 0.17063479 -0.05019586
000060 f9 93 20 3d af 31 0a 3e fb b5 de bb 18 08 e5 3c
       0.039203618 0.13495515 -0.006796596 0.027957961
000070 b8 97 2e bc 88 8c f4 bb 28 8b 71 bc 50 4e 1e bc
       -0.01065629 -0.0074630417 -0.01474265 -0.009662226
000080 82 17 a7 bc 33 89 c5 3b 64 49 40 bb 9f 47 89 3d
       -0.020396952 0.0060283183 -0.002934062 0.06703114
000090 2b 67 99 3d e1 da 85 bc 0a 25 27 bc 8b 03 1b 3e
       0.07490381 -0.016339721 -0.010201702 0.1513807
0000a0 1d bf 80 3c 4a 64 49 3c ef 47 e7 bc 38 17 e2 bb
       0.01571613 0.012291977 -0.028232543 -0.0068997405
0000b0 b3 28 8d ba ff 44 76 3d ab 09 d9 bb 0f 4f a3 3c
       -0.0010769576 0.060124394 -0.006623467 0.019935159
0000c0 70 4a 56 3c 02 de be 3d 62 78 b4 3b 3b 61 22 bc
       0.013079271 0.093196884 0.005507515 -0.009910877
0000d0 f0 d9 32 3b 1e 95 08 be d2 6a 39 bc 95 04 0e bb
       0.0027290545 -0.13338134 -0.011316972 -0.0021670212
0000e0 8a 7e ec ba a4 28 c9 3d e5 ee 88 3d 8b 25 49 3e
       -0.0018043083 0.09822205 0.066861905 0.19643228
0000f0 28 cc c4 bd 53 52 53 3b c1 0a ad bc 20 81 30 bc
       -0.09609252 0.0032245114 -0.021123292 -0.010772973

fc1.weight f4 [64, 1024]
000000 57 f2 be bc 79 dc c1 bc 13 2b a8 3c 9b 4b 88 3d
       -0.023308916 -0.0236647 0.020528352 0.066550456
000010 5e cb a3 bd 17 91 b3 bd b3 b5 95 bd 5f 01 ed bc
       -0.079977736 -0.08767908 -0.07310047 -0.028931318
000020 12 0f 02 bc 4d 7f b0 bd 0f 55 c5 bc 7a e8 06 bd
       -0.007938163 -0.08618031 -0.02408841 -0.03293655
000030 6f 32 48 bd 43 53 e6 3b 75 e3 e4 3c f3 50 be bd
       -0.048876222 0.0070289685 0.027940491 -0.092927836
000040 a3 7a 05 3d 4f f9 bf bc 2a 60 04 bd fd a9 64 3c
       0.03258766 -0.02343431 -0.03231827 0.013956544
000050 60 7b f5 3a 7b 6b 2a 3b a2 6a 68 bb 3d 00 5c bc
       0.0018728785 0.0026004005 -0.0035463949 -0.013427791
000060 af 7b 13 3b 9f f4 df 3c a7 74 5f bc 73 c5 ab bc
       0.002250414 0.027338324 -0.013638652 -0.020968175
000070 80 31 f7 bc f0 3d 86 bc d2 c0 c1 bc 72 2a 89 bc
       -0.03017497 -0.016386956 -0.023651514 -0.016743872
000080 13 82 46 3d 6f c0 2f bc 66 4f 2c 3d 97 91 81 3b
       0.048463892 -0.010727032 0.042067908 0.0039541232
000090 c3 d3 1b 3d 30 7c cd 3b 35 62 32 3b d2 d2 4a 3c
       0.03804375 0.006270908 0.002721918 0.012379365
0000a0 31 15 27 bd b0 f3 86 bc 4f e6 90 3c 0e 42 13 3c
       -0.040791694 -0.016473621 0.017687945 0.008987917
0000b0 b0 51 56 3c 5b ee e5 bc 58 0a 92 bc d0 b9 ec ba
       0.013080999 -0.028067758 -0.017827198 -0.0018060748
0000c0 2b a4 03 bd 87 9e cc bc cf 14 66 3c ef 73 f2 3c
       -0.032138985 -0.024977935 0.014043047 0.029596297
0000d0 ea bd ff 3b d2 bd 56 3c 6f 0a cb 3c 85 0d 66 3d
       0.007804622 0.01310678 0.024785249 0.056165237
0000e0 e6 d1 c4 3a e0 63 ec bb f3 c9 ed 3b 6b c9 2d 3d
       0.0015016168 -0.0072140545 0.0072567402 0.042428415
0000f0 b3 d6 e4 bc eb 17 c0 bc 38 87 23 3a d3 1b d7 3b
       -0.027934408 -0.023448905 0.00062381057 0.006564596
000100 8f 03 8e bc ab 18 9d 3a 70 c5 4b bc ad 3b fe bb
       -0.017335681 0.0011985501 -0.0124372095 -0.0077585788
000110 d7 11 23 bc ef dd 63 bc 67 f4 1a 3c c7 92 59 ba
       -0.009952984 -0.013907894 0.009457684 -0.00082997646
000120 2f 88 3f 3b da 6b f4 bb 32 68 76 bb 2f 43 a2 bb
       0.002922546 -0.007459146 -0.0037598726 -0.0049518566
000130 6a c4 95 3c 1b f5 75 b9 1a 2b 8a 3b e7 7a 58 bc
       0.018282134 -0.0002345633 0.004216564 -0.013212896
000140 9b 7e a1 bd 03 fd f6 bc 0d f8 b3 bc 93 af 38 bc
       -0.07885476 -0.030149942 -0.021968866 -0.011272329
000150 fd 5c 9b 3c 50 e2 7f bc b5 92 7c bd bd f1 12 bd
       0.018965239 -0.015617922 -0.06166335 -0.03587507
000160 90 86 0e bd f7 ca 92 bc 5f 3d 85 bc 86 25 90 bc
       -0.034796298 -0.017919047 -0.016264616 -0.017596018
000170 38 25 8f 3c 4d 0c 45 bc 7b 7f 17 bc 55 5a 0c 3b
       0.017473802 -0.0120268585 -0.009246702 0.0021416147
000180 da 44 6f 3d ca 30 17 3d 78 91 e8 3d 85 17 53 3d
       0.05841527 0.036911763 0.11355871 0.0515361
000190 60 ba 0f bd cf aa f8 bb fe 5d 8a bd 4a 55 f6 bc
       -0.03508985 -0.0075887213 -0.06756209 -0.030069966
0001a0 37 68 8f bb aa fc 7e 3d 4f aa b3 ba 98 7e c2 3c
       -0.004376437 0.062252678 -0.0013707372 0.023742005
0001b0 65 d7 d8 3d 67 be d4 3d 21 26 3c 3e 65 f9 a7 3d
       0.10587958 0.10387879 0.1837392 0.08201865
0001c0 1c d4 aa 3b 07 2b a3 3a 23 de 7a ba f2 3d 37 bc
       0.0052132737 0.0012448736 -0.0009569844 -0.0111842025
0001d0 b7 b8 e9 bb 6b c8 5b bb 1b 20 12 bc 07 3d 59 bc
       -0.0071326154 -0.0033536206 -0.008918787 -0.013259179
0001e0 dc 41 8f bb 02 7f 5c bc b7 1f 45 bb 43 46 41 bc
       -0.0043718647 -0.013458015 -0.0030078718 -0.011796537
0001f0 c4 82 a5 ba 75 41 28 bc 37 08 82 3a 2b 27 a7 3b
       -0.0012627472 -0.010269512 0.0009920661 0.0051011047
000200 db 35 b9 bd e8 9d 2e bd 38 d9 aa bd 95 8a 9f bd
       -0.09043475 -0.04263106 -0.083422124 -0.07790104
000210 7d 5b c4 bd 45 50 14 bd 3f 56 2f bd 1b 14 d9 bc
       -0.095877625 -0.036209363 -0.04280686 -0.026498845
000220 55 64 ca 3c bd a5 18 3c 3c 40 92 3c bd bd 74 3d
       0.024706045 0.009316859 0.017852895 0.05975126
000230 e4 68 07 3e be c3 00 3e c1 9c 99 3d 47 6b c6 3d
       0.13223606 0.1257467 0.075006016 0.0968843
000240 7b 14 16 3b 3d d5 63 bc 90 a3 b4 bb e5 03 1d 3b
       0.002290039 -0.01390582 -0.005512662 0.002395862
000250 5b 35 6e bc cb c3 ad b6 4b c9 53 3a 61 74 20 ba
       -0.014539088 -5.178595e-06 0.0008079006 -0.00061208574
000260 1b a3 a6 bc 08 94 14 bc e8 40 1d bc c5 af 80 bc
       -0.020341447 -0.0090684965 -0.009597994 -0.015708813
000270 03 d6 dc bb 25 06 d9 bb c9 e9 14 bc 27 75 df 3a
       -0.0067393794 -0.006623047 -0.009088942 0.0017048464
000280 aa 3f 46 bc 75 98 d3 bb ed 30 ef 3b ea 93 56 bc
       -0.01210014 -0.0064573833 0.0072995336 -0.013096789
000290 f2 9a cf 3b a7 ee 7f 3b 13 6c 30 3c 0a c3 e4 bb
       0.0063356096 0.003905216 0.010767954 -0.0069812583
0002a0 db ae c5 bb f7 d6 04 3b 5a 51 d7 3a 0d 9e 4f bc
       -0.0060328073 0.002026973 0.0016427443 -0.01267196
0002b0 eb 46 50 bc 1f 2c 3f bc 0a d7 73 3a 99 14 98 3a
       -0.012712221 -0.011668234 0.00093017577 0.0011602818
0002c0 fd 4d e6 3d ef cd 90 3d e0 50 51 bb 93 4f 64 bc
       0.11245344 0.07070529 -0.0031939074 -0.013934988
0002d0 08 73 aa 3d d2 d5 e2 3c 9a 1d 78 3b b6 d7 0d bb
       0.08322722 0.027689848 0.003785944 -0.0021643466
0002e0 b7 28 45 3d 68 7d 59 3c 40 5b 13 3c 8d c5 99 3a
       0.04813453 0.013274528 0.008993924 0.0011731848
0002f0 15 4c 53 3d bf 01 0e 3c 0e b2 4c 3c 65 33 a1 bc
       0.05158623 0.0086674085 0.012493623 -0.019677827
000300 0f 19 9e bc d5 29 91 bc 50 c1 7a bb 78 e6 83 bb
       -0.019299058 -0.017720142 -0.0038262196 -0.0040252768
000310 1d e2 76 bb 0b 12 58 bc 9d ed e9 ba d3 96 59 bc
       -0.0037671395 -0.0131878955 -0.0017847304 -0.013280588
000320 18 48 85 bb b4 4d 84 bc 1f 0e 48 bc 7b 20 77 3b
       -0.004067432 -0.016150333 -0.012210398 0.003770857
000330 eb be 0c 3b 1f bd 4d bc 3d 82 78 ba d0 59 9e bb
       0.00214761 -0.012557297 -0.0009479856 -0.004832484
000340 c4 1e a1 ba e4 3a 35 bc f5 89 00 3a dc 22 8b 3a
       -0.0012292494 -0.011061404 0.00049033697 0.0010615247
000350 e3 7d fa 3a d3 c1 cf bb 47 73 b8 bc 00 22 0e 3c
       0.0019111003 -0.0063402443 -0.022515906 0.008675098
000360 50 08 7d bb d2 f1 28 b9 b0 af d9 3b e2 d7 90 bc
       -0.003860969 -0.00016111814 0.006643258 -0.017681066
000370 f5 10 82 3a 5c 54 89 bb 70 15 8d bb bb ae 9e 3b
       0.0009923266 -0.0041909646 -0.004305534 0.004842607
000380 97 44 64 bc 53 4a 4f 3c 82 db 8b 3b 50 b1 8c 3b
       -0.013932369 0.012651998 0.0042681107 0.0042935982
000390 34 1e 13 3c 72 59 55 bc 80 fa b7 bb 55 5b 89 b9
       0.008979369 -0.013021814 -0.0056145787 -0.00026198724
0003a0 fd 67 f7 3a 4b 9a 54 3b eb d2 d1 3a 17 9b c4 bb
       0.0018875595 0.0032440599 0.0016008293 -0.0059999335
0003b0 7f 78 af 3c b5 a1 cb 3b f3 32 56 bb 0d b4 b4 3b
       0.021419762 0.0062143453 -0.0032684177 0.005514628
0003c0 ef 84 93 bc 49 8b 18 bc 5a 18 09 bc eb 3a 72 bb
       -0.018007724 -0.009310552 -0.008367622 -0.0036961387
0003d0 c5 3b 5f bb d2 70 4c bc 44 25 0a 3c a3 11 69 bb
       -0.0034062725 -0.01247807 0.008431736 -0.003556349
0003e0 50 82 20 bc c1 93 48 bb b7 95 64 3a 00 74 e2 3b
       -0.009796694 -0.0030605646 0.0008719819 0.006910801
0003f0 65 66 11 bc 6d 28 c5 bb fc ef 86 bb 05 45 16 bc
       -0.00887451 -0.006016782 -0.004117964 -0.009171729

fc1.bias f4 [64]
000000 b5 fe 95 ba dd 1a c5 bc 0f 0d 8c bd af 82 a9 3d
       -0.0011443706 -0.024060661 -0.06838428 0.08276879
000010 95 93 8a bb ee b6 28 be af 9f 62 bb 81 00 b8 3b
       -0.004229019 -0.16476032 -0.0034580042 0.0056152944
000020 80 e7 c0 39 2b e4 42 3b 15 46 da bb 98 34 af bb
       0.00036793575 0.002973805 -0.0066611865 -0.005346846
000030 9d f6 f3 bb 34 65 37 bb 33 99 c3 bd 51 0b a2 bc
       -0.00744517 -0.0027983906 -0.09550705 -0.019780787
000040 6d 47 17 3c 98 38 da bd 2f 93 88 bb 90 24 3b ba
       0.009233338 -0.10655326 -0.0041679363 -0.0007138932
000050 e0 15 09 3b 97 98 08 3b 92 2b 09 3d 48 aa 8e bc
       0.002091758 0.0020842904 0.033488818 -0.01741518
000060 1f 54 10 3a b0 78 e3 3c b1 c8 94 bb 05 18 cf bc
       0.0005505699 0.02776751 -0.004540526 -0.025280008
000070 22 67 af 3b ff 71 9b bd 7b fd 1c 3c ed db 05 bc
       0.0053528706 -0.075901024 0.009581919 -0.00817011
000080 19 fd 90 3c 02 23 5e bc 67 cb 0a 3b 4b 25 1b 3e
       0.017698811 -0.013558151 0.0021178366 0.15150945
000090 50 45 88 ba 49 27 b2 b9 22 1c 98 3d 20 09 e8 bd
       -0.0010396633 -0.00033980075 0.07427241 -0.113298655
0000a0 b2 f5 b6 3d ca fb 68 bd c4 c8 9f ba 65 11 15 bd
       0.089335814 -0.05688075 -0.001219057 -0.03639354
0000b0 c5 ce b2 3b f3 f5 6d bb fd bc 11 3e c8 93 8b bc
       0.0054567778 -0.0036309927 0.1423225 -0.017038241
0000c0 4b 6f 46 3c 41 bb 09 bc e0 60 ed b9 10 74 f5 3d
       0.012111495 -0.008406461 -0.0004527634 0.11985028
0000d0 7f 63 87 bc 33 13 41 bc 9d 33 bd bb a7 74 9b bd
       -0.016526936 -0.011784363 -0.005773975 -0.07590609
0000e0 3b 7f 7b bc 2f 3a 8a bd 9a b1 c4 bc db 32 b3 3d
       -0.015350158 -0.06749379 -0.024010468 0.08749934
0000f0 aa a5 d0 bc 2f 11 43 3c 0b 16 b7 bb 51 ae 84 3a
       -0.02546962 0.011905952 -0.0055873445 0.0010122751

fc2.weight f4 [10, 64]
000000 69 41 8d 3d 47 98 b3 3d 8f a5 04 bd 8a ef d8 bc
       0.068972416 0.08769279 -0.03238445 -0.026481409
000010 e0 89 65 bc 57 f3 7b 3c 97 2b 31 bc 73 47 b0 bd
       -0.014009923 0.015377841 -0.010813615 -0.08607378
000020 60 a8 e5 bc ff 93 16 bd a7 14 81 bd 27 fc 53 3d
       -0.028034389 -0.036762234 -0.06302767 0.051754143
000030 10 78 63 3c 40 5d 7d 3d eb ca d5 3c 67 9c 3f 3c
       0.013883606 0.06185651 0.026097735 0.011695004
000040 e3 9a 61 bd 38 be be 3c 87 fc ad bc d7 25 12 3d
       -0.055079352 0.023284063 -0.021238578 0.035680618
000050 0a c8 9f 3b 83 66 8a 3c b8 a5 41 bd 98 5d f4 ba
       0.0048761414 0.016894585 -0.047277182 -0.0018643616
000060 4d 20 aa 3c 50 f0 ec bd 65 2d f9 3c e7 cb 73 bc
       0.020767355 -0.115692735 0.030417154 -0.014880157
000070 85 ea 73 3d 98 7a 78 3d 0a d2 1f 3c bf cf 4b bc
       0.059549827 0.06066379 0.009754667 -0.012439667
000080 3f 31 aa bc 88 de 05 bc ab 59 1e 3d 3b fe 88 bd
       -0.020775435 -0.008170731 0.038659733 -0.066891156
000090 e3 78 dc 3c da ae cb bc 15 b6 86 bd 33 ef d6 3d
       0.026913112 -0.02486365 -0.06577698 0.104948424
0000a0 73 bc 87 bd 9e cf 92 bc 70 d8 2b bd 3b 4a f7 3d
       -0.06627741 -0.017921265 -0.041954458 0.12074705
0000b0 c3 aa 15 bd 05 58 d1 bc 12 7e 95 3d 02 70 d0 3c
       -0.036539804 -0.025554666 0.07299437 0.025444034
0000c0 08 53 d7 bc 3f 98 97 3b 12 47 ee bc 04 e0 3e bd
       -0.02628471 0.0046263034 -0.029086623 -0.046600357
0000d0 90 6b d2 3c eb 77 8d 3d 75 7e b1 3c 45 fe 81 3c
       0.025686055 0.06907638 0.021666745 0.015868315
0000e0 28 6a 8c 3d 27 8b 22 3b 0d 30 42 3d 6b 9b 6a 3d
       0.06856185 0.002480218 0.047409106 0.057277124
0000f0 7a d5 21 bd 33 36 f8 bd ff af 03 3c 02 56 9c bb
       -0.039510228 -0.12119713 0.008037566 -0.004770995
000100 28 77 29 bd 43 89 65 39 6a 91 e9 3c 2b 62 9b bd
       -0.041373402 0.00021890276 0.028511722 -0.075870834
000110 08 54 da 3c 9d 1f 9e 3c 69 0b 91 3c 50 53 84 bd
       0.026651397 0.019302184 0.017705636 -0.06461203
000120 12 d8 5d 3c e7 36 f6 bb cd 8d cf bc 0f 36 ac 3d
       0.013540285 -0.007513869 -0.02533617 0.08408748
000130 32 64 9a bd b1 8a 97 bc 0f 39 c3 bc 0f 7e 12 3c
       -0.07538642 -0.01849875 -0.023830919 0.0089411875
000140 45 6d 05 3d e8 40 ef 3b 50 94 57 bb 9d 96 f4 3d
       0.03257491 0.0073014386 -0.0032894798 0.1194279
000150 30 1a 09 bd bc ed ac bc 9a 47 a7 3d 0c df c2 3c
       -0.03347224 -0.021109454 0.08167954 0.023787998
000160 c3 08 cf bb d2 2d 47 3d 80 23 1b 3c 94 ac 1e 3b
       -0.006318183 0.048627682 0.009468913 0.0024211751
000170 2f 98 c7 bc 72 93 de 3d 90 f2 a7 bd 35 30 cd bc
       -0.024364559 0.10867967 -0.08200562 -0.025047401
000180 6a 6f 4d 3d ea e8 1f 3c 07 ea c2 3c 60 87 60 bc
       0.05015508 0.009760121 0.023793234 -0.013704151
000190 33 53 18 bb 4b 32 11 3c 1f 16 62 3d ce a7 02 3e
       -0.002324295 0.008862088 0.055196878 0.12759325
0001a0 c5 82 f9 bc 5a 0d 85 3c 73 81 5b 3d f2 ba 2b be
       -0.030457864 0.016241718 0.05359025 -0.16770533
0001b0 ca 57 00 bd 23 4a a5 3c c1 d2 94 bd 83 61 d3 bc
       -0.031333722 0.020176953 -0.072667606 -0.025803333
0001c0 07 40 6e bd 4f 0b 91 3b 9f 33 c5 39 9b 13 e5 bd
       -0.05816653 0.004426397 0.0003761323 -0.1118538
0001d0 c8 ec 19 3d 90 3f 67 3c 0f 8e c5 bc a3 76 38 3d
       0.037579328 0.014114276 -0.02411559 0.045035016
0001e0 c3 3c f3 bc c7 39 7f 3d fa 0b 58 3c 52 09 ab bc
       -0.02969206 0.06231096 0.013186449 -0.020878468
0001f0 67 83 d8 bc 4e 0b 9a 3d 47 7a 03 bc b7 87 03 3d
       -0.026429845 0.075216874 -0.008024759 0.03211185
000200 4a f5 29 bc 3f bd 39 3d 63 87 32 3b e9 ca ba 3c
       -0.010373423 0.045346495 0.0027241341 0.022801833
000210 b3 97 89 3b a5 c4 57 bd 13 b9 be bd c7 b3 09 3c
       0.004198992 -0.05267777 -0.09312644 0.008404679
000220 6f 4f 30 3c 5b 4e 5d bd 0d 74 cd 3b 33 4a 99 3d
       0.010761126 -0.054029804 0.006269938 0.074848555
000230 0a a8 ca 3b 83 5d c9 3b 70 11 a7 3d 67 f5 85 3c
       0.0061845826 0.0061451807 0.08157623 0.016352369
000240 e0 90 34 bd a5 53 83 3b cb 82 31 bd de 67 b5 ba
       -0.044083476 0.004007774 -0.043337625 -0.0013840159
000250 57 57 5d bd 87 47 57 bc 27 c6 a9 3d 0c 7e 88 3c
       -0.054038372 -0.013139612 0.08289748 0.016661666
000260 11 73 07 bb ef 46 64 3d e7 9a a4 3c ea 72 5e bd
       -0.002066795 0.05573171 0.020093394 -0.05430881
000270 0b f2 9a bc cf 60 c1 bd 03 b5 e8 bc 10 87 38 bd
       -0.018914243 -0.09442293 -0.028406626 -0.04505068
000280 3d 17 89 3c df ee a1 bc 75 a0 62 3c 85 23 97 3d
       0.016734714 -0.019767223 0.013832201 0.07379822
000290 5b 8e 97 3c 58 ee ef 3c e3 f6 3d bd 4a 69 54 bd
       0.018500498 0.029288456 -0.046378028 -0.051858224
0002a0 22 65 0b 3d 32 a0 00 be 2f 6a 3a 3d 60 3e 65 3d
       0.034031995 -0.1256111 0.04551142 0.05596769
0002b0 b2 9c a0 bb c2 a8 7d 3c af 23 08 3e b2 c3 77 bd
       -0.004901492 0.0154821295 0.13294862 -0.060489364
0002c0 f4 ff 0d bc 8b 95 7a 3a 6a 6f 7b 3c 0f 1c 16 3d
       -0.008666981 0.0009559027 0.015346387 0.036647853
0002d0 6d fb 61 3c 7f 3b 84 3c 27 d2 7f bc e5 86 7d bd
       0.013792855 0.016141651 -0.015614069 -0.061896224
0002e0 6a a1 a0 3c 5b 50 a1 3d 06 00 b7 bb 13 b1 02 bc
       0.019608218 0.07876655 -0.0055847196 -0.007976788
0002f0 a2 d8 d8 ba 90 f3 a0 bd 85 94 c0 bc 8c 8d 82 bc
       -0.0016544054 -0.07858956 -0.02350832 -0.015936635
000300 c1 af 8e 3d 16 36 47 be 47 4b 46 bd f0 84 11 3c
       0.06967116 -0.19454226 -0.048411634 0.008881792
000310 8d f6 51 bd 99 7c 8f 3c 7b aa 42 3d 78 35 5f 3d
       -0.05126052 0.017515467 0.047525864 0.05449435
000320 92 15 75 bd ad df 5a bd d8 7f 80 bc ca 25 f8 3c
       -0.059835024 -0.05343597 -0.01568596 0.030291457
000330 cf 40 ce 38 f8 5a 5e 3d 8b ba 75 bc e7 9b 0f bc
       9.834917e-05 0.054285973 -0.014998089 -0.008765197
000340 6b 88 6d 3d ba a0 d7 bc e5 81 3c bd 32 ef 13 bd
       0.057991426 -0.026321758 -0.046022315 -0.036116786
000350 fb 52 15 3c ed 13 06 3d 52 da e7 3b 4b 0d 64 3b
       0.009114022 0.032733846 0.0070755864 0.0034797962
000360 5a 5f 1d bd 0c c2 c1 3c e0 df 10 bd 1c 4a 9b 3d
       -0.038421012 0.0236521 -0.035369754 0.075824946
000370 75 88 27 3c b5 cb 96 bc 3a 5a 68 bc d8 78 b2 3c
       0.010225405 -0.018407682 -0.014181668 0.021786138
000380 c2 40 cb bd c8 97 67 bc 3d b9 a2 3d f7 f7 f2 3c
       -0.09924461 -0.014135309 0.07945488 0.029659254
000390 bf f3 a6 bc 2a f3 ea 3c 08 ef 37 bc 4f ec 98 bd
       -0.0203799 0.028680403 -0.011226423 -0.07466947
0003a0 b4 12 3f 3a c1 ee 33 bd 8a 7a a0 bc 17 3d 9e 3a
       0.0007288859 -0.043928865 -0.019589681 0.001207265
0003b0 62 ea fc bc 87 64 fc 3c 93 b6 06 bd 97 ae 22 bd
       -0.030873481 0.030809654 -0.03288896 -0.039717283
0003c0 7f 38 20 3c d1 6d 82 3c 00 ae 88 3c 0a 47 aa 3c
       0.009779095 0.015921505 0.016684532 0.020785827
0003d0 d0 e0 36 3d 4f 22 c4 ba 8b ea f6 bc 09 6d c2 3c
       0.04464799 -0.0014963838 -0.030141136 0.023733633
0003e0 45 f7 35 bd 27 bc 0f 3d 35 31 5c bd f3 87 b7 3d
       -0.044425268 0.035091545 -0.053757865 0.08961477
0003f0 b0 f2 d9 bc 70 be d1 bd ba b5 bd bc 7f 7e da bb
       -0.02660498 -0.10241401 -0.023157943 -0.0066679115

fc2.bias f4 [10]
000000 90 0b e0 bd fb 85 b4 bd 4b 55 74 3d da 83 68 3d
       -0.10939705 -0.08814617 0.059651654 0.05676637
000010 e2 b4 31 3e 08 79 27 bd ed 80 9f 3d 23 22 6c bd
       0.17354158 -0.04088691 0.077882625 -0.057649743
000020 1b 75 12 bd 8a 70 2e bd
       -0.03575621 -0.042587794
