torch_to_tf/torch_models/model_round39.model (torch, 672591 bytes, 8 tensors)

conv1.weight f4 [32, 3, 3, 3]
0	0x3d359869	0.044334803
1	0x3d5fac63	0.05460776
2	0x3d15126f	0.036394533
3	0x3c37c648	0.0112167075
4	0xbc501ee2	-0.012702676
5	0x3ca0a42f	0.019609539
6	0x3d151e4f	0.036405858
7	0x3cd3ea18	0.02586846
8	0x3d024d29	0.031811867
9	0xbd98fb1b	-0.074697696
10	0x3c8698d9	0.016430305
11	0x3d1a530f	0.037676867
12	0x3d2beaf3	0.041972112
13	0xbd6b1342	-0.057391413
14	0x3c95eef0	0.01830241
15	0xbc9b31f6	-0.018944722
16	0xbde9f047	-0.114227824
17	0x3ddbd713	0.107343815
18	0xbd3ce34e	-0.046115212
19	0xbc07d8a6	-0.008291399
20	0x3c25ef92	0.010127919
21	0x3cbde2a3	0.023179358
22	0x3b92abef	0.0044760625
23	0x3d3c149f	0.045918103
24	0xbce46678	-0.027880892
25	0x3d41449a	0.047184564
26	0x3d009cb5	0.031399447
27	0xbd71f4a5	-0.0590712
28	0xbcbb9d34	-0.022902109
29	0xbd924f13	-0.071439885
30	0xbcda1127	-0.026619507
31	0x3c3061ee	0.010765536
32	0x3d7cf5a2	0.06175769
33	0xbd4ee4c2	-0.05051113
34	0x3ce631ea	0.028099973
35	0xbc7a99fd	-0.015295503
36	0x3d872eb4	0.06600705
37	0x3ded4708	0.11585814
38	0xbd492b9d	-0.04911386
39	0xbd239852	-0.039940186
40	0xbd0ccd05	-0.03437521
41	0xbd78026f	-0.060549196
42	0xbcdb79bf	-0.026791451
43	0xbd062d49	-0.03275803
44	0xbd0e1c63	-0.03469504
45	0x3d628e40	0.05531144
46	0x3d09407b	0.03350876
47	0x3d163ae7	0.036677267
48	0xbd6c28a0	-0.05765593
49	0xbdf2ba02	-0.118518844
50	0xbc39f110	-0.011348978
51	0x3d3787df	0.04480731
52	0xbddad00a	-0.106842116
53	0xbdd467f2	-0.103713885
54	0xbd90eed1	-0.070768006
55	0xbbc78fd3	-0.006090143
56	0xbd67147d	-0.056416024
57	0x3d27f2fb	0.04100321
58	0xbd6541a2	-0.055970795
59	0xbc525ebb	-0.012839968
60	0xbc8d3c37	-0.017240627
61	0x3d217f0a	0.039427795
62	0xbb6bcbd3	-0.0035979643
63	0xbd8d4aa6	-0.06899004
64	0x3bf4d5d0	0.0074717775
65	0x3cb60195	0.022217551
66	0x3ceaa9d0	0.028645426
67	0xbd683a5a	-0.056696273
68	0xbd2f6049	-0.042816434
69	0xbdae4fbc	-0.08511302
70	0xbd3cac70	-0.046062887
71	0x3d8722db	0.06598445
72	0xbc1e0368	-0.009644367
73	0xbb5bd958	-0.0033546295
74	0x3ca1ae4f	0.019736437
75	0xbd5cdf05	-0.053923625
76	0xbc48675b	-0.012231673
77	0x3b9be098	0.0047569983
78	0x3d62864a	0.05530385
79	0xbb466cd4	-0.003027727
80	0xbbe2a070	-0.0069160983
81	0x3c7540db	0.014969076
82	0x3cdbb60d	0.026820207
83	0xbd35a852	-0.044349976
84	0xbdb7e0e6	-0.08978443
85	0x3d153c5a	0.03643451
86	0xbbe1d1d7	-0.00689147
87	0x3ddcbb63	0.10777929
88	0x3d23ffac	0.04003875
89	0x3c3fd26f	0.011707886
90	0x3c462c44	0.012095515
91	0xbc2ea5c2	-0.010659637
92	0xbaf22b00	-0.001847595
93	0x3c59462f	0.013261362
94	0x3d239564	0.039937392
95	0x3c891883	0.01673532
96	0x3da239cb	0.079211794
97	0x3c8fba82	0.017544989
98	0x3cef651d	0.02922302
99	0x3c4dbc2a	0.012557069
100	0x3d32cc15	0.04365166
101	0xbbcd712f	-0.006269596
102	0xbc9f615b	-0.019455602
103	0xbd859e48	-0.065243304
104	0x3b0103e0	0.0019686148
105	0x3b93a443	0.0045056655
106	0x3c924ad3	0.017857945
107	0x3a3fca8f	0.00073162554
108	0x3d5c6840	0.053810358
109	0xbdc5feab	-0.09667715
110	0x3abcdbbe	0.001440875
111	0xbd805717	-0.06266611
112	0x3bd60373	0.006531173
113	0xbd4f7d58	-0.050656646
114	0xbda8117f	-0.08206462
115	0x3d58e9a3	0.05295719
116	0x3cd35112	0.025795493
117	0xbbe0c74f	-0.006859697
118	0xbd0ba52f	-0.03409308
119	0x3dbdde53	0.092709206
120	0xbcd7ed48	-0.026358262
121	0xbcf427c5	-0.02980412
122	0xbc2af77c	-0.010434981
123	0xbd32a589	-0.043614898
124	0x3c89db9f	0.016828356
125	0x3bb98b05	0.0056623244
126	0x3cf76fe7	0.030204726
127	0x3c9611da	0.01831906
128	0x3d4c0257	0.04980692
129	0x3a94caa4	0.0011351896
130	0x3c0aab53	0.008463698
131	0x3c75a3b7	0.014992646
132	0xbcc2bc42	-0.023771409
133	0x3db8d9dd	0.09025929
134	0x3d2368a9	0.039894734
135	0xbbf1a54f	-0.0073744426
136	0x3cd7fe50	0.026366383
137	0x3db86845	0.09004263
138	0xbcdfec83	-0.027334457
139	0xbda0ffbf	-0.0786128
140	0x3d97e8c1	0.07417441
141	0xbbbfd9c8	-0.005854819
142	0x3c30e2af	0.010796233
143	0xbd0fe6ff	-0.035132404
144	0xbd09be8b	-0.03362898
145	0xbd780015	-0.060546953
146	0xbcf37e22	-0.02972323
147	0xbbad4777	-0.0052880603
148	0x3d3474ef	0.04405683
149	0xbd0b5a75	-0.034021813
150	0x3aa8ec20	0.0012887754
151	0x3db1a9cb	0.086749636
152	0xbc30a69d	-0.010781911
153	0xbc82ba7f	-0.015958069
154	0xbd519228	-0.051164776
155	0xbd9ed072	-0.077546015
156	0xbc637c1f	-0.013884573
157	0x3d348025	0.04406752
158	0xbd8d1ec8	-0.06890637
159	0xbd34d1af	-0.044145282
160	0x3bfa9013	0.0076465695
161	0xbdc36333	-0.09540405
162	0x3bd46c05	0.0064826035
163	0x3d95b093	0.073090695
164	0xbca5826c	-0.020203792
165	0x3cbc682c	0.022998892
166	0x3c655077	0.013996235
167	0xbbd6b272	-0.006552034
168	0xbd55b45b	-0.052173954
169	0x3d1673aa	0.0367314
170	0xbced1802	-0.028942112
171	0x3d20e573	0.03928132
172	0x3cc8b387	0.024499668
173	0x3dd27d6b	0.10277828
174	0xbe0bf528	-0.13667738
175	0xbd16c7ff	-0.036811825
176	0xbdba9835	-0.091110624
177	0x3c386648	0.0112548545
178	0x3c4fe977	0.01268994
179	0x3b7a3c67	0.0038182975
180	0xbd6228a8	-0.055214554
181	0x3c266c75	0.010157694
182	0x3c84cc5b	0.016210726
183	0xbdb56017	-0.08856218
184	0xbd924a73	-0.07143106
185	0xbd358708	-0.04431823
186	0x3c142436	0.0090418365
187	0xbdb188c6	-0.086686656
188	0xbc991433	-0.01868639
189	0x3c35a4a8	0.01108662
190	0x3c8a3dcb	0.016875168
191	0xbcb601da	-0.02221768
192	0xbdbbe563	-0.091746114
193	0xbc355776	-0.011068216
194	0x3d2648fd	0.04059695
195	0x3d44d938	0.04805872
196	0xbc109016	-0.008823415
197	0x3c88ff43	0.01672328
198	0x3d825e3b	0.06365629
199	0xba821238	-0.0009923643
200	0xbc9a2597	-0.018816752
201	0xbad6476f	-0.0016348193
202	0x3bc6767f	0.0060566063
203	0x3cd0a34d	0.025468493
204	0x3e002a40	0.12516117
205	0x3dca1e65	0.098690785
206	0xbd19cd8d	-0.037549544
207	0xbda5326b	-0.08066257
208	0xbd45959f	-0.048238393
209	0xbd6d731f	-0.057971116
210	0xbd2c318f	-0.04203945
211	0xbdf5b9b2	-0.11998309
212	0x3c6fd290	0.014637604
213	0x3d38cac9	0.045115266
214	0xbd4bc33b	-0.049746733
215	0xbd1daaff	-0.038493153
216	0xbd8af1a0	-0.067843676
217	0x3b415ab2	0.0029503522
218	0xbd41df4d	-0.047332097
219	0x3c94581b	0.018108418
220	0x3d1f55e2	0.038900264
221	0xbd160629	-0.03662697
222	0x3df95b12	0.121755734
223	0xbd3c9e2f	-0.046049293
224	0xbd4b3757	-0.049613323
225	0xbdb39e5b	-0.08770438
226	0x3d3ea57a	0.04654453
227	0xbaaa579b	-0.0012996079
228	0xbca1da2c	-0.019757353
229	0x3d8350ec	0.06411919
230	0x3d0f08dd	0.034920562
231	0xbd990836	-0.07472269
232	0x3d109bca	0.035304822
233	0xbdb2c4df	-0.087289564
234	0x3ce12e28	0.02748783
235	0x3c81f519	0.015863942
236	0x3c36a5fc	0.011147972
237	0x3d25e277	0.040499177
238	0xbcc32626	-0.023821902
239	0xbcbef1bb	-0.023308625
240	0x3cdd03fd	0.02697944
241	0x3da38565	0.07984427
242	0x3c7c8b3d	0.015414056
243	0xbc469439	-0.0121203
244	0xbd48d4b0	-0.04903096
245	0x3b2a5e77	0.0025996247
246	0xbce49ba7	-0.027906252
247	0xbdf6c24b	-0.12048777
248	0x3d420bee	0.04737466
249	0x3c98e69d	0.018664652
250	0x3ce52798	0.027972981
251	0xbd8a8c44	-0.06765035
252	0x3c269f99	0.010169887
253	0x3d01d062	0.03169287
254	0xbd0ce455	-0.034397442
255	0xbd1c140e	-0.038105063

conv1.bias f4 [32]
0	0xbccd4802	-0.02505875
1	0xbdacc1a9	-0.08435375
2	0x3d9384b2	0.07203044
3	0x3c5824a3	0.013192329
4	0xbd9b31d0	-0.0757786
5	0x3c727c43	0.014800134
6	0xbd5f848d	-0.05456977
7	0xbcfe82b7	-0.03106819
8	0x3c7afedb	0.015319551
9	0x3de6f895	0.11277882
10	0xbdbdf927	-0.09276038
11	0x3c8bd78b	0.017070552
12	0xbd2428d2	-0.04007799
13	0x3c3842c2	0.011246385
14	0x3cd0d92a	0.025494177
15	0x3d34a5c3	0.044103395
16	0xbc80567c	-0.015666239
17	0x3cc8c3d5	0.024507442
18	0xbd09eb02	-0.033671387
19	0x3b9a4713	0.0047081797
20	0x3c343543	0.010999027
21	0x3d721f8d	0.05911212
22	0xbd628ecd	-0.055311967
23	0xbd6bc157	-0.05755743
24	0xbd2b57b7	-0.0418317
25	0x3cf3f787	0.029781116
26	0xbd3b9143	-0.04579283
27	0x3d06bc23	0.032894265
28	0xbd9671d2	-0.07345928
29	0x3cf819e3	0.030285781
30	0xbcb73d49	-0.02236809
31	0x3d426990	0.047463953

conv2.weight f4 [64, 32, 3, 3]
0	0x3cb9a02c	0.022659384
1	0x3c43338b	0.011914144
2	0x3c6e46ba	0.01454323
3	0xbcc8664a	-0.024462838
4	0xbcaa90de	-0.020821031
5	0xbc8008f6	-0.015629273
6	0xbcc7add1	-0.024374874
7	0xbca61fea	-0.02027889
8	0xbcda9490	-0.026682168
9	0xbbdc75c3	-0.0067279055
10	0xbc41aefd	-0.011821506
11	0x3c4f0293	0.012634891
12	0xbd187745	-0.03722312
13	0xbca4dfc0	-0.020126224
14	0x3bc6fd1b	0.006072653
15	0xbc9f9b5b	-0.019483259
16	0xbaad73a6	-0.0013233318
17	0x3bf64765	0.007515835
18	0xbcbef776	-0.023311358
19	0xbcbbee7b	-0.022940865
20	0xbbc2beab	-0.0059431395
21	0xbc0080d6	-0.007843217
22	0xbd2dcbc7	-0.042430665
23	0xbcbc8fc7	-0.023017777
24	0xbc638a70	-0.013887987
25	0xbc9b5c7f	-0.018965004
26	0x3c6e1258	0.014530741
27	0xbcf7aafd	-0.0302329
28	0x3c8ce2cf	0.017197995
29	0xbc7ebe70	-0.0155483335
30	0xbb0a9384	-0.0021145055
31	0xbd1eda43	-0.03878237
32	0x3c617843	0.013761583
33	0xbd39d34d	-0.045367528
34	0xbccb3b47	-0.02480854
35	0x3b793d47	0.003803091
36	0xbc536bcd	-0.01290412
37	0xbccc53c7	-0.024942292
38	0xbbba0b84	-0.0056776423
39	0xbb89ff93	-0.004211375
40	0xbcb6ca78	-0.022313341
41	0xbb659c98	-0.0035035964
42	0xbc571103	-0.0131266145
43	0x3a94b8c6	0.0011346571
44	0xbabe5348	-0.0014520669
45	0xbd0785f5	-0.033086736
46	0x3c070450	0.008240774
47	0xbcec0e3d	-0.028815383
48	0xbba62fef	-0.005071632
49	0x3bde1a9d	0.006778075
50	0x3c864323	0.016389435
51	0xbc9fe5ca	-0.019518752
52	0x3ca263f5	0.019823054
53	0xbb5cdbc7	-0.0033700333
54	0xbccd58ba	-0.025066722
55	0xbabd3f47	-0.0014438414
56	0xbcaf33ec	-0.021387063
57	0xbd066be2	-0.03281773
58	0x3c5c8873	0.013460266
59	0xbc098ae5	-0.008394931
60	0xbbeda425	-0.0072522336
61	0xb928fdc4	-0.00016116264
62	0x3b5e89c0	0.0033956617
63	0xbc973a5b	-0.018460443
64	0x3ca31770	0.019908637
65	0x3c05d7d3	0.008169132
66	0xbc8de821	-0.017322602
67	0xbb5a4957	-0.0033307874
68	0x3bd42587	0.0064742
69	0xbc7b2b1b	-0.015330101
70	0xbc9a4b1f	-0.018834649
71	0x3a3698e9	0.00069655344
72	0x3cb23187	0.021752132
73	0xbbc97167	-0.006147552
74	0xbc89659b	-0.016772082
75	0x3c5e46e5	0.013566707
76	0xbc4c443b	-0.012467439
77	0xbc58b705	-0.013227229
78	0xbc8c97a4	-0.017162152
79	0x3b8cdf8a	0.004299109
80	0xbc51c0cd	-0.012802315
81	0xbca8c92f	-0.020603744
82	0xbcd48995	-0.02594451
83	0x3c21e1ee	0.009880526
84	0x3c34dffd	0.011039731
85	0x3c63a080	0.013893247
86	0xbc300073	-0.010742295
87	0xbc942933	-0.018086052
88	0xbc1518a3	-0.009100112
89	0xbca191fc	-0.019722931
90	0xbc865a60	-0.016400516
91	0xbc3db435	-0.011578609
92	0x3ca137d5	0.019679943
93	0x3c7294f7	0.014806024
94	0xbc28407d	-0.010269281
95	0xbbb61979	-0.005557236
96	0xb9d309b2	-0.0004025228
97	0xbc23444f	-0.0099650165
98	0xbc6fe95d	-0.0146430405
99	0xbc153175	-0.00910603
100	0xbacf42d3	-0.0015812762
101	0xbb9c0db1	-0.0047623743
102	0xbd24d7b9	-0.04024479
103	0xbcfe966f	-0.031077592
104	0xbca6ea95	-0.02037553
105	0xbd0ef8ec	-0.03490536
106	0xba0b0bb3	-0.00053041725
107	0xbcc17b48	-0.023618355
108	0x3c43e477	0.011956326
109	0x3ba61b82	0.005069197
110	0xbb4769c7	-0.0030428038
111	0xbc6bd30b	-0.014393578
112	0xbc1590bf	-0.009128748
113	0xbc20ab1d	-0.009806422
114	0x3c90e830	0.01768884
115	0xbb72882d	-0.0037007437
116	0xbcb7db07	-0.022443308
117	0x3c14a9ba	0.009073669
118	0xbb890dcb	-0.0041825525
119	0xbc53c767	-0.012925959
120	0xbcd00eab	-0.02539762
121	0xbca0d715	-0.01963381
122	0xbc9ca9cb	-0.019123932
123	0xbd2c8bf8	-0.042125672
124	0xbc3da17c	-0.011574145
125	0xbc5c07f0	-0.013429627
126	0xbced1133	-0.028938865
127	0xbc39e89f	-0.011346965
128	0xbad1e13d	-0.0016012561
129	0xbbac4510	-0.0052572563
130	0xbc4a7087	-0.01235593
131	0x3c281527	0.010258949
132	0xbd147219	-0.036241625
133	0xbb27b1cb	-0.002558815
134	0x3bd729e5	0.0065662735
135	0xbd134996	-0.03595885
136	0x3b14d440	0.0022709519
137	0x3bc68d15	0.0060592988
138	0xbc080a70	-0.00830327
139	0xbd048e52	-0.03236229
140	0x3aa343df	0.001245614
141	0xbc31520b	-0.010822783
142	0x3c28588d	0.010275018
143	0x3c99be68	0.01876755
144	0xbbf0c143	-0.0073472573
145	0xbb071065	-0.0020609137
146	0xbc8d03f0	-0.017213792
147	0x3cbf1a4b	0.023327967
148	0xbc04e17f	-0.008110403
149	0x3a99e618	0.0011741547
150	0x3c439ff3	0.01193999
151	0xbcf976b8	-0.030452117
152	0xbc5a763a	-0.0133338515
153	0xbc0a7d2d	-0.008452696
154	0xbb6b1597	-0.0035871023
155	0xbc8324cf	-0.016008763
156	0xbc111e44	-0.008857314
157	0xbc05128a	-0.008122096
158	0xbb088686	-0.0020832135
159	0xbbd6dfcd	-0.006557441
160	0xbcf7f488	-0.030267969
161	0xbbacbb9e	-0.005271389
162	0xbc290c40	-0.010317862
163	0xbbdf92e3	-0.00682293
164	0xbca2e781	-0.01988578
165	0xbb243d9d	-0.0025061138
166	0x3be9c1ed	0.0071337135
167	0x3c248d84	0.010043506
168	0xbc7001da	-0.014648879
169	0xbc5b96d0	-0.013402656
170	0x3af6fa1f	0.0018842852
171	0xbbdad3e5	-0.006678092
172	0xbc3ce33f	-0.011528789
173	0x3aac5337	0.0013147359
174	0xbbef4787	-0.007302228
175	0x3c95982b	0.018261036
176	0x3c83c7d2	0.016086493
177	0xbbef0443	-0.007294209
178	0xbc77ad6a	-0.015117029
179	0xba213cda	-0.000615073
180	0xbcf70e88	-0.030158296
181	0x3c363c87	0.011122829
182	0x3b0bbee5	0.0021323499
183	0xbbc08679	-0.0058754054
184	0xbce46cdd	-0.027883941
185	0xbc4a184a	-0.0123348925
186	0xbcd8a0e5	-0.026443908
187	0x3b9c7bce	0.004775501
188	0xbc05c1b0	-0.0081638545
189	0xbcb545a7	-0.02212794
190	0x3c3b3bea	0.011427859
191	0xbc436637	-0.011926225
192	0xbcee11ea	-0.029061276
193	0xbc7cd86d	-0.015432459
194	0xbcae76c2	-0.021296863
195	0xbcd1c770	-0.025607795
196	0x3c1e5e26	0.009666001
197	0xbc814d58	-0.01578395
198	0xbcb2099a	-0.021733094
199	0x380a1b4b	3.2927182e-05
200	0xbc4ef570	-0.012631759
201	0x3c3904a3	0.011292609
202	0xbcaa0254	-0.020753063
203	0x3be199a0	0.0068847686
204	0xbc562afb	-0.013071771
205	0xbce264ca	-0.02763595
206	0x3c81ed23	0.015860146
207	0x3bbdc7bd	0.005791633
208	0x3c4a5332	0.012348937
209	0xbb75e0eb	-0.0037518095
210	0xbc594725	-0.013261591
211	0x3cd96e1f	0.026541768
212	0x3a620eb0	0.00086234044
213	0xbc8bc538	-0.017061815
214	0xbc0eaa85	-0.008707647
215	0xbd136043	-0.035980474
216	0xbb965784	-0.0045880694
217	0xbce5a6db	-0.028033664
218	0x3ae1d180	0.0017228574
219	0x3c154339	0.009110265
220	0xbbd95127	-0.0066319886
221	0x3c2fb3c3	0.010724011
222	0xbc7674b3	-0.015042472
223	0xbc4d161d	-0.012517479
224	0x3bb3be63	0.0054853423
225	0xbbb7441f	-0.0055928375
226	0xbcd188ea	-0.025577981
227	0x3c32447f	0.010880589
228	0xbc0e5126	-0.0086863395
229	0xbc4b29f7	-0.012400142
230	0x3c9be789	0.019031303
231	0xbc8b75ef	-0.017024009
232	0xbbcdaea3	-0.006276922
233	0x3cb6ad52	0.022299442
234	0xbc6d03b3	-0.014466214
235	0xbca6527f	-0.02030301
236	0x3c09b4dc	0.008404937
237	0x3c2bfc9a	0.010497237
238	0x3c21f537	0.009885124
239	0xbca7c420	-0.020479262
240	0xbcb5f833	-0.022213077
241	0xbc0b8013	-0.008514422
242	0xbcd322aa	-0.025773365
243	0xbc2d4825	-0.010576283
244	0xbc1aecdb	-0.009455885
245	0xbd145275	-0.03621145
246	0xbc974b63	-0.018468564
247	0xbc92adab	-0.017905077
248	0xbb9a9011	-0.004716881
249	0xbc621428	-0.013798751
250	0xbc1a9a7f	-0.009436249
251	0xbc512060	-0.012764066
252	0xba5be8ba	-0.0008388866
253	0x3bcf51cd	0.00632689
254	0xbba1b420	-0.0049348027
255	0xbc083fd7	-0.008316002

conv2.bias f4 [64]
0	0xbc1e967f	-0.009679436
1	0xbcc8d90c	-0.024517559
2	0x3c8d62ba	0.01725899
3	0xbca9a975	-0.020710686
4	0xbb07e3e1	-0.0020735192
5	0xbc7c6630	-0.015405223
6	0xbc8c6b69	-0.01714106
7	0xbc5414b2	-0.012944387
8	0xbc9c54ec	-0.019083463
9	0xbbbfe639	-0.005856302
10	0xbc709e2d	-0.01468615
11	0xba59826f	-0.0008297329
12	0xbd1a4f63	-0.037673365
13	0xbc7be6e2	-0.015374871
14	0xbc120f0c	-0.00891472
15	0xba6a3447	-0.00089341815
16	0xbc2f2bf7	-0.010691634
17	0x3cc299fb	0.023755064
18	0xbc0bd824	-0.008535419
19	0x3c0f3fe0	0.008743256
20	0x3b30216f	0.0026875397
21	0xb820f5ef	-3.8376016e-05
22	0xbc852abd	-0.01625573
23	0xbbdbb2f0	-0.0067046806
24	0xbceeee92	-0.029166494
25	0xbc4c39b0	-0.012464926
26	0xbcf1c96b	-0.029514989
27	0x39233ebf	0.00015568266
28	0xbc472967	-0.012155867
29	0x3c9788fc	0.018497936
30	0x3bc6e98f	0.006070323
31	0xbca56d62	-0.02019376
32	0xbc90c4cb	-0.017671963
33	0x392c5848	0.00016436086
34	0xbce1253a	-0.027483571
35	0xbc99df57	-0.018783255
36	0xbcc577a8	-0.024104908
37	0xbc6cbaaa	-0.014448801
38	0xbbf1cb5f	-0.00737898
39	0xbd3a5ad0	-0.04549676
40	0x3b07f180	0.002074331
41	0xbc218ee7	-0.009860731
42	0xbb7154d3	-0.003682424
43	0x397a11cf	0.00023848492
44	0xbc2142ab	-0.009842555
45	0xbba2ed8c	-0.0049721655
46	0xbc2c021b	-0.010498549
47	0xbc353eb7	-0.011062316
48	0x3c97226c	0.01844903
49	0xbb9ceb64	-0.004788803
50	0xbc03dc8b	-0.008048187
51	0xbaac855c	-0.0013162303
52	0xbc455f5d	-0.012046662
53	0xbb720500	-0.003692925
54	0xbc70ebd7	-0.014704666
55	0x3b4e5cbd	0.0031488382
56	0x3c1d22d0	0.0095908195
57	0xba4aca3b	-0.0007735823
58	0xbc8eb6cb	-0.017421147
59	0x3b6844cd	0.00354414
60	0x3aef5058	0.0018258197
61	0xbcb92214	-0.022599258
62	0xbba5b8f3	-0.005057448
63	0x3bde2d2b	0.006780287

fc1.weight f4 [64, 2304]
0	0xbb914a61	-0.0044339155
1	0xbc8d36f9	-0.017238127
2	0xbc2dd149	-0.0106089795
3	0xb8a26b0e	-7.7447025e-05
4	0xba8c1833	-0.0010688364
5	0xbc62ff00	-0.013854742
6	0xbc7cb63a	-0.015424306
7	0x3c0adbba	0.008475238
8	0xbc5be600	-0.0134215355
9	0x3ba02833	0.0048876046
10	0xbc0e3ddf	-0.008681743
11	0xbbd5fc1a	-0.006530297
12	0xbc2aa27b	-0.010414715
13	0xbba0d1e0	-0.0049078315
14	0xb9267feb	-0.00015878647
15	0xbbfa4a2a	-0.0076382356
16	0xbb81fac2	-0.0039666602
17	0x3b2f0fa8	0.0026712213
18	0xbb902b4e	-0.0043996936
19	0xbb290c8b	-0.002579483
20	0xbb0d4815	-0.0021557857
21	0x3951b04a	0.00019997466
22	0xbb5c8080	-0.0033645928
23	0xbb8d9947	-0.0043212506
24	0x3baa2249	0.0051920754
25	0xbc5679a0	-0.013090521
26	0x3921ecaa	0.00015442321
27	0xbb75b662	-0.0037492742
28	0xbad36e1a	-0.0016130835
29	0xbc0ad2c2	-0.0084731
30	0xbb91226f	-0.0044291536
31	0xbc255be6	-0.010092711
32	0x3b3e31cb	0.0029021378
33	0xbb94ab4f	-0.004537023
34	0x3b9537e8	0.0045537837
35	0xbc48066f	-0.012208565
36	0x3b4e7b8b	0.0031506743
37	0xbb0d9968	-0.002160633
38	0xbb75a0cd	-0.0037479878
39	0x3a176965	0.0005775898
40	0x3a170e9f	0.00057623716
41	0xbc1b25f3	-0.009469497
42	0xbc4a5c21	-0.012351067
43	0xbb84f873	-0.004057938
44	0xbbd64157	-0.006538551
45	0xbbde684f	-0.006787337
46	0xbbaf81e7	-0.0053560617
47	0x3b7683df	0.0037615222
48	0x3ae84300	0.0017720163
49	0xbba4d91a	-0.0050307633
50	0xbc810d83	-0.015753513
51	0x3b328234	0.0027238252
52	0xbba9bb53	-0.0051798015
53	0xbb67f11d	-0.0035391517
54	0xbc03e63b	-0.008050497
55	0x3bb97793	0.0056600063
56	0xbc0b1a93	-0.0084902225
57	0xbbe07db7	-0.006850924
58	0xbbb82287	-0.0056193504
59	0x3c1db874	0.009626497
60	0xbb387bef	-0.0028150042
61	0xbb84d8b7	-0.0040541547
62	0xbb75c04f	-0.0037498658
63	0xbc8ac19d	-0.016938025
64	0xba1a9297	-0.00058964774
65	0x39c27790	0.00037091644
66	0x3bbe9e21	0.0058171903
67	0xbb1ef16a	-0.002425278
68	0xbbd1edd8	-0.006406527
69	0x3a9d33af	0.0011993552
70	0xbc11ea35	-0.008905937
71	0xba873a6f	-0.0010317097
72	0xbb9fb9cb	-0.004874443
73	0x3ac7a7f2	0.0015232547
74	0x3c120d58	0.008914314
75	0xbb288065	-0.0025711295
76	0x3b4c8365	0.0031206247
77	0xb890e3db	-6.9088965e-05
78	0xbbbd238f	-0.005772061
79	0xbc0002cd	-0.007813168
80	0xbbdf6c40	-0.0068183243
81	0xbc270cfe	-0.010195969
82	0x3b517cc7	0.0031965242
83	0xba841b4a	-0.0010078934
84	0xbbd7953d	-0.00657907
85	0x3bcad358	0.006189745
86	0x3b62e79a	0.0034622909
87	0xbb863855	-0.004096071
88	0xbbfedec5	-0.007778021
89	0x3c0aabec	0.008463841
90	0xb9358ffc	-0.00017315143
91	0xbbd5ac6a	-0.0065207975
92	0xbc2d0e22	-0.010562452
93	0xbb23d8aa	-0.0025000968
94	0xbb95047b	-0.0045476533
95	0x3ac2051d	0.0014802549
96	0xbbb12abc	-0.0054067057
97	0xbbb949b0	-0.005654536
98	0x3bc11eef	0.00589358
99	0xbbfa997f	-0.0076476927
100	0x3c16b5b7	0.009198598
101	0xbb721845	-0.0036940735
102	0xbb5ce753	-0.0033707216
103	0xbc733308	-0.01484371
104	0xbb23e362	-0.0025007357
105	0x393730df	0.00017470446
106	0x38c3e100	9.340234e-05
107	0xbc4d6cf0	-0.01253818
108	0xbb4222d7	-0.0029622817
109	0xbbe67bfb	-0.0070338226
110	0xbc23252b	-0.009957592
111	0xbbbf6a33	-0.0058415174
112	0xbb9d4a74	-0.0048001353
113	0xbaa07583	-0.0012242052
114	0xbc5e1965	-0.013555859
115	0xbb5915b8	-0.0033124518
116	0xbc06839a	-0.008210087
117	0xbb952475	-0.004551465
118	0xbc1cf7b3	-0.0095805405
119	0x3b12f213	0.002242212
120	0xbc25cc3e	-0.010119496
121	0xbb39e3d7	-0.0028364563
122	0x3b9843ab	0.0046467385
123	0x39514e9d	0.00019961079
124	0xbb8412af	-0.0040305476
125	0xbba2028c	-0.0049441513
126	0xbc0e2a57	-0.008677087
127	0xbba72c83	-0.0051017418
128	0xbc09bb84	-0.008406524
129	0xbb871e7a	-0.004123506
130	0xbba90197	-0.00515766
131	0x3a3d4579	0.000722013
132	0xbbaf7af0	-0.0053552315
133	0x3ad21dc7	0.0016030603
134	0xbb611e0d	-0.0034350187
135	0xbc0a97ca	-0.008459041
136	0x3ac84c14	0.0015281462
137	0x3a8bd626	0.001066868
138	0xba719617	-0.00092157855
139	0xbb772c68	-0.0037715677
140	0xbb60b42a	-0.0034287074
141	0xbafdc1ca	-0.0019360122
142	0xbb5ad428	-0.0033390615
143	0xbb3d59c5	-0.0028892618
144	0xbac1b742	-0.0014779347
145	0xbc576bdf	-0.013148277
146	0xbb99c60c	-0.0046927985
147	0x3a1dde3b	0.00060221896
148	0xba97fbfd	-0.0011595484
149	0xbb687acb	-0.003547358
150	0x3aaa5955	0.0012996594
151	0xbb6ee625	-0.0036453095
152	0x39ee797d	0.00045485413
153	0xbb378419	-0.002800232
154	0x3aece105	0.0018072432
155	0xbb995290	-0.0046790317
156	0xbbdf5a93	-0.006816217
157	0x3a5739ad	0.00082101935
158	0xba8d5e67	-0.001078558
159	0xbb85d9ab	-0.004084786
160	0xbab2f6c7	-0.0013653868
161	0x3a74c522	0.00093372364
162	0xbb629ca7	-0.0034578235
163	0xbc37ef65	-0.01122651
164	0xb832c3da	-4.2620908e-05
165	0xbb3d99e8	-0.0028930847
166	0x3b2e4bc4	0.0026595453
167	0x3bb0946b	0.0053887866
168	0xbb065a30	-0.0020500533
169	0xbbd48562	-0.006485627
170	0xbbcd19fd	-0.0062592016
171	0x3baf398a	0.0053474354
172	0xbc454e65	-0.0120426165
173	0xbc3949fb	-0.011309142
174	0xba813371	-0.000985725
175	0xbc840365	-0.0161149
176	0x39a883d3	0.00032141674
177	0xbbf6815d	-0.0075227455
178	0x3b2c1c02	0.002626181
179	0x3b173597	0.0023072714
180	0x3a0a6bb5	0.0005280332
181	0xbc1e728e	-0.009670867
182	0x3c1b2897	0.009470127
183	0xbac64c1e	-0.0015128886
184	0x3b442fa0	0.0029935613
185	0xbb08a6b3	-0.0020851314
186	0x3990e248	0.00027634413
187	0x3becc9e7	0.007226217
188	0xbbab988e	-0.005236692
189	0xbb585158	-0.003300747
190	0x39bef93a	0.00036425312
191	0x39930ac4	0.00028046046
192	0x3afe72b7	0.001941285
193	0x3bff10fa	0.007784006
194	0xbb83ab7a	-0.0040182443
195	0xb9c61ef0	-0.00037788553
196	0xbb5674aa	-0.0032723346
197	0xbc3033ba	-0.01075452
198	0xbb267014	-0.0025396394
199	0xbc68d007	-0.014209754
200	0xbc7baba5	-0.015360747
201	0xbb87653c	-0.004131941
202	0x3b67712f	0.0035315265
203	0xbc841ff4	-0.016128518
204	0xbadc6ebf	-0.0016817673
205	0xbbb094d2	-0.0053888345
206	0xbc319873	-0.010839569
207	0xbc1e6830	-0.009668395
208	0xbc16644a	-0.009179184
209	0xbabc82c0	-0.0014382228
210	0xbafb4bf3	-0.0019172415
211	0x3b7f587d	0.0038962655
212	0xbbaed3b7	-0.005335297
213	0xbc0631a1	-0.008190543
214	0xbbf6dc5f	-0.0075335945
215	0xbc041ff4	-0.008064259
216	0x3be87928	0.007094521
217	0x3a9d0f67	0.001198274
218	0x3b10e853	0.0022111132
219	0xbba5ae01	-0.0050561433
220	0x3b98fd5d	0.004668875
221	0xbbdcec2d	-0.0067420215
222	0xba576b2b	-0.00082175684
223	0x3bc45c6b	0.0059924624
224	0xbb8b9a3b	-0.004260329
225	0x3bddd960	0.006770298
226	0x3b166c9e	0.0022952924
227	0x3c08169a	0.00830617
228	0xbb570202	-0.0032807593
229	0xba57f0d3	-0.0008237485
230	0x3b4afa01	0.0030971768
231	0xbc0f638f	-0.008751764
232	0x38dfcfff	0.00010672211
233	0xbc3d8b1a	-0.011568809
234	0xbc369c27	-0.011145628
235	0x3a377047	0.00069976266
236	0xbbfea34b	-0.007770931
237	0xbc1209ec	-0.008913498
238	0x3b457feb	0.003013606
239	0xbb89403f	-0.004188567
240	0xba95f5c2	-0.0011441039
241	0xbc4cd188	-0.012501128
242	0xbc17206f	-0.009224041
243	0xbaf18003	-0.0018424991
244	0xbaca74a6	-0.0015446141
245	0xbc0a2071	-0.008430586
246	0xbaf49dc7	-0.0018662744
247	0xb9ea6503	-0.00044707218
248	0xbbca520b	-0.006174331
249	0xbb92764f	-0.00446967
250	0xbbf4b073	-0.0074673234
251	0xbc610652	-0.013734417
252	0xb98686f3	-0.00025659017
253	0xbbedf227	-0.007261533
254	0xbc118230	-0.008881137
255	0x3bcdbd78	0.00627869

fc1.bias f4 [64]
0	0x3b8d876f	0.0043191235
1	0xbac3eb10	-0.0014947373
2	0xb9322e8a	-0.0001699274
3	0xbaa9a512	-0.0012942872
4	0xbb81f5ea	-0.003966083
5	0xbad100f8	-0.0015945723
6	0x3c12896b	0.008943896
7	0xbbfc73fd	-0.0077042566
8	0x3b80bf31	0.003929042
9	0x3b918e9f	0.0044420506
10	0xb9478afb	-0.00019029893
11	0x3b15c383	0.002285213
12	0x3bb5e627	0.005551118
13	0xbc838fe2	-0.01605982
14	0xbc5d908a	-0.01352323
15	0xbb92c5a6	-0.004479128
16	0xbb921fcf	-0.0044593583
17	0x3be84e3a	0.0070894035
18	0xbc63d29a	-0.013905192
19	0x3bd93b9b	0.00662942
20	0xbbd3020b	-0.0064394525
21	0xbc534b4f	-0.012896373
22	0xbc1a468f	-0.009416237
23	0x3bec23d3	0.007206419
24	0x3c0478ff	0.008085488
25	0x3b39df6b	0.0028361927
26	0x3bb83e67	0.0056226733
27	0xb9b2a98d	-0.0003407713
28	0x3b8f250e	0.004368431
29	0xbab4699d	-0.0013764385
30	0xba7440cb	-0.0009317516
31	0xbb439d47	-0.0029848383
32	0x3aa2f752	0.0012433326
33	0xbabc246c	-0.0014354116
34	0xba277090	-0.00063873176
35	0xbb094495	-0.002094542
36	0xbb716ab3	-0.003683728
37	0x3ae0fa1a	0.001716438
38	0xbc0c4dc2	-0.008563461
39	0xbc5cdb4b	-0.013480018
40	0x3b1cf66f	0.0023950597
41	0xbbbd174d	-0.0057706
42	0x3ae2c860	0.0017302148
43	0xbc38008f	-0.011230602
44	0xbc16364b	-0.009168218
45	0x3bc964a6	0.0061460314
46	0x3babce62	0.0052431086
47	0x3a460373	0.00075536146
48	0x398c2758	0.00026732194
49	0xbc3e9d1e	-0.011634139
50	0x3ba97390	0.005171247
51	0xbc2146ae	-0.0098435115
52	0x3aa88ef7	0.001285999
53	0x3b9c94df	0.004778489
54	0xb91285ce	-0.00013973491
55	0x3b937bc9	0.0045008403
56	0x3b698237	0.0035630593
57	0x3b99c187	0.0046922597
58	0x3b15f7e7	0.0022883357
59	0xbb091f9b	-0.002092338
60	0xbbea0637	-0.007141854
61	0x3aeedbf2	0.0018223508
62	0x38ff9a73	0.00012188116
63	0xbb246f50	-0.0025090761

fc2.weight f4 [10, 64]
0	0x3d06c34e	0.0329011
1	0xbca3afa9	-0.019981222
2	0xbc92ea17	-0.017933888
3	0xbc1e080b	-0.009645472
4	0x3caa2507	0.02076961
5	0xbd304f15	-0.04304417
6	0x3c3f6b5a	0.011683309
7	0x3d438d4f	0.047742184
8	0x3c76d5d7	0.015065632
9	0x39b5bd96	0.00034664263
10	0x3c8bf2e7	0.017083598
11	0xbd80ace6	-0.06282978
12	0xbd4d4cf0	-0.0501222
13	0x3d122e0b	0.03568844
14	0x3cc0b341	0.023522975
15	0x3ab721ba	0.0013971843
16	0xbcbf5a1b	-0.023358395
17	0x3cbab698	0.022792146
18	0xbcc3c61b	-0.023898175
19	0xbb126fd8	-0.0022344496
20	0x3c178574	0.009248126
21	0xbd414d97	-0.047193136
22	0xbc81f2df	-0.01586288
23	0xbd3ea63b	-0.04654525
24	0x3c3d58ba	0.011556799
25	0xbcba1ad3	-0.022717869
26	0xbb24f876	-0.0025172508
27	0xbcab6fe0	-0.02092737
28	0x3d3862ca	0.045016088
29	0x3d3f7677	0.046743836
30	0xbd4e07ef	-0.050300535
31	0xbcaf61e7	-0.021408988
32	0x3cd1150b	0.02552273
33	0x3d7a465f	0.061102267
34	0xbc39872d	-0.011323732
35	0xbd17091f	-0.036873933
36	0x3d48d8b9	0.049034808
37	0xbd48fddf	-0.049070235
38	0xbcaace59	-0.020850347
39	0xbd281ccc	-0.041043088
40	0xbc7e2d00	-0.0155136585
41	0x3c97df4d	0.018539095
42	0x3d4d30b5	0.05009528
43	0x3d804a7f	0.06264209
44	0xbcb70e72	-0.022345755
45	0xbbcbf885	-0.006224694
46	0xbc9a9453	-0.018869555
47	0xbd18f28d	-0.03734069
48	0x3d0eb4aa	0.034840263
49	0x3d2534b9	0.040333483
50	0xbd397c28	-0.04528442
51	0x3b93ab26	0.0045064865
52	0x3bad5bf0	0.005290501
53	0xbdaac607	-0.08338552
54	0xbb2cbd42	-0.0026357924
55	0x3d15cb62	0.036570914
56	0x3bac0cbb	0.005250541
57	0x3d0725c7	0.03299501
58	0xbceeb15f	-0.029137312
59	0x3c9bf637	0.019038303
60	0x3c457c0b	0.0120535
61	0xbd0852d5	-0.03328212
62	0xbc598ca5	-0.013278161
63	0xbc3e9ee4	-0.011634562
64	0xbc68e097	-0.014213703
65	0xbd34fcad	-0.044186283
66	0x3c299e5f	0.0103527
67	0xbcaae95a	-0.020863224
68	0xbb479937	-0.0030456313
69	0xbc14caf1	-0.009081588
70	0x3c67634d	0.014122796
71	0xbc78ecab	-0.015193145
72	0xbc3af3c0	-0.011410654
73	0x3ab8dd3d	0.001410402
74	0x3c5339a7	0.012892163
75	0x3c60810d	0.013702643
76	0x3be4cb45	0.0069822394
77	0xbb58826d	-0.0033036724
78	0xbbe80a8a	-0.0070813345
79	0x3ca61d6c	0.020277701
80	0x3ca13702	0.01967955
81	0xbd50564f	-0.05086356
82	0xbc597357	-0.013272128
83	0xbd11d473	-0.035602998
84	0x3d1bdcf3	0.03805251
85	0xbc8881c4	-0.01666344
86	0x3c134c90	0.008990422
87	0x3bf55287	0.0074866447
88	0x3c239a80	0.009985566
89	0xbd1583c9	-0.036502633
90	0x3cddaf6a	0.027061183
91	0xbaef50a7	-0.0018258289
92	0xbcd19910	-0.025585681
93	0x3cd2b643	0.025721675
94	0xbd428e9f	-0.047499295
95	0x3cac5b81	0.021039726
96	0xbd4b00c8	-0.049561292
97	0x3c54d510	0.012990251
98	0xbd4139eb	-0.047174376
99	0xbd4ff003	-0.050766002
100	0x3d71c907	0.059029605
101	0x3d016fe6	0.031600855
102	0x3b18ca53	0.0023313954
103	0x3acd1807	0.001564742
104	0xbd6ec168	-0.058289915
105	0xbc37299b	-0.011179353
106	0xbd3aab0f	-0.04557329
107	0x3c52a6da	0.012857163
108	0x3c9511f3	0.018197035
109	0xbd3ca203	-0.046052944
110	0x3d02011c	0.03173934
111	0x3cad60f2	0.021164391
112	0xbc94cf15	-0.01816515
113	0x3dab19ed	0.08354554
114	0xbaa628a3	-0.0012676906
115	0xbc933cf3	-0.017973399
116	0xbcc89b2a	-0.02448805
117	0x3bf5364f	0.0074832807
118	0x3d4e5b65	0.05038013
119	0xbd70baa8	-0.05877176
120	0x3cd2a520	0.025713503
121	0xbc0b9421	-0.008519203
122	0xbd10a65b	-0.0353149
123	0xbd4c0896	-0.049812876
124	0x3d23a55f	0.039952632
125	0x3c976adf	0.018483577
126	0x3d07ba93	0.033136915
127	0x3cef0703	0.029178148
128	0xbcad2fdb	-0.021140983
129	0xbc824c8d	-0.015905643
130	0xbba3de76	-0.0050008846
131	0xbd75045b	-0.059818607
132	0xbd816022	-0.06317164
133	0xbb115313	-0.002217476
134	0x3adea05a	0.0016985044
135	0xbb1ebfaa	-0.0024223127
136	0xbc465b2f	-0.012106701
137	0xbb6e1b70	-0.0036332272
138	0xb9c40fff	-0.0003739595
139	0xba99cd95	-0.0011734242
140	0x3ccadc1f	0.024763165
141	0x3d26dad8	0.04073605
142	0x3c6e56a3	0.014547023
143	0x3c0a5d97	0.008445165
144	0x3cd72795	0.026263991
145	0xbb7e9b13	-0.0038849756
146	0x3d1715a4	0.036885872
147	0x3d1aa658	0.037756294
148	0xbd6e4577	-0.058171716
149	0x3d2826ed	0.041052748
150	0x3cb5569d	0.022136027
151	0x3c994093	0.01870755
152	0x3d77b1ed	0.060472418
153	0x3bd3e0f3	0.006466025
154	0xbd4e0de2	-0.05030621
155	0x3c1882fc	0.009308573
156	0xbd8088fb	-0.06276127
157	0x3c65a410	0.014016166
158	0xb9f28972	-0.00046260242
159	0x3cfab687	0.030604614
160	0x3d14ef6f	0.036361154
161	0xbd3370a4	-0.043808594
162	0x3d34d0bd	0.04414438
163	0xbc36a97c	-0.011148807
164	0xba90a4d5	-0.0011035452
165	0xbce611c5	-0.028084645
166	0xbd55990f	-0.05214792
167	0xbc5724fb	-0.013131375
168	0xba06b52f	-0.0005138693
169	0x3c9e129a	0.01929598
170	0xbcbadd0e	-0.022810485
171	0x3baa0705	0.005188825
172	0x3b9891e1	0.004656062
173	0xbb515133	-0.0031939268
174	0xbd6b4433	-0.057438087
175	0x3d747bf2	0.059688516
176	0x3cc211c0	0.023690104
177	0x3c3de583	0.011590364
178	0x3cd30180	0.025757551
179	0x3d12dd93	0.03585584
180	0xbc254c45	-0.010088985
181	0xbc5ff0db	-0.013668264
182	0x3d0e7c18	0.034786314
183	0x3d2439ed	0.040094305
184	0xbcb6b5eb	-0.022303542
185	0xbd3aed9c	-0.04563676
186	0xbd103706	-0.035208724
187	0xbc480d3a	-0.012210185
188	0x3b4f2468	0.0031607393
189	0xbbdee9ea	-0.006802787
190	0x3c832a5d	0.016011411
191	0x3d35d3c5	0.044391412
192	0xbb001a44	-0.0019546906
193	0xbcba99f8	-0.022778496
194	0x3c191809	0.009344109
195	0xbd471023	-0.048599374
196	0x3c0d331b	0.0086181415
197	0x3c2b7662	0.010465236
198	0x3cc9b082	0.024620298
199	0x3c4e815d	0.012604085
200	0x3ce2d45b	0.02768915
201	0x3d7b8b67	0.06141224
202	0xbbd97a23	-0.0066368743
203	0xbca1c74b	-0.01974835
204	0xbb8f3be7	-0.0043711546
205	0xbcf703c3	-0.03015316
206	0x3c48b262	0.012249561
207	0x3c62d878	0.0138455555
208	0xbd25f375	-0.04051538
209	0xbbae42d6	-0.005318026
210	0x3ca8ef74	0.020621993
211	0x3c8263b2	0.015916679
212	0xbcb92a48	-0.02260317
213	0x3d4088c0	0.047005415
214	0x3d9e0ccb	0.07717284
215	0xbc92b97a	-0.017910708
216	0xbc3d2645	-0.011544769
217	0xbc02094a	-0.007936785
218	0xbd40e185	-0.047090072
219	0x3ac8eaf9	0.0015328816
220	0xbd225aa8	-0.039637238
221	0x3cbc7eb3	0.023009634
222	0xbb8c8dfe	-0.0042893877
223	0x3ad1f92b	0.0016019692
224	0x3bf2dffa	0.007411954
225	0x3b20f653	0.0024560883
226	0xbaeae2a0	-0.0017920323
227	0x3caa7472	0.020807479
228	0x3d755e27	0.059904244
229	0xbc0e7bc6	-0.008696502
230	0x3d3d2c9f	0.046185132
231	0x3cece5b3	0.028918123
232	0x3d0242bb	0.03180192
233	0x3c30bf36	0.010787776
234	0xbc8780d3	-0.01654092
235	0x3cd9d483	0.026590591
236	0x3c934216	0.017975848
237	0x3b775300	0.003773868
238	0xbc8c428b	-0.017121574
239	0x3c103f24	0.008804116
240	0xbc68f0df	-0.014217584
241	0x3cd8695d	0.026417429
242	0xbd193af9	-0.037409756
243	0x3cfbe7a0	0.030750096
244	0xbc379dbd	-0.011207041
245	0xbae67cd8	-0.0017584814
246	0x3d3fa435	0.04678746
247	0xbd110ca4	-0.035412446
248	0x3c9262be	0.01786935
249	0x3cd1c098	0.025604531
250	0x3c907f1b	0.017638734
251	0xbbd6f562	-0.0065600136
252	0x3d5ce142	0.05392576
253	0xbc914097	-0.017730994
254	0x3cd079f2	0.025448773
255	0xbd216eab	-0.03941218

fc2.bias f4 [10]
0	0xbce27ebb	-0.02764832
1	0x3c9e1a5b	0.019299677
2	0x3c8c30d9	0.017113136
3	0x3d32d6d7	0.04366192
4	0x3d36a57e	0.04459142
5	0x3bca7fbf	0.0061797793
6	0xbc48cd0d	-0.012255919
7	0xbd453c4f	-0.048153218
8	0x3d0948d4	0.03351672
9	0x3c971456	0.018442314
