torch_to_tf/torch_models/model_round179.model (torch, 493063 bytes, 10 tensors)

conv1.weight f4 [32, 3, 3, 3]
-0.04144012 -0.042008527 -0.09139579 -0.07147926 -0.023643829 -0.035481025 0.07275898 0.060616124
0.020876322 0.034001347 -0.052610286 -0.07368347 0.029718254 0.010019979 0.045002952 -0.016640646
-0.106683336 0.004988132 0.02828223 0.060341 0.08492699 -0.040043432 0.023620881 0.020635631
0.11814022 0.04149641 0.028927771 -0.045471754 -0.030943826 0.062515736 0.04568392 -0.03743288
0.029974034 -0.0016227438 0.03834283 0.025100002 -0.023377335 0.0048757936 0.05991587 -0.032184523
0.0068126507 0.02305768 0.0022125456 0.050803162 -0.007720697 -0.033686973 0.037032466 -0.041783113
-0.10407583 0.018064084 -0.011203276 -0.07825135 0.013332635 0.11732822 -0.06541043 -0.025520623
0.07819594 0.09241613 -0.04122966 -0.048976798 -0.031867646 0.10146401 -0.042550888 0.01595916
0.022497999 0.0092352955 -0.0076405867 -0.005432531 0.04370492 0.011130092 0.026218688 0.036301527
0.028311212 -0.05221018 0.020198248 0.10638714 0.00075256045 -0.009458046 -0.028664151 0.08644108
0.066093914 0.1439669 0.023490438 -0.09281941 0.012278204 0.017895686 -0.025371894 0.07693084
0.0070794905 -0.07046411 -1.03235025e-05 -0.06177792 0.08121372 0.042410508 -0.101032846 -0.051690515
0.021036765 -0.06524017 0.06320804 0.026973043 -0.045388337 -0.01855397 0.044357736 0.019671777
-0.0020796903 0.06160607 -0.025444893 -0.08598984 -0.0141222505 0.0053356565 -0.008084515 0.07866571
-0.028944781 0.063037865 -0.061642654 -0.04226062 0.057638228 -0.12862141 -0.002909885 -0.04986551
-0.027742742 -0.0052172006 -0.07498522 0.03263069 0.081950985 0.04515026 0.05689003 -0.023935428
-0.035564717 -0.043564595 -0.046377108 0.004009522 0.054734 0.07534647 -0.012157097 0.03740738
-0.013809589 0.08257777 0.035901338 0.016952265 0.07795726 -0.027790247 -0.07345923 0.042305004
-0.014962203 -0.09090278 0.09569346 0.013373545 0.017307699 -0.023426186 -0.06002524 -0.1292852
0.03154362 0.020874806 -0.09783127 0.07262392 -0.021249725 0.06779947 0.02384909 -0.027677957
0.01251445 -0.029895945 -0.04933493 -0.052180916 -0.054542 0.02582684 0.035059016 -0.044185333
-0.026243215 0.019290932 0.011184602 -0.049744494 0.07566395 0.030351102 0.06310983 -0.06849002
0.059943825 -0.022296613 0.040235337 0.052032966 0.038767826 -0.013299112 0.042542882 0.059735447
-0.019432634 0.1043536 0.04954229 -0.034800805 -0.003271738 -0.033589363 -0.026840556 0.05330373
-0.07798459 0.0052502565 -0.02207762 0.040236995 -0.0060607675 0.006727597 -0.007420254 0.012155905
-0.0066144527 0.08362575 -0.024417806 0.059169777 -0.013909342 0.026585577 -0.12433293 0.017635679
0.020319134 0.026323427 0.011429102 -0.0067852843 -0.08267933 0.073333636 -0.00010722881 -0.02890943
0.053117074 0.08613563 -0.0065885 0.043108273 0.017346187 -0.026872704 0.04537331 -0.021758242
0.032522652 0.056042265 0.1164423 0.07271736 -0.10112609 -0.047178235 -0.043999426 -0.06301975
-0.0043641697 0.044447698 0.032738656 0.09500426 -0.041405898 0.07747272 -0.02741764 -0.008106835
0.056587376 -0.11317205 -0.08304926 -0.088147245 -0.036140006 0.052662935 0.047451522 -0.0444715
-0.04828923 -0.04394214 0.036792915 -0.04578365 0.065351225 -0.012895661 0.015355477 0.055839438
00000000: 1ebd 29bd 2211 2cbd b72d bbbd b863 92bd
00000010: b4b0 c1bc 8d54 11bd a902 953d 9d48 783d
00000020: d204 ab3c ff44 0b3d e27d 57bd 5ce7 96bd
00000030: b273 f33c d72a 243c 0455 383d f751 88bc
00000040: cb7c dabd 7c73 a33b 23b0 e73c 2028 773d
00000050: 34ee ad3d 9504 24bd 9480 c13c 0e0c a93c
00000060: 80f3 f13d 24f8 293d eff9 ec3c 9740 3abd
00000070: e87d fdbc 4008 803d 101f 3b3d 3853 19bd
00000080: 1b8c f53c 3fb2 d4ba 5f0d 1d3d 859e cd3c
00000090: d381 bfbc 1fc5 9f3b 586a 753d ebd3 03bd
000000a0: a83c df3b 76e3 bc3c 5b00 113b fa16 503d
000000b0: e7fd fcbb 5afb 09bd 5baf 173d c524 2bbd
000000c0: b525 d5bd 21fb 933c f28d 37bc 3e42 a0bd
000000d0: 2071 5a3c c749 f03d e7f5 85bd a010 d1bc
000000e0: 3125 a03d ab44 bd3d 6fe0 28bd e59b 48bd
000000f0: a687 02bd 5dcc cf3d d749 2ebd c9bc 823c
00000100: b94d b83c a34f 173c e35d fabb 5f03 b2bb
00000110: ee03 333d fd5a 363c 93c8 d63c e9b0 143d
00000120: eaec e73c 57da 55bd cc76 a53c 80e1 d93d
00000130: 7a47 453a ecf5 1abc 15d1 eabc 0508 b13d
00000140: 3f5c 873d 0f6c 133e 056f c03c 1a18 bebd
00000150: 852a 493c f999 923c b8d8 cfbc eb8d 9d3d
00000160: 12fb e73b 7d4f 90bd 1b33 2db7 d80a 7dbd
00000170: 6153 a63d a4b6 2d3d 4fea cebd 6fb9 53bd
00000180: 4b55 ac3c a39c 85bd 3873 813d 92f6 dc3c
00000190: 1fe9 39bd 7ffe 97bc 75b0 353d b526 a13c
000001a0: 6a4b 08bb a556 7c3d cf71 d0bc 711b b0bd
000001b0: 0361 67bc bbd6 ae3b ea74 04bc 7d1b a13d
000001c0: 9b1d edbc ff19 813d 027d 7cbd 7919 2dbd
000001d0: 1016 6c3d 55b5 03be c5b3 3ebb c73f 4cbd
000001e0: bf44 e3bc 0df5 aabb da91 99bd c2a7 053d
000001f0: ebd5 a73d 7bef 383d 8505 693d 3b14 c4bc
00000200: 4fac 11bd ca70 32bd ecf5 3dbd 4f62 833b
00000210: c230 603d 404f 9a3d 902e 47bc 7b38 193d
00000220: 9d41 62bc 891e a93d 480d 133d 7adf 8a3c
00000230: 0ea8 9f3d 5fa8 e3bc cb71 96bd 0348 2d3d
00000240: 0724 75bc 3d2b babd effa c33d b71c 5b3c
00000250: e0c8 8d3c 46e8 bfbc 07dd 75bd 5763 04be
00000260: e233 013d a401 ab3c c35b c8bd dabb 943d
00000270: e713 aebc 73da 8a3d 2b5f c33c e2bc e2bc
00000280: 6809 4d3c 57e8 f4bc 6c13 4abd a8bb 55bd
00000290: 6f67 5fbd cf92 d33c 0b9a 0f3d aefb 34bd
000002a0: 03fc d6bc 0408 9e3c 9f3f 373c e2c0 4bbd
000002b0: b3f5 9a3d e0a2 f83c ba3f 813d 7f44 8cbd
000002c0: a887 753d 63a7 b6bc cfcd 243d 8520 553d
000002d0: 03cb 1e3d 85e4 59bc 7241 2e3d 28ad 743d
000002e0: 3031 9fbc 57b7 d53d dbec 4a3d 4a8b 0ebd
000002f0: a86a 56bb 0095 09bd bae0 dbbc 0355 5a3d
00000300: 62b6 9fbd 580a ac3b 20dc b4bc 8ccf 243d
00000310: 6799 c6bb 2d73 dc3b 9a25 f3bb 9029 473c
00000320: 0dbe d8bb fa43 ab3d da07 c8bc 025c 723d
00000330: 02e4 63bc ffc9 d93c 43a2 febd b378 903c
00000340: 5074 a63c 3aa4 d73c 2141 3b3c 1757 debb
00000350: c853 a9bd f22f 963d 07e0 e0b8 78d3 ecbc
00000360: 4a91 593d e167 b03d 58e4 d7bb 4d92 303d
00000370: 9719 8e3c 2524 dcbc 5dd9 393d 573e b2bc
00000380: 7936 053d 938c 653d 4d79 ee3d d7ec 943d
00000390: 321b cfbd f73d 41bd be38 34bd 8010 81bd
000003a0: 4f01 8fbb ca0e 363d f818 063d 9891 c23d
000003b0: 3b99 29bd 04aa 9e3d f59a e0bc 88d2 04bc
000003c0: 2ac8 673d bfc6 e7bd bb15 aabd 8b86 b4bd
000003d0: 8b07 14bd 17b5 573d 875c 423d bf27 36bd
000003e0: edca 45bd acfc 33bd 2bb4 163d a387 3bbd
000003f0: ddd6 853d 5348 53bc 8a95 7b3c e5b7 643d

conv1.bias f4 [32]
-0.021070436 -0.012025956 0.03261714 -0.018728888 -0.0682896 0.013752197 0.056193948 -0.012242866
-0.06551748 -0.052312046 0.06103077 -0.055366255 -0.03056544 -0.059578765 -0.034668464 -0.024137825
-0.010740966 0.038945716 0.05844025 -0.017987728 0.06959038 0.10461992 0.013558957 -0.0030078692
0.033069205 -0.13679868 0.09796261 0.049720425 0.060819566 -0.016327752 -0.021709368 0.018595774
00000000: e89b acbc 8408 45bc 8d99 053d 536d 99bc
00000010: 6bdb 8bbd e550 613c a02b 663d 4d96 48bc
00000020: 072e 86bd 2845 56bd 67fb 793d bac7 62bd
00000030: 6064 fabc dd08 74bd 8500 0ebd b0bc c5bc
00000040: e0fa 2fbc 8b85 1f3d 0b5f 6f3d 005b 93bc
00000050: 6785 8e3d f842 d63d 6326 5e3c ac1f 45bb
00000060: 9373 073d f414 0cbe 9fa0 c83d a5a7 4b3d
00000070: f01d 793d c7c1 85bc d8d7 b1bc 2a56 983c

conv2.weight f4 [64, 32, 3, 3]
0.009965348 -0.027164286 0.014438237 -0.008454965 -0.020734116 -0.0082089165 -0.0042150454 0.0045931004
0.000944383 0.02518713 0.0054839402 -0.0025210255 -0.03242019 -0.016005943 -0.019897295 -0.0025696238
0.0040403735 0.001354233 -0.012688725 -0.016831744 -0.017842794 0.007215043 0.0017082054 0.000337187
-0.025755003 -0.027756173 0.013148397 -0.014970285 -0.013709842 -0.01666529 -0.015811866 0.022314526
-0.020990623 4.869594e-06 -0.018537393 0.00038862944 0.032217383 0.0061059073 -0.015483782 0.0054785064
0.016196772 -0.011784135 -0.00059425546 -0.0011526685 -0.011023468 0.012468415 -0.012693249 0.020247335
-0.030668637 0.016135884 -0.015747376 0.012915035 -0.035107274 -0.023337666 -0.03656218 -0.027186072
0.0051227394 -0.005640915 -0.0025812853 -0.020871 0.02441953 -0.0077842297 0.003990928 -0.018394882
-0.0032987043 -0.018825926 -0.001438496 -0.03349424 -0.027587116 -0.013823244 0.003932668 -0.01719493
0.0060260855 0.010410586 -0.0036846437 0.009825588 -0.010453895 -0.015662022 -0.007871459 0.01106059
-0.022472925 -0.012868079 0.005482353 -0.026573524 0.016742975 -0.025187045 0.0010697403 0.019106923
-0.02762048 -0.03813899 -0.038481623 -0.013007787 0.0075342744 0.014271579 -0.010447136 0.0056507597
-0.0021766813 0.0014828633 -0.021788254 -0.026341766 0.022299279 -0.008157685 -0.014466152 -0.030370638
0.014202045 -0.032061964 -0.024490384 0.014833993 -0.025392031 0.0027805995 -0.0025748769 -0.001876385
-0.017641848 -0.009123096 -0.00089548127 -0.017057722 0.0005726985 -0.03282511 -0.010335388 -0.026824353
-0.01402282 -0.01789704 -0.0016784071 0.008477165 0.005420062 -0.01313627 -0.022685722 0.0022977085
-0.0046751644 -0.017029969 -0.025652809 -0.01654923 -0.012293027 -0.03151862 0.008568219 0.00012949912
0.013635035 -0.02228489 -0.017013103 -0.011647492 -0.015629867 -0.008912351 -0.022055743 -0.007540156
-0.02305566 -0.013101193 -0.028428003 -0.015000668 0.01889246 -0.0013936575 -0.0109125 -0.0073768357
-0.019844882 -0.009988825 -0.011182181 -0.013895119 0.007483866 0.009787436 -0.006915173 0.008023
-0.006851827 -0.011299508 -0.0068694986 0.015188289 0.017439483 -0.02895543 0.0023208638 -0.0025616307
-0.02644146 0.008732184 -0.022055168 -0.0046167565 -0.0049052187 -0.02420922 -0.0035878252 -0.017189167
-0.02791067 0.0009003593 -0.0020941244 0.034291472 -0.0024320276 -0.008909321 -0.022941677 -0.0038902126
-0.013696794 -0.0033065823 -0.014953122 0.0240985 -0.009386005 -0.020787988 -0.005417303 -0.0034884491
-0.018818079 -0.0030789238 0.018620526 -0.0059252866 0.018456288 -0.004440479 0.0009844893 0.015581711
-0.013304797 -0.0020850468 0.029290995 0.014382287 0.004506504 0.0119972695 -0.031131461 -0.018578975
-0.00045574424 -0.010743757 -0.025545914 -0.007851141 -0.00049990043 -0.009187474 0.029500637 0.018704122
-0.026647687 -0.03391309 -0.033621307 0.0133762825 0.017103052 -0.021008035 0.008632027 0.0052255215
0.0009671454 0.013383597 -0.0010250435 -0.0013760296 -0.010586782 -0.00027056178 -0.021727577 -0.010514277
-0.006264433 -0.02257735 0.0081841415 -0.0059312168 -0.035916593 -0.0013681831 -0.008856169 -0.010140219
-0.022629112 -0.027134264 0.0058706603 -0.0067885714 0.020116685 0.035417702 -0.0033437598 -0.022134835
-0.012121344 -0.004305571 0.0046450146 -0.029190421 0.004926096 -0.019954262 0.0044576125 -0.036604293
00000000: b345 233c a387 debc 5b8e 6c3c b286 0abc
00000010: 98da a9bc b17e 06bc 5d1e 8abb b881 963b
00000020: 7890 773a 3d55 ce3c a0b2 b33b ca37 25bb
00000030: 08cb 04bd e51e 83bc a7ff a2bc 2267 28bb
00000040: 1c65 843b 8580 b13a 5fe4 4fbc bae2 89bc
00000050: 0d2b 92bc 2b6c ec3b dde5 df3a 79c8 b039
00000060: 28fc d2bc ea60 e3bc 606c 573c ed45 75bc
00000070: 3f9f 60bc a585 88bc e387 81bc f4cc b63c
00000080: 87f4 abbc 7e65 a336 bbdb 97bc f6c0 cb39
00000090: 60f6 033d 1014 c83b b0af 7dbc 0b85 b33b
000000a0: 18af 843c 3f12 41bc cfc7 1bba 2315 97ba
000000b0: c79b 34bc 5348 4c3c 58f7 4fbc bddd a53c
000000c0: cb3c fbbc 672f 843c a400 81bc 9599 533c
000000d0: a5cc 0fbd a22e bfbc 39c2 15bd 53b5 debc
000000e0: a7dc a73b 6dd7 b8bb c82a 29bb a9f9 aabc
000000f0: 770b c83c da12 ffbb 55c6 823b ddb0 96bc
00000100: 132f 58bb d438 9abc eb8b bcba 4231 09bd
00000110: 60fe e1bc e37a 62bc 9cdd 803b 62dc 8cbc
00000120: 7876 c53b 2a91 2a3c 107a 71bb 81fb 203c
00000130: d046 2bbc a44d 80bc 4bf7 00bc 7a37 353c
00000140: 2419 b8bc a3d4 52bc 4fa5 b33b b8b0 d9bc
00000150: 9028 893c 1055 cebc 8736 8c3a 1f86 9c3c
00000160: 5844 e2bc a137 1cbd e89e 1dbd 9d1e 55bc
00000170: 13e2 f63b 57d3 693c 772a 2bbc 022a b93b
00000180: a7a6 0ebb a35c c23a 487d b2bc b0ca d7bc
00000190: faac b63c d0a7 05bc 7003 6dbc d8cb f8bc
000001a0: b2af 683c 6853 03bd 0fa0 c8bc 470a 733c
000001b0: f302 d0bc b83a 363b 44bf 28bb 08f1 f5ba
000001c0: a385 90bc 0a79 15bc bbbe 6aba a3bc 8bbc
000001d0: 2521 163a 9f73 06bd c255 29bc bfbe dbbc
000001e0: f8bf 65bc d09c 92bc fffd dbba cfe3 0a3c
000001f0: c79a b13b 8339 57bc 68d7 b9bc 2795 163b
00000200: 1f32 99bb 6f82 8bbc d725 d2bc 4092 87bc
00000210: b168 49bc ab19 01bd b761 0c3c 28ca 0739
00000220: 7b65 5f3c cd8e b6bc 105f 8bbc 1fd5 3ebc
00000230: 350a 80bc 1c05 12bc 3fae b4bc 6a13 f7bb
00000240: 39df bcbc 63a6 56bc d8e1 e8bc 5dc5 75bc
00000250: 5cc4 9a3c 63ab b6ba 58ca 32bc 62b9 f1bb
00000260: bc91 a2bc 2ba8 23bc 7735 37bc 5aa8 63bc
00000270: 383b f53b 7b5b 203c ad98 e2bb e772 033c
00000280: 4a85 e0bb 9221 39bc 8819 e1bb 4dd8 783c
00000290: 3fdd 8e3c f033 edbc a219 183b 08e1 27bb
000002a0: c39b d8bc 6f11 0f3c 0aad b4bc 2948 97bb
000002b0: f5bb a0bb 6a52 c6bc b821 6bbb 4cd0 8cbc
000002c0: eba4 e4bc 1706 6c3a 943d 09bb 3775 0c3d
000002d0: a762 1fbb 67f8 11bc 2ff0 bbbc f0f2 7ebb
000002e0: 8568 60bc 3fb3 58bb f0fd 74bc 386a c53c
000002f0: c2c7 19bc 924b aabc a283 b1bb 779e 64bb
00000300: 5f28 9abc c5c7 49bb 138a 983c e828 c2bb
00000310: a431 973c 7081 91bb fb09 813a 6f4a 7f3c
00000320: 5dfc 59bc 48a5 08bb abf3 ef3c afa3 6b3c
00000330: 4cab 933b 3290 443c 6807 ffbc ef32 98bc
00000340: f5f0 eeb9 9506 30bc aa45 d1bc 12a2 00bc
00000350: c00b 03ba 0f87 16bc 52ab f13c 6339 993c
00000360: 404c dabc 74e8 0abd 7fb6 09bd 3228 5b3c
00000370: b31b 8c3c 0b19 acbc 586d 0d3c da3a ab3b
00000380: 0788 7d3a e046 5b3c c15a 86ba e45b b4ba
00000390: 2f74 2dbc 30da 8db9 08fe b1bc 1344 2cbc
000003a0: df45 cdbb 22f4 b8bc c716 063c a75a c2bb
000003b0: 471d 13bd 9b54 b3ba 7719 11bc 2923 26bc
000003c0: b060 b9bc ad48 debc ab5e c03b aa72 debb
000003d0: bfcb a43c 2712 113d fb22 5bbb 1d54 b5bc
000003e0: 9a98 46bc bf15 8dbb 3535 983b c020 efbc
000003f0: 176b a13b 1f77 a3bc 2a11 923b 62ee 15bd

conv2.bias f4 [64]
0.018484525 -0.00771482 0.0076037496 -0.0029470338 -0.016074125 -0.0065991394 -0.0005980192 0.012071266
-0.026944727 0.008884827 0.0079791425 0.011879987 -0.005879885 0.0032926046 -0.008752442 -0.006447231
0.009280811 0.06476715 0.00037839846 -0.02882391 -0.024189679 -0.014014015 -0.00090403156 -0.02093341
0.01546354 0.021448497 -0.015751248 0.02584269 0.04770512 -0.013282845 -0.019284664 -0.0012436159
-0.002182855 -0.008679797 -0.04519436 0.008264272 -0.018099684 -0.019559396 -0.0058159814 0.018991856
0.03517901 -0.017877437 0.0060873115 -0.015995955 -0.00061545306 -0.018164204 -0.009499735 0.016038595
0.013575372 0.0062333806 -0.04348555 0.023139507 -0.0115960715 -0.022012146 0.053402305 -0.005147695
-0.017178534 0.022463752 -0.025353363 -0.04531506 0.040154144 0.00753409 0.009417177 0.014251466
00000000: dc6c 973c 9acc fcbb e028 f93b 0623 41bb
00000010: e2ad 83bc 983d d8bb 64c4 1cba 8fc6 453c
00000020: 30bb dcbc aa91 113c f3ba 023c 47a4 423c
00000030: 0dac c0bb bdc8 573b 6766 0fbc 4b43 d3bb
00000040: 8b0e 183c a4a4 843d c863 c639 1f20 ecbc
00000050: 6f29 c6bc 0a9b 65bc 88fc 6cba 8b7c abbc
00000060: ca5a 7d3c c2b4 af3c c308 81bc 0db4 d33c
00000070: 7266 433d 4aa0 59bc dffa 9dbc d300 a3ba
00000080: 3b0e 0fbb b535 0ebc b91d 39bd de66 073c
00000090: ca45 94bc 073b a0bc fd93 bebb cf94 9b3c
000000a0: de17 103d b473 92bc 1278 c73b f309 83bc
000000b0: 5b56 21ba 19cd 94bc c7a4 1bbc 5f63 833c
000000c0: 3d6b 5e3c 6341 cc3b e71d 32bd 108f bd3c
000000d0: 73fd 3dbc d152 b4bc 60bc 5a3d ffad a8bb
000000e0: ffb9 8cbc e705 b83c dbb1 cfbc 499c 39bd
000000f0: ac78 243d 87e0 f63b 814a 1a3c fb7e 693c

conv3.weight f4 [64, 64, 3, 3]
0.0066043236 0.0060842233 0.010696174 -0.016997667 -0.024358956 0.002914423 -0.0056043225 -0.020915408
-0.005940243 -0.004004825 0.0014694127 -0.014926667 0.0063994634 0.014972574 -0.0064863563 -0.009653706
0.0023531676 0.008305377 0.0023223003 0.013392947 0.0028747711 0.006748696 -0.014600979 -0.013261472
-0.0137326075 0.007184256 -0.01303751 0.00077706383 0.01896051 0.004268993 -0.021448195 0.008850651
0.0095277205 -0.022082346 -0.02365648 -0.0066230344 -0.016270535 -0.008230202 0.011342691 0.011512018
0.0064202244 0.0021928872 -0.0038020087 -0.02122858 -0.017577583 0.008140863 -0.002042798 -0.017893242
0.0088336235 -0.005717903 -0.015903851 0.0116087515 0.00639169 -0.027442614 0.0014472138 -0.01122922
-0.007947075 -0.0209667 -0.0138967885 -0.003561781 0.0069414787 0.009937261 0.0061243754 -0.013584107
-0.009176367 -0.0035786764 0.00014162262 -0.0018344884 0.0025281762 -0.018069241 -0.0051500513 -0.025098631
-0.0023587053 -0.0074980664 -0.008149876 -0.011080517 -0.018555973 -0.0021476026 0.006975684 -0.003497573
0.0084375935 -0.006007271 -0.0035329766 -0.005083454 -0.022886783 -0.025641307 0.008653153 0.016771046
-0.013011483 -0.001993912 -0.010139147 -0.0047026165 -0.017382784 -0.0050395825 0.007383982 -0.01149118
-0.00567487 0.008757453 0.007827773 -0.00722788 -0.0003966948 -0.0045093275 0.008310541 -0.0049402085
-0.0024582152 -0.0066175014 -0.0026110217 -0.007317891 0.013020165 -0.0069102594 -0.03013359 -0.015854625
0.013026538 -0.005971463 0.0020618667 -0.009826171 -0.009399841 0.004031491 0.011925939 0.0083775325
0.00088965194 -0.016133407 -0.0056808772 -0.00597372 -0.0015772656 -0.004065316 -0.008145369 -0.015923833
0.011290594 -0.007983434 -0.003113847 0.0009093389 -0.0019622582 -0.009113286 -0.01937893 0.011380064
0.0023632322 0.00693085 -0.013437864 -0.019469833 -0.009982552 -0.010279477 -0.005840038 -0.010882969
-0.004148035 -0.006591316 -0.009159833 0.013980436 0.004767064 -0.018788511 -0.00029158415 -0.018235225
-0.002107853 0.004723303 -0.0036132236 -0.0068968968 0.007430096 -0.002012467 0.0046385312 -0.013604917
-0.0038504624 -0.013188598 0.013366994 0.018777123 0.0024782587 -0.00010884984 0.0013798791 -0.010259427
-0.0055789384 0.005795385 9.761299e-05 -0.0043836194 -0.007835979 -0.0007595782 0.0059439614 -0.030469386
0.010273098 -0.019365614 0.00398213 -0.018904326 -0.0021179814 -0.0013437829 -0.0007832576 -0.0015471188
-0.02242984 -0.007891993 -0.004511258 -0.0019252942 -0.004471527 -0.01576521 0.008318334 0.0021841673
0.012489493 -0.0034282752 0.002354823 0.003372822 -0.00014034056 0.008755806 -0.021700103 0.0012755784
0.010097663 -0.00094876793 -0.009520728 0.005325783 -0.022159982 -0.0049168146 0.0068667666 -0.0144890025
0.013300726 -0.012991823 -0.026513765 -0.0017583743 0.0038383265 -0.013294554 -0.0058570327 -0.004059979
-0.008087079 -0.0063233315 -0.025870068 -0.0016142689 -0.00800408 0.0011419471 -0.017481402 0.0036188446
-0.017639346 -0.013857113 -0.011664264 -0.011883163 -0.020061374 -0.01605282 0.00022053684 0.004900081
0.0034570254 0.019826306 0.005546994 0.025313446 0.008230369 0.00093516783 -0.022359503 -0.009366165
-0.001951894 -0.02224958 -0.011659256 0.014306474 -0.009155604 0.002254096 -0.014833442 -0.009626417
-0.008066873 -0.011049727 -0.0046328306 0.010761085 -0.006753802 0.0074979137 -0.025385082 -0.016297987
00000000: 1569 d83b 2a5e c73b 013f 2f3c b13e 8bbc
00000010: 6f8c c7bc e7ff 3e3b 77a4 b7bb ca56 abbc
00000020: 5fa6 c2bb e83a 83bb 4f99 c03a fb8e 74bc
00000030: 97b2 d13b 874f 753c 808b d4bb 942a 1ebc
00000040: 9a37 1a3b 4713 083c bc31 183b 176e 5b3c
00000050: a866 3c3b 2a24 dd3b f238 6fbc a546 59bc
00000060: bbfe 60bc e869 eb3b 489b 55bc dfb3 4b3a
00000070: 1253 9b3c e9e2 8b3b 20b4 afbc 5202 113c
00000080: 281a 1c3c 09e6 b4bc 3ccb c1bc 0a06 d9bb
00000090: c949 85bc f8d7 06bc b2d6 393c e79c 3c3c
000000a0: bf60 d23b 8bb6 0f3b 1f2b 79bb 8fe7 adbc
000000b0: ddfe 8fbc 4161 053c 77e0 05bb d994 92bc
000000c0: e7ba 103c 3f5d bbbb cb48 82bc a232 3e3c
000000d0: 6271 d13b 55cf e0bc 70b0 bd3a c3fa 37bc
000000e0: 7334 02bc 5bc2 abbc 5baf 63bc c56c 69bb
000000f0: 5875 e33b e5cf 223c fcae c83b e08f 5ebc
00000100: 7958 16bc 3a88 6abb 8880 1439 3773 f0ba
00000110: c2af 253b f205 94bc c3c1 a8bb a59b cdbc
00000120: 8294 1abb 57b2 f5bb 0f87 05bc 0f8b 35bc
00000130: b202 98bc cbbe 0cbb 4794 e43b 8a37 65bb
00000140: d53d 0a3c a4d8 c4bb 8389 67bb 1a93 a6bb
00000150: 107d bbbc b80d d2bc f4c5 0d3c 6f63 893c
00000160: 1d2e 55bc 4bac 02bb aa1e 26bc 6818 9abb
00000170: 5766 8ebc 1523 a5bb 55f5 f13b 8145 3cbc
00000180: 43f4 b9bb 6c7b 0f3c 0f40 003c dad7 ecbb
00000190: 7afb cfb9 fbc2 93bb ef28 083c 79e1 a1bb
000001a0: 021a 21bb a0d7 d8bb ad1d 2bbb ebca efbb
000001b0: 8852 553c 756f e2bb b8da f6bc 8fe1 81bc
000001c0: 436d 553c 43ac c3bb 6220 073b f3fd 20bc
000001d0: ca01 1abc 991a 843b 0365 433c eb41 093c
000001e0: 8837 693a 352a 84bc a726 babb 32bf c3bb
000001f0: 40bc ceba 5836 85bb 2774 05bc b372 82bc
00000200: 2ffc 383c f3cc 02bc af11 4cbb b360 6e3a
00000210: 3b99 00bb e44f 15bc 90c0 9ebc 7373 3a3c
00000220: 75e0 1a3b 2f1c e33b 7d2a 5cbc 337f 9fbc
00000230: dc8d 23bc 406b 28bc ca5d bfbb 7b4e 32bc
00000240: 3dec 87bb f7fb d7bb 2013 16bc 330e 653c
00000250: 0835 9c3b 5dea 99bc c3df 98b9 0a62 95bc
00000260: e823 0abb f0c5 9a3b d5cb 6cbb 5dff e1bb
00000270: 2a78 f33b 98e3 03bb d2fe 973b 28e7 5ebc
00000280: 0a58 7cbb fd14 58bc 3d01 5b3c 7bd2 993c
00000290: 486a 223b 5046 e4b8 0fdd b43a 2817 28bc
000002a0: 87cf b6bb 37e7 bd3b 93b5 cc38 77a4 8fbb
000002b0: 7a62 00bc 6e1e 47ba 90c5 c23b ef9a f9bc
000002c0: 7f50 283c a3a4 9ebc 877c 823b 3fdd 9abc
000002d0: d5cd 0abb df21 b0ba 8753 4dba b1c8 caba
000002e0: c9be b7bc 6b4d 01bc 2dd3 93bb 275a fcba
000002f0: e385 92bb 0b26 81bc 9f49 083c 3f24 0f3b
00000300: bba0 4c3c eaac 60bb 6053 1a3b 900a 5d3b
00000310: 6228 13b9 8374 0f3c 6ac4 b1bc 4f31 a73a
00000320: ab70 253c bdb6 78ba d4fc 1bbc e883 ae3b
00000330: da88 b5bc 3b1d a1bb 9d02 e13b 4863 6dbc
00000340: 4aeb 593c a8db 54bc 6533 d9bc 4079 e6ba
00000350: 6f8c 7b3b 67d1 59bc 5aec bfbb 9309 85bb
00000360: ab7f 04bc f333 cfbb 77ed d3bc e095 d3ba
00000370: 8b23 03bc 63ad 953a 2835 8fbc 232a 6d3b
00000380: 6480 90bc f208 63bc 781b 3fbc 99b1 42bc
00000390: c057 a4bc 3481 83bc e83f 6739 dc90 a03b
000003a0: 438f 623b c76a a23c 8fc3 b53b 255e cf3c
000003b0: abd8 063c 0d26 753a 472b b7bc 8b74 19bc
000003c0: b2d6 ffba c044 b6bc 7706 3fbc b365 6a3c
000003d0: 6301 16bc 75b9 133b f707 73bc 1fb8 1dbc
000003e0: eb2a 04bc ea09 35bc 00cf 97bb 434f 303c
000003f0: ff4e ddbb 0fb1 f53b 60f4 cfbc 5b83 85bc

conv3.bias f4 [64]
-0.0074774264 -0.0075981445 -0.0075864433 -0.0019997973 -0.0016371178 -0.015371673 -0.012757236 -0.007966081
0.0030624957 -0.0048712967 0.01598904 -0.00907255 -0.0126591325 -0.004063674 -0.008642869 -0.012934575
-0.025970122 -0.0044807824 -0.011535867 -0.0077602984 -0.006333619 -0.012838343 0.0127231525 -0.01367149
0.0015592341 -0.0035324206 -0.0050606923 -0.009057151 -0.002899993 0.0074158753 0.011720728 -0.023686467
0.008300594 0.007895396 -0.013082723 -0.026301546 -0.01168847 -0.009096013 -0.0066705197 -0.007912214
-0.010557211 -0.011629201 0.0060684714 0.0029708967 -0.004232487 -0.016944995 0.0064067743 -0.019536428
-0.0022518805 -0.004204642 0.0062600556 0.006430709 0.0005751012 0.04390348 0.0026671458 -0.013627181
-0.0062696873 -0.011714006 -0.0020094877 0.015809232 -0.0069477134 -0.005466612 -0.008399986 -0.01039753
00000000: 3305 f5bb dbf9 f8bb b397 f8bb 080f 03bb
00000010: 8f94 d6ba 78d9 7bbc ba03 51bc 2a84 02bc
00000020: 27b4 483b 669f 9fbb 72fb 823c 08a5 14bc
00000030: 4068 4fbc 9128 85bb d29a 0dbc 8aeb 53bc
00000040: 4bbf d4bc 87d3 92bb ef00 3dbc 1a4a febb
00000050: 3f8a cfbb ea57 52bc c574 503c 63fe 5fbc
00000060: 375f cc3a 2f80 67bb 2ad4 a5bb 7264 14bc
00000070: cf0d 3ebb df00 f33b 4c08 403c 1f0a c2bc
00000080: 37ff 073c b15b 013c eb58 56bc 5776 d7bc
00000090: ff80 3fbc 7207 15bc 6094 dabb 3ba2 01bc
000000a0: 27f8 2cbc 6788 3ebc 07da c63b 60b3 423b
000000b0: adb0 8abb 3bd0 8abc ebef d13b dc0a a0bc
000000c0: 4994 13bb 18c7 89bb 2721 cd3b b2b8 d23b
000000d0: 63c2 163a 23d4 333d 48cb 2e3b 8a44 5fbc
000000e0: f371 cdbb 1aec 3fbc 9cb1 03bb 5d82 813c
000000f0: a5a9 e3bb 4421 b3bb 18a0 09bc 675a 2abc

fc1.weight f4 [64, 1024]
-0.005051445 -0.0038499224 0.009799316 0.0039872318 -0.0066178674 0.0062127984 0.00373778 0.00732312
0.0032779672 -0.002703916 -0.004115109 0.014741308 -0.0019259334 0.0031609458 -0.0054392326 0.00749942
0.0011331678 0.0051187696 -0.002340911 -0.0075213546 0.004248354 -0.010853118 0.0044216784 0.0051348326
0.014475306 -0.019334335 0.004591144 -0.0069404477 -0.0031798996 -0.0129854875 0.0018643549 0.0034402155
0.00056052406 -0.013198863 -0.006058875 -0.0056744367 0.0054478343 -0.006995838 -0.001997069 -0.0019404449
-0.0056006657 0.0042829677 -0.012057193 -0.0032371178 0.0076769963 0.0119172335 -0.014083414 -0.0024695944
-0.00068396184 0.009980017 -0.00032040957 -0.0014841374 0.021997109 0.0031020583 -0.02042189 0.0020785949
0.0014927322 0.010033487 0.0014379554 0.019876985 0.0028643429 0.00016704689 -0.009641334 -0.0038098458
-0.0026723659 -0.016079148 0.0054595554 0.0045929328 0.015588284 0.020687563 0.0056439033 0.014937586
0.016787922 -0.012096387 0.0011891396 -0.00082633056 -0.013110191 0.0014771082 -0.00011454006 0.0055772834
-0.009847242 0.0076301205 0.0037648182 0.0031672975 -0.0076871663 -0.0034607549 -0.01857988 -0.01489812
-0.01626092 -0.004498245 -0.00019254946 0.0032383695 -0.0061765774 0.0016591577 0.011861259 -0.0028704235
-0.006691109 0.0011421166 -0.0033037986 -0.003880943 0.0073628216 0.0058867293 0.0032247093 0.0065471153
-0.003999619 -0.014412253 -0.004315794 -0.005257015 -7.2249284e-05 -0.009708635 0.0037469529 0.012670219
-0.020223496 0.011216044 -0.0026573227 -0.0010285479 0.0041694427 -0.0025357197 -0.0022140415 -0.013820598
0.005516711 0.0034741857 0.011378549 0.01368881 0.007891055 0.005386693 -0.012945187 0.0069596106
0.0022946359 -0.006948025 0.008737259 0.011580731 0.012318663 -0.0033660175 0.0031932273 -0.0077519524
0.0032406056 -0.0047940533 0.014208716 0.0027029477 -0.0008020468 0.0043149735 0.008130356 -0.0065184794
-0.018515062 -0.003585117 0.03640603 0.03813314 -0.048063565 -0.022081703 0.011007833 0.01928969
-0.056293726 -0.01427069 0.003880982 0.038542878 -0.03473198 0.011244035 0.0066477815 0.019760897
0.0053205565 0.0034825453 -0.014413732 0.0054003815 -0.00088467106 -0.00849574 -0.0048565017 -0.00057830766
0.0105177285 0.0036739707 0.0008336495 0.0071440153 0.017152159 0.006268459 0.008008809 0.009224423
-0.009818606 -0.015271517 -0.007770343 -0.0005332958 -0.00028121306 0.01479013 -0.00031417268 -0.009335227
0.0029604065 -0.0093434295 0.0029600195 -0.014277443 0.002592053 0.00019347946 -0.0014435485 -0.0065572197
-0.013191864 -0.008764338 0.010553561 -0.0005768318 0.008328269 0.0021488804 -0.0016045728 -0.0050544185
-0.0044833994 0.012226084 0.005828427 0.015144827 -0.0036275827 -0.004121872 -0.0018420026 0.0077702324
0.003630265 -0.0039636246 -0.006974475 -0.005580794 0.0065989806 0.020722924 -0.0086807 0.013533599
-0.0071375794 -0.008941445 -0.0017779268 0.0022943092 0.0021919215 -0.002118819 0.0027597677 0.010542864
-0.003023504 0.0016570255 -0.0063480968 -0.002890556 -0.001960757 0.009157278 0.008613887 0.016765416
0.005438499 -0.0039176666 -0.012460011 0.00030277445 0.0009976868 0.0006316572 -0.0132455975 0.010103012
-0.0017576686 0.008201791 0.014841104 0.01326084 0.012510023 0.023525428 0.024140269 0.018242905
-0.0061317976 -0.0073128142 0.0033377744 0.0048107565 -0.028937174 -0.037137378 -0.017404107 -0.0018710543
00000000: 9886 a5bb fb4e 7cbb 4f8d 203c 53a7 823b
00000010: b2da d8bb bb94 cb3b 8bf5 743b c8f6 ef3b
00000020: 2ad3 563b 2f34 31bb 09d8 86bb 8785 713c
00000030: 9a6f fcba df27 4f3b 973b b2bb b2bd f53b
00000040: cd86 943a 5abb a73b f869 19bb b275 f6bb
00000050: c735 8b3b 47d1 31bc bae3 903b 1942 a83b
00000060: d529 6d3c 0a63 9ebc 4f71 963b b26c e3bb
00000070: dd65 50bb 15c1 54bc 5f5d f43a 3d75 613b
00000080: 22f0 123a 0b40 58bc 8789 c6bb a0f0 b9bb
00000090: bf83 b23b 583d e5bb 42e1 02bb 8756 feba
000000a0: ca85 b7bb 2358 8c3b 888b 45bc d325 54bb
000000b0: 508f fb3b 8040 433c 1fbe 66bc ebd8 21bb
000000c0: e74b 33ba 3a83 233c a5fc a7b9 6387 c2ba
000000d0: 4833 b43c e74b 4b3b cf4b a7bc 0939 083b
000000e0: c8a7 c33a 7f63 243c c779 bc3a 0fd5 a23c
000000f0: b3b7 3b3b 4f29 2f39 b0f6 1dbc 9bae 79bb
00000100: dc22 2fbb 6bb8 83bc 12e6 b23b 5080 963b
00000110: 0066 7f3c f778 a93c 7ef0 b83b c7bc 743c
00000120: d386 893c ed2f 46bc e7dc 9b3a 1b9e 58ba
00000130: 20cc 56bc 879b c13a 3a35 f0b8 a5c1 b63b
00000140: 5456 21bc 1706 fa3b 2bbb 763b 6f92 4f3b
00000150: a0e4 fbbb d5cd 62bb d534 98bc 3f17 74bc
00000160: 9f35 85bc 0466 93bb 1ae7 49b9 d33a 543b
00000170: e364 cabb 1878 d93a ba55 423c b71d 3cbb
00000180: 1741 dbbb 13b3 953a 8b84 58bb 6b57 7ebb
00000190: d343 f13b 77e5 c03b a555 533b 2f89 d63b
000001a0: 3c0f 83bb 5f21 6cbc 816b 8dbb 0a43 acbb
000001b0: 8a84 97b8 f710 1fbc 708f 753b c096 4f3c
000001c0: bfab a5bc 80c3 373c 7a26 2ebb 57d0 86ba
000001d0: d29f 883b 512e 26bb 7419 11bb ca6f 62bc
000001e0: 87c5 b43b 2aaf 633b 186d 3a3c 0847 603c
000001f0: 7c49 013c db82 b03b 0d18 54bc 720d e43b
00000200: 9a61 163b 42ac e3bb b826 0f3c 1bbd 3d3c
00000210: 38d4 493c 6798 5cbb 7745 513b 1704 febb
00000220: 5760 543b 6f17 9dbb adcb 683c f023 313b
00000230: 7340 52ba 9f64 8d3b 2f35 053c f898 d5bb
00000240: e6ac 97bc 48f4 6abb 7d1e 153d 7f31 1c3d
00000250: 4dde 44bd b0e4 b4bc 335a 343c 6905 9e3c
00000260: 4094 66bd 9dcf 69bc 1358 7e3b 23df 1d3d
00000270: 1f43 0ebd e738 383c a2d5 d93b 9be1 a13c
00000280: 1058 ae3b 6a3b 643b 9327 6cbc aff5 b03b
00000290: 45e9 67ba b731 0bbc 4a23 9fbb 9299 17ba
000002a0: 8d52 2c3c 00c7 703b 4589 5a3a 5818 ea3b
000002b0: af82 8c3c a567 cd3b 6137 033c 0922 173c
000002c0: 38de 20bc 6335 7abc 5d9e febb e0cc 0bba
000002d0: c76f 93b9 4d52 723c 8bb7 a4b9 c8f2 18bc
000002e0: 6103 423b 2f15 19bc e3fc 413b f0eb 69bc
000002f0: 6fdf 293b bfe0 4a39 7335 bdba f2dd d6bb
00000300: b022 58bc 4c98 0fbc d8e8 2c3c 8736 17ba
00000310: 4b73 083c 3bd4 0c3b 8750 d2ba 899f a5bb
00000320: 7be9 92bb ea4f 483c 64fc be3b 0222 783c
00000330: bdbc 6dbb c510 87bb 5a6f f1ba 6f9d fe3b
00000340: bde9 6d3b 4be1 81bb 238a e4bb 18df b6bb
00000350: 433c d83b 1fc3 a93c 7f39 0ebc 07bc 5d3c
00000360: 5be2 e9bb 237f 12bc 5309 e9ba 1f5c 163b
00000370: 57a6 0f3b e2db 0abb 38dd 343b fabb 2c3c
00000380: fb25 46bb 8d30 d93a b203 d0bb 7b6f 3dbb
00000390: 0b80 00bb 6808 163c 4321 0d3c a057 893c
000003a0: 7035 b23b c55f 80bb 1325 4cbc b3bd 9e39
000003b0: d0c4 823a cc95 253a 1004 59bc 1b87 253c
000003c0: 9261 e6ba ce60 063c 1a28 733c ff43 593c
000003d0: d7f6 4c3c 66b8 c03c d0c1 c53c 2572 953c
000003e0: 3fed c8bb 55a0 efbb 90be 5a3b 8da3 9d3b
000003f0: a70d edbc 5d1d 18bd 0f93 8ebc 2a3e f5ba

fc1.bias f4 [64]
-0.009754523 -0.007039772 -0.015019278 -0.004609303 -0.011052478 0.0032217044 -0.030061841 -0.0011861102
-0.013069439 0.0019214925 -0.0052591134 -0.008437906 0.010056972 -0.020260971 -0.0061544543 -0.0019301821
-0.0058989297 -0.019053686 -0.02043142 -0.0091628125 0.005378382 -0.0036719416 -3.9277536e-05 0.0009278745
-0.00038341514 0.031091182 0.037720192 -0.0039989236 0.0009964962 0.015587513 0.0029194558 0.026343023
0.003710907 0.040805463 0.021799497 0.008094556 -0.021609413 -0.018643351 0.037990957 0.037428822
-0.028967977 -0.0072375326 0.04209842 -0.004342237 -0.0136152 0.008348476 0.010338391 0.005876007
0.0032142268 -0.013289365 -0.0021540036 0.0060354485 -7.110827e-05 0.013007556 -0.017631276 -0.018837187
0.0006107025 0.0018305995 -0.0055919113 -0.025899375 -0.005899372 -0.032520644 0.006545552 0.02084213
00000000: 6fd1 1fbc e3ad e6bb 6b13 76bc a309 97bb
00000010: 7415 35bc 3b23 533b 4044 f6bc 4177 9bba
00000020: 3321 56bc 97da fb3a a454 acbb 253f 0abc
00000030: ffc5 243c 56fa a5bc 4eab c9bb 2afe fcba
00000040: cf4b c1bb 7a16 9cbc cb5f a7bc 9f1f 16bc
00000050: 233d b03b f5a4 70bb efbd 24b8 9b3c 733a
00000060: 1c05 c9b9 efb2 fe3c 7d80 1a3d 6709 83bb
00000070: dd9c 823a c562 7f3c 5754 3f3b 53cd d73c
00000080: b032 733b a123 273d dc94 b23c 079f 043c
00000090: 3906 b1bc f1b9 98bc 689c 1b3d f74e 193d
000000a0: 404e edbc d328 edbb 656f 2c3d 5349 8ebb
000000b0: 4a12 5fbc 0cc8 083c 5b62 293c 858b c03b
000000c0: c7a5 523b a3bb 59bc 2f2a 0dbb 03c5 c53b
000000d0: f61f 95b8 a51d 553c 776f 90bc 7250 9abc
000000e0: 8d17 203a baf0 ef3a 5a3c b7bb ed2a d4bc
000000f0: 854f c1bb 5e34 05bd 127c d63b 1dbd aa3c

fc2.weight f4 [10, 64]
0.06918727 0.042661134 0.035194132 -0.010907577 -0.044750996 -0.009014753 0.09347697 0.002493899
0.03594045 0.036703736 -0.07163568 0.023159487 -0.039344963 0.047022443 0.010182 0.0065794582
0.0530487 -0.007078338 -0.021879042 -0.02810121 0.0052442 -0.02222103 0.027435193 -0.03381382
0.014538216 -0.018286161 0.0062436224 0.02185992 -0.0102067115 -0.018723622 0.011892038 0.018369872
0.041561805 -0.04226296 0.021824062 -0.017253188 0.006538128 0.050964173 0.009151134 -0.008927195
-0.0025271573 0.0086507 -0.042940196 -0.025731388 0.03884961 0.018159935 -0.009698227 0.035179492
-0.057573397 -0.012068329 -0.01213142 0.029140476 -0.009388759 0.0412482 0.027438432 0.015028357
-0.04059557 -0.020360967 0.04744484 -0.022760233 0.06089418 -0.009241782 0.022440968 0.0042907153
-0.056018736 0.05794331 -0.01759114 -0.030531911 -0.015144323 0.039307848 0.0151906805 0.036564186
0.02165798 0.04778866 0.009868502 -0.06555097 0.073284514 -0.027803976 0.027952924 -0.00368237
-0.023657802 -0.028456828 0.037394132 -0.04771115 0.02709913 0.022858484 -0.00084043073 0.035063893
-0.009805742 -0.036763463 -0.022893101 0.028509913 -0.017517215 0.037532944 -0.0055957227 0.03387718
0.021704817 -0.06422371 -0.06823548 -0.050341416 0.06873947 -0.05425336 -0.057659592 -0.10180403
0.048934434 0.0034451399 -0.009991987 -0.004192879 0.042523976 0.041277345 0.10718151 -0.02873878
-0.023826126 0.033255674 0.014159605 -0.016179688 -0.007923407 -0.06305907 0.010025761 -0.0056625144
-0.003278798 0.039790638 -0.016487889 -0.007564319 -0.033200677 -0.021589113 0.034942336 -0.035132416
0.026216144 0.0071815923 -0.030607406 -0.03431519 -0.030935127 -0.05311826 -0.02657683 -0.012615218
-0.046513196 -0.008195387 -0.029243497 0.019513492 2.8782877e-05 0.038928755 0.030976478 0.021187512
0.04191426 -0.011135823 -0.030340811 0.01941858 -0.0043983185 0.016488409 -0.0034784605 0.03725214
-0.008297862 0.038179897 0.048552096 -0.028565008 -0.014561367 0.017972996 -0.0042196615 -0.022827184
0.038749434 0.071210474 0.060367614 -0.039408952 0.013063411 0.012361585 0.040461313 0.040245306
-0.024501508 -0.033370364 0.047499456 -0.00047554393 0.036474954 0.00992608 -0.07249094 -0.015314053
-0.025378792 -0.04254812 -0.0074072196 -0.022532482 0.03586637 -0.009272556 0.0038261253 0.04401235
-0.020256685 -0.07013785 0.03404588 -0.020379072 -0.0022320715 0.006789417 0.021183556 0.0071629
-0.08427015 0.014962549 0.06017102 -0.017279306 0.028829873 0.0019371901 -0.005555064 0.050491095
0.028018272 -0.04489074 -0.010556635 0.009713954 0.04259675 -0.0843461 -0.006649819 0.064493135
-0.007849081 -0.04420304 0.021981405 0.0016850487 0.045862187 0.027438758 -0.026779303 0.04075663
-0.0013563401 0.038470954 -0.05104884 -0.0022066187 -0.0045936047 0.0060400213 -0.08879837 0.022091849
0.0010910573 0.04306478 0.048897345 -0.0253633 -0.05504042 -0.03890997 0.02621018 0.037217755
0.051884353 -0.016686385 0.00055513496 -0.01385493 -0.0327688 -0.009077468 -0.06641887 0.01246576
-0.008114665 -0.0007292071 0.030099351 -0.0076229945 -0.026446214 -0.008547266 -0.012907982 0.05980592
0.027741415 0.02519006 -0.029847372 -0.039647695 0.005633546 -0.01904656 0.020177225 0.028679518
00000000: 0eb2 8d3d 71bd 2e3d b927 103d b2b5 32bc
00000010: d24c 37bd 9db2 13bc db70 bf3d af70 233b
00000020: 4b36 133d a856 163d bab5 92bd f7b8 bd3c
00000030: 2f28 21bd 9b9a 403d 67d2 263c 7f98 d73b
00000040: 9849 593d 67f1 e7bb ad3b b3bc 8234 e6bc
00000050: 8ad7 ab3b e108 b6bc c5bf e03c 5c80 0abd
00000060: b331 6e3c dccc 95bc 4d97 cc3b 9313 b33c
00000070: 0d3a 27bc 4862 99bc d3d6 423c 6a7c 963c
00000080: b63c 2a3d ed1b 2dbd 60c8 b23c 8f56 8dbc
00000090: cb3d d63b cfbf 503d a3ee 153c 5f43 12bc
000000a0: aa9e 25bb aabb 0d3c 0fe2 2fbd a2ca d2bc
000000b0: c520 1f3d 25c4 943c 50e5 1ebc 5f18 103d
000000c0: 15d2 6bbd 3eba 45bc ddc2 46bc 02b8 ee3c
000000d0: 4fd3 19bc dff3 283d 90c6 e03c 7f39 763c
000000e0: 8a47 26bd 0bcc a6bc 8555 423d ab73 babc
000000f0: 2d6c 793d d86a 17bc 1fd6 b73c 2199 8c3b
00000100: e773 65bd f755 6d3d 4b1b 90bc 0f1e fabc
00000110: e51f 78bc 4401 213d 55e2 783c 54c4 153d
00000120: 136c b13c 0bbe 433d 7faf 213c 963f 86bd
00000130: 3116 963d 2ac5 e3bc 88fd e43c eb53 71bb
00000140: 02ce c1bc 4b1e e9bc 972a 193d c46c 43bd
00000150: fffe dd3c b741 bb3c 5a50 5cba 289f 0f3d
00000160: 43a8 20bc 4995 16bd 508a bbbc 9f8d e93c
00000170: 4380 8fbc 25bc 193d 535c b7bb ccc2 0a3d
00000180: 4dce b13c b887 83bd 0bbf 8bbd cd32 4ebd
00000190: 47c7 8c3d c538 5ebd 772c 6cbd a27e d0bd
000001a0: 796f 483d dbc7 613b 6eb5 23bc 6b64 89bb
000001b0: 9f2d 2e3d 6f12 293d fb81 db3d 976d ebbc
000001c0: 022f c3bc 1a37 083d b0fd 673c 448b 84bc
000001d0: 2dd1 01bc 1d25 81bd 1743 243c 9d8c b9bb
000001e0: 1ae1 56bb 82fb 223d 9c11 87bc 1bde f7bb
000001f0: 6ffd 07bd a7db b0bc b21f 0f3d 02e7 0fbd
00000200: 3dc3 d63c 9053 eb3b 62bc fabc 168e 0cbd
00000210: aa6b fdbc 8892 59bd a7b7 d9bc 0fb0 4ebc
00000220: 9f84 3ebd f245 06bc 0f90 efbc c2da 9f3c
00000230: c272 f137 c273 1f3d 62c2 fd3c 6f91 ad3c
00000240: 49ae 2b3d 0773 36bc 4b8d f8bc b713 9f3c
00000250: c51f 90bb b312 873c e2f6 63bb b395 183d
00000260: c1f3 07bc 8662 1c3d 90de 463d 2a01 eabc
00000270: cd92 6ebc 1b3c 933c 1645 8abb 1300 bbbc
00000280: bab7 1e3d ccd6 913d 0844 773d 486b 21bd
00000290: eb07 563c 3f88 4a3c c3ba 253d 43d8 243d
000002a0: 63b7 c8bc 5daf 08bd ca8e 423d 6d52 f9b9
000002b0: c366 153d ffa0 223c 2176 94bd cbe7 7abc
000002c0: 2fe7 cfbc f046 2ebd 43b8 f2bb 0a96 b8bc
000002d0: 9de8 123d ebeb 17bc bbbf 7a3b 4b46 343d
000002e0: 59f1 a5bc 6fa4 8fbd b173 0b3d 03f2 a6bc
000002f0: f247 12bb c279 de3b 2389 ad3c c3b6 ea3b
00000300: d495 acbd 7b25 753c e375 763d 558d 8dbc
00000310: a02c ec3c 50e9 fd3a 4107 b6bb c0cf 4e3d
00000320: 9386 e53c 5adf 37bd bdf5 2cbc 4727 1f3c
00000330: ee79 2e3d a6bd acbd bae6 d9bb fa14 843d
00000340: 6f99 00bc 3f0e 35bd 5912 b43c dadc dc3a
00000350: fdd9 3b3d 3fc7 e03c 4560 dbbc 6df0 263d
00000360: 39c7 b1ba b893 1d3d 9718 51bd eb9c 10bb
00000370: f385 96bb 5feb c53b ebdb b5bd f7f9 b43c
00000380: cf01 8f3a b264 303d 9548 483d b2c6 cfbc
00000390: 1072 61bd 1060 1fbd bbb6 d63c a571 183d
000003a0: b084 543d e3b1 88bc 7a86 113a caff 62bc
000003b0: 9438 06bd a9b9 14bc 9e06 88bd 303d 4c3c
000003c0: 5ff3 04bc 4328 3fba ea92 f63c 50ca f9bb
000003d0: bba5 d8bc d509 0cbc 007c 53bc 0df7 743d
000003e0: f741 e33c 625b ce3c 7a82 f4bc 9f65 22bd
000003f0: 9c99 b83b 8807 9cbc b54a a53c 4ff1 ea3c

fc2.bias f4 [10]
-0.077612124 0.01473883 0.04807247 -0.021502238 0.041286886 -0.0058214865 -0.0036991958 -0.009050926
-0.013558867 -0.06653803
00000000: 1bf3 9ebd 227b 713c a3e7 443d 7625 b0bc
00000010: 701c 293d 2bc2 bebb 356e 72bb 564a 14bc
00000020: 0326 5ebc 1745 88bd
