torch_to_tf/torch_models/model_round119.model (torch, 672591 bytes, 8 tensors)

conv1.weight f4 [32, 3, 3, 3]
0.054842997 0.06529378 0.046749633 0.021498078 -0.0019858184 0.029423375 0.04496524 0.034550693
0.039308686 -0.061735958 0.029596318 0.050418716 0.054408085 -0.0443956 0.030392928 -0.008349756
-0.10330939 0.11706593 -0.03511375 0.003049823 0.02106357 0.033634316 0.0154863 0.056016512
-0.01955671 0.05575263 0.038647585 -0.04169765 -0.0051147165 -0.05324007 -0.012521545 0.026238335
0.077177934 -0.037610352 0.041588284 -0.0013836042 0.084907494 0.13521418 -0.029347008 -0.02575633
-0.01895114 -0.045090623 -0.014836902 -0.02056326 -0.021642543 0.076761745 0.05533864 0.05912877
-0.03935545 -0.099392496 0.007373476 0.06192143 -0.08944637 -0.08602359 -0.068699814 -0.0041152923
-0.050898798 0.04151341 -0.054106373 -0.004592934 -0.017739309 0.042127937 0.0054720417 -0.067736976
0.008721517 0.027814453 0.028794004 -0.055285078 -0.034587998 -0.08570372 -0.04359825 0.074919716
-0.00653833 -0.00011887093 0.026799737 -0.052237667 -0.009247723 0.014194056 0.05571876 4.126866e-05
0.0023803064 0.017073022 0.029740471 -0.041840788 -0.08640098 0.040442478 -0.003522382 0.11112608
0.04350966 0.01457789 0.016567042 -0.0053004683 0.0031159741 0.019057166 0.046455663 0.022581248
0.084859736 0.023446344 0.03446216 0.013800909 0.04592211 -0.004674868 -0.016730463 -0.06167233
0.00462931 0.007171204 0.020672994 0.0025676945 0.05552363 -0.0951237 -9.734306e-05 -0.06266439
0.003489345 -0.05528543 -0.08063226 0.04936352 0.0219634 -0.0046017542 -0.031978983 0.0917376
-0.02544165 -0.031953644 -0.014282948 -0.041558415 0.01379964 0.0022776704 0.036303934 0.024170866
0.052507307 0.00639577 0.01041457 0.015094421 -0.01745964 0.09102321 0.040172692 0.0111503815
0.045517627 0.10729381 -0.0143762 -0.06663855 0.08789285 0.00013776706 0.015597808 -0.026505416
-0.026357338 -0.05396762 -0.025996923 -0.0008892768 0.046739984 -0.030729478 0.0025480404 0.086504914
-0.008046108 -0.0077924677 -0.046098936 -0.07817512 -0.008906192 0.04513141 -0.06857508 -0.041514263
0.006960889 -0.092913985 0.021701762 0.08570552 -0.009393798 0.03576767 0.02544837 0.002858838
-0.04115024 0.047720354 -0.019704584 0.05046728 0.033117127 0.11001208 -0.13065128 -0.03260541
-0.08820454 0.017158873 0.017555205 0.007453702 -0.042844687 0.019254267 0.024063706 -0.079429455
-0.0654115 -0.039255768 0.019993663 -0.07762809 -0.010826712 0.0156815 0.020057954 -0.018818755
-0.087321945 -0.008670044 0.04342994 0.052862406 -0.006829396 0.016899478 0.0710144 0.0050673443
-0.012662413 0.005520554 0.011362846 0.031101912 0.1323712 0.10325439 -0.034687813 -0.07608271
-0.04524219 -0.054662842 -0.03750936 -0.11764474 0.017559 0.049981676 -0.04797333 -0.038643625
-0.06953769 -7.786285e-05 -0.048749063 0.018405847 0.038739808 -0.03376507 0.12197752 -0.04522698
-0.04497662 -0.088968664 0.044004988 -0.0023533932 -0.019577285 0.0639491 0.03761972 -0.07540132
0.035384074 -0.083617926 0.029904261 0.016920144 0.013774032 0.04411847 -0.020617574 -0.017061828
0.029796073 0.083372645 0.022761071 -0.011727966 -0.048739478 0.0034688895 -0.027426785 -0.11983657
0.049248334 0.019839503 0.029540822 -0.065086775 0.010629296 0.032119777 -0.03336887 -0.037575986
00000000: 0da3 603d bfb8 853d 8b7c 3f3d bd1c b03c
00000010: 8124 02bb 4a09 f13c 792d 383d 0785 0d3d
00000020: 2502 213d d8de 7cbd fa73 f23c db83 4e3d
00000030: 03db 5e3d 29d8 35bd 97fa f83c 6acd 08bc
00000040: e093 d3bd 43c0 ef3d 6fd3 0fbd 8adf 473b
00000050: 828d ac3c 23c4 093d 40ba 7d3c 9271 653d
00000060: 6535 a0bc df5c 643d ee4c 1e3d 28cb 2abd
00000070: 5a99 a7bb 4212 5abd 2b27 4dbc c7f1 d63c
00000080: 770f 9e3d 500d 1abd 7a58 2a3d 0e5a b5ba
00000090: fbe3 ad3d 9675 0a3e 2369 f0bc f0fe d2bc
000000a0: 6c3f 9bbc f2b0 38bd 7a16 73bc 4874 a8bc
000000b0: b44b b1bc 4335 9d3d c5aa 623d 0231 723d
000000c0: 2e33 21bd 4b8e cbbd 339d f13b 53a1 7d3d
000000d0: a92f b7bd 232d b0bd 7db2 8cbd 93d9 86bb
000000e0: 427b 50bd f709 2a3d a59e 5dbd 5380 96bb
000000f0: 0752 91bc 588e 2c3d d04e b33b afb9 8abd
00000100: b2e4 0e3c 23db e33c 67e1 eb3c 9b72 62bd
00000110: 25ac 0dbd 6f85 afbd 1494 32bd 826f 993d
00000120: 7d3f d6bb 584a f9b8 1f8b db3c 2af7 55bd
00000130: c383 17bc 308e 683c 5b39 643d e317 2d38
00000140: eafe 1b3b b9dc 8b3c 4aa2 f33c 3f61 2bbd
00000150: fff2 b0bd 03a7 253d c3d7 66bb 1296 e33d
00000160: 2f37 323d 1ad8 6e3c 9bb7 873c 8daf adbb
00000170: 5f35 4c3b c61d 9c3c 4b48 3e3d 4ffc b83c
00000180: f1ca ad3d 8c12 c03c 3228 0d3d 351d 623c
00000190: d318 3c3d a32f 99bb 530e 89bc 209c 7cbd
000001a0: 78b1 973b 6bfc ea3b 695a a93c c446 283b
000001b0: bf6c 633d 37d0 c2bd a824 ccb8 3056 80bd
000001c0: 7fad 643b fa72 62bd 8722 a5bd 6731 4a3d
000001d0: 97ec b33c 50ca 96bb 65fc 02bd ece0 bb3d
000001e0: 026b d0bc d3e1 02bd 0703 6abc 2839 2abd
000001f0: e317 623c f844 153b 6fb3 143d fb01 c63c
00000200: e711 573d 9b93 d13b dfa1 2a3c 974e 773c
00000210: 8507 8fbc 606a ba3d 1f8c 243d 17b0 363c
00000220: b170 3a3d dbbc db3d 278a 6bbc cb79 88bd
00000230: 2b01 b43d 9075 1039 f38d 7f3c e321 d9bc
00000240: 58eb d7bc 270d 5dbd 80f7 d4bc 5b1e 69ba
00000250: 6d72 3f3d 63bc fbbc 06fd 263b 7d29 b13d
00000260: d3d3 03bc f557 ffbb 3dd2 3cbd 471a a0bd
00000270: 47eb 11bc b7db 383d 1771 8cbd dc0a 2abd
00000280: 2b18 e43b b049 bebd e5c7 b13c 6086 af3d
00000290: 72e8 19bc 1f81 123d 1a79 d03c 585b 3b3b
000002a0: 278d 28bd 6b76 433d 826b a1bc c7b6 4e3d
000002b0: d3a5 073d 034e e13d 73c9 05be 408d 05bd
000002c0: 95a4 b4bd c490 8c3c efcf 8f3c 2f3e f43b
000002d0: e97d 2fbd 20bb 9d3c 4021 c53c e9ab a2bd
000002e0: 77f6 85bd a8ca 20bd c0c9 a33c 7afb 9ebd
000002f0: 8562 31bc 7d76 803c 9450 a43c ca29 9abc
00000300: d9d5 b2bd cd0c 0ebc 98e3 313d 4086 583d
00000310: 20c9 dfbb c670 8a3c ff6f 913d f70b a63b
00000320: 0276 4fbc c3e5 b43b 3b2b 3a3c 70c9 fe3c
00000330: 518c 073e 0a77 d33d cf14 0ebd 40d1 9bbd
00000340: e04f 39bd 25e6 5fbd 6aa3 19bd baef f0bd
00000350: e4d7 8f3c 96b9 4c3d af7f 44bd c748 1ebd
00000360: c769 8ebd 4d4a a3b8 19ad 47bd dcc7 963c
00000370: a2ad 1e3d 3e4d 0abd 5acf f93d ed3f 39bd
00000380: 6739 38bd 3435 b6bd 933e 343d 633b 1abb
00000390: 8b60 a0bc bff7 823d 2317 1a3d 026c 9abd
000003a0: e4ee 103d e03f abbd c8f9 f43c 1d9c 8a3c
000003b0: 7aac 613c 92b5 343d 30e6 a8bc 3fc5 8bbc
000003c0: e516 f43c 47bf aa3d 6d75 ba3c a826 40bc
000003d0: 0ca3 47bd 4f56 633b 23ae e0bc e06c f5bd
000003e0: 9fb8 493d 7486 a23c 98ff f13c 374c 85bd
000003f0: 8026 2e3c 0790 033d ccad 08bd 47e9 19bd

conv1.bias f4 [32]
-0.017706886 -0.070949316 0.08030196 0.024756348 -0.087973244 0.008817368 -0.05307721 -0.011540095
0.0050962395 0.11468878 -0.07431567 0.022029055 -0.019452175 0.031267628 0.04626165 0.04393197
-0.03421415 0.024431417 -0.0230794 0.0034440872 0.016620763 0.062528305 -0.065998614 -0.04632348
-0.0479172 0.03421374 -0.04797167 0.022498785 -0.06998682 0.017398259 -0.00627656 0.057246435
00000000: 080e 91bc e04d 91bd 5b75 a43d d3cd ca3c
00000010: 512b b4bd b976 103c 7d67 59bd ab12 3dbc
00000020: 5bfe a63b f3e1 ea3d d032 98bd 4776 b43c
00000030: 2b5a 9fbc 7c12 003d db7c 3d3d 02f2 333d
00000040: 2324 0cbd 6524 c83c 0311 bdbc 32b6 613b
00000050: 4428 883c d70e 803d 482a 87bd b0bd 3dbd
00000060: d344 44bd b523 0c3d f17d 44bd 5f4f b83c
00000070: 4055 8fbd cb86 8e3c 9aab cdbb 3d7b 6a3d

conv2.weight f4 [64, 32, 3, 3]
0.022411576 0.0116622625 0.014274918 -0.024721434 -0.02106681 -0.015877465 -0.024620455 -0.020525133
-0.026919076 -0.0069265477 -0.011990901 0.012374378 -0.03737948 -0.020323781 0.0058940477 -0.01963751
-0.0014720106 0.0072854445 -0.02356772 -0.023250459 -0.006228574 -0.008084552 -0.04268654 -0.023286583
-0.014133601 -0.019230513 0.014250408 -0.030504689 0.016966758 -0.015772602 -0.0023602021 -0.039049964
0.013519453 -0.045600053 -0.025009131 0.0035507462 -0.013205453 -0.025244135 -0.005976713 -0.004500063
-0.022610946 -0.003800228 -0.013418502 0.0008354021 -0.0017562391 -0.033320133 0.00801864 -0.029055303
-0.005312228 0.006535955 0.016146513 -0.019759364 0.019566739 -0.0036135637 -0.025284633 -0.0016778829
-0.02162662 -0.032993093 0.013249044 -0.008624214 -0.0074574896 -0.00037529765 0.003175002 -0.018655093
0.019696392 0.007943998 -0.017584313 -0.0035472536 0.0062462008 -0.015571321 -0.019071182 0.00042039357
0.021601431 -0.006320372 -0.017020626 0.013340692 -0.012642749 -0.01346595 -0.017383795 0.0041027735
-0.012988746 -0.020832801 -0.026175186 0.009669206 0.010800564 0.013658849 -0.010992485 -0.018343616
-0.009368072 -0.019984482 -0.016576549 -0.011843772 0.019440537 0.014556236 -0.010484908 -0.0057392786
-0.0006111304 -0.010140782 -0.014820302 -0.009382183 -0.0018517269 -0.0050176997 -0.040524296 -0.031353388
-0.020627249 -0.035175283 -0.0007898789 -0.02390225 0.011793382 0.0048371735 -0.0032224418 -0.014596844
-0.0092989765 -0.010060011 0.017535575 -0.0039053452 -0.022651684 0.00884421 -0.004411512 -0.013147664
-0.025634682 -0.0198789 -0.019369131 -0.042358626 -0.011808433 -0.013674459 -0.029130831 -0.01158148
-0.0018427408 -0.0054844716 -0.012602605 0.010027937 -0.036466032 -0.0028019617 0.0063406336 -0.036210697
0.002021448 0.0058164084 -0.00852523 -0.03255282 0.001013305 -0.011043849 0.010057509 0.01852814
-0.0075598443 -0.002275748 -0.01743618 0.023111448 -0.008336029 0.0009662729 0.011710017 -0.030674566
-0.013532005 -0.0087155225 -0.0038537194 -0.016266953 -0.009123092 -0.00838476 -0.0023379955 -0.0068238624
-0.030521948 -0.005549319 -0.0104597565 -0.0069389637 -0.020035325 -0.0026502053 0.007000132 0.0098161185
-0.014836575 -0.0135795465 0.0017193261 -0.0068359748 -0.011667428 0.0011556287 -0.007436663 0.018095428
0.015853792 -0.007518741 -0.015300556 -0.0008731833 -0.030396376 0.0108856205 0.0018866601 -0.006112979
-0.028109089 -0.012573123 -0.026674092 0.004533888 -0.008441025 -0.022341264 0.011195994 -0.012199156
-0.029285425 -0.015621698 -0.02154321 -0.025848046 0.009409088 -0.015982846 -0.021974633 -0.0002104017
-0.01287272 0.011047019 -0.02099632 0.006643552 -0.01331897 -0.027883118 0.015620852 0.0055740364
0.012146193 -0.003934588 -0.013490053 0.026301315 0.0006644181 -0.017251788 -0.008998397 -0.03623658
-0.0048326366 -0.028277714 0.001480229 0.008865717 -0.0068760314 0.010494359 -0.015286646 -0.012743652
0.0052591404 -0.005772947 -0.025827203 0.010641125 -0.008883284 -0.012576828 0.018794043 -0.017259689
-0.006437813 0.02210568 -0.014790815 -0.020630354 0.008104497 0.010175866 0.009610251 -0.020770362
-0.02252722 -0.008811041 -0.02597176 -0.010841186 -0.009696952 -0.03648114 -0.018736048 -0.018158395
-0.004993031 -0.014044242 -0.009627282 -0.01303115 -0.0010354851 0.006126849 -0.0050700484 -0.008487872
00000000: 7b98 b73c 1313 3f3c 58e1 693c 9b84 cabc
00000010: 4d94 acbc 7511 82bc d6b0 c9bc 5324 a8bc
00000020: 6585 dcbc 18f8 e2bb 7c75 44bc e7bd 4a3c
00000030: 3a1b 19bd 0f7e a6bc db22 c13b d8de a0bc
00000040: 7bf0 c0ba bdba ee3b 1711 c1bc bf77 bebc
00000050: 1119 ccbb 1275 04bc 15d8 2ebd 81c3 bebc
00000060: 9f90 67bc 4f89 9dbc 8b7a 693c f8e4 f9bc
00000070: dffd 8a3c 8b35 81bc 9fad 1abb dbf2 1fbd
00000080: b280 5d3c 1fc7 3abd f3df ccbc a3b3 683b
00000090: af5b 58bc cacc cebc 4dd8 c3bb 4475 93bb
000000a0: 973a b9bc 3f0d 79bb 47d9 5bbc e3fe 5a3a
000000b0: 9b31 e6ba b17a 08bd 9d60 033c 6305 eebc
000000c0: 3312 aebb 902b d63b b145 843c 64de a1bc
000000d0: 6d4a a03c 8ad1 6cbb b821 cfbc 68ec dbba
000000e0: 4f2a b1bc c423 07bd 8512 593c 934c 0dbc
000000f0: f55d f4bb 99c3 c4b9 b213 503b 91d2 98bc
00000100: 545a a13c 8b27 023c fa0c 90bc 0a79 68bb
00000110: eeac cc3b db1e 7fbc 2b3b 9cbc 4568 dc39
00000120: 7cf5 b03c 201b cfbb d76e 8bbc eb92 5a3c
00000130: 8823 4fbc 4aa0 5cbc 7668 8ebc 8f70 863b
00000140: c0ce 54bc 8da9 aabc 586d d6bc 976b 1e3c
00000150: d9f4 303c 5dc9 5f3c d319 34bc 5a45 96bc
00000160: 8b7c 19bc 7fb6 a3bc 8bcb 87bc 610c 42bc
00000170: c341 9f3c 477d 6e3c e4c8 2bbc 8f10 bcbb
00000180: 4434 20ba 8625 26bc dad0 72bc bab7 19bc
00000190: a5b5 f2ba 846b a4bb cefc 25bd 696c 00bd
000001a0: 7afa a8bc f513 10bd e00f 4fba a7ce c3bc
000001b0: 0739 413c 2781 9e3b 9a2f 53bb 9a27 6fbc
000001c0: bc5a 18bc bfd2 24bc c4a6 8f3c d2f0 7fbb
000001d0: 0690 b9bc 4ee7 103c 728e 90bb 4d69 57bc
000001e0: d3ff d1bc 13d9 a2bc 03ac 9ebc 3d80 2dbd
000001f0: 2878 41bc d70a 60bc c8a3 eebc 3fc0 3dbc
00000200: 1f88 f1ba 15b7 b3bb 287b 4ebc 374c 243c
00000210: 685d 15bd 1ea1 37bb 17c5 cf3b ab51 14bd
00000220: 457a 043b 9297 be3b 68ad 0bbc 1b56 05bd
00000230: e0d0 843a 43f1 34bc 40c8 243c 53c8 973c
00000240: 92b8 f7bb b724 15bb 52d6 8ebc 3854 bd3c
00000250: d793 08bc 7a4d 7d3a 5fdb 3f3c 3a49 fbbc
00000260: 58b5 5dbc 8dcb 0ebc af8e 7cbb 4642 85bc
00000270: 0579 15bc 3b60 09bc 0e39 19bb b59a dfbb
00000280: 2a09 fabc 10d7 b5bb 665f 2bbc 3f60 e3bb
00000290: 1f21 a4bc 11af 2dbb 5d61 e53b c9d3 203c
000002a0: 1b15 73bc bf7c 5ebc 035b e13a 5000 e0bb
000002b0: bd28 3fbc 7778 973a 40af f3bb dd3c 943c
000002c0: d0df 813c c55f f6bb 2faf 7abc 57e6 64ba
000002d0: d201 f9bc 9a59 323c cf49 f73a 624f c8bb
000002e0: 0845 e6bc 80ff 4dbc a083 dabc 0291 943b
000002f0: 3a4c 0abc 0705 b7bc 676f 373c f8de 47bc
00000300: fde7 efbc 27f2 7fbc 637b b0bc 48bf d3bc
00000310: 9328 1a3c 75ee 82bc 2504 b4bc 479f 5cb9
00000320: 1ae8 52bc 8efe 343c 7900 acbc 27b2 d93b
00000330: cf37 5abc 236b e4bc 9aee 7f3c 68a6 b63b
00000340: d300 473c b7ed 80bb 6205 5dbc db75 d73c
00000350: 582c 2e3a 9f53 8dbc 036e 13bc cf6c 14bd
00000360: 185b 9ebb aaa6 e7bc 3e04 c23a 8341 113c
00000370: 5550 e1bb 88f0 2b3c d774 7abc c0ca 50bc
00000380: de54 ac3b fd2a bdbb 9293 d3bc 1d58 2e3c
00000390: 328b 11bc 0a0f 4ebc f7f5 993c 3164 8dbc
000003a0: 4af4 d2bb f916 b53c 2d55 72bc fd00 a9bc
000003b0: b9c8 043c adb8 263c 5074 1d3c 9b26 aabc
000003c0: 018b b8bc 2f5c 10bc bac2 d4bc 3b9f 31bc
000003d0: f7df 1ebc 3f6d 15bd 577c 99bc eac0 94bc
000003e0: 949c a3bb d219 66bc bfbb 1dbc 9b80 55bc
000003f0: 1db9 87ba bcc3 c83b a622 a6bb b710 0bbc

conv2.bias f4 [64]
-0.00993428 -0.02474024 0.017452247 -0.020952277 -0.0023293754 -0.015648508 -0.024870604 -0.013142464
-0.019292697 -0.0061015463 -0.014924623 -0.010292414 -0.03784396 -0.015205624 -0.028262962 -0.0010870806
-0.010893593 0.023608094 -0.00835098 0.008545887 0.0024367056 -0.00027240018 -0.016381165 -0.0069104107
-0.029310817 -0.012678702 -0.029773472 -2.6813193e-05 -0.012420955 0.018266117 0.01968809 -0.020479864
-0.015149908 -7.8437755e-05 -0.027698508 -0.018984487 -0.024309743 -0.01474614 0.0030793436 -0.04554453
0.0004535039 -0.010058137 0.020233845 7.531708e-05 -0.01005737 -0.005193274 -0.010731833 -0.01091848
0.018166265 -0.005019263 -0.0175676 -0.0014897933 -0.012180608 -0.003936957 -0.01500085 0.0028631424
0.009386646 0.0014373584 -0.017606482 0.0032641813 0.001601442 -0.02287463 -0.005150022 0.0065787504
00000000: 64c3 22bc 0bac cabc 04f8 8e3c 1ca4 abbc
00000010: 6fa8 18bb 4d31 80bc 70bd cbbc 7d53 57bc
00000020: b80b 9ebc 7bef c7bb 6886 74bc 83a1 28bc
00000030: 4502 1bbd 0221 79bc ba87 e7bc 5f7c 8eba
00000040: 0a7b 32bc c365 c13c 8cd2 08bc 0c04 0c3c
00000050: 23b1 1f3b efd0 8eb9 cb31 86bc ba70 e2bb
00000060: 3d1d f0bc 55ba 4fbc 7fe7 f3bc e5ec e0b7
00000070: 4381 4bbc d3a2 953c eb48 a13c 63c5 a7bc
00000080: 5237 78bc f37e a4b8 fbe7 e2bc 5b85 9bbc
00000090: 3a25 c7bc cb99 71bc d0ce 493b e78c 3abd
000000a0: 43c4 ed39 e2ca 24bc 73c1 a53c 8df3 9d38
000000b0: abc7 24bc 572c aabb 92d4 2fbc 6de3 32bc
000000c0: 6bd1 943c a178 a4bb ede9 8fbc 2b45 c3ba
000000d0: 2c91 47bc 9701 81bb 20c6 75bc 8fa3 3b3b
000000e0: 72ca 193c bf65 bc3a 783b 90bc e0eb 553b
000000f0: 7ae7 d13a 9363 bbbc 84c1 a8bb 8f92 d73b

fc1.weight f4 [64, 2304]
-0.0045021954 -0.0173496 -0.010720396 -0.00018916717 -0.0011802035 -0.013965331 -0.015537194 0.008404956
-0.013534038 0.00477531 -0.008794463 -0.006599848 -0.010528587 -0.004978749 -0.00022992548 -0.0077517005
-0.0040377197 0.0026220807 -0.0044718846 -0.0026942894 -0.0022274896 0.00012783993 -0.0034374574 -0.0043936935
0.0051195803 -0.013205816 3.9812818e-05 -0.003821969 -0.001686436 -0.008545919 -0.0045003504 -0.010206009
0.0028305862 -0.004566455 0.0045238617 -0.012323598 0.0031036458 -0.0022093614 -0.003799035 0.00048460538
0.0004825245 -0.009519833 -0.012397676 -0.0041304715 -0.006589929 -0.0068826512 -0.0054093734 0.0036657401
0.0017030038 -0.005123508 -0.015845323 0.002632525 -0.0052729854 -0.0035919752 -0.0080977 0.0056078495
-0.008581358 -0.0069393055 -0.0056749494 0.009572931 -0.0028861107 -0.0041491888 -0.0038445536 -0.017032322
-0.00064210285 0.00029289533 0.0057663987 -0.0025211151 -0.006502203 0.00114526 -0.008962279 -0.0011304622
-0.0047008856 0.0025548635 0.009009059 -0.002637527 0.0053508608 0.0020319298 -0.005774346 -0.007880052
-0.0068838433 -0.010261743 0.003130349 0.0010960771 -0.006646385 0.0061746067 0.0034481913 -0.0041728094
-0.0077634305 0.007856495 -0.00019710585 -0.0065693944 -0.010648779 -0.0025852956 -0.004611763 0.0013872925
-0.0054777674 -0.0057442645 0.005822716 -0.0077126594 0.009129383 -0.003766251 -0.0034426823 -0.014934559
-0.0025702757 0.0001263343 2.2331576e-05 -0.009800977 -0.0030645938 -0.007137876 -0.010051114 -0.0059449016
-0.0048998226 -0.0013277645 -0.013658375 -0.0034138504 -0.00826073 -0.004659767 -0.009689654 0.0021364402
-0.01022753 -0.0029443565 0.004535351 0.00014574656 -0.004142028 -0.0050082197 -0.008786087 -0.005146531
-0.008509085 -0.0042336 -0.005166765 0.00061259506 -0.0054662223 0.0014923273 -0.0035444652 -0.008569416
0.0014179315 0.00095709675 -0.0009919389 -0.0038836242 -0.0035060905 -0.0020070507 -0.003454296 -0.0030013872
-0.0015466119 -0.013260143 -0.004804621 0.00049032195 -0.0012707601 -0.0036581475 0.001229735 -0.003758727
0.00034135696 -0.0028712414 0.0017368051 -0.0047911787 -0.006886886 0.0007501305 -0.001107234 -0.0041557103
-0.0014365092 0.0008630847 -0.003528999 -0.011340023 -0.00011330593 -0.0029644272 0.002545132 0.0052752956
-0.0021630318 -0.00659919 -0.006329886 0.005232878 -0.012157835 -0.011423659 -0.0010983554 -0.016228158
0.00020799214 -0.0075946883 0.0025536239 0.0021930896 0.00044790734 -0.009720605 0.009498048 -0.0015919913
0.002945264 -0.002176754 0.00037740983 0.011388235 -0.006882477 -0.0033295911 0.00035501958 0.00021691577
0.0059504993 0.007871645 -0.005042266 -0.00044263696 -0.0032574036 -0.010831761 0.0020734123 -0.014302367
-0.015483295 -0.0041554044 0.003531575 -0.016129298 -0.0017366998 -0.0054388805 -0.010942096 -0.009777636
-0.01338916 -0.0015015961 -0.00089663686 0.003804332 -0.0054059546 -0.008277344 -0.006135246 -0.008142254
0.011585384 -0.0024085303 -0.0033150078 -0.009837213 0.0023746702 -0.0061891573 0.014577701 0.015449119
-0.0017282704 0.005927296 0.0005571304 0.0178538 0.019488323 0.020063741 0.016604964 0.0021674333
0.01266027 0.0071935244 0.015910484 0.023455864 0.012736282 0.01645851 0.030066112 0.018214803
0.015722929 0.0119270105 0.017702525 0.024484137 0.020949772 0.008688855 -0.0011463439 0.0026418066
-0.003764641 -0.0047759567 -0.0074664094 -0.011384034 -0.00033304258 -0.007318617 -0.008958552 0.0062224288
00000000: 2787 93bb c020 8ebc 9aa4 2fbc 2d5b 46b9
00000010: 0fb1 9aba d8ce 64bc b78f 7ebc f1b4 093c
00000020: dfbd 5dbc 347a 9c3b a716 10bc 8a43 d8bb
00000030: 1880 2cbc c624 a3bb 2718 71b9 fa01 febb
00000040: d94e 84bb 37d7 2b3b e388 92bb ad92 30bb
00000050: 13fb 11bb c50c 0639 f746 61bb f9f8 8fbb
00000060: 27c2 a73b 355d 58bc b0fc 2638 007a 7abb
00000070: 670b ddba 2f04 0cbc ad77 93bb 1b37 27bc
00000080: 5b81 393b 33a2 95bb e73c 943b ebe8 49bc
00000090: 8966 4b3b efca 10bb 3bf9 78bb a212 fe39
000000a0: 58fb fc39 13f9 1bbc 9f1f 4bbc e858 87bb
000000b0: 55f0 d7bb dd87 e1bb 1d41 b1bb ea3c 703b
000000c0: 5337 df3a 1ae3 a7bb 0dce 81bc 7186 2c3b
000000d0: 02c9 acbb 5867 6bbb 37ac 04bc 0dc2 b73b
000000e0: d398 0cbc 1d63 e3bb edf4 b9bb c8d7 1c3c
000000f0: e724 3dbb ebf5 87bb e8f4 7bbb 5e87 8bbc
00000100: cb52 28ba bf8f 9939 0ff4 bc3b 4b39 25bb
00000110: 6f10 d5bb 8c1c 963a 86d6 12bc 042c 94ba
00000120: e309 9abb 7f6f 273b bb9a 133c 5cda 2cbb
00000130: 4656 af3b 202a 053b ba36 bdbb 551b 01bc
00000140: dd91 e1bb df20 28bc 8b26 4d3b 3faa 8f3a
00000150: ebc9 d9bb 5b54 ca3b 0dfb 613b 10bc 88bb
00000160: 6064 febb 87b8 003c 33ae 4eb9 1344 d7bb
00000170: 3778 2ebc 106e 29bb 461e 97bb d0d5 b53a
00000180: d87e b3bb 623a bcbb 7bcc be3b 7aba fcbb
00000190: 6893 153c 35d3 76bb a09e 61bb 15b0 74bc
000001a0: 1272 28bb 9b78 0439 b254 bb37 4794 20bc
000001b0: 5ad7 48bb d8e4 e9bb 6dad 24bc 73cd c2bb
000001c0: b18e a0bb 6208 aeba 60c7 5fbc e8ba 5fbb
000001d0: 0358 07bc f5b0 98bb 5bc1 1ebc 8503 0c3b
000001e0: 5f91 27bc 1bf6 40bb 489d 943b 8bd3 1839
000001f0: d9b9 87bb fe1b a4bb 85f3 0fbc 3ba4 a8bb
00000200: b069 0bbc 03ba 8abb f74d a9bb 8f96 203a
00000210: ff1d b3bb 329a c33a 424a 68bb bc66 0cbc
00000220: e3d9 b93a ade5 7a3a f203 82ba 6784 7ebb
00000230: 70c6 65bb b988 03bb 7861 62bb ecb2 44bb
00000240: afb7 caba 1241 59bc 1570 9dbb f388 003a
00000250: a28f a6ba 88bd 6fbb 0f2f a13a fa54 76bb
00000260: 28f8 b239 702b 3cbb 82a5 e33a 52ff 9cbb
00000270: 63ab e1bb 68a4 443a 9c20 91ba a02c 88bb
00000280: 4049 bcba a240 623a c746 67bb 81cb 39bc
00000290: a89e edb8 d646 42bb 3bcc 263b 63dc ac3b
000002a0: a7c1 0dbb 053e d8bb ef6a cfbb 9078 ab3b
000002b0: a831 47bc 4c2a 3bbc b1f6 8fba eaf0 84bc
000002c0: 7718 5a39 dddc f8bb b35a 273b f0b9 0f3b
000002d0: 1bd5 ea39 2c43 1fbc b39d 1b3c 5daa d0ba
000002e0: 5505 413b dfa7 0ebb 17df c539 b895 3a3c
000002f0: 6786 e1bb 4535 5abb ec21 ba39 e273 6339
00000300: 68fc c23b 12f8 003c 9839 a5bb ba11 e8b9
00000310: 2a7a 55bb b377 31bc 16e2 073b 7a54 6abc
00000320: a5ad 7dbc 0f2a 88bb ff71 673b 9721 84bc
00000330: faa1 e3ba a338 b2bb 7a46 33bc 6132 20bc
00000340: 355e 5bbc 34d1 c4ba 480c 6bba 1a52 793b
00000350: 6f24 b1bb b29d 07bc 2c0a c9bb 1767 05bc
00000360: 9fd0 3d3c 6fd8 1dbb 9a40 59bb 432c 21bc
00000370: 5ba0 1b3b 6ace cabb 4fd7 6e3c 4d1e 7d3c
00000380: 2287 e2ba c339 c23b 630c 123a 2242 923c
00000390: faa5 9f3c b75c a43c 2207 883c 7f0b 0e3b
000003a0: 056d 4f3c a8b7 eb3b b456 823c 8326 c03c
000003b0: d7ab 503c ffd3 863c 354d f63c 3637 953c
000003c0: 5fcd 803c 8269 433c e304 913c f592 c83c
000003d0: db9e ab3c b35b 0e3c eb40 96ba 2922 2d3b
000003e0: 32b8 76bb a17f 9cbb c8a8 f4bb 1984 3abc
000003f0: 389c aeb9 02d1 efbb e4c6 12bc 84e5 cb3b

fc1.bias f4 [64]
0.005331254 -0.0018109415 -0.0006197815 0.012580845 -0.004024205 -0.0016903188 0.007972385 -0.00782537
0.011758044 0.00431594 -0.00029961934 0.0025824064 0.005419178 -0.02182447 -0.013627553 -0.004583504
-0.0045906124 0.0072864676 -0.014185843 0.018362634 -0.0065471823 -0.013016927 -0.009558027 0.01767604
0.008070483 0.01709794 0.014501055 -0.00032917425 0.004266809 -0.0013850875 -0.0009984837 -0.0027869714
0.0034030785 -0.011110092 0.01640236 -0.0020176475 -0.008377875 -0.003334267 -0.008614567 -0.013588905
0.0022814688 -0.0058721798 0.0026404297 -0.011328602 -0.009280005 0.018016953 0.00089443254 0.0006518822
0.0014283427 -0.011647675 0.0050553544 -0.009827408 0.0011174218 0.00418315 -0.00028958655 0.008966804
-0.0022789433 0.0045722914 0.0021833193 -0.0022421207 -0.00714679 0.0015856446 -0.000332397 -0.0025861138
00000000: cdb1 ae3b 1d5d edba d578 22ba e31f 4e3c
00000010: 7add 83bb b08d ddba 9b9e 023c fb35 00bc
00000020: d0a4 403c bb6c 8d3b 3a16 9db9 973d 293b
00000030: 5c93 b13b 3bc9 b2bc 1a46 5fbc 3831 96bb
00000040: d96c 96bb 52c3 ee3b bd6b 68bc 3c6d 963c
00000050: bf89 d6bb f344 55bc 4599 1cbc 58cd 903c
00000060: 0f3a 043c fb10 8c3c d595 6d3c 0595 acb9
00000070: 97d0 8b3b d38b b5ba 8edf 82ba 9fa5 36bb
00000080: 2f06 5f3b 1a07 36bc 3e5e 863c 823a 04bb
00000090: 5b43 09bc b883 5abb 1d24 0dbc 00a4 5ebc
000000a0: b284 153b 6a6b c0bb 0f0b 2d3b 9a9b 39bc
000000b0: 290b 18bc 4a98 933c 5a78 6a3a 13e3 2a3a
000000c0: 3a37 bb3a e4d5 3ebc 63a7 a53b 2303 21bc
000000d0: 7476 923a ce12 893b a6d3 97b9 80e9 123c
000000e0: 535a 15bb 29d3 953b 0516 0f3b 8bf0 12bb
000000f0: 9f2f eabb 67d5 cf3a 9245 aeb9 ca7b 29bb

fc2.weight f4 [10, 64]
0.039506447 -0.019739805 -0.017749075 -0.011144876 0.020798057 -0.042919543 0.00982656 0.04789029
0.0060133 0.0004266796 0.017213615 -0.05717334 -0.050018918 0.040808007 0.023578512 0.0014637888
-0.023440048 0.02284281 -0.02379906 -0.0058961916 0.009253504 -0.047115713 -0.015717171 -0.0523705
0.011699607 -0.029686166 0.0030080741 -0.020808615 0.044991046 0.048314586 -0.050071664 -0.021463929
0.02940072 0.07388475 -0.023248978 -0.036790714 0.055141177 -0.034370657 -0.020962844 -0.04093323
-0.01546366 0.018557403 0.052045245 0.06272862 -0.022263967 -0.0131030725 -0.017867027 -0.037297916
0.036967915 0.040310528 -0.045218553 0.004617464 0.0051975106 -0.08131027 -0.0024644935 0.038378984
0.015340253 0.033082124 -0.02903111 0.019094031 0.0122273555 -0.033230964 -0.01288909 -0.011865175
0.0055929804 -0.04409116 0.010131761 -0.040507108 -0.0029709542 -0.009082047 0.014987473 -0.015106891
-0.020874908 0.0014154821 0.012933922 0.028189434 0.006898177 0.0120608825 -0.006955467 0.02032874
0.019542864 -0.05104504 -0.0134238005 -0.05186684 0.037971478 -0.01658839 0.008995111 0.0024361021
0.009980013 -0.053527962 0.026222667 -0.0018239658 -0.025705546 0.026359145 -0.04748012 0.020222368
-0.057108928 0.022650002 -0.065041065 -0.050760843 0.059672046 0.049043626 0.0023433454 0.0015710982
-0.05820143 -0.011151595 -0.045411695 0.012831743 0.018271923 -0.06164011 0.033003826 0.021167278
-0.021186778 0.08365958 -0.0011150284 -0.01797756 -0.024491174 0.012319738 0.050418563 -0.059054263
0.04090622 -0.008504395 -0.035251312 -0.049697157 0.04020476 0.018514488 0.03305212 0.029358778
-0.0027082905 -0.015831133 -0.0050929086 -0.047780976 -0.06301965 -0.0023641267 0.0021105947 -0.0023989994
-0.0027234193 -0.0035553225 -0.000333512 -0.0037209261 0.024842568 0.052251507 0.014680624 0.008554409
0.026304612 -0.0037790423 0.036780424 0.04522772 -0.05833258 0.041127156 0.022244629 0.024463799
0.060403742 0.010584175 -0.039746165 0.009370889 -0.062576115 0.014870944 -0.00054086384 0.03061578
0.043404706 -0.025097853 0.07315647 -0.011112029 0.0041829473 -0.053146727 -0.052061636 -0.012992004
-0.0003724338 0.019413207 -0.014966622 0.0052945614 0.0047286316 -0.00319116 -0.057263862 0.059716947
0.019050373 0.011487822 0.025867565 0.035917033 -0.009673673 -0.016783945 0.034800418 0.05296439
-0.015067349 -0.04557836 -0.035102602 -0.012143518 0.0031449278 -0.00688504 0.016223397 0.044493224
-0.025400696 -0.022685165 0.00928923 -0.037194382 0.0087798815 0.010478869 0.025535284 0.012637682
0.043879446 0.061415125 -0.0066170753 -0.03166098 -0.004315371 -0.042283513 0.012278607 0.01391226
-0.04042805 -0.005188178 0.020449683 0.023812095 -0.022648176 0.04709431 0.077160284 -0.0086130155
-0.011533837 0.0033944477 -0.04201766 0.0014953675 -0.039606385 0.022149473 -0.0044772294 0.005119951
0.0085177235 -0.023620902 0.014750219 0.020934764 0.06037564 -0.03755678 0.04624988 0.028944269
0.03179745 0.010886046 -0.026112927 0.02668943 0.01807086 0.024263132 -0.01756483 0.00889529
-0.01839771 0.026411206 -0.037331697 0.030776009 -0.011848295 -0.00044867568 0.04679143 -0.036135223
-0.003858839 0.025616273 0.017702496 -0.0065633357 0.054012805 -0.017699512 0.025318353 -0.039283402
00000000: 83d1 213d 5fb5 a1bc 8266 91bc ff98 36bc
00000010: b060 aa3c 67cc 2fbd 94ff 203c 9c28 443d
00000020: 370b c53b f7b3 df39 9103 8d3c 982e 6abd
00000030: a3e0 4cbd 4c26 273d b927 c13c 9adc bf3a
00000040: 5805 c0bc d820 bb3c 3ff6 c2bc d734 c1bb
00000050: 029c 173c 68fc 40bd 4cc1 80bc 7382 56bd
00000060: b5af 3f3c 6730 f3bc 1c23 453b d476 aabc
00000070: 8848 383d 84e5 453d f217 4dbd 1fd5 afbc
00000080: c7d9 f03c e350 973d a474 bebc dcb1 16bd
00000090: b7db 613d 3fc8 0cbd 45ba abbc 9aa9 27bd
000000a0: 4a5b 7dbc b205 983c 652d 553d dd77 803d
000000b0: ec62 b6bc 45ae 56bc df5d 92bc b3c5 18bd
000000c0: ab6b 173d a71c 253d 1737 39bd 184e 973b
000000d0: e14f aa3b 0086 a6bd 5783 21bb 4833 1d3d
000000e0: af55 7b3c 1f81 073d a7d2 edbc 166b 9c3c
000000f0: 3f55 483c 311d 08bd c32c 53bc 2766 42bc
00000100: 5245 b73b ef98 34bd b0ff 253c c8ea 25bd
00000110: 57b4 42bb decc 14bc 058e 753c e582 77bc
00000120: db01 abbc b387 b93a cde8 533c 87ed e63c
00000130: 1a0a e23b 029b 453c b0ea e3bb 7588 a63c
00000140: 5b18 a03c 9b14 51bd 80ef 5bbc 5372 54bd
00000150: fb87 1b3d 60e4 87bc 3b60 133c 03a7 1f3b
00000160: 3583 233c 2340 5bbd ebd0 d63c 2312 efba
00000170: 7094 d2bc 22ef d73c 847a 42bd 61a9 a53c
00000180: 0deb 69bd 7f8c b93c 4034 85bd 9aea 4fbd
00000190: ad6a 743d f8e1 483d d092 193b 4fed cd3a
000001a0: 9f64 6ebd 2eb5 36bc 9d01 3abd 3b3c 523c
000001b0: 00af 953c 577a 7cbd 052f 073d 0067 ad3c
000001c0: e58f adbc b755 ab3d 2526 92ba ad45 93bc
000001d0: b7a1 c8bc bad8 493c b283 4e3d e2e2 71bd
000001e0: 488d 273d 0556 0bbc ae63 10bd 3f8f 4bbd
000001f0: bfad 243d b2ab 973c a961 073d d281 f03c
00000200: 937d 31bb 4bb0 81bc 6ae2 a6bb fcb5 43bd
00000210: 7210 81bd 77ef 1abb e751 0a3b 8838 1dbb
00000220: 657b 32bb 6a00 69bb 39db aeb9 c8da 73bb
00000230: a482 cb3c ad05 563d 0087 703c cb27 0c3c
00000240: c57c d73c cfa9 77bb 12a7 163d b440 393d
00000250: 25ee 6ebd f374 283d 5e3a b63c 4e68 c83c
00000260: ea69 773d 3f69 2d3c e0cc 22bd 5b88 193c
00000270: e827 80bd 43a5 733c c2c8 0dba f2cd fa3c
00000280: 22c9 313d 039a cdbc 0fd3 953d 3a0f 36bc
00000290: 1b11 893b 62b0 59bd 953e 55bd 6adc 54bc
000002a0: 3843 c3b9 7208 9f3c 9036 75bc 007e ad3b
000002b0: a3f2 9a3b c822 51bb 838d 6abd c299 743d
000002c0: 870f 9c3c 6b37 3c3c 37e8 d33c bd1d 133d
000002d0: 537e 1ebc 7c7e 89bc e28a 0e3d 30f1 583d
000002e0: 0bdd 76bc 60b0 3abd bfc7 0fbd 9bf5 46bc
000002f0: 221b 4e3b e79b e1bb eee6 843c 873e 363d
00000300: 1f15 d0bc 3dd6 b9bc db31 183c 2359 18bd
00000310: 7ed9 0f3c 90af 2b3c 5f2f d13c 480e 4f3c
00000320: efba 333d 6d8e 7b3d 0dd4 d8bb f2ae 01bd
00000330: f567 8dbb 7a31 2dbd 362c 493c 3ff0 633c
00000340: e297 25bd 9701 aabb 1886 a73c 9511 c33c
00000350: ab88 b9bc f7e5 403d 3606 9e3d 9b1d 0dbc
00000360: 6bf8 3cbc 6275 5e3b b61a 2cbd 3500 c43a
00000370: 4e3a 22bd d072 b53c b9b5 92bb 43c5 a73b
00000380: ec8d 0b3c 9f80 c1bc e7aa 713c 627f ab3c
00000390: 724c 773d 23d5 19bd 8470 3d3d 881c ed3c
000003a0: 0b3e 023d 635b 323c c7ea d5bc cba3 da3c
000003b0: 5709 943c 7ac3 c63c 1ee4 8fbc 8dbd 113c
000003c0: cbb6 96bc 505c d83c 1fe9 18bd f81d fc3c
000003d0: 5a1f 42bc 3b3c ebb9 5fa8 3f3d 8702 14bd
000003e0: 93e4 7cbb 38d9 d13c d304 913c 4011 d7bb
000003f0: 883c 5d3d 91fe 90bc 6f68 cf3c a2e7 20bd

fc2.bias f4 [10]
-0.03695282 0.015374735 0.026522879 0.04864156 0.05910055 0.0041287527 -0.0055717914 -0.04290166
0.02377396 0.0060803466
00000000: d75b 17bd 50e6 7b3c 8246 d93c 5f3c 473d
00000010: 6b13 723d 7d4a 873b 9393 b6bb a7b9 2fbd
00000020: 9cc1 c23c a53d c73b
