torch_to_tf/torch_models/model_round359.model (torch, 672591 bytes, 8 tensors)

conv1.weight f4 [32, 3, 3, 3]
00000000: 78e7 5b3d e8c8 873d 1daf 453d 62d7 a03c
00000010: 07cc 1939 12dc ee3c bc7d 393d 2310 193d
00000020: 6746 1b3d 1525 86bd 305b e43c 4375 483d
00000030: a55b 4d3d 457e 36bd a7de e03c 7d61 24bc
00000040: ea83 d1bd 3296 e83d 2ab1 1fbd 30e0 083b
00000050: 6240 a83c f26f f23c 8879 853c 40d9 5d3d
00000060: a59c a7bc 18c1 6d3d 8334 143d 570d 2bbd
00000070: fd52 59bb 8d2c 61bd 0795 93bc 3d30 ad3c
00000080: 23ce 9a3d 2f49 30bd c443 0c3d 8509 adbb
00000090: a3ce b73d 32b3 123e a352 c5bc a5d4 ecbc
000000a0: 7bcb a8bc 00ab 2abd 0561 a6bc 5572 dcbc
000000b0: 48e2 b5bc aaa5 a73d 58a1 823d 4b2a 873d
000000c0: 927e 24bd 4bdc c9bd ba37 6e3c 43ec 7a3d
000000d0: 8052 b9bd 3804 a5bd 5d6a 81bd cedc 3fbb
000000e0: 62af 27bd c6b4 183d d36b 3ebd 9b6d 593c
000000f0: ce0c acbc 1fb5 473d be3c b73c 0835 95bd
00000100: bd10 8e3a 2552 053d 6208 b73c f5dd 45bd
00000110: d33d 86bc 0e0a b2bd 7d56 0cbd 37c8 c03d
00000120: 2b05 0fbc 07e0 b5bb 8416 003d ede6 60bd
00000130: 230b 62b8 c3e9 043d e715 713d e0cf 453c
00000140: 919d b53c 503e 533c 986d d63c cd23 35bd
00000150: 3341 b5bd db3d 233d 406f 60bb fd59 e33d
00000160: 1fea 353d 0b9d 7c3c 5579 313c a88e 2bbc
00000170: af73 a2ba c731 7c3c 7837 353d 1fe3 a83c
00000180: 68bc a93d 9d28 b83c e743 073d f8ea 123c
00000190: 4183 2b3d 1332 09bc 3a4f a1bc 6292 80bd
000001a0: 5d7e 563b cf08 b93b 88a4 a73c c137 aa3a
000001b0: 2564 483d f357 cabd b7f8 b3b9 0bdd 96bd
000001c0: 1860 c9ba 13c3 61bd a9e3 b5bd 729d 3f3d
000001d0: ebd0 b73c 83b1 cebb 8a0c f9bc 93dd c43d
000001e0: b510 edbc 43bf f4bc 681f 04bc 488c 29bd
000001f0: 4792 973c d833 133c 8ff5 063d 9d8e c83c
00000200: 6a7b 623d e90a 0f3b 649f 3c3c 1aba a13c
00000210: 0b9d 91bc 6295 c13d cb26 383d 6a5b e73c
00000220: f359 853d c5ba f43d 136e c5ba 8a43 6bbd
00000230: 0bea cf3d 30e3 183b 2fdb 433c 4fa3 44bc
00000240: 4480 99bc ed86 3ebd eb37 ebbc 4acb 953b
00000250: d08b 373d aa2e f0bc 0d2e 453b 2366 9f3d
00000260: 8fb6 813b 3051 c7bb 8b66 4abd 4da7 c9bd
00000270: 5452 33bc 0349 e83c e3fa adbd 6b7f 3cbd
00000280: 051e 63bc b429 b7bd 58d3 d43c 5357 b53d
00000290: e7c0 d2bb e3c9 143d b131 ca3c 2bd8 803b
000002a0: 7465 2fbd 22d3 3b3d 77ee aabc 1073 603d
000002b0: 94ea 173d 4b4c ec3d 977d 08be e58e 13bd
000002c0: ef87 b2bd b3d8 8a3c 0d48 883c b062 0d3c
000002d0: 23f0 18bd 4844 c33c 9507 ff3c 8dc1 9fbd
000002e0: 2ab9 88bd a859 0bbd 80b9 f23c cf7e 91bd
000002f0: bb93 88ba ab41 2f3c 3a20 893c dc32 a0bc
00000300: aa70 bbbd f7b2 53bc d7d6 3c3d 6baf 733d
00000310: d503 a0bb bdb0 763c 228e 8b3d b453 a33b
00000320: eb06 2abc e27a 223b 5739 173c 9687 133d
00000330: e021 0e3e 0d33 d83d afaf 14bd c1e6 a2bd
00000340: b340 39bd 6b4a 56bd 535b 2abd 2fd6 f6bd
00000350: 8374 b53c 7234 653d 5892 3dbd 514e 2bbd
00000360: eded 96bd 6879 60bb b3d1 4abd 03de 9f3c
00000370: 4b1b 1e3d 0c6c 0abd 9ae6 003e bd23 2dbd
00000380: 3bac 2dbd 62ed bbbd 9d5f 2b3d 316b 2dbb
00000390: aba1 93bc 2b2d 833d 9220 173d 90da 93bd
000003a0: 6cfd 183d fb66 aabd 9277 ec3c 310e 803c
000003b0: 2f53 5b3c 80a2 453d 8363 98bc 47c3 88bc
000003c0: ef45 123d e000 b43d ed61 ce3c 4d4a 57bc
000003d0: 57f9 5dbd 8bc0 b33b 27a2 cabc 92c8 e3bd
000003e0: 5042 7d3d 19bc bf3c bc31 353d 109d 45bd
000003f0: 17cd 673a eb30 a83c 188d 11bd b38e 32bd
0.053687543 0.06630117 0.048262704 0.019633953 0.00014667223 0.029157672 0.045285925 0.037368905
0.037908938 -0.065500416 0.027875513 0.048939954 0.050136227 -0.044554014 0.027449919 -0.010033009
-0.10230239 0.113567725 -0.038987316 0.002088558 0.020538513 0.029594395 0.016293302 0.054162264
-0.020460436 0.058045477 0.03618289 -0.04176077 -0.0033161037 -0.054974128 -0.018015398 0.021141166
0.07558849 -0.043038543 0.034244314 -0.005280676 0.0897496 0.1432617 -0.024087256 -0.02890999
-0.02060484 -0.041666985 -0.020309934 -0.026909987 -0.022202626 0.08185895 0.0637843 0.065998636
-0.04015977 -0.09856471 0.014539653 0.061260473 -0.09048939 -0.08057445 -0.06319115 -0.0029275897
-0.040938742 0.037281774 -0.046489548 0.013270761 -0.0210022 0.048756715 0.022367831 -0.072855055
0.0010838729 0.032549042 0.022342864 -0.048307378 -0.016386902 -0.08693324 -0.03426217 0.09413188
-0.0087292595 -0.005550388 0.031271473 -0.054907728 -5.389297e-05 0.032449495 0.05885878 0.012073487
0.02216986 0.012893274 0.026175305 -0.044223595 -0.088503264 0.03985391 -0.0034245998 0.11101148
0.04441273 0.015418301 0.0108321505 -0.010471024 -0.0012394096 0.015392727 0.044242352 0.020616112
0.08287889 0.022480303 0.03302374 0.008967154 0.04187322 -0.008373755 -0.019691098 -0.0627792
0.0032729127 0.005646802 0.020464197 0.0012986587 0.04892363 -0.09880056 -0.00034326848 -0.07366379
-0.0015363721 -0.055117678 -0.08881313 0.04678101 0.022438487 -0.006307782 -0.030401487 0.096125744
-0.02893863 -0.029876357 -0.008064128 -0.04139355 0.018502368 0.0089845285 0.032949027 0.024482066
0.055293478 0.0021826571 0.011512611 0.01974206 -0.01777508 0.09452321 0.04495887 0.028241832
0.06511297 0.11949686 -0.0015062712 -0.057437457 0.10152062 0.0023328774 0.011954113 -0.012001826
-0.01873792 -0.046515394 -0.028713187 0.004571353 0.04481107 -0.029319126 0.0030087263 0.07783153
0.0039585303 -0.0060826764 -0.0494142 -0.09846363 -0.0109449215 0.028355127 -0.084951185 -0.046019953
-0.013862138 -0.08943501 0.025979683 0.088545464 -0.006431687 0.036325347 0.024681898 0.003932019
-0.042821363 0.04585565 -0.020865662 0.054797232 0.037088946 0.11537989 -0.13329159 -0.036024947
-0.087173335 0.016949033 0.016635919 0.008629486 -0.037338387 0.02383627 0.031131545 -0.07800589
-0.06675942 -0.03402105 0.029629469 -0.07104265 -0.0010420004 0.010696809 0.016739 -0.019555502
-0.09152348 -0.0129210865 0.046103325 0.059493463 -0.0048832693 0.015056786 0.06814219 0.0049843434
-0.010377626 0.0024792482 0.0092299795 0.036017977 0.1388011 0.10556612 -0.036300357 -0.07954169
-0.045227718 -0.052317064 -0.041591 -0.12052571 0.022150284 0.05595822 -0.046282142 -0.041822735
-0.073695995 -0.0034252051 -0.04951639 0.019515043 0.038600247 -0.033794448 0.12587968 -0.04227041
-0.04240058 -0.091761366 0.04183923 -0.0026461596 -0.018021425 0.064050995 0.036896296 -0.07219422
0.037351057 -0.08320423 0.02886561 0.015631767 0.013386532 0.048250675 -0.018602138 -0.016694678
0.035711225 0.087892294 0.025193179 -0.013140273 -0.054192867 0.0054855994 -0.024735523 -0.1112224
0.06183082 0.023405122 0.044236884 -0.04824549 0.00088425115 0.020531138 -0.035534948 -0.04359312

conv1.bias f4 [32]
00000000: e2be 69bc a36b afbd 18b5 993d 01cb 403d
00000010: 976e c0bd 7045 7dbd b472 b0bd 4d09 393d
00000020: 8020 fe3b 9ae1 023e 583a 3cbd 2ced a73c
00000030: a5cd 213c 4ece 903d c7a2 983d 3e0c 983d
00000040: 3d56 56bd 2328 bf3c f143 b93c c811 c13b
00000050: ae36 823c b332 353d 3435 98bd 8af0 11bd
00000060: a405 a0bd f881 723c 68c0 03bd 83cd aa3c
00000070: a628 93bd bb7f 28bc 609e a73c c236 bc3d
-0.014266701 -0.08565452 0.07505244 0.0470686 -0.09396093 -0.0618338 -0.08615628 0.045174886
0.007755339 0.12781373 -0.04595408 0.020498835 0.00987569 0.070705995 0.07452922 0.0742421
-0.052328337 0.023334568 0.022615405 0.0058920123 0.015895214 0.044237804 -0.07432023 -0.035629787
-0.07813576 0.014801495 -0.032165915 0.020849949 -0.071854874 -0.01028436 0.020461261 0.09190132

conv2.weight f4 [64, 32, 3, 3]
00000000: 5098 b73c ba12 3f3c f7e0 693c ca84 cabc
00000010: 7a94 acbc a011 82bc 03b1 c9bc 7f24 a8bc
00000020: 8f85 dcbc b2f8 e2bb bc75 44bc 87bd 4a3c
00000030: 471b 19bd 327e a6bc 5322 c13b f4de a0bc
00000040: 43f2 c0ba 0fba ee3b 4711 c1bc f777 bebc
00000050: e919 ccbb 6b75 04bc 2bd8 2ebd b2c3 bebc
00000060: f890 67bc 7f89 9dbc 277a 693c 2ae5 f9bc
00000070: b5fd 8a3c b535 81bc 17af 1abb f3f2 1fbd
00000080: 5a80 5d3c 33c7 3abd 17e0 ccbc 23b2 683b
00000090: 205c 58bc 00cd cebc 30d9 c3bb 1f76 93bb
000000a0: cd3a b9bc 070f 79bb b5d9 5bbc b5f7 5a3a
000000b0: 4035 e6ba c47a 08bd 4b60 033c 8f05 eebc
000000c0: e912 aebb da2a d63b 8545 843c 90de a1bc
000000d0: 3f4a a03c fdd2 6cbb df21 cfbc 38ef dbba
000000e0: 792a b1bc d223 07bd 3712 593c e84c 0dbc
000000f0: 905e f4bb e5cd c4b9 6312 503b b7d2 98bc
00000100: 305a a13c 3727 023c 2a0d 90bc 537a 68bb
00000110: 43ac cc3b 371f 7fbc 553b 9cbc 075b dc39
00000120: 63f5 b03c a51b cfbb 046f 8bbc 9792 5a3c
00000130: c823 4fbc a3a0 5cbc 9f68 8ebc fb6f 863b
00000140: 08cf 54bc b7a9 aabc 826d d6bc 4a6b 1e3c
00000150: 82f4 303c 07c9 5f3c 301a 34bc 8a45 96bc
00000160: f07c 19bc adb6 a3bc abcb 87bc c40c 42bc
00000170: 9941 9f3c ea7c 6e3c 35c9 2bbc 1911 bcbb
00000180: 4739 20ba ca25 26bc 1bd1 72bc 23b8 19bc
00000190: e0b8 f2ba 476c a4bb e5fc 25bd 806c 00bd
000001a0: a7fa a8bc 0c14 10bd 1d16 4fba d9ce c3bc
000001b0: ca38 413c 7780 9e3b ad30 53bb e327 6fbc
000001c0: fd5a 18bc 1dd3 24bc a9a6 8f3c 0af2 7fbb
000001d0: 2d90 b9bc fbe6 103c 1f8f 90bb a369 57bc
000001e0: fdff d1bc 40d9 a2bc 2fac 9ebc 4f80 2dbd
000001f0: 8078 41bc 330b 60bc eaa3 eebc 95c0 3dbc
00000200: 078b f1ba c0b7 b3bb 837b 4ebc e34b 243c
00000210: 7b5d 15bd 8fa2 37bb 6dc4 cf3b c051 14bd
00000220: c978 043b dc96 be3b bbad 0bbc 2b56 05bd
00000230: 1ace 843a 95f1 34bc efc7 243c 2ac8 973c
00000240: 33b9 f7bb 0026 15bb 79d6 8ebc 1254 bd3c
00000250: 2b94 08bc 7d48 7d3a 0bdb 3f3c 6349 fbbc
00000260: a0b5 5dbc efcb 0ebc 4790 7cbb 7542 85bc
00000270: 6879 15bc 9d60 09bc 943a 19bb 7f9b dfbb
00000280: 5809 fabc e4d7 b5bb 9b5f 2bbc 9860 e3bb
00000290: 3a21 a4bc efaf 2dbb fa60 e53b 74d3 203c
000002a0: 6015 73bc fd7c 5ebc 0a59 e13a c800 e0bb
000002b0: f028 3fbc 9276 973a a5af f3bb bf3c 943c
000002c0: a7df 813c 6d60 f6bb 73af 7abc 80ec 64ba
000002d0: fb01 f9bc 4159 323c df46 f73a 1850 c8bb
000002e0: 2f45 e6bc d8ff 4dbc c783 dabc 4b90 943b
000002f0: a34c 0abc 2d05 b7bc 136f 373c 5ddf 47bc
00000300: 25e8 efbc 70f2 7fbc 8f7b b0bc 70bf d3bc
00000310: 3328 1a3c 9bee 82bc 5104 b4bc b0b6 5cb9
00000320: 73e8 52bc 37fe 343c a400 acbc 72b1 d93b
00000330: 2b38 5abc 506b e4bc 42ee 7f3c c7a5 b63b
00000340: 8b00 473c 42ee 80bb b705 5dbc b275 d73c
00000350: 9927 2e3a c253 8dbc 726e 13bc e56c 14bd
00000360: d05b 9ebb d7a6 e7bc 5801 c23a 2941 113c
00000370: 0f51 e1bb 33f0 2b3c 3075 7abc 15cb 50bc
00000380: 3454 ac3b 872b bdbb bf93 d3bc c757 2e3c
00000390: 7b8b 11bc 4b0f 4ebc cdf5 993c 5b64 8dbc
000003a0: c7f4 d2bb d716 b53c a755 72bc 3a01 a9bc
000003b0: 49c8 043c 37b8 263c eb73 1d3c cf26 aabc
000003c0: 3b8b b8bc 9f5c 10bc ddc2 d4bc 9f9f 31bc
000003d0: 51e0 1ebc 556d 15bd 877c 99bc 19c1 94bc
000003e0: 659d a3bb 2d1a 66bc 08bc 1dbc ff80 55bc
000003f0: 79bb 87ba 27c3 c83b 0f23 a6bb f810 0bbc
0.022411495 0.01166218 0.014274827 -0.024721522 -0.021066893 -0.015877545 -0.024620539 -0.020525215
-0.026919154 -0.0069266194 -0.011990961 0.012374288 -0.03737953 -0.020323846 0.0058939843 -0.019637562
-0.0014720637 0.0072853635 -0.023567809 -0.023250563 -0.0062286747 -0.008084635 -0.042686623 -0.023286674
-0.014133684 -0.019230602 0.014250315 -0.030504782 0.01696668 -0.01577268 -0.0023602897 -0.039050054
0.013519371 -0.045600127 -0.025009198 0.0035506568 -0.013205558 -0.025244236 -0.0059768185 -0.004500165
-0.022611046 -0.0038003342 -0.013418605 0.0008352951 -0.0017563477 -0.033320203 0.0080185635 -0.029055385
-0.005312313 0.00653587 0.01614643 -0.019759446 0.019566653 -0.00361365 -0.025284706 -0.0016779667
-0.021626698 -0.032993145 0.013248972 -0.008624293 -0.007457562 -0.00037537437 0.003174924 -0.018655164
0.019696325 0.00794392 -0.017584402 -0.0035473302 0.006246121 -0.015571407 -0.01907126 0.0004202949
0.021601385 -0.006320434 -0.01702071 0.013340614 -0.012642808 -0.013466033 -0.017383872 0.0041027046
-0.012988813 -0.02083288 -0.026175264 0.009669134 0.010800483 0.0136587685 -0.010992572 -0.018343706
-0.009368166 -0.019984568 -0.016576609 -0.011843864 0.01944046 0.014556149 -0.010484983 -0.005739343
-0.00061120506 -0.010140846 -0.014820362 -0.0093822805 -0.0018518232 -0.0050177905 -0.040524382 -0.031353474
-0.020627333 -0.03517537 -0.00078997185 -0.023902344 0.011793325 0.0048370915 -0.0032225058 -0.014596912
-0.009299037 -0.010060099 0.017535524 -0.0039054179 -0.022651756 0.008844133 -0.0044115926 -0.013147744
-0.02563476 -0.019878983 -0.019369213 -0.042358693 -0.011808515 -0.013674545 -0.029130895 -0.01158156
-0.0018428274 -0.005484551 -0.01260269 0.010027858 -0.036466103 -0.0028020476 0.0063405544 -0.036210775
0.0020213595 0.0058163237 -0.008525307 -0.03255288 0.0010132224 -0.011043926 0.0100574335 0.018528063
-0.0075599193 -0.0022758245 -0.017436253 0.023111377 -0.008336107 0.00096619857 0.011709939 -0.030674642
-0.013532072 -0.008715614 -0.0038538144 -0.01626704 -0.009123184 -0.008384851 -0.0023380863 -0.0068239565
-0.030522034 -0.005549418 -0.010459806 -0.006939005 -0.020035375 -0.002650257 0.007000086 0.009816039
-0.014836639 -0.013579604 0.0017192673 -0.0068360306 -0.011667475 0.0011555722 -0.00743671 0.018095372
0.015853716 -0.007518819 -0.015300619 -0.0008732751 -0.030396452 0.010885538 0.0018865726 -0.0061130635
-0.028109161 -0.012573205 -0.026674164 0.0045338026 -0.008441123 -0.022341335 0.011195916 -0.01219925
-0.0292855 -0.015621766 -0.021543292 -0.02584812 0.009408998 -0.015982917 -0.021974714 -0.00021048891
-0.012872803 0.011046938 -0.0209964 0.0066434676 -0.013319056 -0.027883202 0.01562077 0.0055739614
0.012146126 -0.0039346525 -0.013490132 0.026301239 0.0006643474 -0.017251853 -0.0089985 -0.036236662
-0.0048327222 -0.028277798 0.0014801426 0.008865633 -0.006876118 0.01049428 -0.015286729 -0.012743731
0.005259061 -0.005773011 -0.025827287 0.010641045 -0.008883352 -0.012576888 0.018793965 -0.017259767
-0.006437871 0.022105617 -0.014790929 -0.020630468 0.008104392 0.010175756 0.0096101565 -0.020770459
-0.022527328 -0.008811145 -0.025971824 -0.010841279 -0.009697036 -0.03648122 -0.018736137 -0.018158482
-0.004993128 -0.014044327 -0.00962735 -0.013031243 -0.0010355554 0.0061267796 -0.0050700973 -0.008487932

conv2.bias f4 [64]
00000000: c3c3 22bc d0ee c8bc 88c5 0e3d 48a4 abbc
00000010: f7a9 18bb 43d0 73bc 5f33 57bd 780e b2bb
00000020: 63f2 91bc 35f0 c7bb c086 74bc 737b 0abd
00000030: 5202 1bbd 0585 d0bb 3ba3 27bd ff02 8c3b
00000040: f5bd d2bb a865 c13c df62 343c c403 0c3c
00000050: a4af 1f3b fd51 93b9 e231 86bc 3b1c 82bb
00000060: d7b4 f0bc a3ba 4fbc afe7 f3bc ca4a 263b
00000070: aa81 cbbc aba2 953c b603 033b 98c5 a7bc
00000080: f74e 203d a5ad a4b8 03e8 e2bc 7f85 9bbc
00000090: 5d25 c7bc c295 71bc 7339 513d eb8c 3abd
000000a0: 5131 b4bc ff85 24bc 3d2e 663d 53cd 963a
000000b0: 90ae 24bc c82f aabb e8d4 2fbc 1104 9f3b
000000c0: afc7 943c 4f79 a4bb 03ca 26bd b12f c8ba
000000d0: df8e 47bc 4f02 81bb 8bc6 75bc d9a1 3b3b
000000e0: 376e 2c3c 5b98 b93b 983b 90bc 37ea 553b
000000f0: cae4 d13a c442 bbbc 3316 483b fa91 d73b
-0.009934369 -0.024527937 0.03485635 -0.020952359 -0.0023294666 -0.014881196 -0.052539226 -0.0054338537
-0.017815774 -0.006101633 -0.014924705 -0.033809137 -0.03784401 -0.0063635134 -0.040927153 0.004272818
-0.006431336 0.023608044 0.011009901 0.00854582 0.0024366165 -0.0002809911 -0.016381208 -0.0039706505
-0.029383106 -0.012678775 -0.029773561 0.0025374168 -0.024842102 0.018266043 0.0019991226 -0.020479962
0.039137807 -7.852473e-05 -0.027698522 -0.018984554 -0.024309808 -0.014745178 0.05108018 -0.045544546
-0.021996172 -0.010041713 0.05619644 0.0011505283 -0.010051385 -0.0051936843 -0.010731913 0.0048527797
0.018161623 -0.005019344 -0.040719997 -0.0015273002 -0.012180059 -0.003937043 -0.01500095 0.0028630404
0.010524324 0.005663914 -0.017606542 0.0032640824 0.0016013619 -0.022858985 0.003053081 0.006578681

fc1.weight f4 [64, 2304]
00000000: 5b87 93bb d320 8ebc c3a4 2fbc eb65 46b9
00000010: 63b2 9aba ffce 64bc e08f 7ebc d8b4 093c
00000020: 08be 5dbc e279 9c3b d016 10bc c043 d8bb
00000030: 4280 2cbc fb24 a3bb 021f 71b9 4f02 febb
00000040: 0f4f 84bb edd6 2b3b 1889 92bb 5c93 30bb
00000050: 80fb 11bb da05 0639 6747 61bb 2ff9 8fbb
00000060: f2c1 a73b 5f5d 58bc 9bd0 2638 6f7a 7abb
00000070: 4a0c ddba 4804 0cbc e377 93bb 4437 27bc
00000080: ef80 393b 4aa2 95bb d13c 943b 15e9 49bc
00000090: 60dd 053c 1aa2 ab3b dfe1 fc3b dba1 4a3a
000000a0: 6016 ff39 c017 2cbc b57c 0539 9d90 323c
000000b0: c50d bcbb e742 d6bb bf40 59bb 4086 853a
000000c0: 9abe 843c f8ab a7bb 8ad0 81bc a5d5 2c3b
000000d0: 8db9 acbb aa67 6bbb 056d 153c 06e9 b73b
000000e0: 7096 0cbc 531e e3bb e5f3 c3bb 6b6f 183c
000000f0: 89ff 1fbb 6b06 88bb 77f5 7bbb 577e 8bbc
00000100: 5d8e 27ba 008c 9939 9d83 b93b 1e20 25bb
00000110: d30d d5bb cdfd 943a 9ad6 12bc 322d 94ba
00000120: b601 9a3c a0ab fd3c a86b f63c 7f92 01bb
00000130: af05 023d a864 393d 0b84 053b fda5 01bc
00000140: 4a0d e5bb 93ef 27bc 28f4 4f3b 87b2 9e3c
00000150: ade8 d8bb 22ab b33b fafa 613b 48bc 88bb
00000160: 5564 febb ef90 d73c a15d 4bb9 b7f8 d6bb
00000170: df2c 55bc 906e 29bb 771e 97bb 6fc6 023b
00000180: b95f b3bb 7896 babb 09ca be3b abba fcbb
00000190: 4f93 153c 70ce 76bb 1567 61bb 05b1 74bc
000001a0: 7874 28bb 7f93 0439 154e e93b f46c 303c
000001b0: f4d7 48bb 27e5 e9bb 90ad 24bc c3cd c2bb
000001c0: fb8e a0bb 9d09 aeba 85c7 5fbc 82bb 5fbb
000001d0: 1558 07bc 47b1 98bb 83c1 1ebc e502 0c3b
000001e0: 8791 27bc bdf6 40bb f79c 943b 5fce 1839
000001f0: 2bba 87bb 2f1c a4bb adf3 0fbc 5ba4 a8bb
00000200: d469 0bbc 57ba 8abb ff4d a9bb f393 203a
00000210: 531e b3bb e398 c33a e74a 68bb e366 0cbc
00000220: 97d8 b93a 0fe3 7a3a ca04 82ba 1085 7ebb
00000230: e5c6 65bb 2589 03bb 2762 62bb 97b3 44bb
00000240: 82b8 caba 3b41 59bc 6870 9dbb 4886 003a
00000250: f590 a6ba 30be 6fbb 3b2e a13a a555 76bb
00000260: b5f2 b239 dc2b 3cbb afa4 e33a a7ff 9cbb
00000270: 98ab e1bb b8a2 443a f520 91ba d72c 88bb
00000280: 1a4a bcba f23e 623a 3547 67bb abcb 39bc
00000290: 43ac edb8 4347 42bb 8fcb 263b 0fdc ac3b
000002a0: 50c2 0dbb 5b3e d8bb 236b cfbb 3b78 ab3b
000002b0: d231 47bc 772a 3bbc 0bf8 8fba fdf0 84bc
000002c0: 8d0d 5a39 13dd f8bb 475a 273b 43b9 0f3b
000002d0: 2309 eb39 654f 1fbc b7b2 1b3c e57d f1ba
000002e0: 0a05 413b 10ec 0cbb 0b4b e73a 4bed d73c
000002f0: 3a19 e6bb 7335 5abb d720 ba39 70bf 6239
00000300: 9427 a53c 35f8 003c b998 a5bb 7314 e8b9
00000310: b77c 55bb cf77 31bc b92d 863c 9b54 6abc
00000320: d3ad 7dbc 2429 88bb ff71 673b 9821 84bc
00000330: 47bb e3ba 6b38 b2bb 9f46 33bc 8932 20bc
00000340: 0a15 5dbc 03d1 c4ba 7b6a 59ba 8a51 793b
00000350: a424 b1bb aa9d 07bc 0b01 c9bb 3567 05bc
00000360: b37e 223c 8b73 c3bc 5786 99bc 7d4c bbbc
00000370: 4ef6 28bc 7739 01bc 30de 443c edd5 61bb
00000380: e54d f9bc 7b17 cdbb 778f 1dbc cab3 f23c
00000390: 4b68 e13c f595 5b3c ad4a 1f3b c7ba 67bb
000003a0: 65b8 a53c 2558 eb3c dd7d f73c 60ea 073d
000003b0: 5aed 8f3a 4be3 09bb 7ed0 0f3d 2282 4d3d
000003c0: ad20 973c 1b2d d53c a353 803c f8ce 223c
000003d0: 386c b63c 1f4c 893c 3dc8 ad3b a74d e03b
000003e0: d37a 8dbc ce2b a9bc 4a32 adbb 7f67 fcbb
000003f0: 94c0 8c3b 7fe4 5bbb a2e0 3abb 77fc 593c
-0.0045022196 -0.017349636 -0.010720435 -0.00018920719 -0.0011802431 -0.013965367 -0.015537232 0.008404933
-0.0135340765 0.0047752718 -0.008794501 -0.0065998733 -0.010528626 -0.0049787736 -0.00022995102 -0.00775174
-0.004037745 0.0026220635 -0.0044719093 -0.0026943302 -0.002227515 0.00012781416 -0.0034374835 -0.0043937187
0.0051195556 -0.013205855 3.9771763e-05 -0.0038219949 -0.0016864624 -0.008545943 -0.0045003756 -0.010206047
0.002830561 -0.0045664655 0.0045238514 -0.0123236375 0.008170456 0.00523783 0.0077173556 0.0007729807
0.0004865406 -0.010503709 0.00012730325 0.010898736 -0.005738946 -0.006538737 -0.0033150164 0.0010187104
0.016204167 -0.005116936 -0.01584651 0.002637246 -0.005271143 -0.0035919943 0.009120231 0.0056124954
-0.008580789 -0.006931105 -0.005980002 0.009303908 -0.0024413785 -0.0041511557 -0.003844587 -0.017028017
-0.0006391758 0.00029286742 0.0056614415 -0.0025196145 -0.006501892 0.0011367142 -0.008962298 -0.0011304973
0.018799644 0.030965626 0.030080631 -0.0019771156 0.0317437 0.04526201 0.0020372893 -0.00791311
-0.0069901096 -0.01024999 0.0031731222 0.019372238 -0.006619534 0.005483047 0.003448187 -0.0041728355
-0.0077634254 0.026314227 -0.00019394468 -0.006560411 -0.013011186 -0.0025853254 -0.004611786 0.0019954701
-0.0054740575 -0.005694207 0.0058224243 -0.0077126822 0.009129359 -0.0037659667 -0.0034393717 -0.014934783
-0.0025704186 0.00012643448 0.007119904 0.010768164 -0.0030646296 -0.007137913 -0.010051146 -0.005944939
-0.004899857 -0.0013278011 -0.013658409 -0.0034138863 -0.0082607465 -0.004659805 -0.0096896915 0.002136403
-0.0102275675 -0.0029443942 0.004535313 0.00014572729 -0.004142066 -0.0050082426 -0.008786124 -0.005146546
-0.008509118 -0.004233639 -0.0051667686 0.0006125562 -0.0054662614 0.0014922883 -0.0035445036 -0.008569452
0.0014178929 0.00095705775 -0.000991964 -0.0038836636 -0.0035061177 -0.0020070758 -0.0034543367 -0.003001427
-0.0015466365 -0.013260181 -0.0048046596 0.0004902822 -0.0012707995 -0.0036581866 0.0012297103 -0.003758767
0.00034131636 -0.0028712666 0.0017367805 -0.0047912183 -0.0068869106 0.00075010536 -0.0011072444 -0.004155736
-0.0014365346 0.00086305954 -0.0035290245 -0.011340062 -0.00011333127 -0.0029644526 0.002545092 0.0052752565
-0.0021630712 -0.00659923 -0.0063299104 0.0052328384 -0.012157874 -0.011423699 -0.0010983957 -0.016228193
0.00020795148 -0.0075947135 0.0025535987 0.0021930493 0.000448295 -0.009723519 0.009503058 -0.001842436
0.0029452466 -0.002150301 0.0017646266 0.026358267 -0.00702205 -0.0033296018 0.00035501152 0.00021624356
0.020160474 0.007871677 -0.0050536063 -0.00044265724 -0.0032575557 -0.010831787 0.016379224 -0.014302398
-0.015483337 -0.004155295 0.003531575 -0.0161293 -0.0017374539 -0.0054388545 -0.01094213 -0.0097776735
-0.013493786 -0.0015015904 -0.000829376 0.0038042986 -0.005405979 -0.008277336 -0.0061341575 -0.008142282
0.009917903 -0.023858806 -0.018740816 -0.02286362 -0.01031263 -0.007887236 0.012015864 -0.0034459785
-0.03043265 -0.0062589026 -0.009616724 0.029626746 0.027515551 0.013402452 0.0024305985 -0.003535913
0.020229528 0.028728554 0.030211383 0.0331825 0.001098077 -0.0021040018 0.035110943 0.050172932
0.018448198 0.026022485 0.015664881 0.0099370405 0.0222684 0.01675993 0.0053034113 0.0068451944
-0.017270481 -0.02065077 -0.005285536 -0.0077027674 0.004295418 -0.0033552942 -0.002851524 0.013304821

fc1.bias f4 [64]
00000000: 836c dd3b ed60 edba a483 22ba 8a64 e63c
00000010: a7dd 83bb d78e ddba 2b9d 023c 2836 00bc
00000020: e8ba dd3c 5d6c 8d3b 781b 9db9 cf6b 1d3c
00000030: fa92 b13b 2d43 12bd 3f46 5fbc 8731 96bb
00000040: 3b6d 96bb eac3 ee3b 256c 68bc c6b5 b83c
00000050: 108a d6bb 1f45 55bc 7899 1cbc ddc3 cf3c
00000060: 0a3a 043c f03c ef3c d005 523d 7794 acb9
00000070: 4cd0 8b3b f721 b6ba 57e0 82ba be2b 86bb
00000080: 7fa3 823c 8d9e d0bc e8ea 493d 0a3a 04bb
00000090: 215c 1ebd dbfa bdbc 2f24 0dbc 25a4 5ebc
000000a0: 0784 153b b76b c0bb f73a 503c bc9b 39bc
000000b0: 520b 18bc 1596 d73c b7ab 19bc 9be0 2a3a
000000c0: f562 ac3a e8d5 3ebc 0fa7 a53b 1b03 21bc
000000d0: 4b75 923a ac77 493c ddda 97b9 a3b3 af3c
000000e0: 95b4 b2bb d0d2 953b 6715 0f3b 2cfe 12bb
000000f0: a02f eabb 92d2 cf3a 6a5b aeb9 407c 29bb
0.0067573204 -0.0018110551 -0.00061994256 0.028124113 -0.0040242258 -0.0016903532 0.007972042 -0.007825412
0.027066663 0.0043158964 -0.0002996584 0.009608223 0.0054191323 -0.035708595 -0.013627588 -0.004583541
-0.004590658 0.0072865384 -0.01418594 0.022547614 -0.00654722 -0.013016968 -0.009558074 0.02536195
0.008070478 0.029203862 0.051275074 -0.0003291701 0.0042667743 -0.001389562 -0.0009985071 -0.00409457
0.015947102 -0.025466228 0.04929629 -0.0020176196 -0.03866208 -0.023190906 -0.008614584 -0.01358894
0.002281429 -0.0058722156 0.012709371 -0.011328634 -0.009280043 0.026316682 -0.009379319 0.0006518454
0.001315205 -0.011647679 0.0050553153 -0.009827401 0.0011173872 0.012296598 -0.0002896403 0.021447962
-0.005453656 0.00457225 0.0021832825 -0.002242933 -0.0071467906 0.0015855602 -0.00033255975 -0.0025861412

fc2.weight f4 [10, 64]
00000000: c7a3 593d 34b5 a1bc 6266 91bc 435f 54bc
00000010: b460 aa3c 5fcc 2fbd cafc 203c a828 443d
00000020: 7b75 8d3c d0b7 df39 a903 8d3c 8a1a 98bd
00000030: 9ae0 4cbd 3068 593d c227 c13c 65dd bf3a
00000040: 6d05 c0bc e120 bb3c 2ff6 c2bc a8dd 54bc
00000050: 029c 173c 62fc 40bd 34c1 80bc 6dac 57bd
00000060: ecaf 3f3c be1e 29bd 42d8 303d c076 aabc
00000070: 8748 383d b1e4 453d df17 4dbd 2227 d3bc
00000080: 07e8 e03c 8900 a13d 88df eabb d7b1 16bd
00000090: 04b4 823d 7b41 18bd 5bba abbc 93a9 27bd
000000a0: 385b 7dbc b505 983c 2598 583d df77 803d
000000b0: df62 b6bc 9165 1fbc 60a1 d1bc afc5 18bd
000000c0: 3b3d 183d a31c 253d 1337 39bd 6b4e 973b
000000d0: d74e aa3b cd50 cfbd 5482 21bb 04b9 273d
000000e0: 4266 2e3c 2781 073d 97d2 edbc 1a6b 9c3c
000000f0: 8255 483c 2d1d 08bd 302c 53bc 8066 42bc
00000100: ca9e bd3c e798 34bd 5fff 253c dfe0 40bd
00000110: e8b3 42bb dfcc 14bc 508f 753c c782 77bc
00000120: 15fb f6bc c587 b93a dbe8 533c 802d f03c
00000130: db09 e23b 7d8c a53c 50ea e3bb 7d88 a63c
00000140: 4218 a03c af14 51bd bbef 5bbc 80ad 77bd
00000150: f787 1b3d 54e4 87bc 3f60 133c e322 863b
00000160: 3383 233c 32ea 6abd 8bdd 7c3c 1d12 efba
00000170: 8794 d2bc a0ee d73c 827a 42bd 853a 6b3c
00000180: c1d8 90bd 4784 963c 530c 8abd 9aea 4fbd
00000190: 87ec 813d aad2 593d e292 193b 63ed cd3a
000001a0: 9a64 6ebd 24b5 36bc 530c 5dbd 333c 523c
000001b0: 0faf 953c 57d6 97bd c791 153d 0267 ad3c
000001c0: 83aa afbc bc55 ab3d 5424 92ba ad45 93bc
000001d0: 1ba2 c8bc b164 823c b583 4e3d b1fb 8bbd
000001e0: 6447 2a3d 0056 0bbc aa63 10bd 388f 4bbd
000001f0: d7ad 243d baab 973c a261 073d f281 f03c
00000200: 8288 6fbc 40b0 81bc afe2 a6bb de75 35bd
00000210: 6f10 81bd 57f0 1abb 5f54 0a3b 6438 1dbb
00000220: fa0b 6fbc f5ff 68bb 47d9 aeb9 7372 2abb
00000230: b282 cb3c 3bee 353d 3087 703c f227 0c3c
00000240: cd7c d73c 30a9 77bb 07a7 163d 8b56 3a3d
00000250: 35ee 6ebd f974 283d 6f3a b63c fae3 eb3c
00000260: e569 773d ad1d 893b 2cef a6bc 7288 193c
00000270: e327 80bd 30a8 733c a9ca 0dba 62cc cb3c
00000280: 2a1c 393d d376 5dbc 5043 be3d 300f 36bc
00000290: 5b7d e1bb ca23 75bd 903e 55bd 38dc 54bc
000002a0: 6b3c c3b9 8708 9f3c c717 68ba 517e ad3b
000002b0: daf2 9a3b f671 8bbc 5687 85bd c399 743d
000002c0: 7773 983c 4737 3c3c 47e8 d33c c11d 133d
000002d0: 9a7c 1ebc 13c9 01bd e38a 0e3d da0f 853d
000002e0: fd66 94bc 5cb0 3abd b8c7 0fbd a5f5 46bc
000002f0: 081b 4e3b 2a9c e1bb 14e7 843c 8f3e 363d
00000300: e230 33bd 2fd6 b9bc c731 183c 6af4 36bd
00000310: bad9 0f3c 97af 2b3c 1030 d13c 520e 4f3c
00000320: 24a4 843d 6f8e 7b3d ffd3 d8bb c083 e0bc
00000330: cb67 8dbb eb2a 76bd 3f2c 493c 57f0 633c
00000340: df97 25bd 3701 aabb f885 a73c 20fc e13c
00000350: b488 b9bc ffe5 403d 3706 9e3d 22fb aebc
00000360: 68f8 3cbc e535 84bb 6910 15bd c0ff c33a
00000370: 4b3a 22bd b872 b53c 49b6 92bb 5b0e 323c
00000380: 6917 143d 9787 94bc 0e23 363b 7a7f ab3c
00000390: 2a0d 7b3d db1f 3abd 8970 3d3d 8d1c ed3c
000003a0: 0b3e 023d 875b 323c 1489 a6bc dfa3 da3c
000003b0: 6709 943c 93d6 263d 63e0 74bc afbd 113c
000003c0: 2d10 9abc 505c d83c 1ae9 18bd fd1d fc3c
000003d0: ff20 42bc cb0e caba 5fa8 3f3d 984b f9bc
000003e0: 28fd a93b 3bd9 d13c df04 913c 8311 d7bb
000003f0: 8f3c 5d3d 8bfe 90bc 5768 cf3c 9be7 20bd
0.053134706 -0.019739725 -0.017749015 -0.012962165 0.020798065 -0.042919513 0.009825895 0.047890335
0.017267933 0.00042670825 0.01721366 -0.07426937 -0.050018884 0.053077877 0.023578528 0.0014638124
-0.023440087 0.022842826 -0.02379903 -0.0129923 0.009253504 -0.04711569 -0.015717126 -0.052654672
0.011699658 -0.041289084 0.04317499 -0.020808578 0.044991042 0.0483138 -0.050071593 -0.025775496
0.02745439 0.0786143 -0.0071677603 -0.036790695 0.063819915 -0.037171822 -0.020962885 -0.040933203
-0.015463643 0.018557409 0.05287947 0.062728636 -0.022263942 -0.009728805 -0.025589645 -0.0372979
0.03716777 0.040310513 -0.04521854 0.0046175024 0.0051973867 -0.101228334 -0.0024644332 0.04094793
0.010644497 0.033082154 -0.029031081 0.019094039 0.012227418 -0.03323095 -0.012888953 -0.011865258
0.023147006 -0.04409113 0.010131686 -0.047089454 -0.0029709283 -0.009082048 0.014987782 -0.015106863
-0.030149022 0.0014154842 0.012933935 0.029318571 0.0068981475 0.020208592 -0.0069554225 0.020328755
0.019542817 -0.051045116 -0.013423855 -0.060468197 0.037971463 -0.016588368 0.008995115 0.0040935143
0.009980011 -0.057352252 0.015433679 -0.0018239651 -0.025705589 0.026358902 -0.047480114 0.014357214
-0.070725925 0.018373622 -0.06740632 -0.050760843 0.06343942 0.05317942 0.0023433496 0.0015711006
-0.05820141 -0.011151586 -0.05396683 0.012831735 0.018271951 -0.07413929 0.036515977 0.021167282
-0.021443611 0.08365962 -0.0011149743 -0.01797756 -0.02449136 0.015917154 0.050418574 -0.06835116
0.04157199 -0.008504391 -0.035251297 -0.04969713 0.04020485 0.018514503 0.033052094 0.029358838
-0.014619948 -0.015831113 -0.0050929408 -0.04430186 -0.063019626 -0.002364179 0.0021107418 -0.002398991
-0.014590258 -0.0035552953 -0.0003334975 -0.0026008158 0.024842594 0.044416647 0.014680669 0.008554446
0.026304627 -0.0037790053 0.036780383 0.04549269 -0.05833264 0.04112718 0.02224466 0.028795231
0.060403723 0.004184446 -0.020377718 0.00937091 -0.06257608 0.014871642 -0.0005408922 0.02487773
0.045192875 -0.013517099 0.092901826 -0.011112019 -0.0068813986 -0.059848584 -0.052061617 -0.012991957
-0.00037238313 0.019413246 -0.0008853641 0.005294599 0.004728657 -0.017022114 -0.06519954 0.05971695
0.018609745 0.0114877885 0.025867594 0.035917047 -0.009673262 -0.0316859 0.03480042 0.06497164
-0.018115515 -0.045578346 -0.035102576 -0.012143527 0.0031449217 -0.0068850713 0.016223468 0.044493254
-0.04374779 -0.022685139 0.009289212 -0.044666685 0.008779937 0.010478876 0.025535613 0.012637692
0.0647662 0.061415132 -0.006617069 -0.027406573 -0.0043153516 -0.060099524 0.0122786155 0.013912282
-0.04042804 -0.005188133 0.020449623 0.027586043 -0.022648193 0.04709434 0.07716029 -0.021359984
-0.011533834 -0.004034745 -0.036392603 0.0014953539 -0.039606374 0.022149429 -0.0044772965 0.01086768
0.03615514 -0.01813106 0.002779189 0.020934809 0.06129185 -0.045440536 0.0462499 0.028944278
0.03179745 0.01088608 -0.020329036 0.026689468 0.01807089 0.040731978 -0.014946076 0.008895322
-0.018806541 0.026411206 -0.037331678 0.030776018 -0.011848687 -0.0015415786 0.04679143 -0.030431554
0.0051876493 0.025616279 0.017702518 -0.006563367 0.05401283 -0.0176995 0.025318308 -0.039283376

fc2.bias f4 [10]
00000000: 507c 6bbd 13e9 043c 2ca7 323d 8000 643d
00000010: 3332 b13d 659d f7bb a093 123c f7ec 59bd
00000020: 5ac9 d33c 4dfc 0cbc
-0.0574916 0.00811221 0.04361646 0.05566454 0.08652153 -0.0075566047 0.008946329 -0.053204503
0.025852848 -0.008605075
