torch_to_tf/torch_models/model_round1299.model (torch, 493063 bytes, 10 tensors)

conv1.weight f4 [32, 3, 3, 3]
000000 7f 55 d1 3d ca bb 63 bd b7 ee c4 bc b4 24 c7 3d
       0.10221385 -0.05559901 -0.02403961 0.097237974
000010 f1 15 1c be 85 cd 4d bd 68 ac 79 3b e5 79 ac bc
       -0.15242745 -0.050244827 0.0038097147 -0.021054218
000020 17 e0 c6 3d 2f 8c b3 3d 77 6a 1f bd 32 27 7f 3d
       0.097107105 0.08766972 -0.038919892 0.06229324
000030 a7 1e 20 3c 1d 7f d3 bd 0f cb 96 3c 9a 1a cf 3c
       0.009772933 -0.10326979 0.018407373 0.02528124
000040 fd a6 21 bd 67 97 9c b9 d5 3d b5 bc db e2 f6 3d
       -0.039465893 -0.00029867442 -0.02212421 0.12054988
000050 c9 ec a5 bd 35 f3 07 bb 9d f0 c8 3b c4 ae 32 bc
       -0.08101804 -0.0020744328 0.006132199 -0.010905925
000060 d2 18 a4 bc fd 07 52 bd 78 b7 fd 3c 45 87 62 3c
       -0.020031366 -0.05127715 0.030971274 0.013826196
000070 6f 8f e9 3c 7f d9 95 bb e2 c0 a0 bd a8 14 d8 bd
       0.028510777 -0.0045730467 -0.078492895 -0.10550815
000080 c7 ee 8a 3d 33 d8 e4 bc af 97 34 bc 22 37 d0 bc
       0.067838244 -0.027935123 -0.011022492 -0.025416914
000090 8e fb ab 3d d5 46 f0 3d 7b 0b 1f 3d 8e 15 88 3c
       0.083975896 0.1173226 0.038829308 0.01661184
0000a0 c3 9a 10 bd 1d 93 ea 3b 9d 51 7a 3c 85 0f 2f 3d
       -0.035303842 0.0071586506 0.015278247 0.04273941
0000b0 9c da aa bc cf 66 37 3d 95 73 9f 3c 03 e8 6d 3d
       -0.020856194 0.04477578 0.019464293 0.05808259
0000c0 97 03 42 bc a3 cc c7 bd ff 05 8c bd 88 70 8d bd
       -0.011841676 -0.09755828 -0.06837081 -0.06906229
0000d0 3d 36 36 bc 8f ca 1d bc 55 50 6c bd 92 01 8c 3d
       -0.01112133 -0.009630813 -0.057693798 0.06836237
0000e0 e3 09 df 3d ad df ce bd e7 76 0b 3c cf 9a 72 bd
       0.108905576 -0.101012565 0.008512235 -0.05922967
0000f0 b3 98 6b 3d f6 87 9f ba 40 14 29 bd 08 a9 89 3c
       0.057518672 -0.0012171257 -0.041279078 0.016804233
000100 45 19 4c bd b9 34 3a 3d ed 70 7d bc 8d de ec 3d
       -0.049828786 0.045460436 -0.015468818 0.11565886
000110 32 36 4b bd fc 8d 89 3c 04 72 3d 3d 68 3c 39 3b
       -0.04961223 0.016791336 0.046251312 0.0028264765
000120 63 d4 77 bd 5b ac 09 be 19 8c 2c 3d d7 5f 1b bb
       -0.060505282 -0.13444655 0.042125795 -0.0023708248
000130 53 07 0b 3e 73 2d f1 bc ec eb 29 bd c3 14 55 3d
       0.13577013 -0.029440617 -0.04148476 0.052021753
000140 5d 51 ab bd 63 94 64 3d 51 f7 b6 3d 97 32 30 bc
       -0.08365128 0.055805575 0.089338906 -0.010754249
000150 22 13 75 3d cc 6b 9f bb 38 87 85 bc 27 a4 fa 3d
       0.0598327 -0.0048651453 -0.016299829 0.12238341
000160 7a d2 75 bd 13 f6 ab bd 32 02 82 bd 7b 26 90 3d
       -0.06001518 -0.08396544 -0.06348075 0.070385896
000170 9d b9 5d bc c3 1e 85 3c fb 44 c8 3d 97 a9 08 be
       -0.013533023 0.01625002 0.09778782 -0.13345943
000180 f8 27 7f bd 68 8e ea bd c4 d8 85 bd da 4b 91 bc
       -0.062293977 -0.11452943 -0.065354854 -0.017736364
000190 a7 b5 95 b9 6e 98 3b 3d a7 5a 97 3d be 94 a2 3c
       -0.00028554836 0.045799665 0.073903374 0.019846316
0001a0 ee 8f b7 bd 07 91 16 3d 0f 6e 55 bd c7 25 a0 3d
       -0.08962999 0.036759403 -0.052106913 0.078197055
0001b0 4d 6b f5 3c 9f c0 98 3d a0 9a fe 3c ab 5f 50 3d
       0.029958392 0.074586146 0.03107959 0.050872486
0001c0 bb 74 34 3d 50 5b 70 3c fd 10 fc 3c e4 82 88 3d
       0.044056635 0.014670208 0.03076982 0.066655904
0001d0 ea f8 85 3d 6f 8a 87 bc cd ad 78 bd a0 0f dd bd
       0.06541617 -0.016545502 -0.060712624 -0.10793996
0001e0 b7 78 8c bd bb c1 04 bd 58 71 a3 bb b0 9a 58 bd
       -0.06858962 -0.03241132 -0.004987877 -0.052881896
0001f0 69 c2 ac bd f0 6d 47 bd ec f9 98 bc 65 cb 1a bb
       -0.08435518 -0.04868883 -0.01867386 -0.0023619768
000200 49 a7 9f 3d 98 dd ba 3a bc b1 c1 bb a3 3f 18 bc
       0.07795579 0.0014256714 -0.00591108 -0.009292516
000210 7d 16 16 3d eb 57 a2 bd 48 4f 5b 3d 0b ed 56 bb
       0.03664254 -0.07926925 0.053542405 -0.0032795097
000220 42 10 05 bb c2 21 65 bd df db db 3c 0f 89 92 3d
       -0.002030388 -0.055940397 0.026838241 0.07155048
000230 bf bb 85 3d cb b3 14 3c 9f 2d 52 3d 66 ff b5 bb
       0.0652995 0.009076069 0.05131304 -0.0055541275
000240 ff 1e 81 bd 08 49 95 3d 50 1e 8c 3b dd 85 10 be
       -0.0630474 0.0728932 0.0042760745 -0.14113565
000250 1d 14 09 3c fb ed d1 bd 0b 1a 43 bd df 40 19 bd
       0.008366612 -0.10250469 -0.04763226 -0.03741538
000260 f3 0c b5 bd c6 10 9e bb 08 50 12 3d 7b 86 25 bc
       -0.088403605 -0.004823777 0.035720855 -0.010102863
000270 65 34 22 3b cf 61 e8 3d 0a 75 cc bc b5 3b cc bd
       0.0024750468 0.113467805 -0.024958152 -0.09972326
000280 ef 0f 76 3d d3 52 d9 3d 75 d8 ad 3d 9a d3 68 bd
       0.06007379 0.106115006 0.084885515 -0.056842424
000290 7c 43 0b 3d a2 19 3e bc 12 09 72 3c 48 7c c3 3d
       0.033999905 -0.011602791 0.01477267 0.09545189
0002a0 3c 7e 80 bd 7b fb d8 3c 6d b7 ec 3d 48 88 e9 bc
       -0.06274077 0.026487103 0.11558423 -0.028507367
0002b0 d7 35 e4 bd 0b 85 93 bd fd 6a 30 bd 99 f4 0f bb
       -0.11143082 -0.0720311 -0.043070782 -0.002196586
0002c0 5d 25 d3 3c e0 dd a7 bd 40 39 f1 bc aa 85 88 3d
       0.025774652 -0.08196616 -0.029446244 0.066661194
0002d0 3b 56 c4 bc 4f 48 11 be b0 21 04 3d d1 9e 8a bd
       -0.0239669 -0.1418774 0.03225869 -0.06768573
0002e0 b9 de ae bd 98 f0 d4 3d 63 18 9c bd fb ad 03 3d
       -0.08538575 0.10397452 -0.07621839 0.032148343
0002f0 38 e1 b1 3d 7f f2 d5 3d d5 23 fa bd ea c9 fc bb
       0.08685535 0.10446643 -0.12213866 -0.0077144997
000300 17 b7 5e bd 0d 7e 9f bd 19 df 94 3c 2f 0d 1a bc
       -0.054373827 -0.07787714 0.018172788 -0.009402557
000310 f0 b3 fa 3b d7 14 6b 3c 31 53 8a bd 9b a7 29 bc
       0.0076508448 0.01434823 -0.06754149 -0.010354902
000320 b5 93 2f 3d 87 66 fb 3c b5 cb 23 bd 0f ee d8 3c
       0.042865474 0.030688537 -0.039989192 0.026480703
000330 8a c8 4d 3c 9b b7 08 bd cc c2 87 bd 28 2f d6 3d
       0.012560019 -0.033378225 -0.066289514 0.10458213
000340 4d a2 a3 bd 1d 8d 2d 3c 4d 61 79 3d c0 5b f9 3d
       -0.07989941 0.010592726 0.06088381 0.12175703
000350 47 a9 96 bd f5 1c 9f 3d 5f 38 2a 3c 5b c2 ae bb
       -0.07356506 0.07769195 0.0103894165 -0.0053332276
000360 78 25 94 bc 4f 60 fc bc a2 c6 7b 3c bf 98 82 bd
       -0.018084273 -0.030807642 0.015367182 -0.0637679
000370 52 27 23 3b 9b 38 a2 bd c7 50 e5 3c cf 4b 81 3d
       0.0024895263 -0.07920953 0.02799262 0.063132875
000380 03 c8 92 3d cf f5 21 3d 63 21 5f bc 5f df 8f bd
       0.071670555 0.039541062 -0.0136188 -0.070250265
000390 13 c0 61 3c ed 99 68 bd df 56 b8 bd 6a e3 85 bd
       0.013778704 -0.05678742 -0.09000944 -0.065375164
0003a0 e3 9b a9 bc 2b b9 f0 3d 42 55 10 bd 55 fd b7 3c
       -0.020704215 0.11754068 -0.03523756 0.022459665
0003b0 ec 0f 99 ba 63 ff b2 bb ba 67 95 bd 48 41 f1 3c
       -0.0011677719 -0.0054625734 -0.07295175 0.029450074
0003c0 b9 8c c1 3a 2d 73 82 3d 81 07 9c 3d 3f cc d7 bd
       0.001476667 0.06369624 0.07618619 -0.10537004
0003d0 d3 9b 2c 3c 05 55 36 bd f8 80 83 bc b7 e4 47 3d
       0.010535198 -0.044514675 -0.016052708 0.048802104
0003e0 e5 ad 83 bc 82 db 16 bd a0 71 d7 3b ec f7 2a 3c
       -0.01607413 -0.036830433 0.0065748245 0.010435086
0003f0 9f ee da bd 7d 39 0e bd 23 3a 82 3c 29 ea 91 3c
       -0.106900446 -0.034722794 0.015896862 0.017811852

conv1.bias f4 [32]
000000 78 34 0d 3e 6f 2f d2 bd f3 eb a0 3d dd ca 4d ba
       0.13789546 -0.102629535 0.07857504 -0.00078503584
000010 b3 49 1a 3e b5 e6 95 bd c3 0c 14 3e 62 46 6d 3d
       0.15067177 -0.073193945 0.14457993 0.05792845
000020 85 f9 d4 3d 7c 24 24 be d2 c1 97 3a 34 1d 40 3c
       0.103991546 -0.16029543 0.0011578149 0.011725713
000030 e0 b3 d1 bd 02 04 ee 3d 80 46 75 bc b3 5e 52 bd
       -0.102393866 0.11621858 -0.014970422 -0.051359843
000040 4b 5b b2 3d 77 8f a0 3d c8 18 e8 3d 62 bc 0e 3e
       0.08708819 0.07839864 0.11332852 0.1393905
000050 03 8c 44 3c a5 28 9b 3d e7 cc 21 3d 17 21 e9 bd
       0.011996272 0.07576112 0.03950205 -0.113832645
000060 9f c6 db bd f1 31 8a bb 0b 06 d9 bc 5b 67 f9 bd
       -0.10731243 -0.0042173793 -0.02649214 -0.121779166
000070 1b d7 83 3a 43 e4 aa bb d2 a2 b9 3d c7 ac 2a be
       0.0010058613 -0.005215199 0.09064259 -0.16667472

conv2.weight f4 [64, 32, 3, 3]
000000 0f 25 a6 bb b5 6b 79 bd 4d 67 28 3d 83 d4 02 bd
       -0.0050703357 -0.060893733 0.04111414 -0.03194095
000010 c9 aa 93 bd 3b de cd 3d dd 9f 22 3c cf 79 8c bd
       -0.07210309 0.10052153 0.00992581 -0.06859171
000020 b5 5c 0b 3d 0b ff c1 3c 9d f8 74 bd 8b 40 51 bd
       0.03402396 0.023681184 -0.05980741 -0.051086944
000030 bb bd 2f bd a5 13 93 bd 12 a2 ef bc aa 67 02 3d
       -0.04290555 -0.07181481 -0.029252086 0.031837143
000040 a3 dc a7 3c 87 27 2d 3c 5b 18 41 bd 49 f2 a6 bd
       0.02049095 0.010568506 -0.047142368 -0.08151681
000050 8c bb 16 3d 29 83 00 bd d3 1d 07 be 98 c1 60 3d
       0.036799952 -0.031375084 -0.13194971 0.054872125
000060 25 90 41 bc 10 a7 83 bd da 68 eb bb 45 ac 4f 3d
       -0.011814152 -0.06428349 -0.00718413 0.0507014
000070 1f dc 46 bc db e7 0d bc bf e3 1a bc b3 e4 81 bd
       -0.012137442 -0.008661236 -0.009453713 -0.06342449
000080 63 3f b8 3c 4a 02 6a bc e0 d0 41 bd a3 92 22 bd
       0.022491163 -0.014282772 -0.04731834 -0.039690625
000090 27 6e 5a 3b 13 67 b6 bc 14 1d 35 bc 67 61 60 ba
       0.0033329816 -0.022265946 -0.011054296 -0.0008559436
0000a0 ef 50 ab bb a8 22 86 bc 69 96 81 3c 3c 5c ba 3c
       -0.005228154 -0.016373947 0.015818791 0.022749059
0000b0 ab c5 5e 3d b7 79 ac 3c 4f bf 02 bd 28 89 b7 3b
       0.05438773 0.021054132 -0.031920727 0.005601067
0000c0 c2 e3 c8 bc bf 58 5b bd 4e 95 43 3a bd af 8d bc
       -0.024522666 -0.05355143 0.0007460908 -0.017295713
0000d0 62 36 e6 3c b3 98 db 3d 07 6f 0f bc 85 28 46 3d
       0.028102104 0.107224844 -0.008754498 0.048378486
0000e0 a8 d9 19 3e 0f ff ea bc 62 83 5b bc d7 da b6 3d
       0.15024436 -0.028686075 -0.013398023 0.08928459
0000f0 8a 59 8e bd 8f f1 b7 bc fa da c7 3d 5b 53 81 bc
       -0.06950672 -0.022454051 0.09758563 -0.015786817
000100 57 eb 61 bd 83 f4 53 3b 52 27 49 3c 25 7e a9 bc
       -0.05515608 0.0032341785 0.012277441 -0.020690033
000110 ef 04 1d 3d 92 80 fe 3c e8 30 08 3d 67 48 84 3d
       0.038334783 0.031067166 0.033249766 0.06459122
000120 2c 47 0d bd 5d cf 14 be e9 70 2f 3d 58 b2 7d 3d
       -0.034491703 -0.14532228 0.04283229 0.06193766
000130 9f d1 bf bd b0 12 26 3c a7 e8 1b 3d 90 28 dc bd
       -0.09366154 0.010136291 0.03806367 -0.10749924
000140 6b bb 01 bd a5 b0 2f bc 4c 1b 86 bc e3 ab c2 3d
       -0.031672876 -0.010723268 -0.016370438 0.09505441
000150 f3 72 d2 bc 22 05 73 bc 15 f0 95 3d a2 41 20 bc
       -0.025689578 -0.014832767 0.07321183 -0.009781273
000160 a0 be 46 bc 05 e7 0f 3c 21 fd c1 3b 4f fd 05 be
       -0.0121304095 0.008783107 0.005920068 -0.13084911
000170 6f f8 15 bc 9b 52 67 bd 5a a1 de bd 00 ea 67 3b
       -0.0091534695 -0.056475263 -0.10870619 0.0035387278
000180 2a e1 12 3d 72 4a 84 bc 97 5b 7f 3d 33 88 f7 bc
       0.035859264 -0.01614878 0.062343206 -0.030216312
000190 3f 7f 78 bc 0a 8b da 3c 4d 5b 35 bd 0b ab 2b bd
       -0.015167057 0.026677627 -0.044276524 -0.041911166
0001a0 ca 55 0a 3d 17 4c 34 3b 29 f0 43 bc db 21 85 3d
       0.03377322 0.0027511173 -0.011959114 0.06500598
0001b0 f5 7c 0f bd 6d f5 0b bd 75 83 2b 3d ee e6 8c bc
       -0.035031278 -0.034169603 0.041873414 -0.01719996
0001c0 2d b4 1c bd 4f 20 79 3d 95 74 a3 bc 4c 26 2c bd
       -0.038257767 0.060821828 -0.019953052 -0.04202871
0001d0 22 16 8d 3d f3 1d 4c bd 53 32 f1 bc ff df 84 3d
       0.06888987 -0.04983325 -0.029442942 0.06488036
0001e0 02 3a fa bc 42 29 ca 3c d7 e0 52 3b f3 2f bd 3c
       -0.030545238 0.024677876 0.0032177472 0.023094153
0001f0 ed c1 11 3d f6 8f b8 3c eb 87 6d 3a ba 97 a5 bd
       0.035585333 0.022529583 0.0009061086 -0.0808558
000200 37 d3 a2 bd 5d 32 fe bc c5 58 de bc 50 89 30 3c
       -0.07950442 -0.031029874 -0.027141938 0.010774925
000210 9f 78 00 bd 5d de 28 bd 6a 90 59 3d e7 69 8f 3c
       -0.031365033 -0.041227687 0.05311624 0.017506553
000220 93 b0 f7 bc e2 65 06 bd 83 85 2c bd 4d 5d 91 bc
       -0.030235564 -0.032812007 -0.042119514 -0.017744685
000230 8b b3 73 3a 22 07 3c 3d b9 cc 8a 3c 37 82 34 3d
       0.00092964683 0.04590524 0.016943322 0.044069495
000240 6f f8 0c bc bf 69 0c bd a7 60 c2 3d fd 0e 96 bc
       -0.008604153 -0.034280535 0.09491091 -0.018317694
000250 28 bb 3d bd 0a 9d 6b 3d 0d 29 35 bd 0f 33 9d bd
       -0.046321064 0.05752281 -0.044228602 -0.07675754
000260 83 6a 84 3d 89 17 83 bc c3 c8 41 bd ac 55 89 bc
       0.06465628 -0.016002433 -0.047310602 -0.016764484
000270 18 5a 84 bd cf a0 4d bd c5 91 c6 bc 4d 50 20 bc
       -0.064624965 -0.050202187 -0.02423943 -0.00978477
000280 dd 54 f6 bc 5b 56 bd bc 75 3c cc 3b 6d fd f3 bd
       -0.030069763 -0.023112467 0.006232793 -0.119135715
000290 ad da 1e bd 0a fa 8a bd a8 d4 95 bd d0 d5 07 3e
       -0.038782764 -0.067859724 -0.073159516 0.13265157
0002a0 bd 23 7a bc 9d 35 63 bd 12 04 53 3b f7 95 bc 3b
       -0.01526731 -0.05547105 0.003219847 0.005755182
0002b0 e3 b9 a7 bc b0 0e ae 3d eb 21 1d 3d cf 7d b6 bc
       -0.02047438 0.08498895 0.038362425 -0.022276787
0002c0 69 9d 2d 3d 40 6b bb bb 43 d8 dd bc d0 9b 5e 3d
       0.042386446 -0.0057195723 -0.02708066 0.054347813
0002d0 77 5d 68 bc 25 ae 02 be aa d4 ed 3c 83 fe 45 bd
       -0.01418244 -0.12761743 0.02903207 -0.048338424
0002e0 53 45 b8 bc bf fc 78 3b f7 9c fb bb 4b 70 3a 3c
       -0.022493994 0.0037992445 -0.007678624 0.011379312
0002f0 9f 2d 1c bd 89 d0 2d bc 93 67 47 bc 25 96 27 3d
       -0.038129445 -0.010608801 -0.01217069 0.040914673
000300 fe e9 01 bd 14 c5 13 bd 7b f4 72 3d 23 58 19 bd
       -0.031717293 -0.03607662 0.059315186 -0.03743757
000310 3a 3e c9 ba e2 3a 30 3d e7 54 ce 3a 52 6f 35 bd
       -0.0015353628 0.043024905 0.0015741856 -0.044295616
000320 37 85 dc 3c d3 2b e6 bc ef b2 0b bd bc ac 85 3d
       0.02691899 -0.028097069 -0.03410619 0.06527087
000330 5f 5c af 3c eb dd 3c ba de ff 11 3e 2f 7d 0d 3e
       0.02140635 -0.0007204699 0.14257762 0.13817285
000340 73 b5 c4 bc b7 f4 93 bd 96 d9 b4 3d 5c ed 49 bd
       -0.024012303 -0.0722441 0.08830564 -0.04929863
000350 d1 15 c2 bc 56 e1 2b 3d 2f f4 ce ba 91 47 43 bd
       -0.023692043 0.041962944 -0.0015789325 -0.047675673
000360 c7 93 87 bc 37 3e 75 bc 68 28 66 bd 4f fb 8c bb
       -0.016549958 -0.014968446 -0.05619088 -0.0043024193
000370 85 5b 33 bd a7 46 cd bd bb f3 88 bd 33 fe 25 bd
       -0.04378845 -0.100232415 -0.06687113 -0.040525626
000380 ed 58 6b 3c 60 1d f5 bb 37 42 1c bb f3 f9 d8 bc
       0.014364463 -0.0074803084 -0.0023843178 -0.026486373
000390 c8 4a 1a bd 50 c4 71 bd de bf 27 bd fd fb 4f bd
       -0.037668973 -0.05902511 -0.040954463 -0.050777424
0003a0 7f ff 9c bd 01 dc 21 3c 4b de e3 bc f7 be 49 bd
       -0.076659195 0.009879113 -0.027815958 -0.049254384
0003b0 8c fa 45 bd a3 51 64 bc 37 e9 20 3a 98 be 1e 3d
       -0.048334643 -0.013935479 0.00061382673 0.038755983
0003c0 1f 9d f8 3c 7a 41 7a 3d 55 99 ed 3c 30 24 5a 3c
       0.030348359 0.0610976 0.029003778 0.013314292
0003d0 3d 72 60 bc 13 ad 6d bd fb 12 80 bd 7b 1d af bb
       -0.0136991115 -0.058026385 -0.0625362 -0.0053440905
0003e0 cf 7e c8 3c 1a 59 fa 3c ab 81 9b 3d 8d d7 09 3e
       0.02447453 0.030560065 0.075930916 0.13461132
0003f0 d3 9b 9e 3c c0 7f 57 bc bb 8b 3a bb 13 97 77 3c
       0.019361412 -0.013153017 -0.0028464634 0.0151117025

conv2.bias f4 [64]
000000 09 ed b0 3d 46 ba c1 bd 13 39 bd 3c 17 65 20 3d
       0.08638961 -0.09459357 0.023098504 0.039158907
000010 1f e8 b8 bc 36 51 89 3b 04 9f 8a 3d b7 b3 2a bd
       -0.022571621 0.0041905893 0.06768611 -0.041675296
000020 b2 47 a9 bd cb bb 91 bd e7 9c de bd df 94 73 3c
       -0.08265628 -0.07115897 -0.108697705 0.014867037
000030 fd fa 55 bc 08 ff f7 bc 03 d3 c4 3d 83 ca bd bd
       -0.013060329 -0.030272976 0.0961056 -0.09267142
000040 c7 07 66 3d e7 e0 7c 3b cc 80 b5 3b 47 75 24 3e
       0.05615976 0.00385862 0.0055390354 0.16060363
000050 33 19 dd 3c 4a da 8d bd 74 40 14 bd 58 9b 11 3d
       0.026989555 -0.06926401 -0.03619428 0.035548538
000060 8b bf bc bd 00 f2 b5 bc db f9 ac 3d a3 77 d8 bc
       -0.092162214 -0.022210121 0.08446094 -0.026424235
000070 24 80 bd 3c cf 3f 30 be 07 5a 02 bd 39 b5 1e 3e
       0.023132391 -0.17211841 -0.031824138 0.15498818
000080 e7 48 f7 3d 79 a2 96 3d 12 0e f3 bd c5 2b 2b 3d
       0.12074452 0.07355208 -0.11867918 0.04178979
000090 3b ef a6 3c df 42 c2 3d 07 0f ff bd ff ca 3a 3e
       0.020377746 0.09485411 -0.12454038 0.182415
0000a0 15 dd ee bd b8 2a 3a 3e 01 87 ac bd 3a 6f bd bd
       -0.11663262 0.18180358 -0.084241875 -0.092497304
0000b0 9e 86 38 bd 9f 19 ed 3d 19 66 99 3d 5a 2a 59 3d
       -0.045050256 0.115771525 0.07490177 0.053018905
0000c0 6f 3f e4 bc fa 3c 6d bc d5 d3 90 bd f9 f2 9c ba
       -0.027862279 -0.01447987 -0.07071654 -0.0011974267
0000d0 d7 10 ef 3d 6a af 3c bd 3a b3 4d bc 92 83 02 be
       0.11673134 -0.046065725 -0.012554938 -0.12745503
0000e0 ba 79 ec bc b3 6c c6 3b a8 13 5f 3d de 05 4c 3a
       -0.028866637 0.0060554384 0.054462105 0.00077828567
0000f0 72 b3 d3 3d c8 a5 4e 3e 40 87 98 bc 6b 53 12 3e
       0.10336961 0.20180428 -0.01861918 0.14289634

conv3.weight f4 [64, 64, 3, 3]
000000 58 a6 89 bd 53 1f e0 3c 0f ae 9d 3c f7 94 86 bc
       -0.06721181 0.027358687 0.019248037 -0.016428454
000010 3a 59 80 3d e2 6e 93 3c 5a 0f fe bb d2 b4 b0 bb
       0.062670186 0.017997209 -0.007753295 -0.005392649
000020 0f c0 1b bd d0 45 27 3c 4d dc 4a 3c 0b 35 5b 3d
       -0.03802496 0.010209516 0.012381625 0.053517383
000030 e0 3f d1 3c 38 f2 06 3d 1a 56 11 3e e7 a5 89 3c
       0.025543153 0.03294584 0.14193001 0.016802741
000040 0d bd 5a bc b1 af a3 3d 17 14 5f b9 d5 a0 46 bc
       -0.013350737 0.07992495 -0.00021274421 -0.012123306
000050 cf c8 9d bd 85 f4 d9 bc 8b c0 3d 3c db 56 44 bc
       -0.07704317 -0.026605854 0.01158155 -0.011983599
000060 3b 47 69 3b 83 d1 12 bd a5 85 c5 3c 4b e4 00 bb
       0.0035595435 -0.035844337 0.024111578 -0.0019667323
000070 03 78 41 39 00 f2 00 be 33 0a a6 bc 67 8f b0 ba
       0.00018450622 -0.12592316 -0.020268535 -0.0013470472
000080 eb 6d 8d bd c7 49 58 bd c0 94 53 bd 87 2c c8 3d
       -0.06905731 -0.052804735 -0.05165553 0.09774118
000090 77 7c 8c bb f8 03 83 bc fa b3 f6 3b c7 60 a6 bc
       -0.0042872983 -0.015993103 0.007528779 -0.020309819
0000a0 85 1d ba ba 2b 91 ee 3c 87 09 49 3c 9b bf 2a 3c
       -0.0014199471 0.029121956 0.012270338 0.010421659
0000b0 4b f2 50 3d 52 4e 8a 3c 14 f0 a5 3c 00 22 ad 3d
       0.05101232 0.01688305 0.02025608 0.084537506
0000c0 5b d3 a5 bc 6b cf 46 bd 4f f4 8a 3d 3e 0d 19 bd
       -0.020242384 -0.048537653 0.067848794 -0.037366144
0000d0 f7 f9 a8 bc aa a6 55 3d 77 6a c2 bc 57 a2 66 3c
       -0.020627005 0.052160896 -0.023732407 0.014076791
0000e0 46 1e 85 3d 89 f1 2b 3d 3c 35 bd 3d 13 10 05 3e
       0.06499915 0.041978393 0.09238669 0.12994413
0000f0 5b cb 70 3d 36 ec b2 3d 2d 60 a8 3d 52 98 86 3c
       0.058787685 0.0873646 0.08221469 0.016430054
000100 32 d9 04 bd ab c7 18 bd 9b 9e 4b bc eb 57 13 bd
       -0.032433696 -0.037299793 -0.012427951 -0.035972517
000110 c8 1f 82 bd f4 95 b2 bb 2d 61 71 bc 76 d4 25 bd
       -0.06353718 -0.0054500047 -0.014732641 -0.04048582
000120 4a 9d 62 bd e1 02 32 bd e8 b7 cc 3b 18 67 25 bd
       -0.055325784 -0.043459777 0.0062475093 -0.04038152
000130 c8 11 9b bc fb 26 dc bc cb f6 37 bd fa 48 a6 3c
       -0.018929377 -0.026874056 -0.044913094 0.02029847
000140 d1 ba c8 bb 5d 7b 0e bd 6d a2 d9 bd b5 36 90 bc
       -0.006125786 -0.034785617 -0.106266834 -0.017604211
000150 eb c2 25 bd 30 08 84 bd 9f 38 bb bc b7 79 07 3d
       -0.04046909 -0.06446874 -0.022854147 0.03307506
000160 d0 9c 6d bc 1d f2 d6 3b 71 47 0e 3d 5f 26 06 bd
       -0.014502719 0.006559624 0.0347361 -0.032751437
000170 ae 22 37 bd dd ac 9c bc e0 a2 39 bd ac c8 48 bd
       -0.044710808 -0.019125396 -0.045321345 -0.0490195
000180 77 f8 49 bc b3 9e 9a bd 05 17 5f bd e3 1f 0e 3c
       -0.012327305 -0.07549801 -0.054465313 0.008674595
000190 7a 54 40 bd 4d 1e 1a 3d ff f2 b7 bc 43 cb a3 bc
       -0.046955563 0.037626553 -0.022454737 -0.019994384
0001a0 00 7e 4d 3d 0d 94 df bc d5 b9 e5 3b 33 50 c5 3c
       0.05016899 -0.027292276 0.0070106783 0.024086094
0001b0 b7 24 d1 bc 4f 07 e2 3c 96 3a b7 3d cb 37 46 bd
       -0.025530202 0.027591376 0.08946721 -0.048393052
0001c0 b7 d8 f1 bd 93 bc 4f 3c 4b 0d f3 bc 4d b0 55 bd
       -0.11808913 0.012679237 -0.029669425 -0.052170087
0001d0 b7 43 a1 3d 6d ba 99 bd 47 ba d2 bd 33 46 71 bd
       0.07874244 -0.07506261 -0.10289436 -0.058904838
0001e0 43 a1 ea bc 3b ec f7 bd e0 65 15 be 61 a5 35 3d
       -0.028641349 -0.12105604 -0.14589643 0.04434717
0001f0 1a ad 11 3d 8a cc 48 bd 93 e6 06 bc a3 7a 1b 3c
       0.035565473 -0.04902319 -0.008233684 0.009489688
000200 3d 4c 48 bd ae fd 93 3c e8 ad 79 3c 65 6b 9d 3b
       -0.04890083 0.0180653 0.015239216 0.004804062
000210 1b 6d 42 3b 47 a2 84 3c 7f b4 a6 3c 95 ee 55 3c
       0.0029667083 0.016190661 0.02034974 0.013057371
000220 4b 3c b9 bc 17 58 50 bd eb 0b f4 bb 34 54 82 bc
       -0.022611758 -0.05086526 -0.00744771 -0.015909292
000230 52 f6 b4 bc 7f ec 2a bd 37 d9 39 3c bb dd 48 bc
       -0.02209011 -0.041729447 0.011343292 -0.012259896
000240 83 52 5c bc 4c 3a 89 bd 9b 71 71 bd 5a c8 74 3d
       -0.013447407 -0.06700572 -0.058946233 0.059761383
000250 f2 30 04 bd a7 14 ad bc b1 8b c0 3c 0f 48 9a bc
       -0.03227324 -0.021128012 0.02350411 -0.018833188
000260 22 e9 99 bc 26 a3 87 bc 70 4d 08 bc 28 83 2e 3c
       -0.018787924 -0.016557287 -0.008319244 0.010651387
000270 dd 2a 61 ba ac 1f 3d bd d0 ab a2 ba 6b 65 f6 bc
       -0.0008589456 -0.046172783 -0.0012410823 -0.030077657
000280 0e 94 2a bd 0f c3 d8 3d 54 4b 2f 3c f0 60 79 bb
       -0.041645102 0.105840795 0.010699112 -0.0038052164
000290 23 66 67 bc 22 6e 47 bc 9f 35 00 3b bb a3 b6 3a
       -0.014123472 -0.012172254 0.001956321 0.0013934294
0002a0 37 c5 3b 3c 0b 6d 69 bb d7 d0 b1 bb e3 ea 35 3c
       0.011460594 -0.0035617973 -0.005426507 0.011103365
0002b0 eb d4 9f 3c a5 20 fa 3d 44 3f 80 bd 4a 5d 61 3d
       0.019510707 0.12213258 -0.06262067 0.055020608
0002c0 1d 7d a4 3d 77 ea 57 3d b3 54 c0 3d 8a 2a df bc
       0.08031676 0.052713837 0.09391155 -0.027241964
0002d0 82 6b ee bc 32 d8 e6 bb 88 d7 2b bc ed c9 a9 3c
       -0.029103998 -0.0070448155 -0.010488398 0.020726169
0002e0 c8 87 f2 3b 93 1b a2 bc 8e 9f 92 3c 63 29 ba 3c
       0.0074014403 -0.019788539 0.017898347 0.022724813
0002f0 23 95 8f bc bf 2f f5 3c c7 a3 45 3d 25 92 3c 3d
       -0.017527169 0.029929994 0.048251893 0.04603781
000300 48 bb ed 3b b2 c8 ea 3c bd 19 57 3d b2 4e 42 3d
       0.0072549917 0.028660152 0.05251478 0.04743833
000310 72 d5 a6 3d 47 ea 2d 3d 34 24 0d 3d d7 b5 d1 3c
       0.0814618 0.042459752 0.034458354 0.025599403
000320 41 74 40 bd 99 5d 9d 3d b2 cb 24 bd 27 29 6c bd
       -0.04698587 0.07683868 -0.04023332 -0.057656433
000330 a7 65 da 3d 1f 65 97 bd 22 29 47 bc 60 ca b7 3d
       0.1066392 -0.07392334 -0.012155803 0.08974147
000340 b7 a9 17 3d b8 5d c1 3d 3d de 65 bc 5b ee 6f 3c
       0.037027087 0.094417036 -0.0140300365 0.014644231
000350 e5 05 ed 3c d2 fb 5f 3c 0f 18 b1 3d 6e 63 03 3d
       0.028933475 0.0136708785 0.08647167 0.032077245
000360 21 8b 0e 3d 53 01 9a 3b 0a 55 5c 3c 15 20 44 3d
       0.034800652 0.004699865 0.013448009 0.04788216
000370 dd bc cf 3c 95 04 5a 3c 8b 77 98 3d 7e d6 34 3d
       0.025358612 0.0133067565 0.07444676 0.04414987
000380 10 bc 36 3d 7f d1 5c 3c 97 45 11 3b b2 48 32 3c
       0.044612944 0.013477682 0.0022166723 0.01088159
000390 63 c9 c2 3b a1 69 1b bc 13 6c 51 3b 35 bd 2e 3a
       0.0059444173 -0.009485633 0.0031955286 0.0006665767
0003a0 4f c8 9c bb 8b 88 92 bc 13 ed 09 bd 47 4d 36 bd
       -0.004784621 -0.017887374 -0.033673357 -0.04450729
0003b0 65 45 57 bd e7 a9 c8 3c 0d fe d8 3c 6f 96 47 3b
       -0.052556414 0.024495078 0.026488328 0.0030454656
0003c0 c3 32 9a bd 47 14 c0 bd 4a 69 0c bd a1 ff 27 bd
       -0.07529213 -0.093788676 -0.0342801 -0.04101527
0003d0 d4 34 09 bd ba aa ba bc 6a 8b f6 bc 99 09 85 bd
       -0.033497646 -0.022786487 -0.030095775 -0.06495971
0003e0 0d 2e db 3c 9c 84 8e bd e0 11 a4 bd ec cf 02 3d
       0.026755357 -0.06958887 -0.08011222 0.03193657
0003f0 ad 44 01 bc 8c 09 83 3c 73 ee a7 bc 06 89 17 3c
       -0.007889909 0.015995763 -0.020499444 0.0092489775

conv3.bias f4 [64]
000000 37 8b 01 bc e7 bf e2 bd e7 04 38 3c 0e d5 38 3d
       -0.007906727 -0.11071759 0.011231638 0.04512506
000010 3f 07 ba bb 95 be 3d bb b3 9f 36 3d 63 5f 2b 3c
       -0.0056771333 -0.0028952707 0.044585895 0.010459754
000020 73 31 e9 3d ec a5 8f bb b7 cb dc bc 57 a6 dd 3d
       0.11386385 -0.004383793 -0.026952608 0.108227424
000030 c3 69 72 bb 37 b0 b6 bc 03 37 4d bb 0b b9 e7 ba
       -0.0036989308 -0.022300823 -0.0031313307 -0.0017679048
000040 50 1d ab 3d f6 76 2f 3e 41 df 90 bc 33 fb a0 bc
       0.083552 0.17135224 -0.01768458 -0.019651031
000050 2b fe d9 bc 25 89 88 3a 0f 25 38 3e bb 50 58 bd
       -0.026610455 0.0010416849 0.17982887 -0.052811366
000060 7a 99 37 3d ed f7 0f 3e 60 37 f5 bb 80 85 05 3d
       0.0448241 0.1405942 -0.007483408 0.03259802
000070 b8 97 2e bc 88 8c f4 bb 28 8b 71 bc 50 4e 1e bc
       -0.01065629 -0.0074630417 -0.01474265 -0.009662226
000080 82 17 a7 bc 33 89 c5 3b 5f 55 40 bb 5b ba a6 3d
       -0.020396952 0.0060283183 -0.002934776 0.08141013
000090 5d 43 aa 3d e1 da 85 bc 0a 25 27 bc d1 87 22 3e
       0.0831363 -0.016339721 -0.010201702 0.15872122
0000a0 1d bf 80 3c f2 6e f0 3c ef 47 e7 bc 38 17 e2 bb
       0.01571613 0.029349778 -0.028232543 -0.0068997405
0000b0 b3 28 8d ba 0b 20 76 3d d7 09 d9 bb 0f 4f a3 3c
       -0.0010769576 0.060089152 -0.0066234875 0.019935159
0000c0 7b 90 a7 3c f8 d1 c4 3d 12 77 b4 3b 55 9b 32 bc
       0.020454636 0.09610361 0.0055073583 -0.010901292
0000d0 bd db cd ba 55 9c 0e be d2 6a 39 bc 95 04 0e bb
       -0.0015705746 -0.13926823 -0.011316972 -0.0021670212
0000e0 8a 7e ec ba 9f c3 d8 3d fc 85 8e 3d a0 66 53 3e
       -0.0018043083 0.10584187 0.06959149 0.20644617
0000f0 e2 03 d5 bd aa b7 6b 3b c1 0a ad bc 20 81 30 bc
       -0.10401131 0.0035967627 -0.021123292 -0.010772973

fc1.weight f4 [64, 1024]
000000 2b cb b0 bc 2f cd df bc 1b 44 96 3c bf c5 84 3d
       -0.021581253 -0.027319519 0.018343022 0.064830296
000010 2d ef a9 bd d7 c3 c0 bd 7f 9c a5 bd c7 36 d4 bc
       -0.08297572 -0.094123535 -0.0808649 -0.025905026
000020 be 4b b8 bb 37 4d bc bd 4b 98 9f bc 57 58 da bc
       -0.0056242635 -0.09194415 -0.019481799 -0.026653452
000030 a2 d5 3f bd ab 58 42 3c b2 e6 06 3d c1 34 c6 bd
       -0.046834596 0.01186196 0.032934852 -0.09678031
000040 bf 15 09 3d 1d a6 e2 bc 97 f0 09 bd eb 28 77 3c
       0.033468004 -0.0276671 -0.03367671 0.015085439
000050 00 e6 16 3b 60 ef 5f 3b 05 82 b0 bb 1d e1 4d bc
       0.0023025274 0.0034169778 -0.0053865933 -0.012565878
000060 da 51 9a 3b 60 4c f1 3c 9d 6a 7a bc 3d 23 ba bc
       0.0047094645 0.029455364 -0.015284208 -0.022721881
000070 fb 84 f6 bc e0 f0 85 bc 07 8d c6 bc 7d ef 9a bc
       -0.030092707 -0.01635021 -0.024237169 -0.018913025
000080 26 b5 84 3d 1a 40 56 bc 9d b6 5b 3d 5b 14 ca 3b
       0.06479864 -0.013076806 0.05364095 0.0061669773
000090 34 3a 30 3d 2f 26 06 3c 28 7e 94 3b 07 03 49 3c
       0.043024257 0.008187815 0.0045316406 0.012268788
0000a0 ab ba 31 bd e6 ad 92 bc 4f 15 aa 3c dd 83 b5 3c
       -0.04339091 -0.017905187 0.020762114 0.022157604
0000b0 3f 6c 81 3c c6 78 2b bd 86 3c a7 bc 44 3d 41 bb
       0.015798686 -0.041863225 -0.020414602 -0.002948598
0000c0 21 31 0c bd ab f3 ce bc 68 8b 77 3c 1b 46 f5 3c
       -0.03422654 -0.025262674 0.015108921 0.029940655
0000d0 da 74 4a 3b 97 90 5c 3c cd d9 dd 3c 37 3c 65 3d
       0.0030892403 0.013462207 0.027081395 0.05596563
0000e0 e8 5f ad ba c3 56 04 bc 7d 21 03 3c b3 2c 3c 3d
       -0.0013227435 -0.008077326 0.00800359 0.045941066
0000f0 42 1d f8 bc f9 68 b9 bc 7a 95 40 3b ba 27 46 3c
       -0.030287389 -0.022633063 0.002938597 0.0120944325
000100 8f 03 8e bc ab 18 9d 3a 70 c5 4b bc ad 3b fe bb
       -0.017335681 0.0011985501 -0.0124372095 -0.0077585788
000110 d7 11 23 bc ef dd 63 bc 67 f4 1a 3c c7 92 59 ba
       -0.009952984 -0.013907894 0.009457684 -0.00082997646
000120 2f 88 3f 3b da 6b f4 bb 32 68 76 bb 2f 43 a2 bb
       0.002922546 -0.007459146 -0.0037598726 -0.0049518566
000130 6a c4 95 3c 1b f5 75 b9 1a 2b 8a 3b e7 7a 58 bc
       0.018282134 -0.0002345633 0.004216564 -0.013212896
000140 10 9c a7 bd da 4f 14 bd 07 47 fa bc d8 c0 50 bc
       -0.081840634 -0.036208965 -0.030551447 -0.01274129
000150 01 78 00 3d e5 dd 9a bc 87 53 97 bd ac 78 2f bd
       0.031364445 -0.018904636 -0.073889785 -0.04283969
000160 67 b4 0c bd ad db 5b bc 06 b9 0d bc f5 2b 5f bc
       -0.034351733 -0.013419074 -0.00865007 -0.01362132
000170 4f 6b 98 3c 67 52 ec bb 2d d1 cd bb 48 30 4a bb
       0.018605856 -0.0072119716 -0.006281039 -0.0030851532
000180 fa 18 6d 3d 4b 69 0e 3d 73 00 f1 3d 73 90 70 3d
       0.057885148 0.034768384 0.11767664 0.058731508
000190 1a 02 16 bd ac 5e c8 bb 07 cd a2 bd d5 b1 1a bd
       -0.036623098 -0.0061148014 -0.07949262 -0.03776725
0001a0 8a 3a 2a bc 6a c5 75 3d 0b 89 19 3a 8f c6 c0 3c
       -0.010389933 0.06000272 0.0005856908 0.02353218
0001b0 0b e0 eb 3d d3 ff d1 3d 6b 63 42 3e cf ee a5 3d
       0.11517342 0.10253873 0.18983237 0.0810219
0001c0 1c d4 aa 3b 07 2b a3 3a 23 de 7a ba f2 3d 37 bc
       0.0052132737 0.0012448736 -0.0009569844 -0.0111842025
0001d0 b7 b8 e9 bb 6b c8 5b bb 1b 20 12 bc 07 3d 59 bc
       -0.0071326154 -0.0033536206 -0.008918787 -0.013259179
0001e0 dc 41 8f bb 02 7f 5c bc b7 1f 45 bb 43 46 41 bc
       -0.0043718647 -0.013458015 -0.0030078718 -0.011796537
0001f0 c4 82 a5 ba 75 41 28 bc 37 08 82 3a 2b 27 a7 3b
       -0.0012627472 -0.010269512 0.0009920661 0.0051011047
000200 99 df c4 bd dc 3c 31 bd 3d e8 b6 bd dd 6a a5 bd
       -0.0961296 -0.04327093 -0.08931015 -0.08077023
000210 7b 13 ce bd f9 0f 02 bd df d7 34 bd 66 1b c9 bc
       -0.10062309 -0.031753514 -0.044151183 -0.024549197
000220 df 60 ca 3c ab 19 12 3c c7 69 8a 3c 73 f4 7a 3d
       0.024704395 0.0089172525 0.016896142 0.06126828
000230 2d 19 08 3e 45 9f fe 3d 1e d1 8d 3d 9d e6 c9 3d
       0.13290854 0.12432722 0.069246516 0.09858439
000240 7b 14 16 3b 3d d5 63 bc 90 a3 b4 bb e5 03 1d 3b
       0.002290039 -0.01390582 -0.005512662 0.002395862
000250 5b 35 6e bc cb c3 ad b6 4b c9 53 3a 61 74 20 ba
       -0.014539088 -5.178595e-06 0.0008079006 -0.00061208574
000260 1b a3 a6 bc 08 94 14 bc e8 40 1d bc c5 af 80 bc
       -0.020341447 -0.0090684965 -0.009597994 -0.015708813
000270 03 d6 dc bb 25 06 d9 bb c9 e9 14 bc 27 75 df 3a
       -0.0067393794 -0.006623047 -0.009088942 0.0017048464
000280 aa 3f 46 bc 75 98 d3 bb ed 30 ef 3b ea 93 56 bc
       -0.01210014 -0.0064573833 0.0072995336 -0.013096789
000290 f2 9a cf 3b a7 ee 7f 3b 13 6c 30 3c 0a c3 e4 bb
       0.0063356096 0.003905216 0.010767954 -0.0069812583
0002a0 db ae c5 bb f7 d6 04 3b 5a 51 d7 3a 0d 9e 4f bc
       -0.0060328073 0.002026973 0.0016427443 -0.01267196
0002b0 eb 46 50 bc 1f 2c 3f bc 0a d7 73 3a 99 14 98 3a
       -0.012712221 -0.011668234 0.00093017577 0.0011602818
0002c0 b3 72 fa 3d db 28 9a 3d b9 4f a9 ba e7 19 52 bc
       0.122289084 0.07527324 -0.0012917436 -0.012823558
0002d0 bb ef b1 3d ed bc d8 3c 1d cf 13 3b f4 62 07 bb
       0.08688303 0.026457274 0.002255387 -0.0020658346
0002e0 7b 64 49 3d 15 14 6d 3c 9e e2 28 3c 6d ab 69 3b
       0.04916809 0.01447012 0.010307936 0.0035655156
0002f0 3a 2d 50 3d f3 91 a0 3b 16 a2 1c 3c 4b 8d b1 bc
       0.05082438 0.004900211 0.009560129 -0.021673819
000300 0f 19 9e bc d5 29 91 bc 50 c1 7a bb 78 e6 83 bb
       -0.019299058 -0.017720142 -0.0038262196 -0.0040252768
000310 1d e2 76 bb 0b 12 58 bc 9d ed e9 ba d3 96 59 bc
       -0.0037671395 -0.0131878955 -0.0017847304 -0.013280588
000320 18 48 85 bb b4 4d 84 bc 1f 0e 48 bc 7b 20 77 3b
       -0.004067432 -0.016150333 -0.012210398 0.003770857
000330 eb be 0c 3b 1f bd 4d bc 3d 82 78 ba d0 59 9e bb
       0.00214761 -0.012557297 -0.0009479856 -0.004832484
000340 c4 1e a1 ba e4 3a 35 bc f5 89 00 3a dc 22 8b 3a
       -0.0012292494 -0.011061404 0.00049033697 0.0010615247
000350 e3 7d fa 3a d3 c1 cf bb 47 73 b8 bc 00 22 0e 3c
       0.0019111003 -0.0063402443 -0.022515906 0.008675098
000360 50 08 7d bb d2 f1 28 b9 b0 af d9 3b e2 d7 90 bc
       -0.003860969 -0.00016111814 0.006643258 -0.017681066
000370 f5 10 82 3a 5c 54 89 bb 70 15 8d bb bb ae 9e 3b
       0.0009923266 -0.0041909646 -0.004305534 0.004842607
000380 97 44 64 bc 53 4a 4f 3c 82 db 8b 3b 50 b1 8c 3b
       -0.013932369 0.012651998 0.0042681107 0.0042935982
000390 34 1e 13 3c cd 59 55 bc 80 fa b7 bb 55 5b 89 b9
       0.008979369 -0.013021898 -0.0056145787 -0.00026198724
0003a0 fd 67 f7 3a 4b 9a 54 3b eb d2 d1 3a 17 9b c4 bb
       0.0018875595 0.0032440599 0.0016008293 -0.0059999335
0003b0 7f 78 af 3c b5 a1 cb 3b f3 32 56 bb 0d b4 b4 3b
       0.021419762 0.0062143453 -0.0032684177 0.005514628
0003c0 f0 84 93 bc 49 8b 18 bc 5a 18 09 bc eb 3a 72 bb
       -0.018007725 -0.009310552 -0.008367622 -0.0036961387
0003d0 c5 3b 5f bb d2 70 4c bc 44 25 0a 3c a3 11 69 bb
       -0.0034062725 -0.01247807 0.008431736 -0.003556349
0003e0 50 82 20 bc c1 93 48 bb b7 95 64 3a 00 74 e2 3b
       -0.009796694 -0.0030605646 0.0008719819 0.006910801
0003f0 65 66 11 bc 6d 28 c5 bb fc ef 86 bb 05 45 16 bc
       -0.00887451 -0.006016782 -0.004117964 -0.009171729

fc1.bias f4 [64]
000000 34 6e 15 3a 97 97 bc bc d2 8c 90 bd 55 89 b3 3d
       0.00057003205 -0.023021502 -0.07058109 0.087664284
000010 95 93 8a bb 65 38 31 be 94 45 97 bb 85 5e b5 3b
       -0.004229019 -0.17306669 -0.0046164487 0.0055349492
000020 f2 7c c4 39 c3 bc 30 3a 15 46 da bb e8 2f fa bb
       0.00037477125 0.0006741995 -0.0066611865 -0.0076351054
000030 9d f6 f3 bb 34 65 37 bb d7 18 c9 bd 51 0b a2 bc
       -0.00744517 -0.0027983906 -0.09819191 -0.019780787
000040 6a 38 50 3c 20 44 ed bd 2f 93 88 bb 6d b9 21 3a
       0.012708763 -0.115852594 -0.0041679363 0.0006169293
000050 e0 15 09 3b 97 98 08 3b 75 06 10 3d 48 aa 8e bc
       0.002091758 0.0020842904 0.035162408 -0.01741518
000060 1f 54 10 3a d6 53 03 3d b1 c8 94 bb bb b2 d2 bc
       0.0005505699 0.032062374 -0.004540526 -0.025719991
000070 22 67 af 3b 32 4b a2 bd 7b fd 1c 3c ed db 05 bc
       0.0053528706 -0.079244986 0.009581919 -0.00817011
000080 4f e4 96 3c 02 23 5e bc ab c2 25 3b e7 5a 24 3e
       0.018419413 -0.013558151 0.0025293033 0.16050301
000090 50 45 88 ba 49 27 b2 b9 83 32 a4 3d f3 76 f9 bd
       -0.0010396633 -0.00033980075 0.08017447 -0.12180891
0000a0 45 fc c6 3d f5 c1 6f bd c4 c8 9f ba a8 9f 1e bd
       0.09716085 -0.05853458 -0.001219057 -0.03872648
0000b0 c5 ce b2 3b f3 f5 6d bb 86 fa 1b 3e c8 93 8b bc
       0.0054567778 -0.0036309927 0.15232286 -0.017038241
0000c0 4b 6f 46 3c 41 bb 09 bc e0 60 ed b9 c0 ba 03 3e
       0.012111495 -0.008406461 -0.0004527634 0.12864208
0000d0 7f 63 87 bc 33 13 41 bc 9d 33 bd bb 6a bd a3 bd
       -0.016526936 -0.011784363 -0.005773975 -0.07995112
0000e0 c0 37 5d bc ab ee 90 bd 5f d4 bd bc 66 b9 ba 3d
       -0.013502061 -0.07076772 -0.023172555 0.09117393
0000f0 aa a5 d0 bc 97 3f 96 3c 0b 16 b7 bb 51 ae 84 3a
       -0.02546962 0.018340869 -0.0055873445 0.0010122751

fc2.weight f4 [10, 64]
000000 14 44 8e 3d 13 4c b8 3d b2 0b 0a bd 13 39 e2 bc
       0.069465786 0.08998885 -0.03370256 -0.027615106
000010 e0 89 65 bc 43 59 89 3c 5b f5 27 bc a9 63 b6 bd
       -0.014009923 0.016766196 -0.010251368 -0.089057274
000020 68 a8 e5 bc cb 1a 18 bd a7 14 81 bd 2d 1f 57 3d
       -0.028034404 -0.037134927 -0.06302767 0.052519966
000030 10 78 63 3c 40 5d 7d 3d 13 b2 d0 3c 67 9c 3f 3c
       0.013883606 0.06185651 0.025475537 0.011695004
000040 0f 8d 71 bd 0f a2 c5 3c 87 fc ad bc 5e d3 11 3d
       -0.058972415 0.024125127 -0.021238578 0.035601966
000050 0a c8 9f 3b 83 66 8a 3c 2d 84 5e bd 98 5d f4 ba
       0.0048761414 0.016894585 -0.05432527 -0.0018643616
000060 4d 20 aa 3c a7 5b f7 bd 65 2d f9 3c 38 47 74 bc
       0.020767355 -0.12078028 0.030417154 -0.014909558
000070 85 ea 73 3d 47 76 79 3d 0a d2 1f 3c bf cf 4b bc
       0.059549827 0.060903814 0.009754667 -0.012439667
000080 fb 94 ad bc 88 de 05 bc 22 50 1c 3d 06 e4 8d bd
       -0.021189203 -0.008170731 0.038162358 -0.06928258
000090 e3 78 dc 3c da ae cb bc e3 51 9b bd 85 bc e1 3d
       0.026913112 -0.02486365 -0.07583978 0.11022285
0000a0 0b 90 8c bd 26 28 8f bc 70 d8 2b bd a5 73 f9 3d
       -0.068634115 -0.017475199 -0.041954458 0.121802606
0000b0 c3 aa 15 bd 05 58 d1 bc 8b b7 a5 3d 02 70 d0 3c
       -0.036539804 -0.025554666 0.08091649 0.025444034
0000c0 08 53 d7 bc 3f 98 97 3b 12 47 ee bc 8a 44 40 bd
       -0.02628471 0.0046263034 -0.029086623 -0.046940364
0000d0 90 6b d2 3c eb 77 8d 3d 75 7e b1 3c e2 98 88 3c
       0.025686055 0.06907638 0.021666745 0.016674463
0000e0 6c e3 90 3d bc 7c 9c 3b 6f 71 44 3d 67 0a 7e 3d
       0.07074627 0.0047756117 0.04795974 0.06202164
0000f0 7a d5 21 bd 4b e2 fe bd ff af 03 3c 02 56 9c bb
       -0.039510228 -0.12445506 0.008037566 -0.004770995
000100 cb 75 33 bd 70 0f a8 bb 20 57 e9 3c 7a 3d a1 bd
       -0.043813508 -0.0051287934 0.028483927 -0.07873054
000110 08 54 da 3c a3 d6 ab 3c f7 c6 91 3c 9d f2 88 bd
       0.026651397 0.02097637 0.01779507 -0.066869
000120 95 d7 5d 3c 44 bd 04 bc cd 8d cf bc 53 32 b6 3d
       0.013540168 -0.008101765 -0.02533617 0.08896317
000130 32 64 9a bd b1 8a 97 bc 06 6f cb bc 0f 7e 12 3c
       -0.07538642 -0.01849875 -0.024833214 0.0089411875
000140 a3 75 11 3d ab 7e d0 3b 50 94 57 bb f8 49 f8 3d
       0.035512578 0.0063627562 -0.0032894798 0.121234834
000150 30 1a 09 bd bc ed ac bc 40 0c ac 3d 0c df c2 3c
       -0.03347224 -0.021109454 0.08400774 0.023787998
000160 c3 08 cf bb 7a 60 4e 3d 80 23 1b 3c d8 04 32 3b
       -0.006318183 0.050384976 0.009468913 0.0027163532
000170 2f 98 c7 bc 2a a1 e1 3d 90 f2 a7 bd 35 30 cd bc
       -0.024364559 0.11017068 -0.08200562 -0.025047401
000180 ea 8c 4e 3d ea e8 1f 3c 8f ab c4 3c b2 ca 77 bc
       0.050427355 0.009760121 0.024007587 -0.01512401
000190 33 53 18 bb 4b 32 11 3c 48 6d 63 3d 27 ee 05 3e
       -0.002324295 0.008862088 0.05552414 0.13079129
0001a0 0c b8 01 bd f8 60 82 3c 73 81 5b 3d 69 e2 33 be
       -0.03166966 0.015915379 0.05359025 -0.17566837
0001b0 ca 57 00 bd 23 4a a5 3c f3 0c a2 bd 83 61 d3 bc
       -0.031333722 0.020176953 -0.07912626 -0.025803333
0001c0 07 40 6e bd 4f 0b 91 3b 9f 33 c5 39 6d 50 f0 bd
       -0.05816653 0.004426397 0.0003761323 -0.1173409
0001d0 c8 ec 19 3d 90 3f 67 3c 0f 8e c5 bc f7 3c 3c 3d
       0.037579328 0.014114276 -0.02411559 0.045956578
0001e0 75 2f fd bc f2 2c 83 3d fd 4a 54 3c dc a8 cb bc
       -0.030906418 0.06405057 0.012957332 -0.024860792
0001f0 67 83 d8 bc 14 d9 b7 3d 47 7a 03 bc b7 87 03 3d
       -0.026429845 0.08976951 -0.008024759 0.03211185
000200 e6 c5 33 bc 4a 73 53 3d 4e 9e 14 3b 9f 24 be 3c
       -0.010972476 0.05162362 0.0022677365 0.023210822
000210 b3 97 89 3b 6b 31 60 bd d2 2d c3 bd 4b d4 2a 3c
       0.004198992 -0.05473463 -0.09530224 0.010426591
000220 6f 4f 30 3c 2a 8d 66 bd 0d 74 cd 3b ff 2f a2 3d
       0.010761126 -0.05628697 0.006269938 0.07919311
000230 0a a8 ca 3b 83 5d c9 3b 66 4c ad 3d 67 f5 85 3c
       0.0061845826 0.0061451807 0.084618375 0.016352369
000240 fd 40 4d bd c3 63 2e 3b cb 82 31 bd 07 24 51 bb
       -0.050110806 0.0026609756 -0.043337625 -0.0031912343
000250 57 57 5d bd 87 47 57 bc 77 b6 aa 3d 0c 7e 88 3c
       -0.054038372 -0.013139612 0.08335584 0.016661666
000260 11 73 07 bb a3 07 6a 3d e7 9a a4 3c e8 f6 61 bd
       -0.002066795 0.05713619 0.020093394 -0.05516711
000270 0b f2 9a bc 1a de cc bd 03 b5 e8 bc 10 87 38 bd
       -0.018914243 -0.100033 -0.028406626 -0.04505068
000280 82 9b 86 3c df ee a1 bc cf 77 56 3c 88 f4 99 3d
       0.016431574 -0.019767223 0.013090088 0.07517344
000290 5b 8e 97 3c 58 ee ef 3c 8d f8 41 bd cb 08 68 bd
       0.018500498 0.029288456 -0.047356177 -0.05664901
0002a0 d3 fd 0d 3d 1c e3 02 be 2f 6a 3a 3d 77 8a 67 3d
       0.034665894 -0.12781948 0.04551142 0.056528535
0002b0 b2 9c a0 bb c2 a8 7d 3c 5c 4b 0e 3e b2 c3 77 bd
       -0.004901492 0.0154821295 0.13895935 -0.060489364
0002c0 f4 ff 0d bc 8b 95 7a 3a 6a 6f 7b 3c 6a 9c 19 3d
       -0.008666981 0.0009559027 0.015346387 0.037502684
0002d0 6d fb 61 3c 7f 3b 84 3c 27 d2 7f bc 53 a2 86 bd
       0.013792855 0.016141651 -0.015614069 -0.0657393
0002e0 03 f0 99 3c 7f cb a3 3d bf 48 c6 bb 8c 07 14 bc
       0.018791204 0.07997798 -0.0060511525 -0.009035002
0002f0 a2 d8 d8 ba 11 5e bd bd 85 94 c0 bc 8c 8d 82 bc
       -0.0016544054 -0.09246457 -0.02350832 -0.015936635
000300 46 c6 91 3d 98 68 51 be ff 17 51 bd dd 83 1c 3c
       0.07117896 -0.20450056 -0.051048275 0.009552923
000310 8d f6 51 bd e2 70 8c 3c 80 76 44 3d 08 b8 5c 3d
       -0.05126052 0.01714367 0.047964573 0.053886443
000320 92 15 75 bd 0f c7 62 bd d8 7f 80 bc 6f 30 ee 3c
       -0.059835024 -0.05536562 -0.01568596 0.02907583
000330 cf 40 ce 38 f8 5a 5e 3d 40 27 6c bc e7 9b 0f bc
       9.834917e-05 0.054285973 -0.014413655 -0.008765197
000340 63 08 84 3d 7a 57 ce bc e5 81 3c bd ef 6a 10 bd
       0.06446912 -0.025188196 -0.046022315 -0.03525823
000350 fb 52 15 3c ed 13 06 3d 2d 77 0e 3c 4b 0d 64 3b
       0.009114022 0.032733846 0.008695406 0.0034797962
000360 5a 5f 1d bd 75 7d d3 3c e0 df 10 bd 7d ad 9e 3d
       -0.038421012 0.025816659 -0.035369754 0.07747934
000370 75 88 27 3c a4 50 9f bc 3a 5a 68 bc d8 78 b2 3c
       0.010225405 -0.019447632 -0.014181668 0.021786138
000380 d3 26 cc bd c8 97 67 bc 83 32 a6 3d 08 e4 f4 3c
       -0.09968343 -0.014135309 0.08115103 0.02989389
000390 bf f3 a6 bc 2a f3 ea 3c 2b 90 50 bc 88 02 9b bd
       -0.0203799 0.028680403 -0.012729685 -0.07568842
0003a0 da 1c 25 b8 6e 03 3c bd 8a 7a a0 bc 94 bb 1a 3a
       -3.9365936e-05 -0.04590171 -0.019589681 0.0005902585
0003b0 62 ea fc bc 87 64 fc 3c 2c e6 14 bd 97 ae 22 bd
       -0.030873481 0.030809654 -0.03635232 -0.039717283
0003c0 7f 38 20 3c d1 6d 82 3c 00 ae 88 3c 46 24 b5 3c
       0.009779095 0.015921505 0.016684532 0.022112023
0003d0 d0 e0 36 3d 4f 22 c4 ba 8b ea f6 bc 90 57 cd 3c
       0.04464799 -0.0014963838 -0.030141136 0.025066167
0003e0 e2 8d 32 bd 58 e5 15 3d 3d 44 6c bd fa 8c bc 3d
       -0.04359234 0.036595672 -0.057682265 0.09206577
0003f0 b0 f2 d9 bc 30 65 de bd ba b5 bd bc 7f 7e da bb
       -0.02660498 -0.10859144 -0.023157943 -0.0066679115

fc2.bias f4 [10]
000000 bf eb eb bd 87 03 b9 bd 05 c6 81 3d d2 71 74 3d
       -0.115195744 -0.09033876 0.06336597 0.05967886
000010 c3 f0 38 3e 96 2c 2a bd b1 0b a0 3d 37 f7 7c bd
       0.18060593 -0.041546427 0.0781473 -0.0617592
000020 5b 11 14 bd 6f 07 38 bd
       -0.036149364 -0.044928964
