torch_to_tf/torch_models/model_round839.model (torch, 493063 bytes, 10 tensors)

conv1.weight f4 [32, 3, 3, 3]
0.10016793 -0.054627754 -0.0231798 0.1000249 -0.14153229 -0.050346095 0.01106733 -0.009572344
0.09398552 0.08451275 -0.03830384 0.061427232 0.010890439 -0.09294731 0.017161611 0.030661633
-0.029596636 -0.005507102 -0.02896953 0.11600923 -0.08849201 -0.006881571 0.010877582 -0.018159628
-0.0206734 -0.04778671 0.019457676 0.011427628 0.026406726 -0.0036306449 -0.07825321 -0.10059845
0.0723144 -0.025329238 -0.008674637 -0.023227224 0.078206345 0.11137154 0.035780925 0.012992056
-0.033920426 0.00714308 0.014309317 0.041586693 -0.0233016 0.04424342 0.01855635 0.05845536
-0.009505627 -0.09025205 -0.0652694 -0.06547435 -0.008186378 -0.010378293 -0.05309471 0.07274983
0.108120196 -0.10037597 0.0053645186 -0.057661295 0.055636544 -6.2880375e-05 -0.0343507 0.020846574
-0.04660548 0.043375272 -0.014102103 0.112162076 -0.048378147 0.015293637 0.04717762 0.00951296
-0.058480132 -0.1348847 0.0343649 -0.0020978095 0.1285561 -0.03264233 -0.045115314 0.049759787
-0.080586486 0.060239375 0.08021043 -0.013405603 0.05153944 -0.009035762 -0.0025741586 0.12208902
-0.04754866 -0.075997286 -0.06038155 0.059949424 -0.018116986 0.008440076 0.09363363 -0.12205627
-0.061166853 -0.10132128 -0.059876323 -0.010540775 -0.0092777265 0.041158345 0.067741655 0.015391347
-0.07947944 0.036598463 -0.03967208 0.08329598 0.028194984 0.07118056 0.031451624 0.049041327
0.0385362 0.013357519 0.028483812 0.06354729 0.0631703 -0.014207668 -0.05976221 -0.10429781
-0.06418944 -0.030650977 -0.00091625284 -0.050950356 -0.080901295 -0.046726607 -0.019901242 -0.0048777345
0.079188496 0.0023821157 -0.0074785575 -0.0078009083 0.035495553 -0.07831176 0.053278334 0.0011031099
-0.0026553685 -0.05073539 0.027970884 0.06850552 0.06862764 0.011087757 0.0470667 -0.0062572225
-0.06267797 0.06530962 0.005700215 -0.13621195 0.0024927799 -0.099727415 -0.03939973 -0.043001365
-0.089289725 -0.0073559484 0.028198173 -0.008126864 0.004133515 0.10677024 -0.022497414 -0.092326514
0.054562163 0.10554208 0.08123838 -0.050227683 0.033005573 -0.0074157636 0.022206292 0.08983827
-0.059125364 0.0249687 0.11471551 -0.02873656 -0.10098918 -0.07387025 -0.033169836 0.008301854
0.017774796 -0.07168137 -0.029427934 0.06382345 -0.033034317 -0.14044844 0.021249963 -0.06533487
-0.08086463 0.0894992 -0.07230028 0.025395637 0.07877833 0.10632117 -0.12118343 -0.020032931
-0.053797465 -0.07302739 0.013979088 -0.008135661 0.009771482 0.012547249 -0.069005065 -0.009233017
0.038038123 0.02711069 -0.03626236 0.028466854 0.009430537 -0.032523993 -0.06401837 0.10296752
-0.078402214 0.012324365 0.055781282 0.123355865 -0.06859484 0.07288776 0.008851535 -0.0020895891
-0.019280775 -0.025844902 0.025606066 -0.06136888 0.016132742 -0.074756645 0.023341207 0.05434547
0.06146723 0.039154794 -0.009737617 -0.058918126 0.015485967 -0.044846542 -0.08535842 -0.069303736
-0.02985747 0.108904175 -0.037999894 0.018924266 0.0026205955 -0.005511327 -0.066554144 0.030051047
-0.0012534859 0.05477018 0.069390185 -0.104384355 0.011013473 -0.04437458 -0.011447555 0.04963855
-0.014235017 -0.035361778 0.008162605 0.012718223 -0.105542086 -0.03558998 0.013746207 0.023437737
00000000: d824 cd3d 5ac1 5fbd 90e3 bdbc dbd9 cc3d
00000010: d7ed 10be b537 4ebd bf53 353c 52d5 1cbc
00000020: 7b7b c03d 0515 ad3d 7de4 1cbd 1f9b 7b3d
00000030: d06d 323c 295b bebd 8296 8c3c 1b2e fb3c
00000040: a574 f2bc eb74 b4bb 8251 edbc 3f96 ed3d
00000050: 4d3b b5bd cd7e e1bb e337 323c 80c3 94bc
00000060: 435b a9bc ffbb 43bd b465 9f3c f23a 3b3c
00000070: eb52 d83c 1df0 6dbb 3843 a0bd 8f06 cebd
00000080: 9219 943d 437f cfbc 1120 0ebc 0547 bebc
00000090: a62a a03d c316 e43d 058f 123d a2dc 543c
000000a0: 25f0 0abd 7f10 ea3b a071 6a3c cf56 2a3d
000000b0: ffe2 bebc 9738 353d 7d03 983c e36e 6f3d
000000c0: 7dbd 1bbc 11d6 b8bd f7ab 85bd 6a17 86bd
000000d0: 2820 06bc b709 2abc d779 59bd ddfd 943d
000000e0: 1f6e dd3d eb91 cdbd d8c8 af3b 402e 6cbd
000000f0: 25e3 633d a5de 83b8 52b3 0cbd 6fc6 aa3c
00000100: 63e5 3ebd 45aa 313d 820c 67bc 3bb5 e53d
00000110: 2a28 46bd 2a92 7a3c 523d 413d 3fdc 1b3c
00000120: dd88 6fbd 371f 0abe 36c2 0c3d 677b 09bb
00000130: 36a4 033e f7b3 05bd d6ca 38bd ebd0 4b3d
00000140: 870a a5bd 90bd 763d 5e45 a43d 2da3 5bbc
00000150: 051b 533d bc0a 14bc 37b3 28bb cf09 fa3d
00000160: 62c2 42bd 77a4 9bbd a552 77bd 878d 753d
00000170: 136a 94bc 3f48 0a3c fdc2 bf3d a3f8 f9bd
00000180: 188a 7abd 8881 cfbd e040 75bd 37b3 2cbc
00000190: 9b01 18bc a795 283d 23bc 8a3d fd2b 7c3c
000001a0: 1ec6 a2bd 45e8 153d 317f 22bd 1597 aa3d
000001b0: 2bf9 e63c 1dc7 913d 6bd3 003d 8fdf 483d
000001c0: 22d8 1d3d 7fd9 5a3c e256 e93c 1525 823d
000001d0: 6e5f 813d 47c7 68bc 38c9 74bd 179a d5bd
000001e0: c175 83bd c217 fbbc b030 70ba 52b1 50bd
000001f0: 94af a5bd 6664 3fbd ee07 a3bc 67d5 9fbb
00000200: 942d a23d 451d 1c3b b00e f5bb c39e ffbb
00000210: c963 113d eb61 a0bd 623a 5a3d 3a96 903a
00000220: b105 2ebb eacf 4fbd 3223 e53c 9f4c 8c3d
00000230: a68c 8c3d 6ca9 353c 03c9 403d 6309 cdbb
00000240: 4f5d 80bd 0dc1 853d dfc8 ba3b 257b 0bbe
00000250: e85d 233b e33d ccbd 9c61 21bd 3322 30bd
00000260: 88dd b6bd 2b0a f1bb dbff e63c 8a26 05bc
00000270: 7072 873b 5baa da3d 7f4c b8bc af15 bdbd
00000280: 937c 5f3d 7226 d83d 4f60 a63d 8bbb 4dbd
00000290: da30 073d efff f2bb f8e9 b53c 20fd b73d
000002a0: 702d 72bd 298b cc3c f7ef ea3d ef68 ebbc
000002b0: 6ad3 cebd 4949 97bd 18dd 07bd 8004 083c
000002c0: 739c 913c afcd 92bd da12 f1bc deb5 823d
000002d0: fe4e 07bd b7d1 0fbe 6714 ae3c 4ace 85bd
000002e0: 5b9c a5bd 5b4b b73d 2b12 94bd 830a d03c
000002f0: 8856 a13d eabe d93d 052f f8bd 1a1c a4bc
00000300: bb5a 5cbd 628f 95bd 8b08 653c 6f4b 05bc
00000310: 9118 203c fa92 4d3c 8752 8dbd 1546 17bc
00000320: ddcd 1b3d 3d17 de3c d787 14bd 5233 e93c
00000330: 8a82 1a3c e137 05bd 101c 83bd a3e0 d23d
00000340: 5791 a0bd 22ec 493c ea7a 643d 00a2 fc3d
00000350: 747b 8cbd 2e46 953d 0706 113c 7df1 08bb
00000360: b7f2 9dbc b0b8 d3bc d0c3 d13c ef5d 7bbd
00000370: d028 843c 031a 99bd 0f36 bf3c 5b99 5e3d
00000380: 10c5 7b3d c760 203d 878a 1fbc 2254 71bd
00000390: dab8 7d3c 02b1 37bd 65d0 aebd 1eef 8dbd
000003a0: a797 f4bc 2709 df3d c7a5 1bbd 1007 9b3c
000003b0: 4cbe 2b3b 5d98 b4bb 8a4d 88bd 9d2d f63c
000003c0: 024c a4ba b256 603d 711c 8e3d 77c7 d5bd
000003d0: db71 343c 1fc2 35bd 878e 3bbc cb51 4b3d
000003e0: fd39 69bc 83d7 10bd 72bc 053c 1860 503c
000003f0: 7326 d8bd cdc6 11bd c537 613c 7f00 c03c

conv1.bias f4 [32]
0.12465451 -0.10017113 0.036990527 -0.0019059245 0.100475624 -0.037152622 0.1055745 0.078933924
0.081848465 -0.13828094 0.023977833 0.0028437395 -0.11289994 0.08012076 -0.012321688 -0.030867387
0.057875704 0.06360155 0.08848735 0.11237361 -0.0006872358 0.04340825 0.016642077 -0.09600896
-0.09485322 -0.0014125799 -0.009530669 -0.09373932 0.008110993 -0.00072899996 0.07127475 -0.16923778
00000000: dd4a ff3d 8526 cdbd 6183 173d 37d0 f9ba
00000010: 2ac6 cd3d 592d 18bd 7237 d83d 1ca8 a13d
00000020: 2ba0 a73d 8599 0dbe 296d c43c 085e 3a3b
00000030: 1538 e7bd 5a16 a43d e8e0 49bc 9add fcbc
00000040: 130f 6d3d 8841 823d db38 b53d 2324 e63d
00000050: 9d27 34ba d9cc 313d f754 883c 58a0 c4bd
00000060: 6842 c2bd 5126 b9ba 8626 1cbc 67fa bfbd
00000070: f8e3 043c 5c1a 3fba 7ff8 913d ab4c 2dbe

conv2.weight f4 [64, 32, 3, 3]
-0.027034093 -0.070481956 0.019461062 -0.034967326 -0.05271771 0.06697532 -0.0058924505 -0.052852374
0.006618934 0.014869061 -0.05279675 -0.04559073 -0.043194976 -0.056754645 -0.019842612 0.02677147
0.013476081 -0.0024431224 -0.03133786 -0.058500495 0.012008679 -0.019922048 -0.09353528 0.04094028
0.0007798958 -0.045256954 -0.0062881634 0.020340864 -0.029653538 -0.046113696 -0.018726695 -0.036926597
-0.01922474 -0.037077587 -0.044129096 -0.0450052 -0.0053972057 -0.014005484 0.020749493 0.011755929
0.014435597 0.018067466 0.021820214 0.027934456 0.050144106 0.00994355 -0.032764435 0.017548317
-0.008564326 -0.053164948 0.019335633 -0.022703975 -0.006949413 0.08991815 -0.018104834 0.037138287
0.1470901 -0.007419385 0.007459408 0.09865944 -0.07775859 -0.004825283 0.099388815 -0.028544635
-0.033549216 -0.0026470076 0.001744857 -0.0032147926 0.030262565 0.019034881 0.040833686 0.070169985
-0.024990324 -0.10009892 0.0625604 0.0092938375 -0.06255913 0.025253732 -0.018971771 -0.11331584
-0.03746208 -0.003296305 -0.011870811 0.08322443 -0.018848369 -0.010864823 0.07005812 -0.015406044
-0.009147341 0.008338079 -0.012391738 -0.09926319 -0.006440533 -0.036719177 -0.07766938 -0.0076345266
0.024838889 -0.009808557 0.05981929 -0.033720765 -0.018852262 0.014664136 -0.04157646 -0.041250773
0.038980808 -0.0037520619 -0.016350953 0.06646898 -0.034457948 -0.03007947 0.024150014 -0.007819691
-0.032276567 0.054746367 -0.018411681 -0.039214488 0.06594358 -0.038571887 -0.031263 0.05616563
-0.013686161 0.012832003 0.010480565 -0.0009189746 0.02331117 0.031468596 -0.020105911 -0.08609236
-0.049606886 -0.047801245 -0.04276624 -0.0144261 -0.03946568 -0.02891521 0.029198045 0.0074643134
-0.027234847 -0.025957441 -0.030953636 -0.011525482 0.006539048 0.036851812 0.02085053 0.045122195
-0.034359977 -0.037968975 0.07335008 -0.026110066 -0.032891516 0.054224532 -0.054201182 -0.05918755
0.057713743 -0.015967695 -0.047244225 -0.019762725 -0.045098957 -0.030155405 -0.01790228 -0.011668674
-0.016432492 -0.016786275 -0.008810918 -0.09997475 -0.071749926 -0.057281453 -0.046472393 0.07929684
-0.026268486 -0.033069264 -0.010945439 -0.011384877 -0.029828215 0.053377867 0.029187227 -0.013272131
0.030134773 -0.011140262 -0.019962436 0.041799117 -0.023661613 -0.09639369 0.0254313 -0.04901246
-0.02570477 0.024452595 -0.002852503 0.02425512 -0.006986007 -0.010759999 -0.015689153 0.03585053
-0.024970569 -0.035529677 0.05386684 -0.042261176 -0.012017597 0.027849538 -0.009667781 -0.04761141
0.011544722 -0.02047329 -0.020805355 0.029566526 -0.00878103 -0.006589061 0.085891545 0.07298471
-0.046576988 -0.04854959 0.026535958 -0.09878583 -0.0486876 0.036524203 0.016601337 -0.008618374
-0.01569622 5.9379923e-05 -0.036831 -0.0029857194 -0.038216285 -0.08091809 -0.062822066 -0.034262437
0.013510502 -0.03255054 -0.010788372 -0.023336938 -0.042839427 -0.039277207 -0.007750995 -0.054294694
-0.056966055 0.026821984 -0.02297604 -0.034598522 -0.0006291195 -0.015492556 -0.015347053 0.05655616
0.011645555 0.0473012 0.038773634 -0.002845412 -0.0058364845 -0.037483465 -0.047523476 0.00017885305
0.017257797 -0.0033561026 0.028935784 0.068952225 0.01083529 -0.020886818 -0.00333589 0.018174103
00000000: 9a76 ddbc d858 90bd ce6c 9f3c e639 0fbd
00000010: 87ee 57bd 5b2a 893d 7515 c1bb bb7b 58bd
00000020: a5e3 d83b 5d9d 733c 6841 58bd 58bd 3abd
00000030: 37ed 30bd 8f77 68bd f98c a2bc d84f db3c
00000040: c8ca 5c3c cb1c 20bb 215c 00bd 379e 6fbd
00000050: 0dc0 443c 9033 a3bc 6d8f bfbd ffb0 273d
00000060: ec71 4c3a 5b5f 39bd f00c cebb e2a1 a63c
00000070: faeb f2bc b7e1 3cbd ba68 99bc 5840 17bd
00000080: 347d 9dbc abde 17bd b6c0 34bd 5f57 38bd
00000090: 0bdb b0bb 4277 65bc d7fa a93c f19b 403c
000000a0: 4883 6c3c 3902 943c 4ec0 b23c cdd6 e43c
000000b0: e863 4d3d 46ea 223c 0034 06bd 7dc1 8f3c
000000c0: 6351 0cbc 7dc3 59bd c365 9e3c b0fd b9bc
000000d0: e7b7 e3bb 0227 b83d 9750 94bc 511e 183d
000000e0: ca9e 163e 501e f3bb 0d6e f43b f60d ca3d
000000f0: e53f 9fbd 681d 9ebb 5d8c cb3d 70d6 e9bc
00000100: e76a 09bd 6b79 2dbb b0b3 e43a 45af 52bb
00000110: 33e9 f73c 0aef 9b3c 3941 273d 48b5 8f3d
00000120: 82b8 ccbc aa00 cdbd ab1f 803d 2e45 183c
00000130: 001f 80bd eae0 ce3c b06a 9bbc 2312 e8bd
00000140: d771 19bd d206 58bb ca7d 42bc 9271 aa3d
00000150: e567 9abc 5f02 32bc a27a 8f3d a269 7cbc
00000160: bbde 15bc 709c 083c b706 4bbc 804a cbbd
00000170: 1b0b d3bb d966 16bd 2011 9fbd 0d2b fabb
00000180: ed7a cb3c 12b4 20bc 1205 753d c91e 0abd
00000190: 0f70 9abc d841 703c 144c 2abd 92f6 28bd
000001a0: 57aa 1f3d 27e5 75bb 6ff2 85bc e320 883d
000001b0: c723 0dbd 3869 f6bc 40d6 c53c 291e 00bc
000001c0: 6f34 04bd ba3d 603d 18d4 96bc 5f9f 20bd
000001d0: 6d0d 873d 8efd 1dbd a20d 00bd ef0d 663d
000001e0: eb3b 60bc 523d 523c adb6 2b3c 57e7 70ba
000001f0: 11f7 be3c 37e5 003d 27b5 a4bc 3151 b0bd
00000200: 9730 4bbd 3dcb 43bd a72b 2fbd 735b 6cbc
00000210: c4a6 21bd 97df ecbc bd30 ef3c 3397 f43b
00000220: 9d1b dfbc b3a4 d4bc 7b92 fdbc 60d5 3cbc
00000230: 8345 d63b edf1 163d bbce aa3c 0dd2 383d
00000240: 0cbd 0cbd 5b85 1bbd 9138 963d c7e4 d5bc
00000250: 41b9 06bd 8b1a 5e3d 0f02 5ebd a56e 72bd
00000260: 3f65 6c3d afce 82bc 2983 41bd 70e5 a1bc
00000270: afb9 38bd 7808 f7bc cda7 92bc f72d 3fbc
00000280: 6f9d 86bc 5f83 89bc ab5b 10bc 90bf ccbd
00000290: a0f1 92bd f59f 6abd d659 3ebd 6266 a23d
000002a0: 0231 d7bc a373 07bd 8054 33bc a387 3abc
000002b0: 4d5a f4bc c0a2 5a3d 0d1a ef3c 5a73 59bc
000002c0: 33dd f63c a585 36bc 4388 a3bc 8d35 2b3d
000002d0: 00d6 c1bc 0e6a c5bd 4d55 d03c 4ac1 48bd
000002e0: cf92 d2bc cf50 c83c 0ff1 3abb acb2 c63c
000002f0: e0ea e4bb b54a 30bc 8a86 80bc 01d8 123d
00000300: 148f ccbc 9187 11bd 7aa3 5c3d 0e1a 2dbd
00000310: 75e5 44bc b724 e43c 9d65 1ebc 2f04 43bd
00000320: 1326 3d3c 9ab7 a7bc fe6f aabc 8035 f23c
00000330: 4fde 0fbc 0de9 d7bb e8e7 af3d 0279 953d
00000340: 83c7 3ebd efdb 46bd f061 d93c 3a50 cabd
00000350: a66c 47bd 679a 153d 87ff 873c 1534 0dbc
00000360: 5c95 80bc b50e 7938 1adc 16bd 0fac 43bb
00000370: ae88 1cbd 62b8 a5bd dba8 80bd c556 0cbd
00000380: 275b 5d3c b753 05bd b6c1 30bc 1b2d bfbc
00000390: 6578 2fbd 23e1 20bd 0ffc fdbb 1d64 5ebd
000003a0: 3d55 69bd c7b9 db3c 4038 bcbc 2eb7 0dbd
000003b0: 7feb 24ba 7dd4 7dbc 3572 7bbc 6fa7 673d
000003c0: ffcc 3e3c e7be 413d 1ad1 1e3d 177a 3abb
000003d0: fb3f bfbb 4388 19bd faa7 42bd 808a 3b39
000003e0: 3960 8d3c 0ff2 5bbb bd0a ed3c d336 8d3d
000003f0: 8086 313c d51a abbc f29e 5abb dbe1 943c

conv2.bias f4 [64]
0.085238725 -0.06982673 0.015223962 0.0279439 -0.021515278 -8.1158985e-05 0.056972463 -0.045350343
-0.07071554 -0.049841832 -0.075517036 0.0136468485 0.026581813 -0.023209697 0.060338464 -0.062348094
0.046761867 0.003066888 0.0055390354 0.12685446 0.008975725 -0.048476875 -0.029912442 0.021762464
-0.0406128 -0.022210121 0.053224113 -0.014928909 0.023099553 -0.1273918 -0.044929 0.11852618
0.050558668 0.060435273 -0.08045119 0.022197396 0.0016306104 0.06465179 -0.107076935 0.12654708
-0.083867334 0.13300227 -0.0663084 -0.058744192 -0.017051283 0.09064546 0.009402989 0.050350226
-0.030743001 -0.014459352 -0.046272237 -0.011199104 0.06379235 -0.02626636 -0.01727685 -0.10078539
-0.028856883 0.0060554384 0.041718718 -0.017162403 0.07346804 0.14250505 0.0013641383 0.086667344
00000000: a491 ae3d 5101 8fbd ed6d 793c 9bea e43c
00000010: cf40 b0bc e633 aab8 f55b 693d 48c1 39bd
00000020: 4fd3 90bd f326 4cbd ada8 9abd 0897 5f3c
00000030: 1ac2 d93c 4322 bebc 7725 773d b760 7fbd
00000040: 5f89 3f3d d8fd 483b cc80 b53b 23e6 013e
00000050: eb0e 133c b08f 46bd f00a f5bc 3247 b23c
00000060: 9b59 26bd 00f2 b5bc 8701 5a3d 6298 74bc
00000070: 463b bd3c ff72 02be 7907 38bd dbbd f23d
00000080: 9b16 4f3d fa8a 773d 98c3 a4bd 50d7 b53c
00000090: 35ba d53a 2868 843d 274b dbbd 8f95 013e
000000a0: a3c2 abbd bf31 083e b3cc 87bd c09d 70bd
000000b0: 22af 8bbc 54a4 b93d ff0e 1a3c 0a3c 4e3d
000000c0: bfd8 fbbc ebe6 6cbc f587 3dbd 727c 37bc
000000d0: 90a5 823d 8d2c d7bc 2e88 8dbc 9268 cebd
000000e0: 4565 ecbc b36c c63b 3fe1 2a3d 2b98 8cbc
000000f0: 6976 963d d8ec 113e e3cc b23a a67e b13d

conv3.weight f4 [64, 64, 3, 3]
-0.06519727 0.0013502584 0.040841132 -0.02961813 0.029104082 0.021714339 -0.02595014 -0.023608197
-0.054895032 -0.0054906844 -0.013716415 0.017208843 -0.016031967 0.0034772966 0.106391385 0.0051931553
-0.0013721776 0.060830858 0.018291373 0.006886291 -0.04111443 -0.018021112 0.00825734 -0.0031787378
-0.013631937 -0.035750166 0.010684207 -0.01947365 -0.011971048 -0.08360403 -0.040620305 -0.03996406
-0.041128036 -0.041969653 -0.042783074 0.06916098 -0.009737602 -0.016658194 0.0035099387 -0.016787017
0.003471318 0.025814196 0.011485004 0.015644535 0.044397593 -0.0008597897 0.0025079648 0.055087447
-0.014298311 -0.043568667 0.055105705 -0.019528633 -0.018598868 0.040990617 -0.002469936 0.041398894
0.079412006 0.034012254 0.10460909 0.13187693 0.056311477 0.10628921 0.09996573 -0.007648458
-0.022847524 -0.020206092 -0.010354333 -0.01859648 -0.046090357 -0.00816906 -0.009634184 -0.035672765
-0.037761044 -0.033101737 0.011601877 -0.013705203 -0.0004192763 -0.008692296 -0.021471476 0.027274448
0.004960536 -0.043988395 -0.11062562 -0.04599228 -0.04255235 -0.072099306 -0.035018142 0.014396268
-0.019508457 -0.009661923 0.016559267 -0.033953536 -0.026241357 -0.020528136 -0.028011648 -0.02677436
-0.012662466 -0.046133734 -0.0131884245 -0.036768835 -0.03994896 0.029291946 -0.05223901 -0.0033505112
0.059210707 -0.038972702 0.024094233 0.026849968 -0.03956866 0.007265626 0.02207236 -0.051815867
-0.07165422 0.00282725 -0.0269007 -0.024838446 0.0469719 -0.11166008 -0.092078134 -0.04763125
-0.026787687 -0.09104511 -0.10495527 0.008760843 0.019744327 -0.018817201 -0.014840707 -0.008054291
-0.03166876 5.2399864e-05 -0.0031409492 -0.00471702 0.008343335 -0.0028999231 0.021274641 0.005151917
-0.023543762 -0.051142395 -0.009976482 -0.020173064 -0.0039709406 -0.02673249 0.004344257 -0.0030910342
0.02868392 -0.030856624 -0.047504906 0.06344337 -0.0015203293 -0.005259731 0.0552058 -0.03227972
0.008178906 -0.004290712 -0.00076178304 0.01973475 0.016097857 -0.025115151 0.0092605585 0.0073737204
-0.016088223 0.067842685 0.010699112 -0.0038052164 -0.014123472 -0.012172254 0.001956321 0.0013934294
0.011460594 -0.0035617973 -0.005426507 0.0023588284 0.027945632 0.12641782 -0.021485185 0.08291747
0.11072942 0.07256799 0.11153034 0.0047674165 -0.014810813 -0.011682187 0.0008983818 -0.0005962792
-0.024484135 -0.008576958 -0.0034922056 0.0021797807 -0.006061599 0.018157413 0.03074549 0.0381537
0.01964554 0.040191527 0.046839446 0.044417277 0.07426429 0.034491554 0.04870695 0.031238401
-0.03640644 0.09135835 -0.017751632 -0.034803923 0.10465206 -0.05202931 -0.00026725192 0.032827903
0.011656634 0.047829688 -0.014628631 0.02194959 0.026433095 0.028259525 0.067107156 0.041125786
0.014764025 -0.0026947185 0.002153374 0.04303308 0.01945488 -0.0014201588 0.050976783 0.023848256
0.033901405 0.013477682 0.0022166723 0.01088159 0.0059444173 -0.009485633 0.0031955286 0.0006665767
-0.004784621 -0.017887374 -0.028210504 -0.01870347 -0.043937184 0.017577162 0.016354429 -0.0350101
-0.0066643334 -0.044629097 -0.017536463 -0.029590676 -0.020850914 -0.015256566 -0.0058992775 -0.04993317
0.0128493225 -0.035336263 -0.06843599 0.015862826 -0.0072669894 0.017606411 -0.0201599 0.012261651
00000000: 2586 85bd 27fb b03a 0849 273d b8a1 f2bc
00000010: af6b ee3c 45e2 b13c 6395 d4bc fa65 c1bc
00000020: 9dd9 60bd 33eb b3bb d0ba 60bc 8ff9 8c3c
00000030: 7955 83bc 5be3 633b bae3 d93d 582b aa3b
00000040: a4da b3ba c729 793d cad7 953c 65a6 e13b
00000050: 9b67 28bd 03a1 93bc cb49 073c 5f52 50bb
00000060: 7d58 5fbc c46e 12bd d00c 2f3c 3487 9fbc
00000070: 3722 44bc 9738 abbd 7a61 26bd 5bb1 23bd
00000080: df75 28bd 5fe8 2bbd 4e3d 2fbd 46a4 8d3d
00000090: 778a 1fbc c476 88bc 0007 663b ed84 89bc
000000a0: 0d7f 633b 4b78 d33c 992b 3c3c f828 803c
000000b0: 40da 353d 8363 61ba ab5c 243b 60a3 613d
000000c0: 7743 6abc 0f75 32bd 85b6 613d 83fa 9fbc
000000d0: a75c 98bc c7e5 273d a6de 21bb e391 293d
000000e0: c3a2 a23d 6f50 0b3d 4a3d d63d bf0a 073e
000000f0: dda6 663d 28ae d93d d5ba cc3d ea9f fabb
00000100: bb2a bbbc 3f87 a5bc 38a5 29bc a557 98bc
00000110: 3ec9 3cbd 85d7 05bc b2d8 1dbc 9b1d 12bd
00000120: 53ab 1abd b095 07bd cd15 3e3c ca8b 60bc
00000130: 50d2 dbb9 226a 0ebc f3e4 afbc aa6e df3c
00000140: fe8b a23b 2d2d 34bd af8f e2bd 6762 3cbd
00000150: 5f4b 2ebd cda8 93bd 2f6f 0fbd 53de 6b3c
00000160: 33d0 9fbc 0b4d 1ebc 4da7 873c dd12 0bbd
00000170: 1df8 d6bc 9f2a a8bc af78 e5bc e755 dbbc
00000180: 3b76 4fbc baf6 3cbd 4314 58bc eb9a 16bd
00000190: 85a1 23bd aaf5 ef3c 92f8 55bd 4094 5bbb
000001a0: ed86 723d d7a1 1fbd 4561 c53c 77f4 db3c
000001b0: bf12 22bd 7d14 ee3b 18d1 b43c e03c 54bd
000001c0: 73bf 92bd 6249 393b db5e dcbc ff79 cbbc
000001d0: 9b65 403d 0aae e4bd 7693 bcbd fc18 43bd
000001e0: da71 dbbc dc75 babd caf2 d6bd a489 0f3c
000001f0: dbbe a13c 8826 9abc 7026 73bc 25f6 03bc
00000200: 1ab7 01bd edc7 5b38 62d8 4dbb 3b91 9abb
00000210: 7cb2 083c a30c 3ebb 2848 ae3c 6ad1 a83b
00000220: d9de c0bc b07a 51bd 6674 23bc fb41 a5bc
00000230: aa1e 82bb 18fe dabc 455a 8e3b f392 4abb
00000240: 8afa ea3c 08c7 fcbc 8194 42bd 99ee 813d
00000250: c945 c7ba d259 acbb 7a1f 623d bd37 04bd
00000260: d100 063c 1a99 8cbb 65b2 47ba c5aa a13c
00000270: a7df 833c 4abe cdbc 99b9 173c 409f f13b
00000280: 73cb 83bc 1bf1 8a3d 544b 2f3c f060 79bb
00000290: 2366 67bc 226e 47bc 9f35 003b bba3 b63a
000002a0: 37c5 3b3c 0b6d 69bb d7d0 b1bb 9396 1a3b
000002b0: 3dee e43c ac73 013e b301 b0bc a2d0 a93d
000002c0: 1bc6 e23d 879e 943d 056a e43d fd37 9c3b
000002d0: 0da9 72bc a566 3fbc 6281 6b3a 9f4f 1cba
000002e0: f492 c8bc 5f86 0cbc 7ddd 64bb a7da 0e3b
000002f0: 61a0 c6bb dbbe 943c f7dd fb3c 0e47 1c3d
00000300: afef a03c df9f 243d b8da 3f3d e4ee 353d
00000310: e017 983d 0447 0d3d f080 473d ade7 ff3c
00000320: eb1e 15bd 161a bb3d df6b 91bc 8f8e 0ebd
00000330: d253 d63d b01c 55bd f21d 8cb9 8d76 063d
00000340: 77fb 3e3c 10e9 433d edac 6fbc a0cf b33c
00000350: 388a d83c 8580 e73c 7a6f 893d 8373 283d
00000360: cfe4 713c e099 30bb 9f1f 0d3b 7443 303d
00000370: d75f 9f3c 9f24 baba 08cd 503d 6b5d c33c
00000380: 33dc 0a3d 7fd1 5c3c 9745 113b b248 323c
00000390: 63c9 c23b a169 1bbc 136c 513b 35bd 2e3a
000003a0: 4fc8 9cbb 8b88 92bc b719 e7bc 0538 99bc
000003b0: 7af7 33bd fbfd 8f3c b9f9 853c c066 0fbd
000003c0: 7b60 dabb 00cd 36bd a1a8 8fbc 2568 f2bc
000003d0: 89cf aabc adf6 79bc ba4e c1bb b986 4cbd
000003e0: f785 523c c2bc 10bd 2b28 8cbd c2f2 813c
000003f0: ed1f eebb 523b 903c 6026 a5bc 18e5 483c

conv3.bias f4 [64]
0.0055749747 -0.08352339 -0.006679018 0.032622438 -0.0056771333 0.0064980523 0.026946783 0.010459754
0.07940501 -0.004363164 -0.026952608 0.07852166 -0.0036989308 -0.022300823 -0.0031314683 0.00049726863
0.06669589 0.13202725 -0.007016138 -0.019651031 -0.027678827 0.0010416849 0.13664116 -0.036775358
0.017931296 0.11099134 -0.0067953183 0.017177166 -0.01065629 -0.0074630417 -0.01474265 -0.009662226
-0.020396952 0.0060283183 -0.002934062 0.02355479 0.04885072 -0.016339721 -0.010201702 0.12255619
0.01571613 -0.0065721027 -0.028232543 -0.0068997405 -0.0010769576 0.061309636 -0.00661904 0.019935159
0.0066656168 0.07799032 0.005507515 -0.0069778264 0.018102122 -0.11133802 -0.011316972 -0.0021670212
-0.0018043083 0.07437777 0.055778336 0.15747468 -0.06877088 0.008745714 -0.021123292 -0.010772973
00000000: 47ae b63b 500e abbd aadb dabb 1b9f 053d
00000010: 3f07 babb 9ded d43b 80bf dc3c 635f 2b3c
00000020: 189f a23d dff8 8ebb b7cb dcbc f7cf a03d
00000030: c369 72bb 37b0 b6bc 5239 4dbb 225b 023a
00000040: db97 883d 2732 073e a2e7 e5bb 33fb a0bc
00000050: b5be e2bc 2589 883a a9eb 0b3e c2a1 16bd
00000060: a7e4 923c 6d4f e33d 43ab debb 21b7 8c3c
00000070: b897 2ebc 888c f4bb 288b 71bc 504e 1ebc
00000080: 8217 a7bc 3389 c53b 6449 40bb faf5 c03c
00000090: b117 483d e1da 85bc 0a25 27bc bdfe fa3d
000000a0: 1dbf 803c cb5a d7bb ef47 e7bc 3817 e2bb
000000b0: b328 8dba d01f 7b3d 88e4 d8bb 0f4f a33c
000000c0: 3f6b da3b 64b9 9f3d 6278 b43b 40a6 e4bb
000000d0: e74a 943c 3005 e4bd d26a 39bc 9504 0ebb
000000e0: 8a7e ecba 5f53 983d d377 643d 0b41 213e
000000f0: bfd7 8cbd 2f4a 0f3c c10a adbc 2081 30bc

fc1.weight f4 [64, 1024]
-0.029774368 -0.020769866 0.027540103 0.061416842 -0.065509334 -0.06381362 -0.05041052 -0.02469104
-0.018185416 -0.06666847 -0.040463526 -0.047256637 -0.052930355 -0.012015304 0.01768778 -0.066023044
0.028707786 -0.0092739565 -0.018012885 0.019443834 -0.0033528456 -0.0022261858 0.0010391403 -0.01496502
-0.009828145 0.014153962 -0.011642552 -0.014222871 -0.02665298 -0.016604463 -0.023113785 -0.009297486
-0.007984946 -0.023357883 -0.0033285727 -0.018070513 -0.002292971 -0.0036916714 -0.008050623 0.0029535263
-0.01981714 -0.0030174598 -0.005824788 -0.0027531323 -0.016942592 -0.004980225 -0.0014622537 -0.008563224
-0.023498083 -0.023727806 0.013720068 0.033965465 0.022016529 0.013534786 0.023621907 0.059536595
0.006099005 -0.0068227635 0.0074889185 0.0315102 -0.020132434 -0.023902655 -0.0064484575 -0.005084898
-0.017335681 0.0011985501 -0.0124372095 -0.0077585788 -0.009952984 -0.013907894 0.009457684 -0.00082997646
0.002922546 -0.007459146 -0.0037598726 -0.0049518566 0.018282134 -0.0002345633 0.004216564 -0.013212896
-0.054371268 -0.032506328 0.0019714874 -0.006185929 -0.024880005 -0.015125739 -0.027032256 -0.021667887
-0.036816012 -0.02720414 -0.036907755 -0.021311102 0.0021438177 -0.010958015 -0.01719763 -0.011100311
0.062596604 0.026721949 0.07135471 0.021384612 -0.017808234 -0.011994985 -0.036472496 -0.008376383
0.0039999317 0.05632887 0.01015708 0.026864732 0.060618717 0.088588 0.12415918 0.07380879
0.0052132737 0.0012448736 -0.0009569844 -0.0111842025 -0.0071326154 -0.0033536206 -0.008918787 -0.013259179
-0.0043718647 -0.013458015 -0.0030078718 -0.011796537 -0.0012627472 -0.010269512 0.0009920661 0.0051011047
-0.07114512 -0.03592461 -0.06319424 -0.06038734 -0.07985635 -0.039545357 -0.037548497 -0.023166504
0.028250469 0.017961444 0.026581917 0.066657744 0.12704481 0.13522342 0.100021325 0.09768933
0.002290039 -0.01390582 -0.005512662 0.002395862 -0.014539088 -5.178595e-06 0.0008079006 -0.00061208574
-0.020341447 -0.0090684965 -0.009597994 -0.015708813 -0.0031771497 -0.006623047 -0.009088942 0.0017048464
-0.01210014 -0.0064573833 0.0072995336 -0.013096789 0.0063356096 0.003905216 0.010767954 -0.0069812583
-0.0060328073 0.002026973 0.0016427443 -0.01267196 -0.012712221 -0.011668234 0.00093017577 0.0011602818
0.07900901 0.05578456 -0.011388577 -0.014065052 0.06681899 0.032142524 0.011052136 0.0049669384
0.04756509 0.018473793 0.0028368887 0.0010867441 0.045253083 0.013199913 0.014643289 -0.0074701654
-0.019299058 -0.017720142 -0.0038262196 -0.0040252768 -0.0037671395 -0.0131878955 -0.0017847304 -0.013280588
-0.004067432 -0.016150333 -0.012210398 0.003770857 0.00214761 -0.012557297 -0.0009479856 -0.004832484
-0.0012292494 -0.011061404 0.00049033697 0.0010615247 0.0019111003 -0.0063402443 -0.022515906 0.008675098
-0.003860969 -0.00016111814 0.006643258 -0.017681066 0.0009923266 -0.0041909646 -0.004305534 0.004842607
-0.013932369 0.012651998 0.0042681107 0.0042935982 0.008979369 -0.013021814 -0.0056145787 -0.00026198724
0.0018875595 0.0032440599 0.0016008293 -0.0059999335 0.021419762 0.0062143453 -0.0032684177 0.005514628
-0.014983873 -0.0039172596 -0.0054420102 -0.0054536806 -0.0030567113 -0.009141949 0.0070856074 -0.004533609
-0.009550492 0.0014661178 -0.001799077 0.0062368037 -0.0045003854 0.0015837605 -0.0052300147 -0.008072324
00000000: 60e9 f3bc 9125 aabc c89b e13c 3a90 7b3d
00000010: c229 86bd b7b0 82bd 437b 4ebd dd44 cabc
00000020: 95f9 94bc 7b89 88bd 15bd 25bd 2d90 41bd
00000030: 80cd 58bd d6db 44bc f7e5 903c 1737 87bd
00000040: 972c eb3c cbf1 17bc c28f 93bc ad48 9f3c
00000050: 6abb 5bbb 33e5 11bb c333 883a d82f 75bc
00000060: 3a06 21bc 05e6 673c 67c0 3ebc 0b07 69bc
00000070: 5a57 dabc 1506 88bc 1f59 bdbc 7c54 18bc
00000080: 4ad3 02bc 0859 bfbc 2f24 5abb 9d08 94bc
00000090: ab45 16bb f8ef 71bb c3e6 03bc f38f 413b
000000a0: 8e57 a2bc 93c0 45bb dddd bebb e56d 34bb
000000b0: 31cb 8abc 2831 a3bb 18a9 bfba c44c 0cbc
000000c0: 0d7f c0bc d160 c2bc 23ca 603c 5f1f 0b3d
000000d0: 025c b43c 02c1 5d3c bb82 c13c a5dc 733d
000000e0: 2ada c73b 7d91 dfbb 9a65 f53b d710 013d
000000f0: c6ec a4bc 80cf c3bc 954d d3bb 379f a6bb
00000100: 8f03 8ebc ab18 9d3a 70c5 4bbc ad3b febb
00000110: d711 23bc efdd 63bc 67f4 1a3c c792 59ba
00000120: 2f88 3f3b da6b f4bb 3268 76bb 2f43 a2bb
00000130: 6ac4 953c 1bf5 75b9 1a2b 8a3b e77a 58bc
00000140: 68b4 5ebd 5b25 05bd 1234 013b 55b3 cabb
00000150: 27d1 cbbc f3d1 77bc c072 ddbc da80 b1bc
00000160: 63cc 16bd 37db debc 962c 17bd 9f94 aebc
00000170: 4b7f 0c3b 3f89 33bc 0be2 8cbc 14de 35bc
00000180: a632 803d fde7 da3c 6b22 923d c82e af3c
00000190: 93e2 91bc 9d86 44bc 2f64 15bd 193d 09bc
000001a0: dc11 833b 1ab9 663d e269 263c 6d13 dc3c
000001b0: 554b 783d a06d b53d 2b47 fe3d 1029 973d
000001c0: 1cd4 aa3b 072b a33a 23de 7aba f23d 37bc
000001d0: b7b8 e9bb 6bc8 5bbb 1b20 12bc 073d 59bc
000001e0: dc41 8fbb 027f 5cbc b71f 45bb 4346 41bc
000001f0: c482 a5ba 7541 28bc 3708 823a 2b27 a73b
00000200: 88b4 91bd af25 13bd fb6b 81bd b758 77bd
00000210: ba8b a3bd 50fa 21bd 74cc 19bd aec7 bdbc
00000220: 876d e73c e123 933c 52c2 d93c db83 883d
00000230: 0918 023e 0278 0a3e fbd7 cc3d 5811 c83d
00000240: 7b14 163b 3dd5 63bc 90a3 b4bb e503 1d3b
00000250: 5b35 6ebc cbc3 adb6 4bc9 533a 6174 20ba
00000260: 1ba3 a6bc 0894 14bc e840 1dbc c5af 80bc
00000270: ba37 50bb 2506 d9bb c9e9 14bc 2775 df3a
00000280: aa3f 46bc 7598 d3bb ed30 ef3b ea93 56bc
00000290: f29a cf3b a7ee 7f3b 136c 303c 0ac3 e4bb
000002a0: dbae c5bb f7d6 043b 5a51 d73a 0d9e 4fbc
000002b0: eb46 50bc 1f2c 3fbc 0ad7 733a 9914 983a
000002c0: 7acf a13d 5a7e 643d 2797 3abc 1b71 66bc
000002d0: 65d8 883d e1a7 033d 0514 353c b3c1 a23b
000002e0: 9dd3 423d 5a56 973c 18eb 393b 1571 8e3a
000002f0: 4c5b 393d 7344 583c 68ea 6f3c 4ac8 f4bb
00000300: 0f19 9ebc d529 91bc 50c1 7abb 78e6 83bb
00000310: 1de2 76bb 0b12 58bc 9ded e9ba d396 59bc
00000320: 1848 85bb b44d 84bc 1f0e 48bc 7b20 773b
00000330: ebbe 0c3b 1fbd 4dbc 3d82 78ba d059 9ebb
00000340: c41e a1ba e43a 35bc f589 003a dc22 8b3a
00000350: e37d fa3a d3c1 cfbb 4773 b8bc 0022 0e3c
00000360: 5008 7dbb d2f1 28b9 b0af d93b e2d7 90bc
00000370: f510 823a 5c54 89bb 7015 8dbb bbae 9e3b
00000380: 9744 64bc 534a 4f3c 82db 8b3b 50b1 8c3b
00000390: 341e 133c 7259 55bc 80fa b7bb 555b 89b9
000003a0: fd67 f73a 4b9a 543b ebd2 d13a 179b c4bb
000003b0: 7f78 af3c b5a1 cb3b f332 56bb 0db4 b43b
000003c0: eb7e 75bc 5b5c 80bb e452 b2bb cab4 b2bb
000003d0: 1b53 48bb 1dc8 15bc 622e e83b ab8e 94bb
000003e0: ab79 1cbc c02a c03a 02cf ebba 1a5e cc3b
000003f0: f877 93bb 2f96 cf3a 8b60 abbb c841 04bc

fc1.bias f4 [64]
-0.006022902 -0.025547383 -0.059887398 0.06490149 -0.004229019 -0.13213664 -0.00209596 0.0034650161
0.0010511695 0.0071108746 -0.0066611865 -0.0006671672 -0.00744517 -0.0027983906 -0.08190147 -0.019780787
9.74817e-05 -0.076455005 -0.0041679363 -0.0040249447 0.002091758 0.0020842904 0.024231182 -0.01741518
0.0005505699 0.014564942 -0.004540526 -0.02374723 0.0053528706 -0.06196723 0.009581919 -0.00817011
0.013801833 -0.013558151 0.0018218216 0.12059107 -0.0010396633 -0.00033980075 0.05544389 -0.08533203
0.067424335 -0.048824072 -0.001219057 -0.028858876 0.0054567778 -0.0036309927 0.102271356 -0.017038241
0.012111495 -0.008406461 -0.0004527634 0.090778284 -0.016526936 -0.011784363 -0.005773975 -0.058419615
-0.015719494 -0.056667645 -0.024648383 0.07447666 -0.02546962 -0.0021307028 -0.0055873445 0.0010122751
00000000: c45b c5bb bf48 d1bc 7d4c 75bd 13eb 843d
00000010: 9593 8abb d44e 07be 605c 09bb 5315 633b
00000020: 65c7 893a 5702 e93b 1546 dabb d5e4 2eba
00000030: 9df6 f3bb 3465 37bb f5bb a7bd 510b a2bc
00000040: 176f cc38 7194 9cbd 2f93 88bb afe3 83bb
00000050: e015 093b 9798 083b 7980 c63c 48aa 8ebc
00000060: 1f54 103a cba1 6e3c b1c8 94bb 8d89 c2bc
00000070: 2267 af3b 5ad1 7dbd 7bfd 1c3c eddb 05bc
00000080: 1521 623c 0223 5ebc 30ca ee3a 73f8 f63d
00000090: 5045 88ba 4927 b2b9 2219 633d 8fc2 aebd
000000a0: c515 8a3d c0fb 47bd c4c8 9fba 7369 ecbc
000000b0: c5ce b23b f3f5 6dbb a573 d13d c893 8bbc
000000c0: 4b6f 463c 41bb 09bc e060 edb9 f7e9 b93d
000000d0: 7f63 87bc 3313 41bc 9d33 bdbb 6849 6fbd
000000e0: 2bc6 80bc 551c 68bd 68eb c9bc 3887 983d
000000f0: aaa5 d0bc 43a3 0bbb 0b16 b7bb 51ae 843a

fc2.weight f4 [10, 64]
0.06918716 0.07963255 -0.027467867 -0.024985535 -0.014009923 0.012626714 -0.006925465 -0.075907856
-0.028952135 -0.0359929 -0.06302767 0.04302017 0.013883606 0.06185651 0.022369895 0.011695004
-0.0399885 0.01861862 -0.021238578 0.035498437 0.0048761414 0.016894585 -0.034865785 -0.0018643616
0.020767355 -0.09723269 0.030417154 -0.010929997 0.059549827 0.059189815 0.009754667 -0.012439667
-0.02276904 -0.008170731 0.040724814 -0.06058822 0.026913112 -0.02486365 -0.043310236 0.088003024
-0.05896027 -0.013126043 -0.041954458 0.11480222 -0.036539804 -0.025554666 0.046602685 0.025444034
-0.02628471 0.0046263034 -0.029086623 -0.043804884 0.025686055 0.06907638 0.021666745 0.01462792
0.063618146 -0.0009091589 0.044802643 0.045439143 -0.039510228 -0.08366085 0.008037566 -0.004770995
-0.035123587 0.0024015487 0.026870567 -0.06861414 0.026651397 0.01711502 0.01734167 -0.056628443
0.014599216 -0.006830287 -0.02533617 0.065391146 -0.07538642 -0.01849875 -0.021819685 0.0089411875
0.02314494 0.0089286035 -0.0032894798 0.112539805 -0.03347224 -0.021109454 0.07067584 0.023787998
-0.006318183 0.044964034 0.009468913 0.0028996142 -0.024364559 0.10239484 -0.08200562 -0.025047401
0.046027865 0.009760121 0.021706099 -0.012052215 -0.002324295 0.008862088 0.053451914 0.1193285
-0.028362645 0.016245766 0.05359025 -0.14744914 -0.031333722 0.020176953 -0.062272113 -0.025803333
-0.05816653 0.004426397 0.0003761323 -0.09569729 0.037579328 0.014114276 -0.02411559 0.046073616
-0.027159208 0.05745342 0.011487861 -0.0077138715 -0.026429845 0.040172268 -0.008024759 0.03211185
-0.010027917 0.0284149 6.9569935e-05 0.022214552 0.004198992 -0.047939505 -0.085147455 0.0054514417
0.0106853945 -0.045975197 0.006269938 0.05889938 0.0061845826 0.0061451807 0.07010384 0.016352369
-0.031200036 0.00800359 -0.043337625 -0.002188289 -0.054038372 -0.013139612 0.080056004 0.016661666
-0.002066795 0.04828332 0.020093394 -0.052032102 -0.018914243 -0.077559434 -0.028406626 -0.04505068
0.016057331 -0.019767223 0.015197313 0.07116359 0.018500498 0.029288456 -0.035509404 -0.046384297
0.032305256 -0.11305248 0.04551142 0.053482305 -0.004901492 0.0154821295 0.11142705 -0.060489364
-0.008666981 0.0009559027 0.015346387 0.034313288 0.013792855 0.016141651 -0.015614069 -0.056442637
0.015179894 0.07213392 -0.0071144137 -0.004065483 -0.0016544054 -0.047614023 -0.02350832 -0.015936635
0.062155336 -0.15882285 -0.042646255 0.0074845823 -0.05126052 0.016416287 0.045226414 0.051267065
-0.06067256 -0.045441378 -0.01568596 0.03676148 9.834917e-05 0.054285973 -0.015456933 -0.008765197
0.038270056 -0.027206663 -0.046022315 -0.03291672 0.009114022 0.032733846 0.0099080885 0.0034797962
-0.038421012 0.016285349 -0.035369754 0.07071858 0.010225405 -0.014674224 -0.014181668 0.021786138
-0.096333496 -0.014135309 0.071967475 0.028523022 -0.0203799 0.028680403 -0.012458946 -0.06666087
-0.00057277794 -0.040981535 -0.019589681 0.0011494362 -0.030873481 0.030809654 -0.019939896 -0.039717283
0.009779095 0.015921505 0.016684532 0.017310672 0.04464799 -0.0014963838 -0.030141136 0.01807677
-0.05470937 0.023685306 -0.046092745 0.08221914 -0.02660498 -0.060635567 -0.023157943 -0.0066679115
00000000: ffb1 8d3d 6416 a33d 4b04 e1bc 77ae ccbc
00000010: e089 65bc 47e0 4e3c 03ef e2bb 9475 9bbd
00000020: 072d edbc 4b6d 13bd a714 81bd eb35 303d
00000030: 1078 633c 405d 7d3d 1241 b73c 679c 3f3c
00000040: fbca 23bd 1386 983c 87fc adbc cf66 113d
00000050: 0ac8 9f3b 8366 8a3c 6dcf 0ebd 985d f4ba
00000060: 4d20 aa3c ef21 c7bd 652d f93c bb13 33bc
00000070: 85ea 733d 0571 723d 0ad2 1f3c bfcf 4bbc
00000080: 2386 babc 88de 05bc 10cf 263d 5a2b 78bd
00000090: e378 dc3c daae cbbc 1366 31bd ee3a b43d
000000a0: 5380 71bd 9d0e 57bc 70d8 2bbd 6d1d eb3d
000000b0: c3aa 15bd 0558 d1bc 75e2 3e3d 0270 d03c
000000c0: 0853 d7bc 3f98 973b 1247 eebc c06c 33bd
000000d0: 906b d23c eb77 8d3d 757e b13c f2a9 6f3c
000000e0: 3b4a 823d 9f54 6eba fa82 373d 651e 3a3d
000000f0: 7ad5 21bd 6156 abbd ffaf 033c 0256 9cbb
00000100: c0dd 0fbd 4d63 1d3b aa1f dc3c 9285 8cbd
00000110: 0854 da3c cc34 8c3c 1e10 8e3c 3af3 67bd
00000120: 8d31 6f3c 9ad0 dfbb cd8d cfbc cbeb 853d
00000130: 3264 9abd b18a 97bc 32bf b2bc 0f7e 123c
00000140: 759a bd3c 4749 123c 5094 57bb 457b e63d
00000150: 301a 09bd bced acbc 7fbe 903d 0cdf c23c
00000160: c308 cfbb 352c 383d 8023 1b3c 7407 3e3b
00000170: 2f98 c7bc 63b4 d13d 90f2 a7bd 3530 cdbc
00000180: b787 3c3d eae8 1f3c fdd0 b13c a776 45bc
00000190: 3353 18bb 4b32 113c 65f0 5a3d 8062 f43d
000001a0: c758 e8bc d715 853c 7381 5b3d e8fc 16be
000001b0: ca57 00bd 234a a53c 0b11 7fbd 8361 d3bc
000001c0: 0740 6ebd 4f0b 913b 9f33 c539 f1fc c3bd
000001d0: c8ec 193d 903f 673c 0f8e c5bc b0b7 3c3d
000001e0: fd7c debc 4754 6b3d 9537 3c3c a5c4 fcbb
000001f0: 6783 d8bc ad8b 243d 477a 03bc b787 033d
00000200: 224c 24bc 5dc6 e83c 13e6 9138 4bfb b53c
00000210: b397 893b 375c 44bd ca61 aebd 02a2 b23b
00000220: cb11 2f3c 7d50 3cbd 0d74 cd3b 7a40 713d
00000230: 0aa8 ca3b 835d c93b 9a92 8f3d 67f5 853c
00000240: 3897 ffbc 7d21 033c cb82 31bd 6669 0fbb
00000250: 5757 5dbd 8747 57bc 67f4 a33d 0c7e 883c
00000260: 1173 07bb bbc4 453d e79a a43c 9d1f 55bd
00000270: 0bf2 9abc 7bd7 9ebd 03b5 e8bc 1087 38bd
00000280: aa8a 833c dfee a1bc 27fe 783c 37be 913d
00000290: 5b8e 973c 58ee ef3c 4f72 11bd 76fd 3dbd
000002a0: 8452 043d 0f88 e7bd 2f6a 3a3d 4310 5b3d
000002b0: b29c a0bb c2a8 7d3c dd33 e43d b2c3 77bd
000002c0: f4ff 0dbc 8b95 7a3a 6a6f 7b3c 178c 0c3d
000002d0: 6dfb 613c 7f3b 843c 27d2 7fbc 6530 67bd
000002e0: 17b5 783c f3ba 933d 0720 e9bb be37 85bb
000002f0: a2d8 d8ba ec06 43bd 8594 c0bc 8c8d 82bc
00000300: 9896 7e3d 75a2 22be d7ad 2ebd 3a41 f53b
00000310: 8df6 51bd 737b 863c 553f 393d 6afd 513d
00000320: ca83 78bd bd20 3abd d87f 80bc 3593 163d
00000330: cf40 ce38 f85a 5e3d 133f 7dbc e79b 0fbc
00000340: 10c1 1c3d 82e0 debc e581 3cbd afd3 06bd
00000350: fb52 153c ed13 063d 8955 223c 4b0d 643b
00000360: 5a5f 1dbd da68 853c e0df 10bd e7d4 903d
00000370: 7588 273c 286c 70bc 3a5a 68bc d878 b23c
00000380: 7f4a c5bd c897 67bc af63 933d 1da9 e93c
00000390: bff3 a6bc 2af3 ea3c 9b20 4cbc 7f85 88bd
000003a0: 7a26 16ba 41dc 27bd 8a7a a0bc aea8 963a
000003b0: 62ea fcbc 8764 fc3c fe58 a3bc 97ae 22bd
000003c0: 7f38 203c d16d 823c 00ae 883c 1ccf 8d3c
000003d0: d0e0 363d 4f22 c4ba 8bea f6bc bc15 943c
000003e0: ef16 60bd b007 c23c bfcb 3cbd 8262 a83d
000003f0: b0f2 d9bc 005d 78bd bab5 bdbc 7f7e dabb

fc2.bias f4 [10]
-0.088556245 -0.08192126 0.046960037 0.046169013 0.14796309 -0.03636099 0.073711865 -0.04478438
-0.036230218 -0.03236542
00000000: fa5c b5bd 55c6 a7bd 2b59 403d b81b 3d3d
00000010: a383 173e 43ef 14bd 3ff6 963d d36f 37bd
00000020: 2366 14bd 9a91 04bd
