torch_to_tf/torch_models/model_round319.model (torch, 493063 bytes, 10 tensors)

conv1.weight f4 [32, 3, 3, 3]
0.09477683 -0.051696707 -0.020672828 0.102164164 -0.12558196 -0.04719612 0.01891025 0.009016399
0.09613934 0.07578254 -0.03876142 0.05937435 0.010012078 -0.07994094 0.0164421 0.036677506
-0.0130296 -0.006360759 -0.043243505 0.10675502 -0.10103047 -0.014629098 0.014395212 -0.029387167
-0.021594102 -0.040218025 0.009441388 0.006050811 0.02253708 -0.0005029623 -0.078275695 -0.0926366
0.07608625 -0.026768854 -0.0064418265 -0.019069701 0.07074387 0.104459286 0.035084553 0.011190394
-0.027940497 0.0069320127 0.012648565 0.043235954 -0.021658996 0.038284052 0.012060184 0.05647696
-0.0066696904 -0.08059404 -0.06618897 -0.06277215 -0.0034448095 -0.009279649 -0.046000674 0.07864093
0.109958746 -0.09644691 0.0016471476 -0.05418096 0.056217033 -0.0002599921 -0.026737515 0.023636281
-0.04502501 0.041319396 -0.011861081 0.10621834 -0.046895508 0.015180016 0.045687225 0.01573943
-0.059569415 -0.13852724 0.02546887 -0.0025149358 0.11782435 -0.03706332 -0.048052527 0.0440448
-0.07995795 0.05571083 0.066585526 -0.011476532 0.03709283 -0.012631473 0.018522058 0.11458173
-0.031618048 -0.057979967 -0.065332666 0.045037877 -0.01623809 -0.003638915 0.091939785 -0.10007916
-0.064005226 -0.080811284 -0.040053524 -0.015687082 -0.027849386 0.03837177 0.053125925 0.0074434564
-0.06632882 0.028312812 -0.026829084 0.094423704 0.025117377 0.06565425 0.033515196 0.048502978
0.031357717 0.009436504 0.026337324 0.059805997 0.056767203 -0.0075520985 -0.05514572 -0.09191159
-0.052877333 -0.024352197 0.0068869404 -0.043944366 -0.0716404 -0.043284457 -0.025603596 -0.0118806055
0.08229548 0.0004543572 -0.014156005 -0.010990964 0.029117633 -0.08238926 0.045371518 0.015602267
-0.00523595 -0.04244271 0.034265716 0.06524825 0.07694794 0.01094281 0.03475175 -0.0043684132
-0.048563 0.049418014 0.006076418 -0.1130261 -0.0020787597 -0.08980061 -0.01911912 -0.0560655
-0.08786911 -0.010456604 -0.0008175877 -0.019387946 0.008343535 0.08818098 -0.024851946 -0.08933499
0.027117534 0.09589883 0.056662064 -0.033081736 0.024383714 0.009216584 0.048048157 0.06990849
-0.047751766 0.010731055 0.08615312 -0.044086754 -0.06978464 -0.087481186 0.0034075615 0.042654842
-0.016004866 -0.0527288 -0.057569195 0.009628528 -0.054805975 -0.116987996 -0.014570362 -0.032971088
-0.05653399 0.03444425 -0.06919981 -0.02812064 -0.00066911074 0.102543905 -0.11748438 -0.028027484
-0.058809843 -0.05871327 0.015319968 -0.0121452445 0.018234946 0.009438759 -0.07736163 -0.008837746
0.035816114 0.015539092 -0.027366424 0.034322362 -0.002302873 -0.028876549 -0.06320868 0.09533614
-0.07895858 0.015011101 0.043025453 0.12826993 -0.060741216 0.058644276 0.00831139 -0.00066229934
-0.050275385 -0.020214636 0.028318016 -0.057238746 0.042889632 -0.08365029 0.018499164 0.040465515
0.03163488 0.012391425 0.0011624121 -0.04635663 0.024386277 -0.013123097 -0.090313606 -0.07188412
-0.042409148 0.08199021 -0.073964775 0.01951733 0.007299138 -0.004838619 -0.042724974 0.018339613
-0.006115127 0.041819394 0.046449367 -0.09755721 0.015371862 -0.042314302 -0.0040184534 0.052390605
-0.012092091 -0.031818163 0.01160651 0.014647441 -0.09850907 -0.03247777 0.01444294 0.030655367
00000000: 5b1a c23d edbf 53bd 105a a9bc 723b d13d
00000010: 8f98 00be b850 41bd abe9 9a3c 85b9 133c
00000020: b4e4 c43d e033 9b3d 4bc4 1ebd 8532 733d
00000030: b309 243c 13b8 a3bd 95b1 863c 273b 163d
00000040: 1a7a 55bc ea6d d0bb 1a20 31bd 60a2 da3d
00000050: 10e9 cebd e2ae 6fbc e5d9 6b3c 5bbd f0bc
00000060: 1de6 b0bc a8bb 24bd 0db0 1a3c e245 c63b
00000070: af9f b83c 3bd9 03ba 024f a0bd 42b8 bdbd
00000080: 1cd3 9b3d 5b4a dbbc f515 d3bb 1038 9cbc
00000090: 2ae2 903d c0ee d53d d2b4 0f3d ea57 373c
000000a0: 78e3 e4bc f025 e33b ed3b 4f3c 2f18 313d
000000b0: 356e b1bc bdcf 1c3d 1498 453c 6354 673d
000000c0: 6b8d dabb 7d0e a5bd 158e 87bd af8e 80bd
000000d0: 50c2 61bb ab09 18bc 346b 3cbd 7f0e a13d
000000e0: 0d32 e13d f585 c5bd 1ae5 d73a dbec 5dbd
000000f0: d543 663d 8d4f 88b9 a208 dbbc e0a0 c13c
00000100: 256c 38bd 873e 293d fb54 42bc 0089 d93d
00000110: 8115 40bd 9ab5 783c 8722 3b3d faef 803c
00000120: 0fff 73bd 16da 0dbe 17a4 d03c 9fd1 24bb
00000130: e54d f13d b5cf 17bd bad2 44bd 5268 343d
00000140: fec0 a3bd 0a31 643d fe5d 883d 1008 3cbc
00000150: a7ee 173d 3df4 4ebc 92bb 973c d3a9 ea3d
00000160: ed81 01bd 677c 6dbd 22cd 85bd a379 383d
00000170: be05 85bc dd7a 6ebb ed4a bc3d 4df6 ccbd
00000180: 2c15 83bd 6380 a5bd 2a0f 24bd 3282 80bc
00000190: 6524 e4bc b82b 1d3d 929a 593d 3de8 f33b
000001a0: 68d7 87bd 45f0 e73c abc8 dbbc 3761 c13d
000001b0: f5c2 cd3c bc75 863d 3b47 093d 0fab 463d
000001c0: f370 003d 919b 1a3c 5fc1 d73c 22f7 743d
000001d0: ba84 683d 9877 f7bb 7ae0 61bd 253c bcbd
000001e0: e795 58bd 427e c7bc d8ab e13b 02ff 33bd
000001f0: 34b8 92bd 0b4b 31bd a2be d1bc dfa6 42bc
00000200: 888a a83d cb36 ee39 97ee 67bc 7213 34bc
00000210: 1a88 ee3c b3bb a8bd 7cd7 393d a7a0 7f3c
00000220: 5592 abbb 68d8 2dbd 355a 0c3d e0a0 853d
00000230: e296 9d3d 7949 333c da57 0e3d e824 8fbb
00000240: ffe9 46bd 8b6a 4a3d b01c c73b 3a7a e7bd
00000250: cd3b 08bb 62e9 b7bd b39f 9cbc f0a4 65bd
00000260: b8f4 b3bd 2d52 2bbc 6253 56ba 78d3 9ebc
00000270: 52b3 083c 3b98 b43d 4f96 cbbc 43f5 b6bd
00000280: 9725 de3c 9b66 c43d 7b16 683d b780 07bd
00000290: 5bc0 c73c 2801 173c 25ce 443d 2f2c 8f3d
000002a0: 5b97 43bd 4fd1 2f3c 0c71 b03d 5094 34bd
000002b0: 40eb 8ebd 5629 b3bd 6551 5f3b d8b6 2e3d
000002c0: a31c 83bc 27fa 57bd adcd 6bbd f9c0 1d3c
000002d0: 3b7c 60bd 6797 efbd 87b8 6ebc b10c 07bd
000002e0: 2f90 67bd 6a15 0d3d a1b8 8dbd 425d e6bc
000002f0: 4367 2fba 8a02 d23d a79b f0bd e599 e5bc
00000300: 97e2 70bd 537d 70bd 9a00 7b3c d9fc 46bc
00000310: 7461 953c 06a5 1a3c c66f 9ebd 32cc 10bc
00000320: ebb3 123d ad97 7e3c 8d2f e0bc 9b95 0c3d
00000330: cceb 16bb 838e ecbc 8d73 81bd 983f c33d
00000340: 09b5 a1bd 1ff1 753c 753b 303d 3159 033e
00000350: c8cb 78bd fb34 703d 7f2c 083c 289e 2dba
00000360: 90ed 4dbd 2a99 a5bc 2ffb e73c 2d73 6abd
00000370: 0aad 2f3d d850 abbd 8f8b 973c 2bbf 253d
00000380: 9393 013d 6705 4b3c 145c 983a 73e0 3dbd
00000390: bbc5 c73c 4202 57bc 57f6 b8bd fb37 93bd
000003a0: 37b5 2dbd 7cea a73d d87a 97bd cfe2 9f3c
000003b0: 9b2d ef3b 478d 9ebb 6200 2fbd f53c 963c
000003c0: 6761 c8bb d04a 2b3d b141 3e3d 13cc c7bd
000003d0: 43da 7b3c c351 2dbd 3bad 83bb 8897 563d
000003e0: e81d 46bc c353 02bd 3b29 3e3c d2fb 6f3c
000003f0: 20bf c9bd 6907 05bd 15a2 6c3c f720 fb3c

conv1.bias f4 [32]
0.080344774 -0.116584495 -0.042463597 -0.022392651 0.0055390648 0.035738584 -0.008298548 0.09357768
0.036258053 -0.07779332 0.049763843 -0.033212334 -0.11601839 0.013796884 -0.0006659965 -0.0021876122
0.024236903 0.018573618 0.042537224 0.06699415 -0.030996466 0.0070829685 -0.030287582 -0.054248642
-0.08410299 0.016702188 -0.0109057715 -0.030906517 0.02932073 0.03289045 0.017013453 -0.16419318
00000000: cd8b a43d dac3 eebd 4fee 2dbd cb70 b7bc
00000010: 0b81 b53b 9f62 123d a2f6 07bc a8a5 bf3d
00000020: 5383 143d 1b52 9fbd 2cd5 4b3d a809 08bd
00000030: 0d9b edbd 530c 623c 4596 2eba 0b5e 0fbb
00000040: 788c c63c b327 983c 833b 2e3d 3b34 893d
00000050: 4dec fdbc 3f18 e83b aa1d f8bc d333 5ebd
00000060: 303e acbd 07d3 883c 1fae 32bc aa2f fdbc
00000070: 0732 f03c 23b8 063d cc5f 8b3c 4222 28be

conv2.weight f4 [64, 32, 3, 3]
-0.013624317 -0.0067325584 0.022994975 -0.0018887407 -0.011416533 0.03451635 0.01630503 -0.019686192
-0.026361844 0.011221681 0.008967541 -0.022850163 -0.017866476 0.007932867 -0.005706385 0.010346474
0.015256221 -0.037017193 0.0052214325 0.014373416 -0.03187107 -0.018667707 -0.038677048 -0.003103134
-0.0005097689 -0.0070675793 -0.032134134 0.012268345 -0.008669433 -0.011430605 0.018660406 -0.012706796
-0.0065968195 -0.01590312 0.00021798175 0.00998593 -0.03108053 -0.02202096 0.004085926 -0.0046096677
0.016201746 0.01794428 0.019734561 0.01915673 0.018200083 0.00595755 -0.0026087046 0.008615365
-0.0012577141 -0.014533018 0.0019700283 -0.016897243 -0.013178109 0.014740901 -0.02156153 0.010528069
0.014520528 -0.0038142614 0.008035219 -0.0029470413 -0.0034683016 0.012825705 0.02582701 -0.01813433
-0.012454896 0.026686415 -0.012069883 -0.009133036 0.007780023 0.0055960934 -0.010887318 0.0022787
0.0034381603 -0.028240098 0.0025569117 -0.006831914 -0.0040046945 0.0075004622 0.005041982 -0.030198788
-0.033360805 0.009473192 -0.004214605 0.018018184 -0.01268439 -0.00036843514 0.014073089 0.012738786
0.018123774 -0.035910778 -0.0012486737 -0.016519008 0.008250072 -0.0076366155 -0.009121011 -0.010639182
0.006490253 -0.011610048 0.028152317 -0.021441652 -0.000642933 -0.017677244 -0.022579648 -0.0320447
7.965881e-06 0.0035936963 -0.012470052 0.03275847 -0.017356945 -0.01594051 -0.026519123 0.014923903
-0.015273574 0.009093559 0.0026447873 -0.02359555 0.018670712 0.010720271 0.0119724395 -0.013337666
0.02932552 0.009005021 -0.024221145 0.0050072195 0.011576309 0.00068943156 -0.014666176 -0.015795026
-0.027466822 -0.015011883 -0.0055974983 -0.006431003 -0.021712987 0.008764091 -0.010142462 -0.0011058153
0.006613463 -0.022866517 -0.026705751 -0.009177796 -0.009647288 0.0056483913 -0.003897629 -0.007721986
-0.01874824 -0.020551851 0.00094625767 -0.0157536 -0.011624555 0.00414033 -0.026027301 -0.020109395
0.020795938 -0.0032094426 -0.02535127 0.0032963704 -0.023639968 -0.0069038137 -0.0012660761 -0.010236292
-0.010941159 -0.0025434403 -0.0023355836 -0.013653937 -0.014753415 -0.023376692 0.00304178 0.025675297
-0.0010775233 -0.004589634 -0.019101536 0.0032611832 -0.0092642885 0.0044706897 0.014362325 -0.0049896813
-0.012315229 -0.013604651 0.0061935857 -0.000612812 -0.009729936 -0.010360806 0.008810035 -0.02340424
-0.0013200891 0.012742911 -0.009455555 0.012124739 -0.017915148 0.017804995 -0.0031999014 -0.0031227577
0.011299688 -0.021167845 0.011979728 -0.00356136 -0.0045035067 -0.013382283 -0.0059367246 0.014870106
0.025023108 0.018029524 0.013683354 -0.00227872 -0.011665252 0.004872989 0.028710702 0.010705118
-0.0125561375 0.010380402 0.0013024451 -0.026650185 0.0067085177 -0.011755357 -0.005871611 -0.004220169
-0.012335504 0.00073175033 0.0071272687 0.010174563 -0.027141357 -0.025989551 -0.012846457 -0.00059344474
0.016085496 -0.01830971 0.0068928646 -0.01651155 -0.015539053 0.01015936 -0.0023062227 -0.028708765
-0.0019857907 0.025286047 -0.01970378 0.014640005 0.011759932 0.007935117 -7.9157763e-07 0.030748082
0.0125564905 0.007499522 0.0017269751 0.004913851 0.015750142 0.0014532894 -0.020809898 -0.0075160093
0.0067279353 -0.022549342 -0.003419973 0.012461044 -0.00452186 -0.013795311 -0.0038226896 0.0042941086
00000000: 8738 5fbc cb9c dcbb f55f bc3c 9f8f f7ba
00000010: 690c 3bbc 0461 0d3d 2092 853c f044 a1bc
00000020: cbf4 d7bc 24db 373c 98ec 123c 4430 bbbc
00000030: b75c 92bc dbf8 013c a0fc babb 4284 293c
00000040: 3bf5 793c 579f 17bd 8d18 ab3b 7a7e 6b3c
00000050: 3d8b 02bd 05ed 98bc d36b 1ebd f35d 4bbb
00000060: 03a2 05ba 2797 e7bb 159f 03bd 2b01 493c
00000070: 3d0a 0ebc 6f47 3bbc b5dd 983c 2a30 50bc
00000080: 222a d8bb 4347 82bc 0892 6439 079c 233c
00000090: 989c febc 4d65 b4bc 3be3 853b b20c 97bb
000000a0: 86b9 843c e2ff 923c 60aa a13c 93ee 9c3c
000000b0: 5718 953c 8d37 c33b cdf6 2abb 7627 0d3c
000000c0: e2d9 a4ba e51b 6ebc 971b 013b 166c 8abc
000000d0: ffe8 57bc d283 713c cea1 b0bc ec7d 2c3c
000000e0: 82e7 6d3c b0f8 79bb 27a6 033c 2623 41bb
000000f0: 724c 63bb e822 523c 2a93 d33c 728e 94bc
00000100: 9f0f 4cbc 789d da3c c2c0 45bc bba2 15bc
00000110: 90ef fe3b 6f5f b73b b960 32bc 3e56 153b
00000120: c252 613b c757 e7bc dc91 273b 40de dfbb
00000130: d039 83bb 70c6 f53b 3637 a53b 7363 f7bc
00000140: 57a5 08bd 7235 1b3c ab1a 8abb df9a 933c
00000150: 30d2 4fbc 872a c1b9 d092 663c 57b6 503c
00000160: 4f78 943c 2e17 13bd 89aa a3ba df52 87bc
00000170: 4f2b 073c 933c fabb 4b70 15bc f74f 2ebc
00000180: 30ac d43b 1238 3ebc b09f e63c 67a6 afbc
00000190: 818a 28ba decf 90bc f4f8 b8bc 4e41 03bd
000001a0: 33a5 0537 3884 6b3b 304f 4cbc bf2d 063d
000001b0: 2730 8ebc ac95 82bc a23e d9bc 6383 743c
000001c0: 033e 7abc 27fd 143c 2b54 2d3b 744b c1bc
000001d0: 52f3 983c 13a4 2f3c 0d28 443c 3a86 5abc
000001e0: 133c f03c cc89 133c 6c6b c6bc 9a13 a43b
000001f0: 8faa 3d3c f8ba 343a 674a 70bc 9264 81bc
00000200: 1a02 e1bc 67f4 75bc 386b b7bb 2abb d2bb
00000210: 6fdf b1bc 4397 0f3c 922c 26bc 01f1 90ba
00000220: c0b5 d83b 9052 bbbc 05c6 dabc 775e 16bc
00000230: a90f 1ebc 2416 b93b 5d6f 7fbb b708 fdbb
00000240: e995 99bc 5b5c a8bc 470e 783a b20d 81bc
00000250: eb74 3ebc 9bab 873b 3537 d5bc 75bc a4bc
00000260: 3e5c aa3c 8355 52bb 77ad cfbc eb07 583b
00000270: 9ba8 c1bc 6339 e2bb 77f2 a5ba 1fb6 27bc
00000280: 8c42 33bc d9af 26bb 9710 19bb c3b4 5fbc
00000290: 4fb8 71bc 7a80 bfbc 9a58 473b 0055 d23c
000002a0: af3b 8dba a464 96bb d37a 9cbc 93b9 553b
000002b0: 3ec9 17bc dd7e 923b f54f 6b3c 7b80 a3bb
000002c0: d0c5 49bc 0be6 5ebc 90f3 ca3b 1ea5 20ba
000002d0: 4f6a 1fbc 5fc0 29bc f757 103c 40ba bfbc
000002e0: d706 adba a5c7 503c 79eb 1abc d7a6 463c
000002f0: cac2 92bc c8db 913c 70b5 51bb 2ea7 4cbb
00000300: 5422 393c 3068 adbc 9f46 443c b565 69bb
00000310: 2792 93bb 5d41 5bbc db88 c2bb bfa1 733c
00000320: 43fd cc3c a7b2 933c 2530 603c 9456 15bb
00000330: 9d1f 3fbc 98ad 9f3b b532 eb3c 8564 2f3c
00000340: 42b8 4dbc 9012 2a3c ceb6 aa3a 7d51 dabc
00000350: 20d3 db3b 8a99 40bc a566 c0bb 5849 8abb
00000360: db1a 4abc efd2 3f3a dd8b e93b 36b3 263c
00000370: 8d57 debc 0ae8 d4bc f279 52bc 6791 1bba
00000380: bbc5 833c 3ffe 95bc 8add e13b 3b43 87bc
00000390: 8397 7ebc 7273 263c ff23 17bb a52e ebbc
000003a0: 0a24 02bb af24 cf3c d269 a1bc a2dc 6f3c
000003b0: bbac 403c 4b02 023c cd7c 54b5 67e3 fb3c
000003c0: bdb9 4d3c 8dbe f53b ab5b e23a 5f04 a13b
000003d0: 7106 813c 4d7c be3a 8579 aabc db48 f6bb
000003e0: 0376 dc3b 66b9 b8bc a021 60bb 6829 4c3c
000003f0: 1c2c 94bb ba05 62bc 1786 7abb 98b5 8c3b

conv2.bias f4 [64]
0.0115623325 -0.030157808 -0.0047631585 -0.024335077 -0.019613598 0.002536511 0.008858592 -0.038407084
-0.05072772 -0.035954054 -0.027024074 0.020348568 0.008269709 -0.0042624637 0.0236157 -0.020271154
0.010045637 -0.019241681 0.0055666897 0.018225774 0.0089601725 -0.013539532 0.007903297 -0.0019172104
0.0108864 -0.022210121 -0.0029346151 0.0061080228 0.023265297 -0.046095904 -0.036231548 0.023050955
-0.012005225 0.0303964 -0.012503557 -0.009738452 0.0012642842 0.017535571 -0.05430756 0.040151667
-0.036541503 0.040076837 -0.032661732 -0.008726598 -0.016246585 0.005870045 -0.0028705837 0.043153886
-0.015838344 -0.0143242795 0.016458983 -0.009364164 0.019990064 0.009864664 0.026778413 -0.042029653
-0.028992703 0.0060554384 0.027945543 -0.024557464 0.029323539 0.063498855 -0.01660401 -0.0014633689
00000000: f06f 3d3c 820d f7bc 4514 9cbb 5b5a c7bc
00000010: b2ac a0bc 983b 263b a123 113c bf50 1dbd
00000020: dfc7 4fbd 8f44 13bd 9761 ddbc 0ab2 a63c
00000030: ac7d 073c 23ac 8bbb b675 c13c b10f a6bc
00000040: 7596 243c bba0 9dbc c768 b63b 384e 953c
00000050: b0cd 123c ead4 5dbc d57c 013c e84a fbba
00000060: df5c 323c 00f2 b5bc ac52 40bb cf25 c83b
00000070: dd96 be3c 0fcf 3cbd 8867 14bd 5bd5 bc3c
00000080: 90b1 44bc df01 f93c b8db 4cbc 078e 1fbc
00000090: 57b6 a53a c2a6 8f3c 9b71 5ebd 1376 243d
000000a0: 8bac 15bd 9c27 243d 4fc8 05bd 01fa 0ebc
000000b0: 8f17 85bc 8259 c03b 6720 3cbb 21c2 303d
000000c0: 6abf 81bc 62b0 6abc fdd4 863c 276c 19bc
000000d0: 34c2 a33c 669f 213c 675e db3c 4927 2cbd
000000e0: 1b82 edbc b36c c63b 0dee e43c bc2c c9bc
000000f0: eb37 f03c b00b 823d 2205 88bc 83ce bfba

conv3.weight f4 [64, 64, 3, 3]
-0.007489075 -0.008197043 0.013494779 0.0075788754 -0.014886081 -0.004277724 -0.01039816 -0.003434904
0.017083231 -0.015431941 -0.0012948278 -3.907854e-05 -0.008120599 -0.015447848 0.010566149 -0.00065052405
-0.028363561 -0.009429894 -0.008902426 -0.0056441915 -0.021977408 -0.00035842147 0.021099685 0.01642028
0.012912022 -0.01359866 -0.0037092527 -0.0042365487 -0.0024806408 0.004202357 0.0071832747 -0.0035337452
0.0007684418 -0.008378071 0.0018143939 0.012367985 0.0053917393 0.006392999 -0.0044040275 -0.011593012
0.005821373 0.0035504308 0.011411185 0.013282147 0.022449464 -0.00823862 0.0026614896 -2.109349e-05
-0.016027598 -0.022507751 -0.002435539 -0.0072535328 0.0045781326 -0.0012331655 -0.008302463 0.008793562
0.00895065 -0.010872133 0.013750444 -0.013428057 -0.0033386224 0.005201408 -0.021536808 -0.020988686
-0.014138052 -0.009643126 -0.022599949 -0.004430441 -0.016305765 -0.018875426 0.00027566132 -0.013315055
0.0023987247 -0.021868473 -0.002943436 0.0071307975 -0.0029065984 -0.00044736723 -0.004855658 0.016501447
0.004598874 -0.009165284 -0.020660482 -0.015952285 -0.011740415 -0.0008838507 -0.0077391313 -0.00277769
-0.00018149319 -0.021848854 0.0035450172 -0.02050956 -0.0017405016 -0.0065337964 0.004971182 -0.017018728
-0.008867214 -0.022314237 0.005121417 -0.017009502 -0.028046234 -0.010216131 -0.013701364 -0.0061934213
0.007601948 -0.012217918 0.018053303 0.004598194 0.0050170748 0.0134210875 0.019486768 -0.008560284
-0.028637445 -0.0038466775 0.0145450905 0.0023505432 -0.014198762 -0.034880288 0.01069451 0.008748192
0.0024270806 -0.0043289918 0.00052704994 -0.0033593723 0.024233205 0.00057887734 -0.01120817 -0.0014666514
-0.011758248 0.0009524709 -0.0059325644 -0.0061097206 0.007405461 -0.006591793 0.020847188 -0.0030174947
-0.0049452404 -0.011506493 -0.031880803 -0.007781972 0.0026479454 -0.031824674 0.0019333902 -0.0042695873
0.018390287 0.006103078 -0.016560389 -0.0061289775 -0.011927512 -0.010644732 0.012937392 0.0076334993
-0.026150286 -0.009311832 0.011507762 0.0070432234 -0.0046817097 -0.0016321151 0.012408944 -0.0026686534
-0.0047705644 0.010348722 0.010699112 -0.0038052164 -0.014123626 -0.012172348 0.0019564803 0.0013934228
0.0114606535 -0.0035618257 -0.005426507 0.009056724 -0.0038537805 0.015594937 -0.015216618 0.015697174
0.046599057 0.01416549 0.022615407 -0.001809388 -0.014810818 -0.011682113 0.00089383015 -0.0005962792
-0.024484135 -0.008576958 -0.0034922056 0.0021797807 -0.006061599 -0.01141753 -0.004657768 -0.0075086663
-0.0059615723 0.0044364627 -0.017871955 0.012260916 0.013626583 -0.001848611 -0.009502997 0.0029039665
0.01722292 0.0016579706 0.0027591863 0.0055376138 0.013808213 -0.00033122412 0.007901616 0.003189015
0.0035477204 0.0064918674 -0.029860625 0.0018330457 -0.004036105 -0.0012171249 -0.010147009 0.0019001904
0.012582163 -0.011530004 0.015373613 0.015475275 -0.0071258643 0.0054739374 0.009694717 -0.0053869537
0.00031597578 0.013477682 0.0022166723 0.01088159 0.0059444173 -0.009485633 0.0031955286 0.0006665767
-0.004784621 -0.017887374 0.0035512464 0.008909895 -0.010499498 0.014330514 -0.006963681 -0.01752895
-0.004530282 -0.013430635 0.01494779 -0.013577672 0.01228677 -0.014715052 0.010145992 -0.01623916
-0.019011764 0.0063138246 -0.002532018 0.0039525405 -0.0072556525 0.01790393 -0.019985205 0.012512201
00000000: ea66 f5bb e44c 06bc 3519 5d3c 3758 f83b
00000010: c0e4 73bc 262c 8cbb 0b5d 2abc 201c 61bb
00000020: 22f2 8b3c 40d6 7cbc 36b7 a9ba 43e8 23b8
00000030: 430c 05bc f818 7dbc a41d 2d3c ee87 2aba
00000040: b35a e8bc d87f 1abc 7bdb 11bc e9f2 b8bb
00000050: f709 b4bc 84ea bbb9 3fd9 ac3c d383 863c
00000060: f28c 533c eacc 5ebc ef16 73bb bfd2 8abb
00000070: 3f92 22bb edb3 893b ad61 eb3b 6896 67bb
00000080: 4271 493a 2d44 09bc f5d0 ed3a 17a3 4a3c
00000090: 30ad b03b 5d7c d13b a94f 90bb 9ef0 3dbc
000000a0: 37c1 be3b 58ae 683b fbf5 3a3c 5d9d 593c
000000b0: f0e7 b73c 47fb 06bc 636c 2e3b edf1 b0b7
000000c0: 4f4c 83bc 2d62 b8bc 909d 1fbb 0baf edbb
000000d0: 2904 963b 2ba2 a1ba 0e07 08bc df12 103c
000000e0: bfa5 123c 0821 32bc 8b49 613c 5a01 5cbc
000000f0: cacc 5abb 9370 aa3b f66d b0bc 77f0 abbc
00000100: 4aa3 67bc 34fe 1dbc 8723 b9bc 3c2d 91bb
00000110: ab93 85bc a3a0 9abc a386 9039 6327 5abc
00000120: ec33 1d3b 8325 b3bc a9e6 40bb 77a9 e93b
00000130: a17c 3ebb 9d8c eab9 361c 9fbb 0b2e 873c
00000140: 27b2 963b fd29 16bc 2c40 a9bc 5eae 82bc
00000150: df5a 40bc 37b2 67ba 8a98 fdbb e809 36bb
00000160: 354f 3eb9 5efc b2bc 8553 683b aa03 a8bc
00000170: 8b21 e4ba 7519 d6bb 4ce5 a23b dc6a 8bbc
00000180: cb47 11bc 59cc b6bc 8fd1 a73b 8357 8bbc
00000190: 37c1 e5bc 8f61 27bc b07b 60bc 2ff2 cabb
000001a0: c319 f93b aa2d 48bc 85e4 933c 72ac 963b
000001b0: 4666 a43b 1fe4 5b3c b7a2 9f3c 6f40 0cbc
000001c0: 1399 eabc 8a18 7cbb 884e 6e3c 920b 1a3b
000001d0: eda1 68bc a2de 0ebd 0738 2f3c 9454 0f3c
000001e0: a80f 1f3b 37da 8dbb b929 0a3a ea28 5cbb
000001f0: b784 c63c cdbf 173a 79a2 37bc a83c c0ba
00000200: aba5 40bc 3daf 793a f565 c2bb 0d34 c8bb
00000210: 82a9 f23b f8ff d7bb b9c7 aa3c 29c1 45bb
00000220: af0b a2bb bb85 3cbc 7295 02bd eaff febb
00000230: 2789 2d3b 975a 02bd cf69 fd3a e5e7 8bbb
00000240: 3aa7 963c 54fc c73b a7a9 87bc 97d5 c8bb
00000250: 9c6b 43bc 3e67 2ebc 5bf7 533c 6f22 fa3b
00000260: 2039 d6bc a790 18bc 0d8b 3c3c d7ca e63b
00000270: 0769 99bb b2ec d5ba e24e 4b3c 93e4 2ebb
00000280: 6552 9cbb b08d 293c 544b 2f3c f060 79bb
00000290: c866 67bc 876e 47bc 4b38 003b 83a3 b63a
000002a0: 77c5 3b3c 856d 69bb d7d0 b1bb a762 143c
000002b0: b58f 7cbb e881 7f3c 1f4f 79bc 5c97 803c
000002c0: a7de 3e3d 5f16 683c f243 b93c fd28 edba
000002d0: 13a9 72bc 5566 3fbc ed4f 6a3a 9f4f 1cba
000002e0: f492 c8bc 5f86 0cbc 7ddd 64bb a7da 0e3b
000002f0: 61a0 c6bb 9710 3bbc 31a0 98bb 420b f6bb
00000300: 4b59 c3bb bf5f 913b 3568 92bc 02e2 483c
00000310: 0842 5f3c 184d f2ba 75b2 1bbc 7950 3e3b
00000320: 1517 8d3c 4350 d93a 77d3 343b df74 b53b
00000330: d83b 623c 26a8 adb9 c875 013c cbfe 503b
00000340: df80 683b bbb9 d43b 459e f4bc cf42 f03a
00000350: 4d41 84bb ef87 9fba a43f 26bc cf0f f93a
00000360: 6b25 4e3c 58e8 3cbc 9be1 7b3c 028c 7d3c
00000370: 1580 e9bb b75e b33b 97d6 1e3c 0b85 b0bb
00000380: 8da9 a539 7fd1 5c3c 9745 113b b248 323c
00000390: 63c9 c23b a169 1bbc 136c 513b 35bd 2e3a
000003a0: 4fc8 9cbb 8b88 92bc 07bc 683b cffa 113c
000003b0: 1606 2cbc 88ca 6a3c 972f e4bb df98 8fbc
000003c0: c372 94bb 2b0c 5cbc 93e7 743c e274 5ebc
000003d0: 734e 493c 6717 71bc 603b 263c fd07 85bc
000003e0: 8fbe 9bbc 33e4 ce3b 37f0 25bb 5084 813b
000003f0: d3c0 edbb 43ab 923c 03b8 a3bc faff 4c3c

conv3.bias f4 [64]
0.007995556 -0.044159327 -0.007849686 0.010720147 -0.0056565385 0.0033129454 0.0017646326 0.010459754
0.03236432 -0.004362825 -0.026952608 0.00915985 -0.0036989308 -0.022300823 -0.003132439 0.00050196727
0.03808647 0.07243465 0.0019491259 -0.011902774 0.002370929 0.0010416849 0.051840074 -0.0053032823
-0.014499764 0.04938348 -0.0067953183 0.005418756 -0.01065629 -0.0036942363 -0.01474265 -0.009662226
-0.020396812 0.0060283183 -0.002934062 -0.009731147 -0.0043331957 -0.016339721 -0.010201702 0.0284133
0.01571613 -0.0069910446 -0.028232543 -0.0068997405 -0.0010769576 0.052673854 -0.0066189743 0.019935159
0.006684884 0.04173348 0.005507515 -0.0043062153 0.006259451 -0.065032534 -0.011283817 -0.0021670212
-0.0018043083 0.037371732 0.029252095 0.05960452 -0.027885472 0.007267599 -0.021123292 -0.010760175
00000000: cbff 023c 69e0 34bd f89b 00bc 8ea3 2f3c
00000010: 7c5a b9bb 001e 593b 3f4b e73a 635f 2b3c
00000020: 7390 043d 07f6 8ebb b7cb dcbc 3213 163c
00000030: c369 72bb 37b0 b6bc 9b49 4dbb 7496 033a
00000040: 8f00 1c3d 9e58 943d d079 ff3a da03 43bc
00000050: 9761 1b3b 2589 883a 4256 543d 28c7 adbb
00000060: 6b90 6dbc 5546 4a3d 43ab debb d28f b13b
00000070: b897 2ebc 001b 72bb 288b 71bc 504e 1ebc
00000080: 3717 a7bc 3389 c53b 6449 40bb 646f 1fbc
00000090: 7bfd 8dbb e1da 85bc 0a25 27bc 02c3 e83c
000000a0: 1dbf 803c 2215 e5bb ef47 e7bc 3817 e2bb
000000b0: b328 8dba 8ac0 573d fbe3 d8bb 0f4f a33c
000000c0: df0c db3b baf0 2a3d 6278 b43b 271b 8dbb
000000d0: 151c cd3b c72f 85bd c2df 38bc 9504 0ebb
000000e0: 8a7e ecba 1a13 193d 17a2 ef3c df23 743d
000000f0: 1370 e4bc 0a25 ee3b c10a adbc 724b 30bc

fc1.weight f4 [64, 1024]
0.0030438153 -0.0052823722 0.003718375 0.009254682 0.0070899837 -0.006588619 0.0024866795 0.0043331003
0.00033592802 -0.0005696527 -0.0057010683 -0.008531562 -0.014981078 -0.018528482 -0.007085702 0.0017105713
0.013010243 -0.0006991404 -0.013262994 0.010746929 0.00027783678 0.0072128437 0.013060868 -0.0067707337
-0.0069905818 0.014195806 -0.00010786529 -0.00012871322 -0.0149725145 -0.005769833 -0.019514218 -0.0033750504
-0.004376081 -0.020214057 -0.013041801 -0.015503314 -6.291043e-05 -0.00541738 -0.0008408354 0.0044196355
-0.018842382 -0.0046416293 -0.0073074326 -0.011211727 -0.013553917 -0.0057611386 -0.002762589 -0.018000983
-0.004593452 -0.016206853 -0.01769146 -0.007981395 0.028356943 0.02860714 0.0369879 0.049867947
0.0018396516 -0.008332233 0.013527164 0.011019113 -0.013923041 -0.03243249 -0.02865736 -0.010845253
-0.010814077 0.0011985501 -0.0124372095 -0.0020315924 -0.0069956346 -0.013907894 0.009457684 -0.00082997646
0.0059456313 -0.007459146 -0.0037598726 -0.0049518566 0.018248362 0.0027188857 0.004216564 -0.013212896
0.0036698398 0.0024138298 -0.0011094179 -0.011889756 -0.003410814 -0.008763339 -0.005406476 -0.011723337
-0.007090956 -0.005845935 -0.008359511 -0.010117444 0.0017589668 -0.0065481164 -0.0042918753 0.006875125
0.008587562 0.005643477 -0.00033400144 -0.014351174 -0.013125077 0.0011245459 -0.0121133765 0.0011339659
-0.0043575773 -0.0050452924 0.003300529 -0.0029812641 -0.013554874 0.012241465 0.00542045 -0.006103314
0.0052132737 0.0012448736 -0.0009569844 -0.0111842025 -0.0071326154 -0.0033536206 -0.008918787 -0.013259179
-0.0043718647 -0.013458015 -0.0030078718 -0.011796537 -0.0012627472 -0.010269512 0.0009920661 0.0051011047
-0.047113795 -0.025404328 -0.023092257 -0.031300787 -0.055566218 -0.029018566 -0.026913622 -0.018959329
0.0204035 0.035253245 0.026043395 0.04948205 0.09235593 0.11397206 0.0912463 0.061612763
0.002289923 -0.01390582 -0.005512662 0.002395862 -0.014539088 -5.178595e-06 0.0008079006 -0.00061208574
-0.020341447 -0.0090684965 -0.009597994 -0.015708813 -0.0031771497 -0.006623047 -0.009088942 0.0017048464
-0.01210014 -0.0064573833 0.0072995336 -0.013096789 0.0063356096 0.003905216 0.010767954 -0.0069812583
-0.0060328073 0.002026973 0.0016427443 -0.01267196 -0.012712221 -0.011668234 0.00093017577 0.0011602818
0.0078039244 0.006685354 -0.024690872 -0.020008422 0.031752106 0.016025204 0.0002225793 -0.00045261494
0.032833632 0.026429141 -0.009491389 0.01201697 0.023386106 0.013113384 0.0140214935 0.015723784
-0.019299058 -0.017720142 -0.0038262196 -0.0040252768 -0.0037671395 -0.0131878955 -0.0017847304 -0.013280588
-0.004067432 -0.016150333 -0.012210398 0.003770857 0.00214761 -0.012557297 -0.0009479856 -0.004832484
-0.0012292494 -0.011061404 0.00049033697 0.0010615247 0.0019111003 -0.0063402443 -0.022515906 0.008675098
-0.003860969 -0.00016111814 0.006643258 -0.017681066 0.0009923266 -0.0041909646 -0.004305534 0.004842607
-0.013932369 0.012651998 0.0042681107 0.0042935982 0.008979369 -0.013021814 -0.0056145787 -0.00026198724
0.0018875595 0.0032440599 0.0016008293 -0.00600091 0.021419762 0.0062143453 -0.0032684177 0.005514628
-0.0150176985 -0.0039172596 -0.0054420102 -0.0054536806 -0.00305753 -0.009166277 0.0070341537 -0.004676094
-0.009550492 0.0015904288 -0.001799077 0.0062368037 -0.0044442187 0.0015075667 -0.0052300147 -0.008072324
00000000: bf7a 473b c017 adbb fbaf 733b f3a0 173c
00000010: 1853 e83b 58e5 d7bb 8ff7 223b aefc 8d3b
00000020: 7f1f b039 bf54 15ba 07d0 babb f7c7 0bbc
00000030: 3273 75bc 0bc9 97bc 2d2f e8bb 4035 e03a
00000040: ea28 553c 8546 37ba 074d 59bc e313 303c
00000050: 9faa 9139 b859 ec3b 40fd 553c 08dd ddbb
00000060: 4011 e5bb 8795 683c bd35 e2b8 31f7 06b9
00000070: 474f 75bc de10 bdbb 48dc 9fbc f32f 5dbb
00000080: 3a65 8fbb f397 a5bc 47ad 55bc 9d01 7ebc
00000090: c8ee 83b8 4784 b1bb 826b 5cba 97d2 903b
000000a0: 575b 9abc cf18 98bb 3073 efbb 64b1 37bc
000000b0: 4011 5ebc efc7 bcbb 8d0c 35bb cc76 93bc
000000c0: ab84 96bb 3cc4 84bc aeed 90bc 66c4 02bc
000000d0: d24c e83c 8559 ea3c a080 173d 5542 4c3d
000000e0: 7720 f13a eb83 08bc 0aa1 5d3c 8289 343c
000000f0: 771d 64bc eed7 04bd d7c2 eabc 4ab0 31bc
00000100: 872d 31bc ab18 9d3a 70c5 4bbc 7724 05bb
00000110: a33b e5bb efdd 63bc 67f4 1a3c c792 59ba
00000120: 92d3 c23b da6b f4bb 3268 76bb 2f43 a2bb
00000130: 977d 953c 552f 323b 1a2b 8a3b e77a 58bc
00000140: b281 703b 5831 1e3b e369 91ba 40cd 42bc
00000150: f787 5fbb 1c94 0fbc cf28 b1bb 3d13 40bc
00000160: 405b e8bb 428f bfbb 55f6 08bc a3c3 25bc
00000170: 228d e63a 9591 d6bb dca2 8cbb bb48 e13b
00000180: d8b2 0c3c ebec b83b ea1c afb9 3021 6bbc
00000190: 900a 57bc 8065 933a 2f77 46bc 95a1 943a
000001a0: 02ca 8ebb fb52 a5bb b04d 583b 5061 43bb
000001b0: 4315 5ebc 6d90 483c 089e b13b 4ffe c7bb
000001c0: 1cd4 aa3b 072b a33a 23de 7aba f23d 37bc
000001d0: b7b8 e9bb 6bc8 5bbb 1b20 12bc 073d 59bc
000001e0: dc41 8fbb 027f 5cbc b71f 45bb 4346 41bc
000001f0: c482 a5ba 7541 28bc 3708 823a 2b27 a73b
00000200: 65fa 40bd bd1c d0bc f92b bdbc 4135 00bd
00000210: 6799 63bd 58b8 edbc f579 dcbc 9850 9bbc
00000220: 3e25 a73c b565 103d f558 d53c b1ad 4a3d
00000230: 1b25 bd3d 2f6a e93d 57df ba3d aa5d 7c3d
00000240: 8812 163b 3dd5 63bc 90a3 b4bb e503 1d3b
00000250: 5b35 6ebc cbc3 adb6 4bc9 533a 6174 20ba
00000260: 1ba3 a6bc 0894 14bc e840 1dbc c5af 80bc
00000270: ba37 50bb 2506 d9bb c9e9 14bc 2775 df3a
00000280: aa3f 46bc 7598 d3bb ed30 ef3b ea93 56bc
00000290: f29a cf3b a7ee 7f3b 136c 303c 0ac3 e4bb
000002a0: dbae c5bb f7d6 043b 5a51 d73a 0d9e 4fbc
000002b0: eb46 50bc 1f2c 3fbc 0ad7 733a 9914 983a
000002c0: 10b8 ff3b d010 db3b 8344 cabc b4e8 a3bc
000002d0: 7f0e 023d 4a47 833c 2d64 6939 f34c edb9
000002e0: 8f7c 063d ed81 d83c c581 1bbc d3e2 443c
000002f0: 3894 bf3c 85d9 563c 68ba 653c 2acf 803c
00000300: 0f19 9ebc d529 91bc 50c1 7abb 78e6 83bb
00000310: 1de2 76bb 0b12 58bc 9ded e9ba d396 59bc
00000320: 1848 85bb b44d 84bc 1f0e 48bc 7b20 773b
00000330: ebbe 0c3b 1fbd 4dbc 3d82 78ba d059 9ebb
00000340: c41e a1ba e43a 35bc f589 003a dc22 8b3a
00000350: e37d fa3a d3c1 cfbb 4773 b8bc 0022 0e3c
00000360: 5008 7dbb d2f1 28b9 b0af d93b e2d7 90bc
00000370: f510 823a 5c54 89bb 7015 8dbb bbae 9e3b
00000380: 9744 64bc 534a 4f3c 82db 8b3b 50b1 8c3b
00000390: 341e 133c 7259 55bc 80fa b7bb 555b 89b9
000003a0: fd67 f73a 4b9a 543b ebd2 d13a 48a3 c4bb
000003b0: 7f78 af3c b5a1 cb3b f332 56bb 0db4 b43b
000003c0: cb0c 76bc 5b5c 80bb e452 b2bb cab4 b2bb
000003d0: d760 48bb 272e 16bc c27e e63b eb39 99bb
000003e0: ab79 1cbc ef75 d03a 02cf ebba 1a5e cc3b
000003f0: cfa0 91bb 8b99 c53a 8b60 abbb c841 04bc

fc1.bias f4 [64]
-0.010611298 -0.011981322 -0.036386013 0.032229662 -0.0042171218 -0.06728799 -0.0016766202 0.0068943906
0.0014919277 0.007024528 -0.0066611865 0.0031428759 -0.00744517 -0.0027976984 -0.034337517 -0.019780787
-0.0028238152 -0.029997317 -0.0041679363 -0.006465336 0.002091758 0.0020842904 0.007949275 -0.01741518
0.0005505699 -0.0025246742 -0.004540526 -0.023034574 0.0053528706 -0.034593616 0.009581919 -0.00817011
-0.0011637683 -0.013558151 0.0007862708 0.06378373 -0.0010396633 -0.00033980075 0.02421773 -0.038262133
0.034199852 -0.030390754 -0.0011941411 -0.008894987 0.0054567778 -0.0036227095 0.0014592008 -0.017038241
0.012111495 -0.008406461 -0.0004527634 0.038619913 -0.016526936 -0.011706767 -0.005773975 -0.022192901
-0.011723417 -0.035945147 -0.019554896 0.051096942 -0.02130147 0.0015451845 -0.0055873445 0.0010122751
00000000: 02db 2dbc 4f4d 44bc 8009 15bd 4003 043d
00000010: c82f 8abb 49ce 89bd 0ac2 dbba 57ea e13b
00000020: c98c c33a 032e e63b 1546 dabb b5f8 4d3b
00000030: 9df6 f3bb 9759 37bb 7fa5 0cbd 510b a2bc
00000040: c20f 39bb efbc f5bc 2f93 88bb 2bdb d3bb
00000050: e015 093b 9798 083b ad3d 023c 48aa 8ebc
00000060: 1f54 103a 0175 25bb b1c8 94bb 01b3 bcbc
00000070: 2267 af3b 09b2 0dbd 7bfd 1c3c eddb 05bc
00000080: 9689 98ba 0223 5ebc bd1d 4e3a 0ba1 823d
00000090: 5045 88ba 4927 b2b9 4364 c63c c1b8 1cbd
000000a0: 2515 0c3d 08f6 f8bc ba84 9cba 48bc 11bc
000000b0: c5ce b23b fb6a 6dbb a742 bf3a c893 8bbc
000000c0: 4b6f 463c 41bb 09bc e060 edb9 ea2f 1e3d
000000d0: 7f63 87bc bdcd 3fbc 9d33 bdbb e3cd b5bc
000000e0: 9313 40bc 383b 13bd 9731 a0bc 074b 513d
000000f0: 6c80 aebc ca87 ca3a 0b16 b7bb 51ae 843a

fc2.weight f4 [10, 64]
0.06287137 0.054675903 -0.024070665 -0.015472027 -0.014009923 0.006199976 0.007824333 -0.054855086
-0.030001704 -0.029214755 -0.06302767 0.026708348 0.013883606 0.061856534 0.027798478 0.011695004
-0.02387614 0.016387934 -0.021238578 0.041535236 0.0048761414 0.016894585 -0.00785829 -0.0018643616
0.020767355 -0.08012865 0.030417154 -0.011024545 0.059549827 0.053867586 0.009754667 -0.012439667
-0.022179626 -0.008170731 0.04276089 -0.044948064 0.026913112 -0.02486365 -0.011783871 0.05938074
-0.03314515 -0.009507614 -0.041957363 0.10549339 -0.036539804 -0.025554711 0.008632774 0.025444034
-0.02628471 0.0046263034 -0.029086623 -0.01908041 0.025686055 0.06958838 0.021666745 0.0023831457
0.0482582 0.008697259 0.041498102 0.036856 -0.04145048 -0.04035467 0.008037566 -0.004770995
-0.016374031 -0.0018073252 0.03013114 -0.05740697 0.026651397 0.012083535 0.012419735 -0.047964316
0.012635209 -0.0018250592 -0.02533617 0.044949975 -0.07538642 -0.018498747 -0.017411506 0.0089411875
0.02328079 0.012901335 -0.0032894798 0.093182676 -0.03347224 -0.021109454 0.045903243 0.023787998
-0.006318183 0.043428514 0.009468913 -0.0026367398 -0.024364559 0.0908206 -0.08200562 -0.025047401
0.0498206 0.009760121 0.01973484 -0.0011458759 -0.002324295 0.008862088 0.056889154 0.10670209
-0.033124093 0.023977673 0.05359025 -0.103598975 -0.031333722 0.020176953 -0.04914376 -0.025803333
-0.05816653 0.004426397 0.0003761323 -0.06930573 0.037579328 0.013606831 -0.02411559 0.050191183
-0.019308079 0.05420772 0.010827613 -0.009852081 -0.027693314 0.0429806 -0.008024759 0.03211185
-0.0038029812 0.016786342 -0.0052242056 0.016562106 0.0041983137 -0.030354613 -0.06915394 0.0050005796
0.012463175 -0.046799958 0.006269938 0.03422791 0.0061845826 0.006145183 0.046289455 0.016352369
0.0028925368 -0.0028939347 -0.043337625 0.008165836 -0.054038372 -0.013139612 0.046397224 0.016661666
-0.002066795 0.035697408 0.020093394 -0.046349674 -0.018914243 -0.037698776 -0.028406626 -0.04505068
0.008429698 -0.019767223 0.01865823 0.066115744 0.018500498 0.029288456 -0.009586983 -0.034944937
0.027359767 -0.071207605 0.045511436 0.045562685 -0.004901492 0.015482142 0.06845875 -0.060489364
-0.008666981 0.0009559027 0.015346387 0.022924036 0.013792855 0.0162313 -0.015614069 -0.050474055
0.005720907 0.05147261 -0.0038554755 0.0033185643 -0.005486978 -0.046918478 -0.02350832 -0.015936635
0.041244872 -0.08867315 -0.025666535 0.0058319247 -0.051260512 0.012236585 0.039113414 0.045519393
-0.060757726 -0.03300156 -0.01568596 0.03452755 9.834917e-05 0.054285984 -0.012165336 -0.008765197
0.021964004 -0.022564752 -0.046022315 -0.02887841 0.009114022 0.032733846 0.0064164395 0.0034797962
-0.038421012 0.020763332 -0.035369754 0.06502607 0.010225405 -0.0048221867 -0.014181668 0.021786138
-0.091093205 -0.014135309 0.055440236 0.026476657 -0.0203799 0.028680403 -0.009822634 -0.055348355
0.012712332 -0.035610925 -0.019589504 -0.008156086 -0.030873481 0.03080969 -0.0014614756 -0.039717283
0.009779095 0.015921505 0.016684532 0.01577249 0.04464799 -0.0019057527 -0.030141136 0.021509884
-0.051652204 0.02583996 -0.041585017 0.07035728 -0.022794409 -0.0377428 -0.023157943 -0.0066679115
00000000: b4c2 803d d7f3 5f3d d82f c5bc 627e 7dbc
00000010: e089 65bc 2b29 cb3b a231 003c baaf 60bd
00000020: 22c6 f5bc c853 efbc a714 81bd 77cb da3c
00000030: 1078 633c 475d 7d3d a2b9 e33c 679c 3f3c
00000040: e597 c3bc fd3f 863c 87fc adbc da20 2a3d
00000050: 0ac8 9f3b 8366 8a3c 0fc0 00bc 985d f4ba
00000060: 4d20 aa3c 7d1a a4bd 652d f93c 4ba0 34bc
00000070: 85ea 733d 42a4 5c3d 0ad2 1f3c bfcf 4bbc
00000080: 0cb2 b5bc 88de 05bc 0b26 2f3d 761b 38bd
00000090: e378 dc3c daae cbbc 2311 41bc 3839 733d
000000a0: 35c3 07bd d3c5 1bbc 7cdb 2bbd eb0c d83d
000000b0: c3aa 15bd 1d58 d1bc 7b70 0d3c 0270 d03c
000000c0: 0853 d7bc 3f98 973b 1247 eebc 854e 9cbc
000000d0: 906b d23c 5a84 8e3d 757e b13c 8d2e 1c3b
000000e0: 64aa 453d f37e 0e3c eaf9 293d 51f6 163d
000000f0: fbc7 29bd f04a 25bd ffaf 033c 0256 9cbb
00000100: d522 86bc c5e3 ecba 95d5 f63c 9223 6bbd
00000110: 0854 da3c 05fa 453c 257c 4b3c 3b76 44bd
00000120: e803 4f3c d336 efba cd8d cfbc 771d 383d
00000130: 3264 9abd af8a 97bc 93a2 8ebc 0f7e 123c
00000140: 5bb7 be3c 1f60 533c 5094 57bb 8fd6 be3d
00000150: 301a 09bd bced acbc 0a05 3c3d 0cdf c23c
00000160: c308 cfbb 19e2 313d 8023 1b3c 27cd 2cbb
00000170: 2f98 c7bc 2700 ba3d 90f2 a7bd 3530 cdbc
00000180: af10 4c3d eae8 1f3c f6aa a13c 3731 96ba
00000190: 3353 18bb 4b32 113c 9a04 693d a086 da3d
000001a0: 21ad 07bd d36c c43c 7381 5b3d b32b d4bd
000001b0: ca57 00bd 234a a53c f84a 49bd 8361 d3bc
000001c0: 0740 6ebd 4f0b 913b 9f33 c539 2af0 8dbd
000001d0: c8ec 193d 30ef 5e3c 0f8e c5bc 4595 4d3d
000001e0: fa2b 9ebc ea08 5e3d 4d66 313c 9f6a 21bc
000001f0: 17dd e2bc 6d0c 303d 477a 03bc b787 033d
00000200: 703b 79bb 8383 893c d02f abbb 41ad 873c
00000210: 0292 893b 3daa f8bc 95a0 8dbd e7db a33b
00000220: 5832 4c3c 50b1 3fbd 0d74 cd3b 9132 0c3d
00000230: 0aa8 ca3b 885d c93b 039a 3d3d 67f5 853c
00000240: b790 3d3b 2ba8 3dbb cb82 31bd 00ca 053c
00000250: 5757 5dbd 8747 57bc 040b 3e3d 0c7e 883c
00000260: 1173 07bb 7237 123d e79a a43c 28d9 3dbd
00000270: 0bf2 9abc 086a 1abd 03b5 e8bc 1087 38bd
00000280: b71c 0a3c dfee a1bc 25d9 983c b167 873d
00000290: 5b8e 973c 58ee ef3c b912 1dbc 6c22 0fbd
000002a0: 9721 e03c 4bd5 91bd 336a 3a3d f09f 3a3d
000002b0: b29c a0bb cfa8 7d3c 1a34 8c3d b2c3 77bd
000002c0: f4ff 0dbc 8b95 7a3a 6a6f 7b3c 30cb bb3c
000002d0: 6dfb 613c 81f7 843c 27d2 7fbc e2bd 4ebd
000002e0: 7276 bb3b f2d4 523d 25ac 7cbb 457c 593b
000002f0: 1ccc b3bb 972d 40bd 8594 c0bc 8c8d 82bc
00000300: 62f0 283d 459a b5bd a042 d2bc bb19 bf3b
00000310: 8bf6 51bd f57b 483c 6335 203d 8b72 3a3d
00000320: 18dd 78bd a52c 07bd d87f 80bc c36c 0d3d
00000330: cf40 ce38 fb5a 5e3d 1e51 47bc e79b 0fbc
00000340: dbed b33c b7d9 b8bc e581 3cbd 6a92 ecbc
00000350: fb52 153c ed13 063d ff40 d23b 4b0d 643b
00000360: 5a5f 1dbd dd17 aa3c e0df 10bd 632c 853d
00000370: 7588 273c 6f03 9ebb 3a5a 68bc d878 b23c
00000380: 138f babd c897 67bc 4d15 633d 93e5 d83c
00000390: bff3 a6bc 2af3 ea3c 1def 20bc f5b4 62bd
000003a0: 6347 503c c3dc 11bd 2b7a a0bc 1ba1 05bc
000003b0: 62ea fcbc 9a64 fc3c fc8e bfba 97ae 22bd
000003c0: 7f38 203c d16d 823c 00ae 883c 4f35 813c
000003d0: d0e0 363d 73ca f9ba 8bea f6bc 7f35 b03c
000003e0: 4391 53bd 53ae d33c 0d55 2abd 7a17 903d
000003f0: 57bb babc 3298 1abd bab5 bdbc 7f7e dabb

fc2.bias f4 [10]
-0.045594774 -0.06925448 0.017393336 0.0269169 0.09020635 -0.013531573 0.057807244 -0.02081619
-0.038404603 -0.012118349
00000000: 96c1 3abd 4bd5 8dbd 787c 8e3c d580 dc3c
00000010: 1bbe b83d 88b3 5dbc 4ac7 6c3d b786 aabc
00000020: 254e 1dbd 0a8c 46bc
