torch_to_tf/torch_models/model_round299.model (torch, 493063 bytes, 10 tensors)

conv1.weight f4 [32, 3, 3, 3]
00000000: fabd 2abd 9b9b 2fbd 67bc bcbd c2ee 91bd
00000010: 1c83 c2bc 6ac7 12bd 4efa 943d 325b 7c3d
00000020: e57b b33c 55e2 0d3d ab90 56bd 165c 96bd
00000030: 75b8 f83c 035b 2b3c a18e 383d f49e 8abc
00000040: a8fc d8bd eb19 b83b 878c f63c 602e 7d3d
00000050: 03c5 b03d 1725 1dbd af08 ce3c 2b61 b13c
00000060: af72 f23d ed59 2f3d 4548 f63c 53ea 44bd
00000070: 5f38 04bd b7c6 7d3d 4049 2d3d 51a8 1cbd
00000080: aff3 f73c fbf0 81bb 2bbe 1d3d 23ce d33c
00000090: 80c6 dabc 250d 4e3b 7094 723d af3b 13bd
000000a0: 3ef5 bf3b e01f bf3c b322 18ba 350a 503d
000000b0: f8ee e7bb 1b48 15bd 8d01 133d 648f 2bbd
000000c0: 83ce dabd 1fe7 923c 55ab 28bc 053a a4bd
000000d0: c0f5 643c 1759 f23d d0a5 87bd f5b5 c8bc
000000e0: c938 9c3d 0944 bc3d 8b27 22bd 8f3a 4abd
000000f0: c215 00bd c575 cf3d 8ff4 2dbd 8df9 783c
00000100: f3d3 c13c 3d2a e83b fa98 0cbc 0bdf 81bb
00000110: b6b3 2f3d 0595 353c 22b3 d13c 1bfa 123d
00000120: 1f7c e53c 7a25 4fbd 000b 913c c767 d93d
00000130: c25e 493b e21c 27bc cb49 e6bc 951f b13d
00000140: 4473 863d a619 143e 5088 b13c e5b7 c2bd
00000150: 6583 753c 5431 8b3c c831 e3bc a945 a33d
00000160: 1835 e33b d31b 94bd cab7 6039 3487 84bd
00000170: c6d2 9d3d c38c 373d 135f d2bd d7ba 62bd
00000180: 6f43 c13c a93d 87bd d72a 773d 481a f53c
00000190: 23d5 3abd c9ff a4bc 402a 4a3d 8ea3 a83c
000001a0: 1d19 52bb 98fa 883d d206 bebc 0fa3 afbd
000001b0: 0c2f 96bc 9d1d 683a 2da5 4abc e44d 9d3d
000001c0: 0afd f9bc 5d83 773d 0a90 7abd bf28 32bd
000001d0: 2836 663d 63a3 04be e7c9 7bbb bdf0 4fbd
000001e0: 2b0f d5bc 6f21 3abb d15c 97bd f224 183d
000001f0: acc6 ad3d 0bb1 433d 48d3 643d 2d8a cdbc
00000200: 6f19 16bd 236c 2ebd b527 37bd 6fe8 943b
00000210: 6325 6f3d f3eb 9e3d 4c1c 24bc 5f3f 173d
00000220: b8a0 5fbc 4fe0 ad3d 25de 043d 6288 5b3c
00000230: 5099 a33d 9294 ffbc 6483 9bbd 92c9 323d
00000240: bbf1 8fbc f919 bdbd 43b7 c73d b29b 033c
00000250: 2eb5 4a3c e589 b0bc 6b05 86bd 4674 08be
00000260: 37b7 053d ebce a73c 1091 c6bd 73b6 9b3d
00000270: b50a c1bc 7ea0 863d 7017 e43c e78d edbc
00000280: c667 4b3c 9822 d3bc 5813 5bbd cf8e 5ebd
00000290: aa43 6ebd 063a b93c 65ad 0f3d 27ed 3dbd
000002a0: 4805 e4bc a03d 9f3c b349 243c e708 55bd
000002b0: bdc2 9b3d 8bc2 f03c 08a9 783d 9709 89bd
000002c0: 7d31 733d e4ac c3bc 170f 283d 1328 533d
000002d0: d11c 193d f9ff 42bc 7bf5 2c3d 0f36 6c3d
000002e0: 0faf 8dbc b8f4 d43d d32d 433d 2de8 0bbd
000002f0: 5b43 8bbb 0a28 ffbc ceb4 c4bc 3fb0 773d
00000300: 72fb 92bd 0184 013c b731 8fbc b28b 4d3d
00000310: faed c43a 23b5 353c 92b0 14bc fcf7 173c
00000320: 171d dcbb c7bc b03d f72a ddbc d28d 653d
00000330: cacb c9bb 42c2 f93c 7519 01be 27c2 7c3c
00000340: 33f1 853c 7f8c c63c e7f4 5f3c 5ff4 27bc
00000350: 68fd b3bd cb70 a53d d8bc 483b 2b7c 05bd
00000360: aa82 563d 550a b33d 2095 fcbb b6a7 2b3d
00000370: ed3d 733c a874 f1bc 03b6 2f3d 035c dfbc
00000380: e285 ec3c f72e 643d 1b4e f23d 3d13 933d
00000390: eac6 d0bd fa02 4abd ca39 3ebd 7f2f 84bd
000003a0: 332f 12bc 5e75 2a3d 42c9 fc3c ef5e c33d
000003b0: 9b63 34bd 683a 993d ebff 00bd afe1 4fbc
000003c0: 3795 5a3d f3bc f4bd fff4 b3bd c11e b3bd
000003d0: 936a 10bd ad9b 5d3d ef61 463d dfec 34bd
000003e0: e349 45bd b106 38bd 2bbe 123d 4850 3dbd
000003f0: ad95 873d f704 41bc 77aa 8b3c cb4c 6a3d
-0.041685082 -0.042873006 -0.092156224 -0.071256176 -0.023744158 -0.035834707 0.07274304 0.061610408
0.021909663 0.034639675 -0.05238406 -0.07341783 0.030361393 0.010458711 0.045057897 -0.016921498
-0.10595065 0.005618324 0.030096306 0.061811805 0.08631327 -0.03836545 0.025150625 0.021652779
0.118382804 0.04281037 0.030063758 -0.04807503 -0.032280322 0.061957087 0.042306185 -0.038246457
0.030267565 -0.0039654947 0.038511436 0.02585513 -0.02670598 0.003144094 0.059223592 -0.03594559
0.0058580926 0.023330629 -0.00058035104 0.050790984 -0.007078048 -0.03644572 0.03589015 -0.041884795
-0.1068392 0.017932473 -0.010294755 -0.08018879 0.013974607 0.11833399 -0.06623423 -0.024500826
0.076280184 0.09192664 -0.039588492 -0.049372252 -0.03127075 0.10129885 -0.042469557 0.015196216
0.023660636 0.0070851133 -0.008581394 -0.0039633564 0.042895995 0.011082892 0.025598112 0.03588305
0.028013287 -0.05057285 0.01770544 0.10615497 0.0030726646 -0.010199757 -0.02811136 0.08648602
0.06564954 0.14462909 0.021671444 -0.09507731 0.01498494 0.016991295 -0.027733698 0.07972271
0.0069338195 -0.072318695 0.00021430771 -0.064711004 0.077062175 0.044811975 -0.1027204 -0.055353966
0.023591725 -0.066035576 0.06034359 0.029919758 -0.04561342 -0.0201415 0.0493567 0.020585801
-0.0032058426 0.06688422 -0.023196612 -0.08576023 -0.01833298 0.00088545104 -0.012368483 0.07680872
-0.030516166 0.060428012 -0.061172523 -0.04349589 0.05620399 -0.12952952 -0.0038419904 -0.050766695
-0.02600821 -0.0028401276 -0.0739075 0.03714461 0.08485159 0.047776263 0.055865556 -0.025090301
-0.03664535 -0.042583596 -0.044715602 0.00454431 0.058385264 0.077598475 -0.010016512 0.03692567
-0.013649158 0.08490049 0.032438416 0.013399215 0.079882264 -0.031198774 -0.0759342 0.043649264
-0.01757132 -0.092334695 0.09751751 0.008032726 0.012372298 -0.021550128 -0.06544002 -0.13325605
0.03264543 0.020484408 -0.09695637 0.07603159 -0.023564676 0.0657358 0.027843207 -0.028998328
0.012414878 -0.025773332 -0.053485245 -0.05433541 -0.05817 0.022610676 0.03507747 -0.046368744
-0.02783455 0.019438565 0.010027337 -0.052010443 0.07605503 0.02938964 0.060708076 -0.06691282
0.059373368 -0.023886152 0.041030016 0.05155189 0.037380997 -0.011901849 0.042226296 0.05766874
-0.017295389 0.10398239 0.047651123 -0.034156967 -0.0042499728 -0.031147022 -0.024011996 0.060470816
-0.07176866 0.007905007 -0.01747976 0.050182052 0.0015024536 0.01109055 -0.009075301 0.009275433
-0.006717335 0.086297564 -0.026998026 0.056043454 -0.0061583268 0.030488137 -0.12607367 0.015427149
0.016350364 0.024236916 0.013669229 -0.010251134 -0.08788568 0.08078154 0.0030630138 -0.03258912
0.052370705 0.08742205 -0.007708207 0.04190799 0.014846307 -0.029474571 0.04289819 -0.027265554
0.028872434 0.05570885 0.11831304 0.07181404 -0.1019419 -0.049319245 -0.04644183 -0.06454372
-0.008922386 0.041615836 0.030857686 0.095395915 -0.044040304 0.07481843 -0.031494062 -0.0126880845
0.05336496 -0.11950102 -0.08786964 -0.087461 -0.035257887 0.054103542 0.04843324 -0.04417121
-0.048166167 -0.044928256 0.03582589 -0.04621914 0.06620345 -0.011780969 0.017049057 0.05720214

conv1.bias f4 [32]
00000000: 5fc1 0cbd bbc2 873b 5725 f73c b820 fe3a
00000010: 4ecc abbd 4894 da3b 9245 313d 084e e83b
00000020: b27d 53bd 7ddf 6dbd cfbe a63d aac7 8cbd
00000030: 1f9f 21bd b5ad 8dbd a219 08bd b0ee 19bd
00000040: d0cc b43c 6228 cd3c 9b83 9a3d 1067 13bd
00000050: e2ca bd3d 9a81 d83d 738e b83c 2d66 123c
00000060: a0a6 d13c 9f11 33be 10e4 f63d 5872 373d
00000070: 7d63 fc3c c8ef 9cbb 67be 11bd b8a4 443d
-0.0343641 0.0041430867 0.030169172 0.0019388413 -0.083885774 0.0066705085 0.043279238 0.00708938
-0.051633544 -0.058074463 0.081418626 -0.068740204 -0.03945839 -0.069178976 -0.03322757 -0.037581146
0.022070318 0.02504367 0.07544633 -0.03598696 0.092672125 0.105715945 0.022528863 0.008935493
0.025592148 -0.1748719 0.12055218 0.04478678 0.030809158 -0.0047893263 -0.035581972 0.04800865

conv2.weight f4 [64, 32, 3, 3]
00000000: b345 233c a387 debc 5b8e 6c3c b286 0abc
00000010: 98da a9bc b17e 06bc 5d1e 8abb b881 963b
00000020: 7890 773a 3d55 ce3c a0b2 b33b ca37 25bb
00000030: 08cb 04bd e51e 83bc a7ff a2bc 2267 28bb
00000040: 1c65 843b 8580 b13a 5fe4 4fbc bae2 89bc
00000050: 0d2b 92bc 2b6c ec3b dde5 df3a 79c8 b039
00000060: 28fc d2bc ea60 e3bc 606c 573c ed45 75bc
00000070: 3f9f 60bc a585 88bc e387 81bc f4cc b63c
00000080: 87f4 abbc 9864 a336 bbdb 97bc f5c0 cb39
00000090: 60f6 033d 1014 c83b b0af 7dbc 0b85 b33b
000000a0: 18af 843c 3f12 41bc cfc7 1bba 2315 97ba
000000b0: c79b 34bc 5348 4c3c 58f7 4fbc bddd a53c
000000c0: cb3c fbbc 672f 843c a400 81bc 9599 533c
000000d0: a5cc 0fbd a22e bfbc 39c2 15bd 53b5 debc
000000e0: a7dc a73b 6dd7 b8bb c82a 29bb a9f9 aabc
000000f0: 770b c83c da12 ffbb 55c6 823b ddb0 96bc
00000100: 132f 58bb d438 9abc eb8b bcba 4231 09bd
00000110: 60fe e1bc e37a 62bc 9cdd 803b 62dc 8cbc
00000120: 7876 c53b 2a91 2a3c 107a 71bb 81fb 203c
00000130: d046 2bbc a44d 80bc 4bf7 00bc 7a37 353c
00000140: 2419 b8bc a3d4 52bc 4fa5 b33b b8b0 d9bc
00000150: 9028 893c 1055 cebc 8736 8c3a 1f86 9c3c
00000160: 5844 e2bc a137 1cbd e89e 1dbd 9d1e 55bc
00000170: 13e2 f63b 57d3 693c 772a 2bbc 022a b93b
00000180: a7a6 0ebb a35c c23a 487d b2bc b0ca d7bc
00000190: faac b63c d0a7 05bc 7003 6dbc d8cb f8bc
000001a0: b2af 683c 6853 03bd 0fa0 c8bc 470a 733c
000001b0: f302 d0bc b83a 363b 44bf 28bb 08f1 f5ba
000001c0: a385 90bc 0a79 15bc bbbe 6aba a3bc 8bbc
000001d0: 2521 163a 9f73 06bd c255 29bc bfbe dbbc
000001e0: f8bf 65bc d09c 92bc fffd dbba cfe3 0a3c
000001f0: c79a b13b 8339 57bc 68d7 b9bc 2795 163b
00000200: 1f32 99bb 6f82 8bbc d725 d2bc 4092 87bc
00000210: b168 49bc ab19 01bd b761 0c3c 23ca 0739
00000220: 7b65 5f3c cd8e b6bc 105f 8bbc 1fd5 3ebc
00000230: 350a 80bc 1c05 12bc 3fae b4bc 6a13 f7bb
00000240: 39df bcbc 63a6 56bc d8e1 e8bc 5dc5 75bc
00000250: 5cc4 9a3c 63ab b6ba 58ca 32bc 62b9 f1bb
00000260: bc91 a2bc 2ba8 23bc 7735 37bc 5aa8 63bc
00000270: 383b f53b 7b5b 203c ad98 e2bb e772 033c
00000280: 4a85 e0bb 9221 39bc 8819 e1bb 4dd8 783c
00000290: 3fdd 8e3c f033 edbc a219 183b 08e1 27bb
000002a0: c39b d8bc 6f11 0f3c 0aad b4bc 2948 97bb
000002b0: f5bb a0bb 6a52 c6bc b821 6bbb 4cd0 8cbc
000002c0: eba4 e4bc 1706 6c3a 943d 09bb 3775 0c3d
000002d0: a762 1fbb 67f8 11bc 2ff0 bbbc f0f2 7ebb
000002e0: 8568 60bc 3fb3 58bb f0fd 74bc 386a c53c
000002f0: c2c7 19bc 924b aabc a283 b1bb 779e 64bb
00000300: 5f28 9abc c5c7 49bb 138a 983c e828 c2bb
00000310: a431 973c 7081 91bb fb09 813a 6f4a 7f3c
00000320: 5dfc 59bc 48a5 08bb abf3 ef3c afa3 6b3c
00000330: 4cab 933b 3290 443c 6807 ffbc ef32 98bc
00000340: f5f0 eeb9 9506 30bc aa45 d1bc 12a2 00bc
00000350: c00b 03ba 0f87 16bc 52ab f13c 6339 993c
00000360: 404c dabc 74e8 0abd 7fb6 09bd 3228 5b3c
00000370: b31b 8c3c 0b19 acbc 586d 0d3c da3a ab3b
00000380: 0788 7d3a e046 5b3c c15a 86ba e45b b4ba
00000390: 2f74 2dbc 30da 8db9 08fe b1bc 1344 2cbc
000003a0: df45 cdbb 22f4 b8bc c716 063c a75a c2bb
000003b0: 471d 13bd 9b54 b3ba 7719 11bc 2923 26bc
000003c0: b060 b9bc ad48 debc ab5e c03b aa72 debb
000003d0: bfcb a43c 2712 113d fb22 5bbb 1d54 b5bc
000003e0: 9a98 46bc bf15 8dbb 3535 983b c020 efbc
000003f0: 176b a13b 1f77 a3bc 2a11 923b 62ee 15bd
0.009965348 -0.027164286 0.014438237 -0.008454965 -0.020734116 -0.0082089165 -0.0042150454 0.0045931004
0.000944383 0.02518713 0.0054839402 -0.0025210255 -0.03242019 -0.016005943 -0.019897295 -0.0025696238
0.0040403735 0.001354233 -0.012688725 -0.016831744 -0.017842794 0.007215043 0.0017082054 0.000337187
-0.025755003 -0.027756173 0.013148397 -0.014970285 -0.013709842 -0.01666529 -0.015811866 0.022314526
-0.020990623 4.869489e-06 -0.018537393 0.0003886294 0.032217383 0.0061059073 -0.015483782 0.0054785064
0.016196772 -0.011784135 -0.00059425546 -0.0011526685 -0.011023468 0.012468415 -0.012693249 0.020247335
-0.030668637 0.016135884 -0.015747376 0.012915035 -0.035107274 -0.023337666 -0.03656218 -0.027186072
0.0051227394 -0.005640915 -0.0025812853 -0.020871 0.02441953 -0.0077842297 0.003990928 -0.018394882
-0.0032987043 -0.018825926 -0.001438496 -0.03349424 -0.027587116 -0.013823244 0.003932668 -0.01719493
0.0060260855 0.010410586 -0.0036846437 0.009825588 -0.010453895 -0.015662022 -0.007871459 0.01106059
-0.022472925 -0.012868079 0.005482353 -0.026573524 0.016742975 -0.025187045 0.0010697403 0.019106923
-0.02762048 -0.03813899 -0.038481623 -0.013007787 0.0075342744 0.014271579 -0.010447136 0.0056507597
-0.0021766813 0.0014828633 -0.021788254 -0.026341766 0.022299279 -0.008157685 -0.014466152 -0.030370638
0.014202045 -0.032061964 -0.024490384 0.014833993 -0.025392031 0.0027805995 -0.0025748769 -0.001876385
-0.017641848 -0.009123096 -0.00089548127 -0.017057722 0.0005726985 -0.03282511 -0.010335388 -0.026824353
-0.01402282 -0.01789704 -0.0016784071 0.008477165 0.005420062 -0.01313627 -0.022685722 0.0022977085
-0.0046751644 -0.017029969 -0.025652809 -0.01654923 -0.012293027 -0.03151862 0.008568219 0.00012949905
0.013635035 -0.02228489 -0.017013103 -0.011647492 -0.015629867 -0.008912351 -0.022055743 -0.007540156
-0.02305566 -0.013101193 -0.028428003 -0.015000668 0.01889246 -0.0013936575 -0.0109125 -0.0073768357
-0.019844882 -0.009988825 -0.011182181 -0.013895119 0.007483866 0.009787436 -0.006915173 0.008023
-0.006851827 -0.011299508 -0.0068694986 0.015188289 0.017439483 -0.02895543 0.0023208638 -0.0025616307
-0.02644146 0.008732184 -0.022055168 -0.0046167565 -0.0049052187 -0.02420922 -0.0035878252 -0.017189167
-0.02791067 0.0009003593 -0.0020941244 0.034291472 -0.0024320276 -0.008909321 -0.022941677 -0.0038902126
-0.013696794 -0.0033065823 -0.014953122 0.0240985 -0.009386005 -0.020787988 -0.005417303 -0.0034884491
-0.018818079 -0.0030789238 0.018620526 -0.0059252866 0.018456288 -0.004440479 0.0009844893 0.015581711
-0.013304797 -0.0020850468 0.029290995 0.014382287 0.004506504 0.0119972695 -0.031131461 -0.018578975
-0.00045574424 -0.010743757 -0.025545914 -0.007851141 -0.00049990043 -0.009187474 0.029500637 0.018704122
-0.026647687 -0.03391309 -0.033621307 0.0133762825 0.017103052 -0.021008035 0.008632027 0.0052255215
0.0009671454 0.013383597 -0.0010250435 -0.0013760296 -0.010586782 -0.00027056178 -0.021727577 -0.010514277
-0.006264433 -0.02257735 0.0081841415 -0.0059312168 -0.035916593 -0.0013681831 -0.008856169 -0.010140219
-0.022629112 -0.027134264 0.0058706603 -0.0067885714 0.020116685 0.035417702 -0.0033437598 -0.022134835
-0.012121344 -0.004305571 0.0046450146 -0.029190421 0.004926096 -0.019954262 0.0044576125 -0.036604293

conv2.bias f4 [64]
00000000: dc6c 973c d7df fdbb f5d9 ff3b 6a04 6a3b
00000010: 6d49 f9bc ffd6 dbbb 9b5f 0dba 6f37 693c
00000020: 12c3 dcbc cab4 073c 327b 043c e35a 433c
00000030: 5a10 c0bb ab81 913b bb1a 0fbc 30f7 8abc
00000040: 420e 183c e32a b23d c2d8 693b 1f20 ecbc
00000050: 87e8 f3bc cf8e b5bb dc1e 3bbb 5bab aabc
00000060: 47ee ce3c b801 133c c308 81bc 10a5 f03c
00000070: 6a6b 5f3d 3bba e0bc b44b 82bc d300 a3ba
00000080: 373c fd3a 6f58 e6bc b7e0 6cbd a56a 213d
00000090: 416b 92bc 4d7a 06bc 98e7 0bbb 22a1 033d
000000a0: ceba c13c f069 92bc b83b 453c e2c2 4fbc
000000b0: 3b48 1eba 5fcc 94bc aa2f 55bb c062 833c
000000c0: 7d69 f3bb bc03 cc3b f5d6 31bd c5a5 ed3c
000000d0: b1ef 3dbc d152 b4bc 706b 933d f012 8fbb
000000e0: b08a 8cbc 3d73 073d bfe5 b4bc 2996 39bd
000000f0: c8be 5e3d 0f13 0b3c 1f20 023d dbf1 683c
0.018484525 -0.007747631 0.007807965 0.0035708197 -0.03043052 -0.006708979 -0.00053929695 0.014234408
-0.026948486 0.00828285 0.008086013 0.011923525 -0.0058613243 0.0044405065 -0.0087344 -0.016963571
0.009280743 0.08699586 0.0035682176 -0.02882391 -0.029773964 -0.0055407058 -0.002855233 -0.020833662
0.025260104 0.008972578 -0.015751248 0.029375583 0.054545797 -0.027432552 -0.015905239 -0.0012436159
0.0019320314 -0.02811834 -0.057831492 0.039408345 -0.017873408 -0.00820787 -0.0021347757 0.03213609
0.023648646 -0.01787278 0.012038164 -0.012680741 -0.0006037985 -0.018163858 -0.003252963 0.016038299
-0.0074283467 0.006226031 -0.04341789 0.02900971 -0.011592791 -0.022012146 0.071982265 -0.004366271
-0.017155975 0.033068884 -0.022082208 -0.04530922 0.054381162 0.008488431 0.031768914 0.014217819

conv3.weight f4 [64, 64, 3, 3]
00000000: 1569 d83b 2a5e c73b 013f 2f3c b13e 8bbc
00000010: 6f8c c7bc e7ff 3e3b 77a4 b7bb ca56 abbc
00000020: 5fa6 c2bb e83a 83bb 4f99 c03a fb8e 74bc
00000030: 97b2 d13b 874f 753c 808b d4bb 942a 1ebc
00000040: 9a37 1a3b 4713 083c bc31 183b 176e 5b3c
00000050: a866 3c3b 2a24 dd3b f238 6fbc a546 59bc
00000060: bbfe 60bc e869 eb3b 489b 55bc dfb3 4b3a
00000070: 1253 9b3c e9e2 8b3b 20b4 afbc 5202 113c
00000080: 281a 1c3c 09e6 b4bc 3ccb c1bc 0a06 d9bb
00000090: c949 85bc f9d7 06bc b2d6 393c e79c 3c3c
000000a0: bf60 d23b 8bb6 0f3b 1f2b 79bb 8fe7 adbc
000000b0: ddfe 8fbc 4161 053c 77e0 05bb d994 92bc
000000c0: e7ba 103c 3f5d bbbb cb48 82bc a232 3e3c
000000d0: 6271 d13b 55cf e0bc 70b0 bd3a c3fa 37bc
000000e0: 7334 02bc 5bc2 abbc 5baf 63bc c56c 69bb
000000f0: 5875 e33b e5cf 223c fcae c83b e08f 5ebc
00000100: 7958 16bc 3a88 6abb 8780 1439 3773 f0ba
00000110: c2af 253b f205 94bc c3c1 a8bb a59b cdbc
00000120: 8294 1abb 57b2 f5bb 0f87 05bc 0f8b 35bc
00000130: b202 98bc cbbe 0cbb 4794 e43b 8a37 65bb
00000140: d53d 0a3c a4d8 c4bb 8389 67bb 1a93 a6bb
00000150: 107d bbbc b80d d2bc f4c5 0d3c 6f63 893c
00000160: 1d2e 55bc 4bac 02bb aa1e 26bc 6818 9abb
00000170: 5766 8ebc 1523 a5bb 55f5 f13b 8145 3cbc
00000180: 43f4 b9bb 6c7b 0f3c 0f40 003c dad7 ecbb
00000190: 7bfb cfb9 fbc2 93bb ef28 083c 79e1 a1bb
000001a0: 021a 21bb a0d7 d8bb ad1d 2bbb ebca efbb
000001b0: 8852 553c 756f e2bb b8da f6bc 8fe1 81bc
000001c0: 436d 553c 43ac c3bb 6220 073b f3fd 20bc
000001d0: ca01 1abc 991a 843b 0365 433c eb41 093c
000001e0: 8837 693a 352a 84bc a726 babb 32bf c3bb
000001f0: 40bc ceba 5836 85bb 2774 05bc b372 82bc
00000200: 2ffc 383c f3cc 02bc af11 4cbb b360 6e3a
00000210: 3b99 00bb e44f 15bc 90c0 9ebc 7373 3a3c
00000220: 75e0 1a3b 2f1c e33b 7d2a 5cbc 337f 9fbc
00000230: dc8d 23bc 406b 28bc ca5d bfbb 7b4e 32bc
00000240: 3dec 87bb f7fb d7bb 2013 16bc 330e 653c
00000250: 0835 9c3b 5dea 99bc c3df 98b9 0a62 95bc
00000260: e823 0abb f0c5 9a3b d5cb 6cbb 5dff e1bb
00000270: 2a78 f33b 98e3 03bb d2fe 973b 28e7 5ebc
00000280: 0a58 7cbb fd14 58bc 3d01 5b3c 7bd2 993c
00000290: 486a 223b 5846 e4b8 0fdd b43a 2817 28bc
000002a0: 87cf b6bb 37e7 bd3b 8fb5 cc38 77a4 8fbb
000002b0: 7a62 00bc 6f1e 47ba 90c5 c23b ef9a f9bc
000002c0: 7f50 283c a3a4 9ebc 877c 823b 3fdd 9abc
000002d0: d5cd 0abb df21 b0ba 8753 4dba b1c8 caba
000002e0: c9be b7bc 6b4d 01bc 2dd3 93bb 275a fcba
000002f0: e385 92bb 0b26 81bc 9f49 083c 3f24 0f3b
00000300: bba0 4c3c eaac 60bb 6053 1a3b 900a 5d3b
00000310: 6528 13b9 8374 0f3c 6ac4 b1bc 4f31 a73a
00000320: ab70 253c bdb6 78ba d4fc 1bbc e883 ae3b
00000330: da88 b5bc 3b1d a1bb 9d02 e13b 4863 6dbc
00000340: 4aeb 593c a8db 54bc 6533 d9bc 4079 e6ba
00000350: 6f8c 7b3b 67d1 59bc 5aec bfbb 9309 85bb
00000360: ab7f 04bc f333 cfbb 77ed d3bc e095 d3ba
00000370: 8b23 03bc 63ad 953a 2835 8fbc 232a 6d3b
00000380: 6480 90bc f208 63bc 781b 3fbc 99b1 42bc
00000390: c057 a4bc 3481 83bc e73f 6739 dc90 a03b
000003a0: 438f 623b c76a a23c 8fc3 b53b 255e cf3c
000003b0: abd8 063c 0d26 753a 472b b7bc 8b74 19bc
000003c0: b2d6 ffba c044 b6bc 7706 3fbc b365 6a3c
000003d0: 6301 16bc 75b9 133b f707 73bc 1fb8 1dbc
000003e0: eb2a 04bc ea09 35bc 00cf 97bb 434f 303c
000003f0: ff4e ddbb 0fb1 f53b 60f4 cfbc 5b83 85bc
0.0066043236 0.0060842233 0.010696174 -0.016997667 -0.024358956 0.002914423 -0.0056043225 -0.020915408
-0.005940243 -0.004004825 0.0014694127 -0.014926667 0.0063994634 0.014972574 -0.0064863563 -0.009653706
0.0023531676 0.008305377 0.0023223003 0.013392947 0.0028747711 0.006748696 -0.014600979 -0.013261472
-0.0137326075 0.007184256 -0.01303751 0.00077706383 0.01896051 0.004268993 -0.021448195 0.008850651
0.0095277205 -0.022082346 -0.02365648 -0.0066230344 -0.016270535 -0.008230203 0.011342691 0.011512018
0.0064202244 0.0021928872 -0.0038020087 -0.02122858 -0.017577583 0.008140863 -0.002042798 -0.017893242
0.0088336235 -0.005717903 -0.015903851 0.0116087515 0.00639169 -0.027442614 0.0014472138 -0.01122922
-0.007947075 -0.0209667 -0.0138967885 -0.003561781 0.0069414787 0.009937261 0.0061243754 -0.013584107
-0.009176367 -0.0035786764 0.0001416226 -0.0018344884 0.0025281762 -0.018069241 -0.0051500513 -0.025098631
-0.0023587053 -0.0074980664 -0.008149876 -0.011080517 -0.018555973 -0.0021476026 0.006975684 -0.003497573
0.0084375935 -0.006007271 -0.0035329766 -0.005083454 -0.022886783 -0.025641307 0.008653153 0.016771046
-0.013011483 -0.001993912 -0.010139147 -0.0047026165 -0.017382784 -0.0050395825 0.007383982 -0.01149118
-0.00567487 0.008757453 0.007827773 -0.00722788 -0.00039669484 -0.0045093275 0.008310541 -0.0049402085
-0.0024582152 -0.0066175014 -0.0026110217 -0.007317891 0.013020165 -0.0069102594 -0.03013359 -0.015854625
0.013026538 -0.005971463 0.0020618667 -0.009826171 -0.009399841 0.004031491 0.011925939 0.0083775325
0.00088965194 -0.016133407 -0.0056808772 -0.00597372 -0.0015772656 -0.004065316 -0.008145369 -0.015923833
0.011290594 -0.007983434 -0.003113847 0.0009093389 -0.0019622582 -0.009113286 -0.01937893 0.011380064
0.0023632322 0.00693085 -0.013437864 -0.019469833 -0.009982552 -0.010279477 -0.005840038 -0.010882969
-0.004148035 -0.006591316 -0.009159833 0.013980436 0.004767064 -0.018788511 -0.00029158415 -0.018235225
-0.002107853 0.004723303 -0.0036132236 -0.0068968968 0.007430096 -0.002012467 0.0046385312 -0.013604917
-0.0038504624 -0.013188598 0.013366994 0.018777123 0.0024782587 -0.0001088499 0.0013798791 -0.010259427
-0.0055789384 0.005795385 9.761296e-05 -0.0043836194 -0.007835979 -0.00075957825 0.0059439614 -0.030469386
0.010273098 -0.019365614 0.00398213 -0.018904326 -0.0021179814 -0.0013437829 -0.0007832576 -0.0015471188
-0.02242984 -0.007891993 -0.004511258 -0.0019252942 -0.004471527 -0.01576521 0.008318334 0.0021841673
0.012489493 -0.0034282752 0.002354823 0.003372822 -0.0001403406 0.008755806 -0.021700103 0.0012755784
0.010097663 -0.00094876793 -0.009520728 0.005325783 -0.022159982 -0.0049168146 0.0068667666 -0.0144890025
0.013300726 -0.012991823 -0.026513765 -0.0017583743 0.0038383265 -0.013294554 -0.0058570327 -0.004059979
-0.008087079 -0.0063233315 -0.025870068 -0.0016142689 -0.00800408 0.0011419471 -0.017481402 0.0036188446
-0.017639346 -0.013857113 -0.011664264 -0.011883163 -0.020061374 -0.01605282 0.00022053682 0.004900081
0.0034570254 0.019826306 0.005546994 0.025313446 0.008230369 0.00093516783 -0.022359503 -0.009366165
-0.001951894 -0.02224958 -0.011659256 0.014306474 -0.009155604 0.002254096 -0.014833442 -0.009626417
-0.008066873 -0.011049727 -0.0046328306 0.010761085 -0.006753802 0.0074979137 -0.025385082 -0.016297987

conv3.bias f4 [64]
00000000: 3305 f5bb dbf9 f8bb b597 f8bb f30e 03bb
00000010: a1d0 233c 73d9 7bbc ba03 51bc 2a84 02bc
00000020: 27b4 483b 1d3a 92bc 72fb 823c 3fa7 14bc
00000030: 4068 4fbc e584 85bb d29a 0dbc 92ee 98ba
00000040: ef61 0ebd 7cd1 87bb ef00 3dbc 1a4a febb
00000050: 3f8a cfbb 33fd 06bd c574 503c 63fe 5fbc
00000060: 375f cc3a 3754 6bbb 2ad4 a5bb 7264 14bc
00000070: d50d 3ebb ddea f13b 4c08 403c 1f0a c2bc
00000080: 37ff 073c b15b 013c 3851 5bbc 0bf4 d8bc
00000090: ff80 3fbc 7207 15bc 6094 dabb 3a9d 01bc
000000a0: 27f8 2cbc 6788 3ebc 1fec bb3b 48b3 423b
000000b0: c8a9 073c 3bd0 8abc ebef d13b dc0a a0bc
000000c0: 4994 13bb 18c7 89bb 2721 cd3b b2b8 d23b
000000d0: 69c2 163a fb96 893d 1b75 313b 3a9b 87bc
000000e0: 6050 cdbb 1aec 3fbc 9fb1 03bb c5bb 963c
000000f0: 05b9 e3bb 07fd b2bb 18a0 09bc 675a 2abc
-0.0074774264 -0.0075981445 -0.0075864443 -0.0019997924 0.0099984715 -0.015371668 -0.012757236 -0.007966081
0.0030624957 -0.017849976 0.01598904 -0.009073078 -0.0126591325 -0.00407468 -0.008642869 -0.0011667779
-0.034761366 -0.0041448455 -0.011535867 -0.0077602984 -0.006333619 -0.032956313 0.0127231525 -0.01367149
0.0015592341 -0.003590835 -0.0050606923 -0.009057151 -0.0028999944 0.007382734 0.011720728 -0.023686467
0.008300594 0.007895396 -0.013386063 -0.026483556 -0.01168847 -0.009096013 -0.0066705197 -0.007911021
-0.010557211 -0.011629201 0.005734935 0.002970891 0.008280225 -0.016944995 0.0064067743 -0.019536428
-0.0022518805 -0.004204642 0.0062600556 0.006430709 0.0005751015 0.0671825 0.0027077857 -0.01655351
-0.006265685 -0.011714006 -0.0020094884 0.018400082 -0.0069495463 -0.005462292 -0.008399986 -0.01039753

fc1.weight f4 [64, 1024]
00000000: 9886 a5bb fb4e 7cbb 4f8d 203c 53a7 823b
00000010: b2da d8bb bb94 cb3b 8bf5 743b c8f6 ef3b
00000020: 2ad3 563b 2f34 31bb 09d8 86bb 8785 713c
00000030: 9a6f fcba df27 4f3b 973b b2bb b2bd f53b
00000040: cd86 943a 5abb a73b f869 19bb b275 f6bb
00000050: c735 8b3b 47d1 31bc bae3 903b 1942 a83b
00000060: d529 6d3c 0a63 9ebc 4f71 963b b26c e3bb
00000070: dd65 50bb 15c1 54bc 5f5d f43a 3d75 613b
00000080: 22f0 123a 0b40 58bc 8789 c6bb a0f0 b9bb
00000090: bf83 b23b 583d e5bb 42e1 02bb 8756 feba
000000a0: ca85 b7bb 2358 8c3b 888b 45bc d325 54bb
000000b0: 508f fb3b 8040 433c 1fbe 66bc ebd8 21bb
000000c0: ea4b 33ba 3a83 233c e7f9 a7b9 ba86 c2ba
000000d0: 4833 b43c e74b 4b3b cf4b a7bc 1239 083b
000000e0: c8a7 c33a 7f63 243c c779 bc3a 0fd5 a23c
000000f0: 50b7 3b3b 822f 2f39 c8f6 1dbc fdae 79bb
00000100: 5581 e8bb 4bba 59bc 5ccd 873c 9de6 2c3c
00000110: 27d5 a83b 6fee 2739 fb93 2cbc 3078 60bb
00000120: b9ba 08bb 159d f4bc 05d9 7cbc 1a2d ecbc
00000130: 7cd2 3bbb 7a3e f43c 039e d83c 1532 a1bb
00000140: 5456 21bc 1706 fa3b 2bbb 763b 6f92 4f3b
00000150: a0e4 fbbb d5cd 62bb d534 98bc 3f17 74bc
00000160: 9f35 85bc 0466 93bb 1be7 49b9 d33a 543b
00000170: e364 cabb 1878 d93a ba55 423c b71d 3cbb
00000180: 1741 dbbb 13b3 953a 8b84 58bb 6b57 7ebb
00000190: d343 f13b 77e5 c03b a555 533b 2f89 d63b
000001a0: 3c0f 83bb 5f21 6cbc 816b 8dbb 0a43 acbb
000001b0: 8d84 97b8 f710 1fbc 708f 753b c096 4f3c
000001c0: bfab a5bc 80c3 373c 7a26 2ebb 57d0 86ba
000001d0: d29f 883b 512e 26bb 7419 11bb ca6f 62bc
000001e0: 87c5 b43b 2aaf 633b 186d 3a3c 0847 603c
000001f0: 7c49 013c db82 b03b 0d18 54bc 720d e43b
00000200: 9a61 163b 42ac e3bb b826 0f3c 1bbd 3d3c
00000210: 38d4 493c 6798 5cbb 7745 513b 1704 febb
00000220: 5760 543b 6f17 9dbb adcb 683c f023 313b
00000230: 7340 52ba 9f64 8d3b 2f35 053c f898 d5bb
00000240: edbd 01bd 0a74 29ba 101a 2c3d 2781 513d
00000250: 39c5 86bd 15af a7bc 7ad2 a53c 2f0e 1b3d
00000260: fefc 9abd adc6 8abc ab4e 3a3c 959a 773d
00000270: c383 3ebd 0c7e 9f3b 2537 353c 1ffa 213d
00000280: 1058 ae3b 6a3b 643b 9327 6cbc aff5 b03b
00000290: 45e9 67ba b731 0bbc 4a23 9fbb 9299 17ba
000002a0: 8d52 2c3c 00c7 703b 4589 5a3a 5818 ea3b
000002b0: af82 8c3c a567 cd3b 6137 033c 0922 173c
000002c0: ddf3 20bc 6335 7abc 5d9e febb e0cc 0bba
000002d0: c76f 93b9 4d52 723c 8bb7 a4b9 c8f2 18bc
000002e0: 6103 423b 2f15 19bc e3fc 413b f0eb 69bc
000002f0: 6fdf 293b bfe0 4a39 7335 bdba f2dd d6bb
00000300: b022 58bc 4c98 0fbc d8e8 2c3c 8736 17ba
00000310: 4b73 083c 3bd4 0c3b 8750 d2ba 899f a5bb
00000320: 7be9 92bb ea4f 483c 64fc be3b 0222 783c
00000330: bdbc 6dbb c510 87bb 5a6f f1ba 6f9d fe3b
00000340: bde9 6d3b 99e1 81bb 238a e4bb 18df b6bb
00000350: 433c d83b 1fc3 a93c 7f39 0ebc 07bc 5d3c
00000360: 5be2 e9bb 257f 12bc 5309 e9ba 1f5c 163b
00000370: 57a6 0f3b e7db 0abb 38dd 343b 55ba 2c3c
00000380: fb25 46bb 8d30 d93a b203 d0bb 7b6f 3dbb
00000390: 0b80 00bb 6808 163c 4321 0d3c a057 893c
000003a0: 7035 b23b c55f 80bb 1325 4cbc b3bd 9e39
000003b0: d0c4 823a cc95 253a 1004 59bc 1b87 253c
000003c0: 90fc 223c 129b 233c e2d5 a93c 4e72 ca3c
000003d0: ade7 eb3c 0f62 da3c 5768 d73c d029 103d
000003e0: ad39 44bc 5f92 9dbb 7972 103c 4c7f a93c
000003f0: 5576 72bd c3cd 10bd b349 b7bb 8baf 3c3c
-0.005051445 -0.0038499224 0.009799316 0.0039872318 -0.0066178674 0.0062127984 0.00373778 0.00732312
0.0032779672 -0.002703916 -0.004115109 0.014741308 -0.0019259334 0.0031609458 -0.0054392326 0.00749942
0.0011331678 0.0051187696 -0.002340911 -0.0075213546 0.004248354 -0.010853118 0.0044216784 0.0051348326
0.014475306 -0.019334335 0.004591144 -0.0069404477 -0.0031798996 -0.0129854875 0.0018643549 0.0034402155
0.00056052406 -0.013198863 -0.006058875 -0.0056744367 0.0054478343 -0.006995838 -0.001997069 -0.0019404449
-0.0056006657 0.0042829677 -0.012057193 -0.0032371178 0.0076769963 0.0119172335 -0.014083414 -0.0024695944
-0.000683962 0.009980017 -0.00032038914 -0.0014841177 0.021997109 0.0031020583 -0.02042189 0.002078597
0.0014927322 0.010033487 0.0014379554 0.019876985 0.0028643198 0.00016706999 -0.009641357 -0.0038098686
-0.0070954957 -0.013289045 0.016577415 0.010553029 0.005152363 0.00016015185 -0.010533328 -0.0034251325
-0.0020863249 -0.029860059 -0.015432601 -0.0288301 -0.0028659394 0.029814947 0.026442533 -0.0049193003
-0.009847242 0.0076301205 0.0037648182 0.0031672975 -0.0076871663 -0.0034607549 -0.01857988 -0.01489812
-0.01626092 -0.004498245 -0.00019254947 0.0032383695 -0.0061765774 0.0016591577 0.011861259 -0.0028704235
-0.006691109 0.0011421166 -0.0033037986 -0.003880943 0.0073628216 0.0058867293 0.0032247093 0.0065471153
-0.003999619 -0.014412253 -0.004315794 -0.005257015 -7.2249306e-05 -0.009708635 0.0037469529 0.012670219
-0.020223496 0.011216044 -0.0026573227 -0.0010285479 0.0041694427 -0.0025357197 -0.0022140415 -0.013820598
0.005516711 0.0034741857 0.011378549 0.01368881 0.007891055 0.005386693 -0.012945187 0.0069596106
0.0022946359 -0.006948025 0.008737259 0.011580731 0.012318663 -0.0033660175 0.0031932273 -0.0077519524
0.0032406056 -0.0047940533 0.014208716 0.0027029477 -0.0008020468 0.0043149735 0.008130356 -0.0065184794
-0.031675268 -0.00064641295 0.042017043 0.05114856 -0.06580586 -0.020469228 0.020241965 0.037855323
-0.07567786 -0.01694044 0.011371295 0.060450155 -0.046512377 0.004867321 0.011060511 0.039545175
0.0053205565 0.0034825453 -0.014413732 0.0054003815 -0.00088467106 -0.00849574 -0.0048565017 -0.00057830766
0.0105177285 0.0036739707 0.0008336495 0.0071440153 0.017152159 0.006268459 0.008008809 0.009224423
-0.009823767 -0.015271517 -0.007770343 -0.0005332958 -0.00028121306 0.01479013 -0.00031417268 -0.009335227
0.0029604065 -0.0093434295 0.0029600195 -0.014277443 0.002592053 0.00019347946 -0.0014435485 -0.0065572197
-0.013191864 -0.008764338 0.010553561 -0.0005768318 0.008328269 0.0021488804 -0.0016045728 -0.0050544185
-0.0044833994 0.012226084 0.005828427 0.015144827 -0.0036275827 -0.004121872 -0.0018420026 0.0077702324
0.003630265 -0.003963661 -0.006974475 -0.005580794 0.0065989806 0.020722924 -0.0086807 0.013533599
-0.0071375794 -0.008941446 -0.0017779268 0.0022943092 0.0021919215 -0.00211882 0.0027597677 0.010542472
-0.003023504 0.0016570255 -0.0063480968 -0.002890556 -0.001960757 0.009157278 0.008613887 0.016765416
0.005438499 -0.0039176666 -0.012460011 0.00030277445 0.0009976868 0.0006316572 -0.0132455975 0.010103012
0.009947911 0.009985702 0.02073187 0.024712708 0.028796995 0.026658086 0.02629487 0.035196126
-0.011976642 -0.0048087086 0.008816355 0.020690583 -0.05919488 -0.03535248 -0.0055935024 0.011516462

fc1.bias f4 [64]
00000000: b7d3 24bc ba3e 6ebc 6b13 76bc a313 68bc
00000010: 33f8 34bc 3b23 533b 003b 10bd 4177 9bba
00000020: 1c96 80bc fa2d c83b a454 acbb d3e3 a2bb
00000030: a137 0f3c c638 92bc 4004 cabb 2afe fcba
00000040: cf4b c1bb bfd9 03bd cb5f a7bc 9f1f 16bc
00000050: 233d b03b 7391 8bbb aa1a e3bb 303c 733a
00000060: 3345 0cba 0a92 543d 18e2 8d3d 6709 83bb
00000070: dd9c 823a aa62 7f3c 1208 61bb 0de1 e33c
00000080: 2306 003c e78e 543d 17cf 133d 04ae 3aba
00000090: 8e0a b1bc f1b9 98bc b886 673d b3fd 6a3d
000000a0: 64b3 35bd 9f90 ecbb 30ec 7a3d 006a 5bbc
000000b0: dd78 60bc 0cc8 083c c07f 3a3c 858b c03b
000000c0: c7a5 523b 87c8 ccbc 4f6e 13bb 37b3 c53b
000000d0: ed3a a8b8 0213 553c 0392 90bc d7ba eabc
000000e0: df4d 843b e02b 043b 355f b7bb ed2a d4bc
000000f0: 854f c1bb efac 4abd 2b35 903c a389 d63c
-0.010060242 -0.014541322 -0.015019278 -0.014164838 -0.011045503 0.0032217044 -0.035212517 -0.0011861102
-0.015696578 0.0061089965 -0.0052591134 -0.0049710064 0.00874129 -0.017849337 -0.0061650574 -0.0019301821
-0.0058989297 -0.03219008 -0.02043142 -0.0091628125 0.005378382 -0.0042592823 -0.006930669 0.0009278683
-0.00053508877 0.051897086 0.069278896 -0.0039989236 0.0009964962 0.015587488 -0.0034337086 0.027817274
0.007813963 0.051894095 0.03608617 -0.0007121267 -0.021611478 -0.018643351 0.056524962 0.057370853
-0.044360533 -0.0072193886 0.061260402 -0.013391972 -0.013700691 0.008348476 0.011382997 0.005876007
0.0032142268 -0.024997963 -0.002249617 0.006033327 -8.02184e-05 0.01300502 -0.017647749 -0.028653545
0.0040376033 0.0020167753 -0.0055960664 -0.025899375 -0.005899372 -0.04948133 0.017603477 0.026188677

fc2.weight f4 [10, 64]
00000000: af16 a83d 6ccd 0e3d b927 103d a02a 44bc
00000010: c898 36bd 9db2 13bc d7d9 cb3d af70 233b
00000020: a5a3 013d e285 1f3d bab5 92bd 771f fe3c
00000030: 647d 29bd 57cb 8b3d 7797 263c 7f98 d73b
00000040: 9849 593d bbd2 bbbb ad3b b3bc 8234 e6bc
00000050: 8ad7 ab3b e51d 94bc ea51 fc3c 5c80 0abd
00000060: 5219 6e3c c8da 84bc b86e e03b 9313 b33c
00000070: 0d3a 27bc 4862 99bc 620e 433c a891 9c3c
00000080: 75a1 303d 8656 3ebd 252a f33c c4b1 8fbc
00000090: c83d d63b cfbf 503d a5fe 2d3c d28a 0abc
000000a0: 2b8a 4ebb 7930 0d3c d615 42bd eca5 18bd
000000b0: a020 1f3d 25c4 943c ea64 58bc 5f18 103d
000000c0: 15d2 6bbd ba84 2ebc a317 42bc 85b7 ee3c
000000d0: 7cd3 19bc a7f3 283d 58c3 e03c a338 853c
000000e0: 1b97 4fbd 42b5 ffbc 2355 423d ab73 babc
000000f0: 2d6c 793d 83e7 50bc 02e6 cf3c 52e3 d63b
00000100: c3e8 8fbd 52fe 753d 4b1b 90bc ab25 c2bc
00000110: 32b1 77bc 4401 213d fbdb ba3b 54c4 153d
00000120: f0b9 e83c a7dc 6a3d 7faf 213c 985f 88bd
00000130: ab01 a13d 976f 0dbd 70ea e43c eb53 71bb
00000140: 02ce c1bc 4564 efbc 972a 193d c46c 43bd
00000150: fffe dd3c 447d b83c 3f72 59b9 289f 0f3d
00000160: 63b0 20bc 2f62 42bd 32b7 64ba 9f8d e93c
00000170: 4380 8fbc 25bc 193d a260 16bc b31d 383d
00000180: 364c 9e3c e252 89bd 9f14 99bd 7d7f 39bd
00000190: 47c7 8c3d c538 5ebd aa07 7ebd 8534 e3bd
000001a0: 4e98 413d 3df9 5f3b 72df 50bc 100b 5e3b
000001b0: b729 2e3d 6f12 293d 9b4f e33d 976d ebbc
000001c0: 022f c3bc 530b d03c 4d87 633c 328b 84bc
000001d0: f0d1 01bc 3125 81bd 7d3a 243c 359b 1ebc
000001e0: 2b81 88bb c2d3 423d 9d13 87bc 1bde f7bb
000001f0: 6ffd 07bd 2303 f2bc 9d69 973c 2745 fbbc
00000200: 2548 093d 7d02 453c 62bc fabc 0c15 11bd
00000210: 7ee9 00bd 8892 59bd b88f cdbc 0fb0 4ebc
00000220: 14a8 4cbd f048 3dba 0f90 efbc 0868 b03c
00000230: a664 91b7 bae3 503d 4b49 fd3c 6f91 ad3c
00000240: 49ae 2b3d 1d02 5abc 4b8d f8bc b713 9f3c
00000250: c51f 90bb 6a22 683c 6ac3 fdbb b795 183d
00000260: c02b 08bc 6d0c 0f3d a7fe 823d 2a01 eabc
00000270: cd92 6ebc 1b3c 933c 97b9 07bc 5e59 c5bc
00000280: b28b 213d 2fb0 913d ff89 733d 7f4c 16bd
00000290: d707 563c 3f88 4a3c 5c2d 1d3d 50e2 203d
000002a0: 2f24 0dbd 77d4 08bd b004 4a3d 2338 bb3b
000002b0: 5866 153d ffa0 223c e7ed 99bd cbe7 7abc
000002c0: 2fe7 cfbc 7354 6dbd f518 f1bb 7798 b8bc
000002d0: 6de8 123d b2ec 17bc d038 7b3b 2b53 213d
000002e0: 4977 b6bc 957f 95bd a372 0b3d 03f2 a6bc
000002f0: f247 12bb 3bc7 c63b 2161 913c 9027 103c
00000300: a21d aabd 2076 1c3c e375 763d 035c a3bc
00000310: 93de ec3c 50e9 fd3a ff59 97bb c0cf 4e3d
00000320: cd7b df3c 8ac5 3bbd bdf5 2cbc 9d25 5f3c
00000330: fd28 1a3d edd1 c4bd 90d7 d9bb fa14 843d
00000340: 6f99 00bc 4fda 31bd 5912 b43c dadc dc3a
00000350: fdd9 3b3d 65fc cf3c 2da9 d6bc 6bf0 263d
00000360: 70e8 b3ba 80a0 253d c086 99bd eb9c 10bb
00000370: f385 96bb 5feb c53b 21db b8bd 4b7b 973c
00000380: e3e9 e0b9 4abe 243d 1bb5 643d bc7e 16bd
00000390: f071 61bd 1060 1fbd 0a2e f93c eecc 213d
000003a0: 0d32 673d 4970 88bc 5c8b 8b3a 7f32 96bc
000003b0: b138 06bd a9b9 14bc 5342 87bd 303d 4c3c
000003c0: 5ff3 04bc 4bf4 e63b 4fc4 ed3c 62c6 f9bb
000003d0: 17a6 d8bc 790b 0cbc 5389 53bc c5c9 803d
000003e0: edd6 cd3c 9993 be3c 308a f4bc 9f65 22bd
000003f0: 9c99 b83b 4352 7dbc c04c 003d 33be d23c
0.082074516 0.034863874 0.035194132 -0.011973053 -0.044579297 -0.009014753 0.09953659 0.002493899
0.031650204 0.03894604 -0.07163568 0.031020863 -0.041379347 0.06825893 0.010167948 0.0065794582
0.0530487 -0.005731908 -0.021879042 -0.02810121 0.0052442 -0.018080661 0.030800778 -0.03381382
0.014532404 -0.016217604 0.006849136 0.02185992 -0.0102067115 -0.018723622 0.011905285 0.019112423
0.043122727 -0.046469234 0.029683182 -0.01754082 0.0065381266 0.050964173 0.010619794 -0.008455949
-0.003151546 0.008617514 -0.047384106 -0.03726761 0.038849473 0.018159935 -0.013207654 0.035179492
-0.057573397 -0.010651762 -0.011846456 0.029140243 -0.009388801 0.04124799 0.027436897 0.016262358
-0.050681215 -0.03121436 0.047444474 -0.022760233 0.06089418 -0.012750509 0.025378231 0.0065578604
-0.07026818 0.060056992 -0.01759114 -0.023699602 -0.01511793 0.039307848 0.0057024932 0.036564186
0.028408974 0.057339337 0.009868502 -0.06658858 0.07861646 -0.03453025 0.02794382 -0.00368237
-0.023657802 -0.029222617 0.037394132 -0.04771115 0.02709913 0.022520669 -0.00020737293 0.035063893
-0.009807679 -0.047456916 -0.0008724808 0.028509913 -0.017517215 0.037532944 -0.0091783125 0.0449502
0.01932345 -0.06705262 -0.07474636 -0.045287598 0.06873947 -0.05425336 -0.062019028 -0.11094002
0.04726439 0.0034175657 -0.012748586 0.0033881105 0.04252025 0.041277345 0.11099168 -0.02873878
-0.023826126 0.025396025 0.013887239 -0.016179655 -0.007923588 -0.06305922 0.01002371 -0.009680559
-0.0041657886 0.04756523 -0.016488845 -0.007564319 -0.033200677 -0.029542511 0.018482978 -0.030672623
0.033516068 0.012024519 -0.030607406 -0.035420462 -0.031472676 -0.05311826 -0.025092945 -0.012615218
-0.04996498 -0.00072206464 -0.029243497 0.021533981 -1.7332215e-05 0.050998427 0.030918738 0.021187512
0.04191426 -0.013306168 -0.030340811 0.01941858 -0.0043983185 0.014168361 -0.0077442424 0.037252154
-0.008311212 0.03492396 0.06396227 -0.028565008 -0.014561367 0.017972996 -0.008283994 -0.024090465
0.039439864 0.071136825 0.059457775 -0.036694046 0.013063393 0.012361585 0.038373336 0.03927833
-0.034458335 -0.033405747 0.049320877 0.005713479 0.036474556 0.00992608 -0.075160794 -0.015314053
-0.025378792 -0.057941865 -0.0073577114 -0.022533638 0.03586619 -0.009272741 0.0038333423 0.039385956
-0.022273676 -0.07299725 0.034044873 -0.020379072 -0.0022320715 0.0060662306 0.01774651 0.008798495
-0.08306433 0.009549648 0.06017102 -0.019941336 0.028914725 0.0019371901 -0.0046188827 0.050491095
0.027280713 -0.045842685 -0.010556635 0.013619808 0.037636746 -0.09610353 -0.0066480115 0.064493135
-0.007849081 -0.043421086 0.021981405 0.0016850487 0.045862187 0.025388906 -0.026203716 0.040756624
-0.0013725888 0.040436268 -0.07496405 -0.0022066187 -0.0045936047 0.0060400213 -0.090261705 0.018491408
-0.0004289887 0.040220536 0.055836778 -0.036741957 -0.0550403 -0.03890997 0.030417461 0.039502077
0.056444217 -0.016655104 0.0010646391 -0.018334625 -0.03276891 -0.009077468 -0.06604447 0.01246576
-0.008114665 0.007048165 0.029024271 -0.007622526 -0.026446385 -0.008547657 -0.012911159 0.062884845
0.025126899 0.02326374 -0.02985105 -0.039647695 0.005633546 -0.015461507 0.031323195 0.02572546

fc2.bias f4 [10]
00000000: bd74 bbbd bf63 1e3c 0bf4 863d 78a5 6abc
00000010: 0865 733d e32d 9fbc 3b2e 153c 1d6b b0bc
00000020: b6cb 32bc 16ca 9abd
-0.091531254 0.009667336 0.06589516 -0.014321677 0.059422523 -0.01943106 0.0091052605 -0.02153545
-0.010912826 -0.07558076
