torch_to_tf/torch_models/model_round499.model (torch, 672591 bytes, 8 tensors)

conv1.weight f4 [32, 3, 3, 3]
00000000: 05a4 563d 42c9 863d f3a4 443d 358f 8e3c
00000010: 4391 85b7 0d92 e33c 4f9a 313d bbf3 153d
00000020: 07cd 0f3d 87e9 88bd 48eb dd3c dfc9 453d
00000030: e7db 433d e171 37bd 5a39 d33c 5dd0 42bc
00000040: 688d d2bd 7d0a e33d 2dca 24bd 5d66 f03a
00000050: bd39 a83c 6dba df3c 1b84 873c 43a3 593d
00000060: 633c b7bc 900e 6d3d 8cd2 0a3d a957 29bd
00000070: df3d 4bbb 7b6d 68bd 1726 93bc fb30 a13c
00000080: ad8f 9a3d c133 2bbd ef4f 093d 690a 9cbb
00000090: 4e16 ba3d b525 143e e6fb c9bc 13f1 f0bc
000000a0: 1355 b7bc ce53 2abd 828a acbc c52a f1bc
000000b0: 1f36 b8bc 2bff aa3d 6782 863d 6525 873d
000000c0: 80a1 22bd 71c6 cbbd dfc8 7f3c adc8 7c3d
000000d0: 66f4 bbbd e7dd a2bd 8a5d 8abd 20dc b4bb
000000e0: 1f25 21bd fd06 fc3c 6edd 3fbd 5c93 813c
000000f0: 794a bfbc 2732 413d 5526 c53c 89d6 9fbd
00000100: 60f3 e7ba d7e1 0d3d b8ac 923c a18c 3dbd
00000110: d79e 3fbc ede7 b0bd cccb 06bd 49a6 c93d
00000120: dacc 4cbc 56b4 04bc f7ba 053d 754b 6cbd
00000130: 2d37 2c3b af8d 173d 22f5 7c3d 3a8d 773c
00000140: a59c df3c 97c7 2e3c dac5 c33c c0a4 37bd
00000150: 2231 b8bd f6d0 1f3d 9fa6 4ebb 1868 e23d
00000160: b61f 363d 7bb8 7e3c 8322 033c 178d 5abc
00000170: 72e9 28bb 7032 573c 8f85 2e3d f068 a23c
00000180: 9b64 a63d e19a af3c 6b33 023d 3fd5 f43b
00000190: 8d04 253d fad0 0ebc 8001 aabc 9b55 81bd
000001a0: a398 5e3b 92e5 a53b 5769 a83c ef8f 493a
000001b0: 0f06 433d c73d cdbd 5a48 f4b7 0c20 a1bd
000001c0: d8b8 7dbb b58f 65bd 2f00 bebd 3510 3d3d
000001d0: 8ad8 aa3c d9db 80bb 630e e2bc 9a9e cd3d
000001e0: 1589 e5bc 734d d7bc cbf6 69bb c06f 1bbd
000001f0: 8b3d ca3c 4d87 5e3c 4736 fc3c 5bc5 bd3c
00000200: 9304 633d a3ef 69ba 3b29 373c e1e5 a43c
00000210: bdd7 91bc 9dfd c63d 9a83 3b3d 4785 f63c
00000220: cd83 8c3d f5ae f83d 70d8 5b39 282c 67bd
00000230: 2dff d43d f95a 3d3b 1f68 263c e725 0abc
00000240: 1d9f 92bc c55d 39bd cd25 f5bc d55b ca3b
00000250: 6308 353d e349 ecbc f6a7 b73b 08fd 9c3d
00000260: ddcc 153c 23d7 f6bb 28b0 53bd 856b d6bd
00000270: 4430 44bc c85a bc3c 3e87 b7bd d67b 38bd
00000280: eadb 9cbc 72ff b1bd d3a4 d73c a35e b53d
00000290: 37dc c8bb 7b6e 0f3d b98d bc3c cff5 803b
000002a0: 67c4 31bd 28f1 363d c27a abbc eb78 5e3d
000002b0: 3d52 183d 98b5 ee3d 63aa 0bbe 13e0 1ebd
000002c0: fd17 b2bd e3fe 883c 0157 813c ddfc 1b3c
000002d0: aab4 13bd 607b d33c 2f81 0e3d 2d4b a0bd
000002e0: 0046 89bd 8fc2 f9bc f09f 0a3d 4888 8bbd
000002f0: 4f31 843b 5a42 103c c397 863c 7d52 9bbc
00000300: f025 c1bd facc 66bc 1b30 473d d009 7c3d
00000310: 13dc 7abb 030c 6c3c 4947 883d a416 c23b
00000320: a7cc 0cbc d0b1 65ba 8ff0 083c d346 203d
00000330: e3f2 0e3e 77c1 d83d 6fa0 1abd 4dae a6bd
00000340: 4ac1 34bd 9dec 4ebd deae 3abd 4b5f f9bd
00000350: ed6a ce3c 9a0e 693d ed24 3cbd 9558 33bd
00000360: 38c9 9cbd 903c 9bbb 2d5c 41bd 8f59 9e3c
00000370: 14d4 1c3d 0b72 08bd 0a1e 023e 57c1 2cbd
00000380: 0263 2ebd da08 c1bd 6365 273d 3b01 27ba
00000390: d61e 94bc 5e78 823d 9fb1 153d 3022 92bd
000003a0: 94c3 163d c93e aebd bb36 e03c 83db 753c
000003b0: 300b 753c 85fd 4d3d 71e3 8dbc eafb 83bc
000003c0: 8bd0 1f3d b2e2 b73d f758 ce3c 80e3 3abc
000003d0: 4282 65bd 062d 2d3c c23a f0bc f2b9 dcbd
000003e0: 62a8 963d 248b 9b3c e7ba 563d cd6d 19bd
000003f0: 8bb5 2b3b 871d 8a3c ba9b 05bd c573 46bd
0.052402515 0.06581356 0.04800887 0.01740227 -1.5922478e-05 0.027779603 0.04336005 0.036609393
0.03510764 -0.06685167 0.02708973 0.048288222 0.047817137 -0.044786338 0.025784183 -0.011890498
-0.10280877 0.11085985 -0.040231872 0.0018341054 0.020535344 0.027310574 0.016542485 0.053134214
-0.022367662 0.057875216 0.0338922 -0.041343365 -0.003101222 -0.056745034 -0.017962499 0.019676676
0.07546935 -0.041797403 0.033523496 -0.004761983 0.090862855 0.14467509 -0.024656247 -0.029411828
-0.022379434 -0.04158383 -0.02106214 -0.02943934 -0.022486744 0.08349451 0.06567841 0.06598929
-0.0397048 -0.09949959 0.015611856 0.061714817 -0.09177475 -0.07952481 -0.067561224 -0.005519405
-0.039342042 0.030765051 -0.04684203 0.015817337 -0.023350941 0.04716697 0.02406613 -0.07804591
-0.0017696433 0.034639206 0.017904624 -0.046276692 -0.011695585 -0.08637986 -0.0329092 0.098461695
-0.012500012 -0.008099636 0.032649007 -0.05768915 0.0026278005 0.037000354 0.061757214 0.015109355
0.027296374 0.010667703 0.023898054 -0.044834852 -0.08993746 0.03901764 -0.003153242 0.110550106
0.044463836 0.015546913 0.008003834 -0.0133393025 -0.002577391 0.013134584 0.04260784 0.019825429
0.08124658 0.021436157 0.031787317 0.00747171 0.040287543 -0.008716816 -0.020752668 -0.06315156
0.003396549 0.0050627673 0.020558042 0.0007688989 0.0476132 -0.10021549 -2.9120758e-05 -0.078674406
-0.0038714912 -0.056045253 -0.09277379 0.046158034 0.020855207 -0.003932458 -0.02759475 0.100400165
-0.028019467 -0.026282048 -0.0035700079 -0.03794837 0.02468755 0.013582063 0.0307876 0.023165395
0.055424284 -0.0008923953 0.011179264 0.020129146 -0.017803067 0.09716342 0.045779802 0.030092848
0.068610765 0.121427454 0.00020966097 -0.056438595 0.104002334 0.0028893335 0.01015666 -0.008431888
-0.017898137 -0.04525544 -0.029925251 0.006175498 0.04419745 -0.028843826 0.0056047393 0.076654494
0.0091430815 -0.0075329705 -0.051681668 -0.104697265 -0.011974398 0.022992507 -0.08961342 -0.045039974
-0.019147832 -0.086913005 0.026323711 0.08855941 -0.0061297673 0.03501747 0.023016797 0.0039355527
-0.043400194 0.04466358 -0.020932559 0.054314535 0.037187804 0.1165573 -0.13639216 -0.038787913
-0.08695982 0.016723102 0.015788557 0.0095207365 -0.036060967 0.025815666 0.034791168 -0.07826839
-0.067028046 -0.03048828 0.033843935 -0.06813103 0.0040341984 0.008804882 0.016429788 -0.018960232
-0.09431064 -0.014086956 0.04862986 0.061532795 -0.0038278147 0.014407161 0.066542216 0.005923109
-0.008593715 -0.0008762153 0.008358135 0.039130043 0.13959841 0.105837755 -0.037750658 -0.08138714
-0.044129647 -0.05051862 -0.045576923 -0.12176379 0.02519747 0.05689869 -0.045933653 -0.04378565
-0.07655567 -0.004737444 -0.047207046 0.019329814 0.03828819 -0.033311885 0.12706771 -0.04217657
-0.04257489 -0.094255164 0.040868174 -0.0006370728 -0.01808111 0.063706145 0.036546346 -0.07135427
0.03680761 -0.08508069 0.027369848 0.015005949 0.014956281 0.050290603 -0.017320367 -0.016111333
0.03901724 0.089787856 0.025188906 -0.011406779 -0.056032427 0.010569816 -0.029324893 -0.10777654
0.07356335 0.018987246 0.052424338 -0.03745823 0.0026200737 0.016859783 -0.032619216 -0.04845025

conv1.bias f4 [32]
00000000: 626f 8fbc 12b2 b1bd a3d3 513d 1aa5 643d
00000010: 5965 c9bd 6733 b6bd 2a38 c1bd 4a57 943d
00000020: 7e92 903c 6aea 173e 65c6 03bd 43d7 813c
00000030: b066 bb3c 1743 b53d cfb0 c03d 8a16 d23d
00000040: f3cb 7fbd c405 103d 7f51 ed3c 67ef 2c3d
00000050: 4f73 fb3b 723d 0a3d 2242 99bd 8f0a 46bd
00000060: 270b b6bd 2278 073c 10ce c3bc ce78 a03c
00000070: 5f7e 8fbd 6acd a9bc 4ec2 ac3c d47b ca3d
-0.017509166 -0.08676542 0.051227223 0.055821516 -0.09833784 -0.08896523 -0.094345406 0.072432116
0.017647978 0.14835516 -0.032171626 0.015849715 0.022876114 0.08850687 0.094087236 0.10258205
-0.06245036 0.03516175 0.028969524 0.0422205 0.007673658 0.033750005 -0.07483317 -0.048349913
-0.08888846 0.008268388 -0.02390197 0.019588854 -0.07006525 -0.020727832 0.021088745 0.098868996

conv2.weight f4 [64, 32, 3, 3]
00000000: 5098 b73c ba12 3f3c f7e0 693c ca84 cabc
00000010: 7a94 acbc a011 82bc 03b1 c9bc 7f24 a8bc
00000020: 8f85 dcbc b2f8 e2bb bc75 44bc 87bd 4a3c
00000030: 471b 19bd 327e a6bc 5322 c13b f4de a0bc
00000040: 43f2 c0ba 0fba ee3b 4711 c1bc f777 bebc
00000050: e919 ccbb 6b75 04bc 2bd8 2ebd b2c3 bebc
00000060: f890 67bc 7f89 9dbc 277a 693c 2ae5 f9bc
00000070: b5fd 8a3c b535 81bc 17af 1abb f3f2 1fbd
00000080: 5a80 5d3c 33c7 3abd 17e0 ccbc 23b2 683b
00000090: 205c 58bc 00cd cebc 30d9 c3bb 1f76 93bb
000000a0: cd3a b9bc 070f 79bb b5d9 5bbc b5f7 5a3a
000000b0: 4035 e6ba c47a 08bd 4b60 033c 8f05 eebc
000000c0: e912 aebb da2a d63b 8545 843c 90de a1bc
000000d0: 3f4a a03c fdd2 6cbb df21 cfbc 38ef dbba
000000e0: 792a b1bc d223 07bd 3712 593c e84c 0dbc
000000f0: 905e f4bb e5cd c4b9 6312 503b b7d2 98bc
00000100: 305a a13c 3727 023c 2a0d 90bc 537a 68bb
00000110: 43ac cc3b 371f 7fbc 553b 9cbc 075b dc39
00000120: 63f5 b03c a51b cfbb 046f 8bbc 9792 5a3c
00000130: c823 4fbc a3a0 5cbc 9f68 8ebc fb6f 863b
00000140: 08cf 54bc b7a9 aabc 826d d6bc 4a6b 1e3c
00000150: 82f4 303c 07c9 5f3c 301a 34bc 8a45 96bc
00000160: f07c 19bc adb6 a3bc abcb 87bc c40c 42bc
00000170: 9941 9f3c ea7c 6e3c 35c9 2bbc 1911 bcbb
00000180: 4739 20ba ca25 26bc 1bd1 72bc 23b8 19bc
00000190: e0b8 f2ba 476c a4bb e5fc 25bd 806c 00bd
000001a0: a7fa a8bc 0c14 10bd 1d16 4fba d9ce c3bc
000001b0: ca38 413c 7780 9e3b ad30 53bb e327 6fbc
000001c0: fd5a 18bc 1dd3 24bc a9a6 8f3c 0af2 7fbb
000001d0: 2d90 b9bc fbe6 103c 1f8f 90bb a369 57bc
000001e0: fdff d1bc 40d9 a2bc 2fac 9ebc 4f80 2dbd
000001f0: 8078 41bc 330b 60bc eaa3 eebc 95c0 3dbc
00000200: 078b f1ba c0b7 b3bb 837b 4ebc e34b 243c
00000210: 7b5d 15bd 8fa2 37bb 6dc4 cf3b c051 14bd
00000220: c978 043b dc96 be3b bbad 0bbc 2b56 05bd
00000230: 1ace 843a 95f1 34bc efc7 243c 2ac8 973c
00000240: 33b9 f7bb 0026 15bb 79d6 8ebc 1254 bd3c
00000250: 2b94 08bc 7d48 7d3a 0bdb 3f3c 6349 fbbc
00000260: a0b5 5dbc efcb 0ebc 4790 7cbb 7542 85bc
00000270: 6879 15bc 9d60 09bc 943a 19bb 7f9b dfbb
00000280: 5809 fabc e4d7 b5bb 9b5f 2bbc 9860 e3bb
00000290: 3a21 a4bc efaf 2dbb fa60 e53b 74d3 203c
000002a0: 6015 73bc fd7c 5ebc 0a59 e13a c800 e0bb
000002b0: f028 3fbc 9276 973a a5af f3bb bf3c 943c
000002c0: a7df 813c 6d60 f6bb 73af 7abc 80ec 64ba
000002d0: fb01 f9bc 4159 323c df46 f73a 1850 c8bb
000002e0: 2f45 e6bc d8ff 4dbc c783 dabc 4b90 943b
000002f0: a34c 0abc 2d05 b7bc 136f 373c 5ddf 47bc
00000300: 25e8 efbc 70f2 7fbc 8f7b b0bc 70bf d3bc
00000310: 3328 1a3c 9bee 82bc 5104 b4bc b0b6 5cb9
00000320: 73e8 52bc 37fe 343c a400 acbc 72b1 d93b
00000330: 2b38 5abc 506b e4bc 42ee 7f3c c7a5 b63b
00000340: 8b00 473c 42ee 80bb b705 5dbc b275 d73c
00000350: 9927 2e3a c253 8dbc 726e 13bc e56c 14bd
00000360: d05b 9ebb d7a6 e7bc 5801 c23a 2941 113c
00000370: 0f51 e1bb 33f0 2b3c 3075 7abc 15cb 50bc
00000380: 3454 ac3b 872b bdbb bf93 d3bc c757 2e3c
00000390: 7b8b 11bc 4b0f 4ebc cdf5 993c 5b64 8dbc
000003a0: c7f4 d2bb d716 b53c a755 72bc 3a01 a9bc
000003b0: 49c8 043c 37b8 263c eb73 1d3c cf26 aabc
000003c0: 3b8b b8bc 9f5c 10bc ddc2 d4bc 9f9f 31bc
000003d0: 51e0 1ebc 556d 15bd 877c 99bc 19c1 94bc
000003e0: 659d a3bb 2d1a 66bc 08bc 1dbc ff80 55bc
000003f0: 79bb 87ba 27c3 c83b 0f23 a6bb f810 0bbc
0.022411495 0.01166218 0.014274827 -0.024721522 -0.021066893 -0.015877545 -0.024620539 -0.020525215
-0.026919154 -0.0069266194 -0.011990961 0.012374288 -0.03737953 -0.020323846 0.0058939843 -0.019637562
-0.0014720637 0.0072853635 -0.023567809 -0.023250563 -0.0062286747 -0.008084635 -0.042686623 -0.023286674
-0.014133684 -0.019230602 0.014250315 -0.030504782 0.01696668 -0.01577268 -0.0023602897 -0.039050054
0.013519371 -0.045600127 -0.025009198 0.0035506568 -0.013205558 -0.025244236 -0.0059768185 -0.004500165
-0.022611046 -0.0038003342 -0.013418605 0.0008352951 -0.0017563477 -0.033320203 0.0080185635 -0.029055385
-0.005312313 0.00653587 0.01614643 -0.019759446 0.019566653 -0.00361365 -0.025284706 -0.0016779667
-0.021626698 -0.032993145 0.013248972 -0.008624293 -0.007457562 -0.00037537437 0.003174924 -0.018655164
0.019696325 0.00794392 -0.017584402 -0.0035473302 0.006246121 -0.015571407 -0.01907126 0.0004202949
0.021601385 -0.006320434 -0.01702071 0.013340614 -0.012642808 -0.013466033 -0.017383872 0.0041027046
-0.012988813 -0.02083288 -0.026175264 0.009669134 0.010800483 0.0136587685 -0.010992572 -0.018343706
-0.009368166 -0.019984568 -0.016576609 -0.011843864 0.01944046 0.014556149 -0.010484983 -0.005739343
-0.00061120506 -0.010140846 -0.014820362 -0.0093822805 -0.0018518232 -0.0050177905 -0.040524382 -0.031353474
-0.020627333 -0.03517537 -0.00078997185 -0.023902344 0.011793325 0.0048370915 -0.0032225058 -0.014596912
-0.009299037 -0.010060099 0.017535524 -0.0039054179 -0.022651756 0.008844133 -0.0044115926 -0.013147744
-0.02563476 -0.019878983 -0.019369213 -0.042358693 -0.011808515 -0.013674545 -0.029130895 -0.01158156
-0.0018428274 -0.005484551 -0.01260269 0.010027858 -0.036466103 -0.0028020476 0.0063405544 -0.036210775
0.0020213595 0.0058163237 -0.008525307 -0.03255288 0.0010132224 -0.011043926 0.0100574335 0.018528063
-0.0075599193 -0.0022758245 -0.017436253 0.023111377 -0.008336107 0.00096619857 0.011709939 -0.030674642
-0.013532072 -0.008715614 -0.0038538144 -0.01626704 -0.009123184 -0.008384851 -0.0023380863 -0.0068239565
-0.030522034 -0.005549418 -0.010459806 -0.006939005 -0.020035375 -0.002650257 0.007000086 0.009816039
-0.014836639 -0.013579604 0.0017192673 -0.0068360306 -0.011667475 0.0011555722 -0.00743671 0.018095372
0.015853716 -0.007518819 -0.015300619 -0.0008732751 -0.030396452 0.010885538 0.0018865726 -0.0061130635
-0.028109161 -0.012573205 -0.026674164 0.0045338026 -0.008441123 -0.022341335 0.011195916 -0.01219925
-0.0292855 -0.015621766 -0.021543292 -0.02584812 0.009408998 -0.015982917 -0.021974714 -0.00021048891
-0.012872803 0.011046938 -0.0209964 0.0066434676 -0.013319056 -0.027883202 0.01562077 0.0055739614
0.012146126 -0.0039346525 -0.013490132 0.026301239 0.0006643474 -0.017251853 -0.0089985 -0.036236662
-0.0048327222 -0.028277798 0.0014801426 0.008865633 -0.006876118 0.01049428 -0.015286729 -0.012743731
0.005259061 -0.005773011 -0.025827287 0.010641045 -0.008883352 -0.012576888 0.018793965 -0.017259767
-0.006437871 0.022105617 -0.014790929 -0.020630468 0.008104392 0.010175756 0.0096101565 -0.020770459
-0.022527328 -0.008811145 -0.025971824 -0.010841279 -0.009697036 -0.03648122 -0.018736137 -0.018158482
-0.004993128 -0.014044327 -0.00962735 -0.013031243 -0.0010355554 0.0061267796 -0.0050700973 -0.008487932

conv2.bias f4 [64]
00000000: c3c3 22bc e2cb a8bc 87dd 813d 48a4 abbc
00000010: f7a9 18bb 6910 a6bb 1e71 81bd 16d2 053d
00000020: 169a 8ebb 35f0 c7bb c086 74bc 87ee 34bd
00000030: 5202 1bbd 8fb1 0ebc 3b45 54bd 6d29 4d3c
00000040: 75ea dd3b a865 c13c 6fd3 853c c403 0c3c
00000050: a4af 1f3b 2d5b 93b9 e231 86bc 5339 a33b
00000060: 3f58 f1bc a3ba 4fbc afe7 f3bc 2d12 c93c
00000070: d8e4 f8bc aba2 953c 983b 8abc 98c5 a7bc
00000080: 68fa 653d a5ad a4b8 03e8 e2bc 7f85 9bbc
00000090: 5d25 c7bc 2d44 70bc 4286 843d eb8c 3abd
000000a0: 0dc1 d0bc 75fc 23bc 7f93 973d e83b 473c
000000b0: 5c96 23bc f12f aabb e8d4 2fbc 6f32 b53c
000000c0: 25c1 943c 4f79 a4bb 454c 4dbd 18ea 95ba
000000d0: 2d84 47bc 4f02 81bb 8bc6 75bc d9a1 3b3b
000000e0: 3daf ad3c d740 313c 983b 90bc 37ea 553b
000000f0: cae4 d13a c442 bbbc b7b0 213c fa91 d73b
-0.009934369 -0.020605031 0.06341081 -0.020952359 -0.0023294666 -0.005067874 -0.063204035 0.032671057
-0.0043518646 -0.006101633 -0.014924705 -0.04417279 -0.03784401 -0.008709325 -0.051823836 0.012522084
0.006772334 0.023608044 0.016336171 0.00854582 0.0024366165 -0.00028105956 -0.016381208 0.004981199
-0.029461024 -0.012678775 -0.029773561 0.0245448 -0.030382559 0.018266043 -0.01687412 -0.020479962
0.05614701 -7.852473e-05 -0.027698522 -0.018984554 -0.024309808 -0.014664692 0.0647092 -0.045544546
-0.025482679 -0.010008921 0.074011795 0.012160279 -0.009984579 -0.0051937033 -0.010731913 0.022118775
0.018158505 -0.005019344 -0.050121564 -0.0011437563 -0.012177509 -0.003937043 -0.01500095 0.0028630404
0.021201724 0.010818682 -0.017606542 0.0032640824 0.0016013619 -0.022858985 0.009868792 0.006578681

fc1.weight f4 [64, 2304]
00000000: 5b87 93bb d320 8ebc c3a4 2fbc eb65 46b9
00000010: 63b2 9aba ffce 64bc e08f 7ebc d8b4 093c
00000020: 08be 5dbc e279 9c3b d016 10bc c043 d8bb
00000030: 4280 2cbc fb24 a3bb 021f 71b9 4f02 febb
00000040: 0f4f 84bb edd6 2b3b 1889 92bb 5c93 30bb
00000050: 80fb 11bb da05 0639 6747 61bb 2ff9 8fbb
00000060: f2c1 a73b 5f5d 58bc 9bd0 2638 6f7a 7abb
00000070: 4a0c ddba 4804 0cbc e377 93bb 4437 27bc
00000080: ef80 393b 4aa2 95bb d13c 943b 15e9 49bc
00000090: 268f 1c3d f99c 1d3d 6b16 0c3d f9fe a1bc
000000a0: 324a c4bc 33a4 2abd e766 323d ea41 ec3c
000000b0: 4367 34bb 2869 e6bc bf71 30bc 44a4 21bd
000000c0: df1c 303d 6b4e abbb 5705 dabc 07bf 29bd
000000d0: e2b4 d0bc f3a5 2dbd fec1 ae3c f633 1bba
000000e0: aa4c 84bc 0c82 45bd 7720 e0bc d0fd 51bc
000000f0: 5310 7a3c e97b 3fbc 2868 9bbc 45b6 57bd
00000100: 53e3 03bb 69d8 08bc 2be8 15bb 4522 b0bb
00000110: 37e3 19b9 ef2f b0b9 0d4f ddbb 509c 8ebc
00000120: 05a4 fa3c 02a6 f33c 7f14 2d3d da8f 2b3c
00000130: 8402 233d c8cc 873d d3e5 47bb 4a11 6abc
00000140: fec2 34bc 6acc 64bc 2095 b537 03bd 3d3d
00000150: 57c6 94bc 3329 b1bb 68d6 61bc 6dfe 793b
00000160: f048 d5bb e7ca 7d3d 9fa7 03bc 609c 9dbc
00000170: fa10 9fbc a7bd 60bc eb98 27bc 4e09 083d
00000180: 15f2 07bc d066 eabb 099d a4ba b371 90bb
00000190: ebcd 82bb bf23 38bc 40d8 f5bb 25db 41bc
000001a0: 11bd 38bb 483b 733b 4b51 853c 584c b83b
000001b0: f4d7 48bb 27e5 e9bb 90ad 24bc c3cd c2bb
000001c0: fb8e a0bb 9d09 aeba 85c7 5fbc 82bb 5fbb
000001d0: 1558 07bc 47b1 98bb 83c1 1ebc e502 0c3b
000001e0: 8791 27bc bdf6 40bb f79c 943b 5fce 1839
000001f0: 2bba 87bb 2f1c a4bb adf3 0fbc 5ba4 a8bb
00000200: d469 0bbc 57ba 8abb ff4d a9bb f393 203a
00000210: 531e b3bb e398 c33a e74a 68bb e366 0cbc
00000220: 97d8 b93a 0fe3 7a3a ca04 82ba 1085 7ebb
00000230: e5c6 65bb 2589 03bb 2762 62bb 97b3 44bb
00000240: 82b8 caba 3b41 59bc 6870 9dbb 4886 003a
00000250: f590 a6ba 30be 6fbb 3b2e a13a a555 76bb
00000260: b5f2 b239 dc2b 3cbb afa4 e33a a7ff 9cbb
00000270: 98ab e1bb b8a2 443a f520 91ba d72c 88bb
00000280: 1a4a bcba f23e 623a 3547 67bb abcb 39bc
00000290: 43ac edb8 4347 42bb 8fcb 263b 0fdc ac3b
000002a0: 50c2 0dbb 5b3e d8bb 236b cfbb 3b78 ab3b
000002b0: d231 47bc 772a 3bbc 0bf8 8fba fdf0 84bc
000002c0: 8d0d 5a39 13dd f8bb 475a 273b 43b9 0f3b
000002d0: 97e4 cabb 978d e8bc 6e6e 1f3c b3e0 7dbc
000002e0: 3b27 94bc bfc6 cabc 328d 143c e3ff ef3c
000002f0: 53da 8bbb 07f1 ad3b f940 10bc d42c b9bc
00000300: 6a62 063d f64e 44bc d327 253b f78c 2bbd
00000310: 920c 0cbd 430e edbc 3053 ac3c f371 21bd
00000320: 6b15 0fbd dbee 30bd 4fcd a7bb 4b6a 92bc
00000330: 2330 373c 6a1a 793b cbc0 c4bc 5751 00bd
00000340: 5a61 55bc d962 92bb 30c0 4abc 3b5d 833c
00000350: 383a f7bb f3e0 cf3c 070f 56bc ed7d b2bc
00000360: 9b60 c93b e77e 05bd 3bd6 c8bc 28ef d5bc
00000370: 517b 8cbc e38d 41bc 0bd1 0a3c 02d4 81bb
00000380: 3f7c 06bd 9cf5 30bb 6fed 41bc 8a90 ee3c
00000390: 4e5d bc3c afa2 0d3c ef35 0d3b 0a9a cbba
000003a0: ff1f aa3c b769 f43c ddf4 d23c 7d6e 063d
000003b0: 5aee 09ba d7f8 adbb fba7 1c3d 63c0 7b3d
000003c0: d7cd 273c 4778 d43c 1094 483c 1fcb cd3b
000003d0: 6a51 b93c d234 883c 9bec 84ba 03ff 403c
000003e0: cfb0 7bbc 1915 89bc 775a e739 a2ad e0bb
000003f0: f78a 1c3d f8f8 4a3c 5fe4 193d 179c 513d
-0.0045022196 -0.017349636 -0.010720435 -0.00018920719 -0.0011802431 -0.013965367 -0.015537232 0.008404933
-0.0135340765 0.0047752718 -0.008794501 -0.0065998733 -0.010528626 -0.0049787736 -0.00022995102 -0.00775174
-0.004037745 0.0026220635 -0.0044719093 -0.0026943302 -0.002227515 0.00012781416 -0.0034374835 -0.0043937187
0.0051195556 -0.013205855 3.9771763e-05 -0.0038219949 -0.0016864624 -0.008545943 -0.0045003756 -0.010206047
0.002830561 -0.0045664655 0.0045238514 -0.0123236375 0.038222454 0.03847978 0.034201067 -0.0197749
-0.02396116 -0.0416605 0.043555167 0.028840024 -0.002752737 -0.028126314 -0.010769307 -0.039463297
0.042996284 -0.005227854 -0.026613874 -0.041441943 -0.025476877 -0.04239459 0.021332737 -0.00059205235
-0.016149838 -0.048219725 -0.02735923 -0.012816861 0.015262681 -0.011687257 -0.018970564 -0.05266406
-0.002012451 -0.008352377 -0.0022873979 -0.005375179 -0.00014675861 -0.0003360505 -0.0067538084 -0.01740852
0.030595789 0.029742245 0.042255875 0.010471309 0.03979732 0.06630856 -0.0030501976 -0.014286349
-0.011032818 -0.013964752 2.1646323e-05 0.046322834 -0.018160982 -0.0054065227 -0.013784029 0.0038146034
-0.006508939 0.06196108 -0.008035569 -0.019239604 -0.019417275 -0.013717092 -0.01022933 0.033212
-0.008297463 -0.0071533695 -0.0012559007 -0.0044080853 -0.0039918325 -0.011238991 -0.0075025856 -0.011832033
-0.0028188864 0.0037114192 0.016274115 0.0056243353 -0.0030646296 -0.007137913 -0.010051146 -0.005944939
-0.004899857 -0.0013278011 -0.013658409 -0.0034138863 -0.0082607465 -0.004659805 -0.0096896915 0.002136403
-0.0102275675 -0.0029443942 0.004535313 0.00014572729 -0.004142066 -0.0050082426 -0.008786124 -0.005146546
-0.008509118 -0.004233639 -0.0051667686 0.0006125562 -0.0054662614 0.0014922883 -0.0035445036 -0.008569452
0.0014178929 0.00095705775 -0.000991964 -0.0038836636 -0.0035061177 -0.0020070758 -0.0034543367 -0.003001427
-0.0015466365 -0.013260181 -0.0048046596 0.0004902822 -0.0012707995 -0.0036581866 0.0012297103 -0.003758767
0.00034131636 -0.0028712666 0.0017367805 -0.0047912183 -0.0068869106 0.00075010536 -0.0011072444 -0.004155736
-0.0014365346 0.00086305954 -0.0035290245 -0.011340062 -0.00011333127 -0.0029644526 0.002545092 0.0052752565
-0.0021630712 -0.00659923 -0.0063299104 0.0052328384 -0.012157874 -0.011423699 -0.0010983957 -0.016228193
0.00020795148 -0.0075947135 0.0025535987 0.0021930493 -0.006191801 -0.028387828 0.009730918 -0.015495467
-0.018085113 -0.024752973 0.009066867 0.029296821 -0.0042679696 0.0053082737 -0.008804553 -0.022604384
0.0328087 -0.011981716 0.002520074 -0.04188248 -0.034191675 -0.028937465 0.02103576 -0.03941531
-0.034932535 -0.04319654 -0.0051209102 -0.01787295 0.01118091 0.0038010129 -0.024017712 -0.03132757
-0.013023699 -0.00446735 -0.012374923 0.016035667 -0.007544782 0.025375819 -0.013065106 -0.021788562
0.0061455495 -0.032591727 -0.024516216 -0.026115015 -0.017148646 -0.011813614 0.008472691 -0.003962041
-0.032833334 -0.0027001863 -0.011836394 0.029121656 0.02299371 0.008644744 0.002154704 -0.0015533578
0.02076721 0.029835565 0.025751526 0.032820214 -0.00052616524 -0.005309205 0.038246136 0.06146277
0.010241947 0.025936259 0.012242332 0.0062803174 0.022621829 0.01662675 -0.0010141315 0.0117795495
-0.015361979 -0.016733693 0.00044127155 -0.006856636 0.038218465 0.01238846 0.037571307 0.05117425

fc1.bias f4 [64]
00000000: e41c 123c ed60 edba a483 22ba c763 1d3d
00000010: a7dd 83bb d78e ddba 2b9d 023c 2836 00bc
00000020: bf85 073d 5d6c 8d3b 781b 9db9 286d 633c
00000030: fa92 b13b 24aa 3fbd 3f46 5fbc 8731 96bb
00000040: 3b6d 96bb eac3 ee3b 256c 68bc 5710 c33c
00000050: 108a d6bb 1f45 55bc 7899 1cbc 1ff5 e13c
00000060: 0a3a 043c 3b97 143d 3c8f 873d 7794 acb9
00000070: 4cd0 8b3b f721 b6ba 57e0 82ba bf04 97bb
00000080: b733 ac3c 733a 03bd 7340 7c3d 0a3a 04bb
00000090: ddef 57bd c2a1 ffbc 2f24 0dbc 25a4 5ebc
000000a0: 0784 153b b76b c0bb 6826 8f3c bc9b 39bc
000000b0: 520b 18bc dfb5 e83c 9211 65bc 9be0 2a3a
000000c0: f562 ac3a e8d5 3ebc 0fa7 a53b 1b03 21bc
000000d0: 6d5a 5a3a 8247 a23c ddda 97b9 1068 e43c
000000e0: 1862 c1bb d0d2 953b 6715 0f3b 2cfe 12bb
000000f0: a02f eabb 92d2 cf3a 6a5b aeb9 407c 29bb
0.008918021 -0.0018110551 -0.00061994256 0.038425233 -0.0040242258 -0.0016903532 0.007972042 -0.007825412
0.033086535 0.0043158964 -0.0002996584 0.013881005 0.0054191323 -0.046793118 -0.013627588 -0.004583541
-0.004590658 0.0072865384 -0.01418594 0.023811502 -0.00654722 -0.013016968 -0.009558074 0.027582703
0.008070478 0.036277037 0.06619117 -0.0003291701 0.0042667743 -0.001389562 -0.0009985071 -0.00460872
0.021020753 -0.032038163 0.0615849 -0.0020176196 -0.052718986 -0.031205062 -0.008614584 -0.01358894
0.002281429 -0.0058722156 0.017474368 -0.011328634 -0.009280043 0.028407035 -0.01398124 0.0006518454
0.001315205 -0.011647679 0.0050553153 -0.009827401 0.00083295145 0.019809488 -0.0002896403 0.027881652
-0.0059015863 0.00457225 0.0021832825 -0.002242933 -0.0071467906 0.0015855602 -0.00033255975 -0.0025861412

fc2.weight f4 [10, 64]
00000000: 2248 633d 34b5 a1bc 6266 91bc 6fa6 8cbc
00000010: b460 aa3c 5fcc 2fbd cafc 203c a828 443d
00000020: 961a 903c d0b7 df39 a903 8d3c c7c4 a2bd
00000030: 9ae0 4cbd 0d2f 7d3d c227 c13c 65dd bf3a
00000040: 6d05 c0bc e120 bb3c 2ff6 c2bc 9ac1 60bc
00000050: 029c 173c 62fc 40bd 34c1 80bc 4810 54bd
00000060: ecaf 3f3c b1f3 46bd f890 513d c076 aabc
00000070: 8748 383d b1e4 453d df17 4dbd d516 0fbd
00000080: 6dc2 c63c 6bb7 a43d 5a90 d2bb d7b1 16bd
00000090: 9753 883d a74f 13bd 5bba abbc 93a9 27bd
000000a0: 385b 7dbc b505 983c 2ace 553d df77 803d
000000b0: df62 b6bc 7fa7 21bc c341 e0bc afc5 18bd
000000c0: 3b3d 183d a31c 253d 1337 39bd 6b4e 973b
000000d0: 274a 983b 2f2e febd 5482 21bb 91f6 2c3d
000000e0: 2d0b 153c 2781 073d 97d2 edbc 1a6b 9c3c
000000f0: 8255 483c 2d1d 08bd 302c 53bc 8066 42bc
00000100: 422f bb3c e798 34bd 5fff 253c 707a 4cbd
00000110: e8b3 42bb dfcc 14bc 508f 753c c782 77bc
00000120: 2fe5 f1bc c587 b93a dbe8 533c 53b1 023d
00000130: db09 e23b ff33 9a3c 50ea e3bb 7d88 a63c
00000140: 4218 a03c af14 51bd bbef 5bbc 47a6 81bd
00000150: f787 1b3d 54e4 87bc 3f60 133c 2e7c a13b
00000160: 3383 233c 5731 78bd 9f24 4c3c 1d12 efba
00000170: 8794 d2bc a0ee d73c 827a 42bd e238 613c
00000180: bb7f 97bd b0dc 833c 7749 89bd 9aea 4fbd
00000190: e193 853d b2e2 553d e292 193b 63ed cd3a
000001a0: 9a64 6ebd 24b5 36bc bdfd 6cbd 333c 523c
000001b0: 0faf 953c ca7c a2bd 2328 1e3d 0267 ad3c
000001c0: 83aa afbc bc55 ab3d 5424 92ba ad45 93bc
000001d0: 1f96 cdbc a9c1 803c b583 4e3d 5c15 8dbd
000001e0: 2f2a 2c3d 0056 0bbc aa63 10bd 388f 4bbd
000001f0: d7ad 243d baab 973c a261 073d f281 f03c
00000200: 94c3 2bbc 40b0 81bc afe2 a6bb 56a8 36bd
00000210: 6f10 81bd 57f0 1abb 5f54 0a3b 6438 1dbb
00000220: 5b8f 7dbc f5ff 68bb 47d9 aeb9 c3b3 d4ba
00000230: b282 cb3c 7859 3a3d 3087 703c f227 0c3c
00000240: cd7c d73c 30a9 77bb 07a7 163d e7ba 403d
00000250: 35ee 6ebd f974 283d 6f3a b63c a5e7 ff3c
00000260: e569 773d 08fa aa3b 58ce 76bc 7288 193c
00000270: e327 80bd 30a8 733c a9ca 0dba af87 a13c
00000280: 173b 3d3d e41d 81bc 873a ca3d 300f 36bc
00000290: 861a 25bc 9a22 7bbd 903e 55bd 38dc 54bc
000002a0: 6b3c c3b9 8708 9f3c 3b48 3d3a 517e ad3b
000002b0: daf2 9a3b b794 96bc 0ac2 8bbd c399 743d
000002c0: 7773 983c 4737 3c3c 47e8 d33c c11d 133d
000002d0: 79c3 07bc d14a 17bd e38a 0e3d c14d 8f3d
000002e0: 63a1 c3bc 5cb0 3abd b8c7 0fbd a5f5 46bc
000002f0: 081b 4e3b 2a9c e1bb 14e7 843c 8f3e 363d
00000300: f204 30bd 2fd6 b9bc c731 183c 4550 2ebd
00000310: bad9 0f3c 97af 2b3c 1030 d13c 520e 4f3c
00000320: b72c 8d3d 6f8e 7b3d ffd3 d8bb 13a6 edbc
00000330: cb67 8dbb 2f38 8ebd 3f2c 493c 57f0 633c
00000340: df97 25bd 3701 aabb f885 a73c 40af cb3c
00000350: b488 b9bc ffe5 403d 3706 9e3d f33a b9bc
00000360: 68f8 3cbc f734 98bb 1fb8 08bd c0ff c33a
00000370: 4b3a 22bd b872 b53c 49b6 92bb 93fa af3c
00000380: a8dc 223d c0c5 9bbc dd82 e3b9 7a7f ab3c
00000390: 5635 873d 126a 27bd 8970 3d3d 8d1c ed3c
000003a0: 0b3e 023d 875b 323c 1980 bdbc dfa3 da3c
000003b0: 6709 943c 8339 353d 2ca6 80bc afbd 113c
000003c0: 2d10 9abc 505c d83c 1ae9 18bd fd1d fc3c
000003d0: 47df 3dbc 4815 553b 5fa8 3f3d 4b56 00bd
000003e0: 2771 103c 3bd9 d13c df04 913c 8311 d7bb
000003f0: 8f3c 5d3d 8bfe 90bc 5768 cf3c 9be7 20bd
0.055488713 -0.019739725 -0.017749015 -0.017169205 0.020798065 -0.042919513 0.009825895 0.047890335
0.017590802 0.00042670825 0.01721366 -0.079476885 -0.050018884 0.06181245 0.023578528 0.0014638124
-0.023440087 0.022842826 -0.02379903 -0.013718033 0.009253504 -0.04711569 -0.015717126 -0.05177334
0.011699658 -0.048572246 0.051163644 -0.020808578 0.044991042 0.0483138 -0.050071593 -0.034933884
0.024262631 0.08042797 -0.0064258995 -0.036790695 0.066565685 -0.035964634 -0.020962885 -0.040933203
-0.015463643 0.018557409 0.052198566 0.062728636 -0.022263942 -0.009866594 -0.027375108 -0.0372979
0.03716777 0.040310513 -0.04521854 0.0046175024 0.0046475115 -0.124111526 -0.0024644332 0.04222733
0.009096903 0.033082154 -0.029031081 0.019094039 0.012227418 -0.03323095 -0.012888953 -0.011865258
0.022849683 -0.04409113 0.010131686 -0.049921453 -0.0029709283 -0.009082048 0.014987782 -0.015106863
-0.029528229 0.0014154842 0.012933935 0.03190739 0.0068981475 0.018823622 -0.0069554225 0.020328755
0.019542817 -0.051045116 -0.013423855 -0.06330543 0.037971463 -0.016588368 0.008995115 0.0049281335
0.009980011 -0.06059393 0.012459903 -0.0018239651 -0.025705589 0.026358902 -0.047480114 0.013746472
-0.073974095 0.016096443 -0.067034654 -0.050760843 0.06522346 0.052218147 0.0023433496 0.0015711006
-0.05820141 -0.011151586 -0.05785917 0.012831735 0.018271951 -0.07933958 0.038612496 0.021167282
-0.021443611 0.08365962 -0.0011149743 -0.01797756 -0.025095997 0.015717344 0.050418574 -0.068888396
0.042032417 -0.008504391 -0.035251297 -0.04969713 0.04020485 0.018514503 0.033052094 0.029358838
-0.010483641 -0.015831113 -0.0050929408 -0.04459413 -0.063019626 -0.002364179 0.0021107418 -0.002398991
-0.015476073 -0.0035552953 -0.0003334975 -0.001622789 0.024842594 0.04549548 0.014680669 0.008554446
0.026304627 -0.0037790053 0.036780383 0.047053244 -0.05833264 0.04112718 0.02224466 0.031238386
0.060403723 0.0052177943 -0.015063845 0.00937091 -0.06257608 0.014871642 -0.0005408922 0.01971802
0.04619893 -0.015761323 0.098744445 -0.011112019 -0.010077124 -0.061312295 -0.052061617 -0.012991957
-0.00037238313 0.019413246 0.0007220541 0.005294599 0.004728657 -0.01838146 -0.068241194 0.05971695
0.018609745 0.0114877885 0.025867594 0.035917047 -0.00828635 -0.036936585 0.03480042 0.06997252
-0.023880666 -0.045578346 -0.035102576 -0.012143527 0.0031449217 -0.0068850713 0.016223468 0.044493254
-0.042973466 -0.022685139 0.009289212 -0.04255702 0.008779937 0.010478876 0.025535613 0.012637692
0.06893294 0.061415132 -0.006617069 -0.029009854 -0.0043153516 -0.0694431 0.0122786155 0.013912282
-0.04042804 -0.005188133 0.020449623 0.02486384 -0.022648193 0.04709434 0.07716029 -0.022611117
-0.011533834 -0.004644986 -0.033378717 0.0014953539 -0.039606374 0.022149429 -0.0044772965 0.021481788
0.039761215 -0.019015193 -0.00043394315 0.020934809 0.0660197 -0.04087264 0.0462499 0.028944278
0.03179745 0.01088608 -0.02313237 0.026689468 0.01807089 0.0442443 -0.015704237 0.008895322
-0.018806541 0.026411206 -0.037331678 0.030776018 -0.011588878 0.0032513905 0.04679143 -0.031332295
0.00881604 0.025616279 0.017702518 -0.006563367 0.05401283 -0.0176995 0.025318308 -0.039283376

fc2.bias f4 [10]
00000000: e3dd 8dbd 6fa5 a53b f106 4c3d bd53 763d
00000010: bbe1 cf3d 55f0 65bc 821d 743c cb0e 6fbd
00000020: 609e e33c aa34 80bc
-0.06927087 0.0050551216 0.049811307 0.060138453 0.101504765 -0.01403435 0.014899613 -0.058363717
0.02778548 -0.015650112
