torch_to_tf/torch_models/model_round1499.model (torch, 493063 bytes, 10 tensors)

conv1.weight f4 [32, 3, 3, 3]
0.1032864 -0.05565548 -0.025001824 0.09737052 -0.155185 -0.04946405 0.0020764924 -0.023435963
0.099998236 0.0886656 -0.039484818 0.061031815 0.009738128 -0.10711254 0.018194454 0.023519201
-0.042363476 0.0020749678 -0.020031232 0.12189686 -0.07976627 -0.00011684285 0.004136344 -0.008961678
-0.019702893 -0.051837683 0.03590793 0.015265681 0.030041767 -0.004822869 -0.078253746 -0.106737554
0.066294394 -0.028687043 -0.012035993 -0.026343897 0.08699305 0.12083969 0.040605154 0.018354287
-0.03496533 0.0075947824 0.015604727 0.042990915 -0.019760469 0.04494945 0.020057848 0.057621893
-0.013157889 -0.10047807 -0.07029783 -0.0714333 -0.013445576 -0.010348174 -0.059425544 0.0667375
0.109656766 -0.101179 0.009603252 -0.059752356 0.05833422 -0.0015877013 -0.043709464 0.015234862
-0.051229853 0.04646032 -0.015833044 0.11687159 -0.050098855 0.017528052 0.04600295 0.0004590894
-0.061306726 -0.13467303 0.045041326 -0.0022929981 0.13826594 -0.028368054 -0.039915156 0.052946962
-0.084648624 0.053617842 0.092719935 -0.0095837815 0.061740246 -0.0027302566 -0.020165307 0.12274771
-0.06320745 -0.08582556 -0.064537905 0.07481267 -0.011169261 0.01885349 0.10054689 -0.13632809
-0.061681073 -0.117544845 -0.06612992 -0.020327011 0.0034652487 0.048219245 0.0756135 0.022460416
-0.092327654 0.037705567 -0.055158824 0.07730744 0.030823383 0.0761838 0.0314624 0.052051723
0.046455137 0.015368107 0.032357983 0.06832172 0.06629948 -0.017691717 -0.061087586 -0.108950734
-0.07042249 -0.033364717 -0.006669238 -0.053538837 -0.085737586 -0.049613584 -0.018835993 -0.0017166075
0.07763492 0.00046752775 -0.005955418 -0.01034757 0.036855094 -0.079999514 0.053174246 -0.0045560943
-0.0021407427 -0.057670064 0.026614923 0.072499186 0.064153895 0.009090631 0.052616097 -0.0049573802
-0.06345458 0.074742906 0.0035230087 -0.1439149 0.009577964 -0.104180776 -0.05115975 -0.03666711
-0.088451974 -0.004170737 0.037751745 -0.010677444 0.00089767965 0.115258805 -0.026082445 -0.10311244
0.061115503 0.106369495 0.08658924 -0.058799464 0.03465569 -0.0124917785 0.0130119985 0.09843666
-0.06417243 0.027621329 0.11715549 -0.026857898 -0.11468215 -0.07197999 -0.04424703 -0.0046551684
0.02927284 -0.083912626 -0.028393423 0.068653084 -0.022384778 -0.14493072 0.03384122 -0.069418766
-0.08808998 0.10861839 -0.07847643 0.033863273 0.089611374 0.1028855 -0.12327627 -0.0027821239
-0.05518648 -0.0801936 0.02025477 -0.010043147 0.0067266673 0.016086804 -0.06777651 -0.0115431165
0.044696987 0.031170083 -0.04230493 0.02556075 0.012782017 -0.03473883 -0.06731414 0.10519576
-0.08045609 0.009729881 0.06296779 0.121156074 -0.07575109 0.07942197 0.010593354 -0.007255349
-0.017896822 -0.032207023 0.012096099 -0.06543433 -0.0009756083 -0.08167312 0.030207232 0.06823019
0.07625476 0.03952653 -0.015294731 -0.074154474 0.010855594 -0.06115983 -0.09328008 -0.06495521
-0.016796691 0.12059505 -0.032236617 0.025462521 -0.00072485 -0.005374317 -0.073500745 0.028615877
0.0038041198 0.0692477 0.07971379 -0.10562911 0.010792112 -0.044097655 -0.017302284 0.049117174
-0.016267717 -0.036913056 0.006619762 0.009999973 -0.107578814 -0.034232985 0.016994646 0.016104985
00000000: d287 d33d 00f7 63bd a0d0 ccbc 326a c73d
00000010: d1e8 1ebe d19a 4abd c315 083b c7fc bfbc
00000020: e0cb cc3d 4f96 b53d d5ba 21bd 7ffc 793d
00000030: ab8c 1f3c d25d dbbd 890c 953c 57ab c03c
00000040: 5385 2dbd 2ffc 073b 8a18 a4bc 10a5 f93d
00000050: 805c a3bd 8709 f5b8 2b8a 873b 00d4 12bc
00000060: f667 a1bc c053 54bd 3214 133d e81c 7a3c
00000070: 271a f63c 2809 9ebb 8043 a0bd 3899 dabd
00000080: 5bc5 873d 1701 ebbc 9d32 45bc 28cf d7bc
00000090: 6a29 b23d cd7a f73d 9751 263d bb5b 963c
000000a0: ce37 0fbd a7dd f83b f8aa 7f3c 3e17 303d
000000b0: b5e0 a1bc ea1c 383d 5b50 a43c ef04 6c3d
000000c0: 3094 57bc 72c7 cdbd 4ff8 8fbd 9f4b 92bd
000000d0: d54a 5cbc 638b 29bc 3368 73bd acad 883d
000000e0: ba93 e03d f036 cfbd f556 1d3c e3be 74bd
000000f0: ddef 6e3d 6a1a d0ba b208 33bd a59b 793c
00000100: 65d6 51bd 2d4d 3e3d 4db4 81bc 5f5a ef3d
00000110: 7534 4dbd fd96 8f3c 976d 3c3d f0b1 f039
00000120: c31c 7bbd bae7 09be 417d 383d 2046 16bb
00000130: 9695 0d3e 1f64 e8bc 137e 23bd eade 583d
00000140: 425c adbd 629e 5b3d f3e3 bd3d 4b05 1dbc
00000150: 57e3 7c3d 1bee 32bb b731 a5bc 2763 fb3d
00000160: e872 81bd 50c5 afbd 732c 84bd 6337 993d
00000170: 47ff 36bc a272 9a3c 87eb cd3d 9799 0bbe
00000180: 4ba5 7cbd 5abb f0bd 206f 87bd d584 a6bc
00000190: 3a19 633b 8b81 453d 40db 9a3d e8fe b73c
000001a0: 4816 bdbd 2771 1a3d 38ee 61bd 5d53 9e3d
000001b0: 5281 fc3c 4106 9c3d b8de 003d 3034 553d
000001c0: be47 3e3d 83ca 7b3c ce89 043d 42ec 8b3d
000001d0: 06c8 873d 38ee 90bc fa36 7abd 9021 dfbd
000001e0: ab39 90bd 71a9 08bd a089 dabb 8a4b 5bbd
000001f0: 3097 afbd 9d37 4bbd f14d 9abc caff e0ba
00000200: 0fff 9e3d 831e f539 ab25 c3bb db88 29bc
00000210: 5ef5 163d c9d6 a3bd 3dcd 593d 4a4b 95bb
00000220: b44b 0cbb 7237 6cbd 8a07 da3c 747a 943d
00000230: 1e63 833d dff0 143c fa83 573d 8571 a2bb
00000240: 7af4 81bd cf12 993d 47e2 663b 6d5e 13be
00000250: e5ec 1c3c bb5c d5bd e38c 51bd 4030 16bd
00000260: 4f26 b5bd aeaa 88bb 93a1 1a3d 72f0 2ebc
00000270: 4352 6b3a cf0c ec3d daaa d5bc 9d2c d3bd
00000280: 4054 7a3d 40d8 d93d b355 b13d b5d7 70bd
00000290: 20f3 0d3d 51aa 4cbc 4730 553c 2999 c93d
000002a0: d66c 83bd 2046 e23c 38ef ef3d 1805 dcbc
000002b0: 7ade eabd 3f6a 93bd 603c 35bd 628a 98bb
000002c0: 98cd ef3c 62da abbd 5399 e8bc fd99 8c3d
000002d0: 4860 b7bc b868 14be 179d 0a3d 6d2b 8ebd
000002e0: 8568 b4bd 5273 de3d 40b8 a0bd 37b4 0a3d
000002f0: 2b86 b73d a2b5 d23d 4578 fcbd 4b54 36bb
00000300: 380b 62bd 8b3c a4bd 55ed a53c 038c 24bc
00000310: 606b dc3b 79c8 833c 69ce 8abd 571f 3dbc
00000320: 3014 373d 6758 ff3c ef47 2dbd c764 d13c
00000330: aa6b 513c 4e4a 0ebd ffdb 89bd e070 d73d
00000340: 2ac6 a4bd 146a 1f3c 42f5 803d ad20 f83d
00000350: 6323 9bbd fca7 a23d bf8f 2d3c 47be edbb
00000360: 5b9c 92bc 83eb 03bd b72e 463c 6f02 86bd
00000370: f7bf 7fba 3d44 a7bd 2875 f73c 45bc 8b3d
00000380: 752b 9c3d 92e6 213d c096 7abc 4dde 97bd
00000390: a9db 313c bb82 7abd a009 bfbd 3d07 85bd
000003a0: 3799 89bc 8afa f63d 8b0a 04bd c796 d03c
000003b0: dc03 3eba 0a1b b0bb 8f87 96bd d86b ea3c
000003c0: 8a4e 793b bdd1 8d3d fc40 a33d 1354 d8bd
000003d0: 66d1 303c be9f 34bd 85bd 8dbc 172f 493d
000003e0: e043 85bc 2532 17bd 97ea d83b edd6 233c
000003f0: 4852 dcbd e337 0cbd 5b38 8b3c 9aee 833c

conv1.bias f4 [32]
0.14171498 -0.10507882 0.09143247 -0.0029441987 0.1666293 -0.08354744 0.15801461 0.054063834
0.11052602 -0.16825286 -0.007900723 0.009954387 -0.098921984 0.12745653 -0.01857948 -0.06300678
0.10130936 0.08350333 0.123059586 0.1474509 0.018442003 0.08595963 0.04583403 -0.12029248
-0.11155864 -0.004187479 -0.03243619 -0.13015015 -0.003812408 -0.0056044953 0.09290159 -0.16929865
00000000: bb1d 113e 9033 d7bd f240 bb3d 75f3 40bb
00000010: dfa0 2a3e ec1a abbd 95ce 213e 0a72 5d3d
00000020: 775b e23d 7a4a 2cbe 0972 01bc ba17 233c
00000030: 9c97 cabd f783 023e fe33 98bc b309 81bd
00000040: 487b cf3d cb03 ab3d aa06 fc3d 5efd 163e
00000050: af13 973c 9a0b b03d 77bc 3b3d e75b f6bd
00000060: db78 e4bd 1f37 89bb cfdb 04bd 1546 05be
00000070: 98d9 79bb eaa5 b7bb 3043 be3d a05c 2dbe

conv2.weight f4 [64, 32, 3, 3]
0.0038858473 -0.056352925 0.04193918 -0.0327027 -0.07048691 0.09644272 0.0144221205 -0.0650864
0.03829133 0.024294442 -0.060682215 -0.046927102 -0.04607793 -0.07360512 -0.037224945 0.0351396
0.023500029 0.013978613 -0.0507912 -0.08603416 0.0440646 -0.030910788 -0.14491227 0.059508026
-0.012355439 -0.06440081 -0.0028023666 0.05521282 -0.013289223 -0.0152934855 -0.009398879 -0.06821453
0.02395759 -0.010792853 -0.042038273 -0.041827437 -0.0009679894 -0.02980265 -0.017516376 -0.0128565375
-0.014128107 -0.023836313 0.008200076 0.018978264 0.05605786 0.0129071595 -0.04213914 -0.0020009764
-0.038463157 -0.06561255 -0.010634606 -0.016124763 0.028824959 0.11078596 0.0005989188 0.04218329
0.14687982 -0.035380445 -0.02214775 0.08185015 -0.07790098 -0.02595447 0.09081174 -0.010007786
-0.059908956 0.01189589 0.016769735 -0.020152709 0.04036882 0.037848998 0.039336752 0.06771075
-0.04457925 -0.16982937 0.03727307 0.08194264 -0.09335798 -0.00079066335 0.053044558 -0.10287561
-0.037751805 -0.011628699 -0.01936571 0.095479034 -0.025368689 -0.016040862 0.07114463 -0.0050744195
-0.010365828 0.0075101554 -0.00020610474 -0.14403027 -0.0095408065 -0.0694916 -0.11639005 0.001461951
0.039381064 -0.016581833 0.06077185 -0.03127135 -0.01777657 0.025578469 -0.04846997 -0.04455004
0.0279144 0.0056114285 -0.0111046955 0.06298146 -0.03708412 -0.040324576 0.04533611 -0.020466873
-0.042438958 0.06145185 -0.019874193 -0.042658906 0.06844983 -0.05646311 -0.028111616 0.06773894
-0.033550955 0.025135143 -0.0012360968 0.035567503 0.03457083 0.021807222 -0.0028656449 -0.084619135
-0.083549075 -0.0279317 -0.026184121 0.0144042745 -0.026627226 -0.04501884 0.051432677 0.019214101
-0.03141032 -0.036013078 -0.042746928 -0.014779913 -0.0022460422 0.04772488 0.016387744 0.042993147
0.0031444014 -0.03422622 0.10165085 -0.015659247 -0.048327774 0.058601864 -0.043124374 -0.08123157
0.062425185 -0.016817171 -0.04402716 -0.015709838 -0.07465048 -0.05245933 -0.03142896 -0.009265035
-0.038451564 -0.02673011 0.008911016 -0.13129003 -0.029758751 -0.08027075 -0.08258718 0.12810713
-0.015705777 -0.05359567 0.0026777722 0.014149387 -0.015576258 0.09440984 0.040677138 -0.025519585
0.0451625 -0.0051485836 -0.03202053 0.05905825 -0.020394629 -0.13165356 0.033894666 -0.048677254
-0.02014236 -0.004760848 -0.005858922 0.005137668 -0.046250142 -0.011483068 -0.010515114 0.043983664
-0.031609137 -0.035798237 0.06152563 -0.033378806 0.002146662 0.047358476 0.014822707 -0.030280909
0.041097417 -0.02081993 -0.025213022 0.07164421 0.031648032 0.011274247 0.15199158 0.15389962
-0.015512304 -0.05946691 0.104018405 -0.031654265 -0.025253126 0.04136128 -0.008391427 -0.0611553
-0.020125594 -0.01992477 -0.05882274 -0.007013289 -0.048086833 -0.10110964 -0.0698015 -0.04172504
0.01830077 0.0018176286 0.0009348793 -0.021805666 -0.033062454 -0.061165143 -0.045728084 -0.04533741
-0.08619059 -0.002560884 -0.03612127 -0.05281374 -0.05788803 -0.011862661 0.013301901 0.038827
0.037042834 0.06675195 0.025938645 0.017975386 -0.008638171 -0.05455598 -0.06778804 -0.0036893308
0.026151732 0.03493453 0.086652175 0.14468615 0.023091776 -0.012656234 -0.004250394 0.014841782
00000000: b3a9 7e3b 53d2 66bd 6bc8 2b3d 44f3 05bd
00000010: 715b 90bd c383 c53d c24a 6c3c 054c 85bd
00000020: 5fd7 1c3d 2305 c73c ea8d 78bd a236 40bd
00000030: 36bc 3cbd 48be 96bd 2f79 18bd 8bee 0f3d
00000040: 2283 c03c 8d06 653c 6f0a 50bd ad32 b0bd
00000050: 157d 343d 9f38 fdbc e263 14be b0be 733d
00000060: 786e 4abc 92e4 83bd e9a7 37bb d726 623d
00000070: 0bbb 59bc 8791 7abc c1fd 19bc 0fb4 8bbd
00000080: b542 c43c 82d4 30bc 5330 2cbd 3f53 2bbd
00000090: abc0 7dba b024 f4bc 817e 8fbc 3aa4 52bc
000000a0: 9379 67bc 5f44 c3bc 9d59 063c 4e78 9b3c
000000b0: ed9c 653d 8d78 533c 179a 2cbd d022 03bb
000000c0: 8b8b 1dbd df5f 86bd c53c 2ebc 1418 84bc
000000d0: 5222 ec3c c0e3 e23d c300 1d3a 63c8 2c3d
000000e0: aa67 163e 16eb 10bd 336f b5bc 0da1 a73d
000000f0: 8d8a 9fbd 789e d4bc 81fb b93d b2f7 23bc
00000100: 1863 75bd fbe6 423c af60 893c 4b17 a5bc
00000110: c759 253d 8d07 1b3d 931f 213d efab 8a3d
00000120: bb98 36bd c0e7 2dbe a6ab 183d 8bd1 a73d
00000130: 7832 bfbd 8544 4fba 4045 593d 73b0 d2bd
00000140: a3a1 1abd 4c86 3ebc d6a4 9ebc 838a c33d
00000150: ffd1 cfbc 2068 83bc 47b4 913d 5147 a6bb
00000160: 6fd5 29bc c017 f63b d21d 58b9 ac7c 13be
00000170: 0b51 1cbc 9d51 8ebd e85d eebd ef9e bf3a
00000180: 0a4e 213d a0d6 87bc e7eb 783d 6316 00bd
00000190: 2ba0 91bc f089 d13c 7288 46bd 1a7a 36bd
000001a0: bdac e43c 13e0 b73b 78f0 35bc 6cfc 803d
000001b0: 85e5 17bd 622b 25bd 5bb2 393d 25aa a7bc
000001c0: 79d4 2dbd efb4 7b3d 34cf a2bc 1bbb 2ebd
000001d0: 6d2f 8c3d dd45 67bd 554a e6bc b7ba 8a3d
000001e0: ba6c 09bd 37e8 cd3c 8704 a2ba 3baf 113d
000001f0: 259a 0d3d 0fa5 b23c 8bcd 3bbb cc4c adbd
00000200: c71b abbd 05d1 e4bc 1580 d6bc e8ff 6b3c
00000210: 5721 dabc ad65 38bd 12ab 523d e466 9d3c
00000220: 1ca8 00bd 7382 13bd 6717 2fbd 7327 72bc
00000230: 5632 13bb 2a7b 433d 973f 863c 9519 303d
00000240: 4d12 4e3b cb30 0cbd 522e d03d d247 80bc
00000250: 58f3 45bd 8208 703d 2fa3 30bd bd5c a6bd
00000260: 8db1 7f3d 2ac4 89bc d355 34bd ebb1 80bc
00000270: 5ae2 98bd 98df 56bd a7bb 00bd 60cc 17bc
00000280: 637f 1dbd 1bf9 dabc 83ff 113c e570 06be
00000290: a0c8 f3bc fe64 a4bd 7823 a9bd 842e 033e
000002a0: 67a9 80bc 2287 5bbd 907d 2f3b d5d2 673c
000002b0: 9033 7fbc f259 c13d 129d 263d 730e d1bc
000002c0: 50fc 383d 73b5 a8bb f627 03bd 10e7 713d
000002d0: a312 a7bc 31d0 06be 22d5 0a3d cd61 47bd
000002e0: 9701 a5bc e300 9cbb 33fc bfbb e259 a83b
000002f0: ca70 3dbd 7a23 3cbc 9647 2cbc 3728 343d
00000300: 9578 01bd 2ca1 12bd 4d02 7c3d 37b8 08bd
00000310: 03af 0c3b f6fa 413d f0da 723c ab0f f8bc
00000320: c455 283d 8f8e aabc 8a8b cebc 33ba 923d
00000330: 5ea1 013d 9fb7 383c aea3 1b3e dd97 1d3e
00000340: 5227 7ebc 9393 73bd 9a07 d53d e7a7 01bd
00000350: a5df cebc 726a 293d 327c 09bc fb7d 7abd
00000360: 6ede a4bc 4539 a3bc 1df0 70bd bbcf e5bb
00000370: b3f6 44bd 9212 cfbd 17f4 8ebd e0e7 2abd
00000380: 7feb 953c 7f3d ee3a b012 753a cca1 b2bc
00000390: 7f6c 07bd 4d88 7abd 5f4d 3bbd b8b3 39bd
000003a0: b184 b0bd 81d4 27bb e6f3 13bd 3853 58bd
000003b0: 001c 6dbd 9b5b 42bc 37f0 593c 0f09 1f3d
000003c0: 3aba 173d 3fb5 883d 487d d43c 1e41 933c
000003d0: 1d87 0dbc 1776 5fbd 75d4 8abd b3c8 71bb
000003e0: 283c d63c 8217 0f3d b276 b13d 9b28 143e
000003f0: f72a bd3c 185c 4fbc e446 8bbb f22a 733c

conv2.bias f4 [64]
0.08792647 -0.10493573 0.025495345 0.046338364 -0.02640452 0.007750179 0.07121607 -0.042156562
-0.08752274 -0.08105347 -0.12029678 0.017048154 -0.033852194 -0.03591023 0.12891603 -0.10766627
0.05991718 -0.0011786545 0.0055390354 0.1693079 0.049568404 -0.07536142 -0.03559428 0.04053611
-0.11023402 -0.022210121 0.09066426 -0.028043354 0.023642903 -0.18553147 -0.02384145 0.16649461
0.13363512 0.07861334 -0.13120969 0.045087885 0.026869643 0.104868926 -0.13126764 0.20241232
-0.1278858 0.19159676 -0.09256732 -0.10286718 -0.045234066 0.11932202 0.09268873 0.05355453
-0.027234936 -0.014600654 -0.0795276 -0.006433595 0.12907861 -0.04776605 -0.010692082 -0.13669656
-0.028924285 0.0060554384 0.06102922 0.0070870067 0.11548459 0.22047642 -0.029303694 0.1621506
00000000: cb12 b43d 8be8 d6bd 9ddb d03c 4ccd 3d3d
00000010: 4b4e d8bc 37f5 fd3b bbd9 913d 5cac 2cbd
00000020: 1f3f b3bd 5dff a5bd 285e f6bd 92a8 8b3c
00000030: 99a8 0abd 9b16 13bd 9002 043e 2280 dcbd
00000040: b86b 753d 157d 9aba cc80 b53b 0d5f 2d3e
00000050: 3d08 4b3d 1757 9abd 4fcb 11bd 3109 263d
00000060: 60c2 e1bd 00f2 b5bc 2fae b93d 2dbb e5bc
00000070: c3ae c13c f6fb 3dbe 254f c3bc 907d 2a3e
00000080: a5d7 083e 0800 a13d d55b 06be 13ae 383d
00000090: ba1d dc3c 85c5 d63d 066b 06be 2d45 4f3e
000000a0: 7ff4 02be f131 443e ef93 bdbd 07ac d2bd
000000b0: 5b47 39bd 1a5f f43d 97d3 bd3d ff5b 5b3d
000000c0: cd1b dfbc 9537 6fbc 5edf a2bd e8d0 d2bb
000000d0: 2f2d 043e 55a6 43bd d82d 2fbc 2ffa 0bbe
000000e0: 9ff2 ecbc b36c c63b c7f9 793d 1f3a e83b
000000f0: 2f83 ec3d 92c4 613e 4d0e f0bc cf0a 263e

conv3.weight f4 [64, 64, 3, 3]
-0.058746856 0.034933668 0.011634278 -0.00405997 0.06252467 0.01648665 0.0053562275 0.0010000304
-0.030642157 -0.0012849182 0.009043142 0.051538106 0.016908098 0.022138553 0.13841842 0.024226142
-0.016905308 0.08879465 0.015078694 0.0014184181 -0.07160371 -0.02146091 0.029359061 0.0030589623
0.012254753 -0.03457806 0.02243126 0.002941109 -0.0006310012 -0.13100398 -0.009414646 0.018838296
-0.058291446 -0.04663424 -0.03788521 0.10226909 -0.002202676 -0.018475717 0.0051436736 -0.02384994
-0.0058850427 0.024171589 0.012047177 0.008375047 0.052089553 0.02147035 0.022036418 0.08637566
-0.023675425 -0.05147598 0.06642204 -0.050841875 -0.024179524 0.05248642 -0.040621985 0.003358487
0.059390217 0.045053106 0.0897551 0.12978317 0.060624715 0.08278202 0.07505413 0.03502684
-0.027961059 -0.034252387 -0.009687835 -0.040091954 -0.0702694 -0.001761062 -0.017454846 -0.042897344
-0.05078959 -0.03965192 0.0070635313 -0.044752598 -0.019327816 -0.029936774 -0.048692383 0.017903415
-0.010657995 -0.032620504 -0.10657096 -0.009939793 -0.04061269 -0.058014493 -0.018604524 0.042516302
-0.009711176 0.015890652 0.045997385 -0.017613273 -0.03851852 -0.012709163 -0.05241952 -0.049053136
-0.017911555 -0.08990773 -0.06574784 0.012622784 -0.052217375 0.042885028 -0.017365701 -0.024897976
0.04918151 -0.024687642 0.006472692 0.026874041 -0.010871502 0.02635636 0.1180172 -0.042336475
-0.14612582 0.010184713 -0.027519142 -0.052304048 0.09522184 -0.05326551 -0.09602643 -0.058606364
-0.029154185 -0.1266919 -0.1496704 0.0521737 0.029309243 -0.059464376 -0.044557564 0.029743625
-0.029025588 0.0044639786 0.030280812 -0.016777262 -0.008027848 0.032559097 0.022514554 0.01973783
-0.009951765 -0.028962791 0.005208959 -0.0020846594 -0.017205102 -0.044730812 0.018225674 -0.0146156475
-0.035277154 -0.07704301 -0.040025003 0.048343036 -0.037688147 -0.026087565 0.020001797 -0.0019234099
-0.044460278 -0.027933275 -0.010024565 0.0017460734 -0.00401285 -0.046304204 -0.0065349205 -0.03272052
-0.046979897 0.10627595 0.010699112 -0.0038052164 -0.014123472 -0.012172254 0.001956321 0.0013934294
0.011460594 -0.0035617973 -0.005426507 0.014818964 0.019026568 0.11727875 -0.052269567 0.048003163
0.0779219 0.046875384 0.0840703 -0.034730215 -0.02222851 -0.006605523 -0.0070590726 0.057298172
0.040004272 -0.00038292908 0.0066212784 0.023348033 -0.014410821 0.031766165 0.049730312 0.04926612
0.0019758996 0.025615979 0.052534193 0.0422202 0.07687443 0.037219588 0.03213262 0.024382405
-0.034870718 0.068883084 -0.05035087 -0.05139003 0.10300578 -0.06839698 -0.004398958 0.10053952
0.036199775 0.09989022 -0.01823456 0.0078100786 0.03605342 0.011891182 0.09421424 0.03232981
0.039735354 -0.0064848685 0.012371576 0.052763004 0.017343856 0.02413813 0.082561426 0.05295036
0.05764655 0.013477682 0.0022166723 0.01088159 0.0059444173 -0.009485633 0.0031955286 0.0006665767
-0.004784621 -0.017887374 -0.03676646 -0.043898996 -0.054768603 0.0015079484 0.020028112 0.022682412
-0.09831112 -0.10976695 -0.03431114 -0.043352272 -0.03237427 -0.022224171 -0.034208942 -0.06256726
0.036062017 -0.07339281 -0.07727239 0.043918792 -0.007880994 0.013300495 -0.02083282 0.0056287223
00000000: 8ba0 70bd 9b16 0f3d b39d 3e3c 7f09 85bb
00000010: ef0c 803d 030f 873c 4b83 af3b 7413 833a
00000020: 4305 fbbc b36a a8ba b029 143c 9f19 533d
00000030: da82 8a3c e95b b53c 8fbd 0d3e e775 c63c
00000040: 007d 8abc f8d9 b53d a00c 773c 37ea b93a
00000050: f7a4 92bd cace afbc 6a82 f03c df78 483b
00000060: 29c8 483c b9a1 0dbd c3c1 b73c 9fbf 403b
00000070: c669 25ba e825 06be e33f 1abc c552 9a3c
00000080: 03c3 6ebd 8b03 3fbd 862d 1bbd 7572 d13d
00000090: c55a 10bb 635a 97bc 438c a83b f360 c3bc
000000a0: 51d7 c0bb 7f03 c63c 8661 453c 7e37 093c
000000b0: db5b 553d 96e2 af3c b885 b43c b9e5 b03d
000000c0: f7f2 c1bc 7ad8 52bd 4708 883d 923f 50bd
000000d0: 2314 c6bc 00fc 563d 3d63 26bd 101a 5c3b
000000e0: 2843 733d 9b89 383d 86d1 b73d e1e5 043e
000000f0: 9f51 783d 9f89 a93d fbb5 993d 4e78 0f3d
00000100: 970e e5bc 3b4c 0cbd bab9 1ebc 7637 24bd
00000110: 67e9 8fbd 6fd3 e6ba 77fd 8ebc 20b5 2fbd
00000120: bf08 50bd 0d6a 22bd 3275 e73b 804e 37bd
00000130: 5e55 9ebc f73d f5bc aa71 47bd 2faa 923c
00000140: df9e 2ebc 149d 05bd e041 dabd 83da 22bc
00000150: 7e59 26bd 9ba0 6dbd 8468 98bc 9325 2e3d
00000160: a01b 1fbc 1d2d 823c c167 3c3d b649 90bc
00000170: 98c5 1dbd 183a 50bc dab5 56bd f1eb 48bd
00000180: 41bb 92bc 8b21 b8bd cea6 86bd cbcf 4e3c
00000190: e3e1 55bd 36a8 2f3d 8442 8ebc d7f6 cbbc
000001a0: 8d72 493d bd3d cabc e018 d43b f326 dc3c
000001b0: 621e 32bc 4be9 d73c 00b3 f13d 0369 2dbd
000001c0: 02a2 15be c8dd 263c d36f e1bc c53c 56bd
000001d0: ab03 c33d ef2c 5abd 81a9 c4bd 3a0d 70bd
000001e0: c2d4 eebc 85bb 01be 3343 19be 17b4 553d
000001f0: f019 f03c eb90 73bd fe81 36bd e7a8 f33c
00000200: 12c7 edbc 9146 923b 770f f83c 7870 89bc
00000210: 3c87 03bc b05c 053d 7170 b83c 3bb1 a13c
00000220: ba0c 23bc 6043 edbc eaaf aa3b c89e 08bb
00000230: b7f1 8cbc a837 37bd 024e 953c 7876 6fbc
00000240: c77e 10bd bac8 9dbd 42f1 23bd 5903 463d
00000250: e35e 1abd 97b5 d5bc cfda a33c ed1a fcba
00000260: fb1b 36bd 53d4 e4bc 133e 24bc 80dc e43a
00000270: 3a7e 83bb 7aa9 3dbd e322 d6bb f405 06bd
00000280: fe6d 40bd 35a7 d93d 544b 2f3c f060 79bb
00000290: 2366 67bc 226e 47bc 9f35 003b bba3 b63a
000002a0: 37c5 3b3c 0b6d 69bb d7d0 b1bb 3dcb 723c
000002b0: 9bdd 9b3c d72f f03d 9d18 56bd f79e 443d
000002c0: 8495 9f3d 6700 403d 0d2d ac3d 4541 0ebd
000002d0: 9018 b6bc 2573 d8bb cb4f e7bb 7db1 6a3d
000002e0: 85db 233d dfc3 c8b9 4ff7 d83b 6044 bf3c
000002f0: 5d1b 6cbc 3d1d 023d 03b2 4b3d 45cb 493d
00000300: 187e 013b 9ad8 d13c 182e 573d 17ef 2c3d
00000310: 5770 9d3d 9173 183d 7f9d 033d 9cbd c73c
00000320: 99d4 0ebd 9312 8d3d b73c 4ebd 5a7e 52bd
00000330: b2f4 d23d b713 8cbd 2225 90bb aae7 cd3d
00000340: 3746 143d 3e93 cc3d a560 95bc b0eb ff3b
00000350: c0ac 133d 3bd3 423c 65f3 c03d 436c 043d
00000360: 8ac1 223d 057f d4bb 27b2 4a3c 051e 583d
00000370: b414 8e3c 54bd c53c f715 a93d 7ae2 583d
00000380: ca1e 6c3d 7fd1 5c3c 9745 113b b248 323c
00000390: 63c9 c23b a169 1bbc 136c 513b 35bd 2e3a
000003a0: 4fc8 9cbb 8b88 92bc 6d98 16bd 6fcf 33bd
000003b0: 0b55 60bd 5aa6 c53a ff11 a43c 77d0 b93c
000003c0: 5757 c9bd 7fcd e0bd d789 0cbd 2792 31bd
000003d0: e29a 04bd 770f b6bc ad1e 0cbd 4323 80bd
000003e0: c4b5 133d f84e 96bd fd40 9ebd 31e4 333d
000003f0: 491f 01bc 52ea 593c 97a9 aabc 2571 b83b

conv3.bias f4 [64]
-0.011139772 -0.12248701 0.01455605 0.05079493 -0.0056771333 -0.0073453034 0.04627807 0.010459754
0.12523346 -0.004383793 -0.026952608 0.11914746 -0.0036989308 -0.022300823 -0.0031199993 -0.0017679048
0.092140876 0.18358289 -0.021306157 -0.019651031 -0.022690756 0.0010416849 0.19504423 -0.056018997
0.054257166 0.14943954 -0.0074836724 0.048271026 -0.01065629 -0.0074630417 -0.01474265 -0.009662226
-0.020403514 0.0060283183 -0.0029222432 0.106838286 0.09566284 -0.016339721 -0.010201702 0.16877387
0.01571613 0.050062567 -0.028232543 -0.0068997405 -0.0010769576 0.060409345 -0.0066234875 0.019605404
0.034247782 0.10091839 0.0055073583 -0.0117551815 -0.007866082 -0.15017454 -0.011316972 -0.0021670212
-0.0018043083 0.11901634 0.07260389 0.22238083 -0.1180344 0.010843238 -0.021123292 -0.010772973
00000000: 9783 36bc 78da fabd 807c 6e3c 580e 503d
00000010: 3f07 babb dfb0 f0bb 138e 3d3d 635f 2b3c
00000020: 333d 003e eca5 8fbb b7cb dcbc 9503 f43d
00000030: c369 72bb 37b0 b6bc e778 4cbb 0bb9 e7ba
00000040: 5bb4 bc3d 27fd 3b3e 408a aebc 33fb a0bc
00000050: f7e1 b9bc 2589 883a adb9 473e 2d74 65bd
00000060: c33c 5e3d ae06 193e 9839 f5bb d7b7 453d
00000070: b897 2ebc 888c f4bb 288b 71bc 504e 1ebc
00000080: 4525 a7bc 3389 c53b 1b83 3fbb 08ce da3d
00000090: e1ea c33d e1da 85bc 0a25 27bc 0fd3 2c3e
000000a0: 1dbf 803c 680e 4d3d ef47 e7bc 3817 e2bb
000000b0: b328 8dba ca6f 773d d709 d9bb 839b a03c
000000c0: 6747 0c3d 4dae ce3d 1277 b43b ce98 40bc
000000d0: bde0 00bc 5bc7 19be d26a 39bc 9504 0ebb
000000e0: 8a7e ecba d7be f33d 59b1 943d cdb7 633e
000000f0: 05bc f1bd d6a7 313c c10a adbc 2081 30bc

fc1.weight f4 [64, 1024]
-0.02582163 -0.03739618 0.0041693556 0.05443879 -0.09092223 -0.10700498 -0.097179525 -0.017225375
-0.0096935015 -0.10132944 -0.020853851 -0.014891937 -0.0514978 0.016645795 0.03336632 -0.10408409
0.034841172 -0.032644857 -0.036468823 0.014238894 0.004576027 0.0055201426 -0.009972496 -0.011668186
0.0073359185 0.034016564 -0.016969007 -0.02392055 -0.030107412 -0.014557001 -0.023643441 -0.02290476
0.07977491 -0.015974373 0.05093512 -0.015405431 0.05216342 -0.0077215643 -0.00832766 -0.005844215
-0.05013485 -0.019450605 0.024017517 0.048162725 0.019046957 -0.059991803 -0.026812641 -0.018213775
-0.037499808 -0.026753733 0.01402888 0.026546333 -0.0029674997 0.012840191 0.02748826 0.05401925
-0.0034774176 -0.007825323 0.010341085 0.049983192 -0.03195106 -0.020485312 0.0063134427 0.01893758
-0.017335681 0.0011985501 -0.0124372095 -0.0077585788 -0.009952984 -0.013907894 0.009457684 -0.00082997646
0.002922546 -0.007459146 -0.0037598726 -0.0049518566 0.018282134 -0.0002345633 0.004216564 -0.013212896
-0.08474425 -0.04537716 -0.058849838 -0.020471986 0.044405043 -0.036136366 -0.086037785 -0.05158465
-0.035011865 -0.01571262 -0.0049101827 -0.015018376 0.0107044345 -0.0032237351 -0.0102221 -0.011254624
0.058837246 0.03246 0.1194121 0.06791236 -0.04403394 -0.0061724274 -0.111249544 -0.055090178
-0.017858457 0.052128028 -0.002701876 0.024541989 0.12621005 0.10209942 0.18899041 0.08112893
0.0052132737 0.0012448736 -0.0009569844 -0.0111842025 -0.0071326154 -0.0033536206 -0.008918787 -0.013259179
-0.0043718647 -0.013458015 -0.0030078718 -0.011796537 -0.0012627472 -0.010269512 0.0009920661 0.0051011047
-0.10475887 -0.04639255 -0.09699453 -0.0852923 -0.10956152 -0.028300866 -0.04539713 -0.023290174
0.019705055 0.0038101475 0.014061771 0.064368114 0.12976846 0.11957854 0.057174098 0.099770546
0.002290039 -0.01390582 -0.005512662 0.002395862 -0.014539088 -5.178595e-06 0.0008079006 -0.00061208574
-0.020341447 -0.0090684965 -0.009597994 -0.015708813 -0.0067393794 -0.006623047 -0.009088942 0.0017048464
-0.01210014 -0.0064573833 0.0072995336 -0.013096789 0.0063356096 0.003905216 0.010767954 -0.0069812583
-0.0060328073 0.002026973 0.0016427443 -0.01267196 -0.012712221 -0.011668234 0.00093017577 0.0011602818
0.13672283 0.083331704 0.0031958916 -0.010228405 0.09276744 0.025838438 0.0039968356 -0.0024736542
0.05287061 0.015669769 0.012057081 0.0052560978 0.050238658 -0.0011263097 0.0039959797 -0.024269897
-0.019299058 -0.017720142 -0.0038262196 -0.0040252768 -0.0037671395 -0.0131878955 -0.0017847304 -0.013280588
-0.004067432 -0.016150333 -0.012210398 0.003770857 0.00214761 -0.012557297 -0.0009479856 -0.004832484
-0.0012292494 -0.011061404 0.00049033697 0.0010615247 0.0019111003 -0.0063402443 -0.022515906 0.008675098
-0.003860969 -0.00016111814 0.006643258 -0.017681066 0.0009923266 -0.0041909646 -0.004305534 0.004842607
-0.013958043 0.012651998 0.0042681107 0.0042935982 0.007612837 -0.013065311 -0.0056161187 -0.00026198724
0.001887563 0.0032440599 0.0016008293 -0.0059999335 0.021417072 0.0062143453 -0.0072833598 0.0048998273
-0.018007725 -0.009310552 -0.008367622 -0.0036961387 -0.0034062725 -0.01247807 0.008431736 -0.003556349
-0.009796694 -0.0030605646 0.0008719819 0.006910801 -0.00887451 -0.006016782 -0.004117964 -0.009171729
00000000: e287 d3bc bd2c 19bd 179f 883b 35fb 5e3d
00000010: 6f35 babd 6d25 dbbd 0f06 c7bd 3b1c 8dbc
00000020: 7ed1 1ebc cf85 cfbd b2d5 aabc 50fd 73bc
00000030: 5bef 52bd c35c 883c 1fab 083d 0a2a d5bd
00000040: 9eb5 0e3d 9db6 05bd 5560 15bd 404a 693c
00000050: 7ff2 953b 50e2 b43b ae63 23bc eb2b 3fbc
00000060: 2562 f03b f454 0b3d 9602 8bbc 07f5 c3bc
00000070: d2a3 f6bc 7d80 6ebc e4af c1bc c3a2 bbbc
00000080: 0761 a33d b0dc 82bc 58a1 503d 1067 7cbc
00000090: 4fa9 553d 2d05 fdbb bd70 08bc d480 bfbb
000000a0: 335a 4dbd e056 9fbc 62c0 c43c 4746 453d
000000b0: 5d08 9c3c f7b9 75bd 2fa6 dbbc 0e35 95bc
000000c0: 6699 19bd a52a dbbc 63d9 653c b277 d93c
000000d0: 627a 42bb aa5f 523c 0f2f e13c 4a43 5d3d
000000e0: 63e5 63bb c935 00bc a76d 293c 2dbb 4c3d
000000f0: 1ddf 02bd d0d0 a7bc ffe0 ce3b fc22 9b3c
00000100: 8f03 8ebc ab18 9d3a 70c5 4bbc ad3b febb
00000110: d711 23bc efdd 63bc 67f4 1a3c c792 59ba
00000120: 2f88 3f3b da6b f4bb 3268 76bb 2f43 a2bb
00000130: 6ac4 953c 1bf5 75b9 1a2b 8a3b e77a 58bc
00000140: 658e adbd 67dd 39bd 870c 71bd deb4 a7bc
00000150: 10e2 353d ba03 14bd 9434 b0bd 6d4a 53bd
00000160: 9a68 0fbd c1b7 80bc 99e5 a0bb a20f 76bc
00000170: a761 2f3c 4d45 53bb 987a 27bc 5165 38bc
00000180: 53ff 703d c7f4 043d 558e f43d a315 8b3d
00000190: ef5c 34bd 1342 cabb cdd6 e3bd 3da6 61bd
000001a0: e64b 92bc 3384 553d f511 31bb 480c c93c
000001b0: 353d 013e 8019 d13d b486 413e ed26 a63d
000001c0: 1cd4 aa3b 072b a33a 23de 7aba f23d 37bc
000001d0: b7b8 e9bb 6bc8 5bbb 1b20 12bc 073d 59bc
000001e0: dc41 8fbb 027f 5cbc b71f 45bb 4346 41bc
000001f0: c482 a5ba 7541 28bc 3708 823a 2b27 a73b
00000200: d28b d6bd 1d06 3ebd 11a5 c6bd bbad aebd
00000210: ca61 e0bd 38d7 e7bc 57f2 39bd 09cb bebc
00000220: 7f6c a13c abb3 793b 5863 663c 6ed3 833d
00000230: 06e2 043e 98e5 f43d 632f 6a3d 8054 cc3d
00000240: 7b14 163b 3dd5 63bc 90a3 b4bb e503 1d3b
00000250: 5b35 6ebc cbc3 adb6 4bc9 533a 6174 20ba
00000260: 1ba3 a6bc 0894 14bc e840 1dbc c5af 80bc
00000270: 03d6 dcbb 2506 d9bb c9e9 14bc 2775 df3a
00000280: aa3f 46bc 7598 d3bb ed30 ef3b ea93 56bc
00000290: f29a cf3b a7ee 7f3b 136c 303c 0ac3 e4bb
000002a0: dbae c5bb f7d6 043b 5a51 d73a 0d9e 4fbc
000002b0: eb46 50bc 1f2c 3fbc 0ad7 733a 9914 983a
000002c0: 1201 0c3e d0a9 aa3d 2a72 513b 0a95 27bc
000002d0: dbfc bd3d 22ab d33c e3f7 823b 081d 22bb
000002e0: da8e 583d e35d 803c 108b 453c 583b ac3b
000002f0: 0dc7 4d3d afa0 93ba b5f0 823b aad1 c6bc
00000300: 0f19 9ebc d529 91bc 50c1 7abb 78e6 83bb
00000310: 1de2 76bb 0b12 58bc 9ded e9ba d396 59bc
00000320: 1848 85bb b44d 84bc 1f0e 48bc 7b20 773b
00000330: ebbe 0c3b 1fbd 4dbc 3d82 78ba d059 9ebb
00000340: c41e a1ba e43a 35bc f589 003a dc22 8b3a
00000350: e37d fa3a d3c1 cfbb 4773 b8bc 0022 0e3c
00000360: 5008 7dbb d2f1 28b9 b0af d93b e2d7 90bc
00000370: f510 823a 5c54 89bb 7015 8dbb bbae 9e3b
00000380: 47b0 64bc 534a 4f3c 82db 8b3b 50b1 8c3b
00000390: 1b75 f93b e30f 56bc 6b07 b8bb 555b 89b9
000003a0: 1b68 f73a 4b9a 543b ebd2 d13a 179b c4bb
000003b0: db72 af3c b5a1 cb3b 40a9 eebb bb8e a03b
000003c0: f084 93bc 498b 18bc 5a18 09bc eb3a 72bb
000003d0: c53b 5fbb d270 4cbc 4425 0a3c a311 69bb
000003e0: 5082 20bc c193 48bb b795 643a 0074 e23b
000003f0: 6566 11bc 6d28 c5bb fcef 86bb 0545 16bc

fc1.bias f4 [64]
0.0038506151 -0.022570748 -0.0746864 0.09698673 -0.004229019 -0.18643771 -0.0058158683 0.0074424148
0.00037477128 -0.0036836825 -0.0066611865 -0.012362723 -0.00744517 -0.0027983906 -0.10358211 -0.019780787
0.018200241 -0.13294362 -0.0041679363 0.0030149666 0.002091758 0.0020842904 0.037330557 -0.01741518
0.0005505699 0.038001787 -0.004540526 -0.025574395 0.0053528706 -0.085147254 0.009391061 -0.00817011
0.017799845 -0.013558151 0.0038474835 0.17609087 -0.0010396633 -0.00033980075 0.090827756 -0.13751398
0.11201968 -0.060768645 -0.001219057 -0.042778965 0.0054567778 -0.0036309927 0.16544507 -0.017038241
0.012111495 -0.008406461 -0.0004527634 0.14445727 -0.016526936 -0.011784363 -0.005773975 -0.087283336
-0.011593259 -0.0782536 -0.023065848 0.09821877 -0.02546962 0.025291583 -0.0055873445 0.0010122751
00000000: 9a5a 7c3b 4ae6 b8bc 2ff5 98bd fba0 c63d
00000010: 9593 8abb 87e9 3ebe 0a93 bebb 80df f33b
00000020: f37c c439 f069 71bb 1546 dabb 058d 4abc
00000030: 9df6 f3bb 3465 37bb db22 d4bd 510b a2bc
00000040: ac18 953c 5f22 08be 2f93 88bb bf96 453b
00000050: e015 093b 9798 083b ede7 183d 48aa 8ebc
00000060: 1f54 103a c3a7 1b3d b1c8 94bb 6581 d1bc
00000070: 2267 af3b af61 aebd f7dc 193c eddb 05bc
00000080: fbd0 913c 0223 5ebc 1026 7c3b 2a51 343e
00000090: 5045 88ba 4927 b2b9 e703 ba3d 77d0 0cbe
000000a0: 936a e53d 8be8 78bd c4c8 9fba ff38 2fbd
000000b0: c5ce b23b f3f5 6dbb 6f6a 293e c893 8bbc
000000c0: 4b6f 463c 41bb 09bc e060 edb9 9bec 133e
000000d0: 7f63 87bc 3313 41bc 9d33 bdbb 9bc1 b2bd
000000e0: a7f1 3dbc 6c43 a0bd 97f4 bcbc ec26 c93d
000000f0: aaa5 d0bc 4b30 cf3c 0b16 b7bb 51ae 843a

fc2.weight f4 [10, 64]
0.07143561 0.09511913 -0.03474577 -0.028455472 -0.014009923 0.018066091 -0.009297934 -0.09464327
-0.028034404 -0.036834437 -0.06302767 0.054545015 0.013883606 0.06185651 0.023175457 0.011695004
-0.06539999 0.026596738 -0.021238578 0.037826397 0.0048761414 0.016894585 -0.06379431 -0.0018643616
0.020767355 -0.13180698 0.030417154 -0.0149637135 0.059549827 0.061547954 0.009459979 -0.012439667
-0.019809108 -0.008170731 0.0375478 -0.07270803 0.026913112 -0.02486365 -0.09262407 0.116407014
-0.074501455 -0.01761493 -0.041954458 0.12513152 -0.036539804 -0.025554666 0.092911735 0.025444034
-0.02628471 0.0046263034 -0.029086623 -0.047642473 0.025686055 0.06907638 0.021666745 0.017366678
0.07433697 0.008090615 0.04933425 0.072516225 -0.039510228 -0.14982967 0.008037566 -0.004770995
-0.045427334 -0.01593783 0.028006777 -0.08195529 0.026651397 0.02109011 0.017605413 -0.07124587
0.013540168 -0.008691448 -0.02533617 0.09866019 -0.07538642 -0.01849875 -0.02735248 0.0089411875
0.042595357 0.0049606236 -0.0032894798 0.12410611 -0.03347224 -0.021109454 0.089363635 0.023787998
-0.006318183 0.054658633 0.009468913 0.0034964865 -0.024364559 0.112569764 -0.080158666 -0.025047401
0.052032333 0.009760121 0.025309274 -0.015815873 -0.002324295 0.008862088 0.059189178 0.13432647
-0.0330322 0.014925395 0.05359025 -0.18593596 -0.031333722 0.020176953 -0.08971335 -0.025803333
-0.05816653 0.004426397 0.0003761323 -0.12228187 0.037579328 0.014114276 -0.02411559 0.047163025
-0.031852376 0.06576428 0.013864902 -0.031310122 -0.026429845 0.11897732 -0.008024759 0.03211185
-0.013180012 0.06413106 0.005311437 0.023358291 0.004198992 -0.054436244 -0.099935666 0.012622929
0.010761126 -0.06253132 0.006269938 0.08548999 0.0061845826 0.0061451807 0.0916892 0.016352369
-0.059972662 0.0013942526 -0.043337625 -0.0031194997 -0.054038372 -0.013139612 0.086355574 0.016661666
-0.002066795 0.061674118 0.020093394 -0.057456505 -0.018914243 -0.10621095 -0.027877036 -0.04505068
0.015630016 -0.019767223 0.011606242 0.07722713 0.018500498 0.029288456 -0.052053 -0.059536535
0.037999246 -0.1315801 0.04551142 0.056027528 -0.004901492 0.0154821295 0.14796832 -0.060489364
-0.008666981 0.0009559027 0.015346387 0.037061095 0.013792855 0.016141651 -0.015614069 -0.07041269
0.019270182 0.08104513 -0.0054251347 -0.010581183 -0.0016544054 -0.10937089 -0.02350832 -0.015936635
0.07356737 -0.21438065 -0.053437777 0.0104178 -0.05126052 0.01665754 0.048100762 0.053936064
-0.059835024 -0.056729496 -0.01568596 0.02725321 9.834917e-05 0.054285973 -0.013688889 -0.008765197
0.074511856 -0.022931496 -0.046022315 -0.035989527 0.009114022 0.032733846 0.008184031 0.0034797962
-0.038421012 0.029644078 -0.035369754 0.0815303 0.010225405 -0.01999475 -0.016583564 0.021786138
-0.10042977 -0.014135309 0.083984755 0.030479122 -0.0203799 0.028680403 -0.014295886 -0.08081176
-0.0033156078 -0.048821177 -0.019589681 9.030806e-05 -0.030873481 0.030809654 -0.04185077 -0.039717283
0.009779095 0.015921505 0.016684532 0.024563547 0.04464799 -0.0014963838 -0.030141136 0.027521877
-0.042207446 0.038818937 -0.06255399 0.0942915 -0.02660498 -0.11836707 -0.023157943 -0.0066679115
00000000: d54c 923d d2cd c23d 9551 0ebd 731b e9bc
00000010: e089 65bc 57ff 933c 5d56 18bc 55d4 c1bd
00000020: 68a8 e5bc b5df 16bd a714 81bd 986a 5f3d
00000030: 1078 633c 405d 7d3d 75da bd3c 679c 3f3c
00000040: 6ef0 85bd 67e1 d93c 87fc adbc daef 1a3d
00000050: 0ac8 9f3b 8366 8a3c 97a6 82bd 985d f4ba
00000060: 4d20 aa3c 69f8 06be 652d f93c 5d2a 75bc
00000070: 85ea 733d b519 7c3d 07fe 1a3c bfcf 4bbc
00000080: b646 a2bc 88de 05bc b9cb 193d f3e7 94bd
00000090: e378 dc3c daae cbbc b0b1 bdbd cd66 ee3d
000000a0: 3894 98bd 304d 90bc 70d8 2bbd 7a22 003e
000000b0: c3aa 15bd 0558 d1bc 8248 be3d 0270 d03c
000000c0: 0853 d7bc 3f98 973b 1247 eebc c124 43bd
000000d0: 906b d23c eb77 8d3d 757e b13c 9044 8e3c
000000e0: fb3d 983d 808e 043c b612 4a3d 6383 943d
000000f0: 7ad5 21bd f36c 19be ffaf 033c 0256 9cbb
00000100: 0312 3abd 0d90 82bc 786e e53c 2dd8 a7bd
00000110: 0854 da3c 2bc5 ac3c 3a39 903c 5be9 91bd
00000120: 95d7 5d3c 9366 0ebc cd8d cfbc 5b0e ca3d
00000130: 3264 9abd b18a 97bc 4f12 e0bc 0f7e 123c
00000140: 7878 2e3d ba8c a23b 5094 57bb 582b fe3d
00000150: 301a 09bd bced acbc 4804 b73d 0cdf c23c
00000160: c308 cfbb bbe1 5f3d 8023 1b3c 4f25 653b
00000170: 2f98 c7bc fa8a e63d 3a2a a4bd 3530 cdbc
00000180: db1f 553d eae8 1f3c 6555 cf3c 4a90 81bc
00000190: 3353 18bb 4b32 113c 5a70 723d e18c 093e
000001a0: c64c 07bd a589 743c 7381 5b3d ff65 3ebe
000001b0: ca57 00bd 234a a53c a2bb b7bd 8361 d3bc
000001c0: 0740 6ebd 4f0b 913b 9f33 c539 eb6e fabd
000001d0: c8ec 193d 903f 673c 0f8e c5bc 042e 413d
000001e0: a377 02bd 6caf 863d 9d29 633c 0b3f 00bd
000001f0: 6783 d8bc 62aa f33d 477a 03bc b787 033d
00000200: faf0 57bc 2557 833d 900b ae3b e359 bf3c
00000210: b397 893b 8af8 5ebd 12ab ccbd 67d0 4e3c
00000220: 6f4f 303c 6c10 80bd 0d74 cd3b 6015 af3d
00000230: 0aa8 ca3b 835d c93b 8cc7 bb3d 67f5 853c
00000240: e5a5 75bd 5bbf b63a cb82 31bd 8570 4cbb
00000250: 5757 5dbd 8747 57bc 31db b03d 0c7e 883c
00000260: 1173 07bb 009e 7c3d e79a a43c 8357 6bbd
00000270: 0bf2 9abc 2085 d9bd 625e e4bc 1087 38bd
00000280: 850a 803c dfee a1bc 1b28 3e3c 4229 9e3d
00000290: 5b8e 973c 58ee ef3c 8735 55bd 95dc 73bd
000002a0: 19a5 1b3d efbc 06be 2f6a 3a3d 1f7d 653d
000002b0: b29c a0bb c2a8 7d3c 0285 173e b2c3 77bd
000002c0: f4ff 0dbc 8b95 7a3a 6a6f 7b3c 60cd 173d
000002d0: 6dfb 613c 7f3b 843c 27d2 7fbc 8734 90bd
000002e0: 80dc 9d3c fdfa a53d 54c5 b1bb b35c 2dbc
000002f0: a2d8 d8ba d8fd dfbd 8594 c0bc 8c8d 82bc
00000300: 7daa 963d 9a86 5bbe 92e1 5abd 6caf 2a3c
00000310: 8df6 51bd 6575 883c 4e05 453d 10ec 5c3d
00000320: 9215 75bd 305d 68bd d87f 80bc 2042 df3c
00000330: cf40 ce38 f85a 5e3d 5d47 60bc e79b 0fbc
00000340: ac99 983d d5da bbbc e581 3cbd c169 13bd
00000350: fb52 153c ed13 063d 5016 063c 4b0d 643b
00000360: 5a5f 1dbd 23d8 f23c e0df 10bd 5cf9 a63d
00000370: 7588 273c 08cc a3bc 41da 87bc d878 b23c
00000380: 20ae cdbd c897 67bc 3300 ac3d 5aaf f93c
00000390: bff3 a6bc 2af3 ea3c 4b39 6abc a380 a5bd
000003a0: ab4a 59bb b7f8 47bd 8a7a a0bc c563 bd38
000003b0: 62ea fcbc 8764 fc3c b76b 2bbd 97ae 22bd
000003c0: 7f38 203c d16d 823c 00ae 883c 7e39 c93c
000003d0: d0e0 363d 4f22 c4ba 8bea f6bc 8f75 e13c
000003e0: b7e1 2cbd 9b00 1f3d 4e1c 80bd e71b c13d
000003f0: b0f2 d9bc 6f6a f2bd bab5 bdbc 7f7e dabb

fc2.bias f4 [10]
-0.12529828 -0.094458364 0.0686 0.0660596 0.19327116 -0.042535152 0.07848442 -0.06923729
-0.037802357 -0.048506785
00000000: 314e 00be 6373 c1bd 287e 8c3d 414a 873d
00000010: e0e8 453e 5739 2ebd 71bc a03d 48cc 8dbd
00000020: a5d6 1abd 0daf 46bd
