torch_to_tf/torch_models/model_round479.model (torch, 493063 bytes, 10 tensors)

conv1.weight f4 [32, 3, 3, 3]
0	0xbd29f83a	-0.041496493
1	0xbd328f3b	-0.043593626
2	0xbdbe6125	-0.092958726
3	0xbd91990e	-0.07109271
4	0xbcc611e8	-0.02417846
5	0xbd165fcb	-0.03671245
6	0x3d936552	0.0719706
7	0x3d7ddfb8	0.061980933
8	0x3cb52ddb	0.022116592
9	0x3d12b423	0.035816323
10	0xbd54c9a5	-0.051950116
11	0xbd95edef	-0.07320773
12	0x3cfef75f	0.031123815
13	0x3c2fe2af	0.010735198
14	0x3d36ec07	0.044658687
15	0xbc90a33d	-0.017655963
16	0xbdd84260	-0.10559535
17	0x3bb61994	0.0055572484
18	0x3d04269c	0.032263383
19	0x3d81c221	0.06335855
20	0x3db33180	0.08749676
21	0xbd16add6	-0.036786877
22	0x3cd843ea	0.026399571
23	0x3cb50735	0.022098163
24	0x3df18bdd	0.11794255
25	0x3d328511	0.043583933
26	0x3cf869b0	0.030323833
27	0xbd52dccf	-0.05148011
28	0xbd0b199d	-0.033959974
29	0x3d7b543a	0.06135962
30	0x3d1af344	0.037829652
31	0xbd205997	-0.03914794
32	0x3cfc7f6b	0.030822476
33	0xbbc7edab	-0.0061013303
34	0x3d20f79e	0.039298646
35	0x3cdee9e7	0.027211143
36	0xbcf78eb0	-0.030219406
37	0x3ad7cd3b	0.0016464362
38	0x3d715d65	0.05892696
39	0xbd25ef52	-0.040511437
40	0x3ba5fb5a	0.005065364
41	0x3cc3d5d2	0.023905668
42	0xbb5e19c5	-0.0033889872
43	0x3d51c387	0.05121186
44	0xbbc94b38	-0.006143
45	0xbd1ec877	-0.038765397
46	0x3d10891d	0.03528701
47	0xbd29e862	-0.041481383
48	0xbddff8d5	-0.10936133
49	0x3c97f19a	0.018547822
50	0xbc1015cb	-0.008794258
51	0xbda5d9f0	-0.08098209
52	0x3c8120af	0.015762655
53	0x3df5c462	0.12000348
54	0xbd8dc504	-0.069223434
55	0xbccfb625	-0.025355408
56	0x3d95ccbd	0.07314441
57	0x3db78215	0.08960358
58	0xbd2543f9	-0.040348027
59	0xbd5821b5	-0.05276652
60	0xbd0ddba8	-0.03463331
61	0x3dcb98cc	0.09941253
62	0xbd38db54	-0.045131043
63	0x3c303f2f	0.010757252
64	0x3cae3a85	0.021268139
65	0x3ae81def	0.0017709116
66	0xbc4a87e2	-0.012361499
67	0xbbc82553	-0.006107965
68	0x3d1a4bff	0.03767013
69	0x3bdc5387	0.0067238244
70	0x3cbadf58	0.022811577
71	0x3d03b5d7	0.032155838
72	0x3cd20d6a	0.025641162
73	0xbd503ecd	-0.05084114
74	0x3c65a1c3	0.014015618
75	0x3dd5c198	0.10437316
76	0x3b4afc01	0.003097296
77	0xbc60e9fd	-0.013727662
78	0xbcfbb0c3	-0.030723935
79	0x3daf6f45	0.08566145
80	0x3d823b13	0.06358924
81	0x3e14a57a	0.1451625
82	0x3ca39580	0.019968748
83	0xbdc674b8	-0.09690231
84	0x3c8ddfec	0.017318688
85	0x3c83c678	0.016085848
86	0xbcf31060	-0.029670894
87	0x3da80f82	0.08206083
88	0x3be5b7a7	0.0070104185
89	0xbd960e58	-0.073269546
90	0x3a6a87c0	0.000894662
91	0xbd89599b	-0.06706544
92	0x3d98055c	0.07422897
93	0x3d405e43	0.046964895
94	0xbdd5c9bd	-0.10438869
95	0xbd6d9a5a	-0.05800853
96	0x3cd0b5a0	0.02547723
97	0xbd88ff2f	-0.066892974
98	0x3d702dfb	0.0586376
99	0x3d04d418	0.03242883
100	0xbd3c51da	-0.045976497
101	0xbcac82f6	-0.02105854
102	0x3d59ebd3	0.053203415
103	0x3caabc3a	0.020841707
104	0xbb7fd8e7	-0.0039039196
105	0x3d909203	0.070590995
106	0xbcb1296b	-0.021626195
107	0xbdadcf2d	-0.08486781
108	0xbcabd902	-0.0209775
109	0xbb8524f6	-0.004063244
110	0xbc84735f	-0.016168294
111	0x3d9c0bc5	0.07619432
112	0xbcfff558	-0.031244919
113	0x3d6e1142	0.058121927
114	0xbd75dc8a	-0.060024776
115	0xbd3507f4	-0.044197038
116	0x3d5fc5ab	0.05463187
117	0xbe03c1d7	-0.12866913
118	0xbbb17fe7	-0.0054168585
119	0xbd4f4355	-0.050601322
120	0xbcb77261	-0.022393407
121	0x3a879bbd	0.0010346096
122	0xbd925a15	-0.07146088
123	0x3d315af1	0.04329962
124	0x3db6f967	0.089342885
125	0x3d53291b	0.051552873
126	0x3d5f8997	0.054574575
127	0xbcece56f	-0.028917996
128	0xbd1db4b5	-0.038502414
129	0xbd2d65a0	-0.042333245
130	0xbd342deb	-0.043989103
131	0x3b849630	0.004046224
132	0x3d7baeba	0.06144593
133	0x3da2c158	0.07947034
134	0xbc11704b	-0.00887687
135	0x3d124488	0.035709888
136	0xbc7b6117	-0.015342972
137	0x3daf8603	0.085704826
138	0x3ceb420a	0.028718013
139	0x3c092d72	0.008372651
140	0x3da752e1	0.08170105
141	0xbd095b5b	-0.03353439
142	0xbda161b3	-0.07879963
143	0x3d3a3dd1	0.04546911
144	0xbc9354c8	-0.017984763
145	0xbdbea09b	-0.09307977
146	0x3dcd29d3	0.10017743
147	0x3b9298e3	0.004473792
148	0x3bf678fa	0.0075217457
149	0xbc96185c	-0.018322162
150	0xbd8c698b	-0.06856068
151	0xbe0c123d	-0.13678832
152	0x3d0ee5b5	0.034887034
153	0x3cb6a405	0.022295007
154	0xbdc38210	-0.09546292
155	0x3da369f3	0.079791926
156	0xbccca522	-0.024981085
157	0x3d80631b	0.06268903
158	0x3d024b5b	0.031810146
159	0xbcf6958d	-0.030100608
160	0x3c2c4a07	0.010515696
161	0xbcbacd77	-0.022803051
162	0xbd71061b	-0.058843713
163	0xbd6fdd80	-0.05856085
164	0xbd83ff0b	-0.0644513
165	0x3c879763	0.016551679
166	0x3d0484a6	0.032353066
167	0xbd52168d	-0.051291037
168	0xbd06fc96	-0.03295573
169	0x3c8a8ae7	0.016911937
170	0x3be50618	0.006989252
171	0xbd5f6ae2	-0.05454529
172	0x3d9aa467	0.075508885
173	0x3cdc6a35	0.026906112
174	0x3d659878	0.05605361
175	0xbd8a409d	-0.06750605
176	0x3d67c7ea	0.056587137
177	0xbcea7395	-0.028619567
178	0x3d21742f	0.039417442
179	0x3d4aa2ee	0.049471788
180	0x3d11c685	0.035589714
181	0xbc43eaa7	-0.011957801
182	0x3d23a668	0.03995362
183	0x3d569070	0.05238384
184	0xbc96d56a	-0.01841231
185	0x3dcdf4ba	0.100564435
186	0x3d299878	0.04140517
187	0xbd18606b	-0.037201326
188	0xbbfb1ae7	-0.007663119
189	0xbd16ab0b	-0.036784213
190	0xbcd6434b	-0.026155135
191	0x3d8ce0ed	0.06878839
192	0xbd8990a5	-0.06717042
193	0x3bf27b4b	0.0073999516
194	0xbc811ef7	-0.015761836
195	0x3d8025d4	0.06257215
196	0x3c001fe0	0.0078201
197	0x3bf7e930	0.00756564
198	0xbcacb03f	-0.021080134
199	0xb9cb3ded	-0.00038765316
200	0xbbc6f180	-0.0060712695
201	0x3daeffea	0.085449055
202	0xbd0d43df	-0.034488555
203	0x3d4a37d4	0.049369648
204	0x3b17c67f	0.0023159084
205	0x3d01d8e7	0.031700995
206	0xbe0bfe83	-0.13671307
207	0x3bdec120	0.0067979246
208	0x3c17d4bf	0.009267031
209	0x3cdcd1c3	0.026955491
210	0x3c8be277	0.01707576
211	0xbc69f398	-0.014279269
212	0xbdbced50	-0.09224951
213	0x3dbf111b	0.093294345
214	0x3bf2fc52	0.007415333
215	0xbd2b3cf6	-0.041806184
216	0x3d4d0480	0.05005312
217	0x3db67ee9	0.08910925
218	0xbc04fa4b	-0.008116315
219	0x3d265b72	0.040614553
220	0x3c47a05b	0.012184228
221	0xbcf35de0	-0.029707849
222	0x3d24c7b5	0.040229518
223	0xbd083b0f	-0.033259448
224	0x3ce57090	0.028007776
225	0x3d4f81a8	0.05066076
226	0x3df1b41b	0.118019305
227	0x3d8d7ccc	0.06908569
228	0xbdd9a72b	-0.10627588
229	0xbd5f7e7d	-0.054563988
230	0xbd48d0d0	-0.049027264
231	0xbd8f8219	-0.07007236
232	0xbc8cb291	-0.01717499
233	0x3d1f0e37	0.038831916
234	0x3cc77893	0.024349486
235	0x3dc13f3f	0.09435891
236	0xbd42d58a	-0.047566928
237	0x3d8ca1e7	0.06866818
238	0xbd1c7cd7	-0.038204994
239	0xbc843020	-0.016136229
240	0x3d3df29d	0.046373952
241	0xbe03fd83	-0.12889676
242	0xbdba14b2	-0.090859786
243	0xbdb423ca	-0.08795889
244	0xbd095a8f	-0.03353363
245	0x3d665cca	0.056240834
246	0x3d4d7add	0.050166
247	0xbd31e33b	-0.043429594
248	0xbd454541	-0.04816175
249	0xbd3b5fe3	-0.04574574
250	0x3d0d6f93	0.034530234
251	0xbd3cbfe0	-0.046081424
252	0x3d852b67	0.06502419
253	0xbc2fac56	-0.01072224
254	0x3c985a12	0.018597636
255	0x3d6fd463	0.058552157

conv1.bias f4 [32]
0	0xbd5d6a4b	-0.054056447
1	0x3cc394f1	0.023874732
2	0x3cea22db	0.028581074
3	0x3cb653a1	0.022256674
4	0xbdd8b147	-0.10580688
5	0x3c070a39	0.008242183
6	0x3ca8c407	0.020601286
7	0x3d190f86	0.03736832
8	0xbce53bab	-0.027982553
9	0xbd6fac83	-0.05851413
10	0x3dde0d40	0.10842371
11	0xbda0538b	-0.078284346
12	0xbd417667	-0.047232058
13	0xbdbfee5f	-0.093716376
14	0xbc9a3288	-0.018822923
15	0xbd603cdd	-0.054745544
16	0x3d82caa7	0.06386309
17	0x3c1b6215	0.009483834
18	0x3dc35a2d	0.09538684
19	0xbd696c3b	-0.056987982
20	0x3de86235	0.113468565
21	0x3ddf745a	0.10910864
22	0x3d277c24	0.040889874
23	0x3c754c10	0.014971748
24	0x3c7c027f	0.0153814545
25	0xbe56847f	-0.20948981
26	0x3e190873	0.1494463
27	0x3d2ae94b	0.04172639
28	0xbccba77d	-0.024860138
29	0xbb83d8de	-0.0040236553
30	0xbd5f46c0	-0.05451083
31	0x3d8d03b5	0.06885473

conv2.weight f4 [64, 32, 3, 3]
0	0x3c2345b3	0.009965348
1	0xbcde87a3	-0.027164286
2	0x3c6c8e5b	0.014438237
3	0xbc0a86b2	-0.008454965
4	0xbca9da98	-0.020734116
5	0xbc067eb1	-0.0082089165
6	0xbb8a1e5d	-0.0042150454
7	0x3b9681b8	0.0045931004
8	0x3a779078	0.000944383
9	0x3cce553d	0.02518713
10	0x3bb3b2a0	0.0054839402
11	0xbb2537ca	-0.0025210255
12	0xbd04cb08	-0.03242019
13	0xbc831ee5	-0.016005943
14	0xbca2ffa7	-0.019897295
15	0xbb286722	-0.0025696238
16	0x3b84651c	0.0040403735
17	0x3ab18085	0.001354233
18	0xbc4fe45f	-0.012688725
19	0xbc89e2ba	-0.016831744
20	0xbc922b0d	-0.017842794
21	0x3bec6c2b	0.007215043
22	0x3adfe5dd	0.0017082054
23	0x39b0c879	0.000337187
24	0xbcd2fc28	-0.025755003
25	0xbce360ea	-0.027756173
26	0x3c576c60	0.013148397
27	0xbc7545ed	-0.014970285
28	0xbc609f3f	-0.013709842
29	0xbc8885a5	-0.01666529
30	0xbc8187e3	-0.015811866
31	0x3cb6ccf4	0.022314526
32	0xbcabf487	-0.020990623
33	0x36a36498	4.869489e-06
34	0xbc97dbbb	-0.018537393
35	0x39cbc0f5	0.0003886294
36	0x3d03f660	0.032217383
37	0x3bc81410	0.0061059073
38	0xbc7dafb0	-0.015483782
39	0x3bb3850b	0.0054785064
40	0x3c84af18	0.016196772
41	0xbc41123f	-0.011784135
42	0xba1bc7cf	-0.00059425546
43	0xba971523	-0.0011526685
44	0xbc349bc7	-0.011023468
45	0x3c4c4853	0.012468415
46	0xbc4ff758	-0.012693249
47	0x3ca5ddbd	0.020247335
48	0xbcfb3ccb	-0.030668637
49	0x3c842f67	0.016135884
50	0xbc8100a4	-0.015747376
51	0x3c539995	0.012915035
52	0xbd0fcca5	-0.035107274
53	0xbcbf2ea2	-0.023337666
54	0xbd15c239	-0.03656218
55	0xbcdeb553	-0.027186072
56	0x3ba7dca7	0.0051227394
57	0xbbb8d76d	-0.005640915
58	0xbb292ac8	-0.0025812853
59	0xbcaaf9a9	-0.020871
60	0x3cc80b77	0.02441953
61	0xbbff12da	-0.0077842297
62	0x3b82c655	0.003990928
63	0xbc96b0dd	-0.018394882
64	0xbb582f13	-0.0032987043
65	0xbc9a38d4	-0.018825926
66	0xbabc8beb	-0.001438496
67	0xbd093142	-0.03349424
68	0xbce1fe60	-0.027587116
69	0xbc627ae3	-0.013823244
70	0x3b80dd9c	0.003932668
71	0xbc8cdc62	-0.01719493
72	0x3bc57678	0.0060260855
73	0x3c2a912a	0.010410586
74	0xbb717a10	-0.0036846437
75	0x3c20fb81	0.009825588
76	0xbc2b46d0	-0.010453895
77	0xbc804da4	-0.015662022
78	0xbc00f74b	-0.007871459
79	0x3c35377a	0.01106059
80	0xbcb81924	-0.022472925
81	0xbc52d4a3	-0.012868079
82	0x3bb3a54f	0.005482353
83	0xbcd9b0b8	-0.026573524
84	0x3c892890	0.016742975
85	0xbcce5510	-0.025187045
86	0x3a8c3687	0.0010697403
87	0x3c9c861f	0.019106923
88	0xbce24458	-0.02762048
89	0xbd1c37a1	-0.03813899
90	0xbd1d9ee8	-0.038481623
91	0xbc551e9d	-0.013007787
92	0x3bf6e213	0.0075342744
93	0x3c69d357	0.014271579
94	0xbc2b2a77	-0.010447136
95	0x3bb92a02	0.0056507597
96	0xbb0ea6a7	-0.0021766813
97	0x3ac25ca3	0.0014828633
98	0xbcb27d48	-0.021788254
99	0xbcd7cab0	-0.026341766
100	0x3cb6acfa	0.022299279
101	0xbc05a7d0	-0.008157685
102	0xbc6d0370	-0.014466152
103	0xbcf8cbd8	-0.030370638
104	0x3c68afb2	0.014202045
105	0xbd035368	-0.032061964
106	0xbcc8a00f	-0.024490384
107	0x3c730a47	0.014833993
108	0xbcd002f3	-0.025392031
109	0x3b363ab8	0.0027805995
110	0xbb28bf44	-0.0025748769
111	0xbaf5f108	-0.001876385
112	0xbc9085a3	-0.017641848
113	0xbc15790a	-0.009123096
114	0xba6abebb	-0.00089548127
115	0xbc8bbca3	-0.017057722
116	0x3a162125	0.0005726985
117	0xbd06739f	-0.03282511
118	0xbc2955c2	-0.010335388
119	0xbcdbbebf	-0.026824353
120	0xbc65bff8	-0.01402282
121	0xbc929cd0	-0.01789704
122	0xbadbfdff	-0.0016784071
123	0x3c0ae3cf	0.008477165
124	0x3bb19ac7	0.005420062
125	0xbc573983	-0.01313627
126	0xbcb9d768	-0.022685722
127	0x3b169527	0.0022977085
128	0xbb99321f	-0.0046751644
129	0xbc8b826f	-0.017029969
130	0xbcd225d7	-0.025652809
131	0xbc879240	-0.01654923
132	0xbc4968b1	-0.012293027
133	0xbd0119ab	-0.03151862
134	0x3c0c61b7	0.008568219
135	0x3907ca23	0.00012949905
136	0x3c5f657b	0.013635035
137	0xbcb68ecd	-0.02228489
138	0xbc8b5f10	-0.017013103
139	0xbc3ed51f	-0.011647492
140	0xbc800a35	-0.015629867
141	0xbc12051c	-0.008912351
142	0xbcb4ae3f	-0.022055743
143	0xbbf7136a	-0.007540156
144	0xbcbcdf39	-0.02305566
145	0xbc56a663	-0.013101193
146	0xbce8e1d8	-0.028428003
147	0xbc75c55d	-0.015000668
148	0x3c9ac45c	0.01889246
149	0xbab6ab63	-0.0013936575
150	0xbc32ca58	-0.0109125
151	0xbbf1b962	-0.0073768357
152	0xbca291bc	-0.019844882
153	0xbc23a82b	-0.009988825
154	0xbc373577	-0.011182181
155	0xbc63a85a	-0.013895119
156	0x3bf53b38	0.007483866
157	0x3c205b7b	0.009787436
158	0xbbe298ad	-0.006915173
159	0x3c0372e7	0.008023
160	0xbbe0854a	-0.006851827
161	0xbc392192	-0.011299508
162	0xbbe11988	-0.0068694986
163	0x3c78d84d	0.015188289
164	0x3c8edd3f	0.017439483
165	0xbced33f0	-0.02895543
166	0x3b1819a2	0.0023208638
167	0xbb27e108	-0.0025616307
168	0xbcd89bc3	-0.02644146
169	0x3c0f116f	0.008732184
170	0xbcb4ad0a	-0.022055168
171	0xbb974829	-0.0046167565
172	0xbba0bbf5	-0.0049052187
173	0xbcc6526a	-0.02420922
174	0xbb6b21b8	-0.0035878252
175	0xbc8cd04c	-0.017189167
176	0xbce4a4eb	-0.02791067
177	0x3a6c0617	0.0009003593
178	0xbb093d94	-0.0020941244
179	0x3d0c7537	0.034291472
180	0xbb1f62a7	-0.0024320276
181	0xbc11f867	-0.008909321
182	0xbcbbf02f	-0.022941677
183	0xbb7ef2f0	-0.0038902126
184	0xbc606885	-0.013696794
185	0xbb58b33f	-0.0033065823
186	0xbc74fdf0	-0.014953122
187	0x3cc56a38	0.0240985
188	0xbc19c7c2	-0.009386005
189	0xbcaa4b92	-0.020787988
190	0xbbb183a2	-0.005417303
191	0xbb649e77	-0.0034884491
192	0xbc9a285f	-0.018818079
193	0xbb49c7c5	-0.0030789238
194	0x3c988a13	0.018620526
195	0xbbc228e8	-0.0059252866
196	0x3c9731a4	0.018456288
197	0xbb918170	-0.004440479
198	0x3a8109fb	0.0009844893
199	0x3c7f4a6f	0.015581711
200	0xbc59fc5d	-0.013304797
201	0xbb08a548	-0.0020850468
202	0x3ceff3ab	0.029290995
203	0x3c6ba3af	0.014382287
204	0x3b93ab4c	0.004506504
205	0x3c449032	0.0119972695
206	0xbcff0768	-0.031131461
207	0xbc9832ef	-0.018578975
208	0xb9eef0f5	-0.00045574424
209	0xbc300695	-0.010743757
210	0xbcd145aa	-0.025545914
211	0xbc00a212	-0.007851141
212	0xba030bc0	-0.00049990043
213	0xbc16870f	-0.009187474
214	0x3cf1ab52	0.029500637
215	0x3c993963	0.018704122
216	0xbcda4c40	-0.026647687
217	0xbd0ae874	-0.03391309
218	0xbd09b67f	-0.033621307
219	0x3c5b2832	0.0133762825
220	0x3c8c1bb3	0.017103052
221	0xbcac190b	-0.021008035
222	0x3c0d6d58	0.008632027
223	0x3bab3ada	0.0052255215
224	0x3a7d8807	0.0009671454
225	0x3c5b46e0	0.013383597
226	0xba865ac1	-0.0010250435
227	0xbab45be4	-0.0013760296
228	0xbc2d742f	-0.010586782
229	0xb98dda30	-0.00027056178
230	0xbcb1fe08	-0.021727577
231	0xbc2c4413	-0.010514277
232	0xbbcd45df	-0.006264433
233	0xbcb8f422	-0.02257735
234	0x3c0616c7	0.0081841415
235	0xbbc25aa7	-0.0059312168
236	0xbd131d47	-0.035916593
237	0xbab3549b	-0.0013681831
238	0xbc111977	-0.008856169
239	0xbc262329	-0.010140219
240	0xbcb960b0	-0.022629112
241	0xbcde48ad	-0.027134264
242	0x3bc05eab	0.0058706603
243	0xbbde72aa	-0.0067885714
244	0x3ca4cbbf	0.020116685
245	0x3d111227	0.035417702
246	0xbb5b22fb	-0.0033437598
247	0xbcb5541d	-0.022134835
248	0xbc46989a	-0.012121344
249	0xbb8d15bf	-0.004305571
250	0x3b983535	0.0046450146
251	0xbcef20c0	-0.029190421
252	0x3ba16b17	0.004926096
253	0xbca3771f	-0.019954262
254	0x3b92112a	0.0044576125
255	0xbd15ee62	-0.036604293

conv2.bias f4 [64]
0	0x3c976cdc	0.018484525
1	0xbc33547b	-0.010945435
2	0x3ac62ba2	0.0015119205
3	0x3d2e9f1b	0.042632204
4	0xbd451647	-0.04811695
5	0xbbcf60ef	-0.006328694
6	0x37ea8c70	2.796037e-05
7	0xbc80b8e4	-0.015713163
8	0xbcdcc8b0	-0.026951164
9	0x3bc6ee42	0.006070883
10	0x3c158412	0.009125726
11	0x3c419b9e	0.011816887
12	0xb9f95303	-0.0004755483
13	0xbbd58ead	-0.0065172524
14	0xbc0de3f8	-0.008660309
15	0xbd16dfdf	-0.036834594
16	0x3c17b3d3	0.009259182
17	0x3deb8833	0.11500587
18	0x3d10f73c	0.03539203
19	0xbcec201f	-0.02882391
20	0xbd23594a	-0.039880075
21	0xbc07cb4f	-0.008288219
22	0xbbdb4f3f	-0.0066927965
23	0xbd08165b	-0.033224445
24	0x3d1142ea	0.035464205
25	0xbcb4adce	-0.022055533
26	0xbc8108c3	-0.015751248
27	0x3d0c3088	0.03422597
28	0x3d6bd95f	0.057580348
29	0xbd1cb864	-0.038261786
30	0xbc4bcd83	-0.0124391345
31	0xbaa300d3	-0.0012436159
32	0xbaba91d9	-0.001423414
33	0xbd766122	-0.060151227
34	0xbd9cebfe	-0.076621994
35	0x3d951a6a	0.07280429
36	0xbc1d6a78	-0.009607904
37	0x3bf2f55b	0.0074145026
38	0x3b99e29d	0.004696204
39	0x3d84020f	0.06445705
40	0x3ab8b205	0.001409114
41	0xbc9269ff	-0.017872809
42	0x3ca6857f	0.020327328
43	0xbb3e7eb3	-0.0029067218
44	0xba0e1d7a	-0.00054212625
45	0xbc9460e1	-0.018112602
46	0x3bf331a5	0.0074216896
47	0x3c8348d5	0.01602594
48	0xbce44043	-0.027862674
49	0x3bcc03bc	0.006226031
50	0xbd32023f	-0.043459173
51	0x3d112eed	0.035445143
52	0xbc3e63a0	-0.011620432
53	0xbcb452d1	-0.022012146
54	0x3dc8e88c	0.0980998
55	0x3c6ab4a2	0.014325293
56	0xbc8b498f	-0.017002849
57	0x3d4624a3	0.048374783
58	0xbab230a2	-0.0013594816
59	0xbd39bacb	-0.045344155
60	0x3d937e79	0.07201857
61	0x3c0bca96	0.008532187
62	0x3d7fdb0b	0.062464755
63	0x3c981fd6	0.018569868

conv3.weight f4 [64, 64, 3, 3]
0	0x3bd86915	0.0066043236
1	0x3bc75e2a	0.0060842233
2	0x3c2f3f01	0.010696174
3	0xbc8b3eb1	-0.016997667
4	0xbcc78c6f	-0.024358956
5	0x3b3effe7	0.002914423
6	0xbbb7a477	-0.0056043225
7	0xbcab56ca	-0.020915408
8	0xbbc2a65f	-0.005940243
9	0xbb833ae8	-0.004004825
10	0x3ac0994f	0.0014694127
11	0xbc748efb	-0.014926667
12	0x3bd1b297	0.0063994634
13	0x3c754f87	0.014972574
14	0xbbd48b80	-0.0064863563
15	0xbc1e2a94	-0.009653706
16	0x3b1a379a	0.0023531676
17	0x3c081347	0.008305377
18	0x3b1831bc	0.0023223003
19	0x3c5b6e17	0.013392947
20	0x3b3c66a8	0.0028747711
21	0x3bdd242a	0.006748696
22	0xbc6f38f2	-0.014600979
23	0xbc5946a5	-0.013261472
24	0xbc60febb	-0.0137326075
25	0x3beb69e8	0.007184256
26	0xbc559b48	-0.01303751
27	0x3a4bb3df	0.00077706383
28	0x3c9b5312	0.01896051
29	0x3b8be2e9	0.004268993
30	0xbcafb420	-0.021448195
31	0x3c110252	0.008850651
32	0x3c1c1a28	0.0095277205
33	0xbcb4e609	-0.022082346
34	0xbcc1cb3c	-0.02365648
35	0xbbd9060a	-0.0066230344
36	0xbc8549c9	-0.016270535
37	0xbc06d7f9	-0.008230203
38	0x3c39d6b2	0.011342691
39	0x3c3c9ce7	0.011512018
40	0x3bd260bf	0.0064202244
41	0x3b0fb68b	0.0021928872
42	0xbb792b1f	-0.0038020087
43	0xbcade78f	-0.02122858
44	0xbc8ffedd	-0.017577583
45	0x3c056141	0.008140863
46	0xbb05e077	-0.002042798
47	0xbc9294d9	-0.017893242
48	0x3c10bae7	0.0088336235
49	0xbbbb5d3f	-0.005717903
50	0xbc8248cb	-0.015903851
51	0x3c3e32a2	0.0116087515
52	0x3bd17162	0.00639169
53	0xbce0cf55	-0.027442614
54	0x3abdb070	0.0014472138
55	0xbc37fac3	-0.01122922
56	0xbc023473	-0.007947075
57	0xbcabc25b	-0.0209667
58	0xbc63af5b	-0.0138967885
59	0xbb696cc5	-0.003561781
60	0x3be37558	0.0069414787
61	0x3c22cfe5	0.009937261
62	0x3bc8aefc	0.0061243754
63	0xbc5e8fe0	-0.013584107
64	0xbc165879	-0.009176367
65	0xbb6a883a	-0.0035786764
66	0x39148087	0.0001416226
67	0xbaf07337	-0.0018344884
68	0x3b25afc2	0.0025281762
69	0xbc9405f2	-0.018069241
70	0xbba8c1c3	-0.0051500513
71	0xbccd9ba5	-0.025098631
72	0xbb1a9482	-0.0023587053
73	0xbbf5b257	-0.0074980664
74	0xbc05870f	-0.008149876
75	0xbc358b0f	-0.011080517
76	0xbc9802b2	-0.018555973
77	0xbb0cbecb	-0.0021476026
78	0x3be49447	0.006975684
79	0xbb65378a	-0.003497573
80	0x3c0a3dd5	0.0084375935
81	0xbbc4d8a4	-0.006007271
82	0xbb678983	-0.0035329766
83	0xbba6931a	-0.005083454
84	0xbcbb7d10	-0.022886783
85	0xbcd20db8	-0.025641307
86	0x3c0dc5f4	0.008653153
87	0x3c89636f	0.016771046
88	0xbc552e1d	-0.013011483
89	0xbb02ac4b	-0.001993912
90	0xbc261eaa	-0.010139147
91	0xbb9a1868	-0.0047026165
92	0xbc8e6657	-0.017382784
93	0xbba52315	-0.0050395825
94	0x3bf1f555	0.007383982
95	0xbc3c4581	-0.01149118
96	0xbbb9f443	-0.00567487
97	0x3c0f7b6c	0.008757453
98	0x3c00400f	0.007827773
99	0xbbecd7da	-0.00722788
100	0xb9cffb7b	-0.00039669484
101	0xbb93c2fb	-0.0045093275
102	0x3c0828ef	0.008310541
103	0xbba1e179	-0.0049402085
104	0xbb211a02	-0.0024582152
105	0xbbd8d7a0	-0.0066175014
106	0xbb2b1dad	-0.0026110217
107	0xbbefcaeb	-0.007317891
108	0x3c555288	0.013020165
109	0xbbe26f75	-0.0069102594
110	0xbcf6dab8	-0.03013359
111	0xbc81e18f	-0.015854625
112	0x3c556d43	0.013026538
113	0xbbc3ac43	-0.005971463
114	0x3b072062	0.0020618667
115	0xbc20fdf3	-0.009826171
116	0xbc1a01ca	-0.009399841
117	0x3b841a99	0.004031491
118	0x3c436503	0.011925939
119	0x3c0941eb	0.0083775325
120	0x3a693788	0.00088965194
121	0xbc842a35	-0.016133407
122	0xbbba26a7	-0.0056808772
123	0xbbc3bf32	-0.00597372
124	0xbacebc40	-0.0015772656
125	0xbb853658	-0.004065316
126	0xbc057427	-0.008145369
127	0xbc8272b3	-0.015923833
128	0x3c38fc2f	0.011290594
129	0xbc02ccf3	-0.007983434
130	0xbb4c11af	-0.003113847
131	0x3a6e60b3	0.0009093389
132	0xbb00993b	-0.0019622582
133	0xbc154fe4	-0.009113286
134	0xbc9ec090	-0.01937893
135	0x3c3a7373	0.011380064
136	0x3b1ae075	0.0023632322
137	0x3be31c2f	0.00693085
138	0xbc5c2a7d	-0.013437864
139	0xbc9f7f33	-0.019469833
140	0xbc238ddc	-0.009982552
141	0xbc286b40	-0.010279477
142	0xbbbf5dca	-0.005840038
143	0xbc324e7b	-0.010882969
144	0xbb87ec3d	-0.004148035
145	0xbbd7fbf7	-0.006591316
146	0xbc161320	-0.009159833
147	0x3c650e33	0.013980436
148	0x3b9c3508	0.004767064
149	0xbc99ea5d	-0.018788511
150	0xb998dfc3	-0.00029158415
151	0xbc95620a	-0.018235225
152	0xbb0a23e8	-0.002107853
153	0x3b9ac5f0	0.004723303
154	0xbb6ccbd5	-0.0036132236
155	0xbbe1ff5d	-0.0068968968
156	0x3bf3782a	0.007430096
157	0xbb03e398	-0.002012467
158	0x3b97fed2	0.0046385312
159	0xbc5ee728	-0.013604917
160	0xbb7c580a	-0.0038504624
161	0xbc5814fd	-0.013188598
162	0x3c5b013d	0.013366994
163	0x3c99d27b	0.018777123
164	0x3b226a48	0.0024782587
165	0xb8e44658	-0.0001088499
166	0x3ab4dd0f	0.0013798791
167	0xbc281728	-0.010259427
168	0xbbb6cf87	-0.0055789384
169	0x3bbde737	0.005795385
170	0x38ccb58f	9.761296e-05
171	0xbb8fa477	-0.0043836194
172	0xbc00627a	-0.007835979
173	0xba471e6f	-0.00075957825
174	0x3bc2c590	0.0059439614
175	0xbcf99aef	-0.030469386
176	0x3c28507f	0.010273098
177	0xbc9ea4a3	-0.019365614
178	0x3b827c87	0.00398213
179	0xbc9add3f	-0.018904326
180	0xbb0acdd5	-0.0021179814
181	0xbab021df	-0.0013437829
182	0xba4d5387	-0.0007832576
183	0xbacac8b1	-0.0015471188
184	0xbcb7bec9	-0.02242984
185	0xbc014d6b	-0.007891993
186	0xbb93d32d	-0.004511258
187	0xbafc5a27	-0.0019252942
188	0xbb9285e3	-0.004471527
189	0xbc81260b	-0.01576521
190	0x3c08499f	0.008318334
191	0x3b0f243f	0.0021841673
192	0x3c4ca0bb	0.012489493
193	0xbb60acea	-0.0034282752
194	0x3b1a5360	0.002354823
195	0x3b5d0a90	0.003372822
196	0xb9132865	-0.0001403406
197	0x3c0f7483	0.008755806
198	0xbcb1c46a	-0.021700103
199	0x3aa7314f	0.0012755784
200	0x3c2570ab	0.010097663
201	0xba78b6bd	-0.00094876793
202	0xbc1bfcd4	-0.009520728
203	0x3bae83e8	0.005325783
204	0xbcb588da	-0.022159982
205	0xbba11d3b	-0.0049168146
206	0x3be1029d	0.0068667666
207	0xbc6d6348	-0.0144890025
208	0x3c59eb4a	0.013300726
209	0xbc54dba8	-0.012991823
210	0xbcd93365	-0.026513765
211	0xbae67940	-0.0017583743
212	0x3b7b8c6f	0.0038383265
213	0xbc59d167	-0.013294554
214	0xbbbfec5a	-0.0058570327
215	0xbb850993	-0.004059979
216	0xbc047fab	-0.008087079
217	0xbbcf33f3	-0.0063233315
218	0xbcd3ed77	-0.025870068
219	0xbad395e0	-0.0016142689
220	0xbc03238b	-0.00800408
221	0x3a95ad63	0.0011419471
222	0xbc8f3528	-0.017481402
223	0x3b6d2a23	0.0036188446
224	0xbc908064	-0.017639346
225	0xbc6308f2	-0.013857113
226	0xbc3f1b78	-0.011664264
227	0xbc42b199	-0.011883163
228	0xbca457c0	-0.020061374
229	0xbc838134	-0.01605282
230	0x39673fe7	0.00022053682
231	0x3ba090dc	0.004900081
232	0x3b628f43	0.0034570254
233	0x3ca26ac7	0.019826306
234	0x3bb5c38f	0.005546994
235	0x3ccf5e25	0.025313446
236	0x3c06d8ab	0.008230369
237	0x3a75260d	0.00093516783
238	0xbcb72b47	-0.022359503
239	0xbc19748b	-0.009366165
240	0xbaffd6b2	-0.001951894
241	0xbcb644c0	-0.02224958
242	0xbc3f0677	-0.011659256
243	0x3c6a65b3	0.014306474
244	0xbc160163	-0.009155604
245	0x3b13b975	0.002254096
246	0xbc7307f7	-0.014833442
247	0xbc1db81f	-0.009626417
248	0xbc042aeb	-0.008066873
249	0xbc3509ea	-0.011049727
250	0xbb97cf00	-0.0046328306
251	0x3c304f43	0.010761085
252	0xbbdd4eff	-0.006753802
253	0x3bf5b10f	0.0074979137
254	0xbccff460	-0.025385082
255	0xbc85835b	-0.016297987

conv3.bias f4 [64]
0	0xbbf50533	-0.0074774264
1	0xbbf8f9db	-0.0075981445
2	0xbbf897b5	-0.0075864443
3	0xbb030ef3	-0.0019997924
4	0x3c0f9f98	0.008766077
5	0xbc7bd973	-0.015371668
6	0xbc5103ba	-0.012757236
7	0xbc02842a	-0.007966081
8	0x3b48b427	0.0030624957
9	0xbcdb4767	-0.026767446
10	0x3c82fb72	0.01598904
11	0xbc14a78d	-0.00907315
12	0xbc4f6840	-0.0126591325
13	0xbb85f7b8	-0.0040883683
14	0xbc0d9ad2	-0.008642869
15	0x3c8ee167	0.017441465
16	0xbd3ac7fb	-0.045600872
17	0x3cbfb504	0.023401745
18	0xbc3d00ef	-0.011535867
19	0xbbfe4a1a	-0.0077602984
20	0xbbcf8a3f	-0.006333619
21	0xbd5287a2	-0.05139888
22	0x3c5074c5	0.0127231525
23	0xbc5ffe63	-0.01367149
24	0x3acc5f37	0.0015592341
25	0xbb6b7d8d	-0.0035932988
26	0xbba5d42a	-0.0050606923
27	0xbc12dd0b	-0.008963834
28	0xbb3e0dd5	-0.0028999944
29	0x3bf22168	0.0073892362
30	0x3c40084c	0.011720728
31	0xbcc20a1f	-0.023686467
32	0x3c07ff37	0.008300594
33	0x3c015bb1	0.007895396
34	0x3bbed8e3	0.0058241948
35	0xbcd900b8	-0.0264896
36	0xbc3f80ff	-0.01168847
37	0xbc150772	-0.009096013
38	0xbbda9460	-0.0066705197
39	0xbc2d3217	-0.010571024
40	0xbc2cf827	-0.010557211
41	0xbc3e8867	-0.011629201
42	0x3c82b715	0.015956441
43	0x3b42b348	0.002970891
44	0x3cbc5c77	0.02299331
45	0xbc8ad03b	-0.016944995
46	0x3bd1efeb	0.0064067743
47	0xbca00adc	-0.019536428
48	0xbb139449	-0.0022518805
49	0xbb89c718	-0.004204642
50	0x3bcd2127	0.0062600556
51	0x3bd2b8b2	0.006430709
52	0x3a16c269	0.0005751015
53	0x3dcdf597	0.10056608
54	0x3b0d5b14	0.002156918
55	0xbc657102	-0.014003994
56	0xbb94130b	-0.0045188717
57	0xbc3fec1a	-0.011714006
58	0xbb03b19f	-0.0020094884
59	0x3cb0e861	0.021595182
60	0xbbe40092	-0.006958076
61	0xbbb2fd07	-0.005462292
62	0xbc09a018	-0.008399986
63	0xbc2a5a67	-0.01039753

fc1.weight f4 [64, 1024]
0	0xbba58698	-0.005051445
1	0xbb7c4efb	-0.0038499224
2	0x3c208d4f	0.009799316
3	0x3b82a753	0.0039872318
4	0xbbd8dab2	-0.0066178674
5	0x3bcb94bb	0.0062127984
6	0x3b74f58b	0.00373778
7	0x3beff6c8	0.00732312
8	0x3b56d32a	0.0032779672
9	0xbb31342f	-0.002703916
10	0xbb86d809	-0.004115109
11	0x3c718587	0.014741308
12	0xbafc6f9a	-0.0019259334
13	0x3b4f27df	0.0031609458
14	0xbbb23b97	-0.0054392326
15	0x3bf5bdb2	0.00749942
16	0x3a9486cd	0.0011331678
17	0x3ba7bb5a	0.0051187696
18	0xbb1969f8	-0.002340911
19	0xbbf675b2	-0.0075213546
20	0x3b8b35c7	0.004248354
21	0xbc31d147	-0.010853118
22	0x3b90e3ba	0.0044216784
23	0x3ba84219	0.0051348326
24	0x3c6d29d5	0.014475306
25	0xbc9e630a	-0.019334335
26	0x3b96714f	0.004591144
27	0xbbe36cb2	-0.0069404477
28	0xbb5065dd	-0.0031798996
29	0xbc54c115	-0.0129854875
30	0x3af45d5f	0.0018643549
31	0x3b61753d	0.0034402155
32	0x3a12f022	0.00056052406
33	0xbc58400b	-0.013198863
34	0xbbc68987	-0.006058875
35	0xbbb9f0a0	-0.0056744367
36	0x3bb283bf	0.0054478343
37	0xbbe53d58	-0.006995838
38	0xbb02e142	-0.001997069
39	0xbafe5687	-0.0019404449
40	0xbbb785ca	-0.0056006657
41	0x3b8c5823	0.0042829677
42	0xbc458b88	-0.012057193
43	0xbb5425d3	-0.0032371178
44	0x3bfb8f50	0.0076769963
45	0x3c434080	0.0119172335
46	0xbc66be1f	-0.014083414
47	0xbb21d8eb	-0.0024695944
48	0xba334bea	-0.000683962
49	0x3c23833a	0.009980017
50	0xb9a7f9e7	-0.00032038914
51	0xbac286ba	-0.0014841177
52	0x3cb43348	0.021997109
53	0x3b4b4be7	0.0031020583
54	0xbca74bcf	-0.02042189
55	0x3b083912	0.002078597
56	0x3ac3a7c8	0.0014927322
57	0x3c24637f	0.010033487
58	0x3abc79c7	0.0014379554
59	0x3ca2d50f	0.019876985
60	0x3b3bb750	0.0028643198
61	0x392f2f82	0.00016706999
62	0xbc1df6c8	-0.009641357
63	0xbb79aefd	-0.0038098686
64	0xbc401548	-0.011723824
65	0x3c12d7d2	0.008962588
66	0x3d3648bc	0.04450296
67	0x3ce9f343	0.028558379
68	0x3a24dfa2	0.00062894274
69	0x3c86f5f7	0.016474707
70	0x3b98f557	0.0046679187
71	0xbc3a20f0	-0.011360392
72	0xbc5842f0	-0.013199553
73	0xbce82aad	-0.028340662
74	0xbc730db5	-0.014834811
75	0xbd20a735	-0.03922196
76	0x3b32c04b	0.002727526
77	0x3d487d59	0.048947666
78	0x3d2e9f35	0.0426323
79	0xbc92a055	-0.017898718
80	0xbc215654	-0.009847242
81	0x3bfa0617	0.0076301205
82	0x3b76bb2b	0.0037648182
83	0x3b4f926f	0.0031672975
84	0xbbfbe4a0	-0.0076871663
85	0xbb62cdd5	-0.0034607549
86	0xbc9834d5	-0.01857988
87	0xbc74173f	-0.01489812
88	0xbc85359f	-0.01626092
89	0xbb936604	-0.004498245
90	0xb949e71b	-0.00019254947
91	0x3b543ad3	0.0032383695
92	0xbbca64e3	-0.0061765774
93	0x3ad97818	0.0016591577
94	0x3c4255ba	0.011861259
95	0xbb3c1db7	-0.0028704235
96	0xbbdb4117	-0.006691109
97	0x3a95b313	0.0011421166
98	0xbb58848b	-0.0033037986
99	0xbb7e576b	-0.003880943
100	0x3bf143d3	0.0073628216
101	0x3bc0e577	0.0058867293
102	0x3b5355a5	0.0032247093
103	0x3bd6892f	0.0065471153
104	0xbb830f3c	-0.003999619
105	0xbc6c215f	-0.014412253
106	0xbb8d6b81	-0.004315794
107	0xbbac430a	-0.005257015
108	0xb897848d	-7.2249306e-05
109	0xbc1f10f7	-0.009708635
110	0x3b758f70	0.0037469529
111	0x3c4f96c0	0.012670219
112	0xbca5abbf	-0.020223496
113	0x3c37c380	0.011216044
114	0xbb2e267a	-0.0026573227
115	0xba86d057	-0.0010285479
116	0x3b889fd2	0.0041694427
117	0xbb262e51	-0.0025357197
118	0xbb111974	-0.0022140415
119	0xbc626fca	-0.013820598
120	0x3bb4c587	0.005516711
121	0x3b63af2a	0.0034741857
122	0x3c3a6d18	0.011378549
123	0x3c604708	0.01368881
124	0x3c01497c	0.007891055
125	0x3bb082db	0.005386693
126	0xbc54180d	-0.012945187
127	0x3be40d72	0.0069596106
128	0x3b16619a	0.0022946359
129	0xbbe3ac42	-0.006948025
130	0x3c0f26b8	0.008737259
131	0x3c3dbd1b	0.011580731
132	0x3c49d438	0.012318663
133	0xbb5c9867	-0.0033660175
134	0x3b514577	0.0031932273
135	0xbbfe0417	-0.0077519524
136	0x3b546057	0.0032406056
137	0xbb9d176f	-0.0047940533
138	0x3c68cbad	0.014208716
139	0x3b3123f0	0.0027029477
140	0xba524073	-0.0008020468
141	0x3b8d649f	0.0043149735
142	0x3c05352f	0.008130356
143	0xbbd598f8	-0.0065184794
144	0xbd0356b3	-0.032065105
145	0x3bc51871	0.0060148765
146	0x3d466264	0.048433676
147	0x3d719848	0.058983117
148	0xbd9366aa	-0.07197316
149	0xbc67c0f0	-0.014145121
150	0x3cca0600	0.024661064
151	0x3d530c87	0.05152562
152	0xbd9b0712	-0.07569708
153	0xbc03dde7	-0.008048511
154	0x3c208a93	0.009798664
155	0x3d98fca4	0.074700624
156	0xbd31d9b0	-0.043420494
157	0x3c137729	0.009000578
158	0x3c315624	0.01082376
159	0x3d582fbf	0.05277991
160	0x3bae5810	0.0053205565
161	0x3b643b6a	0.0034825453
162	0xbc6c2793	-0.014413732
163	0x3bb0f5af	0.0054003815
164	0xba67e945	-0.00088467106
165	0xbc0b31b7	-0.00849574
166	0xbb9f234a	-0.0048565017
167	0xba179992	-0.00057830766
168	0x3c2c528d	0.0105177285
169	0x3b70c700	0.0036739707
170	0x3a5a8945	0.0008336495
171	0x3bea1858	0.0071440153
172	0x3c8c82af	0.017152159
173	0x3bcd67a5	0.006268459
174	0x3c033761	0.008008809
175	0x3c172209	0.009224423
176	0xbc20fcd5	-0.009825905
177	0xbc7a3563	-0.015271517
178	0xbbfe9e5d	-0.007770343
179	0xba0bcce0	-0.0005332958
180	0xb9936fc7	-0.00028121306
181	0x3c72524d	0.01479013
182	0xb9a4b78b	-0.00031417268
183	0xbc18f2c8	-0.009335227
184	0x3b420361	0.0029604065
185	0xbc19152f	-0.0093434295
186	0x3b41fce3	0.0029600195
187	0xbc69ebf0	-0.014277443
188	0x3b29df6f	0.002592053
189	0x394ae0bf	0.00019347946
190	0xbabd3573	-0.0014435485
191	0xbbd6ddf2	-0.0065572197
192	0xbc5822b0	-0.013191864
193	0xbc0f984c	-0.008764338
194	0x3c2ce8d8	0.010553561
195	0xba173687	-0.0005768318
196	0x3c08734b	0.008328269
197	0x3b0cd43b	0.0021488804
198	0xbad25087	-0.0016045728
199	0xbba59f89	-0.0050544185
200	0xbb92e97b	-0.0044833994
201	0x3c484fea	0.012226084
202	0x3bbefc64	0.005828427
203	0x3c782202	0.015144827
204	0xbb6dbcbd	-0.0036275827
205	0xbb8710c5	-0.004121872
206	0xbaf16f5a	-0.0018420026
207	0x3bfe9d6f	0.0077702324
208	0x3b6de9bd	0.003630265
209	0xbb81e1bc	-0.003963677
210	0xbbe48a23	-0.006974475
211	0xbbb6df18	-0.005580794
212	0x3bd83c43	0.0065989806
213	0x3ca9c31f	0.020722924
214	0xbc0e397f	-0.0086807
215	0x3c5dbc07	0.013533599
216	0xbbe9e25b	-0.0071375794
217	0xbc127f25	-0.008941446
218	0xbae90953	-0.0017779268
219	0x3b165c1f	0.0022943092
220	0x3b0fa657	0.0021919215
221	0xbb0adbe7	-0.00211882
222	0x3b34dd38	0.0027597677
223	0x3c2cb5d3	0.010541397
224	0xbb4625fb	-0.003023504
225	0x3ad9308d	0.0016570255
226	0xbbd003b2	-0.0063480968
227	0xbb3d6f7b	-0.002890556
228	0xbb00800b	-0.001960757
229	0x3c160868	0.009157278
230	0x3c0d2143	0.008613887
231	0x3c8957a0	0.016765416
232	0x3bb23570	0.005438499
233	0xbb805fc5	-0.0039176666
234	0xbc4c2513	-0.012460011
235	0x399ebdb3	0.00030277445
236	0x3a82c4d0	0.0009976868
237	0x3a2595cc	0.0006316572
238	0xbc590410	-0.0132455975
239	0x3c25871b	0.010103012
240	0x3be6bbfb	0.007041452
241	0xbae4b240	-0.0017448142
242	0x3c77b575	0.015118946
243	0x3cca457e	0.02469134
244	0x3d1608ca	0.036629476
245	0x3ca3f2c4	0.02001322
246	0x3c9b8338	0.018983468
247	0x3d3c1c0a	0.045925178
248	0xbbd82228	-0.0065958686
249	0xbb959a4e	-0.0045655137
250	0x3c3d6aae	0.011561079
251	0x3d252ab6	0.040323935
252	0xbd9aac0c	-0.075523466
253	0xbd1ad972	-0.03780503
254	0xbbca82ff	-0.0061801667
255	0x3cc8ff72	0.024535868

fc1.bias f4 [64]
0	0xbc3ae69e	-0.0114075225
1	0xbcbc166f	-0.022959916
2	0xbc8ecbd6	-0.01743118
3	0xbcae64f2	-0.021288369
4	0xbc34f833	-0.011045503
5	0x3b53233b	0.0032217044
6	0xbd2a0e08	-0.041517287
7	0xba9b7741	-0.0011861102
8	0xbc7c783b	-0.015409525
9	0x3c38f76a	0.011289457
10	0xbbac54a4	-0.0052591134
11	0xbb0b2f13	-0.0021237775
12	0x3c16afaf	0.00919716
13	0xbccbb129	-0.02486475
14	0xbbca0440	-0.0061650574
15	0xbafcfe2a	-0.0019301821
16	0xbbc14bcf	-0.0058989297
17	0xbd270341	-0.040774588
18	0xbca75fcb	-0.02043142
19	0xbc161f9f	-0.0091628125
20	0x3bb03d23	0.005378382
21	0xbb9e5853	-0.0048323064
22	0xbc9bcdcb	-0.019019028
23	0x3a744add	0.0009319017
24	0xba0c67ba	-0.00053560326
25	0x3d96ec9a	0.07369347
26	0x3dd6fd48	0.10497528
27	0xbb83fc38	-0.0040278696
28	0x3a829cdd	0.0009964962
29	0x3c7f62aa	0.015587488
30	0xbc6d2eca	-0.014476487
31	0x3cef92aa	0.02924474
32	0x3c06eb53	0.008234817
33	0x3d869af5	0.065725245
34	0x3d548e43	0.051893484
35	0xbbf0dc43	-0.007350476
36	0xbcb237ef	-0.021755187
37	0xbc98b9f1	-0.018643351
38	0x3da04a6b	0.07826694
39	0x3da35001	0.07974244
40	0xbd6bb085	-0.05754139
41	0xbbe3e30b	-0.006954556
42	0x3daff6e0	0.085920095
43	0xbc41c4ee	-0.011826737
44	0xbc6078dd	-0.013700691
45	0x3c08c80c	0.008348476
46	0x3c3ccb43	0.011523071
47	0x3bc08b85	0.005876007
48	0x3b52a5c7	0.0032142268
49	0xbd2cc296	-0.04217776
50	0xbb136e51	-0.0022496174
51	0x3bc5b337	0.006033327
52	0xb8b9962b	-8.8494584e-05
53	0x3c5509f0	0.013002858
54	0xbc933f5a	-0.017974544
55	0xbd2128d7	-0.03934559
56	0x3c35e433	0.01110177
57	0x3b9880a3	0.0046540066
58	0xbbb75fcb	-0.005596136
59	0xbcdf2f7d	-0.027244324
60	0xbbc14f85	-0.005899372
61	0xbd7795b5	-0.060445506
62	0x3ce766f8	0.028247342
63	0x3d08a243	0.03335787

fc2.weight f4 [10, 64]
0	0x3dbf1298	0.09329718
1	0x3d00bea0	0.031431794
2	0x3d235617	0.039877024
3	0xbc2b16e7	-0.010442472
4	0xbd3698c8	-0.044579297
5	0xbc13b29d	-0.009014753
6	0x3df49c35	0.119438566
7	0x3b2370af	0.002493899
8	0x3cd54abf	0.026036618
9	0x3d16317b	0.036668282
10	0xbd92b5ba	-0.07163568
11	0x3d4722ea	0.04861728
12	0xbd326309	-0.04355148
13	0x3dc407fc	0.095718354
14	0x3c269777	0.010167948
15	0x3bd7987f	0.0065794582
16	0x3d594998	0.0530487
17	0xbbfaad37	-0.0076500433
18	0xbcb33bad	-0.021879042
19	0xbce63482	-0.02810121
20	0x3babd78a	0.0052442
21	0xbc88c657	-0.016696138
22	0x3d10c4e7	0.03534403
23	0xbd0a805c	-0.03381382
24	0x3c6e1940	0.014532387
25	0xbc52a453	-0.012856561
26	0xbba00ccc	-0.004884338
27	0x3cb3137b	0.021859875
28	0xbc273a0d	-0.0102067115
29	0xbc996248	-0.018723622
30	0x3c30f2db	0.010800089
31	0x3cdc8dfb	0.02692317
32	0x3d33c2e7	0.043887045
33	0xbd6a5be0	-0.057216525
34	0x3d189993	0.037255835
35	0xbc6f689d	-0.014612344
36	0x3c24ba09	0.01005412
37	0x3d50bfcf	0.050964173
38	0x3c33bc56	0.010970196
39	0xbc789900	-0.015173197
40	0xba0d99d1	-0.00054016436
41	0x3c0904d9	0.008362972
42	0xbd1f705b	-0.03892551
43	0xbd640edf	-0.055678245
44	0x3d1f20a0	0.038849473
45	0x3c94c425	0.018159935
46	0xbc82d338	-0.015969858
47	0x3d10185f	0.035179492
48	0xbd6bd215	-0.057573397
49	0xbb31c757	-0.0027126872
50	0xbc4217a3	-0.011846456
51	0x3ceeb785	0.029140243
52	0xbc19d39d	-0.009388831
53	0x3d28f3a5	0.041247983
54	0x3ce39e0d	0.027785325
55	0x3c8c4c1f	0.017126141
56	0xbd89b7a5	-0.067244805
57	0xbd24961d	-0.04018222
58	0x3d425523	0.047444474
59	0xbcb97e63	-0.022643274
60	0x3d796c2d	0.06089418
61	0xbc47eeda	-0.012202943
62	0x3cbb5a37	0.022870166
63	0x3c50baa0	0.012739807
64	0xbdb40054	-0.08789125
65	0x3d8ef188	0.06979662
66	0xbc67e8bb	-0.014154608
67	0xbcb05fcb	-0.021530053
68	0xbc77b132	-0.01511793
69	0x3d210144	0.039307848
70	0xbc1a510b	-0.009418736
71	0x3d15c454	0.036564186
72	0x3cc6ab98	0.024251744
73	0x3d8f8fa9	0.07009823
74	0x3c21af7f	0.009868502
75	0xbd868d67	-0.06569939
76	0x3db0ddf3	0.086360835
77	0xbd19ca93	-0.037546705
78	0x3ce4ea70	0.02794382
79	0xbb7153eb	-0.00368237
80	0xbcc1ce02	-0.023657802
81	0xbcfd8b2d	-0.030950153
82	0x3d192a97	0.037394132
83	0xbd436cc4	-0.04771115
84	0x3cddfeff	0.02709913
85	0x3cb7be01	0.022429468
86	0x3b21cec0	0.0024689883
87	0x3d0f9f28	0.035063893
88	0xbc20b06d	-0.009807688
89	0xbd80744c	-0.06272182
90	0xbba21fe5	-0.00494765
91	0x3ce98d83	0.02850986
92	0xbc8f8043	-0.017517215
93	0x3d19bc25	0.037532944
94	0xbc1fe96b	-0.009760241
95	0x3d471f7b	0.048614006
96	0x3cac241b	0.02101331
97	0xbd8ff4fa	-0.070291474
98	0xbdb2441e	-0.087043986
99	0xbd22ccfa	-0.039746262
100	0x3d860f13	0.06545844
101	0xbd5e38c5	-0.05425336
102	0xbdac6cca	-0.08419187
103	0xbe03735b	-0.12836973
104	0x3d3a0eee	0.045424394
105	0x3b50f9ea	0.0031887242
106	0xbc8f89a7	-0.017521692
107	0x3bb9ad6f	0.005666427
108	0x3d2e29b7	0.04252025
109	0x3d29126f	0.041277345
110	0x3dea87f3	0.114517115
111	0xbceb6d97	-0.02873878
112	0xbcc32f02	-0.023826126
113	0x3c9897a8	0.018627003
114	0x3c63874d	0.013887239
115	0xbc848b32	-0.016179655
116	0xbc01d260	-0.007923692
117	0xbd812532	-0.063059226
118	0x3c27c78b	0.010240446
119	0xbc0d0bf3	-0.008608806
120	0xbc60d4f0	-0.013722643
121	0x3d3bb08f	0.045822676
122	0xbc8713a8	-0.016488865
123	0xbbedea2f	-0.007260583
124	0xbd07fd6f	-0.033200677
125	0xbd14d88f	-0.03633934
126	0x3bc42e1d	0.0059869424
127	0xbcee7dc2	-0.0291127
128	0x3d414e31	0.04719371
129	0x3c61fbc0	0.013792932
130	0xbd12bc6b	-0.03582422
131	0xbd078c05	-0.033092517
132	0xbd00e97f	-0.03147268
133	0xbd599288	-0.05311826
134	0xbd00d1c1	-0.031450037
135	0xbc4eb00f	-0.012615218
136	0xbd88f649	-0.066876
137	0x3c1b619c	0.009483721
138	0xbcef900f	-0.029243497
139	0x3c88ebd3	0.016714012
140	0x3b290402	0.0025789742
141	0x3d4c61f4	0.049898103
142	0x3cfd494b	0.030918738
143	0x3cad916f	0.021187512
144	0x3d2bae49	0.04191426
145	0xbc34b66c	-0.011029821
146	0xbcf88d4b	-0.030340811
147	0x3c9f13b7	0.01941858
148	0xbb901fc5	-0.0043983185
149	0x3c559fff	0.013038634
150	0xbc4ae07c	-0.012382623
151	0x3d1895b9	0.03725216
152	0xbc082bf1	-0.008311258
153	0x3cfc2b75	0.03078244
154	0x3d89a94f	0.06721746
155	0xbcea018b	-0.028565189
156	0xbc6e92cd	-0.014561367
157	0x3c933c1b	0.017972996
158	0xbc0f45bf	-0.008744656
159	0xbc9facc7	-0.019491566
160	0x3d1a9c2d	0.037746597
161	0x3d9a4f8d	0.07534704
162	0x3d66e398	0.056369394
163	0xbcabe6cb	-0.020984074
164	0x3c1ec613	0.009690779
165	0x3c4a883f	0.012361585
166	0x3cf5b3bf	0.029992936
167	0x3d0f48ab	0.03498141
168	0xbd37a31d	-0.04483329
169	0xbd09edc9	-0.033674035
170	0x3d5c5500	0.053792
171	0x3c797545	0.015225713
172	0x3d156658	0.036474556
173	0x3c22a0ff	0.00992608
174	0xbd9d0be8	-0.076682866
175	0xbc7ae7cb	-0.015314053
176	0xbccfe72f	-0.025378792
177	0xbd8a6442	-0.06757404
178	0xbbf118f5	-0.0073577114
179	0xbcb89877	-0.022533638
180	0x3d12e848	0.035866052
181	0xbc17ecbf	-0.009272753
182	0x3b6d5fe0	0.0036220476
183	0x3d171475	0.036884744
184	0xbcd00508	-0.025393024
185	0xbda4d64d	-0.08048687
186	0x3d0b72a2	0.03404487
187	0xbca769ef	-0.020436255
188	0xbb1247f2	-0.0022320715
189	0x3c553728	0.013013639
190	0x3b93ea6a	0.0045140283
191	0x3c1193e2	0.008885356
192	0xbdb0eac5	-0.08638529
193	0xb7d438fa	-2.5298901e-05
194	0x3d88452d	0.06653819
195	0xbc9a32d4	-0.018823065
196	0x3cecde93	0.028914725
197	0x3afde950	0.0019371901
198	0xbc08f352	-0.008358793
199	0x3d4ecfc0	0.050491095
200	0x3d1ba773	0.03800149
201	0xbd4c0b41	-0.04981542
202	0xbc2cf5bd	-0.010556635
203	0x3cb6baed	0.02230593
204	0x3d13d523	0.036091935
205	0xbdbe3d5f	-0.09289049
206	0xbbd9d790	-0.0066480115
207	0x3d8414fa	0.064493135
208	0xbc00996f	-0.007849081
209	0xbd2a9c53	-0.04165299
210	0x3cb41259	0.021981405
211	0x3adcdcda	0.0016850487
212	0x3d3bd9fd	0.045862187
213	0x3cc7c072	0.024383757
214	0xbcc23c3b	-0.02371036
215	0x3d26f06b	0.040756624
216	0xbab3ea3b	-0.0013726422
217	0x3d40ef78	0.047103375
218	0xbda17382	-0.078833595
219	0xbb108536	-0.0022052056
220	0xbb9685f3	-0.0045936047
221	0x3bc5eb5f	0.0060400213
222	0xbdc930af	-0.09823739
223	0x3cb4eda7	0.022085978
224	0x3b0fcd43	0.0021942414
225	0x3d1559b5	0.036462504
226	0x3d7c3018	0.061569303
227	0xbd2bf9eb	-0.041986387
228	0xbd54e10b	-0.05197243
229	0xbd1f6010	-0.03890997
230	0x3d208b84	0.039195552
231	0x3d2dab70	0.042399824
232	0x3d83de8d	0.064389326
233	0xbc8896b3	-0.016673421
234	0xbba5a530	-0.0050550923
235	0xbcd1f93d	-0.025631541
236	0xbd0638b1	-0.03276891
237	0xbc14b9a9	-0.009077468
238	0xbd827f5a	-0.06371947
239	0x3c4c3d30	0.01246576
240	0xbc04f35f	-0.008114665
241	0x3c789468	0.015172102
242	0x3cedc44f	0.029024271
243	0xbbf9c662	-0.007622526
244	0xbcd8a663	-0.026446527
245	0xbc0c0b8a	-0.008547673
246	0xbc478ff3	-0.012180316
247	0x3d7b381b	0.061332803
248	0x3cea598d	0.028607154
249	0x3cf65753	0.030070936
250	0xbcf48a38	-0.029851064
251	0xbd2210fa	-0.03956697
252	0x3bb8999c	0.005633546
253	0xbc82dfcf	-0.01597586
254	0x3d21809e	0.0394293
255	0x3cda8f83	0.02667976

fc2.bias f4 [10]
0	0xbde408f3	-0.111345194
1	0x3bb67635	0.0055682906
2	0x3daeef84	0.08541778
3	0xbb26eb63	-0.0025469891
4	0x3da9f185	0.08298019
5	0xbcf78efa	-0.030219544
6	0x3c85fec5	0.016356835
7	0xbd06c02f	-0.032898124
8	0xbc2aa7e7	-0.010416008
9	0xbdaf9827	-0.08573943
