torch_to_tf/torch_models/model_round299.model (torch, 672591 bytes, 8 tensors)

conv1.weight f4 [32, 3, 3, 3]
0	0x3d5f6403	0.054538738
1	0x3d8869dd	0.06660817
2	0x3d46174c	0.04836206
3	0x3ca8ae01	0.020590784
4	0x38a04b32	7.643401e-05
5	0x3cf2e375	0.029649476
6	0x3d3bfa1a	0.045892812
7	0x3d1913d3	0.03737242
8	0x3d1f565f	0.03890073
9	0xbd845b23	-0.064626954
10	0x3ce8337a	0.028344858
11	0x3d49cc9a	0.04926739
12	0x3d514c02	0.051097877
13	0xbd36bcdd	-0.044613708
14	0x3ce5dee2	0.02806038
15	0xbc1ba870	-0.009500608
16	0xbdd1d1cd	-0.102450944
17	0x3dea744f	0.11447965
18	0xbd1bd54e	-0.03804522
19	0x3b1cb47e	0.0023911293
20	0x3ca94522	0.020662848
21	0x3cfada62	0.030621711
22	0x3c838700	0.016055584
23	0x3d5f5aba	0.054529883
24	0xbca2ca5b	-0.019871881
25	0x3d6c8572	0.05774445
26	0x3d17324a	0.036913194
27	0xbd2b9ddf	-0.041898604
28	0xbb680dca	-0.003540861
29	0xbd5e3a8a	-0.054255046
30	0xbc91296a	-0.017719943
31	0x3cb31e2b	0.021864971
32	0x3d9af377	0.075659685
33	0xbd311e97	-0.043242063
34	0x3d0e60e7	0.034760382
35	0xbbae1d33	-0.0053135394
36	0x3db67fce	0.089110956
37	0x3e11b7a7	0.14230214
38	0xbcc5cb68	-0.024144843
39	0xbcea4e23	-0.028601712
40	0xbca3fd9a	-0.020018388
41	0xbd2bfcf0	-0.041989267
42	0xbca31857	-0.019909067
43	0xbcd47eaa	-0.025939304
44	0xbcb62440	-0.022234082
45	0x3da631cf	0.08114969
46	0x3d807f47	0.06274276
47	0x3d869889	0.065720625
48	0xbd24ca48	-0.040231973
49	0xbdc973a7	-0.09836512
50	0x3c5fcfaa	0.013660351
51	0x3d79f050	0.061020195
52	0xbdb8d2af	-0.0902456
53	0xbda6c2df	-0.081426375
54	0xbd7b1322	-0.061297543
55	0xba8736ab	-0.0010315975
56	0xbd28dcb7	-0.041226115
57	0x3d26a2db	0.040682655
58	0xbd3d32e7	-0.046191122
59	0x3c43e14b	0.0119555695
60	0xbca2f4af	-0.019892065
61	0x3d4965e3	0.049169432
62	0x3caf029f	0.021363555
63	0xbd907ded	-0.070552684
64	0x3b5f68f5	0.003408966
65	0x3d04a23b	0.032381278
66	0x3cc8a8c1	0.02449453
67	0xbd49acf8	-0.04923722
68	0xbc98c536	-0.018648725
69	0xbdb33aff	-0.08751487
70	0xbd111d33	-0.035428237
71	0x3dbc2a73	0.09187784
72	0xbbee7053	-0.0072765737
73	0xbb5fc25f	-0.0034142954
74	0x3d016a07	0.031595256
75	0xbd5c1757	-0.053733196
76	0xbaac0df7	-0.001312672
77	0x3cf9197a	0.030407656
78	0x3d691ad8	0.056910366
79	0x3c251beb	0.010077457
80	0x3ca174e8	0.019709066
81	0x3c655d60	0.013999313
82	0x3cdf1470	0.027231425
83	0xbd337e55	-0.04382165
84	0xbdb3c5f2	-0.087779894
85	0x3d24c635	0.040228087
86	0xbb64c2fb	-0.0034906256
87	0x3de3c19f	0.11120915
88	0x3d35bc87	0.044369247
89	0x3c7b0610	0.01532127
90	0x3c497df6	0.012298098
91	0xbc13ba05	-0.0090165185
92	0xb9ad1349	-0.000330115
93	0x3c875ecc	0.016524695
94	0x3d387e24	0.045042172
95	0x3cacef3a	0.021110166
96	0x3dab3378	0.08359426
97	0x3cbbe67f	0.022937058
98	0x3d096824	0.033546582
99	0x3c22bfd2	0.009933429
100	0x3d2f75f7	0.04283711
101	0xbbfedbf2	-0.0077776844
102	0xbc9be612	-0.019030605
103	0xbd7ff9c3	-0.06249405
104	0x3b61443f	0.0034372953
105	0x3bc26acc	0.0059331413
106	0x3ca7797f	0.020443676
107	0x3acbf45d	0.0015560497
108	0x3d4dbbad	0.05022781
109	0xbdc85550	-0.09781897
110	0xb9afe2dc	-0.00033547624
111	0xbd9125c7	-0.070872836
112	0xb8870d73	-6.439807e-05
113	0xbd5fc708	-0.05463317
114	0xbdb1dbe6	-0.086845204
115	0x3d4247a0	0.04743159
116	0x3cbd0647	0.023074282
117	0xbbddf3f7	-0.0067734676
118	0xbd00a453	-0.03140671
119	0x3dc133f0	0.094337344
120	0xbcecd810	-0.02891162
121	0xbcfea9ad	-0.031086767
122	0xbc22e577	-0.009942404
123	0xbd2e9df9	-0.042631123
124	0x3c8543b7	0.01626764
125	0x3be6e5b7	0.007046427
126	0x3d0a69df	0.033792373
127	0x3cc9cf3d	0.024634952
128	0x3d602b3d	0.054728735
129	0x3b5688df	0.003273539
130	0x3c3ab357	0.011395297
131	0x3c9c2e6b	0.019065103
132	0xbc93a54f	-0.018023161
133	0x3dbf46bb	0.09339663
134	0x3d354205	0.044252414
135	0x3cdbe8d7	0.026844425
136	0x3d8122c8	0.06305462
137	0x3df2ea90	0.118611455
138	0xbb30a956	-0.00269564
139	0xbd6d8905	-0.057992
140	0x3dcd5640	0.100262165
141	0x3b0e0e44	0.0021675983
142	0x3c57300b	0.013134013
143	0xbc640282	-0.0139166135
144	0xbca01986	-0.01954342
145	0xbd42172c	-0.04738538
146	0xbce498fd	-0.027904982
147	0x3b690010	0.0035553016
148	0x3d393209	0.045213733
149	0xbcf12772	-0.029437754
150	0x3af1e9c3	0.0018456507
151	0x3da14fd1	0.07876552
152	0x3a9b3ca8	0.0011843638
153	0xbbbececf	-0.0058229933
154	0xbd46efeb	-0.048568647
155	0xbdc2ba3f	-0.0950818
156	0xbc2ececa	-0.01066942
157	0x3cff9f28	0.031203821
158	0xbda8b7d7	-0.0823819
159	0xbd3e25cb	-0.04642276
160	0xbc31e5e2	-0.010858031
161	0xbdba55ce	-0.09098397
162	0x3cd48207	0.025940908
163	0x3db534e1	0.088479765
164	0xbbdd0217	-0.006744634
165	0x3d17a918	0.037026495
166	0x3cd0455d	0.0254237
167	0x3b77b50d	0.0037797124
168	0xbd2d16cc	-0.04225807
169	0x3d3f0952	0.046639748
170	0xbca9b927	-0.02071817
171	0x3d61497b	0.055001717
172	0x3d16d425	0.03682341
173	0x3dea7f72	0.114500895
174	0xbe070804	-0.13186651
175	0xbd0f051f	-0.034916993
176	0xbdb3696f	-0.08760344
177	0x3c8d3dfb	0.017241469
178	0x3c8c46ab	0.01712354
179	0x3c054ef4	0.0081365
180	0xbd1ad2d4	-0.037798718
181	0x3cbb5d37	0.022871597
182	0x3cf00343	0.02929843
183	0xbd9f2417	-0.077705555
184	0xbd8870d1	-0.06662143
185	0xbd12ce7c	-0.03584145
186	0x3ce4c0c5	0.02792395
187	0xbd93ee3b	-0.07223173
188	0xbb61eef2	-0.0034474698
189	0x3c3cbe4f	0.0115199825
190	0x3c8a5a62	0.016888801
191	0xbca3cc8d	-0.019994998
192	0xbdb95594	-0.09049526
193	0xbc4ca0d1	-0.0124895135
194	0x3d372b8c	0.044719264
195	0x3d6e2a40	0.05814576
196	0xbbb87add	-0.005629881
197	0x3c76e368	0.015068866
198	0x3d8d817c	0.06909463
199	0x3ba10c4f	0.0049147974
200	0xbc346b5c	-0.011011925
201	0x3b82f3e3	0.0039963587
202	0x3c2184c7	0.009858317
203	0x3d0e3295	0.034716208
204	0x3e0d8ff4	0.13824445
205	0x3dd80403	0.1054764
206	0xbd11c7a3	-0.03559078
207	0xbda0f6f7	-0.07859605
208	0xbd3a3829	-0.045463715
209	0xbd5951d3	-0.05305655
210	0xbd23a118	-0.039948553
211	0xbdf5759d	-0.119853236
212	0x3caa480c	0.020786308
213	0x3d626102	0.055268295
214	0xbd3e5718	-0.046469778
215	0xbd27a5fc	-0.04092978
216	0xbd9406d4	-0.07227865
217	0xbb2af13e	-0.0026083733
218	0xbd4ceadd	-0.05002867
219	0x3ca108b1	0.019657465
220	0x3d1f194d	0.038842488
221	0xbd0a73df	-0.03380191
222	0x3e005304	0.12531668
223	0xbd2e0b57	-0.042491283
224	0xbd2dfd92	-0.04247815
225	0xbdb97ce5	-0.09057025
226	0x3d2e107f	0.0424962
227	0xbb46186c	-0.003022696
228	0xbc938637	-0.018008335
229	0x3d839c4b	0.06426295
230	0x3d187d3b	0.037228804
231	0xbd94d525	-0.072672166
232	0x3d18f557	0.03734335
233	0xbda932e0	-0.08261657
234	0x3cf0732f	0.029351799
235	0x3c827a39	0.01592742
236	0x3c56171f	0.013067036
237	0x3d4131f8	0.047166795
238	0xbc9d67c3	-0.019214517
239	0xbc897a9e	-0.016782101
240	0x3d0b7ec8	0.034056455
241	0x3db1be2b	0.0867885
242	0x3cccf6f2	0.025020096
243	0xbc419888	-0.011816151
244	0xbd53d160	-0.051713347
245	0x3b91f176	0.004453833
246	0xbca9cd73	-0.020727849
247	0xbde5285f	-0.11189341
248	0x3d6c1c8a	0.057644404
249	0x3ce04110	0.027374774
250	0x3d28efd3	0.04124434
251	0xbd575d9f	-0.05257952
252	0x3b098085	0.0020981145
253	0x3cc135dd	0.023585254
254	0xbd13914d	-0.03602724
255	0xbd23d5f5	-0.039998967

conv1.bias f4 [32]
0	0xbc5f86b2	-0.013642954
1	0xbdae0f77	-0.084990434
2	0x3daa938c	0.083289236
3	0x3d2e0e4a	0.042494096
4	0xbdb891ba	-0.0901217
5	0xbd416235	-0.0472128
6	0xbda7ce12	-0.08193602
7	0x3d037382	0.03209258
8	0x3b99f627	0.004698533
9	0x3df9474d	0.12171803
10	0xbd548e6f	-0.051893648
11	0x3cb44a01	0.022007944
12	0x3b89d40d	0.0042061866
13	0x3d7e6f37	0.06211778
14	0x3d88212c	0.06646952
15	0x3d6f206a	0.05838052
16	0xbd44ec80	-0.048077106
17	0x3ca60deb	0.020270308
18	0x3ca792bf	0.020455716
19	0x3b8f0243	0.0043642833
20	0x3c855444	0.016275533
21	0x3d486d9f	0.048932668
22	0xbd964a8e	-0.07338439
23	0xbd020ad4	-0.031748608
24	0xbd9581a1	-0.073001154
25	0x3c9a1e61	0.018813314
26	0xbd19e3a0	-0.037570596
27	0x3cb071a5	0.021538565
28	0xbd93bbb5	-0.07213537
29	0xbba6c97b	-0.0050899363
30	0x3c98b1a9	0.018639402
31	0x3db2f6db	0.0873849

conv2.weight f4 [64, 32, 3, 3]
0	0x3cb79850	0.022411495
1	0x3c3f12ba	0.01166218
2	0x3c69e0f7	0.014274827
3	0xbcca84ca	-0.024721522
4	0xbcac947a	-0.021066893
5	0xbc8211a0	-0.015877545
6	0xbcc9b103	-0.024620539
7	0xbca8247f	-0.020525215
8	0xbcdc858f	-0.026919154
9	0xbbe2f8b2	-0.0069266194
10	0xbc4475bc	-0.011990961
11	0x3c4abd87	0.012374288
12	0xbd191b47	-0.03737953
13	0xbca67e32	-0.020323846
14	0x3bc12253	0.0058939843
15	0xbca0def4	-0.019637562
16	0xbac0f243	-0.0014720637
17	0x3beeba0f	0.0072853635
18	0xbcc11147	-0.023567809
19	0xbcbe77f7	-0.023250563
20	0xbbcc19e9	-0.0062286747
21	0xbc04756b	-0.008084635
22	0xbd2ed82b	-0.042686623
23	0xbcbec3b2	-0.023286674
24	0xbc6790f8	-0.014133684
25	0xbc9d897f	-0.019230602
26	0x3c697a27	0.014250315
27	0xbcf9e52a	-0.030504782
28	0x3c8afdb5	0.01696668
29	0xbc8135b5	-0.01577268
30	0xbb1aaf17	-0.0023602897
31	0xbd1ff2f3	-0.039050054
32	0x3c5d805a	0.013519371
33	0xbd3ac733	-0.045600127
34	0xbccce017	-0.025009198
35	0x3b68b223	0.0035506568
36	0xbc585c20	-0.013205558
37	0xbccecd00	-0.025244236
38	0xbbc3d930	-0.0059768185
39	0xbb93761f	-0.004500165
40	0xbcb93acd	-0.022611046
41	0xbb790f07	-0.0038003342
42	0xbc5bd9b5	-0.013418605
43	0x3a5af7b5	0.0008352951
44	0xbae63540	-0.0017563477
45	0xbd087ac4	-0.033320203
46	0x3c03604b	0.0080185635
47	0xbcee058f	-0.029055385
48	0xbbae12e9	-0.005312313
49	0x3bd62ada	0.00653587
50	0x3c844585	0.01614643
51	0xbca1de90	-0.019759446
52	0x3ca04a3f	0.019566653
53	0xbb6cd2fd	-0.00361365
54	0xbccf21df	-0.025284706
55	0xbadbef38	-0.0016779667
56	0xbcb12a79	-0.021626698
57	0xbd0723d2	-0.032993145
58	0x3c591237	0.013248972
59	0xbc0d4ce8	-0.008624293
60	0xbbf45e90	-0.007457562
61	0xb9c4cde5	-0.00037537437
62	0x3b501263	0.003174924
63	0xbc98d2b7	-0.018655164
64	0x3ca15a30	0.019696325
65	0x3c022737	0.00794392
66	0xbc900d2a	-0.017584402
67	0xbb687a53	-0.0035473302
68	0x3bccac43	0.006246121
69	0xbc7f1f37	-0.015571407
70	0xbc9c3b55	-0.01907126
71	0x39dc5b07	0.0004202949
72	0x3cb0f563	0.021601385
73	0xbbcf1ba5	-0.006320434
74	0xbc8b6f04	-0.01702071
75	0x3c5a9297	0.013340614
76	0xbc4f23c8	-0.012642808
77	0xbc5ca0a3	-0.013466033
78	0xbc8e689f	-0.017383872
79	0x3b866ffb	0.0041027046
80	0xbc54cf08	-0.012988813
81	0xbcaaa9b7	-0.02083288
82	0xbcd66d82	-0.026175264
83	0x3c1e6b4a	0.009669134
84	0x3c30f482	0.010800483
85	0x3c5fc907	0.0136587685
86	0xbc341a30	-0.010992572
87	0xbc96458a	-0.018343706
88	0xbc197cf0	-0.009368166
89	0xbca3b6ad	-0.019984568
90	0xbc87cbab	-0.016576609
91	0xbc420cc4	-0.011843864
92	0x3c9f4199	0.01944046
93	0x3c6e7cea	0.014556149
94	0xbc2bc935	-0.010484983
95	0xbbbc1119	-0.005739343
96	0xba203947	-0.00061120506
97	0xbc2625ca	-0.010140846
98	0xbc72d11b	-0.014820362
99	0xbc19b823	-0.0093822805
100	0xbaf2b8e0	-0.0018518232
101	0xbba46c47	-0.0050177905
102	0xbd25fce5	-0.040524382
103	0xbd006c80	-0.031353474
104	0xbca8faa7	-0.020627333
105	0xbd10140c	-0.03517537
106	0xba4f161d	-0.00078997185
107	0xbcc3ced9	-0.023902344
108	0x3c4138ca	0.011793325
109	0x3b9e8077	0.0048370915
110	0xbb5330ad	-0.0032225058
111	0xbc6f27e3	-0.014596912
112	0xbc185afd	-0.009299037
113	0xbc24d31d	-0.010060099
114	0x3c8fa6a9	0.017535524
115	0xbb7ff20a	-0.0039054179
116	0xbcb9902d	-0.022651756
117	0x3c10e6fb	0.008844133
118	0xbb908f1f	-0.0044115926
119	0xbc5769a3	-0.013147744
120	0xbcd1fffd	-0.02563476
121	0xbca2d940	-0.019878983
122	0xbc9eac2f	-0.019369213
123	0xbd2d804f	-0.042358693
124	0xbc417880	-0.011808515
125	0xbc600b33	-0.013674545
126	0xbceea3ea	-0.029130895
127	0xbc3dc095	-0.01158156
128	0xbaf18b07	-0.0018428274
129	0xbbb3b7c0	-0.005484551
130	0xbc4e7b83	-0.01260269
131	0x3c244be3	0.010027858
132	0xbd155d7b	-0.036466103
133	0xbb37a28f	-0.0028020476
134	0x3bcfc46d	0.0063405544
135	0xbd1451c0	-0.036210775
136	0x3b0478c9	0.0020213595
137	0x3bbe96dc	0.0058163237
138	0xbc0badbb	-0.008525307
139	0xbd05562b	-0.03255288
140	0x3a84ce1a	0.0010132224
141	0xbc34f195	-0.011043926
142	0x3c24c7ef	0.0100574335
143	0x3c97c82a	0.018528063
144	0xbbf7b933	-0.0075599193
145	0xbb152600	-0.0022758245
146	0xbc8ed679	-0.017436253
147	0x3cbd5412	0.023111377
148	0xbc08942b	-0.008336107
149	0x3a7d487d	0.00096619857
150	0x3c3fdb0b	0.011709939
151	0xbcfb4963	-0.030674642
152	0xbc5db5a0	-0.013532072
153	0xbc0ecbef	-0.008715614
154	0xbb7c9047	-0.0038538144
155	0xbc854275	-0.01626704
156	0xbc157968	-0.009123184
157	0xbc09609d	-0.008384851
158	0xbb193a94	-0.0023380863
159	0xbbdf9b7f	-0.0068239565
160	0xbcfa0958	-0.030522034
161	0xbbb5d7e4	-0.005549418
162	0xbc2b5f9b	-0.010459806
163	0xbbe36098	-0.006939005
164	0xbca4213a	-0.020035375
165	0xbb2dafef	-0.002650257
166	0x3be560fa	0.007000086
167	0x3c20d374	0.009816039
168	0xbc731560	-0.014836639
169	0xbc5e7cfd	-0.013579604
170	0x3ae1590a	0.0017192673
171	0xbbe000c8	-0.0068360306
172	0xbc3f28f0	-0.011667475
173	0x3a977692	0.0011555722
174	0xbbf3afa5	-0.00743671
175	0x3c943cbf	0.018095372
176	0x3c81dfa7	0.015853716
177	0xbbf6606d	-0.007518819
178	0xbc7aaf73	-0.015300619
179	0xba64ec80	-0.0008732751
180	0xbcf901fb	-0.030396452
181	0x3c325941	0.010885538
182	0x3af746df	0.0018865726
183	0xbbc85018	-0.0061130635
184	0xbce6452f	-0.028109161
185	0xbc4dffd8	-0.012573205
186	0xbcda83c7	-0.026674164
187	0x3b94904b	0.0045338026
188	0xbc0a4ca3	-0.008441123
189	0xbcb7052d	-0.022341335
190	0x3c376f13	0.011195916
191	0xbc47df5d	-0.01219925
192	0xbcefe825	-0.0292855
193	0xbc7ff270	-0.015621766
194	0xbcb07b8f	-0.021543292
195	0xbcd3bf70	-0.02584812
196	0x3c1a2833	0.009408998
197	0xbc82ee9b	-0.015982917
198	0xbcb40451	-0.021974714
199	0xb95cb6b0	-0.00021048891
200	0xbc52e873	-0.012872803
201	0x3c34fe37	0.011046938
202	0xbcac00a4	-0.0209964
203	0x3bd9b172	0.0066434676
204	0xbc5a382b	-0.013319056
205	0xbce46b50	-0.027883202
206	0x3c7fee42	0.01562077
207	0x3bb6a5c7	0.0055739614
208	0x3c47008b	0.012146126
209	0xbb80ee42	-0.0039346525
210	0xbc5d05b7	-0.013490132
211	0x3cd775b2	0.026301239
212	0x3a2e2799	0.0006643474
213	0xbc8d53c2	-0.017251853
214	0xbc136e72	-0.0089985
215	0xbd146ce5	-0.036236662
216	0xbb9e5bd0	-0.0048327222
217	0xbce7a6d7	-0.028277798
218	0x3ac20158	0.0014801426
219	0x3c114129	0.008865633
220	0xbbe1510f	-0.006876118
221	0x3c2bf033	0.01049428
222	0xbc7a7530	-0.015286729
223	0xbc50cb15	-0.012743731
224	0x3bac5434	0.005259061
225	0xbbbd2b87	-0.005773011
226	0xbcd393bf	-0.025827287
227	0x3c2e57c7	0.010641045
228	0xbc118b7b	-0.008883352
229	0xbc4e0f4b	-0.012576888
230	0x3c99f5cd	0.018793965
231	0xbc8d645b	-0.017259767
232	0xbbd2f4c7	-0.006437871
233	0x3cb516d7	0.022105617
234	0xbc7255a7	-0.014790929
235	0xbca9013a	-0.020630468
236	0x3c04c849	0.008104392
237	0x3c26b837	0.010175756
238	0x3c1d73eb	0.0096101565
239	0xbcaa26cf	-0.020770459
240	0xbcb88b3b	-0.022527328
241	0xbc105c9f	-0.008811145
242	0xbcd4c2dd	-0.025971824
243	0xbc319f9f	-0.010841279
244	0xbc1ee051	-0.009697036
245	0xbd156d55	-0.03648122
246	0xbc997c87	-0.018736137
247	0xbc94c119	-0.018158482
248	0xbba39d65	-0.004993128
249	0xbc661a2d	-0.014044327
250	0xbc1dbc08	-0.00962735
251	0xbc5580ff	-0.013031243
252	0xba87bb79	-0.0010355554
253	0x3bc8c327	0.0061267796
254	0xbba6230f	-0.0050700973
255	0xbc0b10f8	-0.008487932

conv2.bias f4 [64]
0	0xbc22c3c3	-0.009934369
1	0xbcca413b	-0.024689307
2	0x3ccf1bab	0.025281748
3	0xbcaba448	-0.020952359
4	0xbb18a9f7	-0.0023294666
5	0xbc7a6477	-0.015282742
6	0xbd42591e	-0.04744827
7	0xbc48db42	-0.012259306
8	0xbc9c9a1f	-0.01911646
9	0xbbc7f035	-0.006101633
10	0xbc7486c0	-0.014924705
11	0xbcef196a	-0.029186923
12	0xbd1b0252	-0.03784401
13	0xbbd96622	-0.0066344896
14	0xbd149e4a	-0.03628377
15	0x3b04697a	0.002020447
16	0xbc1f4835	-0.009721805
17	0x3cc165a8	0.023608044
18	0x3bc40412	0.0059819305
19	0x3c0c03c4	0.00854582
20	0x3b1fafa4	0.0024366165
21	0xb992d127	-0.0002800312
22	0xbc8631e2	-0.016381208
23	0xbbd0dcf5	-0.0063739964
24	0xbcefe2b8	-0.029282913
25	0xbc4fbaa3	-0.012678775
26	0xbcf3e7af	-0.029773561
27	0x3a551def	0.00081297656
28	0xbcb8eea3	-0.022574728
29	0x3c95a2ab	0.018266043
30	0x3c245bc3	0.010031643
31	0xbca7c598	-0.020479962
32	0x3cf60328	0.030030802
33	0xb8a4ada5	-7.852473e-05
34	0xbce2e803	-0.027698522
35	0xbc9b857f	-0.018984554
36	0xbcc7255d	-0.024309808
37	0xbc71a542	-0.014748873
38	0x3d2f580d	0.04280858
39	0xbd3a8ceb	-0.045544546
40	0xbca18c5d	-0.01972025
41	0xbc24ba3c	-0.010054167
42	0x3d46452d	0.048405815
43	0x3a140cff	0.00056476885
44	0xbc24cc2e	-0.010058446
45	0xbbaa2fbe	-0.0051936796
46	0xbc2fd4e8	-0.010731913
47	0xba9103df	-0.0011063776
48	0x3c94ca8b	0.018162986
49	0xbba4794f	-0.005019344
50	0xbd171827	-0.036888268
51	0xbac34a80	-0.0014899522
52	0xbc479103	-0.01218057
53	0xbb81024f	-0.003937043
54	0xbc75c68b	-0.01500095
55	0x3b3ba1d9	0.0028630404
56	0x3c1e0742	0.009645285
57	0x3b7f3633	0.0038942217
58	0xbc903b98	-0.017606542
59	0x3b55ea37	0.0032640824
60	0x3ad1e4ca	0.0016013619
61	0xbcbb42c4	-0.022858985
62	0xb8a50289	-7.868285e-05
63	0x3bd791fa	0.006578681

fc1.weight f4 [64, 2304]
0	0xbb93875b	-0.0045022196
1	0xbc8e20d3	-0.017349636
2	0xbc2fa4c3	-0.010720435
3	0xb94665eb	-0.00018920719
4	0xba9ab263	-0.0011802431
5	0xbc64ceff	-0.013965367
6	0xbc7e8fe0	-0.015537232
7	0x3c09b4d8	0.008404933
8	0xbc5dbe08	-0.0135340765
9	0x3b9c79e2	0.0047752718
10	0xbc1016d0	-0.008794501
11	0xbbd843c0	-0.0065998733
12	0xbc2c8042	-0.010528626
13	0xbba324fb	-0.0049787736
14	0xb9711f02	-0.00022995102
15	0xbbfe024f	-0.00775174
16	0xbb844f0f	-0.004037745
17	0x3b2bd6ed	0.0026220635
18	0xbb928918	-0.0044719093
19	0xbb30935c	-0.0026943302
20	0xbb11fb80	-0.002227515
21	0x390605da	0.00012781416
22	0xbb614767	-0.0034374835
23	0xbb8ff92f	-0.0043937187
24	0x3ba7c1f2	0.0051195556
25	0xbc585d5f	-0.013205855
26	0x3826d09b	3.9771763e-05
27	0xbb7a7a6f	-0.0038219949
28	0xbadd0c4a	-0.0016864624
29	0xbc0c0448	-0.008545943
30	0xbb9377e3	-0.0045003756
31	0xbc273744	-0.010206047
32	0x3b3980ef	0.002830561
33	0xbb95a24a	-0.0045664655
34	0x3b943cd1	0.0045238514
35	0xbc49e915	-0.0123236375
36	0x3b15e3e1	0.0022871422
37	0xbaf92c13	-0.0019010328
38	0xbb5f7a8f	-0.003410015
39	0x3a010b8c	0.000492268
40	0x39fd370b	0.0004829693
41	0xbc1c4017	-0.009536765
42	0xbbfac59b	-0.007652951
43	0xbac0c1a2	-0.0014706145
44	0xbbd7e4cd	-0.0065885545
45	0xbbe16577	-0.0068785506
46	0xbba3be87	-0.004997078
47	0x3b703c5b	0.0036657068
48	0x3bb2ba4a	0.0054543363
49	0xbba7e360	-0.0051235408
50	0xbc81ce1c	-0.01584535
51	0x3b2c93b5	0.0026333157
52	0xbbacc947	-0.0052730176
53	0xbb6b67aa	-0.0035919943
54	0x3b00f5cd	0.0019677759
55	0x3bb7c505	0.0056082034
56	0xbc0c98e2	-0.008581372
57	0xbbe3635f	-0.006939336
58	0xbbc4b3f3	-0.006002897
59	0x3c1cd7b7	0.009572915
60	0xbb3d252f	-0.0028861274
61	0xbb87f4fb	-0.004149077
62	0xbb7bf577	-0.003844587
63	0xbc8b876f	-0.017032353
64	0xba28287b	-0.00064147235
65	0x39998c00	0.00029286742
66	0x3bbcf611	0.005766638
67	0xbb2539dc	-0.0025211489
68	0xbbd510b7	-0.0065022367
69	0x3a961beb	0.0011452412
70	0xbc12d69a	-0.008962298
71	0xba942d32	-0.0011304973
72	0x3bf7b287	0.007559124
73	0x3ca4d89a	0.020122815
74	0x3cb20370	0.021730155
75	0xbb2b9fdd	-0.0026187815
76	0x3ca4513f	0.020058272
77	0x3cdd1590	0.02698782
78	0xbb92c82b	-0.0044794283
79	0xbc011b79	-0.007880085
80	0xbbe19257	-0.0068839
81	0xbc2820f8	-0.010261767
82	0x3b4dfe6a	0.003143216
83	0x3c34b547	0.011029548
84	0xbbd9d625	-0.0066478425
85	0x3bca544f	0.006174601
86	0x3b61fafa	0.003448187
87	0xbb88bc48	-0.0041728355
88	0xbbfe6455	-0.0077634254
89	0x3c9a2cef	0.018820254
90	0xb94db15f	-0.000196164
91	0xbbd7327a	-0.0065672966
92	0xbc2e7855	-0.010648807
93	0xbb296e90	-0.0025853254
94	0xbb971e77	-0.004611786
95	0x3ab54e6f	0.0013832579
96	0xbbb376d8	-0.0054768138
97	0xbbbbfeab	-0.005737146
98	0x3bbecc45	0.0058226907
99	0xbbfcbaab	-0.0077126822
100	0x3c15934f	0.009129359
101	0xbb76d3a5	-0.003766277
102	0xbb6191a3	-0.0034419082
103	0xbc74afca	-0.0149344895
104	0xbb28727c	-0.0025703004
105	0x390473f4	0.00012631697
106	0x3a692edd	0.0008895228
107	0x3aa052ee	0.0012231746
108	0xbb48d7f4	-0.0030646296
109	0xbbe9e527	-0.007137913
110	0xbc24ad90	-0.010051146
111	0xbbc2cdc3	-0.005944939
112	0xbba08efb	-0.004899857
113	0xbaae099d	-0.0013278011
114	0xbc5fc785	-0.013658409
115	0xbb5fbb82	-0.0034138863
116	0xbc075815	-0.0082607465
117	0xbb98b147	-0.004659805
118	0xbc1ec183	-0.0096896915
119	0x3b0c02e5	0.002136403
120	0xbc279187	-0.0102275675
121	0xbb40f6bd	-0.0029443942
122	0x3b949cf7	0.004535313
123	0x3918ce5f	0.00014572729
124	0xbb87ba2b	-0.004142066
125	0xbba41c2f	-0.0050082426
126	0xbc0ff3ad	-0.008786124
127	0xbba8a45b	-0.005146546
128	0xbc0b69d4	-0.008509118
129	0xbb8aba57	-0.004233639
130	0xbba94dff	-0.0051667686
131	0x3a2093f3	0.0006125562
132	0xbbb31e53	-0.0054662614
133	0x3ac398e3	0.0014922883
134	0xbb684ae7	-0.0035445036
135	0xbc0c66e3	-0.008569452
136	0x3ab9d897	0.0014178929
137	0x3a7ae30f	0.00095705775
138	0xba8204ca	-0.000991964
139	0xbb7e8510	-0.0038836636
140	0xbb65c6e5	-0.0035061177
141	0xbb038925	-0.0020070758
142	0xbb626227	-0.0034543367
143	0xbb44b397	-0.003001427
144	0xbacab882	-0.0015466365
145	0xbc59413b	-0.013260181
146	0xbb9d7068	-0.0048046596
147	0x3a008648	0.0004902822
148	0xbaa690f5	-0.0012707995
149	0xbb6fbe30	-0.0036581866
150	0x3aa12e3b	0.0012297103
151	0xbb7655a5	-0.003758767
152	0x39b2f2b5	0.00034131636
153	0xbb3c2bdc	-0.0028712666
154	0x3ae3a4af	0.0017367805
155	0xbb9cffa7	-0.0047912183
156	0xbbe1ab98	-0.0068869106
157	0x3a44a2b8	0.00075010536
158	0xba9120f5	-0.0011072444
159	0xbb882cd7	-0.004155736
160	0xbabc4a1a	-0.0014365346
161	0x3a623ef2	0.00086305954
162	0xbb674735	-0.0035290245
163	0xbc39cbab	-0.011340062
164	0xb8edac43	-0.00011333127
165	0xbb424743	-0.0029644526
166	0x3b26cb8f	0.002545092
167	0x3bacdc0f	0.0052752565
168	0xbb0dc250	-0.0021630712
169	0xbbd83e5b	-0.00659923
170	0xbbcf6b23	-0.0063299104
171	0x3bab783b	0.0052328384
172	0xbc4731d2	-0.012157874
173	0xbc3b2a77	-0.011423699
174	0xba8ff80b	-0.0010983957
175	0xbc84f0fd	-0.016228193
176	0x395a0d8d	0.00020795148
177	0xbbf8dd13	-0.0075947135
178	0x3b275a47	0.0025535987
179	0x3b0fb943	0.0021930493
180	0x39eadd00	0.00044796616
181	0xbc1f454f	-0.009721114
182	0x3c1b9de7	0.009498096
183	0xbada7f3d	-0.001667
184	0x3b41050a	0.0029452466
185	0xbb0e6a57	-0.0021730864
186	0x39c5e3b0	0.00037744408
187	0x3cb1fbc5	0.021726498
188	0xbbe4385f	-0.006964728
189	0xbb5a3573	-0.0033296018
190	0x39ba20d7	0.00035501152
191	0x3962bf70	0.00021624356
192	0x3c7da0e7	0.015480257
193	0x3c00f835	0.007871677
194	0xbba598b9	-0.0050536063
195	0xb9e81473	-0.00044265724
196	0xbb557cb7	-0.0032575557
197	0xbc3177cf	-0.010831787
198	0x3c45acd3	0.01206513
199	0xbc6a549b	-0.014302398
200	0xbc7dadd3	-0.015483337
201	0xbb882924	-0.004155295
202	0x3b6771ff	0.003531575
203	0xbc842198	-0.0161293
204	0xbae3bb47	-0.0017374539
205	0xbbb238cf	-0.005438901
206	0xbc33469f	-0.01094213
207	0xbc203289	-0.0097776735
208	0xbc5d150a	-0.013493786
209	0xbac4d103	-0.0015015904
210	0xba596a7b	-0.000829376
211	0x3b79518a	0.0038042986
212	0xbbb124a4	-0.005405979
213	0xbc079daa	-0.008277336
214	0xbbc9010b	-0.0061341575
215	0xbc056735	-0.008142282
216	0x3c5c83b7	0.013459138
217	0xbc9c1c2f	-0.019056408
218	0xbc8f6897	-0.017505927
219	0xbcb9bf82	-0.022674326
220	0xbbffaff0	-0.007802956
221	0xbbeebdfb	-0.007285831
222	0x3c6b0ead	0.014346761
223	0xbaebce2f	-0.0017990525
224	0xbcde0bea	-0.02710529
225	0xbbce6672	-0.0062988335
226	0xbc01eadb	-0.007929529
227	0x3ce5e958	0.028065369
228	0x3cf7e61a	0.030261088
229	0x3c887a68	0.01665993
230	0x3b661d02	0.0035112505
231	0xbb948f94	-0.0045337174
232	0x3c9f63fe	0.01945686
233	0x3ce03862	0.027370635
234	0x3d057841	0.032585386
235	0x3d07d044	0.033157602
236	0x3b413d4b	0.0029485996
237	0x3aacdfb7	0.0013189231
238	0x3d0cb2fc	0.03435038
239	0x3d30cd7d	0.04316472
240	0x3cc1f01d	0.023674065
241	0x3cd2a66a	0.025714118
242	0x3c90cdaa	0.017676193
243	0x3c5ec508	0.013596781
244	0x3cbb95a1	0.022898497
245	0x3c8d7f60	0.017272651
246	0x3c0bbcf7	0.008528939
247	0x3bb874aa	0.005629142
248	0xbc8641c3	-0.01638878
249	0xbcabe9c7	-0.020985497
250	0xbbe80742	-0.0070809433
251	0xbbd777fa	-0.0065755816
252	0xb9ae9fdf	-0.0003330698
253	0xbbefd12b	-0.007318636
254	0xbc12c700	-0.008958578
255	0x3bcbe55a	0.006222409

fc1.bias f4 [64]
0	0x3bce5cd0	0.006297685
1	0xbaed60ed	-0.0018110551
2	0xba2283a4	-0.00061994256
3	0x3cc3b85c	0.02389162
4	0xbb83dda7	-0.0040242258
5	0xbadd8ed7	-0.0016903532
6	0x3c029d2b	0.007972042
7	0xbc003628	-0.007825412
8	0x3cc8e827	0.024524761
9	0x3b8d6c5d	0.0043158964
10	0xb99d1b78	-0.0002996584
11	0x3c01920b	0.0079083545
12	0x3bb192fa	0.0054191323
13	0xbd000842	-0.031257875
14	0xbc5f463f	-0.013627588
15	0xbb963187	-0.004583541
16	0xbb966d3b	-0.004590658
17	0x3beec3ea	0.0072865384
18	0xbc686c25	-0.01418594
19	0x3cb1d7a3	0.021709269
20	0xbbd68a10	-0.00654722
21	0xbc55451f	-0.013016968
22	0xbc1c9978	-0.009558074
23	0x3cc5c823	0.024143284
24	0x3c043a0a	0.008070478
25	0x3cd8ab0b	0.026448747
26	0x3d34a6ea	0.044104494
27	0xb9ac9477	-0.0003291701
28	0x3b8bd04c	0.0042667743
29	0xbab621f7	-0.001389562
30	0xba82e057	-0.0009985071
31	0xbb87e0d2	-0.0041466737
32	0x3c5fbb9f	0.013655572
33	0xbcbec4b9	-0.023287164
34	0x3d324487	0.043522384
35	0xbb043a0a	-0.0020176196
36	0xbd0384d5	-0.0321091
37	0xbc9efbc5	-0.019407162
38	0xbc0d242f	-0.008614584
39	0xbc5ea425	-0.01358894
40	0x3b158407	0.002281429
41	0xbbc06bb7	-0.0058722156
42	0x3c2a7e09	0.010406026
43	0xbc399bbc	-0.011328634
44	0xbc180b52	-0.009280043
45	0x3cca8ba0	0.024724782
46	0xbbee98f7	-0.0072814184
47	0x3a2ae09b	0.0006518454
48	0x3aac62f5	0.001315205
49	0xbc3ed5e8	-0.011647679
50	0x3ba5a70f	0.0050553153
51	0xbc21031b	-0.009827401
52	0x3a92754b	0.0011173872
53	0x3c13b9d2	0.009016471
54	0xb997dadd	-0.0002896403
55	0x3c970578	0.018435225
56	0xbbad3c72	-0.0052867467
57	0x3b95d2d0	0.00457225
58	0x3b0f1567	0.0021832825
59	0xbb12fe2c	-0.002242933
60	0xbbea2fa0	-0.0071467906
61	0x3acfd292	0.0015855602
62	0xb9ae5b6a	-0.00033255975
63	0xbb297c40	-0.0025861412

fc2.weight f4 [10, 64]
0	0x3d51798d	0.05114131
1	0xbca1b534	-0.019739725
2	0xbc916662	-0.017749015
3	0xbc35f170	-0.0111049265
4	0x3caa60b4	0.020798065
5	0xbd2fcc5f	-0.042919513
6	0x3c20fcca	0.009825895
7	0x3d4428a8	0.047890335
8	0x3c84909d	0.016182238
9	0x39dfb7d0	0.00042670825
10	0x3c8d03a9	0.01721366
11	0xbd905d1f	-0.070490114
12	0xbd4ce09a	-0.050018884
13	0x3d4b8a85	0.04969265
14	0x3cc127c2	0.023578528
15	0x3abfdd65	0.0014638124
16	0xbcc0056d	-0.023440087
17	0x3cbb20e1	0.022842826
18	0xbcc2f62f	-0.02379903
19	0xbc407498	-0.011746548
20	0x3c179c02	0.009253504
21	0xbd40fc62	-0.04711569
22	0xbc80c134	-0.015717126
23	0xbd57cdfa	-0.05268667
24	0x3c3fafec	0.011699658
25	0xbd178cbf	-0.03699946
26	0x3d19b501	0.037526134
27	0xbcaa76c0	-0.020808578
28	0x3d384887	0.044991042
29	0x3d45e4b1	0.0483138
30	0xbd4d17df	-0.050071593
31	0xbcd3086a	-0.025760848
32	0x3ce4f470	0.027948588
33	0x3d9e2fcf	0.077239625
34	0xbc05748b	-0.008145462
35	0xbd16b1d7	-0.036790695
36	0x3d7d3cbb	0.061825495
37	0xbd188e47	-0.03724506
38	0xbcabba5b	-0.020962885
39	0xbd27a993	-0.040933203
40	0xbc7d5b38	-0.015463643
41	0x3c9805b5	0.018557409
42	0x3d58c868	0.052925497
43	0x3d8077df	0.062728636
44	0xbcb662df	-0.022263942
45	0xbc22ad2f	-0.0099289855
46	0xbcc5a82f	-0.024128048
47	0xbd18c5af	-0.0372979
48	0x3d183d3b	0.03716777
49	0x3d251ca3	0.040310513
50	0xbd393713	-0.04521854
51	0x3b974e6b	0.0046175024
52	0x3baa4ed7	0.0051973867
53	0xbdbb6475	-0.0915002
54	0xbb218254	-0.0024644332
55	0x3d255496	0.04036387
56	0x3c3c02ce	0.011475278
57	0x3d078127	0.033082154
58	0xbcedd297	-0.029031081
59	0x3c9c6b1a	0.019094039
60	0x3c485582	0.012227418
61	0xbd081d2d	-0.03323095
62	0xbc532c30	-0.012888953
63	0xbc426680	-0.011865258
64	0x3cba7cb7	0.022764547
65	0xbd3498e7	-0.04409113
66	0x3c25ff5f	0.010131686
67	0xbd3aa854	-0.045570686
68	0xbb42b3e8	-0.0029709283
69	0xbc14ccdf	-0.009082048
70	0x3c758f50	0.014987782
71	0xbc7782c7	-0.015106863
72	0xbcf1a31b	-0.02949672
73	0x3ab987c5	0.0014154842
74	0x3c53e8db	0.012933935
75	0x3ce8f8c8	0.02843894
76	0x3be209db	0.0068981475
77	0x3ca28e79	0.019843327
78	0xbbe3ea50	-0.0069554225
79	0x3ca6887d	0.020328755
80	0x3ca01842	0.019542817
81	0xbd5114af	-0.051045116
82	0xbc5befbb	-0.013423855
83	0xbd752fa0	-0.059859872
84	0x3d1b87f7	0.037971463
85	0xbc87e454	-0.016588368
86	0x3c13603f	0.008995115
87	0x3b841792	0.00403113
88	0x3c238333	0.009980011
89	0xbd6895ea	-0.056783594
90	0x3c9caae1	0.01912445
91	0xbaef121d	-0.0018239651
92	0xbcd29487	-0.025705589
93	0x3cd7eea0	0.026358902
94	0xbd427a82	-0.047480114
95	0x3c6b79e3	0.014372322
96	0xbd8b7667	-0.06809693
97	0x3ca010ad	0.019539202
98	0xbd8aac49	-0.06771142
99	0xbd4fea9a	-0.050760843
100	0x3d806978	0.062701166
101	0x3d589500	0.052876472
102	0x3b1992e2	0.0023433496
103	0x3acded63	0.0015711006
104	0xbd6e649a	-0.05820141
105	0xbc36b524	-0.011151586
106	0xbd530da7	-0.05152669
107	0x3c523c33	0.012831735
108	0x3c95af0f	0.018271951
109	0xbd940f8a	-0.07229526
110	0x3d10950a	0.035298385
111	0x3cad6702	0.021167282
112	0xbcafaa83	-0.021443611
113	0x3dab55bc	0.08365962
114	0xba922454	-0.0011149743
115	0xbc9345ad	-0.01797756
116	0xbcc8a21b	-0.02449136
117	0x3c7aca77	0.01530706
118	0x3d4e83b5	0.050418574
119	0xbd88cb92	-0.06679453
120	0x3d2954dc	0.041340694
121	0xbc0b5600	-0.008504391
122	0xbd1063aa	-0.035251297
123	0xbd4b8f38	-0.04969713
124	0x3d24add7	0.04020485
125	0x3c97abba	0.018514503
126	0x3d0761a2	0.033052094
127	0x3cf081f2	0.029358838
128	0xbc7a199a	-0.015264893
129	0xbc81b040	-0.015831113
130	0xbba6e2af	-0.0050929408
131	0xbd34bbae	-0.044124298
132	0xbd81106f	-0.063019626
133	0xbb1af057	-0.002364179
134	0x3b0a545f	0.0021107418
135	0xbb1d3864	-0.002398991
136	0xbc6a26a3	-0.014291438
137	0xbb68fff5	-0.0035552953
138	0xb9aed947	-0.0003334975
139	0xbb488a2b	-0.0030599933
140	0x3ccb82b2	0.024842594
141	0x3d398362	0.045291312
142	0x3c708730	0.014680669
143	0x3c0c27f2	0.008554446
144	0x3cd77ccd	0.026304627
145	0xbb77a930	-0.0037790053
146	0x3d16a707	0.036780383
147	0x3d385939	0.045006964
148	0xbd6eee35	-0.05833264
149	0x3d2874f9	0.04112718
150	0x3cb63a6f	0.02224466
151	0x3ce343d2	0.0277423
152	0x3d7769e5	0.060403723
153	0x3b8dbdc7	0.0043256017
154	0xbcb0e845	-0.02159513
155	0x3c198872	0.00937091
156	0xbd8027e3	-0.06257608
157	0x3c73a830	0.014871642
158	0xba0dcaa9	-0.0005408922
159	0x3ccbf33c	0.024896257
160	0x3d3aa72f	0.045569595
161	0xbc58e5d2	-0.013238387
162	0x3db7d025	0.08975247
163	0xbc360f30	-0.011112019
164	0xbbac12b2	-0.005251252
165	0xbd721270	-0.059099615
166	0xbd553e90	-0.052061617
167	0xbc54dc38	-0.012991957
168	0xb9c33c6b	-0.00037238313
169	0x3c9f0887	0.019413246
170	0xbafdd99f	-0.0019367224
171	0x3bad7e51	0.005294599
172	0x3b9af2da	0.004728657
173	0xbc831b95	-0.016004363
174	0xbd832d67	-0.06405144
175	0x3d7499c3	0.05971695
176	0x3c987377	0.018609745
177	0x3c3c3747	0.0114877885
178	0x3cd3e847	0.025867594
179	0x3d131dc1	0.035917047
180	0xbc1e7c9a	-0.009673262
181	0xbcd18600	-0.025576591
182	0x3d0e8ae3	0.03480042
183	0x3d8142b1	0.063115485
184	0xbc804923	-0.015659874
185	0xbd3ab05c	-0.045578346
186	0xbd0fc7b8	-0.035102576
187	0xbc46f5a5	-0.012143527
188	0x3b4e1b08	0.0031449217
189	0xbbe19c2a	-0.0068850713
190	0x3c84e714	0.016223468
191	0x3d363e8f	0.044493254
192	0xbd369cd7	-0.044583168
193	0xbcb9d62f	-0.022685139
194	0x3c1831c7	0.009289212
195	0xbd36ea0d	-0.044656802
196	0x3c0fd9ba	0.008779937
197	0x3c2baf97	0.010478876
198	0x3cd13010	0.025535613
199	0x3c4f0e52	0.012637692
200	0x3d7de147	0.06198242
201	0x3d7b8e6f	0.061415132
202	0xbbd8d3ff	-0.006617069
203	0xbce15282	-0.027505163
204	0xbb8d67cb	-0.0043153516
205	0xbd6743c0	-0.056461096
206	0x3c492c3f	0.0122786155
207	0x3c63f057	0.013912282
208	0xbd2597df	-0.04042804
209	0xbbaa0137	-0.005188133
210	0x3ca785f8	0.020449623
211	0x3ceaaafb	0.028645983
212	0xbcb988b4	-0.022648193
213	0x3d40e5ff	0.04709434
214	0x3d9e0637	0.07716029
215	0xbca4d02b	-0.020118793
216	0xbc3cf868	-0.011533834
217	0xbb3fe268	-0.0029279236
218	0xbd20c490	-0.039249957
219	0x3ac3ffc0	0.0014953539
220	0xbd223a4b	-0.039606374
221	0x3cb572b8	0.022149429
222	0xbb92b649	-0.0044772965
223	0x3c3152f7	0.010823003
224	0x3d03f2ee	0.032214098
225	0xbc97d035	-0.018531898
226	0x3baa5d8c	0.00519914
227	0x3cab7f7a	0.020934809
228	0x3d727c97	0.05920085
229	0xbd3ead14	-0.04655178
230	0x3d3d7089	0.0462499
231	0x3ced1c8d	0.028944278
232	0x3d023e0b	0.03179745
233	0x3c325b87	0.01088608
234	0xbcac3b2b	-0.021024307
235	0x3cdaa3df	0.026689468
236	0x3c940967	0.01807089
237	0x3d1ec2ab	0.03875987
238	0xbc721633	-0.0147758005
239	0x3c11bdaf	0.008895322
240	0xbc9a102d	-0.018806541
241	0x3cd85c50	0.026411206
242	0xbd18e91a	-0.037331678
243	0x3cfc1dfd	0.030776018
244	0xbc4220ff	-0.011848687
245	0xbb3d17e8	-0.002885336
246	0x3d3fa85f	0.04679143
247	0xbcfa2ac0	-0.030537963
248	0x3b1da308	0.0024053473
249	0x3cd1d93b	0.025616279
250	0x3c9104df	0.017702518
251	0xbbd71183	-0.006563367
252	0x3d5d3c8f	0.05401283
253	0xbc90fe8b	-0.0176995
254	0x3ccf6857	0.025318308
255	0xbd20e79b	-0.039283376

fc2.bias f4 [10]
0	0xbd557a0d	-0.05211835
1	0x3c1cbfe0	0.009567231
2	0x3d263983	0.04058219
3	0x3d5bda5d	0.053675044
4	0x3da413a7	0.08011561
5	0xbb9ff4ee	-0.004881493
6	0x3bc05727	0.0058697644
7	0xbd50dc6d	-0.050991464
8	0x3ccb3de0	0.024809778
9	0xbbad169b	-0.005282236
