torch_to_tf/torch_models/model_round1199.model (torch, 493063 bytes, 10 tensors)

conv1.weight f4 [32, 3, 3, 3]
000000 1d 57 d0 3d 97 1b 63 bd 1f a5 c1 bc 97 9b c7 3d
       0.101728655 -0.055446234 -0.023638306 0.09746473
000010 17 01 1a be 7b 61 4d bd ec 97 a4 3b af 6c 9c bc
       -0.15039478 -0.050141793 0.0050229933 -0.019094793
000020 3b 4d c5 3d 6d a7 b2 3d da 99 1d bd 2f 8f 80 3d
       0.09633871 0.0872334 -0.038476802 0.0627731
000030 80 c0 22 3c 30 b0 ce bd 6b e3 99 3c a2 70 d7 3c
       0.009933591 -0.10092199 0.0187852 0.026298825
000040 10 b0 19 bd 4c 4e 90 ba b0 da be bc 15 9d f5 3d
       -0.037521422 -0.0011009662 -0.023297638 0.11992852
000050 b2 d2 a7 bd 4f d5 4a bb 17 4c f4 3b 15 a0 3f bc
       -0.08194484 -0.0030949896 0.0074553597 -0.011695881
000060 35 ac a5 bc b5 3e 4f bd 13 65 ec 3c 0f 28 5a 3c
       -0.020223716 -0.05059691 0.02885679 0.013315215
000070 27 ec e3 3c 43 0e 8f bb 3c e6 a0 bd 32 76 d6 bd
       0.027822567 -0.004365714 -0.07856414 -0.10471763
000080 8d 10 8d 3d d7 ee e0 bc d7 88 2c bc 7b b6 cb bc
       0.068879224 -0.027457638 -0.010530672 -0.024867287
000090 a7 44 a9 3d d7 04 ed 3d 17 3b 1c 3d b9 88 80 3c
       0.082650475 0.11573189 0.03814229 0.015690194
0000a0 25 80 10 bd c7 41 ee 3b 18 e4 76 3c 35 3d 2e 3d
       -0.03527846 0.007271025 0.01506903 0.04253884
0000b0 3a 63 ae bc c7 d7 37 3d f0 c4 9e 3c 7f c4 6f 3d
       -0.02128755 0.044883516 0.019381016 0.058537003
0000c0 a7 53 3a bc 75 98 c4 bd f8 91 89 bd 90 cc 8b bd
       -0.011372483 -0.09599391 -0.067172945 -0.068261266
0000d0 f2 b3 28 bc a3 e3 19 bc 88 de 67 bd 2d 14 8e 3d
       -0.010296809 -0.009392652 -0.056608707 0.06937442
0000e0 aa a3 de 3d 5a 8f ce bd a7 6e 03 3c 15 62 71 bd
       0.1087106 -0.10085936 0.008021987 -0.05893143
0000f0 8f e5 69 3d 00 b8 6f ba ae 98 23 bd 9c db 91 3c
       0.05710369 -0.00091445446 -0.03994053 0.017804913
000100 d5 b6 48 bd 6f 98 38 3d b7 bf 78 bc 3a ac eb 3d
       -0.049002487 0.045067247 -0.015182427 0.11507459
000110 c4 4d 4a bd 6f 85 86 3c fa 49 3e 3d 32 51 85 3b
       -0.04939057 0.016421048 0.04645727 0.004068517
000120 83 4d 75 bd c3 7f 09 be 3c 6a 26 3d c3 fb 17 bb
       -0.059888374 -0.13427643 0.040628657 -0.0023190833
000130 ac ab 09 3e ba ef f6 bc 3b 4b 2d bd 7d 1f 53 3d
       0.13444394 -0.030143607 -0.042308073 0.0515437
000140 b3 6c aa bd c2 d4 68 3d 6e 2b b4 3d 1b 1a 35 bc
       -0.08321514 0.056843527 0.08797346 -0.011053587
000150 e7 cc 6f 3d ff da b5 bb 4d 24 5c bc 6d ce fa 3d
       0.05854502 -0.005549788 -0.013436389 0.12246404
000160 8d 3f 6c bd 1f 7b a8 bd ef c0 80 bd 5b b2 8c 3d
       -0.057677794 -0.082266085 -0.06286799 0.06869956
000170 5b 1f 6a bc e0 2e 72 3c 7c 77 c6 3d 65 4c 06 be
       -0.014289702 0.014781684 0.096907586 -0.1311508
000180 33 f3 7e bd 03 e8 e5 bd 3b 8c 83 bd 2c 83 87 bc
       -0.06224365 -0.11225893 -0.06423231 -0.01654204
000190 8f 72 fd ba 1b 8f 36 3d 88 c6 94 3d fb f5 98 3c
       -0.0019336509 0.04457007 0.07264429 0.01867198
0001a0 23 1d b4 bd 36 da 14 3d 45 d6 4d bd d1 8f a1 3d
       -0.0879462 0.036340915 -0.05025317 0.07888759
0001b0 7b b7 f2 3c 0a 37 97 3d aa f9 fc 3c f8 e5 4e 3d
       0.029628506 0.07383545 0.030880768 0.050512284
0001c0 d3 1f 30 3d fd a0 6b 3c d3 58 f8 3c 10 57 87 3d
       0.0429991 0.014381644 0.030315792 0.06608403
0001d0 02 6a 85 3d ae 52 83 bc b0 08 78 bd ff 38 dc bd
       0.0651436 -0.016030636 -0.06055516 -0.10753059
0001e0 d8 b4 8a bd d8 06 03 bd 94 0c 8b bb 7d 7a 57 bd
       -0.067727745 -0.03198895 -0.004243443 -0.05260705
0001f0 03 6a ab bd b7 83 45 bd f9 73 98 bc 5d e0 2f bb
       -0.083698295 -0.048221316 -0.018609988 -0.0026836612
000200 51 e0 9f 3d cd 32 ee 3a d0 6a c4 bb 0c 2b 12 bc
       0.07806457 0.0018173099 -0.0059941784 -0.008921396
000210 22 4d 15 3d 72 c7 a1 bd cf c8 5b 3d c1 34 0c bb
       0.036450513 -0.07899369 0.053658303 -0.0021393748
000220 5a 22 e5 ba d7 63 60 bd 9f ab df 3c 91 c8 91 3d
       -0.0017481551 -0.054782715 0.027303515 0.07118333
000230 20 21 87 3d 10 b1 1a 3c 0b d0 4f 3d 14 f0 b9 bb
       0.06598115 0.009441629 0.050735515 -0.0056743715
000240 2f a8 80 bd 96 2f 93 3d 27 50 a0 3b f7 8e 0f be
       -0.062820785 0.07186811 0.0048923674 -0.1401938
000250 a5 9a f0 3b f7 96 d0 bd 37 1f 3e bd 97 20 1d bd
       0.007342654 -0.10185044 -0.046416488 -0.03836116
000260 16 4a b5 bd 17 ae a5 bb 20 a4 0e 3d c0 79 18 bc
       -0.088520214 -0.0050561535 0.03482449 -0.009306371
000270 03 82 3c 3b af 2f e6 3d 67 b3 c6 bc 65 97 c9 bd
       0.0028764016 0.11239564 -0.024255468 -0.09843329
000280 dd 4e 73 3d ff b7 d9 3d 91 d0 ac 3d 47 d4 64 bd
       0.05940138 0.106307976 0.084382184 -0.055866506
000290 1a 25 0a 3d 26 8b 2b bc d6 a7 83 3c 0d 0b c1 3d
       0.03372679 -0.010470187 0.016071241 0.09425936
0002a0 eb d5 7c bd 03 f2 d6 3c f7 ba eb 3d d2 9d ea bc
       -0.061727446 0.026238447 0.1151027 -0.028639708
0002b0 20 f2 e0 bd 17 6f 94 bd 53 ea 28 bd 17 a3 cc b9
       -0.10983682 -0.07247751 -0.041239094 -0.00039031424
0002c0 17 98 c5 3c 03 1b a4 bd b2 64 f1 bc 4b db 86 3d
       0.024120374 -0.080129646 -0.02946696 0.065847956
0002d0 5b 8c c8 bc 04 fa 0f be c3 ea fd 3c cf 56 87 bd
       -0.02448099 -0.14060217 0.030995732 -0.06608354
0002e0 87 5f ab bd 67 52 d0 3d 7a f8 98 bd 75 27 01 3d
       -0.0836783 0.10171967 -0.07469268 0.03153177
0002f0 f7 2c af 3d 5a 78 d7 3d 8a f8 f8 bd b7 f0 25 bc
       0.08553498 0.10521002 -0.1215678 -0.010128192
000300 15 de 5c bd 2f 19 9d bd 68 a9 8d 3c 2f 73 10 bc
       -0.05392273 -0.07670819 0.017292693 -0.008816524
000310 eb 88 04 3c 8f d0 65 3c c1 78 8a bd e4 4a 22 bc
       0.008089284 0.014026775 -0.06761313 -0.009905551
000320 03 46 2b 3d 9d d1 f6 3c 07 8d 20 bd 10 01 db 3c
       0.041814815 0.030129248 -0.039196994 0.026733905
000330 50 2c 46 3c 0e 97 08 bd dd fe 86 bd 9a d5 d5 3d
       0.012095526 -0.033347182 -0.0659158 0.10441132
000340 2a d2 a2 bd 67 c1 33 3c 50 6d 75 3d da c9 f9 3d
       -0.07950242 0.010971404 0.0599187 0.12196703
000350 d7 d0 94 bd 15 66 9d 3d 7f de 21 3c 02 13 98 bb
       -0.072663955 0.07685486 0.009879707 -0.004640938
000360 98 b3 8c bc 6d ae f0 bc 77 ba 92 3c bb 97 7f bd
       -0.01717548 -0.029380048 0.017911179 -0.06240056
000370 a8 36 a8 3b 69 1b 9f bd 7b 21 e1 3c 4a 61 7b 3d
       0.0051334687 -0.077689 0.027481785 0.06137208
000380 7f da 8e 3d 0a de 25 3d 06 c0 46 bc e8 5c 8a bd
       0.069752686 0.040494956 -0.012130743 -0.06756002
000390 27 03 77 3c 3b 3e 5e bd 52 f8 b4 bd ee 39 86 bd
       0.015076435 -0.054258566 -0.08836426 -0.06554018
0003a0 50 e3 b6 bc 77 da ed 3d 6f 32 14 bd 4c 5e ae 3c
       -0.022325188 0.116139345 -0.03618091 0.021285199
0003b0 a7 c8 55 ba b2 e2 c1 bb 57 cc 94 bd 90 63 f3 3c
       -0.00081552047 -0.0059169168 -0.07265537 0.029710561
0003c0 e5 39 cd 39 b8 19 7b 3d f7 d6 98 3d 7d d0 d7 bd
       0.00039143782 0.061303824 0.07462876 -0.10537813
0003d0 35 fd 28 3c 6a 47 37 bd f7 06 7d bc a0 fe 46 3d
       0.0103142755 -0.04474584 -0.015443555 0.048582673
0003e0 ad ff 82 bc 2e 6e 16 bd b7 64 d4 3b 55 b6 2d 3c
       -0.015991056 -0.03672617 0.0064817327 0.010602553
0003f0 88 3b da bd 83 34 0f bd fd 15 7d 3c 8b 63 9a 3c
       -0.10655886 -0.03496219 0.015447137 0.018846294

conv1.bias f4 [32]
000000 fd 3b 0a 3e 6b 4c d0 bd 39 20 91 3d 5e 1f 90 b9
       0.13499446 -0.101708256 0.07086224 -0.0002748919
000010 bf 24 10 3e e7 4d 88 bd a8 dc 0c 3e 4a 16 7a 3d
       0.14076518 -0.06655484 0.13756049 0.061056413
000020 03 53 ce 3d 36 3b 21 be b3 4b c0 3b c4 f8 3b 3c
       0.10074427 -0.15745243 0.005868399 0.011472885
000030 a8 87 d6 bd 7a 50 e0 3d c2 f8 6a bc 04 90 3d bd
       -0.10475093 0.1095285 -0.014341535 -0.046279922
000040 cb b0 a3 3d b1 bb 99 3d 72 fa dc 3d e5 40 09 3e
       0.07992705 0.075065024 0.10789956 0.13403662
000050 22 f9 08 3c df 56 8f 3d 7c 6f 09 3d c0 41 e2 bd
       0.008360179 0.06998991 0.033553585 -0.11047697
000060 2d 2a d4 bd ff 24 96 bb 9e b0 c1 bc df 81 ee bd
       -0.10359607 -0.004582047 -0.023643788 -0.11645865
000070 0b 5f 41 3b 23 08 b7 bb f3 81 b5 3d 58 a0 29 be
       0.0029506113 -0.005585687 0.088626765 -0.16565073

conv2.weight f4 [64, 32, 3, 3]
000000 7f 25 18 bc 41 ac 81 bd f2 eb 17 3d 17 6d 06 bd
       -0.0092862835 -0.06331683 0.03709025 -0.03281888
000010 71 70 90 bd 08 7f c3 3d b0 64 cd 3b b3 f4 8f bd
       -0.070526965 0.09545714 0.0062681064 -0.070290945
000020 d3 43 e0 3c 5b 29 bb 3c f0 39 7c bd 5a a2 54 bd
       0.027376091 0.022846868 -0.06157869 -0.051912643
000030 aa 0f 39 bd 1d 53 94 bd ef 64 d8 bc 4d ee f9 3c
       -0.045180954 -0.07242415 -0.026415316 0.030509138
000040 83 e1 93 3c 77 bd ec 3b 0a ac 3c bd fa c9 a4 bd
       0.018051868 0.0072247344 -0.046062507 -0.080463365
000050 21 46 08 3d 7a dd f6 bc e7 11 01 be 57 b4 54 3d
       0.033270005 -0.030134905 -0.12604485 0.051929798
000060 3f 00 59 bc 4f 23 80 bd 5a 14 02 bc da f9 40 3d
       -0.013244688 -0.062567346 -0.0079394225 0.047113277
000070 eb 02 81 bc a7 6b 54 bc 3d d7 28 bc 73 b0 78 bd
       -0.015748462 -0.012965119 -0.010305223 -0.06071515
000080 2b cf 8c 3c 17 3b 96 bc a0 bd 54 bd 7f c8 2d bd
       0.01718863 -0.018338723 -0.051938653 -0.042427536
000090 f0 98 bb 3b 4a bc 92 bc 67 1e 89 bb 81 91 bf 3b
       0.0057250187 -0.017912049 -0.0041845324 0.005846203
0000a0 97 28 5a 3a c7 08 23 bc ce c7 a1 3c 2f 1a ce 3c
       0.00083220884 -0.009950823 0.019748595 0.02515897
0000b0 b5 6d 5c 3d aa 01 d9 3c 60 56 f5 bc ba ed 1e 3c
       0.053815562 0.026490051 -0.029948413 0.009700233
0000c0 8f ff 75 bc f2 6b 45 bd 86 9a b0 3b e7 f7 81 bc
       -0.015014543 -0.048198648 0.0053895144 -0.01586528
0000d0 ff 67 cc 3c ff 34 d4 3d b2 a0 57 bc 54 14 4b 3d
       0.024951933 0.10361671 -0.013160871 0.049579933
0000e0 e7 4a 1b 3e bb e6 bc bc c0 f7 cd bb 30 a1 bc 3d
       0.15165292 -0.02305924 -0.0062856376 0.092104316
0000f0 d7 26 8f bd bf e7 9d bc 41 b4 ca 3d 2f bb 84 bc
       -0.0698983 -0.019275544 0.09897662 -0.016202537
000100 23 c8 46 bd 37 03 3d 3b c9 b6 44 3c 9f 00 8b bc
       -0.04853071 0.0028841028 0.01200647 -0.01696807
000110 38 2f 22 3d 62 90 fc 3c 66 81 0a 3d a5 4b 87 3d
       0.039595813 0.030830566 0.03381481 0.06606225
000120 23 b1 e9 bc 33 eb 05 be 0e ec 42 3d 3d f5 50 3d
       -0.028526848 -0.13078003 0.0475884 0.051015127
000130 63 d8 b3 bd 98 fc 7a 3c b8 f2 d4 3c 3b d4 e4 bd
       -0.08781507 0.015319012 0.025994644 -0.11173292
000140 37 96 00 bd 18 66 19 bc 62 72 6a bc 7b ca c2 3d
       -0.031393256 -0.00936272 -0.014309498 0.09511276
000150 6f 45 c5 bc 3d 68 52 bc 03 39 97 3d 66 16 35 bc
       -0.02408096 -0.012842235 0.07383921 -0.0110527035
000160 cc 36 3a bc 39 60 1e 3c 27 7f 68 3b a4 ed 00 be
       -0.011365604 0.009666496 0.003547618 -0.12590653
000170 ff fb 02 bc 08 e7 5c bd eb 1e d8 bd 3b 2d 66 3b
       -0.007994651 -0.053931266 -0.10552772 0.0035122174
000180 84 93 07 3d 85 a1 86 bc 02 d5 7c 3d 6d 50 f2 bc
       0.033099666 -0.01643444 0.061726578 -0.029579366
000190 0f 05 73 bc af 2f d8 3c d5 c3 2f bd 25 c6 29 bd
       -0.014832749 0.026389925 -0.04291137 -0.04144873
0001a0 95 ee 13 3d da 6f 8e 3a 17 8e 55 bc 85 66 85 3d
       0.0361162 0.0010867075 -0.013034365 0.06513695
0001b0 58 ee 0f bd 7a 68 05 bd 13 ca 23 3d 13 d4 81 bc
       -0.03513941 -0.03257034 0.039987635 -0.015848195
0001c0 91 22 17 bd 70 79 76 3d 43 6a aa bc 89 6e 2a bd
       -0.0368982 0.060174406 -0.020802623 -0.04160932
0001d0 4b 4d 8c 3d 9e 6b 44 bd 08 50 f6 bc 0f a9 86 3d
       0.0685068 -0.047954194 -0.030067459 0.06575214
0001e0 20 6f db bc b8 0d d0 3c 0c c7 c6 3b f8 fb 83 3c
       -0.026786387 0.025397167 0.0060662087 0.016111359
0001f0 6b c5 0a 3d 68 36 c6 3c cf 9b 03 ba d9 89 a5 bd
       0.03387968 0.024195865 -0.00050204707 -0.08082933
000200 e3 27 95 bd 60 c3 09 bd 57 c3 de bc e1 e3 46 3c
       -0.072829984 -0.03363359 -0.027192755 0.0121392915
000210 fb 24 11 bd 53 68 28 bd c3 ad 4e 3d 73 df 93 3c
       -0.035435658 -0.041115116 0.05045868 0.018050885
000220 27 85 ec bc 8b c7 fa bc 34 19 23 bd 21 93 8c bc
       -0.028872086 -0.030612728 -0.039818957 -0.01716
000230 37 b0 5d 3b cc 3f 3a 3d 4d 03 91 3c 3d b1 31 3d
       0.0033826956 0.045470998 0.01770177 0.04338192
000240 2a ed 7f bc 28 27 0d bd 83 7f bc 3d 72 4d 9d bc
       -0.015620509 -0.03446117 0.092040084 -0.019201968
000250 ce 8d 31 bd a0 cf 6a 3d 96 c7 41 bd 8f fb 96 bd
       -0.043348126 0.057326913 -0.04730948 -0.073722
000260 5b b5 85 3d 9f 07 71 bc 40 6b 4d bd 15 70 8d bc
       0.065287314 -0.01471129 -0.05015111 -0.017265359
000270 13 75 74 bd 06 87 43 bd 2f fc b8 bc dd 8d 35 bc
       -0.059681963 -0.04773619 -0.022581188 -0.011081186
000280 c5 4d e0 bc ea 0f a4 bc 0e fb 98 3b 35 ba e8 bd
       -0.027380833 -0.02002712 0.0046686 -0.11363641
000290 a9 6d 3d bd 49 32 83 bd 43 4e 89 bd 67 a9 04 3e
       -0.04624716 -0.064060755 -0.0670438 0.12955247
0002a0 c2 43 91 bc 85 20 64 bd 23 1b 75 ba aa d5 c4 3a
       -0.017732505 -0.055695076 -0.0009350052 0.001501729
0002b0 f5 20 d0 bc 85 ef a2 3d 8a 63 10 3d 05 88 b6 bc
       -0.02540634 0.07955841 0.035251178 -0.022281656
0002c0 01 31 22 3d e9 59 07 bc c7 a5 d3 bc 53 da 53 3d
       0.039597515 -0.008261182 -0.025835885 0.051721882
0002d0 8b d1 84 bc e2 e2 fe bd f5 22 e6 3c 5d 01 52 bd
       -0.0162132 -0.12445618 0.02809284 -0.05127083
0002e0 a7 fd c7 bc ca fc 00 3c 4f 76 25 bc 52 a9 43 3c
       -0.024412943 0.00787277 -0.010099008 0.011942225
0002f0 57 04 11 bd 6a c5 48 bc 48 75 6c bc f4 2c 21 3d
       -0.03540453 -0.012254098 -0.014432259 0.03934951
000300 d2 aa 04 bd 31 4b 16 bd dd 36 6d 3d 8a 64 29 bd
       -0.03238947 -0.036692802 0.05791365 -0.041355647
000310 b5 f5 8c bb ca e9 23 3d f1 ec 08 bb 77 ba 45 bd
       -0.0043017515 0.04001788 -0.0020893181 -0.04827353
000320 f7 19 ac 3c d0 26 f9 bc e5 d8 09 bd 08 bc 71 3d
       0.021008475 -0.030414015 -0.033654112 0.05901721
000330 90 02 79 3c 2e 1e bf bb 05 3b 06 3e a4 77 00 3e
       0.015198365 -0.005832455 0.13108452 0.1254564
000340 d4 2b 04 bd d6 24 9d bd d3 59 9e 3d 33 ca 70 bd
       -0.03226836 -0.076730415 0.07731976 -0.058786582
000350 c6 ea c5 bc 5b 64 2d 3d 4d 9b 76 3a 67 96 2a bd
       -0.0241598 0.042332035 0.0009407297 -0.04164734
000360 47 93 77 bc d3 6a 2c bc b0 89 58 bd e5 d5 f8 ba
       -0.015110797 -0.010523516 -0.052865684 -0.0018984644
000370 13 f8 23 bd 34 ea c5 bd ea e9 88 bd ff 3d 23 bd
       -0.040031504 -0.09663811 -0.066852406 -0.039854046
000380 38 14 6d 3c 0f 01 52 bc a7 cd 7b bb fb 71 d0 bc
       0.014470153 -0.012817635 -0.003842214 -0.025444975
000390 2f 70 22 bd 1d 90 63 bd a7 f4 0b bd 5b 2d 59 bd
       -0.039657768 -0.05555736 -0.034168866 -0.05302177
0003a0 1b fe 92 bd 97 9b 8e 3c cd 0d cc bc 0d cb 44 bd
       -0.07177373 0.017408175 -0.024908924 -0.048045207
0003b0 2b 34 22 bd 28 6f 84 bc 71 df 8c bb c6 37 25 3d
       -0.039600533 -0.016166285 -0.004299097 0.040336393
0003c0 f0 17 d7 3c ba 05 6f 3d 4a 6a ea 3c 73 37 16 3c
       0.026256531 0.05835507 0.028615136 0.009168494
0003d0 0b 9c 82 bc ba 63 67 bd 1a 90 7b bd 23 c3 c2 bb
       -0.015943548 -0.05649159 -0.061416723 -0.0059436723
0003e0 77 22 be 3c 1c 66 c0 3c 4e 88 88 3d 78 b7 fd 3d
       0.023209793 0.02348619 0.06666623 0.123885095
0003f0 b8 84 9a 3c 85 0f 56 bc e3 5c b1 ba ff 4f 87 3c
       0.018862113 -0.013065224 -0.0013531711 0.016517637

conv2.bias f4 [64]
000000 52 a9 af 3d b6 25 b7 bd 48 1c b9 3c 6b 02 15 3d
       0.08577217 -0.0894274 0.022596493 0.03637926
000010 a4 ac ad bc 04 54 43 3b a0 0f 87 3d 4d 37 2d bd
       -0.021200486 0.0029804716 0.06594777 -0.042289067
000020 1b 3e a5 bd 27 ae 88 bd 12 8b d3 bd 9b bd 66 3c
       -0.08068486 -0.06673842 -0.1032926 0.014083291
000030 a7 57 21 bb 5f e4 ed bc 9e 5e b3 3d 4a fe b1 bd
       -0.0024618895 -0.02903956 0.08758281 -0.0869108
000040 80 30 61 3d b9 57 b2 3b cc 80 b5 3b 52 5f 20 3e
       0.054977894 0.0054425863 0.0055390354 0.15661362
000050 f8 66 86 3c 55 4f 89 bd f0 ed 17 bd ff a0 01 3d
       0.016406521 -0.067045845 -0.03709215 0.03164768
000060 52 13 aa bd 00 f2 b5 bc c0 ea a4 3d ad 2f cb bc
       -0.08304466 -0.022210121 0.080525875 -0.024803007
000070 d8 46 bd 3c f7 20 29 be 31 23 10 bd a2 cd 18 3e
       0.02310507 -0.16516481 -0.03518981 0.14922193
000080 8d 5d e3 3d c0 89 91 3d db 3c e3 bd 90 29 21 3d
       0.11101828 0.07106352 -0.11095592 0.039346278
000090 b2 fe 4c 3c ff df b7 3d 63 ca f8 bd bf e5 2f 3e
       0.012511896 0.08978271 -0.12147977 0.17177485
0000a0 43 09 e4 bd 28 08 33 3e 72 88 a5 bd 13 b5 b1 bd
       -0.11134579 0.1748358 -0.080826655 -0.08677115
0000b0 82 fb 20 bd fa ee e7 3d d8 7a 86 3d b3 28 54 3d
       -0.039302357 0.11324878 0.06566399 0.051796626
0000c0 0a 52 e5 bc a5 4d 6d bc 02 cb 87 bd cc 44 8f bb
       -0.02799322 -0.014483844 -0.066305175 -0.004372215
0000d0 3b c8 e2 3d e3 f1 2c bd 85 ff 6c bc 6f e2 fb bd
       0.11073347 -0.04222287 -0.0144652175 -0.12299048
0000e0 ba 79 ec bc b3 6c c6 3b 57 64 55 3d 4a c1 68 bb
       -0.028866637 0.0060554384 0.052097645 -0.00355156
0000f0 58 49 c7 3d e0 f8 43 3e 65 e3 49 bc 04 4b 08 3e
       0.09730786 0.19137907 -0.0123222815 0.13309866

conv3.weight f4 [64, 64, 3, 3]
000000 96 ff 92 bd 19 22 cb 3c 58 38 c5 3c 86 a1 ac bc
       -0.071776554 0.024796532 0.024074718 -0.021073114
000010 93 40 7b 3d ae af a6 3c a5 f9 55 bc c0 19 f2 bb
       0.06134088 0.020347442 -0.013060008 -0.0073883235
000020 e6 f0 25 bd 4a dd 16 3c 50 88 d6 3b e8 d2 49 3d
       -0.04051294 0.009208033 0.0065470114 0.0492734
000030 b0 7b b0 3c aa 87 f9 3c 62 04 0c 3e da 7c 77 3c
       0.021543354 0.030460197 0.13673547 0.0151054505
000040 93 19 2f bc ce 41 99 3d d1 0d a5 b9 02 1a 74 bc
       -0.01068725 0.074832544 -0.00031481546 -0.014898779
000050 7c f5 9a bd bd ae da bc 1d fe ef 3b 0b d7 8c bc
       -0.07566354 -0.02669465 0.007323994 -0.017192384
000060 c7 b8 d7 39 9b 29 12 bd b2 37 c7 3c 5f c3 17 bc
       0.00041145665 -0.03568421 0.02431855 -0.009262889
000070 23 4f 5d 3a 23 f9 f1 bd bd 35 e2 bc 3d fd 0f bc
       0.0008442273 -0.11815097 -0.027613515 -0.008788404
000080 37 58 8d bd a7 36 68 bd 2f 62 56 bd 73 2d c5 3d
       -0.06901591 -0.056692746 -0.05233973 0.096278094
000090 f6 e9 b6 bb 13 05 73 bc 30 9c e1 3b 62 1b 9c bc
       -0.0055820895 -0.014832753 0.006885074 -0.019056026
0000a0 59 6e c5 39 4d 8a f1 3c bb 31 4d 3c 2c 6e 36 3c
       0.00037656983 0.029484892 0.012524064 0.011134665
0000b0 e8 71 4b 3d 9a fa 3c 3c 69 10 85 3c 8e 79 a2 3d
       0.049669176 0.011534357 0.016243177 0.07933341
0000c0 82 74 a1 bc fd d6 44 bd ba aa 85 3d a3 e8 0b bd
       -0.019708876 -0.04805659 0.06526704 -0.034157407
0000d0 3d e8 ac bc d8 4f 50 3d b3 22 31 bc b9 8c c4 3c
       -0.021106834 0.050857395 -0.010811496 0.023992883
0000e0 3a 5f 93 3d 5d 4b 30 3d e7 96 c2 3d 90 e1 06 3e
       0.071958974 0.043040622 0.095014386 0.13171983
0000f0 6d 74 79 3d 77 d6 be 3d bb cf b2 3d 77 14 10 3c
       0.060902048 0.0931825 0.08731028 0.008793942
000100 eb 4c 0b bd 83 a0 19 bd da 36 59 bc bb 91 0a bd
       -0.0340089 -0.03750659 -0.013257707 -0.033830386
000110 9d c9 7f bd 8b 37 e7 bb b3 5d 7b bc 2f 25 29 bd
       -0.062448133 -0.007056182 -0.015342164 -0.041295227
000120 4d 8e 59 bd 65 17 29 bd 15 8d 1a 3c 5a 71 10 bd
       -0.053114224 -0.041282076 0.009433051 -0.03526435
000130 ef 63 6e bc d7 a6 b8 bc 1f 9a 2c bd 75 59 ac 3c
       -0.014550193 -0.022540493 -0.04213917 0.02103875
000140 f3 95 75 bb 13 85 0b bd b2 ab d8 bd 48 c9 bd bc
       -0.003747341 -0.034062456 -0.10579623 -0.023167267
000150 a0 6d 24 bd 5b 26 87 bd 78 e4 ce bc b3 99 e8 3c
       -0.04014361 -0.065991126 -0.025255427 0.028393602
000160 13 76 8c bc 0d 66 f7 3a f3 c4 f7 3c 41 c7 13 bd
       -0.017146146 0.0018875018 0.03024528 -0.036078695
000170 73 f2 39 bd 88 df b1 bc a3 5d 30 bd 5f 2a 43 bd
       -0.045397233 -0.021713033 -0.04305805 -0.04764783
000180 7c a2 46 bc ef 57 91 bd 8d 58 46 bd 15 ab 24 3b
       -0.0121237 -0.0709685 -0.048424292 0.0025126387
000190 ef 44 30 bd ff 66 0f 3d 12 44 d2 bc e1 68 81 bc
       -0.04303449 0.035010334 -0.025667224 -0.01579708
0001a0 02 55 51 3d 57 e0 e4 bc 00 b9 10 3c d3 30 c2 3c
       0.05110646 -0.027939005 0.00883317 0.023704922
0001b0 be 09 05 bd 58 96 08 3d d1 32 98 3d 0f 6c 47 bd
       -0.032479994 0.033346504 0.074315675 -0.048687037
0001c0 b8 42 d5 bd 04 4a 44 3c 2b a0 e7 bc 02 68 4f bd
       -0.10413116 0.011980537 -0.028274616 -0.0506363
0001d0 7f 64 9e 3d 5f a0 ab bd 0f 4d d3 bd 63 3c 73 bd
       0.07734012 -0.08380198 -0.10317432 -0.05938376
0001e0 75 fd f0 bc e0 69 ed bd 87 ff 11 be 1a 8a 0c 3d
       -0.029417733 -0.1159246 -0.14257632 0.03431139
0001f0 6c 11 07 3d 53 49 36 bd 42 68 84 bc b4 73 8e bc
       0.0329756 -0.04450352 -0.016162995 -0.017389156
000200 57 d1 2e bd 9a 1f 8d bb 3b 4b f2 3b 38 09 a5 39
       -0.04268011 -0.0043067457 0.007394222 0.0003147812
000210 20 55 fc 3b 4b 38 cd 3b aa c7 c2 3c 7e 53 11 3c
       0.0077005774 0.006262814 0.023776848 0.008870004
000220 5f e8 d7 bc 5d 3a 5c bd ad 65 54 bc c4 4a a4 bc
       -0.02635592 -0.053766597 -0.0129636945 -0.020055182
000230 bc fd 9c bc e3 75 2c bd 78 be d7 3b b5 db 68 bc
       -0.019163959 -0.042104613 0.006583985 -0.0142125385
000240 68 b8 e3 bb 9a 7f 81 bd 30 12 79 bd 2b 53 78 3d
       -0.006949473 -0.06323166 -0.06080836 0.06062619
000250 67 37 e0 bc f0 6e c5 bc f2 88 d7 3c 2f bb c6 bc
       -0.027370168 -0.02410075 0.026310418 -0.024259178
000260 f2 c7 a6 bb 4f c4 50 bc 3f df a8 bb 38 b9 6d 3c
       -0.0050897533 -0.012742116 -0.005153566 0.014509492
000270 4a 09 86 3b 8e bb 25 bd aa 84 d6 3a c3 6b cf bc
       0.004090463 -0.04046207 0.0016366441 -0.02531994
000280 fb 73 19 bd 50 d6 ca 3d 54 4b 2f 3c f0 60 79 bb
       -0.037464123 0.09904158 0.010699112 -0.0038052164
000290 23 66 67 bc 22 6e 47 bc 9f 35 00 3b bb a3 b6 3a
       -0.014123472 -0.012172254 0.001956321 0.0013934294
0002a0 37 c5 3b 3c 0b 6d 69 bb d7 d0 b1 bb 63 5c f7 3b
       0.011460594 -0.0035617973 -0.005426507 0.007548855
0002b0 7e a2 b3 3c c0 6d ff 3d 60 e2 76 bd 4b 47 71 3d
       0.021928068 0.12472105 -0.06027448 0.05890588
0002c0 6b 7b ab 3d dd 66 66 3d 6a 22 ca 3d 65 5c aa bc
       0.083731495 0.05625044 0.09869845 -0.02079601
0002d0 67 18 d4 bc 29 a4 c7 bc 9c 4a bb bb 9d 77 e4 bb
       -0.025890542 -0.02437027 -0.0057156812 -0.006972267
0002e0 1e 51 ae bc 88 13 c8 bc 6c d5 1f 3b a5 c7 ed 3b
       -0.021278914 -0.024423376 0.0024388684 0.0072564655
0002f0 e7 87 6c bc 05 a6 f1 3c 4f 69 3b 3d 0b 30 34 3d
       -0.0144366985 0.02949811 0.045754727 0.04399113
000300 b0 73 20 3c 9f 02 fc 3c 0f 26 55 3d 78 3c 45 3d
       0.009793207 0.030762969 0.05203825 0.04815337
000310 5a 9e a8 3d 4a ba 35 3d 17 60 0f 3d af a6 d4 3c
       0.08233328 0.044367112 0.035003748 0.025958387
000320 92 78 55 bd da a1 a2 3d 07 d1 19 bd cd 4f 73 bd
       -0.052116938 0.07941027 -0.03755286 -0.059402276
000330 f3 dc d8 3d 77 1a 95 bd 95 80 32 bc 00 b9 a7 3d
       0.10589018 -0.072804384 -0.010894914 0.08189583
000340 1a 98 22 3d 8d e1 b9 3d d7 8a 62 bc bf c2 90 3c
       0.039695837 0.090762235 -0.013827047 0.017670987
000350 73 6d ed 3c e0 42 8d 3c eb 2a a9 3d f9 25 08 3d
       0.028982854 0.017243803 0.08260139 0.03323934
000360 4d f9 f2 3c e7 30 f9 3b d0 fc 3c 3c 35 ec 44 3d
       0.029659892 0.0076047066 0.011534885 0.048076827
000370 0f 77 d6 3c 87 62 e3 3b 87 4b 94 3d 37 ac 27 3d
       0.026179818 0.0069392356 0.07240968 0.04093572
000380 c3 32 2c 3d 7f d1 5c 3c 97 45 11 3b b2 48 32 3c
       0.042040598 0.013477682 0.0022166723 0.01088159
000390 63 c9 c2 3b a1 69 1b bc 13 6c 51 3b 35 bd 2e 3a
       0.0059444173 -0.009485633 0.0031955286 0.0006665767
0003a0 4f c8 9c bb 8b 88 92 bc 1d cb 0a bd ff c0 27 bd
       -0.004784621 -0.017887374 -0.03388511 -0.04095554
0003b0 62 23 61 bd 8a 03 eb 3c c7 e6 ee 3c 1d 7f 7b bc
       -0.054965384 0.028688211 0.029162778 -0.01535013
0003c0 42 ca 79 bd 9a 6c b4 bd e2 f4 17 bd 02 28 20 bd
       -0.060983904 -0.088097766 -0.037098773 -0.039100654
0003d0 33 5a 07 bd 00 2d ba bc 75 d0 da bc 38 ee 84 bd
       -0.033045005 -0.022726536 -0.026710728 -0.06490749
0003e0 80 28 b1 3c b3 37 85 bd 81 d3 a0 bd 15 05 d3 3c
       0.021625757 -0.065047644 -0.07852841 0.02575926
0003f0 d5 32 fc bb 09 99 87 3c 3a 99 a7 bc ae 5e 26 3c
       -0.0076964893 0.016552465 -0.020458806 0.010154409

conv3.bias f4 [64]
000000 52 39 bf bb b7 52 d8 bd af 1d b5 3b 11 a8 2f 3d
       -0.0058356905 -0.105626516 0.00552722 0.04288489
000010 3f 07 ba bb 4a cf 94 ba 17 dd 30 3d 63 5f 2b 3c
       -0.0056771333 -0.0011353281 0.043179598 0.010459754
000020 f2 a7 dc 3d ec a5 8f bb b7 cb dc bc 53 96 d2 3d
       0.107742205 -0.004383793 -0.026952608 0.10282578
000030 c3 69 72 bb 37 b0 b6 bc 52 39 4d bb b2 b0 e7 ba
       -0.0036989308 -0.022300823 -0.0031314683 -0.0017676561
000040 6a 12 a4 3d 32 f1 27 3e b2 76 83 bc 33 fb a0 bc
       0.08011325 0.16400602 -0.01604781 -0.019651031
000050 33 f6 e5 bc 25 89 88 3a 67 76 30 3e 8a ce 4f bd
       -0.028071498 0.0010416849 0.17232667 -0.05073408
000060 c5 01 26 3d 58 2a 0b 3e 8f af de bb b3 7e e5 3c
       0.04052903 0.13590372 -0.0067958306 0.028014516
000070 b8 97 2e bc 88 8c f4 bb 28 8b 71 bc 50 4e 1e bc
       -0.01065629 -0.0074630417 -0.01474265 -0.009662226
000080 82 17 a7 bc 33 89 c5 3b 64 49 40 bb 00 65 8e 3d
       -0.020396952 0.0060283183 -0.002934062 0.06952858
000090 e5 59 9c 3d e1 da 85 bc 0a 25 27 bc 83 64 1c 3e
       0.076343335 -0.016339721 -0.010201702 0.15272717
0000a0 1d bf 80 3c c8 af 84 3c ef 47 e7 bc 38 17 e2 bb
       0.01571613 0.0161971 -0.028232543 -0.0068997405
0000b0 b3 28 8d ba 37 01 76 3d d2 09 d9 bb 0f 4f a3 3c
       -0.0010769576 0.060059752 -0.006623485 0.019935159
0000c0 db dd 6d 3c ac 16 c0 3d 47 77 b4 3b 6f 0f 24 bc
       0.0145182265 0.09379324 0.005507383 -0.010013445
0000d0 0d 99 fc 3a 99 9f 09 be d2 6a 39 bc 95 04 0e bb
       0.0019271687 -0.13439788 -0.011316972 -0.0021670212
0000e0 8a 7e ec ba 2f c8 cb 3d b1 4c 8a 3d 70 26 4b 3e
       -0.0018043083 0.09950291 0.06752909 0.19838881
0000f0 66 c7 c7 bd d3 b6 40 3b c1 0a ad bc 20 81 30 bc
       -0.09754829 0.0029405847 -0.021123292 -0.010772973

fc1.weight f4 [64, 1024]
000000 37 96 bc bc 31 d2 c7 bc f3 18 a6 3c 56 97 87 3d
       -0.023020847 -0.02439222 0.020275569 0.06620662
000010 dd 69 a5 bd 1d b9 b5 bd ab 26 98 bd b3 f9 ed bc
       -0.080768324 -0.08873198 -0.0742925 -0.02904973
000020 6a a7 fe bb da bb b2 bd 4f 7b bd bc 69 2a 04 bd
       -0.007771422 -0.08727236 -0.023130087 -0.032267008
000030 85 b5 46 bd 43 27 03 3c 47 69 ec 3c 47 24 c0 bd
       -0.048512954 0.008004966 0.028858794 -0.09381919
000040 78 5a 06 3d f6 6d c6 bc 80 ac 05 bd 02 bb 67 3c
       0.03280112 -0.024222355 -0.032635212 0.014143707
000050 4a 82 0d 3b 7b 21 39 3b ed 9b 77 bb f5 e8 57 bc
       0.002159255 0.0028248716 -0.0037782148 -0.0131781
000060 d4 29 3a 3b 9a b1 e3 3c 3d 8e 63 bc 60 b6 ad bc
       0.002840628 0.027794648 -0.013888893 -0.021205127
000070 0a b7 f6 bc 53 65 85 bc ff bc c1 bc 73 17 8b bc
       -0.030116577 -0.016283667 -0.02364969 -0.016978955
000080 af c3 51 3d 27 cb 3a bc b1 5f 32 3d 17 05 7d 3b
       0.05121201 -0.011400974 0.04354829 0.003860777
000090 e6 9c 1e 3d 23 e2 c8 3b 87 ff 1f 3b ca b8 3d 3c
       0.03872385 0.006130473 0.002441378 0.011579702
0000a0 fc c9 29 bd 8b 7d 8d bc 08 8f 93 3c eb a4 28 3c
       -0.041452393 -0.017271778 0.018012539 0.010293226
0000b0 f0 63 5c 3c 4a ff fe bc 18 da 99 bc 8f 22 0d bb
       0.013451561 -0.03112759 -0.018780753 -0.002153549
0000c0 ae 16 04 bd cf 70 cc bc 73 4c 6c 3c 4f a3 f3 3c
       -0.03224819 -0.024956135 0.014422524 0.029740958
0000d0 b7 74 e8 3b 0f 1a 5b 3c 2b b1 cf 3c 87 d5 65 3d
       0.0070939916 0.013372912 0.025353035 0.05611184
0000e0 c0 dd 86 3a 65 d0 ee bb e8 2d f5 3b d3 5f 30 3d
       0.0010289475 -0.007288026 0.007482279 0.043060135
0000f0 ad 2a e8 bc e3 33 bf bc 66 ed 87 3a 3f 6b f3 3b
       -0.028340662 -0.023340171 0.0010370433 0.007428556
000100 8f 03 8e bc ab 18 9d 3a 70 c5 4b bc ad 3b fe bb
       -0.017335681 0.0011985501 -0.0124372095 -0.0077585788
000110 d7 11 23 bc ef dd 63 bc 67 f4 1a 3c c7 92 59 ba
       -0.009952984 -0.013907894 0.009457684 -0.00082997646
000120 2f 88 3f 3b da 6b f4 bb 32 68 76 bb 2f 43 a2 bb
       0.002922546 -0.007459146 -0.0037598726 -0.0049518566
000130 6a c4 95 3c 1b f5 75 b9 1a 2b 8a 3b e7 7a 58 bc
       0.018282134 -0.0002345633 0.004216564 -0.013212896
000140 e8 c4 a2 bd 48 62 00 bd b7 76 be bc f9 62 3b bc
       -0.07947713 -0.03134373 -0.023249967 -0.011437171
000150 c7 1c ab 3c 5b 03 87 bc 67 b9 82 bd 88 4d 19 bd
       0.020887746 -0.016481092 -0.06383019 -0.037427455
000160 3b 9d 0d bd af 2c 89 bc cb 19 72 bc f5 18 91 bc
       -0.034573775 -0.01674494 -0.014776657 -0.017712096
000170 bb ca 8f 3c aa 33 3d bc db 84 0d bc 5f 58 bf 3a
       0.017552724 -0.011547962 -0.008637632 0.001459848
000180 5a 44 6e 3d 0f 10 17 3d e5 5f ea 3d d3 20 58 3d
       0.058170654 0.03688055 0.11444072 0.05276568
000190 ff 37 12 bd ba 86 e3 bb b0 88 8e bd 5d ee fe bc
       -0.035697933 -0.006943551 -0.06959665 -0.03111952
0001a0 de eb b5 bb 75 64 7e 3d 3b b5 b2 ba 7b 85 c0 3c
       -0.005551799 0.062107522 -0.0013634333 0.023501148
0001b0 53 1c dd 3d 3d 33 d4 3d 07 0b 3d 3e 7b 10 a8 3d
       0.10796418 0.103613354 0.18461238 0.082062684
0001c0 1c d4 aa 3b 07 2b a3 3a 23 de 7a ba f2 3d 37 bc
       0.0052132737 0.0012448736 -0.0009569844 -0.0111842025
0001d0 b7 b8 e9 bb 6b c8 5b bb 1b 20 12 bc 07 3d 59 bc
       -0.0071326154 -0.0033536206 -0.008918787 -0.013259179
0001e0 dc 41 8f bb 02 7f 5c bc b7 1f 45 bb 43 46 41 bc
       -0.0043718647 -0.013458015 -0.0030078718 -0.011796537
0001f0 c4 82 a5 ba 75 41 28 bc 37 08 82 3a 2b 27 a7 3b
       -0.0012627472 -0.010269512 0.0009920661 0.0051011047
000200 cb 61 bb bd 49 fa 2e bd e4 99 ac bd 1a 3f a0 bd
       -0.09149512 -0.04271916 -0.0842779 -0.07824536
000210 cf 05 c6 bd 62 7a 11 bd 28 fb 30 bd 1d b3 d7 bc
       -0.09669077 -0.035517104 -0.04320827 -0.026330525
000220 cd 42 ca 3c e2 f5 16 3c 1d 3b 8f 3c e7 48 74 3d
       0.024690056 0.0092138965 0.017484242 0.059639838
000230 08 a2 07 3e 6f 97 00 3e 07 9a 97 3d db eb c6 3d
       0.13245404 0.12557767 0.07402425 0.097129546
000240 7b 14 16 3b 3d d5 63 bc 90 a3 b4 bb e5 03 1d 3b
       0.002290039 -0.01390582 -0.005512662 0.002395862
000250 5b 35 6e bc cb c3 ad b6 4b c9 53 3a 61 74 20 ba
       -0.014539088 -5.178595e-06 0.0008079006 -0.00061208574
000260 1b a3 a6 bc 08 94 14 bc e8 40 1d bc c5 af 80 bc
       -0.020341447 -0.0090684965 -0.009597994 -0.015708813
000270 03 d6 dc bb 25 06 d9 bb c9 e9 14 bc 27 75 df 3a
       -0.0067393794 -0.006623047 -0.009088942 0.0017048464
000280 aa 3f 46 bc 75 98 d3 bb ed 30 ef 3b ea 93 56 bc
       -0.01210014 -0.0064573833 0.0072995336 -0.013096789
000290 f2 9a cf 3b a7 ee 7f 3b 13 6c 30 3c 0a c3 e4 bb
       0.0063356096 0.003905216 0.010767954 -0.0069812583
0002a0 db ae c5 bb f7 d6 04 3b 5a 51 d7 3a 0d 9e 4f bc
       -0.0060328073 0.002026973 0.0016427443 -0.01267196
0002b0 eb 46 50 bc 1f 2c 3f bc 0a d7 73 3a 99 14 98 3a
       -0.012712221 -0.011668234 0.00093017577 0.0011602818
0002c0 92 24 e9 3d 14 30 92 3d 67 95 42 bb 63 3b 68 bc
       0.11383928 0.071380764 -0.0029691102 -0.014174315
0002d0 ed 7a ab 3d 15 62 df 3c d3 6f 5b 3b e0 84 23 bb
       0.083730556 0.027268449 0.00334834 -0.0024951026
0002e0 b7 cd 44 3d ad 23 55 3c 3f be 13 3c 9c 30 9f 3a
       0.048047747 0.013008994 0.009017526 0.0012145224
0002f0 8a 56 52 3d 79 95 01 3c e0 13 43 3c 0f 8e a6 bc
       0.05135206 0.007909172 0.011906594 -0.02033141
000300 0f 19 9e bc d5 29 91 bc 50 c1 7a bb 78 e6 83 bb
       -0.019299058 -0.017720142 -0.0038262196 -0.0040252768
000310 1d e2 76 bb 0b 12 58 bc 9d ed e9 ba d3 96 59 bc
       -0.0037671395 -0.0131878955 -0.0017847304 -0.013280588
000320 18 48 85 bb b4 4d 84 bc 1f 0e 48 bc 7b 20 77 3b
       -0.004067432 -0.016150333 -0.012210398 0.003770857
000330 eb be 0c 3b 1f bd 4d bc 3d 82 78 ba d0 59 9e bb
       0.00214761 -0.012557297 -0.0009479856 -0.004832484
000340 c4 1e a1 ba e4 3a 35 bc f5 89 00 3a dc 22 8b 3a
       -0.0012292494 -0.011061404 0.00049033697 0.0010615247
000350 e3 7d fa 3a d3 c1 cf bb 47 73 b8 bc 00 22 0e 3c
       0.0019111003 -0.0063402443 -0.022515906 0.008675098
000360 50 08 7d bb d2 f1 28 b9 b0 af d9 3b e2 d7 90 bc
       -0.003860969 -0.00016111814 0.006643258 -0.017681066
000370 f5 10 82 3a 5c 54 89 bb 70 15 8d bb bb ae 9e 3b
       0.0009923266 -0.0041909646 -0.004305534 0.004842607
000380 97 44 64 bc 53 4a 4f 3c 82 db 8b 3b 50 b1 8c 3b
       -0.013932369 0.012651998 0.0042681107 0.0042935982
000390 34 1e 13 3c 72 59 55 bc 80 fa b7 bb 55 5b 89 b9
       0.008979369 -0.013021814 -0.0056145787 -0.00026198724
0003a0 fd 67 f7 3a 4b 9a 54 3b eb d2 d1 3a 17 9b c4 bb
       0.0018875595 0.0032440599 0.0016008293 -0.0059999335
0003b0 7f 78 af 3c b5 a1 cb 3b f3 32 56 bb 0d b4 b4 3b
       0.021419762 0.0062143453 -0.0032684177 0.005514628
0003c0 ef 84 93 bc 49 8b 18 bc 5a 18 09 bc eb 3a 72 bb
       -0.018007724 -0.009310552 -0.008367622 -0.0036961387
0003d0 c5 3b 5f bb d2 70 4c bc 44 25 0a 3c a3 11 69 bb
       -0.0034062725 -0.01247807 0.008431736 -0.003556349
0003e0 50 82 20 bc c1 93 48 bb b7 95 64 3a 00 74 e2 3b
       -0.009796694 -0.0030605646 0.0008719819 0.006910801
0003f0 65 66 11 bc 6d 28 c5 bb fc ef 86 bb 05 45 16 bc
       -0.00887451 -0.006016782 -0.004117964 -0.009171729

fc1.bias f4 [64]
000000 63 9f 59 ba 8a ea c1 bc 17 a6 8c bd ab 49 ab 3d
       -0.00083016435 -0.023671407 -0.068676166 0.083636604
000010 95 93 8a bb a0 57 2a be 60 f4 6d bb eb d2 b5 3b
       -0.004229019 -0.16634989 -0.003630899 0.005548825
000020 75 f1 c3 39 c1 3d 2c 3b 15 46 da bb ef 7d b4 bb
       0.00037373198 0.0026281925 -0.0066611865 -0.0055081765
000030 9d f6 f3 bb 34 65 37 bb bb a7 c4 bd 51 0b a2 bc
       -0.00744517 -0.0027983906 -0.096023045 -0.019780787
000040 fa 3e 20 3c 92 b5 dd bd 2f 93 88 bb 29 b6 01 ba
       0.00978064 -0.108256474 -0.0041679363 -0.00049481035
000050 e0 15 09 3b 97 98 08 3b 8a 0d 0b 3d 48 aa 8e bc
       0.002091758 0.0020842904 0.03394846 -0.01741518
000060 1f 54 10 3a 73 39 e8 3c b1 c8 94 bb 3a 9b d0 bc
       0.0005505699 0.028347706 -0.004540526 -0.025464643
000070 22 67 af 3b 0b a0 9c bd 7b fd 1c 3c ed db 05 bc
       0.0053528706 -0.07647713 0.009581919 -0.00817011
000080 78 42 93 3c 02 23 5e bc f7 77 11 3b 4f c5 1c 3e
       0.01797603 -0.013558151 0.0022196749 0.15309642
000090 50 45 88 ba 49 27 b2 b9 4b 61 9a 3d 90 4b eb bd
       -0.0010396633 -0.00033980075 0.075380884 -0.11489022
0000a0 c2 af b9 3d e3 8e 6b bd c4 c8 9f ba 19 df 15 bd
       0.09066726 -0.057509314 -0.001219057 -0.036589716
0000b0 c5 ce b2 3b f3 f5 6d bb c1 be 13 3e c8 93 8b bc
       0.0054567778 -0.0036309927 0.14428236 -0.017038241
0000c0 4b 6f 46 3c 41 bb 09 bc e0 60 ed b9 f7 9f f8 3d
       0.012111495 -0.008406461 -0.0004527634 0.12139886
0000d0 7f 63 87 bc 33 13 41 bc 9d 33 bd bb bb 10 9d bd
       -0.016526936 -0.011784363 -0.005773975 -0.07669207
0000e0 2b 94 72 bc 58 38 8b bd 9b 14 c3 bc 2c 92 b4 3d
       -0.014805834 -0.06797856 -0.023813536 0.088169426
0000f0 aa a5 d0 bc 50 20 5b 3c 0b 16 b7 bb 51 ae 84 3a
       -0.02546962 0.013374403 -0.0055873445 0.0010122751

fc2.weight f4 [10, 64]
000000 5a 5b 8d 3d ff 34 b4 3d a7 aa 04 bd 50 e8 db bc
       0.069021896 0.08799171 -0.03238931 -0.026844174
000010 e0 89 65 bc 63 7e 80 3c 4a 11 2f bc e5 52 b1 bd
       -0.014009923 0.015685266 -0.010685274 -0.08658389
000020 68 a8 e5 bc f5 87 16 bd a7 14 81 bd a2 b6 54 3d
       -0.028034404 -0.036750752 -0.06302767 0.051931985
000030 10 78 63 3c 40 5d 7d 3d 40 e2 d5 3c 67 9c 3f 3c
       0.013883606 0.06185651 0.026108861 0.011695004
000040 a7 82 64 bd 7b 1e c1 3c 87 fc ad bc cf 72 12 3d
       -0.055788662 0.023574105 -0.021238578 0.03575402
000050 0a c8 9f 3b 83 66 8a 3c 33 15 46 bd 98 5d f4 ba
       0.0048761414 0.016894585 -0.04836006 -0.0018643616
000060 4d 20 aa 3c ab 91 ee bd 65 2d f9 3c 48 4a 78 bc
       0.020767355 -0.11648878 0.030417154 -0.015154429
000070 85 ea 73 3d 9a 4d 79 3d 0a d2 1f 3c bf cf 4b bc
       0.059549827 0.060865022 0.009754667 -0.012439667
000080 43 70 aa bc 88 de 05 bc c9 fc 1d 3d a5 e8 89 bd
       -0.020805484 -0.008170731 0.038571153 -0.067338265
000090 e3 78 dc 3c da ae cb bc 02 50 8a bd 0d 0f d9 3d
       0.026913112 -0.02486365 -0.067535415 0.10598574
0000a0 0f ad 88 bd 1b c4 8f bc 70 d8 2b bd 25 91 f7 3d
       -0.06673633 -0.017549565 -0.041954458 0.12088231
0000b0 c3 aa 15 bd 05 58 d1 bc 9d 9a 98 3d 02 70 d0 3c
       -0.036539804 -0.025554666 0.07451365 0.025444034
0000c0 08 53 d7 bc 3f 98 97 3b 12 47 ee bc 70 ea 3f bd
       -0.02628471 0.0046263034 -0.029086623 -0.046854436
0000d0 90 6b d2 3c eb 77 8d 3d 75 7e b1 3c d3 d7 84 3c
       0.025686055 0.06907638 0.021666745 0.016216194
0000e0 7f 6c 8d 3d 7d b0 3e 3b 84 c4 42 3d ba 04 6d 3d
       0.069054596 0.0029096894 0.047550693 0.057865836
0000f0 7a d5 21 bd c3 49 fa bd ff af 03 3c 02 56 9c bb
       -0.039510228 -0.122211 0.008037566 -0.004770995
000100 7b 30 2c bd d4 f7 2a ba 02 b8 e8 3c e4 a0 9c bd
       -0.042038422 -0.00065219146 0.028408054 -0.07647875
000110 08 54 da 3c 4b cf 9f 3c dd 07 90 3c 23 98 85 bd
       0.026651397 0.019508025 0.017581875 -0.065231584
000120 a7 d7 5d 3c e2 8d fd bb cd 8d cf bc df 32 ae 3d
       0.013540185 -0.007737861 -0.02533617 0.08505797
000130 32 64 9a bd b1 8a 97 bc 55 44 c4 bc 0f 7e 12 3c
       -0.07538642 -0.01849875 -0.023958365 0.0089411875
000140 95 d9 06 3d 17 1c ea 3b 50 94 57 bb d0 4a f5 3d
       0.032922346 0.007144462 -0.0032894798 0.1197716
000150 30 1a 09 bd bc ed ac bc 35 71 a8 3d 0c df c2 3c
       -0.03347224 -0.021109454 0.082247175 0.023787998
000160 c3 08 cf bb 22 19 48 3d 80 23 1b 3c a3 b6 13 3b
       -0.006318183 0.048852094 0.009468913 0.002253928
000170 2f 98 c7 bc 47 22 df 3d 90 f2 a7 bd 35 30 cd bc
       -0.024364559 0.1089521 -0.08200562 -0.025047401
000180 ba b5 4d 3d ea e8 1f 3c 27 3e c2 3c 55 d8 66 bc
       0.050222136 0.009760121 0.023711277 -0.0140896635
000190 33 53 18 bb 4b 32 11 3c 45 28 61 3d f0 27 03 3e
       -0.002324295 0.008862088 0.054970045 0.12808204
0001a0 8f f3 fa bc ef b5 82 3c 73 81 5b 3d 27 3e 2d be
       -0.030633716 0.015955893 0.05359025 -0.1691824
0001b0 ca 57 00 bd 23 4a a5 3c e8 8a 97 bd 83 61 d3 bc
       -0.031333722 0.020176953 -0.07399541 -0.025803333
0001c0 07 40 6e bd 4f 0b 91 3b 9f 33 c5 39 40 5c e7 bd
       -0.05816653 0.004426397 0.0003761323 -0.11296892
0001d0 c8 ec 19 3d 90 3f 67 3c 0f 8e c5 bc 2b c0 38 3d
       0.037579328 0.014114276 -0.02411559 0.04510514
0001e0 05 b9 f4 bc 17 11 80 3d f0 21 57 3c 04 88 b1 bc
       -0.02987338 0.0625326 0.01313065 -0.021671303
0001f0 67 83 d8 bc 22 f3 9e 3d 47 7a 03 bc b7 87 03 3d
       -0.026429845 0.07761218 -0.008024759 0.03211185
000200 d7 1d 2d bc c4 5f 3c 3d 26 b6 36 3b 1f 9b ba 3c
       -0.010566196 0.045989767 0.0027879565 0.022779046
000210 b3 97 89 3b ca db 58 bd 8f 1a bf bd 70 e0 09 3c
       0.004198992 -0.052943982 -0.093312375 0.0084153265
000220 6f 4f 30 3c 43 49 5d bd 0d 74 cd 3b a5 3b 9a 3d
       0.010761126 -0.054024946 0.006269938 0.075309075
000230 0a a8 ca 3b 83 5d c9 3b 70 64 a7 3d 67 f5 85 3c
       0.0061845826 0.0061451807 0.08173454 0.016352369
000240 a4 c6 38 bd 4f dc 85 3b cb 82 31 bd 5a 86 d7 ba
       -0.045111313 0.0040851007 -0.043337625 -0.0016443238
000250 57 57 5d bd 87 47 57 bc c3 5a a9 3d 0c 7e 88 3c
       -0.054038372 -0.013139612 0.082692645 0.016661666
000260 11 73 07 bb 9b 51 65 3d e7 9a a4 3c 5d 85 5e bd
       -0.002066795 0.05598603 0.020093394 -0.054326404
000270 0b f2 9a bc 29 8e c2 bd 03 b5 e8 bc 10 87 38 bd
       -0.018914243 -0.09499771 -0.028406626 -0.04505068
000280 3b 97 88 3c df ee a1 bc d8 e6 5c 3c 35 4a 97 3d
       0.016673675 -0.019767223 0.013482772 0.07387201
000290 5b 8e 97 3c 58 ee ef 3c a7 87 3e bd 05 36 57 bd
       0.018500498 0.029288456 -0.046516087 -0.05254175
0002a0 77 b0 0a 3d 9a a2 00 be 2f 6a 3a 3d 37 cf 64 3d
       0.033859696 -0.12562028 0.04551142 0.055861678
0002b0 b2 9c a0 bb c2 a8 7d 3c 57 c6 08 3e b2 c3 77 bd
       -0.004901492 0.0154821295 0.1335691 -0.060489364
0002c0 f4 ff 0d bc 8b 95 7a 3a 6a 6f 7b 3c e3 0b 16 3d
       -0.008666981 0.0009559027 0.015346387 0.03663243
0002d0 6d fb 61 3c 7f 3b 84 3c 27 d2 7f bc 7f e1 7e bd
       0.013792855 0.016141651 -0.015614069 -0.06222677
0002e0 d5 c6 9f 3c b3 65 a1 3d 5a d0 bc bb 35 53 0a bc
       0.01950399 0.07880726 -0.005762142 -0.00844269
0002f0 a2 d8 d8 ba 69 cc a4 bd 85 94 c0 bc 8c 8d 82 bc
       -0.0016544054 -0.08046801 -0.02350832 -0.015936635
000300 47 2e 8f 3d 7d 2a 49 be d4 8d 48 bd db 78 12 3c
       0.069912486 -0.19645114 -0.048963383 0.008939947
000310 8d f6 51 bd 8b b9 8e 3c 4d 8c 43 3d 1f 34 5f 3d
       -0.05126052 0.017422458 0.047741223 0.054493066
000320 92 15 75 bd c0 cd 5b bd d8 7f 80 bc 1a 69 f5 3c
       -0.059835024 -0.053663015 -0.01568596 0.029957343
000330 cf 40 ce 38 f8 5a 5e 3d 7d a9 76 bc e7 9b 0f bc
       9.834917e-05 0.054285973 -0.015055058 -0.008765197
000340 65 ed 71 3d ab 3a d6 bc e5 81 3c bd b8 a8 13 bd
       0.059064288 -0.026151022 -0.046022315 -0.036049575
000350 fb 52 15 3c ed 13 06 3d 15 f9 e6 3b 4b 0d 64 3b
       0.009114022 0.032733846 0.007048736 0.0034797962
000360 5a 5f 1d bd ba 04 c5 3c e0 df 10 bd cd d7 9b 3d
       -0.038421012 0.024050105 -0.035369754 0.0760952
000370 75 88 27 3c 57 ea 97 bc 3a 5a 68 bc d8 78 b2 3c
       0.010225405 -0.01854436 -0.014181668 0.021786138
000380 ac 7e cb bd c8 97 67 bc 39 7e a3 3d 23 3b f3 3c
       -0.0993627 -0.014135309 0.079830594 0.029691285
000390 bf f3 a6 bc 2a f3 ea 3c 2c 6d 38 bc 27 60 99 bd
       -0.0203799 0.028680403 -0.011256497 -0.07489043
0003a0 a7 7d 37 3a ff da 34 bd 8a 7a a0 bc f1 c4 87 3a
       0.00069996197 -0.044154163 -0.019589681 0.0010358376
0003b0 62 ea fc bc 87 64 fc 3c 63 f4 08 bd 97 ae 22 bd
       -0.030873481 0.030809654 -0.03343619 -0.039717283
0003c0 7f 38 20 3c d1 6d 82 3c 00 ae 88 3c 64 ab ac 3c
       0.009779095 0.015921505 0.016684532 0.02107782
0003d0 d0 e0 36 3d 4f 22 c4 ba 8b ea f6 bc 12 3f c3 3c
       0.04464799 -0.0014963838 -0.030141136 0.023833785
0003e0 f7 30 35 bd e6 dc 10 3d 5d 6f 5e bd fe 6b b8 3d
       -0.04423615 0.035366915 -0.054305423 0.09004973
0003f0 b0 f2 d9 bc 78 51 d7 bd ba b5 bd bc 7f 7e da bb
       -0.02660498 -0.10513586 -0.023157943 -0.0066679115

fc2.bias f4 [10]
000000 6a 02 e2 bd 8b 85 b5 bd 0a 8a 77 3d f0 6e 6a 3d
       -0.11035617 -0.08863362 0.06043438 0.057234704
000010 54 fc 32 3e 61 03 28 bd b3 b0 9f 3d a3 62 6f bd
       0.17479068 -0.041018847 0.077973746 -0.058443677
000020 e8 81 12 bd f7 52 30 bd
       -0.03576842 -0.04304787
