torch_to_tf/torch_models/model_round359.model (torch, 493063 bytes, 10 tensors)

conv1.weight f4 [32, 3, 3, 3]
00000000: 896d 2abd 2e9c 30bd 172f bdbd a29e 91bd
00000010: 4fca c2bc caaf 13bd 3279 943d b06e 7d3d
00000020: 18f8 b43c 812f 103d 173e 55bd bcba 95bd
00000030: 5795 fc3c eae2 303c c0df 383d 6025 8cbc
00000040: f255 d8bd 3579 bd3b eace fd3c 63f2 7f3d
00000050: 0700 b23d 6b17 1abd ca5d d33c 9721 b43c
00000060: c740 f23d 8323 313d a73a f83c fde6 49bd
00000070: c49b 06bd ebaa 7c3d 5d8f 263d 932a 1ebd
00000080: 42ec f83c d6b7 9ebb 81d0 1e3d 90a6 d73c
00000090: d7b4 e5bc 1f01 263b b296 713d 2740 1abd
000000a0: 22e3 b23b 07a9 bf3c 650f e1ba 335f 503d
000000b0: c05f dfbb 5804 19bd 01e1 113d 7374 2bbd
000000c0: fdd9 dcbd 47dc 933c 5fd1 21bc db28 a5bd
000000d0: ba2d 6e3c 8774 f33d 209c 89bd f3fe c9bc
000000e0: 0f25 9a3d 5bff ba3d 81b9 21bd f521 4dbd
000000f0: d5b8 02bd e285 ce3d eb35 30bd 68b4 643c
00000100: 0d2e be3c ef1c b73b b786 1cbc 974c 87bb
00000110: b341 2b3d 73e3 263c 5068 cc3c 55ed 0f3d
00000120: abd9 e13c 5abd 4dbd e3da 883c c70a d93d
00000130: 9f21 763b d6de 2ebc 22e1 e7bc bf4b b13d
00000140: 181a 863d 9056 143e 2f10 ac3c cc0d c4bd
00000150: dc58 823c baf5 873c b75c e9bc df51 a53d
00000160: 7567 e43b 8cf4 94bd bf76 023a 7369 86bd
00000170: f78c 9b3d 5317 3b3d 42bf d3bd 6d36 67bd
00000180: d20c c83c ffe4 87bd adfa 733d bd8b fc3c
00000190: fbda 3bbd 9d00 a9bc 9702 503d e64e a83c
000001a0: 570e 71bb fee4 8b3d 6108 babc a980 afbd
000001b0: e7cd a0bc 4eed 92ba 75dc 65bc d829 9c3d
000001c0: a023 febc 4d2c 733d bd17 7abd 38a5 34bd
000001d0: 18be 623d 7768 04be efc3 8ebb cb1d 50bd
000001e0: 15a2 cabc 7161 b4ba d78e 95bd a74e 213d
000001f0: 83f8 b03d d212 493d 8810 613d ff92 dbbc
00000200: dfae 1abd 448f 2ebd c233 36bd a5e9 8c3b
00000210: 92d5 733d a447 a03d cbd4 1cbc 7788 143d
00000220: dbe9 6cbc cd62 ae3d ea2d fc3c 73da 383c
00000230: 5fbe a43d 3db8 04bd ed16 9ebd ea3b 353d
00000240: f6f0 91bc d0d0 bdbd a7c9 c93d f0f4 d83b
00000250: f02f 2c3c 5c42 a6bc ed97 88bd f0bf 09be
00000260: 0ac8 093d 58d1 ac3c 3d7f c5bd a8c7 9e3d
00000270: 3b5a c5bc 7a68 843d 87b7 f13c 03ef f0bc
00000280: e3a1 423c 31a0 c7bc 7f90 63bd d7f0 64bd
00000290: 1050 78bd b7e2 a83c 3065 0c3d 138b 45bd
000002a0: 924a f0bc c70e 9a3c 9197 113c f201 59bd
000002b0: 6272 9b3d 235b e83c ef9c 723d c803 89bd
000002c0: 87e5 6e3d 2aef cebc b1ea 263d baed 4f3d
000002d0: 3dec 173d d003 3bbc 78a2 2a3d 8020 673d
000002e0: 1212 8bbc 9530 d33d 2a37 3d3d cc27 0dbd
000002f0: c2af a7bb 5f04 08bd 6b2c cfbc 3d11 813d
00000300: 63d3 8fbd 021e f33b 20cf 8bbc 47a0 603d
00000310: c855 8a3b 0009 2b3c 0b40 5ebc 2ab9 9c3b
00000320: 5aa1 00bc 9850 af3d 109b fabc dd81 563d
00000330: 9008 5ebb 6fb6 fa3c 9686 05be e831 523c
00000340: 2233 5b3c 0f89 c63c 25a3 753c 32b8 44bc
00000350: 7fbd b8bd 46c5 ae3d 713f 9e3b e89f 12bd
00000360: 622b 543d 6aed b43d bd14 f4bb f97e 2a3d
00000370: 4881 683c c30f f0bc fb85 2c3d d815 efbc
00000380: dff0 eb3c e098 5c3d 1820 f23d 7353 913d
00000390: 8d5f d4bd 0b1d 52bd 259a 42bd 6aac 88bd
000003a0: 0069 46bc c796 253d bddb eb3c 681e c33d
000003b0: a32f 38bd d3a7 943d 2bb2 0abd b26a 65bc
000003c0: 2a80 4f3d 7a2d fcbd 9bd1 b6bd fb01 b3bd
000003d0: 804e 0dbd ca43 613d d36b 493d e34e 33bd
000003e0: 0504 45bd 28ed 38bd 4843 113d 4b16 3dbd
000003f0: 2d14 873d d228 39bc 7706 913c 0d5d 6c3d
-0.041608367 -0.043117695 -0.09237497 -0.07110335 -0.023778109 -0.036056317 0.07249679 0.061873138
0.022090957 0.035201553 -0.052061167 -0.073110074 0.03083293 0.010796288 0.04513526 -0.017107666
-0.10563268 0.0057822713 0.030982453 0.062487017 0.086914115 -0.03761999 0.025801558 0.021988673
0.118287615 0.043246757 0.030301405 -0.049292553 -0.032863393 0.061686438 0.040664066 -0.03861482
0.030386094 -0.0048436923 0.038773064 0.02632454 -0.028040333 0.0025330258 0.058981605 -0.037658837
0.0054592052 0.023396028 -0.0017170726 0.05087204 -0.006816834 -0.03735766 0.03561497 -0.0418591
-0.107837655 0.018049372 -0.009876578 -0.08064433 0.014537269 0.1188746 -0.067192316 -0.024657702
0.075265996 0.091307364 -0.03948355 -0.050081212 -0.03191455 0.1008413 -0.04302017 0.013959028
0.023215318 0.005588166 -0.009553603 -0.0041290033 0.041810703 0.010186064 0.024952084 0.035138447
0.027569612 -0.050229408 0.016705936 0.10597759 0.003755666 -0.010673245 -0.028305594 0.086570255
0.06547946 0.14486146 0.02100381 -0.09572944 0.015911512 0.016596664 -0.028486593 0.08072256
0.006970341 -0.07273206 0.0004976801 -0.065630816 0.07595246 0.04567654 -0.10339214 -0.05644839
0.024420176 -0.066354744 0.059565235 0.030828351 -0.045863133 -0.020630175 0.05078372 0.020545434
-0.003678223 0.06830786 -0.022709073 -0.08569462 -0.019629432 -0.0011209638 -0.014029612 0.076251686
-0.031022847 0.05936842 -0.061057795 -0.044102877 0.05535707 -0.12930475 -0.004356853 -0.050809663
-0.02473549 -0.001376195 -0.07302635 0.03938165 0.0864115 0.049090214 0.054947406 -0.026803492
-0.037764426 -0.042617097 -0.044482954 0.0043003135 0.05952985 0.07826164 -0.009572218 0.036262956
-0.014460052 0.085149385 0.030783612 0.011282551 0.08044123 -0.032402266 -0.077192165 0.04424659
-0.017815094 -0.092683434 0.09852915 0.0066209957 0.010509476 -0.020295314 -0.066696025 -0.13452125
0.033638038 0.021095917 -0.096434094 0.07752925 -0.024090877 0.0646524 0.029506458 -0.029410845
0.011879417 -0.024368377 -0.055557724 -0.055893745 -0.06062323 0.020615919 0.034276187 -0.048228335
-0.029332433 0.018805875 0.008886234 -0.05298037 0.07590176 0.02836377 0.059231695 -0.06690174
0.058324363 -0.025260527 0.040751163 0.050763823 0.03709053 -0.011414483 0.04165885 0.05642748
-0.01697639 0.10312001 0.046195187 -0.03446178 -0.0051173875 -0.033207294 -0.025289735 0.06302116
-0.07022741 0.0074193487 -0.017066538 0.054840352 0.0042216517 0.0104391575 -0.013565074 0.0047828155
-0.007850969 0.08560294 -0.030591518 0.05236994 -0.0033879615 0.03060457 -0.13039622 0.012829281
0.01337889 0.024235277 0.01499251 -0.012006806 -0.090205185 0.08533721 0.00482934 -0.03579703
0.051799186 0.08834346 -0.0074487613 0.041624997 0.014190979 -0.02930439 0.04211996 -0.02918522
0.02880138 0.05385673 0.11822528 0.07095995 -0.10369787 -0.05129723 -0.047510285 -0.066735104
-0.012109995 0.040426996 0.028791303 0.09527284 -0.044967305 0.072585724 -0.03386132 -0.014002489
0.050659336 -0.123133615 -0.08926698 -0.08740612 -0.03449869 0.05499629 0.049175095 -0.043776404
-0.048099536 -0.045148045 0.035464555 -0.04616384 0.06595645 -0.011301236 0.017703278 0.057705928

conv1.bias f4 [32]
00000000: db4f 29bd ca62 3e3c 030c ec3c 3b8f 213c
00000010: 8636 bcbd bd07 d43b 6fde 103d cf8b 973c
00000020: 798d 32bd 5070 70bd 03e8 ba3d 5fc4 97bd
00000030: 9e49 32bd c312 9fbd 630c ecbc f7ce 33bd
00000040: 6f10 1f3d 0a18 9d3c 7b6d aa3d 6bed 34bd
00000050: 853e d03d a3d7 db3d 5aa4 ee3c 4548 3a3c
00000060: 854c b43c e802 42be 1cf5 063e fb62 313d
00000070: 6dc6 f33b d764 38bb bbb8 2dbd 508c 743d
-0.04133592 0.011620233 0.028814321 0.009860809 -0.09190087 0.006470649 0.03536838 0.018499283
-0.04359195 -0.05870086 0.09126284 -0.07410502 -0.043527238 -0.077672504 -0.0288145 -0.04389855
0.03883403 0.019176502 0.08321663 -0.044171732 0.10168175 0.10734489 0.029131103 0.011369769
0.022009144 -0.18946421 0.1317944 0.043307286 0.0074394257 -0.0028136277 -0.0424125 0.059704125

conv2.weight f4 [64, 32, 3, 3]
00000000: b345 233c a387 debc 5b8e 6c3c b286 0abc
00000010: 98da a9bc b17e 06bc 5d1e 8abb b881 963b
00000020: 7890 773a 3d55 ce3c a0b2 b33b ca37 25bb
00000030: 08cb 04bd e51e 83bc a7ff a2bc 2267 28bb
00000040: 1c65 843b 8580 b13a 5fe4 4fbc bae2 89bc
00000050: 0d2b 92bc 2b6c ec3b dde5 df3a 79c8 b039
00000060: 28fc d2bc ea60 e3bc 606c 573c ed45 75bc
00000070: 3f9f 60bc a585 88bc e387 81bc f4cc b63c
00000080: 87f4 abbc 9864 a336 bbdb 97bc f5c0 cb39
00000090: 60f6 033d 1014 c83b b0af 7dbc 0b85 b33b
000000a0: 18af 843c 3f12 41bc cfc7 1bba 2315 97ba
000000b0: c79b 34bc 5348 4c3c 58f7 4fbc bddd a53c
000000c0: cb3c fbbc 672f 843c a400 81bc 9599 533c
000000d0: a5cc 0fbd a22e bfbc 39c2 15bd 53b5 debc
000000e0: a7dc a73b 6dd7 b8bb c82a 29bb a9f9 aabc
000000f0: 770b c83c da12 ffbb 55c6 823b ddb0 96bc
00000100: 132f 58bb d438 9abc eb8b bcba 4231 09bd
00000110: 60fe e1bc e37a 62bc 9cdd 803b 62dc 8cbc
00000120: 7876 c53b 2a91 2a3c 107a 71bb 81fb 203c
00000130: d046 2bbc a44d 80bc 4bf7 00bc 7a37 353c
00000140: 2419 b8bc a3d4 52bc 4fa5 b33b b8b0 d9bc
00000150: 9028 893c 1055 cebc 8736 8c3a 1f86 9c3c
00000160: 5844 e2bc a137 1cbd e89e 1dbd 9d1e 55bc
00000170: 13e2 f63b 57d3 693c 772a 2bbc 022a b93b
00000180: a7a6 0ebb a35c c23a 487d b2bc b0ca d7bc
00000190: faac b63c d0a7 05bc 7003 6dbc d8cb f8bc
000001a0: b2af 683c 6853 03bd 0fa0 c8bc 470a 733c
000001b0: f302 d0bc b83a 363b 44bf 28bb 08f1 f5ba
000001c0: a385 90bc 0a79 15bc bbbe 6aba a3bc 8bbc
000001d0: 2521 163a 9f73 06bd c255 29bc bfbe dbbc
000001e0: f8bf 65bc d09c 92bc fffd dbba cfe3 0a3c
000001f0: c79a b13b 8339 57bc 68d7 b9bc 2795 163b
00000200: 1f32 99bb 6f82 8bbc d725 d2bc 4092 87bc
00000210: b168 49bc ab19 01bd b761 0c3c 23ca 0739
00000220: 7b65 5f3c cd8e b6bc 105f 8bbc 1fd5 3ebc
00000230: 350a 80bc 1c05 12bc 3fae b4bc 6a13 f7bb
00000240: 39df bcbc 63a6 56bc d8e1 e8bc 5dc5 75bc
00000250: 5cc4 9a3c 63ab b6ba 58ca 32bc 62b9 f1bb
00000260: bc91 a2bc 2ba8 23bc 7735 37bc 5aa8 63bc
00000270: 383b f53b 7b5b 203c ad98 e2bb e772 033c
00000280: 4a85 e0bb 9221 39bc 8819 e1bb 4dd8 783c
00000290: 3fdd 8e3c f033 edbc a219 183b 08e1 27bb
000002a0: c39b d8bc 6f11 0f3c 0aad b4bc 2948 97bb
000002b0: f5bb a0bb 6a52 c6bc b821 6bbb 4cd0 8cbc
000002c0: eba4 e4bc 1706 6c3a 943d 09bb 3775 0c3d
000002d0: a762 1fbb 67f8 11bc 2ff0 bbbc f0f2 7ebb
000002e0: 8568 60bc 3fb3 58bb f0fd 74bc 386a c53c
000002f0: c2c7 19bc 924b aabc a283 b1bb 779e 64bb
00000300: 5f28 9abc c5c7 49bb 138a 983c e828 c2bb
00000310: a431 973c 7081 91bb fb09 813a 6f4a 7f3c
00000320: 5dfc 59bc 48a5 08bb abf3 ef3c afa3 6b3c
00000330: 4cab 933b 3290 443c 6807 ffbc ef32 98bc
00000340: f5f0 eeb9 9506 30bc aa45 d1bc 12a2 00bc
00000350: c00b 03ba 0f87 16bc 52ab f13c 6339 993c
00000360: 404c dabc 74e8 0abd 7fb6 09bd 3228 5b3c
00000370: b31b 8c3c 0b19 acbc 586d 0d3c da3a ab3b
00000380: 0788 7d3a e046 5b3c c15a 86ba e45b b4ba
00000390: 2f74 2dbc 30da 8db9 08fe b1bc 1344 2cbc
000003a0: df45 cdbb 22f4 b8bc c716 063c a75a c2bb
000003b0: 471d 13bd 9b54 b3ba 7719 11bc 2923 26bc
000003c0: b060 b9bc ad48 debc ab5e c03b aa72 debb
000003d0: bfcb a43c 2712 113d fb22 5bbb 1d54 b5bc
000003e0: 9a98 46bc bf15 8dbb 3535 983b c020 efbc
000003f0: 176b a13b 1f77 a3bc 2a11 923b 62ee 15bd
0.009965348 -0.027164286 0.014438237 -0.008454965 -0.020734116 -0.0082089165 -0.0042150454 0.0045931004
0.000944383 0.02518713 0.0054839402 -0.0025210255 -0.03242019 -0.016005943 -0.019897295 -0.0025696238
0.0040403735 0.001354233 -0.012688725 -0.016831744 -0.017842794 0.007215043 0.0017082054 0.000337187
-0.025755003 -0.027756173 0.013148397 -0.014970285 -0.013709842 -0.01666529 -0.015811866 0.022314526
-0.020990623 4.869489e-06 -0.018537393 0.0003886294 0.032217383 0.0061059073 -0.015483782 0.0054785064
0.016196772 -0.011784135 -0.00059425546 -0.0011526685 -0.011023468 0.012468415 -0.012693249 0.020247335
-0.030668637 0.016135884 -0.015747376 0.012915035 -0.035107274 -0.023337666 -0.03656218 -0.027186072
0.0051227394 -0.005640915 -0.0025812853 -0.020871 0.02441953 -0.0077842297 0.003990928 -0.018394882
-0.0032987043 -0.018825926 -0.001438496 -0.03349424 -0.027587116 -0.013823244 0.003932668 -0.01719493
0.0060260855 0.010410586 -0.0036846437 0.009825588 -0.010453895 -0.015662022 -0.007871459 0.01106059
-0.022472925 -0.012868079 0.005482353 -0.026573524 0.016742975 -0.025187045 0.0010697403 0.019106923
-0.02762048 -0.03813899 -0.038481623 -0.013007787 0.0075342744 0.014271579 -0.010447136 0.0056507597
-0.0021766813 0.0014828633 -0.021788254 -0.026341766 0.022299279 -0.008157685 -0.014466152 -0.030370638
0.014202045 -0.032061964 -0.024490384 0.014833993 -0.025392031 0.0027805995 -0.0025748769 -0.001876385
-0.017641848 -0.009123096 -0.00089548127 -0.017057722 0.0005726985 -0.03282511 -0.010335388 -0.026824353
-0.01402282 -0.01789704 -0.0016784071 0.008477165 0.005420062 -0.01313627 -0.022685722 0.0022977085
-0.0046751644 -0.017029969 -0.025652809 -0.01654923 -0.012293027 -0.03151862 0.008568219 0.00012949905
0.013635035 -0.02228489 -0.017013103 -0.011647492 -0.015629867 -0.008912351 -0.022055743 -0.007540156
-0.02305566 -0.013101193 -0.028428003 -0.015000668 0.01889246 -0.0013936575 -0.0109125 -0.0073768357
-0.019844882 -0.009988825 -0.011182181 -0.013895119 0.007483866 0.009787436 -0.006915173 0.008023
-0.006851827 -0.011299508 -0.0068694986 0.015188289 0.017439483 -0.02895543 0.0023208638 -0.0025616307
-0.02644146 0.008732184 -0.022055168 -0.0046167565 -0.0049052187 -0.02420922 -0.0035878252 -0.017189167
-0.02791067 0.0009003593 -0.0020941244 0.034291472 -0.0024320276 -0.008909321 -0.022941677 -0.0038902126
-0.013696794 -0.0033065823 -0.014953122 0.0240985 -0.009386005 -0.020787988 -0.005417303 -0.0034884491
-0.018818079 -0.0030789238 0.018620526 -0.0059252866 0.018456288 -0.004440479 0.0009844893 0.015581711
-0.013304797 -0.0020850468 0.029290995 0.014382287 0.004506504 0.0119972695 -0.031131461 -0.018578975
-0.00045574424 -0.010743757 -0.025545914 -0.007851141 -0.00049990043 -0.009187474 0.029500637 0.018704122
-0.026647687 -0.03391309 -0.033621307 0.0133762825 0.017103052 -0.021008035 0.008632027 0.0052255215
0.0009671454 0.013383597 -0.0010250435 -0.0013760296 -0.010586782 -0.00027056178 -0.021727577 -0.010514277
-0.006264433 -0.02257735 0.0081841415 -0.0059312168 -0.035916593 -0.0013681831 -0.008856169 -0.010140219
-0.022629112 -0.027134264 0.0058706603 -0.0067885714 0.020116685 0.035417702 -0.0033437598 -0.022134835
-0.012121344 -0.004305571 0.0046450146 -0.029190421 0.004926096 -0.019954262 0.0044576125 -0.036604293

conv2.bias f4 [64]
00000000: dc6c 973c a3b2 03bc ba2d b73b 55e1 873c
00000010: d0bc 15bd f880 ddbb 139c f9b9 6de8 e93b
00000020: 10c5 dcbc c8a4 fa3b 60b6 053c 60cf 423c
00000030: 6be3 bebb 7321 143a 761c 0ebc bbeb bdbc
00000040: 6bc5 173c ff13 c73d 3be1 683c 1f20 ecbc
00000050: d33b 0dbd e0b2 e8bb 34de 89bb 316e a9bc
00000060: b0c0 ea3c 6e44 a4bb c308 81bc 2ff7 fc3c
00000070: cafa 623d 4bcb 05bd 228e 4dbc d300 a3ba
00000080: cb03 523b db93 28bd d2ea 82bd c71e 5b3d
00000090: b1ff 8ebc a737 44ba d7cd e1b8 328f 423d
000000a0: dd16 813c f968 92bc 77de 7f3c fa22 f9bb
000000b0: e492 1bba c7e1 94bc f5b2 6a3a f75f 833c
000000c0: 299a 81bc bc03 cc3b 93cf 31bd 072c ff3c
000000d0: 6016 3ebc d152 b4bc 352d a53d 1476 04bb
000000e0: f361 8cbc c8a0 1d3d 2bee 9fbc 98a3 39bd
000000f0: fb46 783d 235b 0b3c 5249 2e3d 6298 693c
0.018484525 -0.008038196 0.005590168 0.016586939 -0.03655702 -0.006759759 -0.00047609265 0.007138303
-0.026949435 0.007649038 0.008161157 0.011890262 -0.00582545 0.0005650736 -0.008673778 -0.023183694
0.009263377 0.09720611 0.014213855 -0.02882391 -0.03448088 -0.0071014017 -0.004207397 -0.020682426
0.028656334 -0.0050130403 -0.015751248 0.030879585 0.055414952 -0.03266458 -0.012546094 -0.0012436159
0.0032045718 -0.04115663 -0.06392445 0.05349615 -0.017455908 -0.00074850995 -0.00010767177 0.047499843
0.015757972 -0.01787232 0.015617005 -0.0076030465 -0.0005934669 -0.018174065 0.0008953058 0.01603697
-0.01582058 0.006226031 -0.04341085 0.031148924 -0.011602014 -0.022012146 0.08065263 -0.0020211982
-0.01713655 0.03848341 -0.019522747 -0.04532203 0.060614567 0.008505615 0.042550392 0.014257522

conv3.weight f4 [64, 64, 3, 3]
00000000: 1569 d83b 2a5e c73b 013f 2f3c b13e 8bbc
00000010: 6f8c c7bc e7ff 3e3b 77a4 b7bb ca56 abbc
00000020: 5fa6 c2bb e83a 83bb 4f99 c03a fb8e 74bc
00000030: 97b2 d13b 874f 753c 808b d4bb 942a 1ebc
00000040: 9a37 1a3b 4713 083c bc31 183b 176e 5b3c
00000050: a866 3c3b 2a24 dd3b f238 6fbc a546 59bc
00000060: bbfe 60bc e869 eb3b 489b 55bc dfb3 4b3a
00000070: 1253 9b3c e9e2 8b3b 20b4 afbc 5202 113c
00000080: 281a 1c3c 09e6 b4bc 3ccb c1bc 0a06 d9bb
00000090: c949 85bc f9d7 06bc b2d6 393c e79c 3c3c
000000a0: bf60 d23b 8bb6 0f3b 1f2b 79bb 8fe7 adbc
000000b0: ddfe 8fbc 4161 053c 77e0 05bb d994 92bc
000000c0: e7ba 103c 3f5d bbbb cb48 82bc a232 3e3c
000000d0: 6271 d13b 55cf e0bc 70b0 bd3a c3fa 37bc
000000e0: 7334 02bc 5bc2 abbc 5baf 63bc c56c 69bb
000000f0: 5875 e33b e5cf 223c fcae c83b e08f 5ebc
00000100: 7958 16bc 3a88 6abb 8780 1439 3773 f0ba
00000110: c2af 253b f205 94bc c3c1 a8bb a59b cdbc
00000120: 8294 1abb 57b2 f5bb 0f87 05bc 0f8b 35bc
00000130: b202 98bc cbbe 0cbb 4794 e43b 8a37 65bb
00000140: d53d 0a3c a4d8 c4bb 8389 67bb 1a93 a6bb
00000150: 107d bbbc b80d d2bc f4c5 0d3c 6f63 893c
00000160: 1d2e 55bc 4bac 02bb aa1e 26bc 6818 9abb
00000170: 5766 8ebc 1523 a5bb 55f5 f13b 8145 3cbc
00000180: 43f4 b9bb 6c7b 0f3c 0f40 003c dad7 ecbb
00000190: 7bfb cfb9 fbc2 93bb ef28 083c 79e1 a1bb
000001a0: 021a 21bb a0d7 d8bb ad1d 2bbb ebca efbb
000001b0: 8852 553c 756f e2bb b8da f6bc 8fe1 81bc
000001c0: 436d 553c 43ac c3bb 6220 073b f3fd 20bc
000001d0: ca01 1abc 991a 843b 0365 433c eb41 093c
000001e0: 8837 693a 352a 84bc a726 babb 32bf c3bb
000001f0: 40bc ceba 5836 85bb 2774 05bc b372 82bc
00000200: 2ffc 383c f3cc 02bc af11 4cbb b360 6e3a
00000210: 3b99 00bb e44f 15bc 90c0 9ebc 7373 3a3c
00000220: 75e0 1a3b 2f1c e33b 7d2a 5cbc 337f 9fbc
00000230: dc8d 23bc 406b 28bc ca5d bfbb 7b4e 32bc
00000240: 3dec 87bb f7fb d7bb 2013 16bc 330e 653c
00000250: 0835 9c3b 5dea 99bc c3df 98b9 0a62 95bc
00000260: e823 0abb f0c5 9a3b d5cb 6cbb 5dff e1bb
00000270: 2a78 f33b 98e3 03bb d2fe 973b 28e7 5ebc
00000280: 0a58 7cbb fd14 58bc 3d01 5b3c 7bd2 993c
00000290: 486a 223b 5846 e4b8 0fdd b43a 2817 28bc
000002a0: 87cf b6bb 37e7 bd3b 8fb5 cc38 77a4 8fbb
000002b0: 7a62 00bc 6f1e 47ba 90c5 c23b ef9a f9bc
000002c0: 7f50 283c a3a4 9ebc 877c 823b 3fdd 9abc
000002d0: d5cd 0abb df21 b0ba 8753 4dba b1c8 caba
000002e0: c9be b7bc 6b4d 01bc 2dd3 93bb 275a fcba
000002f0: e385 92bb 0b26 81bc 9f49 083c 3f24 0f3b
00000300: bba0 4c3c eaac 60bb 6053 1a3b 900a 5d3b
00000310: 6528 13b9 8374 0f3c 6ac4 b1bc 4f31 a73a
00000320: ab70 253c bdb6 78ba d4fc 1bbc e883 ae3b
00000330: da88 b5bc 3b1d a1bb 9d02 e13b 4863 6dbc
00000340: 4aeb 593c a8db 54bc 6533 d9bc 4079 e6ba
00000350: 6f8c 7b3b 67d1 59bc 5aec bfbb 9309 85bb
00000360: ab7f 04bc f333 cfbb 77ed d3bc e095 d3ba
00000370: 8b23 03bc 63ad 953a 2835 8fbc 232a 6d3b
00000380: 6480 90bc f208 63bc 781b 3fbc 99b1 42bc
00000390: c057 a4bc 3481 83bc e73f 6739 dc90 a03b
000003a0: 438f 623b c76a a23c 8fc3 b53b 255e cf3c
000003b0: abd8 063c 0d26 753a 472b b7bc 8b74 19bc
000003c0: b2d6 ffba c044 b6bc 7706 3fbc b365 6a3c
000003d0: 6301 16bc 75b9 133b f707 73bc 1fb8 1dbc
000003e0: eb2a 04bc ea09 35bc 00cf 97bb 434f 303c
000003f0: ff4e ddbb 0fb1 f53b 60f4 cfbc 5b83 85bc
0.0066043236 0.0060842233 0.010696174 -0.016997667 -0.024358956 0.002914423 -0.0056043225 -0.020915408
-0.005940243 -0.004004825 0.0014694127 -0.014926667 0.0063994634 0.014972574 -0.0064863563 -0.009653706
0.0023531676 0.008305377 0.0023223003 0.013392947 0.0028747711 0.006748696 -0.014600979 -0.013261472
-0.0137326075 0.007184256 -0.01303751 0.00077706383 0.01896051 0.004268993 -0.021448195 0.008850651
0.0095277205 -0.022082346 -0.02365648 -0.0066230344 -0.016270535 -0.008230203 0.011342691 0.011512018
0.0064202244 0.0021928872 -0.0038020087 -0.02122858 -0.017577583 0.008140863 -0.002042798 -0.017893242
0.0088336235 -0.005717903 -0.015903851 0.0116087515 0.00639169 -0.027442614 0.0014472138 -0.01122922
-0.007947075 -0.0209667 -0.0138967885 -0.003561781 0.0069414787 0.009937261 0.0061243754 -0.013584107
-0.009176367 -0.0035786764 0.0001416226 -0.0018344884 0.0025281762 -0.018069241 -0.0051500513 -0.025098631
-0.0023587053 -0.0074980664 -0.008149876 -0.011080517 -0.018555973 -0.0021476026 0.006975684 -0.003497573
0.0084375935 -0.006007271 -0.0035329766 -0.005083454 -0.022886783 -0.025641307 0.008653153 0.016771046
-0.013011483 -0.001993912 -0.010139147 -0.0047026165 -0.017382784 -0.0050395825 0.007383982 -0.01149118
-0.00567487 0.008757453 0.007827773 -0.00722788 -0.00039669484 -0.0045093275 0.008310541 -0.0049402085
-0.0024582152 -0.0066175014 -0.0026110217 -0.007317891 0.013020165 -0.0069102594 -0.03013359 -0.015854625
0.013026538 -0.005971463 0.0020618667 -0.009826171 -0.009399841 0.004031491 0.011925939 0.0083775325
0.00088965194 -0.016133407 -0.0056808772 -0.00597372 -0.0015772656 -0.004065316 -0.008145369 -0.015923833
0.011290594 -0.007983434 -0.003113847 0.0009093389 -0.0019622582 -0.009113286 -0.01937893 0.011380064
0.0023632322 0.00693085 -0.013437864 -0.019469833 -0.009982552 -0.010279477 -0.005840038 -0.010882969
-0.004148035 -0.006591316 -0.009159833 0.013980436 0.004767064 -0.018788511 -0.00029158415 -0.018235225
-0.002107853 0.004723303 -0.0036132236 -0.0068968968 0.007430096 -0.002012467 0.0046385312 -0.013604917
-0.0038504624 -0.013188598 0.013366994 0.018777123 0.0024782587 -0.0001088499 0.0013798791 -0.010259427
-0.0055789384 0.005795385 9.761296e-05 -0.0043836194 -0.007835979 -0.00075957825 0.0059439614 -0.030469386
0.010273098 -0.019365614 0.00398213 -0.018904326 -0.0021179814 -0.0013437829 -0.0007832576 -0.0015471188
-0.02242984 -0.007891993 -0.004511258 -0.0019252942 -0.004471527 -0.01576521 0.008318334 0.0021841673
0.012489493 -0.0034282752 0.002354823 0.003372822 -0.0001403406 0.008755806 -0.021700103 0.0012755784
0.010097663 -0.00094876793 -0.009520728 0.005325783 -0.022159982 -0.0049168146 0.0068667666 -0.0144890025
0.013300726 -0.012991823 -0.026513765 -0.0017583743 0.0038383265 -0.013294554 -0.0058570327 -0.004059979
-0.008087079 -0.0063233315 -0.025870068 -0.0016142689 -0.00800408 0.0011419471 -0.017481402 0.0036188446
-0.017639346 -0.013857113 -0.011664264 -0.011883163 -0.020061374 -0.01605282 0.00022053682 0.004900081
0.0034570254 0.019826306 0.005546994 0.025313446 0.008230369 0.00093516783 -0.022359503 -0.009366165
-0.001951894 -0.02224958 -0.011659256 0.014306474 -0.009155604 0.002254096 -0.014833442 -0.009626417
-0.008066873 -0.011049727 -0.0046328306 0.010761085 -0.006753802 0.0074979137 -0.025385082 -0.016297987

conv3.bias f4 [64]
00000000: 3305 f5bb dbf9 f8bb b597 f8bb f30e 03bb
00000010: 26b3 273c 73d9 7bbc ba03 51bc 2a84 02bc
00000020: 27b4 483b 3452 b7bc 72fb 823c 8da7 14bc
00000030: 4068 4fbc 7df7 85bb d29a 0dbc e71a c43b
00000040: ff6f 1ebd bdd3 3fbb ef00 3dbc 1a4a febb
00000050: 3f8a cfbb b78a 25bd c574 503c 63fe 5fbc
00000060: 375f cc3a 787d 6bbb 2ad4 a5bb 7264 14bc
00000070: d50d 3ebb e0da f13b 4c08 403c 1f0a c2bc
00000080: 37ff 073c b15b 013c 3095 03bc edf8 d8bc
00000090: ff80 3fbc 7207 15bc 6094 dabb 4f05 2cbc
000000a0: 27f8 2cbc 6788 3ebc 95e8 ec3b 48b3 423b
000000b0: 80c9 743c 3bd0 8abc ebef d13b dc0a a0bc
000000c0: 4994 13bb 18c7 89bb 2721 cd3b b2b8 d23b
000000d0: 69c2 163a f220 a13d 3145 333b bf54 80bc
000000e0: 7a00 bcbb 1aec 3fbc 9fb1 03bb 4da8 a03c
000000f0: 0dfd e3bb 07fd b2bb 18a0 09bc 675a 2abc
-0.0074774264 -0.0075981445 -0.0075864443 -0.0019997924 0.010235583 -0.015371668 -0.012757236 -0.007966081
0.0030624957 -0.022378065 0.01598904 -0.00907315 -0.0126591325 -0.004088341 -0.008642869 0.0059846523
-0.038681027 -0.0029270493 -0.011535867 -0.0077602984 -0.006333619 -0.040415492 0.0127231525 -0.01367149
0.0015592341 -0.003593294 -0.0050606923 -0.009057151 -0.0028999944 0.0073808283 0.011720728 -0.023686467
0.008300594 0.007895396 -0.008031175 -0.026485885 -0.01168847 -0.009096013 -0.0066705197 -0.010499313
-0.010557211 -0.011629201 0.0072298744 0.002970891 0.0149406195 -0.016944995 0.0064067743 -0.019536428
-0.0022518805 -0.004204642 0.0062600556 0.006430709 0.0005751015 0.07867612 0.0027354474 -0.01566541
-0.0057373615 -0.011714006 -0.0020094884 0.019611502 -0.0069576562 -0.005462292 -0.008399986 -0.01039753

fc1.weight f4 [64, 1024]
00000000: 9886 a5bb fb4e 7cbb 4f8d 203c 53a7 823b
00000010: b2da d8bb bb94 cb3b 8bf5 743b c8f6 ef3b
00000020: 2ad3 563b 2f34 31bb 09d8 86bb 8785 713c
00000030: 9a6f fcba df27 4f3b 973b b2bb b2bd f53b
00000040: cd86 943a 5abb a73b f869 19bb b275 f6bb
00000050: c735 8b3b 47d1 31bc bae3 903b 1942 a83b
00000060: d529 6d3c 0a63 9ebc 4f71 963b b26c e3bb
00000070: dd65 50bb 15c1 54bc 5f5d f43a 3d75 613b
00000080: 22f0 123a 0b40 58bc 8789 c6bb a0f0 b9bb
00000090: bf83 b23b 583d e5bb 42e1 02bb 8756 feba
000000a0: ca85 b7bb 2358 8c3b 888b 45bc d325 54bb
000000b0: 508f fb3b 8040 433c 1fbe 66bc ebd8 21bb
000000c0: ea4b 33ba 3a83 233c e7f9 a7b9 ba86 c2ba
000000d0: 4833 b43c e74b 4b3b cf4b a7bc 1239 083b
000000e0: c8a7 c33a 7f63 243c c779 bc3a 0fd5 a23c
000000f0: 50b7 3b3b 822f 2f39 c8f6 1dbc fdae 79bb
00000100: 3280 d0bb ee6b 3cbb 2ad0 fb3c 153d b83c
00000110: cbbd a23b 2da6 ec3b 15e8 82bb 5760 71bb
00000120: 4a4a dcbb eaa8 f0bc f29a 7dbc 2b9d 0fbd
00000130: 9f9a adba e7b2 193d 3e35 043d 4b19 40bc
00000140: 5456 21bc 1706 fa3b 2bbb 763b 6f92 4f3b
00000150: a0e4 fbbb d5cd 62bb d534 98bc 3f17 74bc
00000160: 9f35 85bc 0466 93bb 1be7 49b9 d33a 543b
00000170: e364 cabb 1878 d93a ba55 423c b71d 3cbb
00000180: 1741 dbbb 13b3 953a 8b84 58bb 6b57 7ebb
00000190: d343 f13b 77e5 c03b a555 533b 2f89 d63b
000001a0: 3c0f 83bb 5f21 6cbc 816b 8dbb 0a43 acbb
000001b0: 8d84 97b8 f710 1fbc 708f 753b c096 4f3c
000001c0: bfab a5bc 80c3 373c 7a26 2ebb 57d0 86ba
000001d0: d29f 883b 512e 26bb 7419 11bb ca6f 62bc
000001e0: 87c5 b43b 2aaf 633b 186d 3a3c 0847 603c
000001f0: 7c49 013c db82 b03b 0d18 54bc 720d e43b
00000200: 9a61 163b 42ac e3bb b826 0f3c 1bbd 3d3c
00000210: 38d4 493c 6798 5cbb 7745 513b 1704 febb
00000220: 5760 543b 6f17 9dbb adcb 683c f023 313b
00000230: 7340 52ba 9f64 8d3b 2f35 053c f898 d5bb
00000240: 7ebc 04bd 7af2 ef39 d2d8 2e3d cd91 5b3d
00000250: 74b9 8ebd b2f6 97bc ac48 b33c e778 323d
00000260: 68d0 9fbd d03e 65bc 491b 3c3c b4ee 873d
00000270: 5318 3cbd 4dbb d33b 0eab 2c3c cb52 343d
00000280: 1058 ae3b 6a3b 643b 9327 6cbc aff5 b03b
00000290: 45e9 67ba b731 0bbc 4a23 9fbb 9299 17ba
000002a0: 8d52 2c3c 00c7 703b 4589 5a3a 5818 ea3b
000002b0: af82 8c3c a567 cd3b 6137 033c 0922 173c
000002c0: d0fc 20bc 6335 7abc 5d9e febb e0cc 0bba
000002d0: c76f 93b9 4d52 723c 8bb7 a4b9 c8f2 18bc
000002e0: 6103 423b 2f15 19bc e3fc 413b f0eb 69bc
000002f0: 6fdf 293b bfe0 4a39 7335 bdba f2dd d6bb
00000300: b022 58bc 4c98 0fbc d8e8 2c3c 8736 17ba
00000310: 4b73 083c 3bd4 0c3b 8750 d2ba 899f a5bb
00000320: 7be9 92bb ea4f 483c 64fc be3b 0222 783c
00000330: bdbc 6dbb c510 87bb 5a6f f1ba 6f9d fe3b
00000340: bde9 6d3b bce1 81bb 238a e4bb 18df b6bb
00000350: 433c d83b 1fc3 a93c 7f39 0ebc 07bc 5d3c
00000360: 5be2 e9bb 257f 12bc 5309 e9ba 1f5c 163b
00000370: 57a6 0f3b e7db 0abb 38dd 343b d5b5 2c3c
00000380: fb25 46bb 8d30 d93a b203 d0bb 7b6f 3dbb
00000390: 0b80 00bb 6808 163c 4321 0d3c a057 893c
000003a0: 7035 b23b c55f 80bb 1325 4cbc b3bd 9e39
000003b0: d0c4 823a cc95 253a 1004 59bc 1b87 253c
000003c0: e36e 393c e38b ea3b 58f0 9b3c d7ee c63c
000003d0: 5d5e 083d 600a d13c e2ac c83c 333c 253d
000003e0: bfff 35bc 65a1 83bb 97d4 253c 93c5 e93c
000003f0: 54bf 8abd 7214 13bd ab07 a0bb cd53 8c3c
-0.005051445 -0.0038499224 0.009799316 0.0039872318 -0.0066178674 0.0062127984 0.00373778 0.00732312
0.0032779672 -0.002703916 -0.004115109 0.014741308 -0.0019259334 0.0031609458 -0.0054392326 0.00749942
0.0011331678 0.0051187696 -0.002340911 -0.0075213546 0.004248354 -0.010853118 0.0044216784 0.0051348326
0.014475306 -0.019334335 0.004591144 -0.0069404477 -0.0031798996 -0.0129854875 0.0018643549 0.0034402155
0.00056052406 -0.013198863 -0.006058875 -0.0056744367 0.0054478343 -0.006995838 -0.001997069 -0.0019404449
-0.0056006657 0.0042829677 -0.012057193 -0.0032371178 0.0076769963 0.0119172335 -0.014083414 -0.0024695944
-0.000683962 0.009980017 -0.00032038914 -0.0014841177 0.021997109 0.0031020583 -0.02042189 0.002078597
0.0014927322 0.010033487 0.0014379554 0.019876985 0.0028643198 0.00016706999 -0.009641357 -0.0038098686
-0.0063629383 -0.0028750855 0.030738909 0.022490064 0.0049664727 0.007221958 -0.0039949515 -0.0036831105
-0.006722723 -0.02937742 -0.015478836 -0.035061996 -0.0013244933 0.03752413 0.03227734 -0.01172478
-0.009847242 0.0076301205 0.0037648182 0.0031672975 -0.0076871663 -0.0034607549 -0.01857988 -0.01489812
-0.01626092 -0.004498245 -0.00019254947 0.0032383695 -0.0061765774 0.0016591577 0.011861259 -0.0028704235
-0.006691109 0.0011421166 -0.0033037986 -0.003880943 0.0073628216 0.0058867293 0.0032247093 0.0065471153
-0.003999619 -0.014412253 -0.004315794 -0.005257015 -7.2249306e-05 -0.009708635 0.0037469529 0.012670219
-0.020223496 0.011216044 -0.0026573227 -0.0010285479 0.0041694427 -0.0025357197 -0.0022140415 -0.013820598
0.005516711 0.0034741857 0.011378549 0.01368881 0.007891055 0.005386693 -0.012945187 0.0069596106
0.0022946359 -0.006948025 0.008737259 0.011580731 0.012318663 -0.0033660175 0.0031932273 -0.0077519524
0.0032406056 -0.0047940533 0.014208716 0.0027029477 -0.0008020468 0.0043149735 0.008130356 -0.0065184794
-0.032406323 0.0004576629 0.042687245 0.053605843 -0.06968966 -0.01855025 0.021885239 0.043572333
-0.07803422 -0.013992026 0.011481115 0.06637326 -0.045921635 0.006461537 0.0105388295 0.04402427
0.0053205565 0.0034825453 -0.014413732 0.0054003815 -0.00088467106 -0.00849574 -0.0048565017 -0.00057830766
0.0105177285 0.0036739707 0.0008336495 0.0071440153 0.017152159 0.006268459 0.008008809 0.009224423
-0.0098259 -0.015271517 -0.007770343 -0.0005332958 -0.00028121306 0.01479013 -0.00031417268 -0.009335227
0.0029604065 -0.0093434295 0.0029600195 -0.014277443 0.002592053 0.00019347946 -0.0014435485 -0.0065572197
-0.013191864 -0.008764338 0.010553561 -0.0005768318 0.008328269 0.0021488804 -0.0016045728 -0.0050544185
-0.0044833994 0.012226084 0.005828427 0.015144827 -0.0036275827 -0.004121872 -0.0018420026 0.0077702324
0.003630265 -0.003963677 -0.006974475 -0.005580794 0.0065989806 0.020722924 -0.0086807 0.013533599
-0.0071375794 -0.008941446 -0.0017779268 0.0022943092 0.0021919215 -0.00211882 0.0027597677 0.010541399
-0.003023504 0.0016570255 -0.0063480968 -0.002890556 -0.001960757 0.009157278 0.008613887 0.016765416
0.005438499 -0.0039176666 -0.012460011 0.00030277445 0.0009976868 0.0006316572 -0.0132455975 0.010103012
0.011317941 0.007157789 0.019035503 0.02428381 0.033293117 0.025517642 0.0244965 0.040340614
-0.011108338 -0.0040170425 0.010121486 0.028536594 -0.06774774 -0.03590817 -0.0048837266 0.017129803

fc1.bias f4 [64]
00000000: 1c8b 36bc 0e4d 8ebc 6b13 76bc 0cf7 8cbc
00000010: 33f8 34bc 3b23 533b 2ce4 18bd 4177 9bba
00000020: ba89 80bc 1a57 053c a454 acbb 831b 84bb
00000030: 1dc5 0c3c 3038 9dbc 4004 cabb 2afe fcba
00000040: cf4b c1bb 38ee 17bd cb5f a7bc 9f1f 16bc
00000050: 233d b03b bb4e 9ebb e149 39bc 303c 733a
00000060: aa67 0cba e5a2 773d db29 a73d 6709 83bb
00000070: dd9c 823a aa62 7f3c 4744 f3bb 3ba6 e63c
00000080: 5b6f ff3b 98a8 693d 3fbf 2b3d d0de 65bb
00000090: 1b37 b2bc f1b9 98bc f3ae 833d 33cc 863d
000000a0: 5f2e 45bd facf e9bb 20ea 913d e5b8 77bc
000000b0: dd78 60bc 0cc8 083c d038 433c 858b c03b
000000c0: c7a5 523b ebba f9bc 516e 13bb 37b3 c53b
000000d0: e518 b9b8 0213 553c a185 90bc d028 05bd
000000e0: 4223 d73b 20ab 5c3b cb5f b7bb ed2a d4bc
000000f0: 854f c1bb 1572 60bd 9493 b13c 9002 ed3c
-0.011141565 -0.017370727 -0.015019278 -0.017207645 -0.011045503 0.0032217044 -0.037326977 -0.0011861102
-0.015690673 0.008138442 -0.0052591134 -0.0040316 0.008591917 -0.019191831 -0.0061650574 -0.0019301821
-0.0058989297 -0.037092417 -0.02043142 -0.0091628125 0.005378382 -0.0048311627 -0.011309118 0.0009278683
-0.00053560233 0.060458083 0.0816228 -0.0039989236 0.0009964962 0.015587488 -0.007423911 0.028155437
0.007795257 0.05704555 0.041930433 -0.0035075434 -0.021754792 -0.018643351 0.06429853 0.06581917
-0.048139926 -0.0071353884 0.07124734 -0.015119766 -0.013700691 0.008348476 0.011915401 0.005876007
0.0032142268 -0.030484637 -0.0022496174 0.006033327 -8.8261244e-05 0.01300502 -0.017641844 -0.032509625
0.0065654824 0.0033671334 -0.005596136 -0.025899375 -0.005899372 -0.054796297 0.021676816 0.028931886

fc2.weight f4 [10, 64]
00000000: 8f6c af3d 1082 053d b927 103d 05c2 44bc
00000010: c898 36bd 9db2 13bc 088a d43d af70 233b
00000020: ab89 f23c 84ed 1d3d bab5 92bd 539a 153d
00000030: 23be 2cbd 77e1 a03d 7797 263c 7f98 d73b
00000040: 9849 593d bd6e e6bb ad3b b3bc 8234 e6bc
00000050: 8ad7 ab3b 21cc 88bc 5bbe 033d 5c80 0abd
00000060: 4019 6e3c ca61 72bc 089f 423b 9313 b33c
00000070: 0d3a 27bc 4862 99bc a55c 333c a7fe ae3c
00000080: c360 303d f762 4abd bffb 033d f033 99bc
00000090: 4d93 243c cfbf 503d d734 353c cd8a 21bc
000000a0: 8700 22bb c113 0b3c cd4d 38bd fa0c 3dbd
000000b0: a020 1f3d 25c4 943c 2d43 6bbc 5f18 103d
000000c0: 15d2 6bbd 636b 14bc a317 42bc 85b7 ee3c
000000d0: 9dd3 19bc a7f3 283d 88c2 e03c a7b6 873c
000000e0: 8252 62bd 801e 0bbd 2355 423d ab73 babc
000000f0: 2d6c 793d 2d0f 73bc a63e c63c e123 113c
00000100: cdb9 9dbd 2a20 7b3d 4b1b 90bc 4bd4 b3bc
00000110: 32b1 77bc 4401 213d b927 903a 54c4 153d
00000120: a377 de3c e205 7e3d 7faf 213c bbac 88bd
00000130: b92c a83d 237c 17bd 70ea e43c eb53 71bb
00000140: 02ce c1bc 331a ecbc 972a 193d c46c 43bd
00000150: fffe dd3c 60be b73c 608e 5f3a 289f 0f3d
00000160: 6db0 20bc fd33 5abd 73b9 093b 9f8d e93c
00000170: 4380 8fbc 25bc 193d 13ef 20bc 381f 453d
00000180: 216f 9b3c 196b 8dbd 4055 a3bd 5be6 28bd
00000190: bc13 863d c538 5ebd eebf 8ebd 5fe4 f1bd
000001a0: 1084 3f3d 3ad8 573b 8fe8 87bc 7cdf aa3b
000001b0: b729 2e3d 6f12 293d 28c3 e73d 976d ebbc
000001c0: 022f c3bc 5800 bb3c 4d87 633c 328b 84bc
000001d0: 5ed2 01bc 3125 81bd 9037 243c a179 2bbc
000001e0: dff5 00bc a38f 433d a813 87bc 1bde f7bb
000001f0: 6ffd 07bd d05e 04bd 229e 4d3c 1030 f8bc
00000200: b27b 263d 43c4 3a3c 62bc fabc d7e1 0ebd
00000210: 7fe9 00bd 8892 59bd 5abf d3bc 0fb0 4ebc
00000220: 3f1d 65bd 7fb1 233b 0f90 efbc 776c a03c
00000230: 0d97 77b9 9b63 4b3d 4b49 fd3c 6f91 ad3c
00000240: 49ae 2b3d d5e1 57bc 4b8d f8bc b713 9f3c
00000250: c51f 90bb 73a9 553c f004 1dbc b795 183d
00000260: f12b 08bc 67b0 093d 91cc 843d 2a01 eabc
00000270: cd92 6ebc 1b3c 933c 6814 15bc 5013 b2bc
00000280: 5325 1b3d d3f7 943d fbf4 703d 5bd4 02bd
00000290: fceb 1e3c 3f88 4a3c cfaa 103d 7b5f 1c3d
000002a0: eefd 1fbd 4d4d 09bd cb9d 513d 2345 e53b
000002b0: 5866 153d ffa0 223c 3dd6 9bbd cbe7 7abc
000002c0: 2fe7 cfbc 02fa 7dbd f518 f1bb 7798 b8bc
000002d0: 48e8 123d b2ec 17bc 5058 7b3b c1fe 193d
000002e0: 5b26 c9bc 2bdb 9cbd a272 0b3d 03f2 a6bc
000002f0: f247 12bb 48e6 b13b 5dba 5c3c 8a3f 123c
00000300: 2ba7 a9bd 6f5a d23b e375 763d 1b18 a0bc
00000310: 93de ec3c 50e9 fd3a efaf acbb c0cf 4e3d
00000320: 288c fd3c 6a0a 41bd bdf5 2cbc 94bc 883c
00000330: 7a1b 123d 78ea bfbd 90d7 d9bb fa14 843d
00000340: 6f99 00bc 8584 2dbd 5912 b43c dadc dc3a
00000350: fdd9 3b3d a3c4 c73c e25c d4bc 6bf0 263d
00000360: 3bea b3ba 8aa2 2e3d 968b 9ebd eb9c 10bb
00000370: f385 96bb 5feb c53b a373 bdbd 4cfb 9d3c
00000380: 8bbd d539 e764 203d 2726 6e3d 79c2 1cbd
00000390: cde9 54bd 1060 1fbd e18e 0a3d 4fa3 253d
000003a0: 4273 713d 8561 88bc 8df5 ce39 5d23 a7bc
000003b0: b138 06bd a9b9 14bc 0f26 85bd 303d 4c3c
000003c0: 5ff3 04bc 63d4 2b3c 4fc4 ed3c 62c6 f9bb
000003d0: 63a6 d8bc 790b 0cbc 958d 53bc c7ec 7f3d
000003e0: 3858 d53c 76ba cb3c 388a f4bc 9f65 22bd
000003f0: 9c99 b83b 5b9d 78bc adfb 0d3d 07a1 d43c
0.08565628 0.03259474 0.035194132 -0.0120091485 -0.044579297 -0.009014753 0.1037789 0.002493899
0.02960666 0.03855659 -0.07163568 0.03652413 -0.042173516 0.07855504 0.010167948 0.0065794582
0.0530487 -0.007032244 -0.021879042 -0.02810121 0.0052442 -0.016698899 0.03216396 -0.03381382
0.014532387 -0.014793823 0.002969684 0.02185992 -0.0102067115 -0.018723622 0.010947381 0.021361662
0.04306103 -0.049410786 0.032222506 -0.018701524 0.010044885 0.050964173 0.011059961 -0.009859753
-0.0024719553 0.008488596 -0.04499607 -0.046154954 0.038849473 0.018159935 -0.014359278 0.035179492
-0.057573397 -0.009058806 -0.011846456 0.029140243 -0.009388831 0.04124799 0.02743651 0.016566588
-0.055254467 -0.033964634 0.047444474 -0.022760233 0.06089418 -0.014835161 0.024199795 0.008858652
-0.07701454 0.06130997 -0.01759114 -0.021951815 -0.01511793 0.039307848 0.0010998166 0.036564186
0.027156657 0.06201733 0.009868502 -0.06673571 0.08211655 -0.03698362 0.02794382 -0.00368237
-0.023657802 -0.028821087 0.037394132 -0.04771115 0.02709913 0.022429645 0.00085279904 0.035063893
-0.009807688 -0.053272236 0.0021015077 0.028509913 -0.017517215 0.037532944 -0.009822625 0.048125476
0.018973889 -0.06905193 -0.079752445 -0.04123531 0.06546733 -0.05425336 -0.069702014 -0.118111365
0.046756804 0.0032935278 -0.016590385 0.0052146297 0.04252025 0.041277345 0.1131652 -0.02873878
-0.023826126 0.022827312 0.013887239 -0.016179655 -0.007923691 -0.06305922 0.010023013 -0.01046601
-0.00787112 0.047744405 -0.016488865 -0.007564319 -0.033200677 -0.032316983 0.012549909 -0.030296355
0.04064531 0.0113993315 -0.030607406 -0.034883346 -0.03147268 -0.05311826 -0.02584808 -0.012615218
-0.055936094 0.0024977622 -0.029243497 0.01958297 -0.00023612026 0.049655538 0.030918738 0.021187512
0.04191426 -0.013176401 -0.030340811 0.01941858 -0.0043983185 0.013040888 -0.009583697 0.037252154
-0.008311258 0.033615496 0.064843304 -0.028565008 -0.014561367 0.017972996 -0.0090991035 -0.021737725
0.037877392 0.07273831 0.05882738 -0.0319408 0.009699818 0.012361585 0.035319146 0.038176995
-0.039060526 -0.033520985 0.051175874 0.006996767 0.036474556 0.00992608 -0.07609222 -0.015314053
-0.025378792 -0.062006004 -0.0073577114 -0.022533638 0.035866052 -0.009272741 0.00383522 0.037596468
-0.024554422 -0.076589905 0.03404487 -0.020379072 -0.0022320715 0.005429063 0.013472167 0.008926282
-0.08283838 0.006419472 0.06017102 -0.019542744 0.028914725 0.0019371901 -0.0052699964 0.050491095
0.03095062 -0.047129072 -0.010556635 0.016691484 0.035670735 -0.09370893 -0.0066480115 0.064493135
-0.007849081 -0.04236271 0.021981405 0.0016850487 0.045862187 0.024385756 -0.025923196 0.040756624
-0.0013726422 0.042635478 -0.07741468 -0.0022066187 -0.0045936047 0.0060400213 -0.092505716 0.019284867
0.00040767746 0.039158728 0.058141854 -0.0382714 -0.051980782 -0.03890997 0.033827666 0.040438946
0.05894781 -0.016648063 0.0003947433 -0.020402605 -0.03276891 -0.009077468 -0.065014 0.01246576
-0.008114665 0.010487649 0.029024271 -0.007622526 -0.026446527 -0.008547657 -0.012912174 0.062481668
0.026043043 0.024869185 -0.029851064 -0.039647695 0.005633546 -0.015174235 0.034663845 0.02595569

fc2.bias f4 [10]
00000000: 772c cabd 0f12 063c c2dc 943d d968 26bc
00000010: c469 893d 15f0 c0bc 3ba2 583c 00e3 d3bc
00000020: ab17 22bc 60fc a3bd
-0.09871762 0.008183016 0.07268669 -0.010156834 0.06709626 -0.02355198 0.0132222725 -0.025865078
-0.009893338 -0.08007121
