torch_to_tf/torch_models/model_round1879.model (torch, 493063 bytes, 10 tensors)

conv1.weight f4 [32, 3, 3, 3]
000000 b5 97 d9 3d 68 23 5f bd 82 31 d9 bc b0 a4 ca 3d
       0.10624639 -0.054477125 -0.026512865 0.09894693
000010 b4 0f 22 be 71 73 42 bd f0 14 05 ba f3 de dc bc
       -0.15826303 -0.047473375 -0.00050766673 -0.02696178
000020 1f fc d6 3d e8 5e b9 3d d6 e8 22 bd a8 00 71 3d
       0.10497307 0.09051305 -0.03977283 0.058838516
000030 d9 0e 23 3c 48 3b e7 bd 6a e3 94 3c 54 6a a4 3c
       0.00995227 -0.11290604 0.018174846 0.020070232
000040 0f bd 42 bd 87 80 b8 3b 4a 2a 97 bc 60 3e fb 3d
       -0.04754358 0.005630556 -0.018452782 0.122677565
000050 4d 9d a2 bd ba 11 bc 3a 13 46 23 ba ad 2d ea bb
       -0.07940159 0.0014348545 -0.00062283984 -0.0071465583
000060 ca 70 b0 bc e3 e5 5f bd f3 87 2e 3d f4 6a 8c 3c
       -0.021538157 -0.054662596 0.04261012 0.017140843
000070 04 b1 05 3d 70 80 a9 bb 05 68 a1 bd 8f bf dc bd
       0.03263952 -0.0051727816 -0.07881168 -0.107787244
000080 71 c5 82 3d ff 34 fd bc b7 9c 52 bc 0f 9f e7 bc
       0.06385315 -0.03090906 -0.012854747 -0.028274087
000090 0f 11 bb 3d 6b 09 02 3e ab 75 34 3d b0 6c a0 3c
       0.09134113 0.12698905 0.04405753 0.019583076
0000a0 db 1d 0a bd 6c 05 08 3c 7f 0d 6a 3c 8f 41 33 3d
       -0.03371988 0.008302074 0.014285444 0.043763693
0000b0 b7 bc 95 bc 87 61 38 3d fd 16 af 3c 4d 43 6a 3d
       -0.018278463 0.045014884 0.021373266 0.05719309
0000c0 2b ef 87 bc 90 fd d5 bd 28 94 96 bd 05 c6 9c bd
       -0.016593536 -0.10448754 -0.07352477 -0.07654957
0000d0 84 5e 83 bc 58 64 35 bc d3 dd 7b bd 43 c1 84 3d
       -0.01603628 -0.011071287 -0.061490845 0.06482174
0000e0 c7 20 e5 3d 9a b5 ce bd 8a 43 43 3c 2d d6 74 bd
       0.111878924 -0.100932315 0.011917958 -0.059774566
0000f0 83 fc 75 3d 07 de ee ba eb a3 3f bd 70 85 47 3c
       0.060055267 -0.0018224128 -0.046787184 0.01217781
000100 3d 0b 5c bd 47 e3 45 3d 89 18 8c bc 30 7b f2 3d
       -0.053721655 0.04831245 -0.017101543 0.118399024
000110 55 26 51 bd 87 6c 94 3c f7 cf 38 3d 7f 11 59 bb
       -0.051061947 0.018118156 0.045120206 -0.0033122
000120 dd 8b 81 bd e7 a9 0a be c5 cf 4b 3d d7 ee 3e bb
       -0.06325505 -0.13541375 0.04975869 -0.002913406
000130 ef 44 11 3e 08 3e dc bc 07 d1 19 bd 3f ce 5e 3d
       0.14186452 -0.026885048 -0.03755286 0.05439591
000140 0c d4 af bd 90 0c 4f 3d 77 fc c5 3d 2c 6f 26 bc
       -0.085853666 0.05054909 0.096672945 -0.010158341
000150 b2 90 83 3d c0 98 ff b9 65 09 df bc 73 32 fc 3d
       0.06424083 -0.00048751198 -0.02722616 0.1231431
000160 92 02 8d bd 6d 32 b6 bd 49 52 86 bd 3a 87 a6 3d
       -0.06885256 -0.08896337 -0.065586634 0.08131261
000170 96 34 0f bc b7 85 b5 3c 97 01 d5 3d f6 83 10 be
       -0.008740565 0.022158487 0.10400694 -0.14112839
000180 40 d1 7b bd 10 6a fd bd 02 3a 8a bd f2 e9 c6 bc
       -0.061478853 -0.123737454 -0.06749345 -0.024281476
000190 03 88 14 3c 9b f0 4e 3d b7 56 9f 3d 9a 51 d9 3c
       0.009065631 0.050522428 0.077802114 0.026528168
0001a0 73 1e c5 bd e0 8d 20 3d 75 9f 78 bd 39 bc 9c 3d
       -0.09624948 0.039197803 -0.060698945 0.07653088
0001b0 1c 22 06 3d 25 3a a2 3d 07 57 05 3d ca 3e 61 3d
       0.032747373 0.079212464 0.0325537 0.05499152
0001c0 b5 fa 52 3d 0b 06 86 3c ed eb 11 3d d8 d1 94 3d
       0.051508624 0.016360303 0.035625387 0.07266587
0001d0 3b d9 89 3d b7 bf a2 bc ca 91 7e bd fb e8 e2 bd
       0.067308865 -0.019866807 -0.062150754 -0.11079594
0001e0 7b 90 96 bd 5f 0b 0f bd 4b 41 27 bc f8 8a 62 bd
       -0.07351776 -0.034922954 -0.010208438 -0.055308312
0001f0 aa 49 b3 bd 63 ca 55 bd c1 b1 9b bc a2 52 17 ba
       -0.08754285 -0.052194964 -0.019005658 -0.0005772506
000200 a0 81 9e 3d 6e 3f 01 ba 76 b2 ab bb 99 26 46 bc
       0.07739568 -0.0004930411 -0.00523978 -0.012094163
000210 f5 2f 18 3d 78 c5 a3 bd 40 2a 56 3d 1a e6 d9 bb
       0.03715511 -0.079966486 0.052286386 -0.0066497447
000220 6a 33 f5 ba 07 5b 77 bd 9b 45 d9 3c 2f a8 97 3d
       -0.0018707339 -0.060389545 0.026522448 0.07405125
000230 87 5a 7b 3d 68 ca 20 3c d5 95 60 3d d0 5d 8f bb
       0.06136563 0.009813882 0.05483039 -0.004375197
000240 e3 a0 82 bd 2f fb a0 3d b2 5e 46 3b 9b 46 17 be
       -0.06378343 0.078604095 0.0030268845 -0.14773028
000250 05 2f 40 3c 3a 28 dc bd 2d 38 65 bd dc b9 10 bd
       0.01172996 -0.1074986 -0.055961777 -0.0353335
000260 cb c9 b5 bd 25 7b 44 bb a2 49 2b 3d ca e5 2a bc
       -0.088763796 -0.0029980626 0.04181827 -0.010430763
000270 82 d5 51 ba e3 f2 f2 3d fa e3 e2 bc 28 45 dc bd
       -0.00080045324 0.11862733 -0.027696598 -0.10755378
000280 08 01 82 3d b2 5c db 3d da 6d b7 3d b0 d7 7b bd
       0.06347853 0.107110396 0.089564994 -0.061484993
000290 5b 3c 10 3d 8a ec 60 bc 1f a5 17 3c 23 67 d0 3d
       0.03521381 -0.01372827 0.0092556765 0.10175922
0002a0 fa 3e 8a bd e3 59 ea 3c 5b 24 f6 3d cd 0c bb bc
       -0.06750293 0.028607314 0.12018653 -0.022833252
0002b0 dd 89 f1 bd d1 86 92 bd 67 3c 36 bd fb ff 05 bc
       -0.117938735 -0.071546204 -0.044491198 -0.008178706
0002c0 78 6a 0b 3d 95 93 b3 bd eb 05 dc bc b5 31 95 3d
       0.034037083 -0.087683834 -0.02685829 0.072848715
0002d0 ff 18 90 bc 77 2a 17 be 98 a2 12 3d b7 be 8c bd
       -0.017590044 -0.14762293 0.035799593 -0.068723135
0002e0 55 83 bb bd 7f 8e ea 3d 98 1b a8 bd e1 00 16 3d
       -0.09155909 0.1145296 -0.08208388 0.036621932
0002f0 e6 d0 c1 3d bb 7a cd 3d 59 d0 02 be e1 32 23 3b
       0.09463672 0.100331746 -0.12774791 0.0024902152
000300 d7 d4 69 bd 2f c5 ae bd 8b 84 b3 3c 7d b6 3d bc
       -0.057087746 -0.085337035 0.021913787 -0.011579153
000310 2f 2b 69 3b 40 27 97 3c 30 0b 8a bd 4b 28 74 bc
       0.0035578718 0.018451333 -0.06740415 -0.014902185
000320 72 08 3c 3d 5e 21 01 3d 2b 44 40 bd 5b 13 bb 3c
       0.04590649 0.031525962 -0.04694001 0.022836378
000330 d2 5a 48 3c f8 02 1e bd 6d f5 8d bd 58 72 dd 3d
       0.0122286845 -0.03857705 -0.06931577 0.10812825
000340 5f 20 a6 bd da bd 01 3c e3 10 8a 3d 00 b1 f7 3d
       -0.08111643 0.007918799 0.06741502 0.12094307
000350 c2 39 a3 bd 70 99 a9 3d 57 61 2f 3c 78 06 2d bc
       -0.07970001 0.08281219 0.01070436 -0.010560624
000360 9f 4b a9 bc 13 64 0e bd f7 f8 fc 3b c8 29 89 bd
       -0.020665942 -0.034763407 0.0077201086 -0.06697422
000370 0b e2 9b bb 39 de af bd f3 1b 0c 3d f9 e9 9b 3d
       -0.004757171 -0.085873075 0.034206342 0.07612986
000380 23 b3 ab 3d cf 96 11 3d 1c 18 a5 bc 02 17 a7 bd
       0.08383777 0.035544213 -0.020153098 -0.08158685
000390 65 de 9f 3b eb 75 8c bd 2f 89 cd bd cf 95 85 bd
       0.0048788064 -0.068584286 -0.10035931 -0.06522714
0003a0 b0 3b 39 bc b3 f8 00 3e f0 8a f4 bc 4d 6e eb 3c
       -0.0113057345 0.12594871 -0.029851407 0.028739119
0003b0 1a 08 76 b9 4b 66 d7 bb ab e3 99 bd 2b fd d2 3c
       -0.00023463406 -0.0065734736 -0.07514127 0.025755486
0003c0 b3 cf d6 3b c3 24 9f 3d 88 84 b1 3d dd ad db bd
       0.0065555214 0.077706836 0.086678565 -0.10726521
0003d0 be 87 2b 3c 7c f1 31 bd f3 82 9e bc 79 36 4a 3d
       0.010469375 -0.043443188 -0.01934955 0.049368355
0003e0 1b f1 89 bc 15 5c 19 bd 6c 71 c9 3b 63 10 13 3c
       -0.0168386 -0.037441332 0.006147554 0.008976075
0003f0 8b cf e1 bd 02 3e 0d bd 53 a8 96 3c a8 72 58 3c
       -0.11025914 -0.034482963 0.01839081 0.01321093

conv1.bias f4 [32]
000000 9b 15 13 3e 60 23 e4 bd 0b 14 e1 3d db d9 51 bc
       0.1436371 -0.1113956 0.10990151 -0.012808288
000010 19 68 44 3e 70 56 c8 bd 64 93 37 3e f0 4b 50 3d
       0.19180335 -0.09782112 0.17927319 0.05085367
000020 88 71 f6 3d 7f 73 3e be 1f 17 ba bc ab 42 c3 b9
       0.12033373 -0.18598746 -0.022716103 -0.0003724297
000030 01 38 c8 bd e2 79 14 3e 2f 47 bc bc d3 20 b6 bd
       -0.09776307 0.1449962 -0.022983162 -0.088929795
000040 6d 5a fd 3d a5 14 bb 3d ca 7f 0d 3e 12 0e 20 3e
       0.12370763 0.09134797 0.13818279 0.15630367
000050 d0 c2 d4 3c f7 65 ca 3d 92 8e 3b 3d da 45 04 be
       0.0259718 0.098827295 0.045790263 -0.12917271
000060 1b dd ed bd 72 0c fd ba 0a da 21 bd 78 01 10 be
       -0.11614438 -0.0019306077 -0.03951458 -0.1406306
000070 4b 13 80 bc 1b 49 f1 ba 9d e0 c2 3d fa 1c 34 be
       -0.0156342 -0.0018408628 0.09515498 -0.17589179

conv2.weight f4 [64, 32, 3, 3]
000000 b2 7a d1 3b 4f ac 6b bd d5 65 fd 3c c3 a0 10 bd
       0.0063928002 -0.057537373 0.030932346 -0.035309564
000010 73 53 87 bd 67 79 af 3d 10 dd 3f 3c b9 91 8a bd
       -0.066077136 0.085680775 0.01171042 -0.06766076
000020 30 db 1c 3d 5f be af 3c 52 9a 83 bd d4 af 11 bd
       0.03829497 0.02145308 -0.06425919 -0.035568073
000030 cf f9 4f bd dc 0c 97 bd e2 d6 24 bd 9d 4e 16 3d
       -0.050775345 -0.073754996 -0.04024399 0.036696065
000040 2a d9 ce 3c 4a 90 86 3c a5 e2 6d bd 53 ec d1 bd
       0.025250036 0.016426224 -0.058077473 -0.102501534
000050 b5 e3 6f 3d 99 4d 32 bd c5 d3 27 be c3 b4 84 3d
       0.058566768 -0.043531034 -0.16389377 0.0647979
000060 a8 45 a7 bc 88 f4 98 bd 1e 06 82 3b f6 2d 8b 3d
       -0.020418957 -0.07468516 0.0039680144 0.06795876
000070 ca dd 5b bc 37 1e 88 bc 63 1e 5c bb 16 05 97 bd
       -0.013419578 -0.01661597 -0.0033587448 -0.07374017
000080 da e4 d3 3c c3 41 37 3b 2d c1 e1 bc 17 ba 44 bd
       0.02586596 0.002796278 -0.027557934 -0.04802903
000090 7b 66 24 bc e0 9c 1a bd 55 78 c8 bc 60 dc 0a bd
       -0.010034199 -0.037747264 -0.024471441 -0.033901572
0000a0 a7 bc d3 bc aa f5 eb bc ca 6d 88 bb 3b bc 47 3c
       -0.025846792 -0.028803665 -0.0041634785 0.012190874
0000b0 30 2e 81 3d b9 00 01 3d 63 e6 d7 bc af ea e1 bb
       0.06307638 0.03149483 -0.026354974 -0.0068944315
0000c0 31 3a 0d bd fa 5f 88 bd b0 e1 91 bc 05 ac 57 ba
       -0.034479324 -0.06658931 -0.017807811 -0.0008227232
0000d0 b7 a8 47 3d 1b 48 fa 3d 9d 9e fb 3b 7b 3f 14 3d
       0.048744883 0.12220784 0.0076788203 0.036193352
0000e0 23 2b 10 3e 5a 32 42 bd 87 3b 00 bd 07 dd 96 3d
       0.14078955 -0.0474113 -0.03130677 0.07366376
0000f0 db a3 b1 bd 4d b1 d1 bc 1b 9b a9 3d 09 24 84 bb
       -0.08673831 -0.025597239 0.08281537 -0.004032616
000100 d9 6d 96 bd d8 21 aa 3c 28 7d d1 3c 84 a5 9c bc
       -0.073451705 0.020768091 0.025572374 -0.019121893
000110 3e 3c 22 3d a2 be 10 3d 2a 74 25 3d 72 6e 92 3d
       0.039608233 0.03533805 0.040393986 0.07149972
000120 e6 77 95 bd e6 91 4b be 53 1e fa 3c 7d 91 f5 3d
       -0.072982594 -0.19879875 0.030532038 0.1199064
000130 6e 7b 9e bd 3d c5 91 bc ae 8d 83 3d 78 56 e1 bd
       -0.07738386 -0.017794246 0.06423508 -0.11002821
000140 8b 50 51 bd b2 72 48 bc 80 6d b5 bc e7 dd c6 3d
       -0.051102202 -0.012234377 -0.02214694 0.09710293
000150 7a f9 d4 bc 58 36 a1 bc df ee 89 3d 13 c6 c7 ba
       -0.025997866 -0.019679233 0.06735014 -0.0015241526
000160 ff 53 56 bc fc f4 9f 3b 1a 37 34 bc 42 c2 1f be
       -0.01308155 0.0048814993 -0.010999465 -0.15601447
000170 7c f0 0d 3c 77 8e ae bd 5a cd f6 bd 61 74 25 3a
       0.008663293 -0.08523267 -0.120508865 0.00063115923
000180 37 b1 36 3d 66 f2 82 bc 8b f2 75 3d f3 10 ed bc
       0.0446026 -0.015984725 0.06004576 -0.028938746
000190 63 41 6c bc 3b 2d ec 3c 05 9b 56 bd 43 bf 3a bd
       -0.014419886 0.028830161 -0.052393932 -0.045592558
0001a0 c3 f2 a6 3c eb e6 5c 3c d9 91 31 bc 62 aa 74 3d
       0.02037943 0.0134827895 -0.010837995 0.059732802
0001b0 97 00 0e bd 36 55 3f bd 70 f1 51 3d 7d 6d bd bc
       -0.03466853 -0.046712123 0.051255643 -0.023123497
0001c0 a3 df 45 bd eb f1 83 3d b3 18 a8 bc fe ba 29 bd
       -0.04830898 0.064426266 -0.02051959 -0.041438095
0001d0 50 52 92 3d 67 8a 89 bd 44 dc af bc cb 0f 98 3d
       0.07144606 -0.06715851 -0.021467336 0.07424887
0001e0 b7 cb 2f bd 32 fa fc 3c 60 93 66 bb c5 3b 5d 3d
       -0.042918887 0.030881021 -0.0035183057 0.05401208
0001f0 6d 42 fe 3c 92 7f d2 3c cf 8f 89 bc f2 0a d2 bd
       0.031037534 0.025695596 -0.016792206 -0.10255994
000200 4d 9a d1 bd dc 99 98 bc db 47 af bc a7 37 bd 3c
       -0.10234509 -0.018628053 -0.021396568 0.023097826
000210 63 75 88 bc a2 97 4b bd 20 07 4b 3d 35 99 a1 3c
       -0.016657537 -0.049705155 0.04956734 0.019726375
000220 63 02 05 bd fc 57 16 bd 28 af 40 bd c2 69 5b bc
       -0.03247298 -0.036705002 -0.047042042 -0.013391914
000230 9f af a1 bb 5d 3d 46 3d dd b9 45 3c 4c 74 39 3d
       -0.0049342657 0.048398364 0.012068239 0.045276925
000240 e2 66 54 3c 43 78 2c bd 63 55 e0 3d 4e 47 9b bc
       0.012963982 -0.042106878 0.10953786 -0.0189549
000250 53 1e 71 bd c5 06 80 3d e3 2b 41 bd 55 f3 b4 bd
       -0.05886681 0.06251291 -0.047160994 -0.088354744
000260 f5 c1 81 3d 63 a3 20 bc 4c 43 0d bd 98 d6 fe bb
       0.063358225 -0.009804579 -0.034488007 -0.0077770464
000270 77 ad a4 bd 5f c7 3e bd 17 fe 19 bd 02 b3 73 bb
       -0.08040898 -0.046576854 -0.037595835 -0.0037185554
000280 2a 1d 2a bd 87 30 ff bc 2f ee 76 3c fa 6b 1a be
       -0.04153172 -0.03115107 0.015071436 -0.15080252
000290 c8 9d 5b bc 0b 00 bc bd 6f 5e ae bd 15 46 00 3e
       -0.013404317 -0.09179696 -0.085141055 0.12526734
0002a0 30 b5 8f bc 60 57 32 bd df 9f 46 39 b5 99 d0 3c
       -0.017542452 -0.04354036 0.00018942308 0.025463918
0002b0 6b e7 8c bc 85 b5 e0 3d f6 f3 3d 3d a8 1b 08 bd
       -0.017200192 0.10972122 0.046375237 -0.0332295
0002c0 5a de 5c 3d 68 27 3d bc 47 d5 41 bd b2 49 8a 3d
       0.05392299 -0.01154504 -0.047322538 0.067523375
0002d0 cd 94 ca bc 85 06 01 be 43 96 0d 3d b2 06 50 bd
       -0.024729157 -0.12600143 0.03456713 -0.050787635
0002e0 d1 c8 af bb a8 2a 6c bb e7 9a 1a bc 80 d9 b5 3a
       -0.0053645154 -0.0036036167 -0.009436346 0.0013874024
0002f0 4b 79 3b bd 46 5a 12 bc 83 ed 15 bb 9b 21 64 3d
       -0.04576997 -0.008932656 -0.0022877164 0.05569611
000300 3f 1b e4 bc 9e 6b 00 bd 0b b4 91 3d ee c8 a3 bc
       -0.027845023 -0.03135263 0.071144186 -0.019993272
000310 a3 b0 55 3c 6d 24 74 3d 93 43 72 3c fa 1d ab bc
       0.013042602 0.05960505 0.014786619 -0.020888317
000320 9f 59 6b 3d 20 5d 94 bc 35 48 ac bc 53 73 83 3d
       0.057458516 -0.018110812 -0.021030525 0.06418481
000330 87 86 8a 3c 00 f4 58 3c 75 52 13 3e 49 07 2e 3e
       0.01690985 0.013241768 0.14386924 0.16994967
000340 28 0d 02 bc e2 e2 bd bc 5f 45 ed 3d f0 02 28 3b
       -0.007937707 -0.023179475 0.11585497 0.0025636517
000350 c6 49 48 bc 55 c0 38 3d 87 e1 36 bc 96 d0 8b bd
       -0.01222462 0.045105297 -0.011162168 -0.06826894
000360 cd bf 9d bc 9d 40 e5 bc b9 bf 85 bd 19 b5 0d bc
       -0.019256497 -0.027984912 -0.06530709 -0.008649134
000370 65 34 4f bd cf 5f e4 bd 33 7c 8d bd 95 20 23 bd
       -0.050587077 -0.111510865 -0.06908455 -0.039825995
000380 8b bc 9d 3c 25 e4 55 3c ba e8 7b 3b c0 7a 4b bc
       0.019254943 0.013054882 0.0038438276 -0.012419403
000390 8d 79 bf bc e3 3d 7d bd c5 6f 48 bd 11 50 1f bd
       -0.02337339 -0.061826598 -0.048934717 -0.038894717
0003a0 12 6c cb bd 42 91 d8 bc 5f 0d 38 bd c1 d4 42 bd
       -0.09932722 -0.026436452 -0.044934627 -0.04756618
0003b0 64 83 84 bd 22 38 15 bc f0 8e 22 3d 6a f1 41 3d
       -0.06470373 -0.009107621 0.039687097 0.04734937
0003c0 6f 20 4b 3d 45 61 aa 3d 4d 0b f6 3c 74 20 25 3c
       0.049591478 0.08319334 0.030034686 0.010078538
0003d0 c0 28 ca bb 7a df 30 bd 6e 34 a8 bd 6b 3b b7 bb
       -0.0061694086 -0.043181874 -0.08213125 -0.0055918
0003e0 72 cc cf 3c f9 59 26 3d 71 03 c6 3d 40 8a 16 3e
       0.025366042 0.04061315 0.09668625 0.14701176
0003f0 66 fc af 3c 42 cb 32 bc 42 f8 ff bb 27 e9 3b 3c
       0.021482658 -0.010912718 -0.007811577 0.011469162

conv2.bias f4 [64]
000000 64 db b7 3d a2 bf fe bd 98 11 ff 3c 28 b7 67 3d
       0.08977392 -0.12438895 0.031136319 0.056571156
000010 4f 29 11 bd cf d9 b5 3b 7b bb a1 3d 7a d0 34 bd
       -0.035439786 0.0055496464 0.07897087 -0.04414413
000020 79 a9 c2 bd d9 5c ca bd 71 25 10 be d9 e2 b4 3c
       -0.095049806 -0.098809905 -0.14076783 0.022080826
000030 c0 15 8c bd 9f 0b 47 bd db c5 1c 3e bd 03 08 be
       -0.06840086 -0.048595067 0.15309851 -0.13282676
000040 ad 3e 78 3d d3 28 67 bc cc 80 b5 3b 80 38 3c 3e
       0.060606647 -0.014108854 0.0055390354 0.18380928
000050 cd 0b 98 3d 44 2b b0 bd b6 1a 05 bd ab bf 53 3d
       0.07424126 -0.08602002 -0.032496177 0.05169646
000060 1b f9 12 be 00 f2 b5 bc 2c 20 c9 3d 27 ec f6 bc
       -0.14352839 -0.022210121 0.098205894 -0.030141903
000070 bf ff 0b 3d e2 9f 54 be db 7c 35 bc 63 7f 3d 3e
       0.034179445 -0.20764115 -0.011077131 0.18505625
000080 9b 76 14 3e 7a 79 af 3d 63 ba 24 be 82 99 5e 3d
       0.1449837 0.08568092 -0.16086726 0.054345615
000090 fd aa 2a 3d 1d c7 f8 3d 8f b4 12 be 8d b6 6f 3e
       0.041666973 0.12147353 -0.1432669 0.23409481
0000a0 1d 43 14 be 05 41 52 3e af 24 db bd 1b 3b f0 bd
       -0.14478727 0.20532615 -0.10700356 -0.117300235
0000b0 d2 a3 36 bd 67 87 fe 3d b2 fd f7 3d 8f 6f 53 3d
       -0.044589825 0.1242817 0.121089354 0.051620062
0000c0 5c a8 af bc c5 08 7a bc 1f 42 c6 bd cb b5 98 bc
       -0.021442585 -0.01526088 -0.0968058 -0.018641373
0000d0 6d d0 0b 3e ea b5 33 bd 92 cd 23 bc 1b 72 19 be
       0.13653727 -0.04387466 -0.009997742 -0.14984934
0000e0 d5 4e ed bc b3 6c c6 3b fc ff a1 3d ce b4 b9 3c
       -0.028968254 0.0060554384 0.07910153 0.022669222
0000f0 81 9a 07 3e c3 1d 7d 3e 3b 5c 3a bd c7 65 45 3e
       0.13242532 0.24718384 -0.045498114 0.19277106

conv3.weight f4 [64, 64, 3, 3]
000000 05 f2 1d bd 62 16 42 3d 46 80 b3 3b 2f 80 5b 3c
       -0.038560886 0.047384627 0.005477938 0.013397261
000010 5f e2 70 3d 90 4f ab 3c 70 c8 b1 3c 80 81 62 3c
       0.058809634 0.020911962 0.021702021 0.0138248205
000020 8a 94 7c bc 7e cf 28 bc 90 7b 3c 3c 98 7d 50 3d
       -0.015416274 -0.010303376 0.011504069 0.050901026
000030 bb 66 fb 3c 47 da eb 3c b3 3d 1f 3e 5a 82 2f 3d
       0.030688634 0.028790606 0.1555088 0.042848922
000040 1b 2f 7c b9 10 18 00 3e 90 e0 f6 3c 09 75 93 3b
       -0.00024050141 0.12509179 0.030136377 0.0045000357
000050 17 a9 ad bd b1 cf ba bc 48 b6 8a 3d 63 7f fa 3c
       -0.08479517 -0.022804113 0.06773049 0.03057832
000060 ec 8f bd 3c 38 d2 e2 bc 07 af 67 3c 48 ab 1c 3b
       0.023139916 -0.02768813 0.014140851 0.0023905803
000070 cb 35 63 bb 35 83 0d be 2b c4 50 bb d1 03 32 3d
       -0.0034669514 -0.13819583 -0.0031855206 0.04346067
000080 35 00 25 bd 95 65 26 bd c7 9f a9 bc fd fc c9 3d
       -0.0402834 -0.04062422 -0.02070607 0.09862707
000090 80 2d 1f bb ad 27 b2 bc 7f 1f 4a 3a 10 d6 03 bd
       -0.0024288595 -0.021747435 0.0007710382 -0.032186568
0000a0 9a be 6b bc a0 f2 ac 3c eb 46 09 3c 77 f6 8b 3b
       -0.014388705 0.021111786 0.008378725 0.0042713243
0000b0 82 7b 6e 3d db f2 fc 3c 0b 21 c4 3c 93 8e b3 3d
       0.058223255 0.030877521 0.023941537 0.08767428
0000c0 3a d2 cb bc 58 39 6a bd 24 fb 8d 3d 80 9b 90 bd
       -0.024880517 -0.057183594 0.06932667 -0.07060909
0000d0 b8 eb d8 bc 0a 0c 6f 3d 33 0f 4f bd 13 91 81 bb
       -0.026479587 0.05836109 -0.050551604 -0.003954062
0000e0 87 d3 69 3d a5 6b 7a 3d 20 40 bd 3d 91 79 03 3e
       0.057086494 0.061137814 0.092407465 0.12839343
0000f0 2c 40 92 3d 8b 77 a5 3d 17 dc 94 3d fb e8 50 3d
       0.07141146 0.08079442 0.07268541 0.051003437
000100 6d 30 d7 bc 27 ec 06 bd 29 14 8a bc a2 0f 41 bd
       -0.026268208 -0.032940056 -0.016855316 -0.04713405
000110 dc 9f a5 bd 6f 24 a1 3a b3 37 72 bc f3 6d 2d bd
       -0.080871314 0.0012294183 -0.014783788 -0.042341184
000120 78 46 68 bd c0 80 1d bd 33 d9 50 3c eb 79 62 bd
       -0.05670783 -0.038452864 0.012747097 -0.05529205
000130 19 3f b3 bc 57 0c fc bc 48 1b 4c bd af 4b 76 3c
       -0.021880673 -0.030767603 -0.049830705 0.015032693
000140 3f 78 19 bc d0 e5 13 bd c3 a6 de bd bf 90 00 bc
       -0.009367048 -0.03610784 -0.10871651 -0.00784701
000150 c3 35 36 bd 93 cf 4a bd c7 c9 53 bc e8 4b 58 3d
       -0.044484865 -0.049514364 -0.012926525 0.052806765
000160 ea c2 38 bc 32 ce e3 3c ff f2 2a 3d bf 7b 32 3c
       -0.01127694 0.027808283 0.041735645 0.010893761
000170 31 db 2b bd 1d 38 54 bc ad 99 8b bd a5 3d 6f bd
       -0.041957084 -0.012952832 -0.06816421 -0.0584084
000180 b8 07 e4 bc 63 6d e9 bd 2f af 9b bd f7 6b a4 3c
       -0.027835712 -0.11397817 -0.07601773 0.020071013
000190 e7 dd 63 bd 1a 6d 3b 3d d7 1f 92 bc 90 71 ef bc
       -0.055631544 0.045758344 -0.017837448 -0.029228956
0001a0 0b 49 1a 3d d8 c1 f4 bc 91 4c a9 3b b8 08 ab 3c
       0.037667315 -0.029877588 0.005166598 0.02087818
0001b0 4f 65 02 3b 02 c1 20 3d 87 dc 17 3e 9b f2 20 bd
       0.001989681 0.039246567 0.14830218 -0.039293867
0001c0 48 fd 3d be 3a ec 76 bc fe df 10 bd 50 44 3e bd
       -0.1855365 -0.015070969 -0.035369866 -0.046451867
0001d0 9a 6c e2 3d 03 d0 fd bc fe 2e b6 bd 7b 0d 83 bd
       0.1105587 -0.030982977 -0.08895682 -0.063990556
0001e0 5e e7 04 bd 9e 8b 03 be b2 e8 27 be b4 e6 80 3d
       -0.03244721 -0.12846228 -0.1639736 0.06294003
0001f0 67 ca a9 3c b4 98 92 bd 97 82 c9 bd 4d 48 4b 3d
       0.020726396 -0.07158032 -0.09839361 0.0496295
000200 d9 71 a3 bc d7 b9 42 3c 20 1d 29 bc 55 cc 07 be
       -0.019951748 0.011885128 -0.010321885 -0.1326154
000210 f7 92 0e bd 73 81 c9 bc ac 1f 19 bd 77 01 96 3c
       -0.034808125 -0.024597859 -0.03738372 0.018311245
000220 a0 49 7e 3c da 28 43 3b 67 67 5f 3c 07 3d 3a 3c
       0.015520483 0.0029778988 0.013635493 0.011367089
000230 63 ae 1d bd 05 a7 5e bd 6f 7e e5 3c 6c 63 a7 bc
       -0.038496386 -0.0543585 0.02801439 -0.02043315
000240 3f 72 d5 bd 0b 03 9d bd 3f e5 8c 3b 63 d3 f5 3b
       -0.10422181 -0.07666596 0.004299789 0.007502006
000250 fa 35 1d bd c0 ed 4e bd d5 fd 1f 3c 1c 38 b3 3c
       -0.038381554 -0.050519705 0.009765108 0.021877341
000260 b3 ea 87 bd 38 fd 31 bd 53 f3 ed 3b 37 ef cf ba
       -0.06636562 -0.04345438 0.0072616725 -0.0015864138
000270 2f bd 00 bb 6f af dc bc 22 ed 2f bc 7a 48 64 bc
       -0.0019644012 -0.026939122 -0.010737689 -0.013933295
000280 cf 27 3e bd 25 26 da 3d 54 4b 2f 3c f0 60 79 bb
       -0.046424683 0.10651807 0.010699112 -0.0038052164
000290 23 66 67 bc 22 6e 47 bc 9f 35 00 3b bb a3 b6 3a
       -0.014123472 -0.012172254 0.001956321 0.0013934294
0002a0 37 c5 3b 3c 0b 6d 69 bb d7 d0 b1 bb 43 eb ac 3c
       0.011460594 -0.0035617973 -0.005426507 0.021108275
0002b0 5b 2a 73 3c 83 3d ed 3d ab 1f 2e bd 1c f1 15 3d
       0.014841641 0.11583998 -0.04251067 0.036606893
0002c0 35 c4 a2 3d 02 65 38 3d 5c 88 a7 3d ca db 02 bd
       0.0794758 0.045018204 0.08180305 -0.03194789
0002d0 af f9 24 bd 1b 6a 53 bd 7d f1 ab ba 05 d6 bd 3d
       -0.04027718 -0.051614862 -0.0013118234 0.092693366
0002e0 03 2d 72 3d ea 3a 75 3c cf 2a 83 bc 8f 82 3d 3c
       0.059124958 0.0149676595 -0.016011624 0.011566772
0002f0 35 25 b5 bb 57 0d 20 3d 27 a8 55 3d 2b ad 76 3d
       -0.005528117 0.039075222 0.052162316 0.06022374
000300 12 97 ee ba 92 16 08 3d fd eb 7d 3d 33 fd 0d 3d
       -0.0018202981 0.03322465 0.061992634 0.034665298
000310 81 4f 98 3d 78 e6 ec 3c 48 9b e5 3c ec c8 11 3d
       0.07437039 0.02891849 0.028028145 0.035592005
000320 11 02 88 bc 20 a2 6a 3d 8f 1b 82 bd 73 72 52 bd
       -0.016602548 0.05728352 -0.06352913 -0.05137868
000330 fc c7 c6 3d c0 b4 44 bd 7b 1e 0b 3c df a7 c2 3d
       0.09706113 -0.04802394 0.008491154 0.09504675
000340 af f5 00 3c d4 0e c0 3d 78 6d d9 bc 70 80 2f bc
       0.0078710755 0.09377828 -0.026541457 -0.010711774
000350 27 8e 03 3d 57 22 89 3b 1b 1f b6 3d 0f 54 b0 3c
       0.03211799 0.004185002 0.08892652 0.021524457
000360 b4 11 39 3d 7f 1c c1 bc 47 64 45 3b 80 5f 50 3d
       0.0451829 -0.023573158 0.0030119584 0.050872326
000370 0a 6b 51 3b ff ae bd 3c d9 84 bf 3d 4a 72 8b 3d
       0.003195467 0.023154734 0.093515106 0.06808908
000380 fb 1e 8f 3d 7f d1 5c 3c 97 45 11 3b b2 48 32 3c
       0.06988331 0.013477682 0.0022166723 0.01088159
000390 63 c9 c2 3b a1 69 1b bc 13 6c 51 3b 35 bd 2e 3a
       0.0059444173 -0.009485633 0.0031955286 0.0006665767
0003a0 4f c8 9c bb 8b 88 92 bc 83 aa 92 bd bb ac 29 bd
       -0.004784621 -0.017887374 -0.07161429 -0.041424494
0003b0 00 15 6c bd 6c 9f 07 bc a5 a5 5a 3d d8 52 47 3d
       -0.057637215 -0.008277755 0.053380627 0.04866299
0003c0 00 97 e4 bd bf 88 cf bd 21 47 07 bd 2b 9e 39 bd
       -0.111616135 -0.10133504 -0.03302682 -0.045316856
0003d0 ba ca 0a bd a5 dd f4 bc 6b dc 3f bd 70 1e 64 bd
       -0.03388474 -0.029890845 -0.046841066 -0.05569309
0003e0 05 3c 0b 3d 04 8c a1 bd cf 33 b1 bd 07 bc 64 3d
       0.033992786 -0.07888034 -0.0865246 0.05584338
0003f0 28 8f 2b bc 3c 79 1c bc 53 2e 15 bd 8b 8a 9f bb
       -0.010471143 -0.009550389 -0.03642113 -0.0048688105

conv3.bias f4 [64]
000000 f2 85 ab bc 9a 40 13 be 48 b5 9a 3c dd a4 7d 3d
       -0.020937894 -0.14380112 0.01888527 0.061924804
000010 3f 07 ba bb df a4 5f bc b7 16 3c 3d 63 5f 2b 3c
       -0.0056771333 -0.013650148 0.0459201 0.010459754
000020 51 eb 13 3e ec a5 8f bb b7 cb dc bc 15 98 0d 3e
       0.14445235 -0.004383793 -0.026952608 0.13827546
000030 c3 69 72 bb 37 b0 b6 bc 87 e3 d0 bb 85 67 e7 ba
       -0.0036989308 -0.022300823 -0.0063747796 -0.0017654753
000040 f2 ca dc 3d f2 c8 50 3e 27 a5 ee bc 33 fb a0 bc
       0.10780896 0.20389155 -0.029131485 -0.019651031
000050 88 e6 76 bc 25 89 88 3a 55 c3 62 3e 08 62 72 bd
       -0.015069611 0.0010416849 0.22144826 -0.05917552
000060 27 0d 8d 3d cf 5e 25 3e 98 39 f5 bb 0b 59 94 3d
       0.06887274 0.16149448 -0.0074836724 0.07243546
000070 b8 97 2e bc 88 8c f4 bb 28 8b 71 bc 50 4e 1e bc
       -0.01065629 -0.0074630417 -0.01474265 -0.009662226
000080 45 25 a7 bc 33 89 c5 3b d3 53 4d bb 5b dc 14 3e
       -0.020403514 0.0060283183 -0.003133048 0.14537184
000090 32 ef ea 3d e1 da 85 bc 0a 25 27 bc 00 0e 3d 3e
       0.11471404 -0.016339721 -0.010201702 0.18462372
0000a0 1d bf 80 3c 3a 3e 9c 3d ef 47 e7 bc 38 17 e2 bb
       0.01571613 0.07629056 -0.028232543 -0.0068997405
0000b0 b3 28 8d ba 70 34 71 3d d7 09 d9 bb 73 9b a0 3c
       -0.0010769576 0.0588879 -0.0066234875 0.019605374
0000c0 3f 99 38 3d 7f 54 df 3d 0e 63 b4 3b da d5 6c bc
       0.045068022 0.10904788 0.0055049723 -0.014455283
0000d0 9a 61 9e bc c5 7b 2d be d2 6a 39 bc 95 04 0e bb
       -0.01933365 -0.16941746 -0.011316972 -0.0021670212
0000e0 8a 7e ec ba 47 43 0f 3e cd 57 9d 3d 68 99 7e 3e
       -0.0018043083 0.13990508 0.07682762 0.24863207
0000f0 75 9d 11 be 4f 38 d0 3c c1 0a ad bc 20 81 30 bc
       -0.14220221 0.025417475 -0.021123292 -0.010772973

fc1.weight f4 [64, 1024]
000000 20 c1 7d bc 32 38 5c bd 12 a9 71 bc 2f 7e 4a 3d
       -0.015487939 -0.05376453 -0.014749782 0.049436744
000010 ef 9e c6 bd ed bd fb bd f7 b7 f3 bd df 35 09 3a
       -0.09698283 -0.12292085 -0.11900323 0.00052341627
000020 73 04 c7 ba 7a df d0 bd 39 6d 95 bc 93 b1 2b 3c
       -0.0015183821 -0.10198875 -0.018240558 0.010479349
000030 28 48 2b bd 35 a4 0b 3d 89 79 3a 3d 21 a1 cc bd
       -0.04181686 0.034092147 0.04552606 -0.099916704
000040 ca 9e 1c 3d 65 2a 16 bd b1 d3 11 bd ba 85 76 3c
       0.03823737 -0.036661524 -0.035602275 0.015046531
000050 4e 81 bd 3b 67 6b 18 3c ae 97 a3 bc 5b a8 65 bc
       0.0057832366 0.00930295 -0.019969787 -0.01401719
000060 c3 59 e6 3b 2a c9 10 3d 14 3e bb bc 4b 78 c8 bc
       0.0070297434 0.035348095 -0.02285675 -0.024471423
000070 e3 bd 10 bd 68 9c 8a bc 7b fd c4 bc 8b b0 f8 bc
       -0.03533734 -0.016920283 -0.02404665 -0.03035762
000080 83 95 ed 3d d3 54 b2 bc 5d da 69 3d 3b b5 20 bd
       0.11600783 -0.021768963 0.057093013 -0.039235335
000090 6c fa ac 3d ef 7f bc bc 4d 82 ce bc 53 c8 1d bc
       0.08446202 -0.023010222 -0.025208617 -0.009630281
0000a0 9a 47 26 bd c3 10 5b 3b db 7a ef 3c 9f 3c a0 3d
       -0.04059563 0.0033426739 0.029233387 0.078240626
0000b0 f1 39 17 3c 9f 2b a9 bd a5 68 33 bd 0b d0 19 bd
       0.009230123 -0.08260273 -0.04380097 -0.03755192
0000c0 66 f6 14 bd c7 a9 bf bc 2d ba 27 3c 08 96 b8 3c
       -0.036367796 -0.023396386 0.010237259 0.022532478
0000d0 47 64 4e bc fa 68 3d 3c ba 8a f5 3c 95 39 5a 3d
       -0.01259715 0.011560673 0.029973377 0.05327757
0000e0 02 e6 f5 bb 5d db de bb 87 23 a1 3c e7 6f 76 3d
       -0.0075042257 -0.0068010525 0.019670261 0.060165312
0000f0 57 d5 04 bd 15 cf 8d bc 07 6f 74 3c 12 a9 05 3d
       -0.03243002 -0.017310658 0.014919049 0.03263194
000100 8f 03 8e bc ab 18 9d 3a 70 c5 4b bc ad 3b fe bb
       -0.017335681 0.0011985501 -0.0124372095 -0.0077585788
000110 d7 11 23 bc ef dd 63 bc 67 f4 1a 3c c7 92 59 ba
       -0.009952984 -0.013907894 0.009457684 -0.00082997646
000120 2f 88 3f 3b da 6b f4 bb 32 68 76 bb 2f 43 a2 bb
       0.002922546 -0.007459146 -0.0037598726 -0.0049518566
000130 6a c4 95 3c 1b f5 75 b9 1a 2b 8a 3b e7 7a 58 bc
       0.018282134 -0.0002345633 0.004216564 -0.013212896
000140 29 5f b2 bd 4a a4 62 bd 04 ac b9 bd b0 fb c7 bc
       -0.087095566 -0.05533246 -0.090660125 -0.024412006
000150 cb 0e 95 3d a3 28 5b bd 3b a8 c7 bd 5e bd 84 bd
       0.07278212 -0.05350555 -0.09748884 -0.064814314
000160 9c 28 9d bc cf b2 82 bc 7c 93 36 3b 9b 5b 91 bc
       -0.019184403 -0.015954403 0.0027858904 -0.017743876
000170 57 ca 21 3c 1b 22 a5 3b 38 4e 3c bc cf e7 ce bc
       0.009874902 0.005039466 -0.011493258 -0.02525702
000180 71 fe 87 3d e0 27 11 3d 18 90 00 3e 47 7d ca 3d
       0.06640328 0.03543842 0.12554967 0.09887176
000190 2f 53 42 bd dd 8a d1 bb 1c c5 26 be c5 47 62 bd
       -0.04744261 -0.0063947276 -0.16286129 -0.055244226
0001a0 69 e5 b4 bc a1 50 0b 3d 93 59 ee 37 bf 25 06 3d
       -0.022082048 0.03401244 2.8413522e-05 0.03275084
0001b0 88 31 0d 3e ca 43 d9 3d b8 99 30 3e 19 ab 86 3d
       0.13788426 0.10608633 0.17246139 0.06575603
0001c0 1c d4 aa 3b 07 2b a3 3a 23 de 7a ba f2 3d 37 bc
       0.0052132737 0.0012448736 -0.0009569844 -0.0111842025
0001d0 b7 b8 e9 bb 6b c8 5b bb 1b 20 12 bc 07 3d 59 bc
       -0.0071326154 -0.0033536206 -0.008918787 -0.013259179
0001e0 dc 41 8f bb 02 7f 5c bc b7 1f 45 bb 43 46 41 bc
       -0.0043718647 -0.013458015 -0.0030078718 -0.011796537
0001f0 c4 82 a5 ba 75 41 28 bc 37 08 82 3a 2b 27 a7 3b
       -0.0012627472 -0.010269512 0.0009920661 0.0051011047
000200 32 6e ed bd 9c 33 44 bd 80 9c de bd dd 1a bd bd
       -0.11593284 -0.04790078 -0.10869694 -0.092336394
000210 33 a1 e9 bd a0 36 81 bc 68 7a 3f bd 17 3a ee bc
       -0.114076994 -0.015773118 -0.046747595 -0.029080434
000220 14 34 a9 3c 06 87 09 bc f7 35 3c 3c 44 a6 9d 3d
       0.020654716 -0.0083940085 0.011487476 0.07697728
000230 4f 54 01 3e 3b 4e f4 3d a5 53 12 3d 5b 67 d6 3d
       0.12629817 0.11928984 0.0357243 0.10468932
000240 7b 14 16 3b 3d d5 63 bc 90 a3 b4 bb e5 03 1d 3b
       0.002290039 -0.01390582 -0.005512662 0.002395862
000250 5b 35 6e bc cb c3 ad b6 4b c9 53 3a 61 74 20 ba
       -0.014539088 -5.178595e-06 0.0008079006 -0.00061208574
000260 1b a3 a6 bc 08 94 14 bc e8 40 1d bc c5 af 80 bc
       -0.020341447 -0.0090684965 -0.009597994 -0.015708813
000270 03 d6 dc bb 25 06 d9 bb c9 e9 14 bc 27 75 df 3a
       -0.0067393794 -0.006623047 -0.009088942 0.0017048464
000280 aa 3f 46 bc 75 98 d3 bb ed 30 ef 3b ea 93 56 bc
       -0.01210014 -0.0064573833 0.0072995336 -0.013096789
000290 f2 9a cf 3b a7 ee 7f 3b 13 6c 30 3c 0a c3 e4 bb
       0.0063356096 0.003905216 0.010767954 -0.0069812583
0002a0 db ae c5 bb f7 d6 04 3b 5a 51 d7 3a 0d 9e 4f bc
       -0.0060328073 0.002026973 0.0016427443 -0.01267196
0002b0 eb 46 50 bc 1f 2c 3f bc 0a d7 73 3a 99 14 98 3a
       -0.012712221 -0.011668234 0.00093017577 0.0011602818
0002c0 3c bb 1e 3e 8b e0 cc 3d 68 6c 04 3c 77 b7 04 bc
       0.15501112 0.10003766 0.008082487 -0.008100382
0002d0 58 a5 d3 3d 78 d1 fc 3c a0 77 e7 3b 42 4b 9f bb
       0.10334271 0.030861601 0.007063821 -0.0048612664
0002e0 3b 47 78 3d 10 15 ce 3c f7 33 8d 3c 6c eb a3 3b
       0.060614806 0.025156528 0.017236693 0.0050024297
0002f0 79 7e 42 3d ab 79 0f bc b3 f5 80 bb 4d 14 be bc
       0.047483895 -0.008757035 -0.0039355396 -0.02320304
000300 0f 19 9e bc d5 29 91 bc 50 c1 7a bb 78 e6 83 bb
       -0.019299058 -0.017720142 -0.0038262196 -0.0040252768
000310 1d e2 76 bb 0b 12 58 bc 9d ed e9 ba d3 96 59 bc
       -0.0037671395 -0.0131878955 -0.0017847304 -0.013280588
000320 18 48 85 bb b4 4d 84 bc 1f 0e 48 bc 7b 20 77 3b
       -0.004067432 -0.016150333 -0.012210398 0.003770857
000330 eb be 0c 3b 1f bd 4d bc 3d 82 78 ba d0 59 9e bb
       0.00214761 -0.012557297 -0.0009479856 -0.004832484
000340 c4 1e a1 ba e4 3a 35 bc f5 89 00 3a dc 22 8b 3a
       -0.0012292494 -0.011061404 0.00049033697 0.0010615247
000350 e3 7d fa 3a d3 c1 cf bb 47 73 b8 bc 00 22 0e 3c
       0.0019111003 -0.0063402443 -0.022515906 0.008675098
000360 50 08 7d bb d2 f1 28 b9 b0 af d9 3b e2 d7 90 bc
       -0.003860969 -0.00016111814 0.006643258 -0.017681066
000370 f5 10 82 3a 5c 54 89 bb 70 15 8d bb bb ae 9e 3b
       0.0009923266 -0.0041909646 -0.004305534 0.004842607
000380 ec 22 b3 bc 78 fe 6f 3c 93 68 16 3b 68 71 61 3b
       -0.021867238 0.014648072 0.0022950515 0.003439987
000390 2d d0 54 3c 51 57 37 bc 38 02 fd bb 0a 94 f6 39
       0.012989086 -0.011190251 -0.0077212118 0.00047031074
0003a0 03 f6 13 3b 42 b2 7d 3c 13 84 f2 3b 0d 18 4d bc
       0.0022577054 0.0154843945 0.0074009984 -0.012517941
0003b0 b4 d7 45 3c 48 53 5a ba 61 6a 86 bc ff 45 62 ba
       0.012075353 -0.000832845 -0.016408147 -0.0008631646
0003c0 f0 84 93 bc 49 8b 18 bc 5a 18 09 bc eb 3a 72 bb
       -0.018007725 -0.009310552 -0.008367622 -0.0036961387
0003d0 c5 3b 5f bb e0 70 4c bc 44 25 0a 3c a3 11 69 bb
       -0.0034062725 -0.012478083 0.008431736 -0.003556349
0003e0 50 82 20 bc c1 93 48 bb b7 95 64 3a 00 74 e2 3b
       -0.009796694 -0.0030605646 0.0008719819 0.006910801
0003f0 65 66 11 bc 6d 28 c5 bb fc ef 86 bb 05 45 16 bc
       -0.00887451 -0.006016782 -0.004117964 -0.009171729

fc1.bias f4 [64]
000000 8b 52 18 3c 47 8e b9 bc 0e b7 a7 bd c3 77 e7 3d
       0.0092970235 -0.022650851 -0.08189212 0.113021396
000010 95 93 8a bb 2b 21 55 be 6d f4 e9 bb e7 1c 46 3c
       -0.004229019 -0.20813434 -0.0071397335 0.012091852
000020 f3 7c c4 39 65 5b 53 bc 15 46 da bb b8 31 ab bc
       0.00037477128 -0.012900208 -0.0066611865 -0.020897731
000030 9d f6 f3 bb 34 65 37 bb 8a 51 e0 bd 51 0b a2 bc
       -0.00744517 -0.0027983906 -0.10953052 -0.019780787
000040 03 1b e6 3c 23 81 25 be 2f 93 88 bb ff e7 f7 3b
       0.028089052 -0.16162543 -0.0041679363 0.007565498
000050 e0 15 09 3b 97 98 08 3b 7d 81 29 3d 48 aa 8e bc
       0.002091758 0.0020842904 0.041383255 -0.01741518
000060 1f 54 10 3a ef 32 3f 3d b1 c8 94 bb 0b f5 d6 bc
       0.0005505699 0.046679433 -0.004540526 -0.026239892
000070 22 67 af 3b 34 d5 c2 bd f7 dc 19 3c ed db 05 bc
       0.0053528706 -0.095133215 0.009391061 -0.00817011
000080 2a c3 7e 3c 02 23 5e bc eb 09 ef 3b 40 b9 4f 3e
       0.01554946 -0.013558151 0.0072948835 0.20285511
000090 50 45 88 ba 49 27 b2 b9 bd ff dc 3d 2f 84 27 be
       -0.0010396633 -0.00033980075 0.10790966 -0.16359018
0000a0 ef eb 0e 3e db 8d 86 bd c4 c8 9f ba e7 c5 48 bd
       0.13957189 -0.065700255 -0.001219057 -0.04901686
0000b0 c5 ce b2 3b f3 f5 6d bb 98 66 3a 3e c8 93 8b bc
       0.0054567778 -0.0036309927 0.18203199 -0.017038241
0000c0 4b 6f 46 3c 41 bb 09 bc e0 60 ed b9 41 c5 30 3e
       0.012111495 -0.008406461 -0.0004527634 0.17262746
0000d0 7f 63 87 bc 33 13 41 bc 9d 33 bd bb f3 52 cf bd
       -0.016526936 -0.011784363 -0.005773975 -0.10123243
0000e0 ae 15 1d bc 7e 82 c1 bd cb 73 b5 bc df 3d e3 3d
       -0.009587688 -0.094487175 -0.022149941 0.11095785
0000f0 aa a5 d0 bc 57 06 e5 3c 0b 16 b7 bb 51 ae 84 3a
       -0.02546962 0.027957125 -0.0055873445 0.0010122751

fc2.weight f4 [10, 64]
000000 8b 91 99 3d 55 ff d8 3d 44 13 0e bd 6a 42 04 bd
       0.07498463 0.10595576 -0.034686342 -0.0322899
000010 e0 89 65 bc 62 23 9d 3c 2e 0c 37 bc 8d b6 dc bd
       -0.014009923 0.01918191 -0.011172337 -0.10777006
000020 68 a8 e5 bc 97 52 16 bd a7 14 81 bd ab 88 66 3d
       -0.028034404 -0.036699858 -0.06302767 0.05628268
000030 10 78 63 3c 40 5d 7d 3d 6d 80 b7 3c 67 9c 3f 3c
       0.013883606 0.06185651 0.022400105 0.011695004
000040 0f 49 95 bd e0 09 00 3d 87 fc ad bc b3 93 20 3d
       -0.072893254 0.031259418 -0.021238578 0.039203357
000050 0a c8 9f 3b 83 66 8a 3c 1b 75 a0 bd 98 5d f4 ba
       0.0048761414 0.016894585 -0.07834836 -0.0018643616
000060 4d 20 aa 3c 47 f2 1e be 65 2d f9 3c 27 7b a5 bc
       0.020767355 -0.15522109 0.030417154 -0.020200325
000070 85 ea 73 3d 7f d0 73 3d 07 fe 1a 3c bf cf 4b bc
       0.059549827 0.05952501 0.009459979 -0.012439667
000080 35 2f 93 bc 88 de 05 bc 01 b2 19 3d 3e 40 a0 bd
       -0.017966846 -0.008170731 0.037523273 -0.07824753
000090 e3 78 dc 3c da ae cb bc 9a 6f f4 bd a7 5a 00 3e
       0.026913112 -0.02486365 -0.11935349 0.12534581
0000a0 e5 53 b5 bd 69 c0 83 bc 70 d8 2b bd 94 62 06 3e
       -0.08853892 -0.01608296 -0.041954458 0.13123542
0000b0 c3 aa 15 bd 05 58 d1 bc 0d bb e0 3d 02 70 d0 3c
       -0.036539804 -0.025554666 0.10973177 0.025444034
0000c0 08 53 d7 bc 3f 98 97 3b 12 47 ee bc a8 d3 48 bd
       -0.02628471 0.0046263034 -0.029086623 -0.049029976
0000d0 90 6b d2 3c eb 77 8d 3d 75 7e b1 3c 86 2d 83 3c
       0.025686055 0.06907638 0.021666745 0.016012918
0000e0 f7 b6 a6 3d 70 b7 b9 3b aa 36 5b 3d b1 26 b1 3d
       0.081403665 0.0056676194 0.05351893 0.08649958
0000f0 7a d5 21 bd 8b e8 44 be ff af 03 3c 02 56 9c bb
       -0.039510228 -0.19229333 0.008037566 -0.004770995
000100 10 b7 4c bd db 3c 35 bd 0f f3 ce 3c 7d 3b b1 bd
       -0.04997927 -0.04424749 0.025262384 -0.086539246
000110 08 54 da 3c 83 ef a2 3c 87 8b 84 3c f1 c5 a9 bd
       0.026651397 0.019889599 0.016179813 -0.082897075
000120 95 d7 5d 3c 2e 60 22 bc cd 8d cf bc f0 ca e6 3d
       0.013540168 -0.009910626 -0.02533617 0.11269176
000130 32 64 9a bd b1 8a 97 bc 33 dd 09 bd 0f 7e 12 3c
       -0.07538642 -0.01849875 -0.033658218 0.0089411875
000140 fa a5 51 3d 5f c3 a7 3b 50 94 57 bb 77 33 04 3e
       0.05118368 0.0051197256 -0.0032894798 0.12910257
000150 30 1a 09 bd bc ed ac bc bb c4 c8 3d 0c df c2 3c
       -0.03347224 -0.021109454 0.09803148 0.023787998
000160 c3 08 cf bb 4b be 7b 3d 80 23 1b 3c d0 66 f4 3a
       -0.006318183 0.061460774 0.009468913 0.0018646363
000170 2f 98 c7 bc b8 6c e6 3d 39 2a a4 bd 35 30 cd bc
       -0.024364559 0.11251205 -0.08015866 -0.025047401
000180 eb 1a 63 3d ea e8 1f 3c 4a 07 df 3c e3 be 92 bc
       0.055445593 0.009760121 0.027225155 -0.017913288
000190 33 53 18 bb 4b 32 11 3c 2c 1f 90 3d 27 77 10 3e
       -0.002324295 0.008862088 0.070371956 0.14107953
0001a0 bb 8d 04 bd 7f 59 57 3c 73 81 5b 3d 48 ae 4f be
       -0.032361727 0.013143896 0.05359025 -0.20281327
0001b0 ca 57 00 bd 23 4a a5 3c 93 5d c3 bd 83 61 d3 bc
       -0.031333722 0.020176953 -0.09539332 -0.025803333
0001c0 07 40 6e bd 4f 0b 91 3b 9f 33 c5 39 94 9c 05 be
       -0.05816653 0.004426397 0.0003761323 -0.13048011
0001d0 c8 ec 19 3d 90 3f 67 3c 0f 8e c5 bc 8b 06 45 3d
       0.037579328 0.014114276 -0.02411559 0.048101943
0001e0 ce 1b 07 bd 1b 6b 96 3d 34 7e 80 3c 9d 71 34 bd
       -0.0329855 0.073446475 0.015685178 -0.044053663
0001f0 67 83 d8 bc f8 5c 29 3e 47 7a 03 bc b7 87 03 3d
       -0.026429845 0.16539371 -0.008024759 0.03211185
000200 83 ab 9b bc 17 11 a7 3d 57 0b ff 3b eb c8 c2 3c
       -0.019002682 0.081575565 0.0077833342 0.023777446
000210 b3 97 89 3b 28 ce 68 bd 65 0f de bd 83 0e 49 3c
       0.004198992 -0.05683723 -0.1084278 0.012271526
000220 6f 4f 30 3c e6 ff 8d bd 0d 74 cd 3b e0 56 ca 3d
       0.010761126 -0.069335744 0.006269938 0.09879851
000230 0a a8 ca 3b 83 5d c9 3b 20 d1 d1 3d 67 f5 85 3c
       0.0061845826 0.0061451807 0.102449656 0.016352369
000240 62 56 a1 bd f1 f7 28 3a cb 82 31 bd da 8e 92 bb
       -0.07877804 0.00064456376 -0.043337625 -0.0044725956
000250 57 57 5d bd 87 47 57 bc bf 32 be 3d 0c 7e 88 3c
       -0.054038372 -0.013139612 0.09287023 0.016661666
000260 11 73 07 bb 50 70 8f 3d e7 9a a4 3c 5a 3c 82 bd
       -0.002066795 0.07003844 0.020093394 -0.063591674
000270 0b f2 9a bc d7 af f3 bd 62 5e e4 bc 10 87 38 bd
       -0.018914243 -0.11898773 -0.027877036 -0.04505068
000280 ca b8 76 3c df ee a1 bc 18 7d e4 3b 12 be a3 3d
       0.015058706 -0.019767223 0.00697292 0.079952374
000290 5b 8e 97 3c 58 ee ef 3c a4 f7 85 bd 6f 3d 82 bd
       0.018500498 0.029288456 -0.06541374 -0.06359374
0002a0 1f 76 2d 3d 04 fe 12 be 2f 6a 3a 3d 6a f6 5f 3d
       0.042348977 -0.14354712 0.04551142 0.05467836
0002b0 b2 9c a0 bb c2 a8 7d 3c e7 3b 23 3e b2 c3 77 bd
       -0.004901492 0.0154821295 0.1594082 -0.060489364
0002c0 f4 ff 0d bc 8b 95 7a 3a 6a 6f 7b 3c ba c9 14 3d
       -0.008666981 0.0009559027 0.015346387 0.036325194
0002d0 6d fb 61 3c 7f 3b 84 3c 27 d2 7f bc cc 12 a6 bd
       0.013792855 0.016141651 -0.015614069 -0.08109054
0002e0 9a 0f b3 3c 7c 74 a6 3d 13 29 e3 bb 33 79 72 bc
       0.021858025 0.081276864 -0.0069323867 -0.014799404
0002f0 a2 d8 d8 ba 50 cf 0e be 85 94 c0 bc 8c 8d 82 bc
       -0.0016544054 -0.13946271 -0.02350832 -0.015936635
000300 7d a8 9c 3d 0b d1 76 be 50 6e 5e bd 8a 78 32 3c
       0.07649324 -0.24103181 -0.05430442 0.010892997
000310 8d f6 51 bd 3b f6 82 3c cb 55 47 3d 8b d9 69 3d
       -0.05126052 0.015986552 0.048665803 0.05709223
000320 92 15 75 bd bd d0 7d bd d8 7f 80 bc 90 0d df 3c
       -0.059835024 -0.061966646 -0.01568596 0.027228147
000330 cf 40 ce 38 f8 5a 5e 3d 2b fe 18 bc e7 9b 0f bc
       9.834917e-05 0.054285973 -0.009337942 -0.008765197
000340 5e 90 b3 3d 0b 16 c2 bc e5 81 3c bd 8f 46 1c bd
       0.0876777 -0.023692152 -0.046022315 -0.038153227
000350 fb 52 15 3c ed 13 06 3d a5 df d1 3b 4b 0d 64 3b
       0.009114022 0.032733846 0.0064048343 0.0034797962
000360 5a 5f 1d bd 10 07 15 3d e0 df 10 bd f2 5e b2 3d
       -0.038421012 0.03638369 -0.035369754 0.08709516
000370 75 88 27 3c 9d 1b 9c bc 47 da 87 bc d8 78 b2 3c
       0.010225405 -0.019056136 -0.016583575 0.021786138
000380 7a d9 da bd c8 97 67 bc f1 8f b8 3d 64 09 04 3d
       -0.106860116 -0.014135309 0.0901183 0.032235518
000390 bf f3 a6 bc 2a f3 ea 3c dd 2d 6a bc 87 40 b6 bd
       -0.0203799 0.028680403 -0.014293161 -0.08899026
0003a0 3f 50 cd bb 33 2f 4d bd 8a 7a a0 bc ca 2c 41 bb
       -0.0062656696 -0.05009384 -0.019589681 -0.002947616
0003b0 62 ea fc bc 87 64 fc 3c cb 47 69 bd 97 ae 22 bd
       -0.030873481 0.030809654 -0.056953233 -0.039717283
0003c0 7f 38 20 3c d1 6d 82 3c 00 ae 88 3c ca 20 fd 3c
       0.009779095 0.015921505 0.016684532 0.030899424
0003d0 d0 e0 36 3d 4f 22 c4 ba 8b ea f6 bc 65 89 ed 3c
       0.04464799 -0.0014963838 -0.030141136 0.028996179
0003e0 87 88 2d bd 3d 62 26 3d 1f de 96 bd f8 a3 c9 3d
       -0.04236653 0.04062103 -0.07366585 0.09845728
0003f0 b0 f2 d9 bc 3b 81 10 be ba b5 bd bc 7f 7e da bb
       -0.02660498 -0.14111798 -0.023157943 -0.0066679115

fc2.bias f4 [10]
000000 74 ae 11 be 97 25 cf bd 4b ce 9e 3d 92 5c 9d 3d
       -0.14226705 -0.101145916 0.07754191 0.07683672
000010 a3 ab 5b 3e ea 46 30 bd db 85 a2 3d 26 43 ab bd
       0.21452193 -0.04303638 0.07935687 -0.08362417
000020 2d 8f 22 bd 28 e7 65 bd
       -0.039687324 -0.05612865
