torch_to_tf/torch_models/model_round639.model (torch, 493063 bytes, 10 tensors)

conv1.weight f4 [32, 3, 3, 3]
00000000: 0e0a ca3d c866 5cbd cd32 b8bc 5fd4 cf3d
00000010: 29c0 0abe ef85 4cbd f332 743c fada 40bb
00000020: 4042 be3d 100b a83d 73b0 1dbd bd47 783d
00000030: ae3a 3a3c 7303 b4bd abcb 853c 05dc 0a3d
00000040: 5bdd c2bc e0d8 fbbb 1b3d 09bd 5789 e63d
00000050: 47a8 bebd 6fa9 1abc dd08 483c 00c7 bbbc
00000060: f071 aabc c06d 3cbd 9a14 5b3c b775 203c
00000070: 40f5 cd3c a837 62bb 9b97 9fbd 7727 c9bd
00000080: 3517 963d 381f cfbc f253 00bc b202 b7bc
00000090: b9f6 9a3d 6806 df3d b862 0d3d 4b9f 453c
000000a0: 7568 06bd d816 cc3b 1745 573c edb2 283d
000000b0: 0355 c6bc d707 313d 475f 8e3c a36c 6d3d
000000c0: da08 f7bb ea21 b1bd 1a68 85bd d0cb 82bd
000000d0: 946c c7bb c5ed 26bc 25c7 50bd e888 993d
000000e0: 758f dd3d cf64 ccbd 50d4 683b 323a 68bd
000000f0: 25bc 613d 4a68 5539 7fe5 fdbc 5b09 b53c
00000100: abd2 39bd b0e9 2d3d 7035 5fbc 733f e13d
00000110: ba28 43bd 0dc0 723c afdc 413d 2afb 513c
00000120: 5390 6fbd 42f3 0abe 6356 f93c 32f7 1cbb
00000130: d7d7 fe3d bdc4 0cbd 6b7f 3fbd 3050 453d
00000140: 1bd4 a2bd 87f7 783d 9291 963d 28d7 75bc
00000150: e98b 3b3d b725 3fbc abde a53b 23f3 f53d
00000160: f76f 29bd 9518 92bd 1382 75bd e229 583d
00000170: f051 a2bc 8dfa 793b e5d9 bb3d 0519 eabd
00000180: db64 79bd d2e3 bebd dd3c 60bd a3b7 01bc
00000190: 663a 85bc 7296 1e3d b18f 823d bfc0 4b3c
000001a0: a570 97bd 2b4a 133d 74d7 07bd 62c6 b03d
000001b0: 9864 e13c d049 8e3d 9bb0 053d afd6 473d
000001c0: cf04 133d a88f 513c a357 e83c 1fac 803d
000001d0: d085 7d3d b24d 4ebc 9fa4 72bd 7f59 cebd
000001e0: 5f0c 7bbd d3b2 f4bc f86f ce3a 5bb4 47bd
000001f0: 924a a0bd 8768 3abd 22b1 b0bc 505e febb
00000200: 117e a33d d098 e83a e3ab 28bc 8ebf 09bc
00000210: e231 0c3d 63ec a1bd 1be0 523d 2f85 ab3b
00000220: 1b64 2ebb 97c6 3dbd 53ed f93c 7f80 8a3d
00000230: 6bde 923d e2ed 4f3c d582 333d addd bfbb
00000240: e389 78bd f796 773d 2547 e43b 840c 06be
00000250: 6d1b b9b9 752c c8bd 2097 09bd d9f2 44bd
00000260: 296b b9bd 2d17 07bc 42fd b43c 187a f6bb
00000270: 7a55 cf3b 4797 d13d 217f b0bc 2134 b6bd
00000280: 72fc 433d c7a2 d33d 974c 953d 6316 3abd
00000290: e0d5 053d a9ab 10bb 6916 013d 332c b23d
000002a0: 23ea 5dbd 8dd6 d13c 6b6f ec3d ff54 17bd
000002b0: 9ee1 c4bd 14e9 9ebd 934b cdbc 08dd 943c
000002c0: eb87 3a3c c339 83bd eaa2 f7bc fd69 773d
000002d0: f077 4ebd 6672 14be a777 073c 0b8b 85bd
000002e0: ab2d 9fbd 68d5 9b3d 3003 95bd 3cca 8a3c
000002f0: 0aa2 8d3d d228 da3d 02cb f6bd d7af cabc
00000300: 5736 5dbd aa52 8ebd df43 5c3c bc2d 05bc
00000310: 36e3 3b3c 6be3 3b3c fbb2 8fbd f82a 13bc
00000320: c7b2 133d 9da0 cc3c fd66 0abd 1279 f63c
00000330: f24b ec3b 272c 02bd d2f1 81bd 08e1 d03d
00000340: 0d02 a0bd b794 4b3c 0a76 593d fd8e ff3d
00000350: f076 87bd b2e9 8e3d 037c 093c 2fed c6ba
00000360: d703 d6bc e887 bbbc fb2c f63c 13f5 75bd
00000370: 7373 d73c 3079 98bd 67c3 b73c 47cd 543d
00000380: 2bf0 663d 9095 fa3c ddc5 02bc e7f4 55bd
00000390: 621f 743c 132d 10bd a8f5 abbd bff9 92bd
000003a0: bb3a 06bd cd73 d63d 1b5b 4ebd 1968 803c
000003b0: 887e a93b 2b07 1ebc 7753 79bd 4303 e83c
000003c0: 55a6 a1bb fa56 503d 45be 863d c384 d1bd
000003d0: 6553 4e3c bbd6 31bd 684d 07bc 4d54 513d
000003e0: 1767 53bc ebb2 0abd 4347 213c e745 6a3c
000003f0: 7db0 d4bd 4346 0fbd 9a6d 5d3c 0d6b d73c
0.09865199 -0.053808957 -0.022485161 0.101479284 -0.13549866 -0.049932417 0.014904725 -0.0029427395
0.0928998 0.08205235 -0.038498353 0.06061529 0.011366529 -0.087897204 0.016332468 0.033901233
-0.023787191 -0.0076857656 -0.03350554 0.11256664 -0.0930944 -0.00943981 0.012209144 -0.022922039
-0.020806283 -0.046003103 0.013371611 0.00979369 0.025141358 -0.0034518037 -0.07792588 -0.098219804
0.07328645 -0.025283441 -0.007832514 -0.022340152 0.0756659 0.10889894 0.034517974 0.012061904
-0.03281446 0.006228309 0.013139031 0.041186262 -0.024210459 0.043220367 0.017379416 0.057964932
-0.007538897 -0.08649047 -0.065139964 -0.063865304 -0.0060859416 -0.010188525 -0.05097117 0.07496816
0.10818378 -0.09980165 0.0035526939 -0.056696124 0.05511107 0.00020352114 -0.030993221 0.022099188
-0.045366924 0.04245919 -0.01362358 0.1099843 -0.04764626 0.014816296 0.0473296 0.01281623
-0.058487248 -0.13569358 0.0304367 -0.002395105 0.12443512 -0.03436731 -0.046752375 0.048172176
-0.07950612 0.060782935 0.07351984 -0.0150049105 0.045787726 -0.011666707 0.0050619445 0.12009265
-0.041366544 -0.07133595 -0.0599385 0.052774318 -0.019814461 0.0038143725 0.091724195 -0.11430553
-0.0608872 -0.09320797 -0.054745544 -0.007917318 -0.016263198 0.038717695 0.06375063 0.012436091
-0.07394532 0.035959404 -0.033164456 0.086315885 0.027513787 0.06947672 0.032639127 0.048788723
0.035893258 0.012790598 0.028362101 0.062828295 0.06189519 -0.012591766 -0.059239026 -0.10075664
-0.061291095 -0.029870426 0.0015749922 -0.048755985 -0.07826723 -0.04550984 -0.021568839 -0.007762708
0.0798303 0.0017745737 -0.010294887 -0.008407487 0.03422726 -0.07906415 0.051483255 0.0052343826
-0.002660996 -0.04633197 0.030508673 0.0676279 0.07171329 0.012690993 0.043825943 -0.0058552832
-0.060678374 0.060446706 0.006966489 -0.13090712 -0.00035306384 -0.097741045 -0.03359139 -0.04808316
-0.09053642 -0.008245272 0.022093419 -0.007521879 0.0063273283 0.10233932 -0.021544995 -0.088966615
0.047848172 0.10333782 0.07289999 -0.045431506 0.03267467 -0.0022074974 0.031515513 0.086998366
-0.05417837 0.025615001 0.11544689 -0.036946293 -0.096133456 -0.077593 -0.02506045 0.018171802
0.011384944 -0.064075015 -0.03022905 0.060403813 -0.05040735 -0.14496765 0.008268273 -0.06520661
-0.07772382 0.076090634 -0.072759986 0.016942136 0.06915672 0.10652317 -0.120504394 -0.02474205
-0.0540069 -0.06949361 0.013443916 -0.00812858 0.0114677455 0.011467795 -0.0701656 -0.0089824125
0.036059167 0.02497893 -0.033789624 0.030087028 0.007211202 -0.03178039 -0.06344952 0.10199171
-0.07812891 0.012425593 0.053091086 0.12478445 -0.066144824 0.069781676 0.008391383 -0.0015176887
-0.026124878 -0.022891954 0.030050745 -0.060048174 0.026300168 -0.0744499 0.022432042 0.05195358
0.056381386 0.030588895 -0.007981745 -0.05223551 0.01490006 -0.035199236 -0.083964646 -0.071765415
-0.032770853 0.10471306 -0.050379854 0.015674638 0.0051725544 -0.009645264 -0.060870614 0.028321868
-0.0049331584 0.050864197 0.0657926 -0.102304004 0.012593125 -0.043417674 -0.008258201 0.051105786
-0.0129029965 -0.033862036 0.00984365 0.014298893 -0.10385225 -0.034979116 0.013514901 0.026296163

conv1.bias f4 [32]
00000000: cb65 ea3d e53f d6bd 320a 1f3c b378 36bc
00000010: cafa 903d 8a48 5dbc 369f a13d 3f94 b73d
00000020: 5662 8b3d a512 f5bd 970d 073d 1f33 21bc
00000030: 5853 eabd 7877 6f3d 1450 33bc 7ecb c2bc
00000040: 548e 403d 77fc 4f3d ca98 993d 7669 c43d
00000050: 9d05 50bc 0891 ed3c 9fe9 863b 7cc7 a8bd
00000060: ff2a c3bd e8ad 383b 7b0d c3bb 92fc 99bd
00000070: cd42 3e3c fe2a 323c 271c 5e3d 05f3 2fbe
0.11445197 -0.10461406 0.009707021 -0.011137175 0.07079084 -0.013506064 0.07891695 0.089638226
0.068058655 -0.11966447 0.032971945 -0.009838848 -0.11441678 0.058463544 -0.010944385 -0.023778673
0.047010735 0.05077788 0.07499845 0.095904276 -0.012696651 0.02899982 0.0041172053 -0.082411736
-0.09529685 0.0028179828 -0.0059525347 -0.07518877 0.011612606 0.010874508 0.054226067 -0.17182548

conv2.weight f4 [64, 32, 3, 3]
00000000: 8b28 1bbd 1a2f 71bd 6dae 873c f0c2 23bd
00000010: c11e 0ebd 8f68 373d 171f 8dbc 0875 05bd
00000020: df5e fbbb 3bb0 4c3b 19fb 2dbd 4f8e 1fbd
00000030: cbe5 52bd c773 1bbd e764 77bc c5c9 3c3b
00000040: d78c 6f3b 5769 d6bb cf4a adbc 90b0 e6bc
00000050: fd27 703b def9 bbbc 75a4 8ebd 9cf8 143d
00000060: 908b e0ba a9d1 14bd f6ac 90ba 5db2 cb3a
00000070: aabe f3bc b3a4 50bd 8220 e0bc 1d04 fcbc
00000080: f512 0cbd 0fad 40bd 4eec b9bc 07e4 b9bc
00000090: 62b5 c4bc c07e 70bc d9da 223d 24ed 973a
000000a0: b0dc 6e3c 6308 173d d73e d23c 7341 043d
000000b0: 1f4f 593d 56e2 153c 12b2 5ebc 5e3c 073d
000000c0: 38a5 1ebb 97c2 24bd 5321 163d 6310 42bb
000000d0: 1045 0ebc 80f1 ad3d baaf 65bc 8967 113d
000000e0: 8c93 0c3e 65ba 1abc f4c4 8d3c bf40 cd3d
000000f0: cb34 68bd ec95 983c cdbe c93d 356e f7bc
00000100: 279b 4bbc d05b c63b 5256 48bc 1a22 8b3c
00000110: 102a 0e3d aeea cb3b fc9a 423d 7e7d 913d
00000120: 538a c5bc c5a9 94bd c24c 793d b0ff 49bc
00000130: 9d8e 1dbd 9dfb cb3c 1a27 00bd 4d95 a8bd
00000140: b073 12bd 4539 c13b bb44 2cbc fffb 863d
00000150: 4252 56bc f712 11bc 0292 793d 0b61 17bc
00000160: efc9 fc3a 1de8 283b 05fe cabc 4b9f 90bd
00000170: b7a4 d23a f290 1cbd ab9a 52bd ee14 11bc
00000180: 3623 a53b 37f4 17bc 3091 823d a4a8 1abd
00000190: 3295 b6bc b74f bcb8 6e43 1fbd da7b 29bd
000001a0: b2b7 f23c 1071 e6bb cb2e 79bc 8f66 843d
000001b0: 7f5e 04bd d346 eabc c9a8 2b3c 5263 17ba
000001c0: 75a4 eebc 6c69 3e3d f8d3 62bc 3808 0cbd
000001d0: 90a7 6e3d e0f9 d2bc ea4c b6bc 8a4f 383d
000001e0: f3e2 d8bb 4ce4 193c d761 0f3c 63da 5ebb
000001f0: 4734 9d3c e754 033d 9f22 08bd 1f50 9ebd
00000200: 5db8 11bd 5dde 4cbd 5f69 2ebd 1fd0 bbbc
00000210: 47f6 27bd 84a5 9dbc 6ae6 653c ef59 d73a
00000220: f706 9ebc 0b5d aebc c221 e1bc 09c1 abbb
00000230: f717 1b3c 078e ce3c cf78 ce3c 9061 503d
00000240: 3025 f8bc edd0 f7bc e3d9 753d bf6e fabc
00000250: bbcb d1bc 7704 4f3d cc1c 4bbd db44 28bd
00000260: c565 593d 030e 82bc 8acc 2dbd 3b7c 69bc
00000270: c6bd 2ebd 7224 a2bc d262 1ebc e3a4 80bc
00000280: 5eb1 0dbc 63e5 10bc 78fd 77bc b081 9dbd
00000290: 3332 8cbd 8333 80bd c619 c9bc 8d14 483d
000002a0: 8699 1abd d086 28bc 14d7 0ebc 8a81 77bc
000002b0: a80d e6bc fbff 1b3d 061a 943c da9f 79bc
000002c0: cb75 b33c 8074 87bc 2f19 81bc e290 f93c
000002d0: 7767 09bd 91f5 82bd 8b88 083d 6f94 6dbd
000002e0: f0d8 aabc ab42 0f3d aca8 11bc 1fe3 bd3c
000002f0: 02a3 633c 430c bcbb a0ed 79bc 435b 003d
00000300: 8f79 79bc 07f1 04bd 0f0c 473d d3e4 f5bc
00000310: b7eb 0bbc 5b09 ae3c 05d6 7ebc d05a edbc
00000320: cb17 ae3c 6b73 57bc 13a9 e7bb 237f 823c
00000330: 6c84 c3bc f561 e2bb 27e9 703d 80eb 013d
00000340: 8d93 41bd fa93 f2bc fd1c 863a a327 aebd
00000350: 23c3 13bd bab1 81bb 66cb 34bb 4456 36bb
00000360: 5ce4 31bc 8b4e 153c f529 98bc 7296 21bb
00000370: 97a5 e7bc e544 5abd 78a5 48bd 15fb 92bc
00000380: 40e8 bd3c a1f1 1dbd 75e3 0cbc 202a 23bc
00000390: bb2d 31bd 1f57 cebc ee49 8a3b 7ea3 3bbd
000003a0: a599 0dbd 9b0d f93c c380 dabc cbbc 32bc
000003b0: dffe 183d 8f84 a9bc ff51 18bc 8bb4 9c3d
000003c0: c23a 233c 754d 2b3d 438e 583d 1f14 39bc
000003d0: 839f fa3b 07cf dbbb 2f8e 22bd 30de bdba
000003e0: 1301 9e3c 1762 ebbb ef97 843c 78b2 463d
000003f0: dfb6 973b 8d59 d9bc 571d acbb 45d9 943c
-0.03788046 -0.05888281 0.016562665 -0.03998083 -0.034697298 0.04477745 -0.017226739 -0.032582313
-0.0076712216 0.0031232971 -0.042475794 -0.038954075 -0.05148868 -0.03795221 -0.015099741 0.0028806787
0.0036552453 -0.006543319 -0.021153836 -0.028160363 0.0036644929 -0.022946294 -0.069649614 0.036369905
-0.0017131437 -0.03633276 -0.0011037875 0.0015540827 -0.029754002 -0.05093832 -0.027359251 -0.03076368
-0.034197766 -0.04704004 -0.022695687 -0.02269174 -0.024012271 -0.014678657 0.03975949 0.0011591059
0.014578983 0.036873233 0.02566473 0.03228898 0.05305397 0.009148201 -0.01359226 0.033016555
-0.0024207365 -0.040224638 0.036652874 -0.0029611818 -0.008683458 0.08493328 -0.014018947 0.03549913
0.1372816 -0.009443854 0.017305829 0.10022115 -0.056690972 0.018626176 0.098508455 -0.030203918
-0.012427128 0.0060534254 -0.012227612 0.016984034 0.034708083 0.0062230444 0.047511086 0.07104014
-0.02411381 -0.072589435 0.060864218 -0.012329027 -0.038466085 0.024900252 -0.03128729 -0.08231602
-0.03575486 0.0058967196 -0.0105144335 0.06591033 -0.013081135 -0.008854619 0.06093026 -0.009239445
0.0019286255 0.0025773116 -0.02477933 -0.07061633 0.0016070817 -0.038224168 -0.051417034 -0.008855088
0.005039598 -0.009274534 0.063753486 -0.037758484 -0.022287939 -8.9793866e-05 -0.038882665 -0.04137788
0.029628608 -0.007032521 -0.01520891 0.06464874 -0.03231668 -0.028598225 0.010477253 -0.0005774993
-0.029131154 0.046487257 -0.013844483 -0.034187526 0.05826527 -0.025753915 -0.022253472 0.04499773
-0.0066188513 0.009392809 0.008751354 -0.003400468 0.019189967 0.03206339 -0.033236142 -0.07730126
-0.035576213 -0.05001675 -0.04258096 -0.022926388 -0.041006353 -0.019243963 0.014031986 0.001643
-0.01929043 -0.0212846 -0.027481917 -0.0052415174 0.009466163 0.025214208 0.02520409 0.050874293
-0.03029117 -0.03025099 0.060022246 -0.030570386 -0.025609842 0.050541367 -0.04958801 -0.04108129
0.05307557 -0.015875822 -0.04243139 -0.01425081 -0.04266145 -0.01979277 -0.009667115 -0.015703624
-0.008648245 -0.008843753 -0.015136115 -0.076907516 -0.06845512 -0.06259825 -0.024548423 0.048847724
-0.037744068 -0.010286048 -0.008718271 -0.015106568 -0.028082684 0.03808592 0.018078815 -0.0152358655
0.021906754 -0.016535044 -0.015759079 0.030464593 -0.033545937 -0.06394494 0.033333343 -0.058002885
-0.020855397 0.03497569 -0.008890312 0.023179589 0.013893845 -0.0057387664 -0.015254408 0.031337034
-0.015226736 -0.032456424 0.048595484 -0.030016338 -0.0085400855 0.021244695 -0.015553956 -0.028973967
0.02125158 -0.013150076 -0.0070697158 0.015929764 -0.023866855 -0.00690865 0.0588161 0.03171873
-0.047259856 -0.029611576 0.0010232028 -0.08503654 -0.03607477 -0.0039579542 -0.0027587055 -0.0027822414
-0.010857668 0.009112964 -0.018574694 -0.0024656323 -0.028277202 -0.05328836 -0.04898593 -0.01794199
0.023182034 -0.038560513 -0.008599152 -0.009958774 -0.043256503 -0.025188027 0.004220239 -0.045810215
-0.034570355 0.030401995 -0.026672726 -0.01090927 0.03735244 -0.020693092 -0.009296893 0.07651623
0.009962739 0.041821916 0.052870046 -0.011296301 0.00764841 -0.006708029 -0.039686378 -0.0014485773
0.019287622 -0.007183324 0.016185729 0.048510045 0.004629954 -0.026531959 -0.005252521 0.018170008

conv2.bias f4 [64]
00000000: b96e a13d f589 6abd 979a 253c 0383 1c3c
00000010: aff3 b7bc 50c7 39bb 0122 3f3d a5bb 3dbd
00000020: fa65 83bd cbac 2fbd 5d79 6ebd 4063 713c
00000030: 4032 b43c 0368 a1bc 83dc 133d 2b57 39bd
00000040: 71dc 163d 942b 8bbb c5e9 b53b 41b9 be3d
00000050: b0cd 123c 6d74 f8bc 3e60 9bbc 88bc 743c
00000060: 1339 2bbc 00f2 b5bc da64 c23c 37ed 19bc
00000070: a598 bd3c e367 cbbd c743 3cbd 84b2 b53d
00000080: 3790 a63c eba7 503d fda3 57bd ba93 3b3c
00000090: bf69 b53a 5fe9 3a3d 6672 bfbd f077 c43d
000000a0: c8b2 87bd 803d bd3d 3f82 61bd 6b82 14bd
000000b0: b3f1 87bc 5583 433d 230b 373b 3018 463d
000000c0: 201f b0bc 5d87 6bbc 738f efbc 8a9a 48bc
000000d0: bff7 143d 53df 3bbc d57f 28bc 73bd abbd
000000e0: 404e ebbc b36c c63b fa4b 1b3d 1f61 c1bc
000000f0: 5d1c 683d 4d17 e13d 2101 0bbc 322f 643d
0.07882447 -0.057260472 0.010107658 0.00955272 -0.022455065 -0.002834756 0.046663288 -0.04632153
-0.06415935 -0.042889398 -0.05822121 0.014733136 0.021996617 -0.019702917 0.03609897 -0.045249145
0.036831323 -0.0042471383 0.005551549 0.09312678 0.0089601725 -0.030328954 -0.01896679 0.0149375275
-0.010450619 -0.022210121 0.02372973 -0.009394935 0.023144076 -0.09931924 -0.045963075 0.0887194
0.020332439 0.05094139 -0.052646626 0.011448795 0.0013840719 0.045632716 -0.09347992 0.09593189
-0.06625897 0.09240246 -0.055055853 -0.03625719 -0.016594743 0.04773267 0.0027930222 0.04836291
-0.021499217 -0.014375535 -0.029243207 -0.012243876 0.03636908 -0.011466819 -0.010284384 -0.08385744
-0.028723836 0.0060554384 0.037914254 -0.023605881 0.056667674 0.109907724 -0.008484156 0.05570907

conv3.weight f4 [64, 64, 3, 3]
00000000: 4a5c 6bbd a785 8bbc 23c8 8b3d f434 85bc
00000010: 9dde a53c 4323 153d 522f 84bc df2a e6bb
00000020: 9e8a 00bd 324f 0fbd 68f5 dabc 4d05 abbb
00000030: 7b0f 14bd 5d5f c5bc 30bb 823d f72d a5ba
00000040: 2a5e 65bc bee8 013d 859f b13c a8de 913c
00000050: 8598 aabc 5d39 62bc ff24 6d3c 7203 333c
00000060: 4af6 97bc 5e3e 16bd 12d4 e0ba 27ca a9bc
00000070: 9714 1fbd 7b2b 1cbd 7246 febc 44cf 41bd
00000080: 0304 80bc 83f9 cabc 0d5b a4bc 0ba3 303d
00000090: 835b 5fbc ceef abbc 050d acbb 491a 90bc
000000a0: 58e9 fab9 a0b0 893c 00a0 793c db48 9d3c
000000b0: 323e 173d db7f 1ebc da4e 4cbc e8e5 d63c
000000c0: 7ace 2bbc cbc7 35bd 7bc3 1f3d 203b e0bb
000000d0: 7285 e0bb ebdd 143d f21f 65bc 0d7c 0e3d
000000e0: c796 8c3d 2527 a53c 20ca d63d bd04 d73d
000000f0: 6bf3 6f3d f567 d63d 1d52 c73d 2f14 e1bb
00000100: cd6c e2bb 3bed 91bb b550 41bc cd1c 08bc
00000110: a2d4 d8bc 3f06 16bc fd26 7abb a2d5 dfbc
00000120: db61 7dbc 7b81 adbc 5138 163c f36d 5c3b
00000130: 1289 ff3b 94fd 163a c0a6 fbbb 1808 f23c
00000140: 2dca 373c 6208 35bd c221 d9bd 91dc 80bd
00000150: 2224 34bd a212 8dbd a7f1 2cbd f22e 163c
00000160: 7320 80bc 37ae 74bc 612d 193c 0ac3 c0bc
00000170: 1e7e 38bc 3a1d a5bc 389d 6fbc 96c3 4abc
00000180: 5891 5cbc ef1e 12bd d013 2b3b 2dd7 71bd
00000190: 48e5 34bd 3742 d93c 9d59 78bd 52e0 b63b
000001a0: cb9a 773d 0fc3 1dbd 5af3 2d3d c008 dd3c
000001b0: db29 06bd 6afb 4cbc b5c0 483c 128e 55bd
000001c0: 426e 53bd 0a1f 583c 3583 b4bc 2cd3 adbb
000001d0: 227c 613c 6a8e bcbd cd80 5bbd 0085 d1bc
000001e0: f05a 45bc 089f 76bd 3398 68bd 5ff3 0abc
000001f0: 704d 893c 25cf 5fba bb33 3fbc 23ac 0dbb
00000200: 1737 81bc 8349 7f3a 62ca b7bb ff7f c3bb
00000210: f2e7 f13b 2d24 dfbb 21dd aa3c 900b 173a
00000220: 20cf 83bc 5c84 02bd cde3 9ebc 0fbc 5abc
00000230: a9b7 b43b d52b cabc e845 213b f360 ea3a
00000240: facf 023d b09a e2bc d176 40bd aca4 333d
00000250: ace4 bcbc eb1f 74bc 4370 5c3d 47f5 c3bc
00000260: 8869 e2ba 53a4 a0bb 34f5 1fba 8731 d739
00000270: 0415 a03c 9d34 fbbb 533f d2ba 7868 dc3c
00000280: 4007 16b9 efd8 053d 544b 2f3c f060 79bb
00000290: 2366 67bc 406e 47bc a035 003b bba3 b63a
000002a0: 57c5 3b3c 0b6d 69bb d7d0 b1bb 3836 99ba
000002b0: 978b 1d3d 3b35 f63d 42e7 453c a764 d53d
000002c0: 05bc f13d aee8 b33d 08ce ee3d 4c97 ad3c
000002d0: 13a9 72bc 5566 3fbc ed4f 6a3a 9f4f 1cba
000002e0: f492 c8bc 5f86 0cbc 7ddd 64bb a7da 0e3b
000002f0: 61a0 c6bb 561d 43bb 357e 783b 50cc aa3c
00000300: c102 3f3c 6551 1f3d f0a1 e03c 2fc4 203d
00000310: cfa7 863d 1e81 ba3c 0bb3 4d3d c547 e93c
00000320: 3f77 85bc 0522 ab3d b537 32bc 48c4 c4bb
00000330: b5a3 be3d 60b2 0cbd d3b6 083c f740 5c3c
00000340: 6a3f 063c b711 f63c dcfb 17bc d092 d83c
00000350: 33d9 c33c 53b2 a73c 54f7 153d 34fa 183d
00000360: 6b00 853c b338 25bc 6c74 9dbb 2be4 1d3d
00000370: e9bc 003c 2782 13bb 171e 163d ca14 953b
00000380: c5d2 e83c 7fd1 5c3c 9745 113b b248 323c
00000390: 63c9 c23b a169 1bbc 136c 513b 35bd 2e3a
000003a0: 4fc8 9cbb 8b88 92bc 17cf f2bc 6f89 82ba
000003b0: b25c a1bc 0748 dd3b 7e82 c9bb edcf 76bc
000003c0: 7a42 443c df1c 9ebc 273b 943c 628e cbbc
000003d0: 7279 29bc 9846 6fbb a73a aa3b 626a 19bd
000003e0: 6013 173c 9fad f7bb b7da 4abd 4b48 bb3c
000003f0: b5cb edbb ca24 923c f7ee a3bc 4d28 4c3c
-0.05746106 -0.017031504 0.068252824 -0.016260602 0.020247752 0.03641058 -0.016135845 -0.0070241536
-0.031382196 -0.034987636 -0.026728347 -0.0052191378 -0.036147576 -0.024093324 0.063833594 -0.00126022
-0.013999501 0.0317161 0.02168251 0.017806366 -0.02082468 -0.013807622 0.014474153 0.010926114
-0.018550057 -0.03668057 -0.0017153046 -0.020726277 -0.038837995 -0.038127404 -0.03103945 -0.047316805
-0.015626913 -0.02477718 -0.020062948 0.04312424 -0.013632658 -0.020988371 -0.0052505755 -0.017590659
-0.0004785757 0.016807854 0.015235901 0.01919978 0.03692455 -0.009674038 -0.012469972 0.026232675
-0.01048624 -0.04437999 0.039004784 -0.0068429857 -0.0068518454 0.03634445 -0.013984667 0.034786273
0.06864696 0.020160267 0.10487771 0.10498951 0.05858175 0.10469047 0.09732459 -0.006868861
-0.0069099427 -0.004453329 -0.011799027 -0.008307648 -0.026468579 -0.009156763 -0.0038170211 -0.027323548
-0.015465225 -0.021179905 0.0091687 0.003363487 0.0077983225 0.0005759832 -0.0076797903 0.029544875
0.011217636 -0.044197448 -0.10602142 -0.0629207 -0.04397977 -0.068883196 -0.042222645 0.009166466
-0.015640473 -0.014934114 0.009349198 -0.023530502 -0.011260537 -0.020155538 -0.014624886 -0.012375733
-0.013462387 -0.03567403 0.0026104338 -0.0590431 -0.044163972 0.026520832 -0.060632337 0.0055809403
0.060450356 -0.0385161 0.042468406 0.026981711 -0.03275476 -0.012511114 0.012252976 -0.052137442
-0.051618822 0.013190994 -0.02203522 -0.0053047147 0.013762506 -0.09206851 -0.05358963 -0.025576115
-0.012045607 -0.060210258 -0.056785773 -0.008480876 0.016760558 -0.0008537642 -0.011670048 -0.0021617494
-0.01577334 0.0009738432 -0.0056088427 -0.005966186 0.0073823864 -0.0068097324 0.020857396 0.0005761916
-0.016089976 -0.03186451 -0.019395733 -0.013350501 0.005515058 -0.024679104 0.0024608318 0.0017881676
0.031936623 -0.027661651 -0.046988312 0.043858215 -0.023058258 -0.014900188 0.053818 -0.023920668
-0.0017273882 -0.0049024015 -0.0006101907 0.00041044896 0.019541271 -0.007666184 -0.0016040601 0.026905283
-0.00014307816 0.032677587 0.010699112 -0.0038052164 -0.014123472 -0.012172282 0.0019563213 0.0013934294
0.011460624 -0.0035617973 -0.005426507 -0.0011689132 0.0384632 0.12021872 0.012079062 0.104195885
0.1180344 0.087846145 0.11660391 0.021190308 -0.014810818 -0.011682113 0.00089383015 -0.0005962792
-0.024484135 -0.008576958 -0.0034922056 0.0021797807 -0.006061599 -0.0029772124 0.0037917022 0.020849377
0.011658371 0.038895983 0.027420968 0.039249595 0.06574976 0.022766646 0.050219577 0.028476605
-0.016292213 0.08356098 -0.010877539 -0.006004844 0.093085684 -0.0343498 0.00834437 0.013443223
0.00819383 0.030037744 -0.009276357 0.026437193 0.02390728 0.020470774 0.036612824 0.037347987
0.01623555 -0.010084319 -0.0048051383 0.038547676 0.00785754 -0.0022507997 0.03664979 0.0045495974
0.028420815 0.013477682 0.0022166723 0.01088159 0.0059444173 -0.009485633 0.0031955286 0.0006665767
-0.004784621 -0.017887374 -0.029639764 -0.0009959171 -0.01969752 0.006752971 -0.006149589 -0.015064222
0.01197874 -0.019300876 0.018094612 -0.024848167 -0.010343896 -0.0036510583 0.00519498 -0.03745497
0.009220928 -0.007558539 -0.04952499 0.02286162 -0.00725695 0.017839808 -0.020011408 0.01246078

conv3.bias f4 [64]
00000000: 754f 463c e311 8cbd 8a77 d9bb 55b4 db3c
00000010: 3f07 babb 70fa 6a3b ffd0 6a3c 635f 2b3c
00000020: 1a47 803d b5f8 8ebb b7cb dcbc 50bb 7c3d
00000030: c369 72bb 37b0 b6bc 5239 4dbb 7496 033a
00000040: ff51 6e3d c597 e53d 8aee 70ba cf89 32bc
00000050: f655 b3bc 2589 883a c5ff e23d 379a d7bc
00000060: 1f78 7cbb fc95 bb3d 43ab debb 955b 3a3c
00000070: b897 2ebc d821 f4bb 288b 71bc 504e 1ebc
00000080: 3717 a7bc 3389 c53b 6449 40bb 05cd abb9
00000090: b73c c33c e1da 85bc 0a25 27bc 67aa c73d
000000a0: 1dbf 803c 83a1 e5bb ef47 e7bc 3817 e2bb
000000b0: b328 8dba 5bd2 783d fbe3 d8bb 0f4f a33c
000000c0: 68f3 da3b 105e 863d 6278 b43b cdf4 f7bb
000000d0: f08b f13c 1710 c4bd c2df 38bc 9504 0ebb
000000e0: 8a7e ecba 3735 743d 0343 3a3d 0c5f 003e
000000f0: 3096 5abd 000a 0c3c c10a adbc c872 30bc
0.012103905 -0.06839349 -0.0066365646 0.026819387 -0.0056771333 0.0035854839 0.014332055 0.010459754
0.062635615 -0.0043631443 -0.026952608 0.061702073 -0.0036989308 -0.022300823 -0.0031314683 0.00050196727
0.058183666 0.11210588 -0.00091908185 -0.010897114 -0.021891575 0.0010416849 0.110839404 -0.026318653
-0.0038523746 0.091594666 -0.0067953183 0.011374374 -0.01065629 -0.0074503236 -0.01474265 -0.009662226
-0.020396812 0.0060283183 -0.002934062 -0.00032768413 0.023832662 -0.016339721 -0.010201702 0.097492985
0.01571613 -0.007007779 -0.028232543 -0.0068997405 -0.0010769576 0.060747486 -0.0066189743 0.019935159
0.0066818483 0.0656091 0.005507515 -0.0075670243 0.029485673 -0.095733814 -0.011283817 -0.0021670212
-0.0018043083 0.059621062 0.045474064 0.12536258 -0.053365886 0.008547306 -0.021123292 -0.0107695535

fc1.weight f4 [64, 1024]
00000000: 9d25 fbbc 2f03 b3bc 788f d03c 6af5 3d3d
00000010: e28f 38bd d319 2fbd 2fb2 e1bc d192 84bc
00000020: 632d b5bc 6a90 2abd b325 1dbd 7712 43bd
00000030: ffb5 4bbd 5dda f1bc 28fc dbba aa7e f0bc
00000040: b2a5 d73c 3975 94ba 5f1f 43bc 405e ad3c
00000050: 87e7 45bb 08e5 ffba 7923 443b f3ed 5abc
00000060: 901a 4dbc 33d1 363c 0ff1 f4bb b9c7 00bc
00000070: b20d cdbc 5006 73bc 6c31 c1bc c3c4 febb
00000080: b81b 08bc 531a cebc ddfd bdbb 5d53 3fbc
00000090: 9d1a 1bbb 775d 87bb 7f66 30bb 7ddc c03b
000000a0: 621b 6dbc 6aef 64ba 5b8c e2bb 4333 a2bb
000000b0: f00f 99bc 5327 e9bb c5eb f5ba 93ee 31bc
000000c0: ba21 56bc 2089 9bbc a547 ff3b 1237 d53c
000000d0: 0a82 d03c 2362 6f3c 5787 d63c fabe 753d
000000e0: 6550 2b3b bf09 0dbc 1def 003c f34b c33c
000000f0: 0e73 97bc 4328 d7bc 0ec3 48bc ede5 1bbc
00000100: 8f03 8ebc ab18 9d3a 70c5 4bbc ad3b febb
00000110: d711 23bc efdd 63bc 67f4 1a3c c792 59ba
00000120: 2f88 3f3b da6b f4bb 3268 76bb 2f43 a2bb
00000130: 6ac4 953c 1bf5 75b9 1a2b 8a3b e77a 58bc
00000140: 8faf 74bc e225 4139 943d 493c 5a67 10bc
00000150: 7719 13bc dff7 5bbc 8f03 ccbb f2e5 39bc
00000160: 999e bdbc ef58 84bc 42dd 9ebc 2d30 1bbc
00000170: 6fc7 923a 5597 7dbb 9474 45ba 456b 843b
00000180: d06c 5f3d 3389 bd3c 2d01 1b3d 1da1 513b
00000190: e537 01bc 287a fcbb d1a7 1fbc d3c7 9c3c
000001a0: 90b1 3d3c a77e 363d 7743 093d 407b 133d
000001b0: 5b3e 103d ea3e 9a3d ddc7 903d 2435 813d
000001c0: 1cd4 aa3b 072b a33a 23de 7aba f23d 37bc
000001d0: b7b8 e9bb 6bc8 5bbb 1b20 12bc 073d 59bc
000001e0: dc41 8fbb 027f 5cbc b71f 45bb 4346 41bc
000001f0: c482 a5ba 7541 28bc 3708 823a 2b27 a73b
00000200: fbce 84bd c1a1 00bd 86ea 2cbd 80d3 33bd
00000210: 4a78 98bd 8fb8 1cbd 9546 e3bc 2b47 7ebc
00000220: e8c4 d73c 5b89 e83c 9727 1a3d 2445 963d
00000230: f7ec f53d ab89 0d3e 6bd0 eb3d 9364 c33d
00000240: 7714 163b 3dd5 63bc 90a3 b4bb e503 1d3b
00000250: 5b35 6ebc cbc3 adb6 4bc9 533a 6174 20ba
00000260: 1ba3 a6bc 0894 14bc e840 1dbc c5af 80bc
00000270: ba37 50bb 2506 d9bb c9e9 14bc 2775 df3a
00000280: aa3f 46bc 7598 d3bb ed30 ef3b ea93 56bc
00000290: f29a cf3b a7ee 7f3b 136c 303c 0ac3 e4bb
000002a0: dbae c5bb f7d6 043b 5a51 d73a 0d9e 4fbc
000002b0: eb46 50bc 1f2c 3fbc 0ad7 733a 9914 983a
000002c0: 17f1 5d3d 25a5 243d 774d 88bc 634f 43bc
000002d0: 00d3 733d 7b66 073d 0be5 193c e8b3 043c
000002e0: a40e 3a3d fbac 9c3c 6541 21bc db2e 573b
000002f0: c443 323d 625b 753c 9bb1 453c 36a9 253b
00000300: 0f19 9ebc d529 91bc 50c1 7abb 78e6 83bb
00000310: 1de2 76bb 0b12 58bc 9ded e9ba d396 59bc
00000320: 1848 85bb b44d 84bc 1f0e 48bc 7b20 773b
00000330: ebbe 0c3b 1fbd 4dbc 3d82 78ba d059 9ebb
00000340: c41e a1ba e43a 35bc f589 003a dc22 8b3a
00000350: e37d fa3a d3c1 cfbb 4773 b8bc 0022 0e3c
00000360: 5008 7dbb d2f1 28b9 b0af d93b e2d7 90bc
00000370: f510 823a 5c54 89bb 7015 8dbb bbae 9e3b
00000380: 9744 64bc 534a 4f3c 82db 8b3b 50b1 8c3b
00000390: 341e 133c 7259 55bc 80fa b7bb 555b 89b9
000003a0: fd67 f73a 4b9a 543b ebd2 d13a 179b c4bb
000003b0: 7f78 af3c b5a1 cb3b f332 56bb 0db4 b43b
000003c0: cb0c 76bc 5b5c 80bb e452 b2bb cab4 b2bb
000003d0: d760 48bb 272e 16bc c27e e63b eb39 99bb
000003e0: ab79 1cbc ef75 d03a 02cf ebba 1a5e cc3b
000003f0: cfa0 91bb 8b99 c53a 8b60 abbb c841 04bc
-0.030657584 -0.021852104 0.025459036 0.046376623 -0.045059092 -0.042749237 -0.027550785 -0.016183289
-0.022116369 -0.04164163 -0.03836603 -0.04762503 -0.049734112 -0.029523069 -0.0016783522 -0.029357273
0.026324127 -0.0011326439 -0.011909335 0.021163106 -0.0030197816 -0.0019523213 0.002992837 -0.013362396
-0.01251854 0.011158275 -0.0074750255 -0.007860118 -0.025030944 -0.014833048 -0.023583136 -0.0077749207
-0.00830739 -0.025159037 -0.005798085 -0.01167759 -0.0023666986 -0.004131015 -0.0026916561 0.0058856593
-0.014471861 -0.0008733185 -0.0069137043 -0.0049499585 -0.018684357 -0.0071152835 -0.0018762281 -0.010860103
-0.0130695645 -0.018986285 0.007790523 0.026027236 0.025452632 0.0146108 0.026187582 0.059996583
0.0026140448 -0.008608281 0.007869509 0.023839926 -0.01848748 -0.026264315 -0.012253536 -0.009515268
-0.017335681 0.0011985501 -0.0124372095 -0.0077585788 -0.009952984 -0.013907894 0.009457684 -0.00082997646
0.002922546 -0.007459146 -0.0037598726 -0.0049518566 0.018282134 -0.0002345633 0.004216564 -0.013212896
-0.014934435 0.00018420027 0.012282748 -0.008813703 -0.008978239 -0.013425796 -0.00622601 -0.011346327
-0.023146914 -0.016155688 -0.019392613 -0.009471935 0.0011198352 -0.0038694937 -0.0007532325 0.004041108
0.05454713 0.02313671 0.03784292 0.00319869 -0.007886861 -0.007704992 -0.0097446 0.019138252
0.011577979 0.04455438 0.033511605 0.036006212 0.035215717 0.07531531 0.07069371 0.06308964
0.0052132737 0.0012448736 -0.0009569844 -0.0111842025 -0.0071326154 -0.0033536206 -0.008918787 -0.013259179
-0.0043718647 -0.013458015 -0.0030078718 -0.011796537 -0.0012627472 -0.010269512 0.0009920661 0.0051011047
-0.06484791 -0.03140426 -0.042215846 -0.043902874 -0.07444818 -0.038261946 -0.027743617 -0.015519897
0.02633901 0.028385809 0.037635412 0.07337406 0.12008088 0.13822047 0.11514362 0.095406674
0.0022900382 -0.01390582 -0.005512662 0.002395862 -0.014539088 -5.178595e-06 0.0008079006 -0.00061208574
-0.020341447 -0.0090684965 -0.009597994 -0.015708813 -0.0031771497 -0.006623047 -0.009088942 0.0017048464
-0.01210014 -0.0064573833 0.0072995336 -0.013096789 0.0063356096 0.003905216 0.010767954 -0.0069812583
-0.0060328073 0.002026973 0.0016427443 -0.01267196 -0.012712221 -0.011668234 0.00093017577 0.0011602818
0.054185 0.040196557 -0.0166385 -0.011920783 0.059527397 0.033056717 0.009392987 0.008099534
0.04542412 0.019125452 -0.009842251 0.0032834325 0.043521658 0.014975401 0.01206627 0.002527786
-0.019299058 -0.017720142 -0.0038262196 -0.0040252768 -0.0037671395 -0.0131878955 -0.0017847304 -0.013280588
-0.004067432 -0.016150333 -0.012210398 0.003770857 0.00214761 -0.012557297 -0.0009479856 -0.004832484
-0.0012292494 -0.011061404 0.00049033697 0.0010615247 0.0019111003 -0.0063402443 -0.022515906 0.008675098
-0.003860969 -0.00016111814 0.006643258 -0.017681066 0.0009923266 -0.0041909646 -0.004305534 0.004842607
-0.013932369 0.012651998 0.0042681107 0.0042935982 0.008979369 -0.013021814 -0.0056145787 -0.00026198724
0.0018875595 0.0032440599 0.0016008293 -0.0059999335 0.021419762 0.0062143453 -0.0032684177 0.005514628
-0.0150176985 -0.0039172596 -0.0054420102 -0.0054536806 -0.00305753 -0.009166277 0.0070341537 -0.004676094
-0.009550492 0.0015904288 -0.001799077 0.0062368037 -0.0044442187 0.0015075667 -0.0052300147 -0.008072324

fc1.bias f4 [64]
00000000: 4092 03bc b135 c5bc ed19 5abd 022f 5d3d
00000010: 9593 8abb 0730 e4bd db25 bbba 98f5 5a3b
00000020: 5dfa 7a3a ba01 153c 1546 dabb a579 bf39
00000030: 9df6 f3bb 9759 37bb 8fdd 8ebd 510b a2bc
00000040: ddca 0ebb e0b2 70bd 2f93 88bb c76e b7bb
00000050: e015 093b 9798 083b 9afe 883c 48aa 8ebc
00000060: 1f54 103a 9db3 dc3b b1c8 94bb 826d c1bc
00000070: 2267 af3b 7acc 59bd 7bfd 1c3c eddb 05bc
00000080: 6420 263c 0223 5ebc 1b13 693a adef ce3d
00000090: 5045 88ba 4927 b2b9 0e1f 383d 4031 8dbd
000000a0: b09e 5d3d 35a4 2fbd d765 9dba 511c b9bc
000000b0: c5ce b23b f3f5 6dbb 3580 8f3d c893 8bbc
000000c0: 4b6f 463c 41bb 09bc e060 edb9 7a3b 943d
000000d0: 7f63 87bc a4d0 3fbc 9d33 bdbb f2e7 42bd
000000e0: 10c8 65bc 0ff9 4dbd 3eaa bebc 0020 863d
000000f0: aaa5 d0bc 5afd 52b9 0b16 b7bb 51ae 843a
-0.008030474 -0.024073454 -0.05324738 0.05399991 -0.004229019 -0.11141973 -0.001427825 0.0033410545
0.000957405 0.00909465 -0.0066611865 0.0003652099 -0.00744517 -0.0027976984 -0.06975853 -0.019780787
-0.0021788396 -0.05876434 -0.0041679363 -0.0055979225 0.002091758 0.0020842904 0.016722966 -0.01741518
0.0005505699 0.0067352788 -0.004540526 -0.023611788 0.0053528706 -0.05317352 0.009581919 -0.00817011
0.010139558 -0.013558151 0.00088910916 0.10104308 -0.0010396633 -0.00033980075 0.04495149 -0.06894159
0.054106414 -0.04288121 -0.00120085 -0.02259651 0.0054567778 -0.0036309927 0.070068754 -0.017038241
0.012111495 -0.008406461 -0.0004527634 0.07237907 -0.016526936 -0.011707459 -0.005773975 -0.04758448
-0.014024749 -0.05028635 -0.023274537 0.06549072 -0.02546962 -0.00020121541 -0.0055873445 0.0010122751

fc2.weight f4 [10, 64]
00000000: 69de 893d 589f 993d 5830 d5bc bdb3 bebc
00000010: e089 65bc 579e 223c e5ba 98bb d356 95bd
00000020: b525 edbc dbbd 12bd a714 81bd 8a50 1d3d
00000030: 1078 633c 475d 7d3d 1460 b23c 679c 3f3c
00000040: 9b01 0bbd 9807 803c 87fc adbc 1a4a 193d
00000050: 0ac8 9f3b 8366 8a3c 4bd9 d1bc 985d f4ba
00000060: 4d20 aa3c 6a01 b2bd 652d f93c c9e7 1abc
00000070: 85ea 733d 6548 6f3d 0ad2 1f3c bfcf 4bbc
00000080: 7b41 c0bc 88de 05bc 1564 283d 302c 64bd
00000090: e378 dc3c daae cbbc 5dc5 0fbd f8cb 9c3d
000000a0: 81af 4abd b79f 46bc 7cdb 2bbd 7810 e23d
000000b0: c3aa 15bd 0558 d1bc 435f 113d 0270 d03c
000000c0: 0853 d7bc 3f98 973b 1247 eebc 1247 17bd
000000d0: 906b d23c 5a84 8e3d 757e b13c ed8a 5d3c
000000e0: 457e 753d b78b d93a 825e 313d 7b4a 283d
000000f0: 7ad5 21bd 2f3c 53bd ffaf 033c 0256 9cbb
00000100: 7d25 f6bc a30a 06b9 95e5 dc3c 88d8 80bd
00000110: 0854 da3c 5c6e 873c ddae 8e3c 6afa 58bd
00000120: b7cc 6f3c 2873 b8bb cd8d cfbc 3a11 6a3d
00000130: 3264 9abd af8a 97bc ff8d 9ebc 0f7e 123c
00000140: ba2d b33c 8943 273c 5094 57bb 0750 dc3d
00000150: 301a 09bd bced acbc 62c0 7e3d 0cdf c23c
00000160: c308 cfbb fbc6 363d 8023 1b3c c213 553b
00000170: 2f98 c7bc 9447 cb3d 90f2 a7bd 3530 cdbc
00000180: b4a4 3b3d eae8 1f3c 097a aa3c 7355 23bc
00000190: 3353 18bb 4b32 113c f2e4 633d 2dc4 ee3d
000001a0: c8e6 debc 9d55 963c 7381 5b3d c260 08be
000001b0: ca57 00bd 234a a53c 2d37 77bd 8361 d3bc
000001c0: 0740 6ebd 4f0b 913b 9f33 c539 9109 aebd
000001d0: c8ec 193d 23ef 5e3c 0f8e c5bc 7e9a 473d
000001e0: 1504 c3bc 5a6b 6a3d 7f50 373c 9b12 1fbb
000001f0: 6783 d8bc 6d70 263d 477a 03bc b787 033d
00000200: 0799 febb 05d9 943c b260 89bb c2e4 a43c
00000210: b397 893b 1f9a 31bd 9776 a0bd d25f 793b
00000220: 3715 2f3c 2041 30bd 0d74 cd3b 3dc7 573d
00000230: 0aa8 ca3b 885d c93b 3af9 7f3d 67f5 853c
00000240: fd92 bdbc 00de c83b cb82 31bd b37e 353b
00000250: 5757 5dbd 8747 57bc ad4b 983d 0c7e 883c
00000260: 1173 07bb e15f 303d e79a a43c 98c1 48bd
00000270: 0bf2 9abc 7b38 7cbd 03b5 e8bc 1087 38bd
00000280: 6514 4e3c dfee a1bc d1f1 8f3c 3d66 8c3d
00000290: 5b8e 973c 58ee ef3c 83d4 debc a372 31bd
000002a0: 37bb f13c c3e9 cdbd 336a 3a3d 18b2 523d
000002b0: b29c a0bb c2a8 7d3c e3f1 bf3d b2c3 77bd
000002c0: f4ff 0dbc 8b95 7a3a 6a6f 7b3c 2bab f33c
000002d0: 6dfb 613c 60f7 843c 27d2 7fbc 33f9 53bd
000002e0: 63e0 4b3c 4875 843d e38e e2bb caff d739
000002f0: a2d8 d8ba 130c 2cbd 8594 c0bc 8c8d 82bc
00000300: ea9b 643d f25b 07be c3a8 12bd f02c d23b
00000310: 8df6 51bd 9bcf 613c 28a3 2c3d 3d7a 463d
00000320: 8283 78bd 7587 25bd d87f 80bc 2223 113d
00000330: cf40 ce38 fb5a 5e3d 42f3 78bc e79b 0fbc
00000340: 8515 ef3c 6734 c1bc e581 3cbd 0fc6 01bd
00000350: fb52 153c ed13 063d 7758 5c3c 4b0d 643b
00000360: 5a5f 1dbd 5462 833c e0df 10bd f27c 893d
00000370: 7588 273c f3d7 44bc 3a5a 68bc d878 b23c
00000380: 8f59 bdbd c897 67bc 7cbb 863d 6d50 e63c
00000390: bff3 a6bc 2af3 ea3c 4b45 3abc f284 7cbd
000003a0: f4f4 843a 4c91 23bd 2b7a a0bc 57e2 01ba
000003b0: 62ea fcbc 8764 fc3c a30e 2dbc 97ae 22bd
000003c0: 7f38 203c d16d 823c 00ae 883c 68a5 7b3c
000003d0: d0e0 363d e0ca f9ba 8bea f6bc 5e58 883c
000003e0: faa7 63bd 28e2 a53c c765 31bd 6c1a 9d3d
000003f0: b0f2 d9bc bb90 3ebd bab5 bdbc 7f7e dabb
0.067318745 0.075010955 -0.026024029 -0.023279065 -0.014009923 0.0099254465 -0.0046609514 -0.07291951
-0.028948644 -0.03582559 -0.06302767 0.038406886 0.013883606 0.061856534 0.02177433 0.011695004
-0.033937078 0.015628621 -0.021238578 0.037424184 0.0048761414 0.016894585 -0.025616309 -0.0018643616
0.020767355 -0.08691676 0.030417154 -0.009454676 0.059549827 0.05841865 0.009754667 -0.012439667
-0.023468724 -0.008170731 0.04111107 -0.055706203 0.026913112 -0.02486365 -0.03510033 0.076560915
-0.04948378 -0.01212304 -0.041957363 0.110382974 -0.036539804 -0.025554666 0.03549124 0.025444034
-0.02628471 0.0046263034 -0.029086623 -0.036933012 0.025686055 0.06958838 0.021666745 0.013521892
0.059934873 0.0016597424 0.04330302 0.041086655 -0.039510228 -0.051571067 0.008037566 -0.004770995
-0.030047173 -0.00012783198 0.026964942 -0.062913 0.026651397 0.016532116 0.017417366 -0.05297319
0.01463621 -0.005628962 -0.02533617 0.057145335 -0.07538642 -0.018498747 -0.019354818 0.0089411875
0.02187239 0.010208973 -0.0032894798 0.107574515 -0.03347224 -0.021109454 0.06219519 0.023787998
-0.006318183 0.044623356 0.009468913 0.0032512997 -0.024364559 0.09925762 -0.08200562 -0.025047401
0.04581137 0.009760121 0.020810144 -0.009969103 -0.002324295 0.008862088 0.05563826 0.11658511
-0.027209654 0.01835137 0.05359025 -0.1331816 -0.031333722 0.020176953 -0.060355354 -0.025803333
-0.05816653 0.004426397 0.0003761323 -0.084979184 0.037579328 0.013606819 -0.02411559 0.04873132
-0.023805657 0.057231285 0.011188625 -0.0024272564 -0.026429845 0.04063456 -0.008024759 0.03211185
-0.007769707 0.01816989 -0.004192435 0.020128611 0.004198992 -0.043359872 -0.07835119 0.0038051498
0.01068621 -0.043030858 0.006269938 0.052680243 0.0061845826 0.006145183 0.06249354 0.016352369
-0.023141379 0.00612998 -0.043337625 0.0027693927 -0.054038372 -0.013139612 0.07436309 0.016661666
-0.002066795 0.043060187 0.020093394 -0.04901275 -0.018914243 -0.0615773 -0.028406626 -0.04505068
0.012578105 -0.019767223 0.017571362 0.06855438 0.018500498 0.029288456 -0.027200943 -0.043322217
0.029508216 -0.10054352 0.045511436 0.051439375 -0.004901492 0.0154821295 0.09372308 -0.060489364
-0.008666981 0.0009559027 0.015346387 0.029744705 0.013792855 0.016231239 -0.015614069 -0.051751327
0.012443635 0.06467682 -0.006914006 0.00041198573 -0.0016544054 -0.042003702 -0.02350832 -0.015936635
0.055812754 -0.13218668 -0.035805475 0.0064140484 -0.05126052 0.013782407 0.042147785 0.04845642
-0.06067229 -0.040412385 -0.01568596 0.035433896 9.834917e-05 0.054285984 -0.015194716 -0.008765197
0.029185066 -0.023584558 -0.046022315 -0.031683024 0.009114022 0.032733846 0.013448826 0.0034797962
-0.038421012 0.016038097 -0.035369754 0.067132846 0.010225405 -0.012014377 -0.014181668 0.021786138
-0.092455976 -0.014135309 0.065787286 0.028114522 -0.0203799 0.028680403 -0.01136906 -0.061650224
0.0010143803 -0.039933488 -0.019589504 -0.0004954687 -0.030873481 0.030809654 -0.010562572 -0.039717283
0.009779095 0.015921505 0.016684532 0.01535926 0.04464799 -0.0019057654 -0.030141136 0.0166437
-0.055580117 0.020249441 -0.043309953 0.07671055 -0.02660498 -0.046524744 -0.023157943 -0.0066679115

fc2.bias f4 [10]
00000000: 7b62 99bd 03bc a0bd b2c6 173d a6b6 1f3d
00000010: 7275 063e 3b72 00bd d826 903d e547 16bd
00000020: 56b2 14bd 6a68 d2bc
-0.07489487 -0.078483604 0.037054725 0.038992546 0.1313074 -0.03135894 0.07038659 -0.036689658
-0.036302887 -0.025684554
