torch_to_tf/mnist.onnx (onnx, 88527 bytes, 8 tensors)

conv1.weight f4 [10, 1, 5, 5]
00000000: e81f f13d 08a4 ecbd cf0d f1bd 0965 d7bb
00000010: 4b7e 7ebe 86e2 2c3e 9e2b dfbc f232 a13d
00000020: df34 ee3b 8a7b d9bc f736 1e3e 036a e93d
00000030: a452 303e 0e41 c13c 5e2f 863d 5fe6 553d
00000040: 9722 e63d 0484 a83d 5737 843e bb8b 193e
00000050: 3dbf adbd c912 19be d3be b2bd 390d efbd
00000060: a855 2cbd f4d1 2f3e f7f3 bb3e 41d3 383e
00000070: 66ea c0be 7abc 0abe 9ef5 8c3e 11e2 f03e
00000080: c8cf 1e3e a46b c9be 0793 d3be 716a 453e
00000090: 4c12 ff3e ae18 963b 14d4 6ebd 045d 68be
000000a0: 3b42 ee3e dc50 4d3e f91c 893e af7a 373c
000000b0: ea13 cabd b204 993e 0a32 b83d 2b41 4a3e
000000c0: 0921 3b3d 60e1 923d dcc1 89be 374f debd
000000d0: 39ec 603e bb84 0f3e aaa9 c03e 181c 403e
000000e0: d370 eb3d ff2f 1a3e c199 f03e 5fe3 9f3e
000000f0: 7348 0cbd 425b ac3e 3d6b e13e 8bbf ec3e
00000100: 2fa4 a73c e966 3a3d db96 023e e74d 383e
00000110: fe78 94bd 3857 27be 0496 df3d 73d3 0ebd
00000120: 8bec d63d ec86 06bd 37d4 23bc d277 753d
00000130: 5455 bb3d 24e5 e23d bd8a 3bbe 7307 db3d
00000140: 96c8 1dbe ba4f 26be 87c5 83bb c292 0ebd
00000150: 439f fa3d 85e7 08be 590f 4bbe baa7 023e
00000160: 19ef 08bd 8481 d73d f06e 103d 8b96 26be
00000170: 221b 213d 7ef7 3d3d 6672 19be 5edd edbd
00000180: 5431 993d da19 2c3d d94e c5bd d2d5 b1bd
00000190: 4fc4 b73e b3bf 213e d360 8b3e 4912 e43d
000001a0: 87b2 5dbe cae4 a03d 33de 223f 6a83 ec3e
000001b0: 3068 c53e ca39 283e 7d67 dc3e 1d79 493f
000001c0: e853 413f 7c25 2b3e 6494 813e ffea ca3e
000001d0: 570e 0a3f dc70 ce3e 8917 8d3b 1375 9c3c
000001e0: adbb e3bd ceca a23d 47e9 663e 6264 ddbd
000001f0: 07fc 563e a004 0abe 4ba9 70be f226 e73b
00000200: 3c9a ad3e ed8c d93e 9d0f cfbb 1be1 493e
00000210: 81dd ed3e 8a2a 0b3f 8e7c d93e 0dd6 a33e
00000220: b266 9f3e e221 a03e 92b6 2a3e a2fd 5d3c
00000230: 2bef 40bd f460 ec3a c9e0 c9bc 704a 783e
00000240: 54ea 3a3e 78e9 0cbe c76c 57bc b4cd 643d
00000250: 0397 3f3e 2fc5 543e a3cf 8abd 5813 483e
00000260: 64c8 ab3c 4a23 803d 49b9 24be a09d 26be
00000270: 2cc7 04be 5d47 12bd 8b11 573e 8e60 74bd
00000280: 43df 3ebe 9fa5 a93d c843 0f3e cc53 4e3e
00000290: 263b dbbd 4021 453d cc0a 12bd 0b2b 3d3d
000002a0: a2e3 a0bd 101e 74bd af56 26bc 4376 1b3e
000002b0: 8999 0b3e c4f4 153e 011a 8c3e aa67 783e
000002c0: 77c2 273e db6a 0d3c de79 23be b01b f23d
000002d0: 9125 9ebc 0856 9bbc 6c9e 48be 7b0a c7bd
000002e0: 3e59 46be 952d 493e 23df 31be d0c3 3abe
000002f0: 86dd 79bd c6f8 1abe 7075 ff3d 2ffa f5bb
00000300: 87fc 9fbc 4234 a03d a028 683e cdb0 4dbd
00000310: 8590 7a3e 5cef 993e 3797 ab3e f7ad c9bc
00000320: 8c86 0a3d 9697 33be 87d5 2d3e cf1b 03bc
00000330: 72fd 733e 40a1 003d 6d02 4f3c 31d2 893d
00000340: bc02 3f3e 70a0 923e f6b9 a63d 8863 da3d
00000350: 1b26 d3bd d83d 9b3e 382e c33e d8f4 273e
00000360: ce2a f93d e705 22be ccff 40bb 2ddd a73e
00000370: b248 8cbe 1f2e 6d3d 1e71 71be 8a66 18be
00000380: 461a 2f3e 5632 e2bd ce5e 383d 1f97 b43e
00000390: 3b4b db3e bda9 d63e 4b98 a3bb 2758 a5bd
000003a0: 1559 cb3e a280 433e 69c6 ce3d ff36 433d
000003b0: cf84 06be 53ad 4e3e c401 533e 4970 c1bd
000003c0: d920 47be a711 56bd d0e1 853d 601e f7bb
000003d0: 662f c3bd 531e 43bd f845 83be 56f9 4cbe
000003e0: c0b5 2cbe 5ecb 253e
0.11773664 -0.11554724 -0.11770212 -0.0065733236 -0.24852864 0.16883287 -0.027242478 0.07871045
0.0072694863 -0.026548166 0.15450655 0.11397173 0.17219025 0.02359059 0.06552003 0.052221652
0.11237066 0.08228305 0.2582347 0.14994709 -0.084837414 -0.14948572 -0.08727803 -0.11672444
-0.042073876 0.17169935 0.36709568 0.18049337 -0.37678832 -0.1354846 0.2753114 0.47047475
0.1550895 -0.39339936 -0.4132311 0.19278885 0.49818647 0.0045805788 -0.058307722 -0.22691733
0.46534905 0.20050377 0.26779917 0.011198684 -0.098670796 0.29886395 0.08993919 0.19751422
0.0456858 0.07171893 -0.26905715 -0.10854953 0.21965112 0.14015476 0.37629443 0.18760717
0.11496129 0.15057372 0.46992305 0.31228158 -0.03424878 0.33663374 0.4402713 0.46239886
0.020464031 0.0455083 0.1275286 0.17998467 -0.0724964 -0.16341865 0.10917285 -0.034869622
0.10494336 -0.032843515 -0.009999326 0.059928723 0.091471344 0.11078861 -0.18314643 0.1069478
-0.15408549 -0.16241351 -0.00402135 -0.034807928 0.12237408 -0.13369568 -0.19830073 0.12759295
-0.033431146 0.1052275 0.03526205 -0.16268365 0.039332516 0.046378605 -0.14985046 -0.11614488
0.07480112 0.04201684 -0.096341796 -0.08683361 0.3589196 0.15795784 0.2722231 0.111363
-0.21650134 0.07856138 0.636203 0.4619401 0.3855605 0.16428295 0.43047705 0.7870043
0.75518656 0.16713518 0.25308526 0.39632413 0.5392813 0.4032048 0.004305784 0.019098794
-0.11119781 0.07948838 0.22549926 -0.10810162 0.20994578 -0.13478327 -0.2350208 0.007054203
0.33906734 0.4249033 -0.006319 0.19714777 0.46458057 0.54361784 0.4247784 0.31999245
0.31133038 0.3127585 0.16671208 0.01354924 -0.04710309 0.0018034265 -0.024643319 0.24247146
0.18253452 -0.13760936 -0.013148493 0.055860236 0.1870995 0.20778345 -0.06777885 0.19538629
0.020969577 0.06256731 -0.16086306 -0.16271067 -0.12966603 -0.03571259 0.21002786 -0.059662394
-0.18639855 0.08283543 0.139907 0.20149153 -0.10704641 0.048127413 -0.035654828 0.046183627
-0.078559175 -0.059598982 -0.010152503 0.15181832 0.13632788 0.14644152 0.2736359 0.24258295
0.16382776 0.008631433 -0.15964457 0.11821687 -0.019305022 -0.018961921 -0.19591683 -0.09718796
-0.1936998 0.19646294 -0.17370276 -0.18238759 -0.061002277 -0.15133962 0.12473571 -0.007506631
-0.019529594 0.078224674 0.22671747 -0.05021744 0.24469192 0.3006543 0.33513805 -0.024619086
0.03381972 -0.17538294 0.16975985 -0.008002236 0.2382715 0.03140378 0.012634856 0.06729544
0.18653387 0.2863803 0.08140938 0.10663515 -0.103100024 0.3032062 0.381212 0.16401994
0.121663675 -0.15822564 -0.0029449342 0.3278593 -0.27399212 0.057905313 -0.23578307 -0.14882866
0.17099866 -0.11044757 0.045012288 0.35271546 0.42830834 0.41926375 -0.00499252 -0.08073454
0.39716402 0.19092038 0.100964375 0.04765987 -0.131366 0.20183305 0.20606142 -0.09445245
-0.19446124 -0.05226293 0.06537211 -0.007541463 -0.09530525 -0.04763634 -0.2563932 -0.20016989
-0.16866207 0.1619086

conv1.bias f4 [10]
00000000: 4b70 4f3e 0695 7dbc ad3e 033e 0e3a f33d
00000010: 632c 843e 9aea 4f3d 0c79 113e a13b 163e
00000020: b275 203d ce25 b53d
0.2025768 -0.0154774245 0.12816878 0.118763074 0.25815114 0.050760843 0.14206332 0.14671184
0.039174743 0.08845101

conv2.weight f4 [20, 10, 5, 5]
00000000: 3a25 4a3d 7971 113d f7a8 7abd 8783 3a3d
00000010: ba51 5a3c aaeb 17bd ccf9 f93c fe1b 5ebd
00000020: 76a2 973d ebaf e1bb c3cc bf3c 2c4d c13c
00000030: 5c68 dd3c 4bfb a13d c82b 5f3c d43c 2bbd
00000040: 5311 86bd 2b09 0cbc 6ffc 1abd 1bb1 07bc
00000050: 5bde 43bc e0a7 163d e7fb 983d 807c e53c
00000060: 7e4e cdbc b4d0 83bc 0d43 adbd e7c9 1a3c
00000070: efbb 43bc 0796 403d eb27 6a3c 6c89 8abd
00000080: 6c64 ac3c 112d 3a3d b710 2d3d 9061 52bd
00000090: 7010 37bd 7b8b 083c b044 5bbd 61d5 85bd
000000a0: 8de6 58bc 6825 b03c 2a8e 353d 9471 94bd
000000b0: 9f05 cbbd b124 9f3c a28e fd3b d5c6 993d
000000c0: 4e72 5fbc 92e6 e63a 2e9a 24bd 8fbe 4abd
000000d0: 68a9 3fbd a5ea b13c 4c90 9f3d 570c cebd
000000e0: 7b4f 06bd 4c9f 913d b993 b63d 30e7 873d
000000f0: 13eb 7bbc a082 7b3d 7447 a03d 83e1 3d3d
00000100: fc5c a23d 6790 643c fbd1 263c a1ea d23a
00000110: af16 aabd 1cd4 34bd d5c5 463d 8350 39bc
00000120: 5f25 a7bc 4782 b2bd a9a7 12bd 2570 8bbc
00000130: 5993 05bd dabf f0bc 2d1d 9b3c d0cd 913b
00000140: 2aca 0cbd 9489 29bd 3164 41bd c8d7 733d
00000150: 3e4e 8cbc eba0 63bc 96c8 27bc e0cc b7bc
00000160: c02d 5dbd 2bcf 07bd e8fe 393d 3a5c 7d3c
00000170: 451f 87bc 6ff0 76bc 850d 633d 2955 293d
00000180: 0352 573d e80b 883c 95e3 cb3c dc87 a6bb
00000190: 8ffa 8abd b063 14be 79ca 4fbc f39c ad3c
000001a0: 2c89 a83d 2435 f1bc f3cc e2bd 6db1 cfbc
000001b0: fee6 d43d 2143 b93d ebe2 aabd ac3d 863d
000001c0: 31c0 ad3d 9b85 893d 2a62 b93d ef8e 5e3c
000001d0: a3db ac3c 5a82 3c3d b9f2 8ebd f671 babd
000001e0: 00cb ac3c 23f8 1cbd 13d5 4f3b c7f4 61bd
000001f0: 255e e6bd 4ab2 99ba 25ed b6bb 5b78 173d
00000200: 1149 1a3d 455f a53c 9567 c3bc ebbf 163d
00000210: b83c dc3c d33c 633c ce9f ee3d 08c7 ffba
00000220: 78c3 953d 187d b73d f5cd 053e 72cd c23d
00000230: e714 4cbc 0149 a23d e0e7 59bc 5a74 c6bd
00000240: e16c 41bd 1c51 12bd 9330 27bd b3fa cdbd
00000250: d37f e9bb e021 62bd 7f1f 68bc 0f9d ed3c
00000260: 833d 373d 0199 5bbc 0fa7 4f3d 22e3 073d
00000270: 0db9 29bd 2ed3 923d d5cb 96bc ea3c ecbb
00000280: ecc7 5bbd 7a08 683d 5717 9939 9851 f83c
00000290: 1193 51bc d55c 283d 165c 3bbc aed1 75bd
000002a0: e483 843a 65cf 83bc 88c5 553b 1f4e b8bc
000002b0: 8271 9a3c 7bbd dd3c edca 7b3c 0a9c 58bd
000002c0: 1f1a cf3c 8259 f7ba 6014 6c3d c37c b13d
000002d0: 674b 40bd bc37 af3d d9e0 1dbd 7a73 823d
000002e0: 910d 3e3d 846f b73c 5289 35bd f41e b33c
000002f0: cdd1 f9bc d5c4 32bd 100c 783c c45d c23c
00000300: a0b0 cf3d 96f7 063d f9bd ad3d 2907 aa3c
00000310: 3c75 23bc e53e d7bb 4aac 853d 5b0a eebc
00000320: 03d6 0fba 75a3 88bd d94d 383d 5044 4e3c
00000330: 5a8d 4fbc 6391 553c b9cf 65bd 3d88 4abc
00000340: 17d8 d93c 05c2 debb 6674 3fbc 2bf9 85bc
00000350: ad27 b13d 0100 c03d 840a cd3d 3b58 5e3d
00000360: 8664 90bd 02f0 25bc f295 65bc 9e7c 80bd
00000370: 25e6 1c3d d4f8 22bd 4aed 80bc 39b7 46bc
00000380: 302e b23c b24d 40bd 2692 8dbd aae0 8a3d
00000390: e0cf 403d 4461 1d3d 92bd 2cbc b681 47bd
000003a0: cedf 143d 6d5e 44bd 4bff bf3b 2dcd 373c
000003b0: a7a7 643d 55cf 393b 7027 153c 714e 973d
000003c0: 0dbf 1fbd e889 43bc f297 24bd 4ee4 72bc
000003d0: d201 113c ac76 c6bc 9d92 13bd 2f79 c4bd
000003e0: 5039 d23a 6e10 47bd 5c66 3fbd a61b 243c
000003f0: fb41 5fbd 2791 393d a071 3c3d 2082 91bd
0.04935191 0.035508607 -0.061196294 0.04553559 0.013325149 -0.03708998 0.03051462 -0.054225914
0.07404034 -0.006887426 0.023413068 0.023596369 0.027027301 0.079092585 0.013621278 -0.041806057
-0.06546273 -0.008547108 -0.037838396 -0.008281971 -0.011954869 0.03678119 0.074699216 0.028013468
-0.025061842 -0.016090728 -0.084600545 0.009447551 -0.011946662 0.047018077 0.014291744 -0.067644924
0.021043979 0.045453135 0.04225227 -0.051362574 -0.04469341 0.008334036 -0.053532302 -0.065348394
-0.013238561 0.021502212 0.04432503 -0.07248226 -0.099131815 0.019426676 0.0077379504 0.07508627
-0.013638092 0.0017616323 -0.0401861 -0.049498137 -0.046792418 0.021718333 0.07791194 -0.100609474
-0.032790642 0.071104616 0.089148946 0.066358924 -0.01537587 0.06140387 0.078261286 0.046357643
0.079278916 0.013950444 0.010181899 0.0016091653 -0.08305108 -0.044147596 0.04852851 -0.011310699
-0.020403562 -0.08716255 -0.035804424 -0.017021248 -0.032611225 -0.029388357 0.01893481 0.0044495836
-0.034372486 -0.04139097 -0.04721469 0.059531957 -0.017127153 -0.013893346 -0.0102406945 -0.02243656
-0.05399871 -0.033156555 0.045409113 0.015463883 -0.016494403 -0.015071972 0.055432815 0.04134098
0.052568447 0.01660724 0.024888793 -0.0050821137 -0.067860715 -0.14491153 -0.012682551 0.021193003
0.082292885 -0.029444285 -0.11074247 -0.025353158 0.10395621 0.09046007 -0.083440624 0.06554732
0.08483923 0.06714936 0.090519264 0.013583883 0.021100825 0.04602275 -0.069798894 -0.091037676
0.021092892 -0.03832258 0.0031712695 -0.05516508 -0.112484254 -0.0011726108 -0.005582469 0.036980014
0.037667338 0.02018703 -0.023853103 0.03680412 0.026884422 0.013869482 0.11651574 -0.0019514272
0.07312673 0.089594066 0.13066848 0.09511842 -0.012456155 0.07924081 -0.013299912 -0.09690161
-0.047222976 -0.035721883 -0.04081781 -0.10057583 -0.0071258335 -0.055208087 -0.0141676655 0.029005555
0.044736397 -0.013403178 0.05069643 0.033175595 -0.041436244 0.071691856 -0.018407742 -0.00720941
-0.053657457 0.05664871 0.00029199824 0.030312344 -0.012791411 0.041104157 -0.011435529 -0.06001442
0.0010110107 -0.016090104 0.0032618959 -0.022498189 0.018852953 0.02706789 0.0153682055 -0.052883185
0.02528101 -0.001887128 0.05763662 0.086663745 -0.04694691 0.08555552 -0.03854451 0.06369682
0.046399657 0.022392042 -0.044320412 0.021865346 -0.030495549 -0.043644745 0.015139595 0.023726352
0.101411104 0.03295096 0.084835 0.020755367 -0.009976681 -0.006568777 0.06527002 -0.029057672
-0.00054869073 -0.06671802 0.044996116 0.012589529 -0.012667978 0.013035151 -0.056106303 -0.012361583
0.026592297 -0.0067980313 -0.011685466 -0.016354164 0.08650146 0.09375001 0.10011771 0.054283362
-0.07050423 -0.010128023 -0.0140128005 -0.06273769 0.03830542 -0.039788082 -0.015738148 -0.012128645
0.02175054 -0.046949096 -0.06912641 0.067811325 0.047073245 0.038422838 -0.010543244 -0.048707686
0.03634625 -0.047941614 0.0058592907 0.011218351 0.05582395 0.002835234 0.009103641 0.073880084
-0.03900056 -0.011934735 -0.04018397 -0.01482494 0.008850532 -0.024226509 -0.036028493 -0.095934264
0.0016038809 -0.048599653 -0.046728477 0.0100163575 -0.054506283 0.045304444 0.0460068 -0.071048975

conv2.bias f4 [20]
00000000: 131e fe3c d6bc 12bc 7efa 3f3d 4715 12bc
00000010: cba5 febb 848b f1bc 2ab0 0cbd dccf 4cbc
00000020: 0408 30bd 4e9f b3bc 3cb9 753b 7cda 5cbd
00000030: 0bb5 48bd 4493 813d 837c 1cbd f666 69bd
00000040: 4d88 a1bb a012 4cbd d158 8cbd 8a09 563c
0.0310202 -0.008956155 0.046869747 -0.008916206 -0.007771229 -0.029485472 -0.03434769 -0.012500729
-0.042976394 -0.021926548 0.0037494441 -0.0539193 -0.04900078 0.06326917 -0.03820468 -0.056982957
-0.0049295784 -0.04982245 -0.06852878 0.013063798

fc1.weight f4 [50, 320]
00000000: abce 27bd 91d4 04bd ff5e c03c 5be8 0e3b
00000010: 1d81 653d 09ef 50bd 9311 6a3c 2fcb 12bb
00000020: e7ff 2dbd 31e7 e03a 7aa3 7f3d 88c1 073d
00000030: cd73 05bd 09c7 56bd 9fa1 343d e929 123d
00000040: 32b1 67bd 880d 95bc 3269 f7bc 298b d53c
00000050: 593a 693c b05e 14bd 4cad 193d cb6e 07bc
00000060: de23 343d 31d2 84bd 1ce2 d43c 5afd f83c
00000070: ef9c e7bc 9019 20bd 4380 5a3d 59db 573d
00000080: bc2b c4bc 5745 ed39 fd65 50bd 611d 59bd
00000090: 4d64 1d3d 3fae 173d 9469 733d 7f99 5a3d
000000a0: b542 213d 31ec 2bbd aa1b e0bd e46d 2dbd
000000b0: e735 82bc c168 ffbd de9a 243c d5a1 6bbc
000000c0: 0586 b33c e321 a23d f950 053d 9c1a deb9
000000d0: 4eb9 aebc 2864 9abc c190 8ebd 0aee 473d
000000e0: 38f6 21bc e9cd dbbc 3224 b4bd cdbc 5ebd
000000f0: 064e 3cbd 8e12 38bc 882b a23c 058a a6bd
00000100: 611a 863d e88f 5d3d f447 4a3d abb1 9c3c
00000110: dfeb 1bbd 75c4 57bc 8e58 2fbc a4cc 813c
00000120: 1909 a3bc 3546 f5ba ff8a 523d 0b68 583d
00000130: a417 bb3c 65bb 843d ea08 c93c 8324 4dbc
00000140: 3108 55bd 4882 e93c 2d5d f13c 08f3 34bd
00000150: bdc5 1ebd 08d6 e4bb e645 41bd e37a ca3c
00000160: da2c a2bc eecb 0d3c eef2 223d 215b 2f3d
00000170: 8e5e 7cbc 0622 1a3d 6d56 9b3d a3cc 2fbb
00000180: 32f3 773c 24eb 2b3d f8e5 dd3c 543f 25bc
00000190: 898b 2f3d 45fa 73bd 1cd7 95bd f63d 0c3d
000001a0: b29e 82bc 86ad 51bd 6eda 5f3c 2a5b 173c
000001b0: a878 173b 8e0b c9bc d8ba 18bd 4b31 88bb
000001c0: 8ccc fc3c 01ba 1bbd a259 a33d 7013 d73c
000001d0: bd85 e13c c389 303b 721c 083d caba d23c
000001e0: e329 03bc 6406 6abd 2019 16be 4700 213d
000001f0: 910d 0ebd 27ed a1bc 2111 08bd 812c 103d
00000200: 195d 75bc 7a5c a23c 9c06 513d 4175 0cbd
00000210: 2b5e 063d dd25 163d 536a 4b3d 8c2f a23c
00000220: 048f 7e3c 5f78 03be 41fb 70bd 68ac 753d
00000230: f03d 74bd 0c87 813b a53a d6bc 44a0 92bb
00000240: 354c 15bd f2b9 79bd d498 913b aae2 7e3d
00000250: b3c6 2f3c 2903 27bd a16b abbc ae9f 83bd
00000260: 04b4 f83c 529f 9b3a 9912 863d 1e6a 953d
00000270: df19 c63c f12b 653b e733 843d f276 cf3c
00000280: f47e 47bd 1cbf 31bc b5a8 39bd 0a04 fc3c
00000290: 9176 09bd 132e c23c 7772 f23d 7bf6 973c
000002a0: 8cb7 70bd 2d8f 213c 01f2 2cbd 9870 2f3d
000002b0: f778 b33c 322b dc3b 8f27 903c 66d0 f8bc
000002c0: f6e0 1e3c 1f6a a6bd 3b4d 19bd 97b6 72bd
000002d0: ee40 45bc 29b2 b13c 9e6f 023d 3014 77bd
000002e0: a331 1f3d 6cfd 263c 93d8 063c b6de 2c3c
000002f0: 87ba 153d f75d 733d 5c44 733b e5fc 293d
00000300: 8df1 24bd 419a 0f3c 8d5f 9fbb e32c 303c
00000310: eb11 493c ce39 933d 7b40 6d3d f09f f83c
00000320: 9b4f 06bd 7e67 a7bd d138 29bd 78b8 27bc
00000330: 3d9a 2a3c 9cb2 06bd 322b 033b 9500 a3bc
00000340: 8426 adbc ec82 143d 942d d23c 9c18 ef3c
00000350: af74 a33c 2592 b9bd d82c b7bd 019a 05bd
00000360: fe21 88bd 25c5 dcbb f56c 543b 841c a7bc
00000370: 2fe0 efbd 9be6 9d3b e629 033d 5a49 e5bc
00000380: 0cd8 b03c 4c85 733d 83b5 30bd 1782 04bd
00000390: 9e96 b53b d441 a93c 9cfd c1bc 5e9b a23c
000003a0: ac63 a4bc c522 c43d 17e4 033b c0b8 51bc
000003b0: 5082 e63c 4a44 aa3d ff91 13bd 02ff a93b
000003c0: 34a9 943d 3ce7 f83c 7ef7 a7bd 8083 82bd
000003d0: f906 22bc 1ecf e93c 77e5 a73c 237a cd3d
000003e0: 0d1c 5ebc 46c8 1fbd bf4a 8a3b cb1d 07bc
000003f0: a6e7 813b 45e7 9abc f3c1 e9bd 1c69 adbd
-0.04096858 -0.03242928 0.023482798 0.0021805975 0.056031335 -0.05100921 0.014286417 -0.002239894
-0.042480376 0.0017158744 0.062411763 0.03314355 -0.03258114 -0.05243591 0.044099446 0.0356845
-0.05656547 -0.018194929 -0.030201528 0.026067333 0.014235103 -0.036223114 0.037518784 -0.008266161
0.043979518 -0.06485403 0.025986724 0.030394245 -0.028273074 -0.03908688 0.053344976 0.05269942
-0.023946635 0.00045255825 -0.050878514 -0.053006534 0.038425732 0.03703141 0.05942686 0.05336904
0.039370257 -0.041973297 -0.109427765 -0.042341128 -0.015894843 -0.12471152 0.010046689 -0.0143818455
0.021914491 0.0791662 0.032547925 -0.00042362965 -0.021328595 -0.018846586 -0.06961203 0.048810996
-0.009885363 -0.026831584 -0.08795966 -0.054379273 -0.045972846 -0.0112348925 0.019796148 -0.08131794
0.06548 0.054092318 0.049385026 0.019127687 -0.03806674 -0.013169398 -0.010702265 0.01584465
-0.019901799 -0.001871294 0.05140209 0.052833598 0.022838421 0.06481055 0.024540383 -0.012520912
-0.052009765 0.028504506 0.029463375 -0.044177085 -0.038762797 -0.0069835223 -0.0471858 0.0247168
-0.019796778 0.008654578 0.039782457 0.042811517 -0.015403403 0.037630104 0.07584844 -0.0026824854
0.015133666 0.041972294 0.027087197 -0.010085899 0.04285768 -0.059564847 -0.073164195 0.034238778
-0.015944812 -0.051190875 0.013662918 0.009238044 0.0023112688 -0.024541643 -0.037287563 -0.004156267
0.030859254 -0.038019184 0.079760805 0.026254386 0.027529592 0.002693758 0.033230253 0.025723834
-0.008005592 -0.057135 -0.14658022 0.039306905 -0.034680907 -0.019766403 -0.03321946 0.035198692
-0.0149758095 0.019819487 0.051031694 -0.03429151 0.03280465 0.036657203 0.049661946 0.019798063
0.015537027 -0.12838887 -0.058833364 0.059978873 -0.05962938 0.0039528664 -0.02615101 -0.0044746716
-0.03644963 -0.060968347 0.0044432674 0.062227882 0.010728526 -0.040774498 -0.020925345 -0.06426941
0.030359276 0.0011873043 0.06546516 0.07295631 0.024182258 0.0034968818 0.06455212 0.025325272
-0.048705056 -0.010848787 -0.045326907 0.030763645 -0.03356034 0.02370361 0.11838239 0.018550148
-0.058768794 0.009860796 -0.04222298 0.042831987 0.021908266 0.0067190165 0.017596988 -0.03037281
0.00969719 -0.0812571 -0.03742717 -0.059256162 -0.012039406 0.021691399 0.031844728 -0.060321987
0.038865697 0.010192256 0.008230346 0.010551145 0.03655484 0.059415784 0.0037119603 0.041500945
-0.040269423 0.008764804 -0.0048636855 0.010752889 0.012272338 0.0718876 0.05792282 0.030349702
-0.03279076 -0.081740364 -0.04131395 -0.010236852 0.01041275 -0.03288518 0.002001476 -0.019897738
-0.02113653 0.03625767 0.025656499 0.02918654 0.0199531 -0.09061078 -0.089441 -0.032617573
-0.066471085 -0.0067373686 0.0032413576 -0.02039934 -0.117126815 0.00481875 0.03202238 -0.027989078
0.021587394 0.059453294 -0.043141853 -0.032350626 0.0055416366 0.020661272 -0.0236805 0.019849475
-0.020067059 0.09576944 0.0020124966 -0.0128003955 0.02813831 0.08313806 -0.036027905 0.00518787
0.072588354 0.030383699 -0.08201502 -0.06372738 -0.009889358 0.028541144 0.02049516 0.10033061
-0.0135564925 -0.039009355 0.004220336 -0.008246849 0.003964382 -0.018909106 -0.11413946 -0.08467314

fc1.bias f4 [50]
00000000: 9e2f 543d 5a20 1e3d c297 fabb 937c 0b3c
00000010: 9643 eb3c 02d8 a2bc b743 82bb 9b76 29bd
00000020: 698e ea3a 9b12 f73b 5370 ca3c 718c 393d
00000030: 7f8f 9ebc cff2 e5bb 8d12 04bc f7d7 44bd
00000040: 27d1 6b3d a4e6 3c3c 2c6a 663d bc9e 27bd
00000050: 1803 813b 99ec bb3c e54b c1bc eac4 293d
00000060: 6234 2f3d f6d2 e4b9 349b 753d 4a48 b6bc
00000070: a2a1 36bd 23c8 06bd 40a9 05bd f991 453d
00000080: e6fa c03b 04e5 30bd 90ae 2dbd 1262 6a3d
00000090: 9561 14bc 899a 6fbd 95d8 093d 3b9e f7bc
000000a0: 71bf e43a 30f2 843d 0b04 f53c cbaa 18bd
000000b0: d860 b2bc 8af0 c33b 82c1 61bd 4f5d 4abd
000000c0: 0fbf 5e3d 03bf da3c
0.051803224 0.03860507 -0.0076474855 0.0085135875 0.02871875 -0.019878391 -0.0039753574 -0.041372877
0.0017895225 0.0075400597 0.024711763 0.04529995 -0.019355534 -0.0070174704 -0.0080610635 -0.048057523
0.05757251 0.011529598 0.056253597 -0.040922865 0.0039371364 0.022939967 -0.02359576 0.041447558
0.042774566 -0.00043644727 0.059962466 -0.022251267 -0.04458774 -0.03290571 -0.032632113 0.048234913
0.0058892844 -0.043187156 -0.042402804 0.057222433 -0.0090564685 -0.058496986 0.033653814 -0.030226817
0.0017452074 0.06491506 0.029909154 -0.037272256 -0.021774694 0.005979602 -0.055116184 -0.049405392
0.054381426 0.02670241

fc2.weight f4 [10, 50]
00000000: da83 8e3e f95d f5bd 4131 3f3e 138f 8abd
00000010: a94b 1fbe 560c 32bd d5da 5abe f711 ddbd
00000020: cc2b 3abd 176c bfbd 8b73 83be 13ef 22be
00000030: d9f4 cdbd a4d8 e43d dcd1 823e db80 253e
00000040: 3cb0 2a3e 202e 5e3e bb78 58bc 7c69 ca3c
00000050: 21f6 fb3c 2238 36be df4b a9bd 5446 63be
00000060: 302b 33bd f893 46be c743 33be f785 78be
00000070: 5926 f43d 5a27 623e 2d5f 31be effa b8bd
00000080: e1f7 813e c8f3 273e bb23 25be 59b9 503e
00000090: 2587 ba3e cc90 613d 4707 f2bd 8e9c 23be
000000a0: 5787 17be 75d2 50be 0597 973b 99ef b1bd
000000b0: 0dc9 3fbd 5ecc a83e 560e b2bd 5601 9bbd
000000c0: 3edb f03d cc8b 453e 4ac9 153d 573e 6c3e
000000d0: b2a8 6ebe f5f4 203e 953f 7c3e 6c1c c53d
000000e0: 0b01 67be 76b5 ca3b 74df 4dbd a88e 20be
000000f0: cd1e 263e 064f 5f3e e9b5 ecbd 53d9 4ebe
00000100: b6a5 babd 059a 84be 8478 d73d 6323 4a3c
00000110: 8c38 f8bd 8011 6e3d cd6e 13be 5f4c 5e3d
00000120: b33f 413e 0c30 8d3e 2706 7f3e 14e5 90be
00000130: 1d98 65be d1fd 803e 1f72 923d e61a 2b3d
00000140: 8fea 513e 4b2d 67bd f31d 79be 4185 43be
00000150: e21e 2c3e 48ca f6bb 6a82 eebd 7825 9cbd
00000160: 3ae0 2a3e ea7e 1b3e e182 efbd 1b59 093e
00000170: 9f08 a6bd c41d 53be 8e09 b13e 444e e4bd
00000180: f6f1 0dbe a750 433e 1c62 66be eb39 46bc
00000190: 9d24 4ebc b18f a4bd e4e8 09be 9412 25be
000001a0: 1a6e a2bd 12eb d63d 75f9 733d aab6 45bd
000001b0: 3b76 c13e ce11 9b3d da9c d6bd 7f85 fc3d
000001c0: 889e 033d 1012 103e 7090 733e b735 4c3e
000001d0: 8d32 0e3d 5e1c ae3c eb5c 01be 0b93 06be
000001e0: 51d2 08be 32b7 1f3e e1c3 8cbd 4ee6 b7bd
000001f0: 4470 d3bd 429d 0cbe bb93 07be 548b 4e3d
00000200: c944 52be 4a94 73bd 6a67 8ebd 8ecf a6bd
00000210: 4774 13bd 7605 1cbe 3a45 443e 1a4f 653e
00000220: 4521 6cbd 7875 0abe 95e1 643e 0024 ea3d
00000230: ce14 2f3e a142 443e b1fa 53bd d0e4 bdbd
00000240: bf54 27bd f880 923d 52ec d43d 21a4 3e3e
00000250: c9e5 40be 8554 7d3e 0e7a 69bd cc7f 833e
00000260: 9d5e 003e 399f 1bbe 9396 993c bf44 41be
00000270: 93b9 8e3d b67b d6bc 8071 86bd a489 35bc
00000280: f78c e8bd 0906 be3e fc90 19be a424 823d
00000290: fb83 d13c d428 dbbd 51ff 40be 56e9 fabd
000002a0: 1307 61be 7dd0 1e3e 551f 7d3e c14b 8c3e
000002b0: ee17 273d e453 aabd 13e1 2ebe 37f6 3bbe
000002c0: f43d 003e 7c5b febd 49bb 173c 9377 00be
000002d0: 1956 6fbe a6ee 4d3e 589e 86bd bdff 2a3e
000002e0: dec1 3b3e 24c9 b53d a890 a4bb 5479 c7bb
000002f0: 65c6 79be 7d46 ccbc 6ff1 5d3e d491 3e3e
00000300: 8393 44be 5d42 59bb 1a32 34bc b26c 683d
00000310: 3bb5 1abe 5670 bbbd 9560 1fbe 8cbf 6e3e
00000320: 613f babd 62e5 8cbd 9c37 ddbc c767 373e
00000330: 5997 24bd c359 bc3e b391 443e d2f1 9cbd
00000340: 7b33 4ebd c01d aebd 7377 673e eda6 aeba
00000350: f91b 9b3e dd7b 51be 4598 b8bc 265e 5c3e
00000360: 6ea2 1bbe 7430 fcbd a5c3 073b 57b2 46be
00000370: c457 21be 50f8 23be 20b5 a33e 6de7 823e
00000380: 9153 2ebc c8ce 603e 86a8 623d 3871 9fbd
00000390: c466 01bd 2f44 e6bd e468 563c 342c 4c3e
000003a0: 5cab 3abe ad53 87be 8f1b 37be 2c47 dfbd
000003b0: 69b2 94bc 6b70 ba3e 0efb bb3d 171f 9bbd
000003c0: 4e2e c1bd 5ec9 17be 965b 8a3e 74de 4a3d
000003d0: cada 06be e14f 533d 6975 e1bd cda6 32be
000003e0: ad94 443e daf1 36be 755f 8c3c 4f3b a8bd
000003f0: cdd7 c13c 87c2 13be f2cc 6cbd c08d 6c3c
0.2783497 -0.119808145 0.18671133 -0.067655705 -0.15556206 -0.043468796 -0.2137254 -0.10794442
-0.045451924 -0.093467884 -0.2567409 -0.15911512 -0.100564666 0.111741334 0.25550735 0.16162436
0.1666879 0.21697283 -0.013212378 0.024708502 0.030757012 -0.1779485 -0.082664244 -0.22194797
-0.04374236 -0.19392383 -0.17506324 -0.24269854 0.11921377 0.22085324 -0.17321463 -0.09032237
0.2538443 0.16401589 -0.16126911 0.20383205 0.36431232 0.05506973 -0.11817794 -0.1597769
-0.14797722 -0.20392783 0.004626157 -0.08688278 -0.046822596 0.3296842 -0.086941406 -0.07568614
0.11760567 0.1929161 0.036568917 0.23070656 -0.2330654 0.15718444 0.2463363 0.09624562
-0.22558992 0.0061861826 -0.05026193 -0.15679419 0.16222687 0.21807489 -0.11558134 -0.2020009
-0.09113638 -0.25898758 0.105210334 0.012337538 -0.121201605 0.058122158 -0.14397736 0.054272052
0.18871956 0.2757572 0.2490469 -0.28299773 -0.22421308 0.25193647 0.07150673 0.0417737
0.20499633 -0.05643968 -0.24327831 -0.19093801 0.16808656 -0.007531438 -0.11645968 -0.07624334
0.16687098 0.15185133 -0.11694885 0.13412897 -0.08107113 -0.20616823 0.34577602 -0.111477405
-0.13861832 0.19073735 -0.22498363 -0.01209877 -0.0125819715 -0.080352195 -0.13467747 -0.16120368
-0.079311565 0.10494055 0.059564073 -0.048269905 0.37785515 0.07571755 -0.10479136 0.1233015
0.03213361 0.1406939 0.23785567 0.19942366 0.034716178 0.02125376 -0.12633102 -0.1314203
-0.1336148 0.15597227 -0.068732984 -0.08979474 -0.10324147 -0.13731864 -0.13239948 0.050425842
-0.20534052 -0.05946759 -0.069533184 -0.08145057 -0.035999563 -0.15236458 0.19167033 0.22393456
-0.057648916 -0.13521373 0.22351678 0.11432648 0.1709778 0.19166042 -0.05175275 -0.09272158
-0.040852305 0.07153505 0.10396637 0.18617298 -0.18837656 0.24739273 -0.057001166 0.2568344
0.12536092 -0.15197457 0.018748557 -0.18873881 0.06968989 -0.026182037 -0.06564617 -0.011080179
-0.11355012 0.3711398 -0.14996713 0.06354645 0.025575629 -0.10701147 -0.18847395 -0.122515365
-0.21975355 0.1550922 0.24718983 0.27401546 0.040794306 -0.08316782 -0.17078047 -0.18355642
0.12523633 -0.12419793 0.009260961 -0.12545614 -0.23372687 0.20110568 -0.065731704 0.16699119
0.18335673 0.08876255 -0.005022127 -0.0060874615 -0.24392088 -0.024935955 0.21674131 0.18610317
-0.19196896 -0.0033151128 -0.010998273 0.056744285 -0.15108196 -0.09152286 -0.15564187 0.23315257
-0.0909412 -0.06879689 -0.027004056 0.17910682 -0.0401834 0.36787233 0.19196205 -0.07663311
-0.050342064 -0.08501768 0.2260416 -0.0013324894 0.3029478 -0.20457406 -0.022533545 0.2152029
-0.15198681 -0.12313929 0.0020715978 -0.19403969 -0.15756136 -0.16012692 0.31974125 0.2556719
-0.010640041 0.21953881 0.055336498 -0.07785267 -0.031592146 -0.11243474 0.013086531 0.19938737
-0.18229431 -0.26431027 -0.17881607 -0.10902247 -0.018151479 0.36413893 0.09178744 -0.07574289
-0.0943266 -0.14822909 0.27023 0.049528554 -0.13169399 0.05158985 -0.11008722 -0.17446442
0.1919734 -0.17865697 0.017135361 -0.08214437 0.023662472 -0.14429675 -0.05781264 0.014438093

fc2.bias f4 [10]
00000000: c88c 90bd 1c9b 063e 27e9 b7bd 8f9f 2abe
00000010: 4d2b d93c 852b 123d 8f8a b5bd 919c bdbd
00000020: d528 cfbc b1d9 293d
-0.07058102 0.13145107 -0.08980017 -0.1666243 0.026509905 0.035686035 -0.088643186 -0.09258378
-0.025288025 0.041467372
